experiments/model_16_50_2026-01-17_9403/model.pt (torch, 45743 bytes, 18 tensors)

encoder.graph_embed.GCN_in.A f4 [9, 9]
00000000: 57ae c93e d9ae 8a3e 36fd 79bf a075 a9bf
00000010: 79e2 01bf 8fa2 15bf 62e3 8e3e 43a9 223f
00000020: 8e73 bc3f f869 a2be 7e37 e0be f041 dcbf
00000030: a309 98be 4a67 1bbe 2538 f43d 6948 153e
00000040: 1f9f 4b3f 40a1 7a3f 0d15 203f 55c1 a2bf
00000050: daa3 033f 2e05 333e 636d 8abf eecd ca3e
00000060: 5a12 8dbe 1c35 70be b75f ecbd 343c 90bf
00000070: 73f5 6dbf e142 94bf 3b17 58be e221 11bf
00000080: 1efa d63d ce3b 0cbf 3643 5c3e 6322 acbe
00000090: a823 aa3f 8a8e a03f a82d f7be bae2 24bf
000000a0: c0e4 313f 501b 5fbf 17f1 77bf 64b4 babe
000000b0: 6e05 833f 23ce 8abd d55f b63f dea2 e43f
000000c0: 0db8 3e3f 1398 bf3f 89f4 d53f 8d75 a13f
000000d0: 2328 d6bf c359 0740 0c2f 06bf eaf3 76be
000000e0: 3fc2 8dbd b159 b73e cdee a73f 85a3 b9be
000000f0: a223 9e3f b9a4 0cbf c357 67bf 7664 c43e
00000100: cdad f03e f494 c3be 2dbb 1b3e e487 b83e
00000110: 9904 1340 3cad 61bc 771a afbf fca9 6e3e
00000120: c86f 033f 84a8 323f 8a26 903e 1336 57bd
00000130: 9972 b53e 9ca7 86bf e310 a9bf b46a f5bf
00000140: 83d8 993e
0.39390823 0.27086523 -0.97651994 -1.3239021 -0.50736195 -0.5845117 0.27907854 0.6353952
1.4722764 -0.31721473 -0.43792337 -1.7207623 -0.29694852 -0.1517612 0.11924771 0.14578404
0.79539675 0.979023 0.6253212 -1.271525 0.5142189 0.17482445 -1.0814632 0.39610237
-0.27553064 -0.2345776 -0.11541694 -1.1268373 -0.9295265 -1.158291 -0.21102612 -0.56692326
0.10496925 -0.54778755 0.21510014 -0.33619985 1.3292131 1.25435 -0.4827702 -0.6440846
0.6948967 -0.8715105 -0.9685225 -0.36465752 1.0236032 -0.06777599 1.4247996 1.7862203
0.7449959 1.4968284 1.6715251 1.2613999 -1.6730999 2.1148536 -0.5241554 -0.24116483
-0.06921815 0.35810617 1.3119751 -0.36257568 1.2354624 -0.54938847 -0.9036829 0.38357896
0.470076 -0.3819958 0.1520812 0.36041176 2.2971556 -0.013774212 -1.3679951 0.23307031
0.5134244 0.69788384 0.28154403 -0.052541804 0.35438994 -1.05199 -1.3208278 -1.9173188
0.30047998

encoder.graph_embed.GCN_in.linear.weight f4 [16, 16]
00000000: 64a8 acbd ec3b dbbd 751b 38be 105f e83d
00000010: 5568 7f3e ea5f a13d b13b a2bd 2c88 1b3e
00000020: 44d5 603e 832f 453e f5ee a1bc 5299 953e
00000030: e2c4 3c3e 734d fd3b 7c12 2a3e c42c 41be
00000040: d337 1cbe d699 153e 40ce 373e 4945 25bd
00000050: e81d 1ebe 16df 4f3d c942 53be bf9c 53be
00000060: 0c75 24be 5d29 8cbe 36c6 a5bd 289b d9bd
00000070: c2a4 0c3e c86c efbd 32b7 f7bd 5fb2 5abb
00000080: 6cc8 04be b0ad cd3d 71d6 97bc afa3 5dbe
00000090: 9b20 47be efdc f03d 66d8 183e 4a2b 65be
000000a0: 9232 efbc 2236 f83d 3877 66bd 9f7c 983e
000000b0: 40da 273e 33bc 3f3d 1c36 603e 3a5c ba3d
000000c0: ee38 353d feb3 14bd 0d41 fc3d 6965 c0bd
000000d0: b573 443e 1f32 353e 1d88 fabd f45b 24be
000000e0: 76cc 9bbd 396b 003c 48de 39be 4a5a c13d
000000f0: faa0 813d b7a0 dcbd 2ff8 febd 0e3d 82be
00000100: a37a 413e 9084 87bd c383 b8bc 591c ed3d
00000110: 9f99 55be cfd0 b0bd 2cda c83c acd8 953e
00000120: 32a7 0cbe 59d6 fbbd 8ad1 f43c d181 6d3e
00000130: 111d 3a3d c42d 85be 8f1a ddbc 08a1 58be
00000140: c4ea 30bd ccbf 223d 2275 053e cc5d 383e
00000150: 2f01 8fbe 0f09 863e 6657 10be 55ca 49be
00000160: 0c09 31be d00a b23d a731 02ba 58da 1f3e
00000170: 76ae a43d 0842 abbc 3f5d 21bd 503e 2e3c
00000180: 5233 0b3e 1dc9 f83c fbc8 20be 6d94 40be
00000190: b297 9cbd aa70 1dbe faba 013e 6004 ffbd
000001a0: 2786 563c 659b ab3b c37f 5bbd cce7 06be
000001b0: 1c16 84be 31a7 b0bc 62ac 143e b8e1 8f3e
000001c0: 8a1b 8e3d 3471 b7bc b44f 41be ea1a 363e
000001d0: 107f c33d e436 c53d d1f5 223e 7662 4ebe
000001e0: d4ce 06be 46f0 32bd bede 6fbe f625 6d3d
000001f0: 1349 cdbc 2a3e 2fbd 4106 1f3d 5acb 8dbd
00000200: d405 b4bc 8acc ea3d 32ab 3a3d dda5 18be
00000210: 8d15 abbd 94a2 46bd d4b9 803d a813 08be
00000220: 0902 263d 06ca 42be 9c17 c3bd d5ad 6ebe
00000230: 4803 a83d 5e04 87bd 3e7c 4fbd ad56 d4bd
00000240: 9401 89be f7f7 703d cd5d 3a3e 9c54 eb3d
00000250: 1008 47bd 9151 08bd 6e7a 673e 92cb 693d
00000260: c807 e1bc f8ce 1ebd 30cd 07be 3afa 4b3e
00000270: b69e 03be 5faf 4abe 7645 15be de5d 493e
00000280: 61a2 95bd a2a8 893e d675 67bd 8516 0bbe
00000290: cb50 1ebd 0667 47be e68c 143e 0509 123e
000002a0: e5e2 92bc 831b 483e 0094 993e 9d0b afbd
000002b0: 5109 8e3d 3476 21be 3a64 2f3c 2490 263e
000002c0: 4b47 af3c d096 693e 5e3b 7f3e ac80 e4bc
000002d0: 73aa 703e 666f 79be 4a05 30be 0bb1 9ebd
000002e0: fd3d 413e 0835 6f3d 5a62 11be faf1 523d
000002f0: a6fd 2fbe c5e1 893c b2ea 09be c19a d2bc
00000300: e7e3 cf3d 16ca fdbd a243 13be 04f4 02be
00000310: 141a 78bd 7723 813e 4478 73be 6a49 0e3e
00000320: 6b8e 123c f772 393e 81f0 813d 8686 f7bc
00000330: 972c 8c3d 5d04 3abc b0ec a23b cbf7 1b3e
00000340: dfc0 1d3e 1f10 17bb f5dc d83d 9852 8dbd
00000350: a6a9 543e 9de4 7cbe 5671 b93c c369 fcbd
00000360: aa1a f3bc f6b1 17bd 518c a1bd 9650 29bd
00000370: 645c 603e 2fe8 d5b9 77a8 1a3e 03d5 49be
00000380: a1a2 a8bd b0c7 9e3b 288f 1c3e 9c37 373d
00000390: e8b8 253e 990c 5c3d c588 723e 6112 503e
000003a0: b59f 4f3e 8eca 4dbe e21d 8b3c f8a3 29be
000003b0: da68 ecbc a0ed 533e 8991 703e 31f5 46bc
000003c0: 890b c13d f745 39be 7972 0c3e a39c 90bd
000003d0: 9313 693d f759 08bc 72b9 f4bd 4acc 263c
000003e0: 3355 ad3b 7630 d23d d314 2cbd ca01 3e3e
000003f0: ba10 483b d7a4 c83d fef3 1b3c 6faf 123d
-0.084305555 -0.107047886 -0.17979224 0.11346257 0.24942143 0.07879622 -0.079215415 0.15188664
0.21956354 0.19256406 -0.019767264 0.29218537 0.1843448 0.00773018 0.16608614 -0.18864733
-0.1525567 0.14609465 0.17949772 -0.04034928 -0.15441096 0.05074986 -0.20630945 -0.20665263
-0.16060275 -0.27375308 -0.08094446 -0.10625297 0.13734725 -0.1169067 -0.120954886 -0.0033370478
-0.1296708 0.10042894 -0.01853487 -0.21644472 -0.19446032 0.1176089 0.149263 -0.22379795
-0.029198918 0.121197 -0.05626604 0.29782578 0.1639185 0.04681034 0.21895641 0.09099622
0.044243746 -0.036304466 0.12317095 -0.093943425 0.19184764 0.17694901 -0.12232993 -0.16050702
-0.07607357 0.007838064 -0.181512 0.094410494 0.06329532 -0.107728414 -0.12449681 -0.25437206
0.18894438 -0.06617081 -0.022523766 0.115776725 -0.20859383 -0.08633577 0.024518095 0.2926687
-0.13735655 -0.12296743 0.029885072 0.23194052 0.045437876 -0.2601148 -0.026990203 -0.21155179
-0.04319264 0.039733693 0.13032964 0.1800453 -0.2793059 0.26178786 -0.1409584 -0.1970609
-0.17288607 0.086934686 -0.0004966505 0.15610635 0.08041088 -0.02090551 -0.039395567 0.010634974
0.13593796 0.030369336 -0.15701668 -0.1880662 -0.07646121 -0.15375009 0.12668982 -0.12452006
0.013093508 0.0052370303 -0.05358864 -0.13174361 -0.25798118 -0.021564098 0.14518884 0.28101897
0.069388464 -0.022392847 -0.1887806 0.17783704 0.095457196 0.0962961 0.15914084 -0.20154747
-0.13164836 -0.043686174 -0.23424813 0.05789753 -0.025059259 -0.042783894 0.038824324 -0.06923552
-0.021975435 0.11464794 0.04557342 -0.14907022 -0.0835372 -0.04849489 0.06285444 -0.13288748
0.040529285 -0.19022378 -0.095259875 -0.23308499 0.08203751 -0.0659263 -0.050655596 -0.103680946
-0.26759017 0.058830228 0.18199845 0.11490747 -0.048591673 -0.033280913 0.22605297 0.057078905
-0.02746953 -0.0387716 -0.13261867 0.19919673 -0.12853512 -0.19793461 -0.14577278 0.19664714
-0.07306362 0.2688647 -0.05650886 -0.1358281 -0.03865127 -0.19472894 0.14506873 0.14261253
-0.017930457 0.19541745 0.29995728 -0.08547137 0.06935371 -0.15767747 0.010705048 0.16265923
0.0213963 0.22811437 0.2492499 -0.027893387 0.23502521 -0.24358901 -0.17189518 -0.07748612
0.18871303 0.058400184 -0.14197674 0.051500298 -0.17186603 0.016831288 -0.13468435 -0.025708558
0.10150891 -0.123920605 -0.14381269 -0.12788397 -0.060571745 0.2522237 -0.23776346 0.13895193
0.008945088 0.18110262 0.063447006 -0.030215513 0.06844442 -0.011353579 0.004972063 0.15231244
0.15405606 -0.002305038 0.10589019 -0.06900519 0.2076784 -0.24696584 0.02263705 -0.1232486
-0.0296758 -0.03703495 -0.07888091 -0.04133662 0.21910244 -0.00040799516 0.15103327 -0.19710164
-0.08234144 0.004845582 0.15288985 0.044730768 0.16183817 0.05372295 0.23684986 0.20319511
0.20275767 -0.200968 0.016982023 -0.16566455 -0.02885859 0.20696115 0.23493017 -0.012143419
0.09426028 -0.18093096 0.13715543 -0.07061126 0.056903433 -0.008322231 -0.119494334 0.010180542
0.0052896976 0.102631494 -0.042012047 0.1855537 0.0030527548 0.09797066 0.0095186215 0.035811838

encoder.graph_embed.GCN_in.linear.bias f4 [16]
00000000: ab81 b33d 15ab 7f3d 8659 84bd 6bdf 6ebd
00000010: 24be 05be 9990 073d d27d 58be 6b7a a03d
00000020: a8e1 3d3d 53b9 61be 5f71 f6bd dcff 3e3d
00000030: 8317 063e f7e6 bebd 9c7f f23b 6427 ddbd
0.087649666 0.062419016 -0.06462388 -0.058318537 -0.13060814 0.033096883 -0.21141747 0.078358494
0.04635778 -0.22043352 -0.120333426 0.046630725 0.13094907 -0.09321397 0.007400466 -0.10798529

encoder.graph_embed.bn.weight f4 [16]
00000000: b1d3 6f3f 6cd0 833f adf9 7c3f 2c0c 863f
00000010: 0f07 6a3f 8d37 703f 0796 683f c141 833f
00000020: eccf 873f 4fef 693f e7d3 803f 048d 723f
00000030: 34e7 823f 3003 7d3f 1bdd 703f f4c7 813f
0.9368239 1.029798 0.98818475 1.0472465 0.9141702 0.93834764 0.90853924 1.0254441
1.0610328 0.9138078 1.0064667 0.9474642 1.0226808 0.9883299 0.9408738 1.0139146

encoder.graph_embed.bn.bias f4 [16]
00000000: 9867 87bd f82d 42bb a0bc d4bc a477 4dbd
00000010: 3fed 4a3d 044d 14bc 91ac 463d c9dc f53c
00000020: 06a7 363c 8f16 f23c 15fd 36bd bcaf 2ebc
00000030: 18c8 af3a 77d0 073c 8dc9 aebc 2833 113d
-0.06611556 -0.002962945 -0.02596885 -0.050162926 0.04954266 -0.009051565 0.048504416 0.030012505
0.01114822 0.029551772 -0.04467495 -0.0106620155 0.0013411073 0.008289448 -0.021336341 0.035449177

encoder.graph_embed.bn.running_mean f4 [16]
00000000: 61fa 943e 5fcd e83c d9c8 9fbc 34d8 e53d
00000010: f190 3d3e 502e 523d 053f 11bc ed97 c33d
00000020: 96fb 0a3c c66a c5bc e7ae 8bbc 6681 e73d
00000030: f67a 8d3d 3bf6 64bb 8e2a cd3d 9a32 9b3b
0.29097274 0.028418241 -0.019504951 0.11222878 0.18512322 0.0513137 -0.008865123 0.09550462
0.008482834 -0.024098765 -0.017051173 0.11303978 0.069082186 -0.0034936804 0.10017882 0.004736257

encoder.graph_embed.bn.running_var f4 [16]
00000000: c69d 403e 4f03 523d 26dc ff3c 315c f63d
00000010: 34e5 2e3e 9078 b43c 54ff 363d 63f7 3c3d
00000020: 5d2b f13c 67dd e53c 17b8 163d 8c03 443d
00000030: eb01 e93c 3d68 ad3c b746 aa3d bd00 d53c
0.18810186 0.051272687 0.031232905 0.12029303 0.17079622 0.022030145 0.044677094 0.046134364
0.029439623 0.028059674 0.036796656 0.047854945 0.028443297 0.021167869 0.08314269 0.026001329

encoder.pos_enc.pe f4 [500, 16]
00000000: 0000 0000 0000 803f 0000 0000 0000 803f
00000010: 0000 0000 0000 803f 0000 0000 0000 803f
00000020: 0000 0000 0000 803f 0000 0000 0000 803f
00000030: 0000 0000 0000 803f 0000 0000 0000 803f
00000040: a46a 573f 4151 0a3f 3e39 9f3e 6b4e 733f
00000050: 7675 cc3d 98b8 7e3f 5b81 013d 3cdf 7f3f
00000060: 57d6 233c b9fc 7f3f 1c3e 4f3b acff 7f3f
00000070: 6d12 833a f8ff 7f3f 61cb a539 ffff 7f3f
00000080: b7c7 683f 3311 d5be 1b54 173f ec7b 4e3f
00000090: f86f 4b3e a5e5 7a3f c870 813d f97c 7f3f
000000a0: 3ed4 a33c e5f2 7f3f d83d cf3b b1fe 7f3f
000000b0: 6812 033b dfff 7f3f 60cb 253a fdff 7f3f
000000c0: c381 103e 2670 7dbf c209 503f 582f 153f
000000d0: 6c4e 973e ef90 743f c0ff c13d 4fd9 7e3f
000000e0: 1fb9 f53c 83e2 7f3f 0d6e 1b3c 0dfd 7f3f
000000f0: 929b 443b b5ff 7f3f 10b1 783a f9ff 7f3f
00000100: cfbd 41bf 3055 27bf de1d 743f b12e 9a3e
00000110: d761 c73e a7ca 6b3f 882e 013e 69f4 7d3f
00000120: dbcb 233d 94cb 7f3f c93c 4f3c c2fa 7f3f
00000130: 5712 833b 7aff 7f3f 5ecb a53a f3ff 7f3f
00000140: 107c 75bf 2c3c 913e 7ffc 7f3f e972 29bc
00000150: 4377 f53e 40a9 603f 1d3c 213e 81ce 7c3f
00000160: f4b6 4c3d 19ae 7f3f 7e85 813c cff7 7f3f
00000170: ddd6 a33b 2eff 7f3f 333e cf3a ebff 7f3f
00000180: 8c0f 8fbe b8cd 753f 4e78 723f 6d3f a4be
00000190: 688c 103f 3249 533f 6e20 413e e367 7b3f
000001a0: d19c 753d 128a 7f3f 436c 9b3c 34f4 7f3f
000001b0: 589b c43b d2fe 7f3f 08b1 f83a e2ff 7f3f
000001c0: 4630 283f bdff 403f 6ee8 4c3f bc74 19bf
000001d0: 72eb 243f b3cc 433f 50d3 603e eac0 793f
000001e0: 323e 8f3d 815f 7f3f a252 b53c f2ef 7f3f
000001f0: c55f e53b 65fe 7f3f ed11 113b d7ff 7f3f
00000200: 9546 7d3f f6fd 14be 7e06 133f e591 51bf
00000210: a5a4 373f 5f5b 323f 5126 803e 02da 773f
00000220: 50aa a33d 652e 7f3f 8a38 cf3c 08eb 7f3f
00000230: 1212 033c e7fd 7f3f 55cb 253b caff 7f3f
00000240: 3201 d33e d53f 69bf ee1f 953e a2e6 74bf
00000250: 1c88 483f d521 1f3f 2dc2 8f3e a9b3 753f
00000260: 3e12 b83d c2f6 7e3f ea1d e93c 76e5 7f3f
00000270: 3a74 133c 59fd 7f3f bc84 3a3b bcff 7f3f
00000280: f844 0bbf 64cd 56bf 9770 a9bc fbf1 7fbf
00000290: a46a 573f 4151 0a3f 3d39 9f3e 6b4e 733f
000002a0: 7675 cc3d 98b8 7e3f 5981 013d 3cdf 7f3f
000002b0: 57d6 233c b9fc 7f3f 223e 4f3b acff 7f3f
000002c0: 5cff 7fbf 7205 913b 1f41 a9be 8d9b 71bf
000002d0: 2a26 643f c33d e83e 8b87 ae3e e4aa 703f
000002e0: 72d3 e03d e873 7e3f 6873 0e3d 5bd8 7f3f
000002f0: 6938 343c 09fc 7f3f 87f7 633b 9bff 7f3f
00000300: d85c 09bf d006 583f 2491 1bbf 564f 4bbf
00000310: 1d9a 6e3f f786 b93e 2ca9 bd3e c3c9 6d3f
00000320: ac2b f53d b528 7e3f 1965 1b3d d2d0 7f3f
00000330: 709a 443c 48fb 7f3f ebb0 783b 87ff 7f3f
00000340: 2220 d73e 6f4e 683f 4c14 53bf 9dd9 10bf
00000350: c0ab 763f 9df5 883e 3f9a cc3e c3ab 6a3f
00000360: d0be 043e 00d7 7d3f 6556 283d a1c8 7f3f
00000370: 6afc 543c 76fa 7f3f 26b5 863b 72ff 7f3f
00000380: 7298 7d3f d704 0c3e b3a8 75bf 0a0d 90be
00000390: 6f46 7c3f e70b 2e3e f456 db3e b151 673f
000003a0: 64e4 0e3e cc7e 7d3f 4347 353d c9bf 7f3f
000003b0: 555e 653c 94f9 7f3f d611 913b 5cff 7f3f
000003c0: 4479 263f e87a 42bf 75e0 7fbf 9622 fe3c
000003d0: d55b 7f3f bade 903d 83db e93e 68bc 633f
000003e0: 4f06 193e 1a20 7d3f aa37 423d 49b6 7f3f
000003f0: 32c0 753c a1f8 7f3f 856e 9b3b 43ff 7f3f
0.0 1.0 0.0 1.0 0.0 1.0 0.0 1.0
0.0 1.0 0.0 1.0 0.0 1.0 0.0 1.0
0.84147096 0.54030234 0.3109836 0.9504153 0.099833414 0.9950042 0.031617504 0.99950004
0.009999833 0.99995 0.0031622713 0.999995 0.0009999998 0.9999995 0.00031622782 0.99999994
0.9092974 -0.41614684 0.5911271 0.8065784 0.19866931 0.9800666 0.063203394 0.9980007
0.019998666 0.9998 0.006324511 0.99998003 0.0019999985 0.99999803 0.0006324556 0.9999998
0.14112 -0.9899925 0.8126489 0.58275366 0.2955202 0.9553365 0.094726086 0.99550337
0.0299955 0.99955004 0.009486687 0.999955 0.0029999954 0.9999955 0.00094868336 0.9999996
-0.7568025 -0.6536436 0.95358074 0.30113748 0.38941833 0.921061 0.12615407 0.99201065
0.039989334 0.9992001 0.01264877 0.99992 0.003999989 0.999992 0.0012649109 0.9999992
-0.9589243 0.2836622 0.99994653 -0.010342338 0.47942552 0.87758255 0.15745588 0.987526
0.049979165 0.99875027 0.015810724 0.999875 0.004999979 0.9999875 0.0015811383 0.99999875
-0.2794155 0.96017027 0.9471482 -0.3207964 0.5646424 0.8253356 0.18860027 0.98205394
0.059964005 0.99820054 0.018972522 0.99982 0.0059999637 0.999982 0.0018973658 0.9999982
0.6569866 0.75390226 0.8004216 -0.5994375 0.6442176 0.7648422 0.2195561 0.9755999
0.06994285 0.997551 0.022134129 0.999755 0.006999942 0.9999755 0.0022135929 0.99999756
0.98935825 -0.14550003 0.5743178 -0.8186324 0.717356 0.6967067 0.25029233 0.9681703
0.07991469 0.9968017 0.025295515 0.99968004 0.007999914 0.999968 0.0025298197 0.9999968
0.4121185 -0.91113025 0.29125923 -0.9566442 0.78332686 0.62161 0.28077832 0.95977265
0.089878544 0.9959527 0.028456647 0.99959505 0.008999879 0.9999595 0.0028460464 0.99999595
-0.5440211 -0.8390715 -0.02068357 -0.9997861 0.84147096 0.54030234 0.31098357 0.9504153
0.099833414 0.9950042 0.031617496 0.99950004 0.009999833 0.99995 0.0031622727 0.999995
-0.9999902 0.004425698 -0.33057496 -0.94377977 0.89120734 0.4535962 0.34087786 0.9401076
0.1097783 0.9939561 0.03477803 0.9993951 0.010999777 0.9999395 0.003478499 0.999994
-0.53657293 0.84385395 -0.6076834 -0.7941793 0.9320391 0.36235783 0.3704313 0.9288599
0.119712204 0.99280864 0.03793821 0.9992801 0.011999711 0.999928 0.0037947248 0.9999928
0.42016703 0.9074468 -0.82452846 -0.5658205 0.9635582 0.26749888 0.3996143 0.9166834
0.12963414 0.9915619 0.041098017 0.9991551 0.012999633 0.9999155 0.00411095 0.99999154
0.9906074 0.13673721 -0.9596054 -0.28134948 0.98544973 0.16996728 0.42839777 0.90359026
0.13954312 0.990216 0.044257414 0.99902016 0.013999541 0.999902 0.004427175 0.9999902
0.65028787 -0.7596879 -0.9995187 0.031022351 0.997495 0.07073732 0.45675287 0.8895936
0.14943813 0.9887711 0.047416367 0.9988752 0.014999436 0.9998875 0.0047433996 0.99998873

encoder.transformer.in_proj_weight f4 [48, 16]
00000000: ff1e 90be b848 babd e500 61be 40a9 57be
00000010: 1870 e13d 0612 98bd 9209 04be b69d f8bc
00000020: 329b 083e 1800 a93e 68ef d4bc e8db 7f3e
00000030: fcff f0bd 4dc6 873e fc66 babc 4d00 73bd
00000040: 6131 91be f9b2 8d3e a9ef a33e 485e 9e3c
00000050: 7f37 11be 1a3d 503d 29d9 ed3d 1c73 60be
00000060: 5163 9a3e a37e 4bbe 540e 2cbe 8ed2 6dbd
00000070: 2fd2 04be 70f9 0dbe 1aed 98bd 3730 f93d
00000080: 6e03 8bbd 6041 bcbd dad2 de3d 36b7 333d
00000090: 5db0 93bd d86d 833e 170f 32bd 210f a1be
000000a0: a4d3 083d ea84 a93d 6ab4 413e 10ab b2bd
000000b0: 2867 41be 4f69 70be 194b b2bc 8f41 1ebd
000000c0: 12da c73d 3005 383e bf6e 263d f873 59bd
000000d0: e5c5 ac3e 29e7 f2bd c379 1ebd 3d8c 063e
000000e0: 7855 1cbd 870a 2bbd b842 813d 4990 62be
000000f0: 17d4 0bbe d255 03be 5068 2f3d 1260 7ebe
00000100: 22cc 7dbe 0875 2fbe f0d7 943e 3ad3 f13d
00000110: 99e8 97be ec72 04be bfc5 d13d 9e4b 31be
00000120: 5877 f9bd b9e9 6cbe a39b 42be c16e 3938
00000130: d718 6b3e ce64 dd3d 7aaf 283e 88d9 f63c
00000140: 6513 893e 3c08 87be becd 8dbe 47dd 1abe
00000150: 8481 7bbd 4f30 56be 8e6c 0f3e 74bc 30be
00000160: ffdd 45bd 231e b4bd 4fda 3b3d c740 8a3e
00000170: ba78 623e b584 6f3e fbff 78be f350 3abd
00000180: e7f7 1b3e 6244 18be c6ce 84bd 7df0 813e
00000190: 12dd 1c3d d605 163e 445e 613e d693 6ebe
000001a0: f915 003e 97ab acbe 0813 a03e 6702 653e
000001b0: d24d 8a3e 34ae f0bd 46f0 56be 696e cd3d
000001c0: 9da0 8e3d 069d 5abd 1ba4 4a3d b946 8d3e
000001d0: 7ba3 97bd 0360 46be d423 1d3e b245 49be
000001e0: c141 233e cfed 043e a4f9 4c3e 7434 093c
000001f0: aac4 5bbe e3a2 8ebe ced7 b03e 735b 9d3e
00000200: 6a91 44bd 99ce 823e 2a90 21be 063c 1b3d
00000210: 11da 2e3e 5574 92be 026d f33d 0f02 72be
00000220: 6014 7e3e c5b6 05be cd14 57be d2d0 95be
00000230: 0bea 8dbe 0f1e 153e 282a 84be cad3 1b3e
00000240: 296a 2d3c 33fb 813e dc8f 913d 191f eabd
00000250: cfce a9bd c51c b9bd a6a2 29be 8379 61be
00000260: 6c7e 80be d384 3b3d 2c45 83be 2bd0 5a3e
00000270: dda0 42bd 5b3d 05be 9c75 20be fa25 3a3e
00000280: 410f 9bbe 5b55 96be f216 5a3e 801c c53d
00000290: 7861 e1bd ac6c 39be 594a 8f3e 6243 943e
000002a0: 1d79 e03d 33f1 f0bd de8a 7bbe a643 a33e
000002b0: 7be2 ffbd f66f 373e 7a49 6abe ffa4 a83d
000002c0: 4114 56be 2db7 5d3e 245b 4e3e 8715 a9be
000002d0: 7747 253d ecc4 18be 896f 85be 7b70 2d3e
000002e0: ee78 2dbe 7185 9d3d 45da f6bd 7f25 843e
000002f0: 2012 65be 90c5 763e 728a 7b3e 4f6f 8a3e
00000300: cd6c 8c3e ca62 e2bd 28f4 99be 4043 aa3e
00000310: 2a6e 593e 826a 553e bf6c 45be f48f 313e
00000320: 724c 90be 2f7f 633e 75b0 843e dca1 453c
00000330: 63b1 9cbe 9b5b 9cbe 384f 80bd aa2b 7cbe
00000340: d7e3 6b3d 9fab a13d 78de 3f3e 3a45 ca3d
00000350: 1e1c 5c3d 3c01 d5bd 806d 833e 729a 22bd
00000360: 1e65 133d 483d 55bd c2cc 22bd 538c 753e
00000370: b658 f9bd e642 773e 71b4 87be b91b 3a3d
00000380: f038 95bd da6d cebc d6d9 db3c 92a5 f9bd
00000390: c646 6bbd eeba 9d3c 0a11 88be 9104 6bbe
000003a0: 5d88 8b3e bef6 2bbe b05f b2bc ed4b cf3d
000003b0: b388 c53d cbda 963d 4b76 dabd beb9 8f3e
000003c0: f5bf a3bd 2787 733e c96b a5bd f229 7abe
000003d0: b21b 3cbe db0c 153e b7e0 bf3d 91b9 3b3e
000003e0: c2a2 16be f99f 8ebd 66a0 83be 03f6 3fbe
000003f0: 1354 b0bd 6ff0 e1bd 35b3 b23d a818 13be
-0.28148648 -0.09095901 -0.21972997 -0.21060658 0.11007708 -0.07425313 -0.12894276 -0.03034864
0.13340452 0.33007884 -0.025993064 0.24986231 -0.11767575 0.2651848 -0.022754185 -0.05932646
-0.28357986 0.27675608 0.32018784 0.019332066 -0.14181326 0.05083952 0.11613686 -0.2191891
0.30153897 -0.19872527 -0.16802341 -0.05806213 -0.12970804 -0.13864684 -0.074670985 0.121673994
-0.067877635 -0.09192157 0.108800605 0.043875895 -0.07211373 0.25669742 -0.043471422 -0.31456855
0.03340496 0.082773045 0.18916479 -0.08724034 -0.18887007 -0.23477672 -0.021764325 -0.03863674
0.097583905 0.17970729 0.04063296 -0.053089112 0.33744732 -0.118604966 -0.03869034 0.13139434
-0.038167447 -0.041758087 0.06311554 -0.22125353 -0.13655125 -0.12825707 0.04282409 -0.24841335
-0.24784902 -0.17134488 0.29070997 0.118078664 -0.29669645 -0.12934464 0.10242795 -0.17314002
-0.12180966 -0.23136033 -0.19004683 4.4210585e-05 0.22958694 0.108102426 0.16473189 0.030133024
0.2677261 -0.2637347 -0.2769603 -0.15123473 -0.061402813 -0.20916866 0.14006254 -0.17259389
-0.048307415 -0.087948106 0.045862492 0.27002546 0.22116366 0.23390467 -0.24316399 -0.045487355
0.15231286 -0.14869836 -0.064847514 0.2537879 0.038296767 0.14650664 0.22008616 -0.23298582
0.12508382 -0.33724663 0.3126452 0.22364198 0.27012497 -0.117519766 -0.20990095 0.10030825
0.06964228 -0.053372405 0.04947291 0.2759302 -0.07404228 -0.19372563 0.15345699 -0.19655493
0.15943052 0.12981342 0.20017105 0.008374322 -0.2146174 -0.27858648 0.34539646 0.30733833
-0.04799024 0.25548247 -0.1577765 0.03789904 0.17075373 -0.2860438 0.11886026 -0.23633598
0.2481246 -0.13058002 -0.21004029 -0.2926088 -0.27717623 0.14562248 -0.25813413 0.1521751
0.010584393 0.25386962 0.07107517 -0.11431713 -0.08291399 -0.090386905 -0.16565952 -0.2201901
-0.25096452 0.045780968 -0.2563871 0.21368472 -0.047516692 -0.13011687 -0.15669864 0.1817855
-0.30285075 -0.29361996 0.21297815 0.096245766 -0.11004919 -0.18107861 0.2798641 0.2895766
0.109606005 -0.11764755 -0.24564692 0.3188755 -0.124943696 0.17913803 -0.22879592 0.082345955
-0.20906164 0.21651907 0.20151955 -0.33024237 0.040351357 -0.1491887 -0.26061657 0.16937439
-0.16940662 0.076914676 -0.1205335 0.25809857 -0.22370195 0.24098802 0.24564531 0.27038047
0.27426758 -0.11053999 -0.3006909 0.33254433 0.2123343 0.20841411 -0.19279765 0.1734007
-0.28183323 0.22216485 0.25915876 0.012062516 -0.30604085 -0.3053864 -0.0626511 -0.24626032
0.057590332 0.07894062 0.18737209 0.09876485 0.053737752 -0.10400626 0.2566948 -0.03969807
0.035985105 -0.052060395 -0.039746054 0.2397931 -0.121751234 0.24146613 -0.26504853 0.045436595
-0.072862506 -0.025198866 0.02683727 -0.12189783 -0.05744054 0.019254174 -0.265755 -0.2295096
0.27252474 -0.16793343 -0.021774143 0.101219036 0.09645214 0.0736595 -0.10667094 0.28071398
-0.07995597 0.23782025 -0.08077199 -0.24430063 -0.1836994 0.14555685 0.09369033 0.18332507
-0.14710525 -0.06964106 -0.25708312 -0.1874619 -0.08609786 -0.11032187 0.08725587 -0.14364874

encoder.transformer.in_proj_bias f4 [48]
00000000: bb74 13bc 6f52 993c 17c1 8d3b db51 76bd
00000010: 6614 2b3c 609e 6abc 0272 96bc 44ad 9b3b
00000020: 36ce 8bbd 374b d23c add5 573d 0c14 c53c
00000030: 3916 1dbd c62c 36bc b77a f33c a42a c33a
00000040: 00cc 9b33 58e5 a2b3 ede1 40b3 8dca 73b4
00000050: d34f 1734 c6a5 9234 dd46 8933 2e35 ab33
00000060: 51a3 a534 00eb 5db3 9e6d 1a34 776f e3b3
00000070: c1a3 24b4 2d0d 8e33 7611 b532 5666 4833
00000080: 6827 dfbc e093 4cbd ef90 ef3c 5801 d1bc
00000090: 728d 76bd 0445 45bd a567 0d3d b131 bf3c
000000a0: 71dd 10bd 03e3 123d 53b9 02bd 1c8e e9bb
000000b0: dc3f 803d 9e71 d4bc a125 ddbb 7a2e 803c
-0.008999999 0.018716065 0.0043259966 -0.060136657 0.010441875 -0.014319986 -0.01836491 0.0047508795
-0.06826441 0.02567063 0.05269401 0.02405741 -0.03835127 -0.011119073 0.029721601 0.0014890027
7.254857e-08 -7.58543e-08 -4.4908962e-08 -2.2704826e-07 1.4092011e-07 2.7315235e-07 6.3924496e-08 7.972481e-08
3.0852473e-07 -5.1669304e-08 1.4382246e-07 -1.05907866e-07 -1.5333264e-07 6.614787e-08 2.1079114e-08 4.6659203e-08
-0.02724047 -0.049945712 0.029243914 -0.025513336 -0.060193487 -0.04816152 0.03452267 0.023339124
-0.035367433 0.035861026 -0.03191502 -0.0071275365 0.0626218 -0.025933083 -0.0067488705 0.015647162

encoder.transformer.out_proj.weight f4 [16, 16]
00000000: 5ef7 6abd 29fb 6d3e dea5 94be d93b 343e
00000010: 7b3d ef3d 8484 d13d b9ce 47be 76a8 08be
00000020: 5af3 463e 81a0 04be 6d4b 843e 1bd2 343d
00000030: 32d2 74be bda3 533e b853 123c cfbb 0bbe
00000040: b719 91be 1be1 523d 713f 47bd d8ee 203e
00000050: 11b0 15be 1f6a 6f3c 6832 95bd 472e cdbd
00000060: bbdd 6fbe fc77 43be 8da3 233d c70a 3e3e
00000070: 4295 0f3e daaa a73e dc3a 0f3e f9fd d73d
00000080: ec6f 243e 9e41 24bd 0c84 073e fb9e 313d
00000090: 1300 a1bd cdee 6d3e 6ccb 973d 02fd e43d
000000a0: 6110 cc3d 5504 563e d829 76be 302f 27be
000000b0: ef22 e33d dd23 a2bd 33a5 013d 86b1 cb3d
000000c0: be00 52bb da17 593e c3d7 583e 622b bebd
000000d0: b05a 3abe 931b 80bd 9717 43be 9b26 5ebd
000000e0: acac edbc 5eab 353e b847 113e 5653 463d
000000f0: dab7 89be dc3a 133d f7d1 7f3e d967 8c3e
00000100: 2874 f8bd 03aa 8abe b498 d33d bcfd d8bc
00000110: 77f0 71bd 2101 4ebe f452 debd 648c 3ebe
00000120: 5fe7 63be e8da 483e 049c fb3d 67e3 253d
00000130: b6fc d53d c123 6a3e c268 ff3d 4fff dc3d
00000140: aacc 47be 8f6f 41be ef1c 7dbe 40b1 723e
00000150: a3c2 3c3e f7d5 6b3e 74b3 18be 4e5b b03d
00000160: 7173 cbbd 7f64 20be 1631 e3bd 66ee 5bbe
00000170: 80ec 7abe f0e6 eabd b5a5 ca3b 74f4 1cbe
00000180: 512f 87be e6fe d53d 7151 303d cc7c 0dbe
00000190: 2a0b 5a39 2abe db3d bdfd 973c 6b50 593e
000001a0: 51eb 46be 2067 563e a2a1 88bd c427 533b
000001b0: e2de 0a3e 5a28 a3bd 6770 d93d df2c 63be
000001c0: 253c b7bd ff68 003e 4b65 493e 2328 703b
000001d0: 885f 2abe e0af 0cbe f213 ab3d f8a6 2b3e
000001e0: bec4 efbd 50b1 073d 0ce8 b33d 3ec6 bbbd
000001f0: 22fb 0a3d 1e14 5fbe 92b0 48be ccfb 213e
00000200: f19c 59be c3c9 d13d b8b5 0e3d 1a45 35be
00000210: 81ca 623d e280 803d 1d64 223c 2662 3b3e
00000220: e785 17bd f7a1 f0bc b9e8 83be d5b0 543e
00000230: 4e73 a63d 723c 7c3e 5d22 87be e7ae b2bd
00000240: 1a15 dbbd 402e 1abe 361c 9a3e a0b9 c73d
00000250: b81d 093e 3ef6 7f3e cdde 213e 8398 1c3c
00000260: 1703 eb3c 623f 1b3e 1758 98bd 6703 7abd
00000270: 3aa3 473e 1779 21bd e135 78be 38ef a4bd
00000280: 8f63 d23d e63e a83c 9438 26be 3d31 17bd
00000290: 9c36 8e3d 38e5 643e f1ba b3bd 4553 60be
000002a0: 7b34 3f3e fe88 f83d 2995 01be b7d5 df3d
000002b0: 360e f53d 4441 013e a827 bc3c 706e e43d
000002c0: 703d 09bd 1994 eebc cc04 3fbe 6b40 c8bc
000002d0: dc6b 593e eee9 bb3d 5d0e 1ebe 2cce 463e
000002e0: 9b01 1d3e f468 74bd 8a1b 873e 811a 553d
000002f0: 7297 54be ccc0 843d 531a 47be 38f2 783e
00000300: cce7 dabd 3a72 853e 5365 6b3d 00d4 56bc
00000310: ea2f 70be 3d51 bb3c 4130 3cbe 9cec 2c3e
00000320: ad8c f4bd 7f31 10be e9b9 53be 5d04 0f3e
00000330: 1fb1 aebd 5600 51be 2c5b eebc bedb cb3d
00000340: 13ff e9bd 2919 673e c870 a0bc 18c2 58bc
00000350: cb9f f2bd 200c 0ebe 37b1 afbd 7c21 52be
00000360: ebc4 b03c 5759 c93d 5f59 213e 0164 2fbe
00000370: 62e1 56be f78b e43d bbd1 f93d fefb 61bd
00000380: e230 35bd 01b2 d0bd 6c3d 2b3e 668b 943d
00000390: ebbd 87bb ca14 acbc 3f4a 61be 0c33 a83d
000003a0: 26e6 eebd 4f93 853d 18cb a53c af6f 3fbe
000003b0: 5d1a 75be b18b a83d 9187 ccbd 2fd0 29be
000003c0: b7f4 4a3e 226b 6dbd 2ed5 31be d056 1a3e
000003d0: 511b 90be c0f1 1b3e 0637 d2bc 90ee 203b
000003e0: 8411 663e 19c2 d3bd 0503 0ebe 565f d1bc
000003f0: c51e 6b3e bcc6 20be f79c 2fbe 9b89 953d
-0.057364814 0.23240341 -0.29032797 0.17600955 0.11681648 0.102303535 -0.19512452 -0.13345513
0.19428769 -0.12951852 0.25838795 0.044145685 -0.23908308 0.2066793 0.008931093 -0.13645862
-0.2833993 0.05148421 -0.048644487 0.15716112 -0.14617945 0.014612704 -0.07285005 -0.10018592
-0.23424427 -0.19088739 0.039950896 0.18558799 0.14021781 0.32747537 0.13987297 0.10546488
0.1605832 -0.04010164 0.13233966 0.043364506 -0.07861342 0.23235627 0.074118465 0.1118107
0.099640615 0.2090009 -0.240394 -0.16326594 0.110906474 -0.07916997 0.031651687 0.09945969
-0.00320439 0.21200505 0.21176057 -0.09285618 -0.18198657 -0.06255259 -0.19051968 -0.054236036
-0.029013 0.17741153 0.14187515 0.04841932 -0.2689808 0.035944805 0.24982439 0.2742298
-0.1213153 -0.27082834 0.1033186 -0.026488177 -0.059067216 -0.20117618 -0.10855666 -0.18608242
-0.2225623 0.19614756 0.12285617 0.04050007 0.104485914 0.22865202 0.12471153 0.10790884
-0.19511667 -0.18890212 -0.24718069 0.23700428 0.18433623 0.2303084 -0.14912206 0.08611165
-0.09934128 -0.15663336 -0.11093347 -0.2147766 -0.2450428 -0.11469829 0.0061843046 -0.15327626
-0.26403287 0.10449009 0.04304642 -0.13817137 0.00020794259 0.1072963 0.018553609 0.21222083
-0.19425704 0.20937777 -0.06671454 0.0032219747 0.13561586 -0.07966681 0.10617142 -0.22185086
-0.089470185 0.12540053 0.19667546 0.0036645017 -0.16638005 -0.13738966 0.08353414 0.16762912
-0.117074475 0.033128083 0.08784494 -0.09168671 0.033930905 -0.21785018 -0.19598606 0.15818709
-0.21251275 0.10243561 0.03484127 -0.17702141 0.055368904 0.062745824 0.009911564 0.1829916
-0.036992934 -0.029374106 -0.2576349 0.20770581 0.081274614 0.24632433 -0.26393405 -0.08724766
-0.10697384 -0.15056705 0.30099648 0.09752202 0.13390243 0.24996278 0.15807648 0.009557846
0.028687997 0.15160897 -0.07438677 -0.0610384 0.1949586 -0.03942212 -0.24239303 -0.0805344
0.102728955 0.020537805 -0.1623252 -0.03691219 0.0694401 0.22353065 -0.087758906 -0.21906765
0.18672363 0.12135504 -0.12654556 0.10929435 0.11965601 0.12622553 0.022968128 0.11153877
-0.033505857 -0.029123353 -0.18654174 -0.02444478 0.21232551 0.09175478 -0.15435167 0.19414586
0.15332644 -0.059670404 0.26388198 0.05202723 -0.20760897 0.064820856 -0.19443636 0.24311149
-0.10688743 0.2606371 0.057469677 -0.013112068 -0.23455778 0.022865886 -0.18377782 0.16887134
-0.11940894 -0.14081381 -0.20676388 0.13966508 -0.08529877 -0.20410284 -0.029096209 0.09954022
-0.11425605 0.22568192 -0.019585028 -0.013229869 -0.11846884 -0.13871813 -0.08578723 -0.20520586
0.021578273 0.09831493 0.15756749 -0.17127992 -0.20984414 0.11159509 0.12198206 -0.05517196
-0.04423607 -0.101902016 0.1672265 0.07253151 -0.004142513 -0.021006007 -0.22000979 0.082128614
-0.11664991 0.065222375 0.020238444 -0.18694948 -0.23935838 0.08229769 -0.09986795 -0.16583322
0.19819914 -0.057963498 -0.17366478 0.15072179 -0.2814584 0.15228939 -0.025661003 0.0024556257
0.22467619 -0.103397556 -0.1386834 -0.025558155 0.22960956 -0.15700811 -0.17149721 0.07301637

encoder.transformer.out_proj.bias f4 [16]
00000000: 9559 79bd e569 4c3c b78a d3bc 126f efbc
00000010: 6884 6d3d 4afc 663a 80e6 193d 2d55 7b3c
00000020: c877 7c3c 40f4 b13c 646a 14bd 3f22 bbbc
00000030: 3cfe 9f3b 66f2 aabb c80f f4bc d21a db3c
-0.060876448 0.012476419 -0.02582298 -0.029227767 0.0579876 0.0008811398 0.037573338 0.015340132
0.015409417 0.021722913 -0.036234275 -0.022843478 0.004882602 -0.0052168844 -0.029792681 0.026746187

encoder.ln1.weight f4 [16]
00000000: f8b0 843f 9239 873f 5e2d 7a3f d64e 883f
00000010: 4be3 6b3f c418 733f 8aba 7e3f f781 7d3f
00000020: 9e4b 893f 1832 773f 2432 833f 0223 763f
00000030: c155 833f 636d 7a3f ebc9 713f 4fa0 853f
1.0366507 1.0564444 0.97725475 1.0649059 0.92143697 0.94959664 0.99503386 0.99026436
1.0726202 0.9656081 1.0249677 0.9614717 1.0260545 0.9782316 0.9444873 1.0439547

encoder.ln1.bias f4 [16]
00000000: 705b 7fbd 386d 8fbc 8f7d c5bc 51d1 43bd
00000010: 6c0c 523d 5978 5abc c49c 193d 1e24 c13c
00000020: f395 553c 3260 bc3c d525 31bd f18d c0bc
00000030: 9f1b c3bc 46d3 393b bc13 dfbc c275 963c
-0.06234306 -0.017508134 -0.024107723 -0.04780704 0.051281378 -0.013334357 0.03750302 0.023576792
0.013036239 0.022995088 -0.04324897 -0.023505183 -0.023816882 0.0028354689 -0.02723109 0.018366698

encoder.ln2.weight f4 [16]
00000000: 204b 853f d29f 823f 219c 793f b3f7 843f
00000010: 53f1 713f 2015 7d3f 6833 823f b6cd 7c3f
00000020: 39cf 873f 6e3b 793f 41c3 803f 1994 763f
00000030: 2798 7a3f 79f6 753f cfed 713f da07 7f3f
1.0413551 1.0205023 0.9750386 1.0388092 0.94508857 0.9886036 1.0171938 0.9875139
1.0610114 0.9735631 1.0059587 0.9631973 0.97888416 0.9607921 0.9450349 0.99621356

encoder.ln2.bias f4 [16]
00000000: 0c22 adbd b269 2dba 8ceb 04bd 397d e6bc
00000010: 1a24 043d 247c 73bc e5ad bd3c 1b65 a539
00000020: 73e3 a039 420f aabc b349 23bd abdc 0abd
00000030: 2635 d6bc d77f b7bc ed3f 38bd 2616 44bb
-0.084537596 -0.0006615176 -0.032451198 -0.028135883 0.03226099 -0.01486114 0.023154208 0.00031546582
0.0003068704 -0.020759229 -0.039865207 -0.03390185 -0.02614839 -0.022399826 -0.04498284 -0.0029920428

decoder.output_head.weight f4 [24, 16]
00000000: 6f2c 29bd 359c 36be 5f7f a2be 44b0 4c3d
00000010: 506d 9f3e d3be 91be 9e41 1f3c 248e a6bd
00000020: 8ec0 11be be3e c13c 974f 4bbe 5303 a6bd
00000030: 1ee5 5ebd 3585 c73d 2ab0 36be c933 a8bc
00000040: c413 7cbd 8065 fd3d f800 58bd a2df 5dbd
00000050: 3857 103e fd0c e7bd c5b4 19bd b400 1dbd
00000060: fded 12be c8e5 cfbd 7db2 7d3e a8de 0a3e
00000070: f154 32bd bb41 993c da40 aebd fa37 10be
00000080: a0b7 2dbd cae8 de3d 6931 d6bc 8720 edbc
00000090: 1ef2 0c3e e86f 3d3e 7762 8bbd 518b 23bd
000000a0: 74c8 33bd 9cde 92bd 4b10 143e 0e91 9abd
000000b0: 4440 51bd 106c 153e 19f1 393e 7759 133c
000000c0: 912a b8bd be19 48be c58d 63be a27a 13be
000000d0: 387f 1fbe ac1b 0b3d aed9 cabd 0c09 5a3e
000000e0: 5ef3 8ebe 2cc1 403c d58e 25be 63a9 a83d
000000f0: d5fa 29be faee 0dbd 4e4b 993b ad22 50be
00000100: b890 913e 25df 113e 3dd9 283e 3560 693d
00000110: 7e64 21be 9145 45be 1db7 35be 630a da3c
00000120: caa5 a0be 9ca9 8fbc ad0a fb3d 9089 563e
00000130: 1402 d83d cf02 de3d 7a2d 583d e14c 673e
00000140: 19f2 efbd d155 2ebe 85b9 efbd 8a34 4cbd
00000150: 2b69 2ebc 2ea2 323e e3c0 2f3e 088c db3d
00000160: 5cf9 67bc b528 80be fd61 adbe 7ff9 22be
00000170: fef5 1f3e 6c7c 4ebb c155 00be cf60 d9bd
00000180: 9d24 593d 589f ffbd 0439 383d 8bc2 48bd
00000190: 521d 1ebe 35bc 10be 76d8 90bd afc2 6e3e
000001a0: b055 153d 6f8e 493e 6d42 123e f19b 163e
000001b0: f08b 4abd 9dec 0a3e 8a53 713e 0f18 6bbe
000001c0: dfa2 563e 5e34 39be d61e 86be e61d a7bd
000001d0: d83b 0f3e b463 03be 8e02 8dbe c149 d63d
000001e0: d801 30bd 22c3 4b3c a604 143c 6745 0f3e
000001f0: be61 f83d b3f3 283e af0a e53c ccee 0c3e
00000200: 73a3 aebb cf6b ca3d bcf3 1f3e f8ff 57bd
00000210: 18fc 4e3d 7596 643d 02c1 e83d 67e4 1dbe
00000220: 9bed e1bd aaa5 4c3d 90b2 cfbc 29b0 553b
00000230: 05f8 193e 0e41 1d3e f0f6 f53d 5d34 19be
00000240: 5dd9 563e 5870 a5be df60 303e ac7a 04be
00000250: 5340 a63d 3c03 313d 3452 ccbb 3490 e3bc
00000260: c73f 50bc 953e 483e 7d0e 98bc 1aca d9bd
00000270: de34 87bc ae9c b6bd ba14 3dbe 216c f53d
00000280: 1b4f 5e3c d65c 9cbc c4ed 73bd 6909 36bd
00000290: 204f a5bd 46c4 393d 1f72 3a3e a7fd 78be
000002a0: 87a1 143d 3e7f ca3d 2265 4d3e 17b5 ad3d
000002b0: 4985 c0bd cfc0 1a3e 18a6 efbc 2457 c93d
000002c0: a2bc 98bd dd71 64be 2c80 c0bd 97ca 253e
000002d0: 629d 0fbe 89d7 bc3c 281b 12be 938b ba3d
000002e0: 09d3 71be fadf e5bd 5221 643d bd61 8abd
000002f0: c7aa 15bc 48f4 423b ea7d dabd cc54 fc3d
00000300: 67b9 113d 204f 35be 5c6a e83c 1e98 b63e
00000310: 4028 43bd 3243 813e e897 e13d d10b 853d
00000320: 1366 0a3e e797 3e3c 8ac7 edbd 01a0 6abe
00000330: 4979 493e afc6 f7bb 030a 923d 674b ad3c
00000340: 8729 cd3c 183c 42be c41e 983d a9b7 273d
00000350: 0efc 7b3d 09fe bfba 505d a1bd b7fc f2bd
00000360: ef77 8fbd bee0 55be e533 833e 6398 833e
00000370: 2a3c bd3c e057 1c3e 4061 4abe 2710 0f3d
00000380: 8611 9b3e 9882 9c3d b4a2 4b3e a959 aabc
00000390: 92df e0bd 2119 e93d 8f3d 953c a7dc 2a3e
000003a0: 57e7 7a3d a070 e4bc 9faf fb3d 5567 3c3e
000003b0: 23aa 7abe 8508 803b dee4 ebbd 5a54 db3c
000003c0: 4de8 da3d f1c9 73be fecb 303e e34f 50be
000003d0: f5fb 4bbe 939f 5abd bb5b 58be db11 5e3d
000003e0: 9dd0 fabd 8e53 eabd eaf8 0c3e 5f22 fb3d
000003f0: 10b8 6ebe 93c3 99bd 5247 443c 60f6 1bbe
-0.04130214 -0.17833026 -0.317378 0.049972787 0.31138086 -0.284659 0.009720234 -0.0813258
-0.1423361 0.023589488 -0.1985458 -0.08106103 -0.054417722 0.09742204 -0.17840639 -0.020532506
-0.061542287 0.12372875 -0.0527353 -0.05416835 0.14095771 -0.11281774 -0.03752591 -0.03833075
-0.14348598 -0.10151249 0.24775119 0.13561499 -0.043538038 0.0187081 -0.08508463 -0.14083853
-0.042411447 0.10884245 -0.026146607 -0.028946174 0.13764235 0.1849972 -0.0680589 -0.039927784
-0.04389234 -0.071713656 0.1445934 -0.07547198 -0.05108668 0.14592004 0.18158378 0.008993498
-0.08992494 -0.1954107 -0.2222205 -0.1440225 -0.15575874 0.033961937 -0.099048 0.21292514
-0.2792005 0.011764806 -0.16167767 0.08235433 -0.16599591 -0.034651734 0.0046781665 -0.20325728
0.28430724 0.14245279 0.1648912 0.056976516 -0.15760991 -0.19264819 -0.17745633 0.02661628
-0.31376487 -0.01753693 0.122578956 0.20950913 0.10547271 0.108403794 0.052777745 0.2258792
-0.11716098 -0.17024924 -0.11705307 -0.049854793 -0.010645191 0.17444679 0.17163424 0.10720068
-0.014158573 -0.25031057 -0.33863822 -0.15915488 0.15621182 -0.0031507267 -0.12532713 -0.10614168
0.053013433 -0.12481564 0.04497625 -0.049013656 -0.15440872 -0.14134295 -0.07072537 0.23316453
0.03645867 0.1968324 0.14283152 0.14707924 -0.04944986 0.13566823 0.23567024 -0.22958396
0.20960568 -0.18086383 -0.261954 -0.081599995 0.13987672 -0.12831002 -0.27541012 0.10463286
-0.04297051 0.01243666 0.009034311 0.13991319 0.12128018 0.16499214 0.027959196 0.13762969
-0.0053295433 0.09883844 0.15620321 -0.052734345 0.050533384 0.05580755 0.11364938 -0.1541916
-0.11031648 0.049962677 -0.0253537 0.003260622 0.15036018 0.15356848 0.1200999 -0.14961381
0.20981355 -0.32312274 0.17224453 -0.1293742 0.081177376 0.043215975 -0.0062353853 -0.027778722
-0.012710518 0.19555123 -0.018561596 -0.10634251 -0.016504701 -0.08916603 -0.18464938 0.119835146
0.013568665 -0.019087236 -0.059552923 -0.044442568 -0.080717325 0.045353197 0.18207596 -0.2431551
0.036286857 0.09887551 0.2005811 0.08481806 -0.09400422 0.15112613 -0.029254004 0.09831074
-0.07457854 -0.2230906 -0.09399447 0.16190563 -0.1402488 0.023051994 -0.14268172 0.09108653
-0.2361566 -0.11224361 0.05569584 -0.06756923 -0.009134955 0.0029747654 -0.106685475 0.12320861
0.035577204 -0.17705965 0.028371029 0.3566293 -0.047645807 0.25246578 0.11015302 0.064963944
0.135155 0.011632896 -0.11610325 -0.22912599 0.19675173 -0.0075615267 0.07130816 0.021154119
0.025044216 -0.18968236 0.07427743 0.040946636 0.061519675 -0.0014647852 -0.07879126 -0.11864608
-0.070052974 -0.20886514 0.2562553 0.257022 0.023099978 0.15267897 -0.1976366 0.034927513
0.30286807 0.07642096 0.19886285 -0.020794706 -0.10980143 0.11381746 0.01821783 0.16685735
0.06125578 -0.027885735 0.122893564 0.18398793 -0.24478965 0.0039072656 -0.11518262 0.02677362
0.10688839 -0.23807503 0.17265317 -0.20342974 -0.19920333 -0.053374838 -0.21128742 0.054216247
-0.12246821 -0.11441718 0.13766828 0.12262415 -0.23312402 -0.07508006 0.011979895 -0.15230703

decoder.output_head.bias f4 [24]
00000000: fa36 67bd f999 ad3d 6644 383e daed 15be
00000010: 86e9 3c3e 2df1 4d3e 4098 063e b1e2 493e
00000020: f3e7 273e fed3 61bb 576d afbd 065e 4b3e
00000030: 6575 bc3d 6fe2 27be 30c1 9e3c 9648 4dbe
00000040: 7d3e 68be afe7 07be 9988 5c3d 8fd7 afbe
00000050: 8f9d 353e 3e2e e0bd e63f ccbd 0d1b e53c
-0.056448914 0.084766336 0.17994842 -0.14641514 0.18448457 0.20111533 0.13144016 0.19715382
0.16397075 -0.0034458633 -0.08565777 0.19860086 0.09202079 -0.16394971 0.019379228 -0.2004722
-0.22680087 -0.13271974 0.053841207 -0.34344146 0.17735885 -0.1094632 -0.09973125 0.027967
