experiments/model_32_40_2026-01-17_9952/model.pt (torch, 98848 bytes, 21 tensors)

encoder.graph_embed.GCN_in.A f4 [9, 9]
-2.075781 -0.500346 0.06569632 -0.50320715 3.2546074 -0.23659785 1.0183953 0.3636256
0.16752492 0.40498328 0.81586814 0.43205476 0.15234615 0.05221283 0.30260345 -0.6383085
0.13956565 2.1138785 -0.899968 0.9489292 1.3695004 -0.34169313 2.0977952 1.016682
0.92790025 0.8890894 -1.6524376 -0.087978266 -1.2343678 0.61696106 0.10437407 0.9734158
0.32962185 1.7602454 -0.94906896 2.5217586 -1.9126209 -1.3621118 -0.78424144 -0.5436312
0.5545705 1.3314533 0.21001217 0.16153179 0.6194038 -2.2146504 -0.6665688 0.35062003
-0.5475783 0.46192142 0.31146356 -0.42044416 -0.061665975 1.0336525 0.87099427 -0.10646025
-0.73322135 1.1494529 -1.1080171 1.063002 -0.6558393 -0.25648597 -0.56476355 -1.957999
-0.24945408 -1.5209119 0.13837022 -0.33725193 2.4935193 1.5111003 -0.9894382 -0.50951546
-1.7397782 -0.13944282 0.660444 0.53948027 0.15225318 1.1963519 0.068546966 0.39067978
-0.32425508
00000000: 99d9 04c0 ad16 00bf cb8b 863d 2fd2 00bf
00000010: 7d4b 5040 b546 72be c75a 823f 222d ba3e
00000020: a78b 2b3e f859 cf3e bcdc 503f 4836 dd3e
00000030: a100 1c3e 1fdd 553d d7ee 9a3e 3068 23bf
00000040: 4cea 0e3e c949 0740 4e64 66bf 06ed 723f
00000050: ca4b af3f 67f2 aebe 4742 0640 a322 823f
00000060: df8a 6d3f 5d9b 633f 1383 d3bf f32d b4bd
00000070: c4ff 9dbf 29f1 1d3f 13c2 d53d c731 793f
00000080: 32c4 a83e b94f e13f 2ff6 72bf 7e64 2140
00000090: c3d0 f4bf ae59 aebf 0cc4 48bf 6a2b 0bbf
000000a0: 55f8 0d3f 106d aa3f 6e0d 573e 9768 253e
000000b0: 3f91 1e3f d5bc 0dc0 41a4 2abf 7884 b33e
000000c0: 172e 0cbf f780 ec3e 2778 9f3e 7544 d7be
000000d0: 7695 7cbd ba4e 843f 7bf9 5e3f d507 dabd
000000e0: 65b4 3bbf 4621 933f 81d3 8dbf 7310 883f
000000f0: 16e5 27bf 2152 83be 5894 10bf b69f fabf
00000100: e470 7fbe 3ead c2bf ecb0 0d3e 49ac acbe
00000110: d295 1f40 bc6b c13f d24b 7dbf 9b6f 02bf
00000120: 0db1 debf 19ca 0ebe dc12 293f 611b 0a3f
00000130: 42e8 1b3e 0f22 993f 5a62 8c3d 2e07 c83e
00000140: c304 a6be

encoder.graph_embed.GCN_in.linear.weight f4 [32, 16]
0.15671426 0.106316224 0.09284318 0.14046495 -0.14532942 -0.07782277 -0.08722298 0.30039802
0.010936082 -0.009786114 0.12347329 0.048072696 -0.011352349 0.18762748 0.045176383 0.13602103
0.20987712 0.30113676 0.0887607 -0.19008932 0.024656458 -0.18648806 -0.20625488 -0.11078624
-0.065400295 0.3083265 -0.21441105 0.098343424 0.061941992 -0.101510234 0.08807341 0.12910886
0.16607442 0.12695378 0.11898573 -0.1354099 -0.2521788 -0.0018785727 0.058692142 -0.08670602
0.048133943 -0.026559053 -0.10275349 0.0918889 -0.12939937 0.18460986 0.034492485 -0.010012565
-0.21933824 0.30355343 0.056292754 0.045137383 0.19626789 0.14729898 0.19991697 -0.12212878
-0.21491285 -0.12619577 -0.13414112 -0.08262689 0.105252095 -0.06728467 0.07001354 0.05626504
0.10133183 -0.3901607 -0.069490165 -0.13277993 0.042806223 0.040846042 -0.2183656 0.21217307
0.089377426 0.29482016 0.14286816 -0.08406426 0.08754098 -0.12587617 0.036509518 0.16017228
0.22296034 -0.0979992 0.16549478 0.2500617 -0.05591137 -0.009536836 0.23597442 -0.03877944
-0.10667257 -0.008704753 -0.20323862 0.14833482 0.16436148 0.07544501 0.1526423 0.21764441
0.13649447 -0.012757336 -0.11477123 -0.269421 0.1707096 0.10404869 0.0849946 -0.22062775
0.21290633 0.0016183809 0.037749782 0.18634462 0.109304674 -0.1601311 -0.080780715 -0.11263356
0.113079466 0.18582633 -0.009651256 -0.03795651 0.14357169 -0.14426504 -0.043917175 0.18899877
0.11029313 -0.15032102 -0.20090763 -0.14141044 0.099099874 -0.05640843 0.06388767 0.05933762
-0.08215136 0.022605084 -0.008892432 0.3352262 0.04467192 0.19651301 -0.025281461 0.07047324
-0.065213844 -0.09340043 0.11584746 0.03844572 0.06973352 -0.021046143 -0.101171665 0.053482253
0.14457506 -0.107636295 -0.11919778 0.039260592 0.16858144 0.020648466 0.22688498 0.13753198
0.056687273 -0.008590732 0.07622428 0.16233583 0.008597328 0.017763494 -0.038231738 0.18198
0.13558297 -0.14047292 0.2083518 0.10373052 -0.060637943 -0.021732977 -0.050698455 -0.1748176
0.18230926 0.1122073 -0.0614817 0.048859272 0.08657014 -0.09105428 -0.10333726 0.053287238
0.11185672 0.1476457 -0.10549001 0.21611322 -0.19564083 0.32101333 -0.11226989 0.00775149
0.05901408 0.05559359 -0.16525851 0.1439543 -0.07244147 0.00984676 -0.08529012 0.11829654
0.0057773422 0.03765337 -0.09916219 0.0509421 0.08743352 -0.10754549 0.21099848 0.14765903
0.18017903 0.14932974 0.07821317 -0.17005444 -0.06922818 0.011998876 -0.027919175 0.07495969
-0.27660197 -0.07652293 0.017310627 -0.0048244903 0.009348718 -0.20002545 -0.025928367 -0.16917737
-0.037259825 0.086089976 0.05530488 0.14893973 -0.016215196 0.042005267 -0.010653303 0.1138974
-0.10135506 0.021718767 -0.17496082 0.13586485 -0.122251794 0.28276244 -0.099986196 0.1147228
0.070454314 -0.03250578 0.2164305 -0.23312974 0.06651651 0.13144276 -0.05322997 0.02325152
0.1938652 -0.20816638 0.14208834 0.12752457 -0.00675077 -0.11566192 -0.19969927 -0.035274494
0.14464152 -0.077119626 -0.15737133 0.04612864 -0.033332802 -0.07093242 -0.02978298 -0.17363618
00000000: b479 203e 52bc d93d 9124 be3d 0bd6 0f3e
00000010: 3cd1 14be 8b61 9fbd f6a1 b2bd c5cd 993e
00000020: 412d 333c f055 20bc 90df fc3d e0e7 443d
00000030: 34ff 39bc 6b21 403e df0a 393d 1949 0b3e
00000040: 07ea 563e 992e 9a3e 2bc8 b53d c6a6 42be
00000050: 57fc c93c baf6 3ebe 7b34 53be e5e3 e2bd
00000060: 97f0 85bd f9dc 9d3e 928e 5bbe 4768 c93d
00000070: e3b6 7d3d 99e4 cfbd d55f b43d 1d35 043e
00000080: 6a0f 2a3e 2c00 023e caae f33d e5a8 0abe
00000090: 941d 81be 713a f6ba 2c67 703d ed92 b1bd
000000a0: 1928 453d 5f92 d9bc 6c70 d2bd 3f30 bc3d
000000b0: 4581 04be 5e0a 3d3e fe47 0d3d be0b 24bc
000000c0: 349a 60be 5b6b 9b3e 3b93 663d fae1 383d
000000d0: 73fa 483e 8bd5 163e 09b7 4c3e a71e fabd
000000e0: 1d12 5cbe 7739 01be 4a5c 09be 4938 a9bd
000000f0: 698e d73d 8ccc 89bd 4263 8f3d 2c76 663d
00000100: 1087 cf3d 25c3 c7be dc50 8ebd 76f7 07be
00000110: 9455 2f3d 2e4e 273d 3b9b 5fbe e643 593e
00000120: 830b b73d abf2 963e 084c 123e e229 acbd
00000130: af48 b33d afe5 00be 018b 153d 3404 243e
00000140: b74f 643e ceb3 c8bd 7777 293e 1608 803e
00000150: 5203 65bd 6440 1cbc 47a3 713e 31d7 1ebd
00000160: 2677 dabd 619e 0ebc c91d 50be 15e5 173e
00000170: 604e 283e ea82 9a3d 434e 1c3e 2dde 5e3e
00000180: 35c5 0b3e 2504 51bc 2e0d ebbd 8df1 89be
00000190: 7fce 2e3e 7b17 d53d a611 ae3d 3eec 61be
000001a0: 1e04 5a3e da1f d43a 849f 1a3d 20d1 3e3e
000001b0: 21db df3d 68f9 23be 5c70 a5bd 6dac e6bd
000001c0: 3596 e73d 4249 3e3e 4d20 1ebc 4978 1bbd
000001d0: 7504 133e 37ba 13be 7fe2 33bd e588 413e
000001e0: 5de1 e13d c1ed 19be bbba 4dbe e6cd 10be
000001f0: e0f4 ca3d 870c 67bd 8ad7 823d 010c 733d
00000200: f93e a8bd 4c2e b93c 90b1 11bc c5a2 ab3e
00000210: e7f9 363d b53a 493e 111b cfbc 4654 903d
00000220: d68e 85bd ba48 bfbd 6f41 ed3d 4279 1d3d
00000230: 73d0 8e3d f668 acbc 1733 cfbd 3510 5b3d
00000240: 7c0b 143e 6b70 dcbd f71d f4bd b7cf 203d
00000250: 9da0 2c3e f926 a93c 8954 683e 2fd5 0c3e
00000260: ea30 683d 24c0 0cbc 7a1b 9c3d 5d3b 263e
00000270: cfdb 0c3c bf84 913c e298 1cbd f758 3a3e
00000280: 43d6 0a3e 22d8 0fbe 2d5a 553e ab70 d43d
00000290: 7e5f 78bd 5b09 b2bc 2fa9 4fbd 6303 33be
000002a0: 47af 3a3e f1cc e53d 3cd4 7bbd a920 483d
000002b0: b04b b13d ab7a babd 7ca2 d3bd b843 5a3d
000002c0: 2315 e53d 6f30 173e 250b d8bd c94c 5d3e
000002d0: 1256 48be dc5b a43e c2ed e5bd 3600 fe3b
000002e0: bfb8 713d 1bb6 633d 8739 29be c268 133e
000002f0: 325c 94bd 4e54 213c 96ac aebd 7545 f23d
00000300: dc4f bd3b 6c3a 1a3d 8c15 cbbd aaa8 503d
00000310: 5810 b33d cf40 dcbd fc0f 583e ee33 173e
00000320: da80 383e e5e9 183e 3a2e a03d c022 2ebe
00000330: 81c7 8dbd ef96 443c c1b6 e4bc 7784 993d
00000340: c69e 8dbe 0eb8 9cbd 04cf 8d3c c216 9ebb
00000350: 5e2b 193c 79d3 4cbe ba67 d4bc d53c 2dbe
00000360: c29d 18bd f14f b03d 5f87 623d a883 183e
00000370: bbd5 84bc b70d 2c3d 318b 2ebc 0a43 e93d
00000380: 3e93 cfbd 8eeb b13c ee28 33be 2820 0b3e
00000390: 265f fabd 3dc6 903e 90c5 ccbd caf3 ea3d
000003a0: 5a4a 903d c824 05bd f59f 5d3e 90b9 6ebe
000003b0: cf39 883d ee98 063e ab07 5abd f979 be3c
000003c0: 9984 463e 9129 55be 9b7f 113e cd95 023e
000003d0: 9035 ddbb 28e0 ecbd f77d 4cbe fd7b 10bd
000003e0: e81c 143e e5f0 9dbd f325 21be 63f1 3c3d
000003f0: fa87 08bd 0445 91bd 70fb f3bc afcd 31be

encoder.graph_embed.GCN_in.linear.bias f4 [32]
0.1171033 0.22460893 0.16520555 0.14478646 0.2461363 -0.030463008 -0.022762353 -0.03906072
0.17183468 0.05400062 -0.052517578 0.2058997 0.04007759 0.019823922 -0.14068434 0.008263245
0.091608085 -0.009880057 -0.011668026 -0.18831429 0.2239894 -0.11476207 0.22867706 0.1266888
-0.27966076 -0.17136016 0.1790156 0.0436855 -0.027978286 0.12070955 0.17665356 0.17701887
00000000: dbd3 ef3d e2ff 653e a52b 293e e742 143e
00000010: 270b 7c3e 8f8d f9bc 1d78 babc 22fe 1fbd
00000020: 6ef5 2f3e c12f 5d3d ac1c 57bd 5fd7 523e
00000030: 6628 243d c765 a23c 8e0f 10be 9062 073c
00000040: 059d bb3d f6df 21bc 402b 3fbc 76d5 40be
00000050: 7a5d 653e 6008 ebbd 522a 6a3e b5ba 013e
00000060: b22f 8fbe 0a79 2fbe de4f 373e 91ef 323d
00000070: b832 e5bc 9236 f73d ace4 343e 6f44 353e

encoder.graph_embed.bn.weight f4 [32]
1.0419651 1.0607858 0.96280396 0.8638354 0.97251356 0.9772405 0.94804776 0.9983401
0.9730285 0.8896992 1.0395963 0.86099756 0.97212803 0.94800276 0.885758 0.9009853
0.9961826 1.0148621 0.9561426 0.9725946 0.93565375 1.0403818 1.0495908 0.95485497
0.96129936 0.8712822 0.97396106 1.0307106 0.98244935 0.94594455 0.9330951 0.9050631
00000000: 1d5f 853f d4c7 873f 527a 763f 5124 5d3f
00000010: a6f6 783f 6f2c 7a3f 42b3 723f 3793 7f3f
00000020: 6518 793f 54c3 633f 7e11 853f 566a 5c3f
00000030: 62dd 783f 4fb0 723f 09c1 623f f9a6 663f
00000040: d305 7f3f 00e7 813f c3c5 743f f6fb 783f
00000050: 0187 6f3f 3b2b 853f fe58 863f 6071 743f
00000060: b717 763f 5a0c 5f3f 8355 793f 53ee 833f
00000070: cd81 7b3f 6c29 723f 52df 6e3f 37b2 673f

encoder.graph_embed.bn.bias f4 [32]
0.077689365 0.055631526 -0.08318484 -0.04301264 -0.02994057 0.05807214 0.047480773 -0.043262757
0.030300198 -0.033267066 -0.06510772 -0.037652086 0.06833171 -0.03170902 0.0502897 -0.052491177
0.049457055 0.055291407 -0.006581357 0.01286039 -0.09050682 0.009959497 -0.08279186 0.017997637
-0.01759039 0.065023035 -0.007199245 -0.0238128 -0.030500395 0.017631328 0.01875867 0.080565654
00000000: 9a1b 9f3d e2dd 633d d05c aabd 062e 30bd
00000010: ed45 f5bc 0ddd 6d3d 337b 423d 4a34 31bd
00000020: 1f38 f83c 0c43 08bd 3257 85bd 1339 1abd
00000030: 7ff1 8b3d 51e1 01bd 93fc 4d3d fd00 57bd
00000040: 7b93 4a3d 3e79 623d 6da8 d7bb 63b4 523c
00000050: a45b b9bd 282d 233c c78e a9bd c86f 933c
00000060: b919 90bc cc2a 853d a5e7 ebbb 1013 c3bc
00000070: f7db f9bc 936f 903c c8ab 993c 9bff a43d

encoder.graph_embed.bn.running_mean f4 [32]
-0.013581247 -0.021422759 -0.0064526154 0.03151764 0.019941695 0.014839293 -0.015764086 -0.01023668
-0.016524721 -0.008927764 0.023053298 0.029119603 -0.025208673 -0.0016772733 0.014168225 -0.0140267825
0.0061315396 0.0069855484 0.022621673 0.0023753147 -0.02577707 0.049746085 0.008388518 -0.01186219
0.0012148118 0.05876362 -0.011017977 -0.030586617 -0.005085838 -0.005203187 0.04368683 0.033594463
00000000: e183 5ebc c87e afbc 7670 d3bb a418 013d
00000010: c45c a33c 8220 733c af23 81bc bfb7 27bc
00000020: da5e 87bc c245 12bc 45da bc3c 3c8c ee3c
00000030: 6b82 cebc f4d7 dbba d821 683c 97d0 65bc
00000040: 15eb c83b 07e7 e43b 1651 b93c 2bab 1b3b
00000050: 6f2a d3bc 8dc2 4b3d ff6f 093c a259 42bc
00000060: 523a 9f3a 1fb2 703d bf84 34bc c990 fabc
00000070: 1aa7 a6bb 7f7f aabb f6f0 323d 599a 093d

encoder.graph_embed.bn.running_var f4 [32]
0.0025856374 0.004983317 0.003606917 0.0033455181 0.0045565316 0.004293222 0.0028525959 0.00585737
0.01136804 0.006126513 0.006005104 0.004988334 0.0047845505 0.0069297045 0.004643488 0.0036224024
0.0026446062 0.0031743483 0.005120945 0.0032371962 0.0033872218 0.012526809 0.0033486257 0.003827344
0.00489308 0.011654292 0.0025452941 0.004071222 0.0029359516 0.0018648616 0.013854398 0.009485475
00000000: cc73 293b 184b a33b 0762 6c3b 7b40 5b3b
00000010: f54e 953b 28ae 8c3b 9ef2 3a3b 2eef bf3b
00000020: 0441 3a3c eac0 c83b 77c6 c43b 2e75 a33b
00000030: b8c7 9c3b 9312 e33b 6728 983b d465 6d3b
00000040: 2151 2d3b ba08 503b 9acd a73b 2427 543b
00000050: 27fc 5d3b 3f3d 4d3c 9e74 5b3b 2dd4 7a3b
00000060: 2156 a03b a5f1 3e3c f3ce 263b e367 853b
00000070: 1869 403b 5f6e f43a 8ffd 623c f768 1b3c

encoder.graph_embed.GCN_layers.0.A f4 [9, 9]
-0.33448413 -0.5763359 0.30975017 -0.7788873 0.96690834 0.9680279 0.20199393 -1.8926898
-1.8964969 0.13424048 -0.8111868 -1.7262527 0.7058493 0.9969122 0.16004877 2.4827385
1.2296606 -0.9504816 -0.54476994 -0.76372665 -0.74110776 0.50278354 -0.37808546 1.3651044
1.299023 -1.3926421 -0.21326664 0.0037801983 -0.7222267 -0.7115985 0.93458575 0.1910311
3.061605 -1.3028537 -0.6939666 -0.43334785 -0.5084094 0.101592265 -1.0245144 -1.0792574
-0.81753516 1.4555378 -0.16369084 1.4669915 -0.8416618 -2.142186 -1.2334318 -1.349433
0.34728533 0.25934812 1.1370784 0.9516099 0.55751747 -0.16688508 0.16118042 -0.058768842
1.4690801 -0.55345833 0.8875456 1.1085914 1.0383558 -0.66205853 1.0384469 0.3813388
0.43694243 0.33596185 -0.9997197 -1.2467599 -1.505682 1.3875196 1.7121277 0.8575924
-0.60521966 1.7332586 0.24055769 1.3925495 -1.5217526 -0.5128459 -0.28336108 0.17721762
-0.10274546
00000000: 8141 abbe c08a 13bf 9397 9e3e 2865 47bf
00000010: 4e87 773f add0 773f 7fd7 4e3e a943 f2bf
00000020: 69c0 f2bf 5676 093e f0a9 4fbf d9f5 dcbf
00000030: 8ab2 343f a335 7f3f d3e3 233e 30e5 1e40
00000040: 8565 9d3f c352 73bf 0b76 0bbf 9783 43bf
00000050: 3db9 3dbf 6cb6 003f 6b94 c1be bebb ae3f
00000060: 6346 a63f 1942 b2bf 9262 5abe 34bd 773b
00000070: d9e3 38bf 522b 36bf 0341 6f3f a89d 433e
00000080: 56f1 4340 e9c3 a6bf cca7 31bf c5df ddbe
00000090: 1e27 02bf 9b0f d03d 4a23 83bf 1b25 8abf
000000a0: fc49 51bf 104f ba3f 929e 27be 61c6 bb3f
000000b0: 2677 57bf 9319 09c0 18e1 9dbf 38ba acbf
000000c0: 62cf b13e 47c9 843e c98b 913f b59c 733f
000000d0: 77b9 0e3f ece3 2abe 7b0c 253e 99b7 70bd
000000e0: d10a bc3f 72af 0dbf 3036 633f 53e6 8d3f
000000f0: d8e8 843f ab7c 29bf d4eb 843f d73e c33e
00000100: ebb6 df3e 3103 ac3e a1ed 7fbf d495 9fbf
00000110: 30ba c0bf 3e9a b13f 0027 db3f 2d8b 5b3f
00000120: adef 1abf 6bdb dd3f c154 763e 103f b23f
00000130: cac8 c2bf de49 03bf b414 91be 8978 353e
00000140: 366c d2bd

encoder.graph_embed.GCN_layers.0.linear.weight f4 [32, 32]
0.018179191 -0.11719945 -0.03788949 -0.21611534 0.1234804 0.03019848 -0.04879829 -0.009773664
-0.015437964 -0.09320518 0.11756477 0.075774714 -0.016648186 -0.053101093 -0.1112286 0.14499816
0.0046467325 -0.18614043 -0.073607415 -0.14301927 -0.097969264 -0.054717332 0.16074602 0.06427256
-0.05104309 -0.17912123 0.09202744 0.07908828 0.04767409 0.1307809 -0.06717761 0.017489776
-0.04439254 -0.054388635 -0.07203495 -0.17244653 -0.09893279 -0.036872316 -0.053059097 -0.09679455
0.049465265 -0.03081019 -0.0041921544 0.052426882 -0.12683812 0.08917171 0.1001375 0.09779776
0.04170065 -0.22889486 0.13691632 0.13351199 0.23198976 0.12829588 -0.06371304 -0.053258967
0.048224743 -0.1163078 -0.17801969 0.103647225 0.057112254 -0.2725002 0.006667048 0.055749554
0.007720865 0.06226305 -0.06327569 -0.007351701 0.080049016 -0.0051357117 0.14977637 0.074693315
-0.1654151 0.15014076 0.09825428 0.05668257 0.16101027 0.16380584 0.057556164 0.12189413
-0.14005497 -0.1216073 0.19734383 0.00864255 -0.17145506 0.0937405 -0.0788659 0.08245614
-0.09037803 -0.046512593 -0.19032575 -0.05329827 0.075119086 0.057271805 -0.14760983 0.030734811
0.12107561 -0.12486749 0.05082328 -0.018828304 -0.06405495 0.0894417 -0.05519109 0.14853723
-0.09036967 0.07925354 0.10320268 -0.1356708 -0.02626781 0.15297353 -0.1028869 -0.014426285
0.022638453 0.06142154 -0.041158266 -0.20530368 -0.05173397 -0.009926499 -0.07377489 0.019968953
0.017190289 -0.0017511466 0.06474318 -0.12796083 0.1449935 -0.14150813 -0.09963639 0.11545069
-0.014735896 0.1356596 -0.08571304 0.10476502 0.121217676 -0.11677929 0.042142224 0.0047028526
0.13660805 0.05262494 0.04336364 0.093836136 -0.11693576 0.02059099 0.011208495 -0.07656474
0.03045223 0.21550927 0.16461815 -0.17672767 -0.08919629 0.035898026 -0.23234059 0.01734636
0.25834933 -0.167465 0.054057676 -0.12764888 -0.024243657 0.057471592 0.0075401803 -0.11431948
0.014115911 0.09241917 -0.05628667 0.043277785 0.044085767 -0.023742137 0.10037402 -0.26683214
0.17081341 -0.06671875 0.07381062 -0.070998445 -0.08971603 -0.063271336 0.00025036777 -0.2133743
0.06582031 0.041518714 -0.12963602 -0.15713024 0.007369693 0.08009151 -0.10429402 0.067221306
0.005574634 0.07031021 0.1006943 -0.05104893 0.019822896 0.2111221 -0.14811818 0.09640259
0.08712435 -0.12921599 0.06399636 0.00806118 0.051243696 -0.091177 -0.06835063 0.020455353
0.10111326 0.009622337 0.09947426 -0.030764302 0.03544087 -0.0060300017 0.06995207 0.07966465
-0.09786169 -0.11226866 -0.06002142 -0.013522232 -0.124166936 -0.10969369 0.17483047 -0.099878855
-0.057230435 0.032942344 0.014461494 0.053418383 0.027821478 -0.07954703 -0.16167781 0.0010899762
0.17226142 0.07148184 0.16030982 0.11708529 0.041883342 -0.16326249 -0.01085318 -0.026079986
-0.016389137 -0.08680652 -0.012741205 -0.051848914 -0.015434144 -0.0547396 0.023461578 -0.014068874
0.058397014 -0.11604 -0.03117143 0.0855803 0.090568975 -0.010842217 -0.11558541 0.19116496
-0.115188 0.030549629 -0.20851041 -0.03953228 9.006853e-05 0.0349095 -0.029536448 -0.02385007
00000000: 87ec 943c 4406 f0bd 0332 1bbd 574d 5dbe
00000010: 4be3 fc3d cd62 f73c b7e0 47bd b821 20bc
00000020: 84ef 7cbc 5be2 bebd ccc5 f03d c62f 9b3d
00000030: c761 88bc 8880 59bd d2cb e3bd 667a 143e
00000040: 9e43 983b 999b 3ebe 7cbf 96bd a573 12be
00000050: 1ca4 c8bd 481f 60bd 9b9a 243e 55a1 833d
00000060: 8f12 51bd 8e6b 37be e278 bc3d 09f9 a13d
00000070: e845 433d 6eeb 053e 6a94 89bd b846 8f3c
00000080: f4d4 35bd 9ec6 5ebd 0f87 93bd d395 30be
00000090: 469d cabd 6d07 17bd 7f54 59bd 393c c6bd
000000a0: 179c 4a3d a765 fcbc 575e 89bb 92bd 563d
000000b0: dae1 01be a89f b63d e414 cd3d 314a c83d
000000c0: 4dce 2a3d 6a63 6abe cb33 0c3e 5eb7 083e
000000d0: b98e 6d3e ff5f 033e fb7b 82bd 1326 5abd
000000e0: 4f87 453d c932 eebd cb4a 36be ff44 d43d
000000f0: 8aee 693d 2585 8bbe 4177 da3b a559 643d
00000100: 4fff fc3b 8a07 7f3d af96 81bd 8ae6 f0bb
00000110: bdf0 a33d 7949 a8bb fa5e 193e cff8 983d
00000120: 9362 29be 80be 193e 8a39 c93d fc2b 683d
00000130: e0df 243e b8bc 273e 03c0 6b3d a1a3 f93d
00000140: 926a 0fbe 400d f9bd 8014 4a3e 7b99 0d3c
00000150: ea91 2fbe 05fb bf3d 7284 a1bd c4de a83d
00000160: 1e18 b9bd fd83 3ebd c1e4 42be 494f 5abd
00000170: 09d8 993d d795 6a3d 0827 17be 92c7 fb3c
00000180: 7df6 f73d 87ba ffbd 122c 503d d13d 9abc
00000190: 3e2f 83bd 362d b73d 0d10 62bd 251a 183e
000001a0: bc13 b9bd ae4f a23d ed5b d33d 49ed 0abe
000001b0: 972f d7bc 18a5 1c3e 5eb6 d2bd 3a5c 6cbc
000001c0: 4774 b93c 2795 7b3d 9295 28bd 213b 52be
000001d0: 00e7 53bd c1a2 22bc 4a17 97bd ee95 a33c
000001e0: a6d2 8c3c bb86 e5ba 1398 843d 2a08 03be
000001f0: 2d79 143e 82e7 10be 2a0e ccbd 6971 ec3d
00000200: d46e 71bc 5aea 0a3e 518a afbd 0b8f d63d
00000210: f940 f83d fb29 efbd 539d 2c3d 631a 9a3b
00000220: fbe2 0b3e 408d 573d 129e 313d 292d c03d
00000230: 047c efbd 70ae a83c d6a3 373c f9cd 9cbd
00000240: f476 f93c 76ae 5c3e a991 283e 19f8 34be
00000250: 8bac b6bd cf09 133d b1ea 6dbe f419 8e3c
00000260: 5d46 843e f27b 2bbe 956b 5d3d 63b6 02be
00000270: a29a c6bc 5567 6b3d 9e13 f73b 5520 eabd
00000280: 6c46 673c 4346 bd3d da8c 66bd 0c44 313d
00000290: 4793 343d df7e c2bc e590 cd3d 399e 88be
000002a0: b6e9 2e3e d7a3 88bd 062a 973d a267 91bd
000002b0: 0abd b7bd 6794 81bd cb43 8339 cb7e 5abe
000002c0: cccc 863d 870f 2a3d 4ebf 04be c0e6 20be
000002d0: 777d f13b 0507 a43d 1a98 d5bd 53ab 893d
000002e0: 6bab b63b cdfe 8f3d d038 ce3d af18 51bd
000002f0: a063 a23c 6430 583e 4bac 17be b96e c53d
00000300: 406e b23d 3251 04be 8610 833d 0a13 043c
00000310: e9e4 513d 02bb babd 6afb 8bbd fc91 a73c
00000320: 7814 cf3d 02a7 1d3c 29b9 cb3d 6b05 fcbc
00000330: 722a 113d 5297 c5bb 0843 8f3d 3827 a33d
00000340: b66b c8bd 1ced e5bd 05d9 75bd 5a8c 5dbc
00000350: 3c4b febd 16a7 e0bd c206 333e 498d ccbd
00000360: 766a 6abd 8dee 063d e7ef 6c3c 3ccd 5a3d
00000370: dee9 e33c 8ee9 a2bd de8e 25be 88dd 8e3a
00000380: 4c65 303e 1265 923d 4228 243e 6aca ef3d
00000390: de8d 2b3d 482e 27be 89d1 31bc b2a5 d5bc
000003a0: 8342 86bc 9ec7 b1bd 7dc0 50bc 875f 54bd
000003b0: 7edf 7cbc a136 60bd 7f32 c03c 2281 66bc
000003c0: b531 6f3d 61a6 edbd 3a5b ffbc b944 af3d
000003d0: 3a7c b93d 8ea3 31bc 0bb8 ecbd bfc0 433e
000003e0: b0e7 ebbd 3743 fa3c c183 55be 9aec 21bd
000003f0: 2de3 bc38 44fd 0e3d 6cf6 f1bc 3961 c3bc

encoder.graph_embed.GCN_layers.0.linear.bias f4 [32]
-0.01800492 0.031246709 0.008651418 0.03597274 -0.027654726 -0.029710958 0.0001942127 -0.05260986
-0.12764838 -0.07766207 -0.07409294 0.022365445 -0.02797559 0.007694328 -0.032307364 -0.02174935
0.02788994 -0.0017295134 -0.10841308 0.11162383 -0.030753048 0.06616627 0.008131721 -0.07050075
-0.060407598 0.029569328 0.01521368 0.09736787 -0.07338663 -0.021439707 0.007437766 0.015468002
00000000: 0e7f 93bc 19f9 ff3c adbe 0d3c 2758 133d
00000010: 2a8c e2bc 6564 f3bc 93a5 4b39 707d 57bd
00000020: 42b6 02be 4b0d 9fbd 0abe 97bd bd37 b73c
00000030: 112d e5bc b420 fc3b ba54 04bd b12b b2bc
00000040: 7279 e43c d7b0 e2ba ad07 debd 099b e43d
00000050: d1ed fbbc 2e82 873d e93a 053c b262 90bd
00000060: f56d 77bd 603b f23c cd42 793c ce68 c73d
00000070: bb4b 96bd 53a2 afbc 81b8 f33b 816d 7d3c

encoder.pos_enc.pe f4 [500, 32]
0.0 1.0 0.0 1.0 0.0 1.0 0.0 1.0
0.0 1.0 0.0 1.0 0.0 1.0 0.0 1.0
0.0 1.0 0.0 1.0 0.0 1.0 0.0 1.0
0.0 1.0 0.0 1.0 0.0 1.0 0.0 1.0
0.84147096 0.54030234 0.53316844 0.8460091 0.3109836 0.9504153 0.17689219 0.9842302
0.099833414 0.9950042 0.05620449 0.9984193 0.031617504 0.99950004 0.017781857 0.99984187
0.009999833 0.99995 0.0056233825 0.9999842 0.0031622713 0.999995 0.0017782785 0.99999845
0.0009999998 0.9999995 0.0005623411 0.9999998 0.00031622782 0.99999994 0.00017782794 1.0
0.9092974 -0.41614684 0.9021307 0.43146282 0.5911271 0.8065784 0.34820527 0.93741834
0.19866931 0.9800666 0.1122313 0.9936821 0.063203394 0.9980007 0.03555809 0.9993676
0.019998666 0.9998 0.011246587 0.99993676 0.006324511 0.99998003 0.0035565514 0.9999937
0.0019999985 0.99999803 0.0011246821 0.99999934 0.0006324556 0.9999998 0.00035565588 0.99999994
0.14112 -0.9899925 0.9932532 -0.11596616 0.8126489 0.58275366 0.5085361 0.86104065
0.2955202 0.9553365 0.16790329 0.9858035 0.094726086 0.99550337 0.053323083 0.9985773
0.0299955 0.99955004 0.016869437 0.9998577 0.009486687 0.999955 0.005334813 0.99998575
0.0029999954 0.9999955 0.0016870227 0.99999857 0.00094868336 0.9999996 0.0005334838 0.9999999
-0.7568025 -0.6536436 0.7784717 -0.6276797 0.95358074 0.30113748 0.652828 0.7575062
0.38941833 0.921061 0.22304447 0.9748083 0.12615407 0.99201065 0.07107121 0.9974712
0.039989334 0.9992001 0.022491753 0.99974704 0.01264877 0.99992 0.0071130577 0.9999747
0.003999989 0.999992 0.0022493629 0.9999975 0.0012649109 0.9999992 0.0007113117 0.99999976
-0.9589243 0.2836622 0.32393527 -0.94607925 0.99994653 -0.010342338 0.77652997 0.6300803
0.47942552 0.87758255 0.2774805 0.96073127 0.15745588 0.987526 0.08879686 0.99604976
0.049979165 0.99875027 0.028113356 0.99960476 0.015810724 0.999875 0.00889128 0.9999605
0.004999979 0.9999875 0.0028117022 0.99999607 0.0015811383 0.99999875 0.0008891396 0.9999996
-0.2794155 0.96017027 -0.23036751 -0.9731037 0.9471482 -0.3207964 0.8757405 0.48278204
0.5646424 0.8253356 0.3310393 0.943617 0.18860027 0.98205394 0.10649444 0.9943133
0.059964005 0.99820054 0.033734076 0.99943084 0.018972522 0.99982 0.0106694745 0.9999431
0.0059999637 0.999982 0.0033740408 0.99999434 0.0018973658 0.9999982 0.0010669674 0.99999946
0.6569866 0.75390226 -0.7137213 -0.7004298 0.8004216 -0.5994375 0.9473307 0.320257
0.6442176 0.7648422 0.38355154 0.9235195 0.2195561 0.9755999 0.12415834 0.9922624
0.06994285 0.997551 0.03935372 0.9992253 0.022134129 0.999755 0.012447635 0.9999225
0.006999942 0.9999755 0.0039363783 0.99999225 0.0022135929 0.99999756 0.0012447953 0.9999992
00000000: 0000 0000 0000 803f 0000 0000 0000 803f
00000010: 0000 0000 0000 803f 0000 0000 0000 803f
00000020: 0000 0000 0000 803f 0000 0000 0000 803f
00000030: 0000 0000 0000 803f 0000 0000 0000 803f
00000040: 0000 0000 0000 803f 0000 0000 0000 803f
00000050: 0000 0000 0000 803f 0000 0000 0000 803f
00000060: 0000 0000 0000 803f 0000 0000 0000 803f
00000070: 0000 0000 0000 803f 0000 0000 0000 803f
00000080: a46a 573f 4151 0a3f ba7d 083f 0d94 583f
00000090: 3e39 9f3e 6b4e 733f 3a23 353e 83f6 7b3f
000000a0: 7675 cc3d 98b8 7e3f ae36 663d 6898 7f3f
000000b0: 5b81 013d 3cdf 7f3f 42ab 913c a3f5 7f3f
000000c0: 57d6 233c b9fc 7f3f 5a44 b83b f7fe 7f3f
000000d0: 1c3e 4f3b acff 7f3f 2015 e93a e6ff 7f3f
000000e0: 6d12 833a f8ff 7f3f 136a 133a fdff 7f3f
000000f0: 61cb a539 ffff 7f3f 5377 3a39 0000 803f
00000100: b7c7 683f 3311 d5be 0af2 663f b2e8 dc3e
00000110: 1b54 173f ec7b 4e3f f647 b23e a6fa 6f3f
00000120: f86f 4b3e a5e5 7a3f 86d9 e53d f361 7e3f
00000130: c870 813d f97c 7f3f 5ca5 113d 8ed6 7f3f
00000140: 3ed4 a33c e5f2 7f3f 9b43 383c dbfb 7f3f
00000150: d83d cf3b b1fe 7f3f 0815 693b 96ff 7f3f
00000160: 6812 033b dfff 7f3f 126a 933a f5ff 7f3f
00000170: 60cb 253a fdff 7f3f 5377 ba39 ffff 7f3f
00000180: c381 103e 2670 7dbf d745 7e3f ab7f edbd
00000190: c209 503f 582f 153f 6c2f 023f 296d 5c3f
000001a0: 6c4e 973e ef90 743f d7ee 2b3e 9e5d 7c3f
000001b0: c0ff c13d 4fd9 7e3f 4e69 5a3d c3a2 7f3f
000001c0: 1fb9 f53c 83e2 7f3f c631 8a3c adf6 7f3f
000001d0: 0d6e 1b3c 0dfd 7f3f a8cf ae3b 11ff 7f3f
000001e0: 929b 443b b5ff 7f3f 171f dd3a e8ff 7f3f
000001f0: 10b1 783a f9ff 7f3f 7ed9 0b3a feff 7f3f
00000200: cfbd 41bf 3055 27bf ec49 473f 9eaf 20bf
00000210: de1d 743f b12e 9a3e bc1f 273f edeb 413f
00000220: d761 c73e a7ca 6b3f c565 643e 098d 793f
00000230: 882e 013e 69f4 7d3f c88d 913d 465a 7f3f
00000240: dbcb 233d 94cb 7f3f a040 b83c 6cef 7f3f
00000250: c93c 4f3c c2fa 7f3f a714 e93b 58fe 7f3f
00000260: 5712 833b 7aff 7f3f 0c6a 133b d6ff 7f3f
00000270: 5ecb a53a f3ff 7f3f 5277 3a3a fcff 7f3f
00000280: 107c 75bf 2c3c 913e d8da a53e 4032 72bf
00000290: 7ffc 7f3f e972 29bc abca 463f f14c 213f
000002a0: 4377 f53e 40a9 603f ed11 8e3e 7cf2 753f
000002b0: 1d3c 213e 81ce 7c3f 21db b53d 1efd 7e3f
000002c0: f4b6 4c3d 19ae 7f3f fb4d e63c 19e6 7f3f
000002d0: 7e85 813c cff7 7f3f bbac 113c 69fd 7f3f
000002e0: ddd6 a33b 2eff 7f3f 8944 383b beff 7f3f
000002f0: 333e cf3a ebff 7f3f 2615 693a f9ff 7f3f
00000300: 8c0f 8fbe b8cd 753f 76e5 6bbe 531d 79bf
00000310: 4e78 723f 6d3f a4be 8830 603f 352f f73e
00000320: 688c 103f 3249 533f fc7d a93e e290 713f
00000330: 6e20 413e e367 7b3f c219 da3d 518b 7e3f
00000340: d19c 753d 128a 7f3f be2c 0a3d b3da 7f3f
00000350: 436c 9b3c 34f4 7f3f 05cf 2e3c 45fc 7f3f
00000360: 589b c43b d2fe 7f3f 031f 5d3b a1ff 7f3f
00000370: 08b1 f83a e2ff 7f3f 7cd9 8b3a f7ff 7f3f
00000380: 4630 283f bdff 403f 70b6 36bf 5e4f 33bf
00000390: 6ee8 4c3f bc74 19bf 4484 723f baf8 a33e
000003a0: 72eb 243f b3cc 433f de60 c43e c66b 6c3f
000003b0: 50d3 603e eac0 793f ba46 fe3d e904 7e3f
000003c0: 323e 8f3d 815f 7f3f 5e31 213d 3bcd 7f3f
000003d0: a252 b53c f2ef 7f3f 2af1 4b3c ecfa 7f3f
000003e0: c55f e53b 65fe 7f3f bcfc 803b 7eff 7f3f
000003f0: ed11 113b d7ff 7f3f 6628 a33a f3ff 7f3f

encoder.transformer.in_proj_weight f4 [96, 32]
-0.047464818 0.04243268 0.065693565 -0.08737144 0.0027871467 -0.07273197 0.2268501 0.04105488
0.08351876 -0.13790779 0.009771992 -0.23490618 0.25890896 -0.0010815558 0.19056071 0.19799918
-0.17039038 0.16458298 0.092075154 -0.13314633 -0.20513336 0.11741078 -0.07304148 -0.0043857535
0.11349827 0.090732016 -0.048460104 0.19378683 0.05862152 0.21160202 -0.1451156 0.20805329
-0.054857485 -0.049106825 0.05542417 0.055900134 0.23358412 -0.010359343 -0.05915919 -0.032945447
0.016902557 0.09346318 -0.067771666 0.20413342 -0.014096602 -0.12347411 -0.2406587 0.014258514
0.038860906 -0.14645663 0.12829979 -0.041159976 0.15488432 -0.14739038 -0.03757616 -0.31147185
0.09165193 -0.21038626 0.06513619 0.05929079 0.050172705 -0.005439911 -0.07760033 -0.07273712
-0.10971636 0.1030111 0.019236136 -0.025974864 0.061330616 -0.03850614 -0.16679882 -0.22114109
-0.22375305 0.102298126 0.06744385 -0.048421875 0.02885248 -0.25864106 -0.03306158 0.14066595
-0.09670845 0.1359909 0.08996759 -0.090899594 -0.21354838 0.21846816 -0.058107622 0.15128878
0.21649751 0.18054022 0.15797134 0.14149532 0.17708236 -0.004277547 0.07823119 -0.15818775
0.04112635 0.1867543 0.20019525 -0.03061276 -0.08688095 0.24106847 -0.23356594 0.090263225
-0.15356386 0.014708262 0.06566328 -0.24467403 0.13493338 -0.13597745 0.13860439 0.08938053
0.10443182 -0.1397028 -0.22079171 -0.002183493 -0.24457838 0.22876702 0.13969246 0.035173927
-0.05447182 0.028692106 -0.06503956 0.029271184 -0.18632947 -0.024562247 -0.29243985 0.21975292
0.083115354 0.18302877 0.19333376 0.18833637 0.13348806 0.05076574 -0.09962202 -0.062206194
0.18940832 0.15665962 -0.16070886 0.05060673 -0.0027925104 -0.1344438 -0.26821905 0.07202006
-0.20744297 -0.110935315 -0.20894614 -0.04332883 0.07132566 -0.08081322 0.037298422 -0.07339185
-0.0038778482 -0.24206646 -0.018832091 -0.115817085 0.052949574 -0.016882371 -0.12591206 0.060912978
0.111301 -0.06519927 0.15248297 -0.07461112 0.10238106 -0.01415628 -0.005410766 -0.20382597
0.10478862 0.14881623 -0.070463285 -0.046580873 -0.071872026 -0.15804708 0.05637029 -0.19781516
0.14277355 -0.17729592 0.14732952 0.030912928 0.13578947 0.06549981 0.15498216 -0.14402819
-0.042202625 -0.008492013 -0.041626193 -0.07386729 -0.1888521 -0.042696107 0.17871355 -0.03383906
0.007817316 0.19980246 -0.028334767 0.25471896 0.20606977 0.084317826 -0.18006918 -0.1538838
0.21222797 0.19365673 0.19974557 -0.07803216 0.088775456 -0.1680837 -0.09805551 -0.18891379
-0.20488271 -0.22634582 0.1975304 -0.0859557 -0.1450924 -0.23263045 -0.019880457 -0.16413626
0.08700422 -0.25806388 -0.039441302 -0.10238515 -0.25523677 -0.019806685 0.1862013 -0.17636338
0.037120733 0.16504209 0.1340253 0.28192762 -0.0003862422 0.19005057 -0.19168203 -0.013836261
-0.12523009 -0.01666605 -0.23645036 -0.04221805 0.00027950617 0.083665326 0.11637574 0.046513986
-0.15331496 -0.14136156 0.1018698 -0.07904686 -0.07575275 0.04636812 -0.07165338 -0.084361546
-0.069643945 0.09393046 0.02717044 -0.19244923 -0.039705798 -0.15471683 -0.10334733 -0.07155206
00000000: 786a 42bd e4cd 2d3d 598a 863d ccef b2bd
00000010: 90a8 363b 80f4 94bd 654b 683e 2929 283d
00000020: e20b ab3d b337 0dbe b51a 203c 3f8b 70be
00000030: b78f 843e fec2 8dba 5922 433e 4cc0 4a3e
00000040: d17a 2ebe 7188 283e e691 bc3d 8357 08be
00000050: 7b0e 52be 1075 f03d c596 95bd 5eb6 8fbb
00000060: c871 e83d b5d1 b93d 1a7e 46bd 0e70 463e
00000070: 1e1d 703d 33ae 583e 2f99 14be ec0b 553e
00000080: 3eb2 60bd 3d24 49bd 7404 633d 8af7 643d
00000090: ad30 6f3e 3cba 29bc e850 72bd cef1 06bd
000000a0: 3b77 8a3c a069 bf3d dfcb 8abd 5a08 513e
000000b0: 6ff5 66bc ffdf fcbd 3c6f 76be 8b9c 693c
000000c0: 9d2c 1f3d baf8 15be 0561 033e 5d97 28bd
000000d0: ff99 1e3e 81ed 16be 76e9 19bd 3d79 9fbe
000000e0: 02b4 bb3d 7f6f 57be 1f66 853d e6da 723d
000000f0: e581 4d3d 4841 b2bb ecec 9ebd 33f7 94bd
00000100: f9b2 e0bd 7cf7 d23d 1a95 9d3c 3dc9 d4bc
00000110: d035 7b3d 9db8 1dbd 4fcd 2abe cf72 62be
00000120: 851f 65be ae81 d13d 0020 8a3d 0456 46bd
00000130: 095c ec3c 9a6c 84be 946b 07bd bc0a 103e
00000140: 140f c6bd 3341 0b3e ee40 b83d 9129 babd
00000150: 6dac 5abe 1eb6 5f3e 4202 6ebd 72eb 1a3e
00000160: 86b1 5d3e 89df 383e 3dc3 213e 26e4 103e
00000170: 1455 353e aa2a 8cbb ad37 a03d f8fb 21be
00000180: 1b74 283d 853c 3f3e fcff 4c3e 9cc7 fabc
00000190: a4ee b1bd a7da 763e e92b 6fbe eddb b83d
000001a0: d83f 1dbe ecfa 703c 787a 863d d48b 7abe
000001b0: fa2b 0a3e ac3d 0bbe 4fee 0d3e 240d b73d
000001c0: 5ae0 d53d 400e 0fbe 3917 62be ef18 0fbb
000001d0: c172 7abe e741 6a3e 8a0b 0f3e 8912 103d
000001e0: d81d 5fbd b50b eb3c 7633 85bd 1fca ef3c
000001f0: 27cd 3ebe c436 c9bc adba 95be e906 613e
00000200: 6238 aa3d e56b 3b3e 49f9 453e 40db 403e
00000210: 18b1 083e bdef 4f3d a106 ccbd eccb 7ebd
00000220: 41f4 413e 616b 203e dd90 24be 0149 4f3d
00000230: 8d02 37bb a3ab 09be 0254 89be 417f 933d
00000240: ee6b 54be 0e32 e3bd faf5 55be 9279 31bd
00000250: 3013 923d 6781 a5bd 3bc6 183d 774e 96bd
00000260: 7f23 7ebb 45e0 77be c245 9abc 8231 edbd
00000270: a7e1 583d e64c 8abc 17ef 00be e37f 793d
00000280: c7f1 e33d 3287 85bd 7f24 1c3e b7cd 98bd
00000290: 29ad d13d beef 67bc cc4c b1bb c1b7 50be
000002a0: 6a9b d63d 4863 183e 0e4f 90bd 96cb 3ebd
000002b0: a431 93bd 18d7 21be 89e4 663d 0f90 4abe
000002c0: 3b33 123e 108d 35be 8ddd 163e 1c3d fd3c
000002d0: 650c 0b3e c424 863d a5b3 1e3e 207c 13be
000002e0: a9dc 2cbd 1622 0bbc 3a80 2abd bc47 97bd
000002f0: 7262 41be 1de2 2ebd af00 373e d49a 0abd
00000300: 3314 003c 0499 4c3e 501e e8bc 866a 823e
00000310: f403 533e d3ae ac3d 0e64 38be b793 1dbe
00000320: 4a52 593e f34d 463e 1a8a 4c3e 53cf 9fbd
00000330: e8cf b53d 221e 2cbe 54d1 c8bd 9e72 41be
00000340: c6cc 51be 33c7 67be 6945 4a3e 8b09 b0bd
00000350: 1a93 14be ad36 6ebe 57dc a2bc 5613 28be
00000360: 452f b23d f320 84be 348d 21bd 4eaf d1bd
00000370: 65ae 82be a141 a2bc 8eab 3e3e 9a98 34be
00000380: e90b 183d cb00 293e ee3d 093e d158 903e
00000390: 8d80 cab9 9e9c 423e 4b48 44be 7cb1 62bc
000003a0: 513c 00be 3d87 88bc 0b20 72be d6ec 2cbd
000003b0: af8a 9239 ba58 ab3d 6756 ee3d 7385 3e3d
000003c0: 99fe 1cbe 16c1 10be 1da1 d03d 52e3 a1bd
000003d0: 4224 9bbd 7fec 3d3d 02bf 92bd bfc5 acbd
000003e0: 7ca1 8ebd 9d5e c03d 8b94 de3c 6911 45be
000003f0: 8ca2 22bd 176e 1ebe c4a7 d3bd e389 92bd

encoder.transformer.in_proj_bias f4 [96]
0.059418976 -0.085042864 -0.010278689 0.06035395 -0.07636102 -0.054876883 -0.028609352 -0.035930637
0.019668508 -0.08366456 -0.06972203 0.08223681 0.017600598 0.05255704 0.023776075 -0.07608431
0.04105997 -0.000766227 0.025521621 -0.08060578 0.06711281 0.008395122 0.046562195 -0.040309228
-0.052147202 -0.15481149 -0.095364936 -0.0459625 -0.051864404 0.077734955 -0.06993075 0.009895817
-7.653745e-06 5.639226e-06 -1.9603508e-06 -1.5686206e-06 -7.4569934e-06 6.3016256e-07 1.0666677e-06 1.1440736e-06
-2.180064e-06 -7.5804553e-07 -8.986268e-06 1.0133655e-05 2.493216e-06 7.783452e-07 -1.0196943e-06 3.8292983e-06
8.6260025e-07 4.02699e-06 4.7644075e-06 -4.7379874e-07 -9.1238104e-07 -3.1602238e-07 -2.2482322e-06 -1.2717414e-06
1.1408269e-05 1.4200286e-05 7.9439224e-07 2.4557623e-06 -9.4380375e-06 1.5410038e-05 -2.2089985e-06 -1.7969218e-07
0.0006790704 0.0346052 0.010560212 -0.026145333 0.029395143 -0.045104604 -0.022881009 -0.04232793
0.0065251007 0.024147745 0.030763863 0.035068702 -0.034626644 0.0037485054 0.00863293 0.047307167
-0.002514839 -0.030165307 0.001180731 -0.00658591 -0.0062045427 -0.018983476 0.053904146 0.040209435
0.017703239 0.037896197 0.0075574 0.0034582799 -0.045703236 -0.04615748 -0.04542752 -0.019170275
00000000: 5061 733d f42a aebd f267 28bc b435 773d
00000010: 2b63 9cbd 95c6 60bd 295e eabc 012c 13bd
00000020: da1f a13c 5358 abbd 6cca 8ebd c66b a83d
00000030: 212f 903c 0d46 573d 0bc6 c23c 17d2 9bbd
00000040: 802e 283d a0dc 48ba b812 d13c a514 a5bd
00000050: 7172 893d b28b 093c 00b8 3e3d 4a1b 25bd
00000060: 4e98 55bd e786 1ebe b14e c3bd 2d43 3cbd
00000070: c56f 54bd 8133 9f3d da37 8fbd 1122 223c
00000080: 9668 00b7 9538 bd36 928e 03b6 6589 d2b5
00000090: 1637 fab6 7128 2935 6c2a 8f35 128e 9935
000000a0: 374d 12b6 7e7c 4bb5 bac3 16b7 b803 2a37
000000b0: 2051 2736 7aef 5035 6edc 88b5 6c7d 8036
000000c0: 708d 6735 951f 8736 f3dd 9f36 675e feb4
000000d0: 59ea 74b5 c9a9 a9b4 56e0 16b6 b4b0 aab5
000000e0: 2466 3f37 c43d 6e37 383e 5535 adcd 2436
000000f0: 1058 1eb7 ce44 8137 4e3e 14b6 69f1 40b4
00000100: a503 323a 2fbe 0d3d bd04 2d3c bd2e d6bc
00000110: 15ce f03c 9bbf 38bd f470 bbbc 0d60 2dbd
00000120: 83d0 d53b 7ed1 c53c 7f04 fc3c 33a4 0f3d
00000130: abd4 0dbd 7ca9 753b 2271 0d3c 29c5 413d
00000140: ffcf 24bb 3c1d f7bc c2c2 9a3a 9ece d7bb
00000150: 7a4f cbbb 3c83 9bbc 98ca 5c3d a6b2 243d
00000160: 6206 913c 0b39 1b3d 11a4 f73b 4fa4 623b
00000170: 5133 3bbd a00f 3dbd 3512 3abd fb0a 9dbc

encoder.transformer.out_proj.weight f4 [32, 32]
-0.04696895 -0.1359534 0.043221638 -0.09214464 -0.0823134 -0.020144751 0.02016125 0.0044730254
0.18641412 -0.13621682 0.1092553 0.19135165 -0.179711 0.040157016 0.020749884 0.1022714
-0.1303985 -0.1332048 0.10018153 0.13147862 0.187466 -0.01730459 0.13588257 -0.16305205
0.069088295 0.112382196 0.08415178 -0.14171758 -0.17391193 -0.16478775 -0.110123135 -0.036284663
0.13396566 0.06562225 -0.05741547 -0.07081357 0.1301121 0.0023902913 -0.026088009 0.111509494
0.21592462 -0.0598561 -0.077488445 0.039823238 -0.21003762 -0.0031256927 0.1547557 0.042883527
-0.11875421 -0.20274143 -0.018055655 -0.13174964 -0.054424033 0.037708677 0.15174186 -0.038235843
0.20692213 0.084822394 -0.028544212 0.08303816 -0.020751921 -0.06485585 -0.07369436 -0.1362233
-0.11323418 -0.15800197 0.06602661 -0.124685325 -0.12682353 -0.027942928 0.0050785784 0.1271199
-0.15036017 0.12533201 0.03868057 -0.13678081 -0.072732285 -0.000562961 0.059591368 -0.038888432
0.095840454 0.18248133 0.036078934 0.06471186 0.05945751 0.14700107 -0.19681734 0.11971198
-0.18146965 -0.15814787 -0.10450008 0.033756506 0.20210186 0.01638071 0.013602923 0.1731857
-0.049800552 -0.12956107 0.09497355 -0.14254178 -0.010270603 0.16608098 0.15854949 -0.08751326
-0.12122792 0.026328713 -0.06334498 -0.1387244 -0.03551379 0.01706373 -0.039153796 -0.06488283
0.050726455 0.115205765 0.098110154 0.07293724 0.055547018 -0.09824193 0.1299479 0.115934215
0.06403866 -0.048800632 -0.0955116 0.17091548 -0.021903815 0.08129387 0.02475713 -0.02844481
0.13425781 -0.048522007 -0.034386043 -0.057481956 0.10098874 0.016341751 -0.15376928 0.05156333
-0.17592409 -0.08868012 -0.08915454 -0.052370302 -0.14011016 0.0045464393 -0.0403426 0.058209784
0.08069561 -0.13793895 -0.046237953 -0.03109284 0.018615674 -0.02934394 -0.0026465156 -0.008749172
-0.032667592 -0.11204345 -0.16793646 0.0059805606 0.01668407 -0.12813021 0.12297252 0.009891314
-0.07764529 0.11680903 0.0017036058 -0.031408522 -0.20690776 -0.12943129 -0.056567654 -0.023355076
-0.10019258 0.011393347 -0.12360221 0.22084658 -0.124527924 0.05339678 0.05783705 -0.06215874
0.19464676 -0.07971268 0.00039242 0.19192338 0.11739207 -0.033878233 -0.107301 0.12938525
0.13594013 -0.16917174 0.110241935 0.043696795 0.04068335 -0.17871274 -0.14602366 -0.1268552
-0.12589955 -0.12972747 -0.018105926 -0.14713655 -0.021847311 0.09103229 -0.12519483 -0.16007037
0.1731229 0.10261622 -0.055798247 0.12613137 -0.09388389 0.017263845 0.01921574 0.012806183
-0.043258913 -0.11445587 0.019757465 -0.034135543 0.013729445 -0.1323422 0.123937525 -0.16864745
0.113573626 0.017581282 0.09439439 0.038974438 -0.12706667 0.110981986 0.07710812 -0.19894983
-0.035932884 -0.1868552 0.024261111 0.043561496 -0.1276752 -0.014943527 -0.117390364 0.109435454
0.12012944 -0.12515341 -0.044818416 0.1702154 0.110361986 0.17279622 -0.0415681 0.07765684
-0.084394775 0.20370594 -0.06335053 -0.14086123 0.050402425 -0.18397011 -0.036707874 -0.13036604
0.13405333 -0.1497456 0.09337445 -0.028153628 -0.015580349 0.076661035 0.06968934 0.09233735
00000000: 8462 40bd 5e37 0bbe 2c09 313d 54b6 bcbd
00000010: ee93 a8bd 9b06 a5bc 3529 a53c 7592 923b
00000020: 58e3 3e3e 6c7c 0bbe 3ec1 df3d b0f1 433e
00000030: 2906 38be af7b 243d a9fb a93c ab73 d13d
00000040: 2f87 05be d766 08be f92b cd3d 55a2 063e
00000050: 16f7 3f3e 5bc2 8dbc cd24 0b3e 1ef7 26be
00000060: 2a7e 8d3d a328 e63d c557 ac3d 6a1e 11be
00000070: f815 32be 1fbe 28be 3d88 e1bd 3a9f 14bd
00000080: 4b2e 093e f564 863d 7c2c 6bbd b406 91bd
00000090: 1b3c 053e 6fa6 1c3b 85b6 d5bc 175f e43d
000000a0: 581b 5d3e ab2b 75bd 43b2 9ebd b11d 233d
000000b0: 1a14 57be 6cd8 4cbb 4778 1e3e a3a6 2f3d
000000c0: 6835 f3bd 739b 4fbe 74e9 93bc 61e9 06be
000000d0: bceb 5ebd 6a74 1a3d 3862 1b3e 309d 1cbd
000000e0: 65e3 533e 5db7 ad3d 8dd5 e9bc e90f aa3d
000000f0: efff a9bc 25d3 84bd 12ed 96bd 1f7e 0bbe
00000100: 52e7 e7bd 45cb 21be f638 873d 055b ffbd
00000110: 07de 01be 91e8 e4bc 346a a63b b82b 023e
00000120: 04f8 19be 0957 003e 846f 1e3d 4510 0cbe
00000130: aaf4 94bd ac93 13ba 1416 743d 7a49 1fbd
00000140: 0048 c43d 63dc 3a3e 81c7 133d a787 843d
00000150: b889 733d 7387 163e 7c8a 49be 8e2b f53d
00000160: 2ed3 39be 84f1 21be 2304 d6bd 4344 0a3d
00000170: caf3 4e3e d730 863c cbde 5e3c 9857 313e
00000180: aafb 4bbd a8ab 04be 7e81 c23d 79f6 11be
00000190: 0846 28bc 2211 2a3e cc5a 223e 273a b3bd
000001a0: 5846 f8bd 50af d73c 03bb 81bd c50d 0ebe
000001b0: e876 11bd 3cc9 8b3c bb5f 20bd 4ae1 84bd
000001c0: 8bc6 4f3d 00f1 eb3d faed c83d 1f60 953d
000001d0: 4585 633d 1133 c9bd 1011 053e eb6e ed3d
000001e0: b326 833d 2ce3 47bd 969b c3bd 7804 2f3e
000001f0: a16f b3bc 677d a63d 77cf ca3c 1705 e9bc
00000200: e17a 093e 03bf 46bd 61d8 0cbd 3372 6bbd
00000210: 2fd3 ce3d 23df 853c b275 1dbe 1234 533d
00000220: 7225 34be ec9d b5bd a896 b6bd 3e82 56bd
00000230: 0a79 0fbe 4cfa 943b 483e 25bd 626d 6e3d
00000240: bd43 a53d de3f 0dbe 0264 3dbd 69b6 febc
00000250: e67f 983c b462 f0bc 2a71 2dbb b058 0fbc
00000260: 74ce 05bd 0977 e5bd 89f7 2bbe 94f8 c33b
00000270: 08ad 883c 9134 03be 04d9 fb3d 2e0f 223c
00000280: 7e04 9fbd 9339 ef3d 864b df3a 39a6 00bd
00000290: a1df 53be a389 04be 7cb3 67bd 2553 bfbc
000002a0: c431 cdbd 29ab 3a3c 2823 fdbd 9b25 623e
000002b0: 7f08 ffbd 95b6 5a3d 8be6 6c3d 2a9a 7ebd
000002c0: 7b51 473e 6740 a3bd b9bd cd39 9087 443e
000002d0: 416b f03d e7c3 0abd a0c0 dbbd 917d 043e
000002e0: e433 0b3e 5b3b 2dbe 86c6 e13d 69fb 323d
000002f0: 96a3 263d 7900 37be 3a87 15be 54e6 01be
00000300: d0eb 00be 47d7 04be e152 94bc f7aa 16be
00000310: 22f9 b2bc 236f ba3d 1333 00be 7de9 23be
00000320: 2147 313e 7428 d23d b48c 64bd 9528 013e
00000330: 3246 c0bd e86c 8d3c 546a 9d3c 06d1 513c
00000340: 4230 31bd d767 eabd 68da a13c b6d1 0bbd
00000350: 77f1 603c b784 07be f5d2 fd3d ebb1 2cbe
00000360: 4a99 e83d 9f06 903c d951 c13d a9a3 1f3d
00000370: c41d 02be 864a e33d ddea 9d3d 81b9 4bbe
00000380: 5c2e 13bd f856 3fbe 3dbf c63c 8a6d 323d
00000390: 4abd 02be b2d5 74bc 5c6a f0bd b21f e03d
000003a0: 6d06 f63d 3728 00be 8493 37bd f24c 2e3e
000003b0: 7705 e23d 7ef1 303e 5043 2abd 8d0a 9f3d
000003c0: 2bd7 acbd 4a98 503e ecbd 81bd ed3d 10be
000003d0: c672 4e3d a962 3cbe ff5a 16bd ad7e 05be
000003e0: 4745 093e e956 19be 1b3b bf3d 70a2 e6bc
000003f0: b844 7fbc 7600 9d3d 49b9 8e3d 5d1b bd3d

encoder.transformer.out_proj.bias f4 [32]
0.024308836 0.045980047 -0.062424112 0.0115665505 -0.033662684 0.03971177 0.011874372 -0.029434392
0.011276066 -0.0295216 -0.031644765 -0.017261777 0.04584937 -0.011228581 0.02924282 -0.004297527
0.01866267 0.025718078 -0.008745881 0.026219517 -0.070224896 0.032004036 -0.0504877 0.02206999
-0.008361757 0.042947784 -0.018415276 -0.004356978 -0.0013237078 0.03624694 0.011949047 0.0459155
00000000: 5323 c73c 9355 3c3d 6db0 7fbd a181 3d3c
00000010: e2e1 09bd cfa8 223d ba8c 423c 6520 f1bc
00000020: 40bf 383c 48d7 f1bc f19d 01bd 9268 8dbc
00000030: 8dcc 3b3d 15f8 37bc a38e ef3c 45d2 8cbb
00000040: 75e2 983c b8ae d23c e24a 0fbc 50ca d63c
00000050: 12d2 8fbd aa16 033d 31cc 4ebd 20cc b43c
00000060: c0ff 08bc 04ea 2f3d a2db 96bc fbc4 8ebb
00000070: 4380 adba ac77 143d f0c5 433c e411 3c3d

encoder.ln1.weight f4 [32]
1.0924598 1.0649073 1.0305561 0.99780446 1.030554 1.0480866 0.95403695 1.0055983
0.9986822 1.0267562 1.0024123 0.95893204 1.0632463 0.9866193 0.9536269 0.8965824
0.9959558 1.077705 0.98984224 1.0055785 1.0229281 1.0224345 1.0913594 0.9946616
0.9792037 0.9197863 1.005655 1.0117353 1.03055 1.0042404 0.94122255 1.0237939
00000000: b9d5 8b3f e24e 883f 43e9 833f 1d70 7f3f
00000010: 32e9 833f b427 863f c43b 743f 72b7 803f
00000020: a3a9 7f3f bf6c 833f 0c4f 803f 927c 753f
00000030: 7418 883f 1593 7c3f e420 743f 6d86 653f
00000040: f6f6 7e3f 3df2 893f 4d66 7d3f ccb6 803f
00000050: 4fef 823f 22df 823f aab1 8b3f 25a2 7e3f
00000060: 18ad 7a3f 1d77 6b3f 4eb9 803f 8b80 813f
00000070: 10e9 833f f38a 803f f6f3 703f ae0b 833f

encoder.ln1.bias f4 [32]
0.0588462 0.053401005 -0.08626473 -0.04596246 -0.023164257 0.054103207 0.03953708 -0.044320457
0.037107576 -0.032834593 -0.06748882 -0.042014357 0.06457563 -0.019023571 0.053016562 -0.055770278
0.052365493 0.08095809 -0.013093755 0.00937184 -0.083299115 0.01196464 -0.08386225 0.031423096
-0.014378937 0.080819845 -0.01801687 -0.02206835 -0.02970357 0.024557669 0.02029076 0.087658785
00000000: b708 713d 03bb 5a3d 90ab b0bd 2243 3cbd
00000010: f8c2 bdbc 539b 5d3d a2f1 213d 5e89 35bd
00000020: 1dfe 173d 917d 06bd 9437 8abd 3f17 2cbd
00000030: 3a40 843d 52d7 9bbc e527 593d 606f 64bd
00000040: 337d 563d 5bcd a53d 3087 56bc 598c 193c
00000050: ba98 aabd 5607 443c f9bf abbd 81b5 003d
00000060: a295 6bbc e084 a53d 1d98 93bc afc8 b4bc
00000070: e754 f3bc 2a2d c93c cf38 a63c 7386 b33d

encoder.ln2.weight f4 [32]
1.0391927 1.1323489 1.0505675 1.001864 1.0291992 1.0481126 0.97802156 1.0594482
1.0211827 0.9995703 1.0130832 0.98876756 1.097969 0.99617934 0.96487325 0.9519674
0.98946047 1.0242677 1.0290555 1.0988067 1.0115262 1.0545334 1.092334 1.0470784
0.9888232 0.9673032 1.0325502 1.0669612 0.9841003 1.0147257 1.032662 1.0284055
00000000: 4404 853f cff0 903f ff78 863f 143d 803f
00000010: cdbc 833f 8e28 863f 9f5f 7a3f 009c 873f
00000020: 1db6 823f d7e3 7f3f b6ac 813f df1f 7d3f
00000030: 408a 8c3f 9c05 7f3f ef01 773f 23b4 733f
00000040: 484d 7d3f 341b 833f 17b8 833f b3a5 8c3f
00000050: b179 813f f3fa 863f 9ad1 8b3f aa06 863f
00000060: 8423 7d3f 2fa1 773f 9b2a 843f 2f92 883f
00000070: ffed 7b3f 88e2 813f 452e 843f cba2 833f

encoder.ln2.bias f4 [32]
0.06167418 0.10033158 -0.12552427 -0.01991012 -0.016520716 0.05312608 0.031799 -0.05800336
0.022549886 -0.019376209 -0.0755221 -0.032041438 0.1087476 -0.012296847 0.124241 -0.07041994
0.045289494 0.022541765 -0.004434492 0.042871103 -0.08476971 0.015324246 -0.093209065 0.040234704
0.021436756 0.11731324 0.0011557445 -0.008287662 0.021700084 0.08137056 0.047295395 0.07576989
00000000: 119e 7c3d a57a cd3d 6f89 00be 8c1a a3bc
00000010: 7456 87bc bc9a 593d ab3f 023d ee94 6dbd
00000020: 8aba b83c dbba 9ebc 55ab 9abd e23d 03bd
00000030: 10b7 de3d b778 49bc 1172 fe3d 5438 90bd
00000040: 7a81 393d 82a9 b83c 374f 91bb 9c99 2f3d
00000050: be9b adbd 8c12 7b3c 65e4 bebd 25cd 243d
00000060: 239c af3c ed41 f03d 5a7c 973a f9c8 07bc
00000070: 60c4 b13c 9ca5 a63d d1b8 413d 3e2d 9b3d
