experiments/model_64_60_2026-01-17_0939/model.pt (torch, 213359 bytes, 18 tensors)

encoder.graph_embed.GCN_in.A f4 [9, 9]
00000000: 879a 1d3f 780a 603e 6bb6 64bf 5007 72bf
00000010: 0a16 93bf 5a73 f7be 3380 143f 9724 7c3e
00000020: 7937 34bf c691 a5bf c50a b4bd aab8 91bc
00000030: 8cf3 fa3f a099 bd3f ceff 84bf 27db 34bf
00000040: 5c0f 50bd c190 323e 9705 3240 c0cc 953e
00000050: 3933 82bf 68b5 32bf 3c6c 323f 14f6 a8bf
00000060: b86c b8bf 0d5a 573f 82fa 6fbf 938a 2cbf
00000070: b38c 1abf 4068 a8be 3e61 20c0 14d6 12bf
00000080: ed04 bb3f 692f a93f 19ee 763f 743c e3be
00000090: ab80 933f 5448 b0bf 2aa8 69bf e07d ee3a
000000a0: a4db fdbf a1f8 85bf d548 a43f 55b1 0ac0
000000b0: fc21 97bf c3b6 e9bf ca83 1d3f d7f2 1ebe
000000c0: d94c 6b3e dc12 d9bd 7f7f 363f 62f5 5e3e
000000d0: 9351 ff3d 5716 a0bf 5fa9 bebe b2b9 9dbf
000000e0: 5f18 08c0 115b db3f 6a51 603d 6ee7 053f
000000f0: c88c 1240 f762 ca3f 87c3 803f 5e90 9ebe
00000100: 830b 323f ea12 893f c5e3 2a40 261a 07bf
00000110: e136 d1ba d6c8 6bbe 3109 fbbf 9915 5ebf
00000120: 8609 b23d a5c4 f63d 31c4 3d3e 1211 103f
00000130: 414c 16bf 02b1 a73f c095 17bf a4f9 55bf
00000140: eac1 c3bf
0.61563915 0.21878994 -0.8934085 -0.9454241 -1.1491101 -0.48330194 0.58008116 0.24623333
-0.70397145 -1.2935112 -0.087911166 -0.01778825 1.9605575 1.4812508 -1.0390565 -0.706469
-0.050795898 0.17438032 2.7815912 0.29257774 -1.0171882 -0.69808054 0.696964 -1.3200097
-1.4408178 0.8412178 -0.9374162 -0.6739895 -0.6037094 -0.32892036 -2.5059352 -0.5735791
1.4610878 1.3217593 0.9645706 -0.4438206 1.1523641 -1.3772073 -0.91272223 0.0018195473
-1.9832654 -1.04665 1.2834727 -2.1670735 -1.1807246 -1.82589 0.6152922 -0.15522324
0.22978534 -0.105993 0.71288294 0.21773294 0.12466731 -1.2506818 -0.37238595 -1.2322295
-2.1264875 1.7137166 0.054765143 0.5230626 2.2898426 1.5811452 1.005967 -0.30969518
0.69548815 1.0708897 2.670152 -0.52774274 -0.001596179 -0.23025832 -1.961218 -0.86751705
0.08693223 0.12049226 0.18531872 0.5627605 -0.58710104 1.3100893 -0.59212875 -0.83584046
-1.5293553

encoder.graph_embed.GCN_in.linear.weight f4 [64, 16]
00000000: 5614 7abe 2cd7 b73d b468 76bb d9fd c6bc
00000010: 1ba5 b23e 55bd 41bd 0341 69be e3cb 10be
00000020: 81ee f6bc f1b6 30be 7fab f93d 82c8 d5bd
00000030: b2b7 17bd c175 89bd da5d dbbc 7886 c3bd
00000040: 220b 27bc 92af 3ebd cd20 06be 05f5 91bd
00000050: 3686 1abe ca1f 3abe de79 1e3e 6434 31be
00000060: 451b 88bd cd12 62bd 17e1 8a3e 4e0f 7abe
00000070: ebee 6b3d f0d8 bfbd 6bf2 aebd c3b5 df3d
00000080: d5b7 353d 1df4 343d 3a1a 853e ead5 a03d
00000090: 4d97 93b9 5454 c43d a5e5 453e 6079 363e
000000a0: 2f45 4ebe f823 743d e4c4 543d f7bb ca3d
000000b0: 1b5f 32bd 4b14 32be baf1 11be fb39 86bd
000000c0: f372 913e 7fc6 753d 1e47 e9bd 7ef1 f4bd
000000d0: 09be f1bd 8c72 22bd 43d9 603e 83ac 823e
000000e0: 485d 24be 4d3a 373e 89b7 8c3d 92fe a53e
000000f0: 434f d7bd fc30 15be 69a0 803d 8372 6cbe
00000100: 6e59 783e 1bd7 a63d 1f24 6e3d bc6d cbbd
00000110: 8863 4dbe 8ee1 3f3d 0021 423e bcbe 833e
00000120: 8ada 143e 229e 0bbe 57fa 763b b01a 18bd
00000130: abe8 b9bd 9bd5 193e 5eb8 513e 8c97 153c
00000140: 0ff6 873d 760f 983e 999b 4c3e ff1d 953d
00000150: 071e 613b f63f 84be 09bf 543b ed4c 2cbe
00000160: 86ea 3f3e af87 f7bd f689 50be 78bd 08be
00000170: e308 953c a07f b9bd 27f9 e23d eedf 32be
00000180: 3bbe 5c3d 2c7d afbd 490a 693e d4db 903e
00000190: 70a4 71be 5756 ba3d 9bc6 38be 4a8e abbd
000001a0: ab6e 9ebe 6a52 a53d cee2 603e 7bba d03d
000001b0: 41eb 163e 698b c63d 0c95 b1bd d036 59be
000001c0: 0859 22be 5716 6abe f735 933d 7fc5 593e
000001d0: a77c ccbd 42d8 5b3d 3ac5 65bd 760e bdbd
000001e0: 2c2f c1bd e87f b2bd ff5a 413e 387e 85bd
000001f0: 11b9 5dbd 803e c6bd 0cda 6c3d b51a ea3c
00000200: 2a4a 113e 445d 5b3e ab2f 00be 60bb ee3d
00000210: 67c6 6ebd c207 98be 5f0d 953d 28f4 593e
00000220: 225b 973d 2039 09be 0236 02be bbf2 823c
00000230: 127f 163c e94f 0e3e 777d a9bc 4aa8 e43d
00000240: 4ad8 953d 4118 9fbc 675b 213e 4970 6fbd
00000250: fcee c4bc 34cf 073d 87c3 9dbc b670 b93d
00000260: 29f6 32be 7b85 8dbe b4b7 883d 7a8d 5c3e
00000270: 984f 6dbb ce62 82bd 0e95 ef3d 5b4a 483e
00000280: 928f e83c eb9e 6a3d 9d24 0c3c bd27 683e
00000290: 3f4b edbd c67e 6ebe c826 4fbe 39a4 febd
000002a0: a005 07be 1d7c 263e 620c 503e a66d 1d3d
000002b0: 5bc2 31bc 7f60 16bd 96e1 0fbe 676d 7abd
000002c0: 5de9 763e 7e03 93bc 56c6 86bc 0776 8fbe
000002d0: 643f 183d 8020 debd 6145 8d3c 1584 e8bd
000002e0: 276d 04be b0a2 833e 68dd 843d d251 45bc
000002f0: 3534 ce3c fd2e d93c ca12 ba3d d313 033e
00000300: 5125 823e 8573 7b3e f3ba 0abe 95f7 babd
00000310: 3bab 443d 70a5 ce3d 631f 183e 5b7b e83d
00000320: 5c9e 4b3d f710 43bd 11c0 efbb 9831 863d
00000330: f15b 253c b019 2a3e 3c16 243e fe53 043e
00000340: 1c18 65be 172f 40bd 737b 703e 3509 c53e
00000350: 4f00 883d ea13 153d d1bd 2d3e 8f6a 943e
00000360: a246 c9bd a779 863d e0f3 0ebe 5a10 43be
00000370: d4de 99bd 0082 d8bd 5b0a e43d bcd0 12be
00000380: f12e 373c 3197 093e 9869 16bd f4fe 903e
00000390: a380 e63c aa22 c63d 109f 203e f7ba 5dbe
000003a0: 745e 593e 0e44 a93d 3fe9 7a3d 44ad 323e
000003b0: 8f74 b5bd f789 43be 7543 87bd 9954 e43d
000003c0: e91d c9bd 9e4e 5dbc a1ed 03be 532f 2cbd
000003d0: 334f babd e75c 8b3e 43ad 81be 61a2 0cbe
000003e0: 9830 69be 883b 303e affd 403e 8aed e13d
000003f0: 777f 1e3d 343b 1fbe 1304 2d3d 9a40 e03d
-0.2442182 0.08976588 -0.003759903 -0.024290966 0.3489159 -0.0472997 -0.22778706 -0.14140277
-0.030143024 -0.17257287 0.121909134 -0.104386345 -0.03704042 -0.06711913 -0.02677815 -0.09547132
-0.010195525 -0.046554156 -0.1309845 -0.07126812 -0.1509026 -0.18176189 0.15476176 -0.17305142
-0.06645826 -0.05519371 0.27124855 -0.24419901 0.057600897 -0.093675494 -0.08542331 0.1092334
0.04436477 0.044178117 0.25996572 0.07853301 -0.00028150753 0.09586397 0.19325884 0.17819738
-0.20143579 0.059604615 0.051945582 0.09899133 -0.04354773 -0.17390554 -0.14252368 -0.06554028
0.28408012 0.060003754 -0.11390518 -0.119601235 -0.118038245 -0.03966002 0.21957879 0.2552224
-0.16051209 0.17893334 0.06870944 0.32420784 -0.10513165 -0.14569467 0.06280596 -0.23090558
0.24252865 0.08146497 0.058139917 -0.099330395 -0.200575 0.046845965 0.18957901 0.25731456
0.14536491 -0.13634542 0.0037685835 -0.037134826 -0.09077581 0.1502289 0.20480487 0.00913037
0.06638729 0.29699296 0.19981231 0.07281112 0.0034350173 -0.25830048 0.0032462499 -0.1682622
0.18741807 -0.120864265 -0.20365128 -0.13353527 0.018192714 -0.09057546 0.11082678 -0.17468235
0.053892355 -0.085687965 0.2275783 0.28292716 -0.23597884 0.09098499 -0.18044512 -0.08376749
-0.30943808 0.0807236 0.21961519 0.10191818 0.1473818 0.09694559 -0.086710066 -0.21212316
-0.15854275 -0.22860084 0.07188027 0.21266745 -0.09984713 0.053673036 -0.056096293 -0.09231274
-0.094328254 -0.087158024 0.18882369 -0.06518215 -0.05413157 -0.0967989 0.057825133 0.028577188
0.14188448 0.21422297 -0.12518184 0.11656833 -0.05829468 -0.2969342 0.07277941 0.21284544
0.07390429 -0.13400698 -0.12715915 0.015984884 0.009185569 0.13897671 -0.02068971 0.11164911
0.073166445 -0.019420745 0.15757523 -0.058456693 -0.024039738 0.03315659 -0.019258274 0.09054701
-0.17476715 -0.276409 0.066756636 0.21538344 -0.0036210772 -0.06366502 0.11698352 0.19559614
0.028388772 0.057280462 0.008553651 0.22671409 -0.11586618 -0.23290548 -0.20229638 -0.12433667
-0.1318574 0.16258283 0.20317224 0.038434647 -0.010849561 -0.03671312 -0.14050898 -0.06113949
0.24112459 -0.017946001 -0.016451996 -0.28019735 0.03716983 -0.10846043 0.017244997 -0.11353318
-0.12932263 0.25710058 0.064875424 -0.012043433 0.025171379 0.026511664 0.09085615 0.12800531
0.25419095 0.24555786 -0.13547878 -0.09129254 0.04801486 0.100901484 0.14855723 0.11351653
0.04971157 -0.0476236 -0.0073165973 0.06552428 0.010092721 0.16611362 0.16024107 0.12922665
-0.22372478 -0.04691991 0.23484592 0.38483587 0.06640684 0.036395945 0.1696694 0.28987548
-0.09827925 0.06566172 -0.13960218 -0.19049206 -0.07513204 -0.105716705 0.11134788 -0.14337438
0.011180625 0.13436581 -0.036721796 0.28319514 0.02813751 0.096745804 0.15685678 -0.21653353
0.21227437 0.082649335 0.061257597 0.17448908 -0.088601224 -0.19095598 -0.06604663 0.11148948
-0.09820158 -0.013507513 -0.12883617 -0.04203732 -0.09097137 0.27219316 -0.253275 -0.13733818
-0.22772443 0.1721021 0.18846773 0.11031635 0.03869578 -0.15549928 0.042240214 0.10949822

encoder.graph_embed.GCN_in.linear.bias f4 [64]
00000000: e08b 53bd 256e aabd 8486 0dbe 2273 34bd
00000010: 4dd3 b8bd f6ac b23c 462f 0abd d1c1 19be
00000020: 7ef1 f4bc d6f6 9a3d fead 623c 7331 21bc
00000030: d5c2 bbbd d26d 6dbd a4a0 8bbd 131d e9bb
00000040: 13e6 2fbd 6375 3abd edc4 30bb 4323 32bd
00000050: a56c a9bd c11b abbc 06f6 4a3c e352 0dbd
00000060: e1a2 263d ceeb 18bd a96f 42bc 4393 68bd
00000070: c5c7 c5bc 4c6e 9abd 0633 edbc 61bc 5ebd
00000080: 1db0 34bc 2f66 04be d367 133e c4a7 11bd
00000090: fb8f 87bd e8cc 2bbd d5db ce3c 256a c6bc
000000a0: 820a 933d c614 90bd 722d a0bc 5004 693d
000000b0: 34f8 9d3b 3853 073d 1dda 3cbd fb2b d2bc
000000c0: 389f 3abe 3742 d03d cf25 dabd c937 cabd
000000d0: f5ed 93bc 3a33 82bc d6a7 bcbc e6fc 01bd
000000e0: ce95 55be 30a8 37bd 90e0 0bbd b0eb 0ebd
000000f0: 916c 78bd 873e d9bb 4ecc 673d 21f9 973c
-0.051647067 -0.0832179 -0.13820845 -0.04405511 -0.090246774 0.02181099 -0.03373649 -0.15015341
-0.029900309 0.075666115 0.013835428 -0.00983845 -0.09168021 -0.05796606 -0.06817749 -0.0071140616
-0.042944025 -0.045522105 -0.0026972846 -0.04349066 -0.082726754 -0.020887258 0.012387758 -0.034502875
0.040682677 -0.037334256 -0.011867442 -0.056781065 -0.02414311 -0.07540569 -0.028954994 -0.05437887
-0.011028317 -0.12929605 0.14395075 -0.035560384 -0.06619259 -0.04194346 0.025251308 -0.024220536
0.071797386 -0.07035212 -0.01955292 0.05688888 0.004820848 0.033038348 -0.046106447 -0.025655737
-0.182248 0.101688795 -0.10651743 -0.098739214 -0.018057803 -0.015893567 -0.02302925 -0.031735323
-0.20857927 -0.04483813 -0.034149706 -0.034892738 -0.060650412 -0.0066297683 0.056591325 0.018551411

encoder.graph_embed.bn.weight f4 [64]
00000000: d073 863f cb5d 643f e140 793f 0d2a 773f
00000010: 09f2 713f e02f 7d3f 63d3 6b3f fee3 7c3f
00000020: 5aa2 733f f7d6 5a3f 20e7 653f e751 833f
00000030: a47a 453f e86c 593f fecc 633f afff 753f
00000040: 5884 673f c647 753f c087 383f 0615 7c3f
00000050: b089 7e3f 0d61 723f 3c44 813f adf7 6f3f
00000060: 7753 7a3f 4c46 683f eea8 7a3f cbd4 793f
00000070: 74b9 713f 1fb7 643f 446a 833f 0e69 7a3f
00000080: 1020 743f ccaf 683f 9f25 673f 1b4d 6e3f
00000090: 543f 693f 68e4 813f b91d 803f 401b 813f
000000a0: fa99 833f de7b 833f 6365 823f f8d0 663f
000000b0: 5431 8a3f ec26 903f f78c 693f 6cf2 7c3f
000000c0: ebda 7c3f 52e7 7e3f d359 7c3f a4b0 683f
000000d0: c1e8 703f c777 803f 018e 763f cbe0 793f
000000e0: ed0e 763f 9359 573f 8046 673f 6650 743f
000000f0: c436 623f c3f9 823f 3cf5 653f af02 663f
1.0504093 0.89205617 0.9736462 0.9654854 0.9450994 0.98901176 0.92119426 0.9878539
0.95169604 0.8548426 0.89805794 1.025937 0.7714026 0.849318 0.8898467 0.9609327
0.90436316 0.9581264 0.7208214 0.9846958 0.99428844 0.9467934 1.0098948 0.937373
0.9778361 0.90732265 0.97914016 0.9759032 0.94423604 0.8934192 1.0266805 0.9781655
0.95361423 0.90893245 0.9029178 0.93086404 0.91112256 1.0147829 1.0009071 1.0086441
1.0281365 1.0272176 1.0187191 0.9016261 1.0796304 1.1261878 0.9123072 0.98807406
0.9877154 0.99571717 0.9857456 0.9089453 0.94105154 1.0036553 0.9631043 0.9760863
0.96116525 0.84121054 0.9034195 0.9543518 0.88364816 1.0232471 0.8982732 0.89847845

encoder.graph_embed.bn.bias f4 [64]
00000000: 13e1 dbbc 3efd 1fbd e8a9 eb3b 1cab 003c
00000010: 3163 9d3d b3bb 27bd dfa6 e1bb 460b 3b3c
00000020: 865d a4bb 0d81 923d c5bb 253d 87a6 49bd
00000030: cd83 7ebd 0a08 a2bc d98d 6e3b 8b37 ee3b
00000040: 2be1 58bc b92d d93b eb0e a6bd ab44 733c
00000050: e39a 37bd 6a21 e7bd e044 e93c 6108 c4bc
00000060: 0ef9 25bc 446d afbc ee57 dc3a 28f9 db3c
00000070: 8ecf 0abc 2b10 943c 6868 953c bcde af3b
00000080: 7f7a b0bb 1ebd 823d 7d41 143d b1a4 0a3c
00000090: da7a 42bc e5de b93c c383 2fbd 3b6c b8bc
000000a0: c2aa b4bb 1837 993d 4d0d 133c b1ea 973c
000000b0: 06b5 143d 5b5f 44bc 71e2 1a3d acd6 623d
000000c0: f776 82bd d5f6 7f3d 1a54 10bd dc08 a13c
000000d0: ee36 45bd 4cac 073d 7028 fe3c 9320 8c3c
000000e0: f5a2 0bbd 9a2f 113d ab8b abbc ccbf 32bd
000000f0: 3e12 e6bc 275b 4ebd e901 59bd ca0d 9f3d
-0.026840722 -0.03905987 0.0071918853 0.007853296 0.07684935 -0.04095049 -0.0068863477 0.011416262
-0.0050160317 0.07153521 0.040462274 -0.04923108 -0.062137414 -0.019779224 0.0036400466 0.007269805
-0.013237278 0.006627765 -0.08108314 0.014847915 -0.044825446 -0.1128567 0.028475225 -0.023929777
-0.01013018 -0.021414407 0.0016810873 0.026852205 -0.008472336 0.018074116 0.018238261 0.005367128
-0.0053856964 0.063837275 0.036195267 0.008462117 -0.01187011 0.022689292 -0.042850267 -0.022512546
-0.00551352 0.074812114 0.008975339 0.018544527 0.03630545 -0.011985625 0.037813608 0.05538051
-0.06370347 0.062491257 -0.035236456 0.019657545 -0.04814809 0.0331233 0.031025141 0.017105376
-0.034090955 0.035445787 -0.020940622 -0.043639943 -0.02808487 -0.0503799 -0.052980337 0.07766302

encoder.graph_embed.bn.running_mean f4 [64]
00000000: ed61 0c3c 06d3 eebd af57 833d 8f2e 053f
00000010: 21ed e73c d297 5d3e 104a 383e fcce cabd
00000020: a92e bc3c b23b 123e 139b 72bb 8160 8bbc
00000030: 1f21 99ba 91ab fd3c 5bd0 b7bd 21bb 31bd
00000040: 6f0c c13c 96cc 363d 4ee1 3cbd f69d 08bd
00000050: 535a 0ebd ea8e 3c3d 6afb be3c 2eb9 493d
00000060: 26ef e33c 8ae4 5dbd 06a9 743e 5185 1abd
00000070: 2fef ae3d 880d c3bd 95f1 923d 2ac4 853d
00000080: af1a 033d af27 3f3d f33b ee3d a6d1 2b3e
00000090: 0778 29bd 7825 e83c aead 6d3e 8fee 36bd
000000a0: 5d05 d33d 53b5 a8bd 33bc 283e c508 093c
000000b0: ed59 e5bb 8ff7 8fbc e380 933e ee3b 6e3d
000000c0: 0048 b7bd dec3 dd3d f070 b13e e888 983c
000000d0: 58b6 fd3c 62b1 3cbd 1c34 003e 01b1 5c3e
000000e0: 3f63 a1bd edcd 583d fe1f a93c b60e 15bd
000000f0: 33fc b9bd edac ad3d 2212 66bc b3b0 de3d
0.008568269 -0.11661343 0.06413209 0.5202417 0.028311314 0.21639946 0.17997003 -0.099027604
0.022971468 0.14280584 -0.00370187 -0.01701379 -0.0011682844 0.030965598 -0.089752875 -0.04339135
0.0235655 0.044628702 -0.046113305 -0.03335377 -0.03475411 0.04603473 0.023313243 0.049248867
0.027823996 -0.05417303 0.23892602 -0.037724797 0.085417144 -0.09524065 0.07174984 0.06531556
0.03200787 0.046668705 0.11632528 0.16779193 -0.041374233 0.028338179 0.23210785 -0.0446611
0.10303757 -0.0823771 0.16478042 0.008363907 -0.0069992454 -0.0175741 0.2880927 0.058162622
-0.0894928 0.10828374 0.34656477 0.01861997 0.030970737 -0.046067603 0.12519878 0.21551897
-0.07880258 0.05293076 0.020645138 -0.036390983 -0.09081306 0.084802486 -0.014042409 0.108735465

encoder.graph_embed.bn.running_var f4 [64]
00000000: 30ad a43c 79b6 d63c c4be 253d 9275 6b3e
00000010: 83ba 0d3c 7677 113e 9985 bc3d ff61 853c
00000020: d270 123d 3934 c33c cb0c be3c f039 053c
00000030: a042 1a3d 45b6 103d 9cf8 913c f979 a83c
00000040: 9d71 f53c 5773 003d 62ee 693d a4c0 ac3c
00000050: 1caf 943c 4b12 033d c988 8e3c 26ea 4a3c
00000060: ac5a cb3c 3f7a 1b3c 89af 1e3e 70e3 163c
00000070: 6693 243d 4299 393c 9c82 0f3d 266b 363d
00000080: bd64 ff3c 85ef 2f3d 1d95 f63c 04be a43d
00000090: 5cb5 823c 5a4a 8c3c c68d 963d 4801 863c
000000a0: 3d8a 593d ef6b 4c3c 8973 2b3e e43f 503d
000000b0: 460b a03c 5dde e93c 95f9 5c3e c0f1 8c3d
000000c0: 00a3 9e3c d5cc 013d 88c2 a03e 0f2d a13c
000000d0: 6fe2 193d 32cb 313c 12ab 503d d960 1f3e
000000e0: c313 b93c e978 133d 3915 b73c b142 363d
000000f0: ef52 633c 15da 463d e73d 4c3c 1379 4e3d
0.020102113 0.026210057 0.04046513 0.22994068 0.008650425 0.14205727 0.09205169 0.01628208
0.035752125 0.023828613 0.02319946 0.008131489 0.037661195 0.035330076 0.017818742 0.020565974
0.029961402 0.031359997 0.057112105 0.021087952 0.018149905 0.031999867 0.017399209 0.012384927
0.02482351 0.009489595 0.15496649 0.009209499 0.040179633 0.011328043 0.03503667 0.04453578
0.031175965 0.042953033 0.0301004 0.08044055 0.01595562 0.017125297 0.0735126 0.016358033
0.05311035 0.012476905 0.16743292 0.05084218 0.019536626 0.028548414 0.21579583 0.06882048
0.019364834 0.031689484 0.31398416 0.019674806 0.03756946 0.010851668 0.050944395 0.15564288
0.022592431 0.03600398 0.022348987 0.044497196 0.013874753 0.048547823 0.012465931 0.050408434

encoder.pos_enc.pe f4 [500, 64]
00000000: 0000 0000 0000 803f 0000 0000 0000 803f
00000010: 0000 0000 0000 803f 0000 0000 0000 803f
00000020: 0000 0000 0000 803f 0000 0000 0000 803f
00000030: 0000 0000 0000 803f 0000 0000 0000 803f
00000040: 0000 0000 0000 803f 0000 0000 0000 803f
00000050: 0000 0000 0000 803f 0000 0000 0000 803f
00000060: 0000 0000 0000 803f 0000 0000 0000 803f
00000070: 0000 0000 0000 803f 0000 0000 0000 803f
00000080: 0000 0000 0000 803f 0000 0000 0000 803f
00000090: 0000 0000 0000 803f 0000 0000 0000 803f
000000a0: 0000 0000 0000 803f 0000 0000 0000 803f
000000b0: 0000 0000 0000 803f 0000 0000 0000 803f
000000c0: 0000 0000 0000 803f 0000 0000 0000 803f
000000d0: 0000 0000 0000 803f 0000 0000 0000 803f
000000e0: 0000 0000 0000 803f 0000 0000 0000 803f
000000f0: 0000 0000 0000 803f 0000 0000 0000 803f
00000100: a46a 573f 4151 0a3f ce7a 2e3f b054 3b3f
00000110: ba7d 083f 0d94 583f f090 d13e c792 693f
00000120: 3e39 9f3e 6b4e 733f 258f 703e f1d5 783f
00000130: 3a23 353e 83f6 7b3f f325 083e 28ba 7d3f
00000140: 7675 cc3d 98b8 7e3f 366f 993d d147 7f3f
00000150: ae36 663d 6898 7f3f faac 2c3d bdc5 7f3f
00000160: 5b81 013d 3cdf 7f3f a53e c23c 93ed 7f3f
00000170: 42ab 913c a3f5 7f3f 497a 5a3c 2cfa 7f3f
00000180: 57d6 233c b9fc 7f3f 16b9 f53b 28fe 7f3f
00000190: 5a44 b83b f7fe 7f3f 5a2e 8a3b 6bff 7f3f
000001a0: 1c3e 4f3b acff 7f3f 0369 1b3b d1ff 7f3f
000001b0: 2015 e93a e6ff 7f3f 8ac9 ae3a f1ff 7f3f
000001c0: 6d12 833a f8ff 7f3f 8994 443a fbff 7f3f
000001d0: 136a 133a fdff 7f3f 2117 dd39 ffff 7f3f
000001e0: 61cb a539 ffff 7f3f 0da8 7839 0000 803f
000001f0: 5377 3a39 0000 803f 6dd4 0b39 0000 803f
00000200: b7c7 683f 3311 d5be d95a 7f3f 534d 913d
00000210: 0af2 663f b2e8 dc3e 1135 3f3f 0339 2a3f
00000220: 1b54 173f ec7b 4e3f b5d3 e93e 69be 633f
00000230: f647 b23e a6fa 6f3f 82f0 863e f5f2 763f
00000240: f86f 4b3e a5e5 7a3f d300 193e 4f20 7d3f
00000250: 86d9 e53d f361 7e3f ae85 ac3d 0e17 7f3f
00000260: c870 813d f97c 7f3f aa30 423d 4eb6 7f3f
00000270: 5ca5 113d 8ed6 7f3f 5075 da3c b1e8 7f3f
00000280: 3ed4 a33c e5f2 7f3f 51b7 753c a1f8 7f3f
00000290: 9b43 383c dbfb 7f3f 0a2e 0a3c abfd 7f3f
000002a0: d83d cf3b b1fe 7f3f e768 9b3b 43ff 7f3f
000002b0: 0815 693b 96ff 7f3f 7fc9 2e3b c4ff 7f3f
000002c0: 6812 033b dfff 7f3f 8594 c43a edff 7f3f
000002d0: 126a 933a f5ff 7f3f 1f17 5d3a faff 7f3f
000002e0: 60cb 253a fdff 7f3f 0ca8 f839 feff 7f3f
000002f0: 5377 ba39 ffff 7f3f 6dd4 8b39 0000 803f
00000300: c381 103e 2670 7dbf de3c 473f cebf 20bf
00000310: d745 7e3f ab7f edbd 6321 743f 6318 9a3e
00000320: c209 503f 582f 153f b724 273f a2e7 413f
00000330: 6c2f 023f 296d 5c3f a768 c73e 37c9 6b3f
00000340: 6c4e 973e ef90 743f e26d 643e 928c 793f
00000350: d7ee 2b3e 9e5d 7c3f 2c33 013e 43f4 7d3f
00000360: c0ff c13d 4fd9 7e3f 0693 913d 3a5a 7f3f
00000370: 4e69 5a3d c3a2 7f3f c5d1 233d 90cb 7f3f
00000380: 1fb9 f53c 83e2 7f3f 4747 b83c 6bef 7f3f
00000390: c631 8a3c adf6 7f3f 4644 4f3c c1fa 7f3f
000003a0: 0d6e 1b3c 0dfd 7f3f 131d e93b 58fe 7f3f
000003b0: a8cf ae3b 11ff 7f3f 1317 833b 7aff 7f3f
000003c0: 929b 443b b5ff 7f3f 606f 133b d6ff 7f3f
000003d0: 171f dd3a e8ff 7f3f 56d1 a53a f3ff 7f3f
000003e0: 10b1 783a f9ff 7f3f 097e 3a3a fcff 7f3f
000003f0: 7ed9 0b3a feff 7f3f a4be d139 ffff 7f3f
0.0 1.0 0.0 1.0 0.0 1.0 0.0 1.0
0.0 1.0 0.0 1.0 0.0 1.0 0.0 1.0
0.0 1.0 0.0 1.0 0.0 1.0 0.0 1.0
0.0 1.0 0.0 1.0 0.0 1.0 0.0 1.0
0.0 1.0 0.0 1.0 0.0 1.0 0.0 1.0
0.0 1.0 0.0 1.0 0.0 1.0 0.0 1.0
0.0 1.0 0.0 1.0 0.0 1.0 0.0 1.0
0.0 1.0 0.0 1.0 0.0 1.0 0.0 1.0
0.84147096 0.54030234 0.68156135 0.731761 0.53316844 0.8460091 0.4093089 0.9123959
0.3109836 0.9504153 0.23492105 0.9720145 0.17689219 0.9842302 0.13295726 0.99112177
0.099833414 0.9950042 0.07491915 0.9971896 0.05620449 0.9984193 0.04215715 0.999111
0.031617504 0.99950004 0.023711512 0.99971884 0.017781857 0.99984187 0.013334819 0.99991107
0.009999833 0.99995 0.0074988706 0.99997187 0.0056233825 0.9999842 0.0042169513 0.9999911
0.0031622713 0.999995 0.0023713715 0.9999972 0.0017782785 0.99999845 0.001333521 0.9999991
0.0009999998 0.9999995 0.000749894 0.9999997 0.0005623411 0.9999998 0.00042169637 0.99999994
0.00031622782 0.99999994 0.00023713727 1.0 0.00017782794 1.0 0.00013335208 1.0
0.9092974 -0.41614684 0.99748 0.070948265 0.9021307 0.43146282 0.7469035 0.6649324
0.5911271 0.8065784 0.45669332 0.8896242 0.34820527 0.93741834 0.26355368 0.96464473
0.19866931 0.9800666 0.1494172 0.98877424 0.1122313 0.9936821 0.08423935 0.99644554
0.063203394 0.9980007 0.04740969 0.9988755 0.03555809 0.9993676 0.026667267 0.99964434
0.019998666 0.9998 0.014997319 0.9998875 0.011246587 0.99993676 0.008433828 0.9999644
0.006324511 0.99998003 0.00474273 0.99998873 0.0035565514 0.9999937 0.0026670394 0.9999964
0.0019999985 0.99999803 0.0014997876 0.99999887 0.0011246821 0.99999934 0.0008433926 0.99999964
0.0006324556 0.9999998 0.0004742745 0.9999999 0.00035565588 0.99999994 0.00026670416 1.0
0.14112 -0.9899925 0.7782725 -0.6279267 0.9932532 -0.11596616 0.95363444 0.3009673
0.8126489 0.58275366 0.652904 0.7574407 0.5085361 0.86104065 0.3894703 0.92103904
0.2955202 0.9553365 0.22307542 0.9748012 0.16790329 0.9858035 0.12617177 0.9920084
0.094726086 0.99550337 0.071081206 0.9974705 0.053323083 0.9985773 0.039994974 0.99919987
0.0299955 0.99955004 0.022494925 0.999747 0.016869437 0.9998577 0.012650555 0.99991995
0.009486687 0.999955 0.0071140616 0.9999747 0.005334813 0.99998575 0.0040005534 0.999992
0.0029999954 0.9999955 0.0022496805 0.9999975 0.0016870227 0.99999857 0.0012650888 0.9999992
0.00094868336 0.9999996 0.00071141176 0.99999976 0.0005334838 0.9999999 0.00040005625 0.99999994

encoder.transformer.in_proj_weight f4 [192, 64]
00000000: f2b2 32be 449c e93d bed2 a73d 3628 863d
00000010: 6160 9e3d 394b 793d aacf 9cbd 8041 5f3d
00000020: e0cf f7bc d4b4 b1bc 7e02 7f3d e507 873c
00000030: b2d7 b2bd 3938 60bd 73cc 7b3d 62d7 bb3d
00000040: 6129 093e cd02 63bd 2bb1 da3d a19f 9e3d
00000050: 5a02 dabd 0318 a9bb 6de7 62bd 7972 0b3e
00000060: 1ec3 183e 8318 42bd 5777 c0bd dea6 c2bc
00000070: 63c5 d13d 09e3 e2bd 5565 2e3c c6c9 c1bc
00000080: 7b23 99bd 9afb c93d 79a6 31be 4fc6 2e3c
00000090: 8c71 09be f3c0 d8bd 4c64 02be a334 3ebe
000000a0: 8c7b 2c3d e26e 293d fd5a 1cbe b3b1 0fbe
000000b0: 75ca f73d 7dec 533d 5a99 c7bc 320a 91bd
000000c0: 08d1 f73d 9abc b73d 25d7 c1bc 5522 95bd
000000d0: d000 90bd 4866 493d 7d9f 1e39 b2f2 fc3d
000000e0: 90c4 7c3d 42c9 303d 6c0f 08be bb5b a6bc
000000f0: c0ae 183e 406b 863d 546a e8bd 5d24 9abd
00000100: 5cef 01be 608a 953d 417c 4e3c 720b e03d
00000110: 7326 193e ab61 b1bb 3c8f 18be 407c 9dbd
00000120: 10a0 e83d 61a2 383d 7623 f73d f986 10bd
00000130: 6169 71bd cda9 383d 0ef4 613d ca8b 133e
00000140: cd45 213e 62dd 003d 6ae4 c03c 534c 44bd
00000150: 5639 403c 6e47 dfbd 8870 20bc 139e 0a3d
00000160: f9be c0bd b094 18be 0a6f cc3d 2ce6 2ebe
00000170: 7703 143e e000 3bbe 2bf4 7ebe c280 2abc
00000180: 73ac 033e aa85 de3c 41b7 3fbd 4011 40bd
00000190: 8fe0 ed3d abd3 b23d bfa3 30bd 8e32 79bd
000001a0: 0646 debd afd3 ffbd 49e6 463d 4ba8 be3c
000001b0: 0306 ab3c 0a4c c1bb 681c 95bd 137e febc
000001c0: 31ff 93bd ead9 f53c e132 81bd c6f8 0d3e
000001d0: 0814 bbbd 400f 14bb a19b e73d c25a f9bc
000001e0: 75ad a33d 4f86 00bd 32c6 6fbc a0a1 c9bd
000001f0: 12c2 b3bd d7de fb3d 8406 c23d 19d4 d6bd
00000200: 9fd6 303e 0399 23bd 4f15 9abc 8093 14be
00000210: 36a2 ce3b eced ef3d 8d81 893d c1b5 1f3e
00000220: b944 253d 1a54 da3d 82eb f2bd 47d9 e4bc
00000230: 8a27 0abe 197b e8bd 949d 293c d779 dabd
00000240: 4c1a 883b 84f1 023e b8e5 243e 6b2a 813d
00000250: 7b51 a23d 5b21 0fbe e73d 2a3e b695 2c3d
00000260: b946 02be effa 74bd d7d9 5bbd 363a 033d
00000270: ef34 0abe d21e 5fbd 3bc8 c13c e7cb 6ebe
00000280: 439b 8bbc 28bc e3bd 986d aa3d b32f 873d
00000290: a889 38bd 6978 9fbd 742c 21be 0ec7 b93d
000002a0: ede0 07bd 6323 89bc 1fc5 383d 01fd 5fbd
000002b0: 8f18 99bd 05df 1a3e d6fa 20be 9a9c 7d3b
000002c0: 79e1 853c 5514 e63d eb81 843c 5c1f 29bd
000002d0: c4f8 f63d 5f8c 1ebe 1bae 013e 66fe dabd
000002e0: 4944 803d 79eb 55bd 8d24 273e e330 e83d
000002f0: 197d 94bd 378c ed3c 0ffa 08bd 82da 123e
00000300: 175d 343e 0458 01be 6fde bb3d 059b d6bd
00000310: 71b8 8f3d 9262 0b3e 106c 7cbe e0e1 613e
00000320: 0db2 343d 9c2d 333e e60b 1f3e b79c 93bd
00000330: c4e7 aabd 81f4 14be 1312 a83d 9219 c9bc
00000340: ce4f 9fbd 6e7f 663d 8195 0cbe 7d92 b8bb
00000350: 4181 74bd d304 1dbe ed9a 343e df3c 9cbd
00000360: 5b7f cfbd e35f a13d 3b3e 183e 5082 c03d
00000370: 7d8b a9bd 1055 033d 7bc3 e5bd b198 ca3d
00000380: 8c74 21bd 1a06 bf3d 57a3 243d c8a3 243e
00000390: 79a4 773d 7067 b53d 2a17 daba aa70 823d
000003a0: 2fae 0d3d 99c6 3dbe 65f9 aa3d 8fb2 283e
000003b0: 3940 24bd aead f83c dd4f 2dbe 58df a53d
000003c0: afd4 803d c4e2 4c3e a88f 073e 90a3 b8bd
000003d0: d50c a9bd 0098 1a3e d003 e13d 6a69 b9bd
000003e0: cfe8 12be 29e4 953d a0ce c53d 938b f23d
000003f0: c4ae 393d 7f12 30bb 7c37 123e 1b06 05be
-0.17451075 0.114067584 0.08194493 0.065506384 0.077332266 0.060862754 -0.07656796 0.054505825
-0.03025049 -0.02169267 0.062258236 0.016483257 -0.08732547 -0.054741118 0.061474275 0.091719404
0.13394691 -0.055422593 0.10678323 0.077452905 -0.1064498 -0.005160333 -0.055396486 0.13617887
0.14918181 -0.047386657 -0.09397762 -0.02376121 0.10242727 -0.1107846 0.010644277 -0.023655783
-0.074774705 0.09862442 -0.1734866 0.010667398 -0.13422221 -0.10583677 -0.12733573 -0.18574767
0.04211001 0.04136551 -0.15269084 -0.1403263 0.120991625 0.051739205 -0.024365116 -0.07082023
0.121004164 0.0897152 -0.02366216 -0.07281939 -0.07031405 0.04916981 0.00015127468 0.12350978
0.061710894 0.043160684 -0.13287133 -0.020307412 0.14910412 0.06563425 -0.113484055 -0.07526467
-0.12688965 0.073017836 0.012602867 0.10939683 0.14956073 -0.0054132543 -0.1489839 -0.076897144
0.113586545 0.04507673 0.120673105 -0.03528497 -0.058938388 0.04508381 0.05516439 0.14408794
0.15749283 0.031461127 0.023546416 -0.04792435 0.01173242 -0.10902296 -0.009792455 0.033842158
-0.09411425 -0.1490047 0.099821165 -0.17079991 0.14454447 -0.18262053 -0.2489783 -0.010406675
0.12858753 0.027163345 -0.046805624 -0.04689145 0.11615097 0.08731779 -0.04312491 -0.06083923
-0.108532 -0.12491547 0.04855946 0.023273608 0.02087689 -0.005898957 -0.07280809 -0.031065976
-0.07226408 0.030011136 -0.063085325 0.13864431 -0.0913468 -0.0022592098 0.11308981 -0.030438785
0.07992069 -0.031378087 -0.014634656 -0.09845281 -0.0877725 0.12298363 0.09473899 -0.10489673
0.17269371 -0.039940845 -0.018808989 -0.14509392 0.006305958 0.11715302 0.06714163 0.15596677
0.040348742 0.10660572 -0.11861326 -0.027935637 -0.13491645 -0.11351604 0.010352511 -0.1066777
0.0041535255 0.12787443 0.16103256 0.06306919 0.079256974 -0.13977568 0.16625176 0.042134963
-0.12722291 -0.05980962 -0.053674545 0.032037936 -0.13496755 -0.054472752 0.023655048 -0.2331997
-0.017041808 -0.11119872 0.083216846 0.06600895 -0.045053154 -0.07786638 -0.15739614 0.0907117
-0.03317349 -0.016740507 0.045109864 -0.054684643 -0.07475387 0.15124138 -0.15720686 0.0038698078
0.016342865 0.11234347 0.016175231 -0.041289672 0.12059167 -0.15483235 0.12664072 -0.10693054
0.06263024 -0.052226517 0.16322537 0.113374494 -0.07250423 0.028997524 -0.0334416 0.14341167
0.17613636 -0.12631232 0.09173285 -0.104787864 0.07017601 0.1361182 -0.24650598 0.2205882
0.044115115 0.17497867 0.15531883 -0.07207625 -0.08344987 -0.14546396 0.082065724 -0.024548326
-0.077788934 0.05627387 -0.13728906 -0.005632697 -0.05969358 -0.15333872 0.17637224 -0.07628798
-0.10131713 0.07879617 0.14867489 0.09399855 -0.082785584 0.032063544 -0.112189256 0.09892405
-0.03941779 0.09327336 0.040194836 0.16078103 0.060459588 0.0885762 -0.0016638984 0.06369145
0.034589943 -0.1853279 0.083483495 0.16474365 -0.04010031 0.030356254 -0.16924997 0.0809924
0.06290566 0.20008379 0.13238394 -0.09015572 -0.08254401 0.15097046 0.10987055 -0.09053309
-0.14346622 0.07318909 0.09658551 0.11843028 0.045332685 -0.0026866493 0.14278978 -0.1299061

encoder.transformer.in_proj_bias f4 [192]
00000000: b1e1 b5bc f641 8d3b 3b1e 093c a5fe f93c
00000010: 6313 c9bc fad9 65bc 5e5e bd3c d3cd e3bc
00000020: b1af ec3c 3c71 b7bb 85cb e93c 4bd0 5ebc
00000030: 8fb0 89bc 986e 8ebd 66d1 433c ff04 453c
00000040: 39c2 1e3d 7d4c 5ebd 0e16 03bd bfa0 993c
00000050: 4fe2 8abd 534e 80bc 21b5 053d 06b0 30bc
00000060: 4c38 0a3d f09b 8dbc e0d0 4b3d 3608 de3b
00000070: 8353 0b3d 111f 5fbb 8ac0 d33c cbc2 10bd
00000080: 0f68 5f3d 1162 52bd e88e 8abd 9e7c d6bc
00000090: a251 bd3b cda4 f4bc 68b4 db3b 8284 b9bc
000000a0: 8789 6c3c e921 d63d eefb d8bd e064 563c
000000b0: ee86 b13c f4d0 c1bc 4df7 c7bc 2f0c 8f3d
000000c0: 3eb6 0b3d 4e48 123d 83ff 983d 0099 39bd
000000d0: cfb2 123d ee13 ef3b 06aa a43c bef0 253d
000000e0: 81ed 673c 670c 233d 22fa 15bd de3c 293d
000000f0: b19e 873c c9fe d43c 45a8 1b3d e00f 68bd
00000100: 0a02 0f35 4067 fa35 aacd 0036 021c 8cb6
00000110: 8496 3936 db2b 86b5 d3cb 1db6 9faa f3b4
00000120: cabc 64b5 fc40 3936 78f5 d7b4 5247 3ab5
00000130: 62c1 c835 5085 24b4 7403 8932 dac0 2cb6
00000140: 309e 1cb4 478d 7d35 ad83 2b35 c882 84b6
00000150: bc70 3736 31c0 aeb5 e873 ddb5 15f3 35b6
00000160: 5802 c4b6 c830 a736 15ac 81b5 a6a6 1cb5
00000170: 34c9 31b6 71f8 ccb5 1765 ec34 f0ae 70b5
00000180: 5809 ae36 b4ff 9db5 847d 86b6 8ca7 7b34
00000190: 5c7f c433 4de1 bcb6 f988 31b6 cae6 28b6
000001a0: 4fd3 dab5 3d3e 7c36 4a24 2436 22c9 6bb5
000001b0: 6fd6 c135 405f 5bb5 8d1e dcb4 50a1 95b5
000001c0: cd64 aeb6 720c 93b4 5c24 8736 3df9 9bb6
000001d0: 0887 5635 31b6 83b5 bd94 ba36 7d26 8cb4
000001e0: 427f 3b35 ff0a 5636 eb62 a9b5 452d fcb2
000001f0: 1a0b d735 e01e a635 3bbd b235 a472 35b5
00000200: 1a16 4ebc f881 533c 770e a13a 1702 543c
00000210: 1cf8 1c3c ec78 8a3c eb01 8dbc 6d2d 863b
00000220: 59ce 923b fd18 a63c 682d ba3c 9d0c 263c
00000230: ffa6 883c 5abe 1ebb c9cb 9dbc 677a 79bc
00000240: bf19 873c f970 8a3b d200 df3c abd9 3a3c
00000250: 47e9 543c 2470 d6bc 7dfc 94bb 2a8b 1ebc
00000260: 34f2 f8bc 97f0 8c3c 7dd1 37bc 2c0b 483c
00000270: 1c17 59bc a5ce 57bc 7607 14bc 00e3 f13c
00000280: e646 ea3b 288d 873c 13fe 15bc 0467 483c
00000290: 5100 4bbc 36ec 11bc 187a bb3b 7436 093c
000002a0: a313 0d3d e1cf 9cbb 40a8 d83b b912 273c
000002b0: c10d 603c 71c9 f7bc d0a4 4db9 3b16 6b3c
000002c0: 56f3 dabc 808b 393c c73e 03bc 0445 32bc
000002d0: 1fe9 20bc 2aa9 203d 3ccd 033c 013e a83b
000002e0: 9308 78ba 1b6e 3b3c 63f0 87b9 8a9f b7ba
000002f0: f2fe 01bd febd 45bc b24d 44bc e7b4 dabb
-0.022202345 0.0043108417 0.008369024 0.030516932 -0.024545377 -0.01402902 0.023116287 -0.027808106
0.02889237 -0.0055982154 0.028539428 -0.013599466 -0.016807823 -0.06954688 0.01195178 0.012025117
0.038759444 -0.054272164 -0.032003455 0.018753408 -0.06781446 -0.015662348 0.03264344 -0.010784155
0.033745095 -0.01728627 0.049759746 0.006775881 0.03401519 -0.0034045617 0.025848646 -0.03534202
0.054542597 -0.051363055 -0.067655385 -0.026182469 0.0057775537 -0.02986374 0.0067048557 -0.022646192
0.014437086 0.104556866 -0.10594927 0.013085574 0.021670785 -0.023659207 -0.024409914 0.06984746
0.034109347 0.035713486 0.0747061 -0.045311928 0.035815056 0.007296077 0.020100605 0.040512793
0.014155746 0.03980675 -0.0366155 0.041317813 0.016555162 0.026000397 0.03800227 -0.056655765
5.327462e-07 1.8656501e-06 1.9193199e-06 -4.1755857e-06 2.765476e-06 -9.996542e-07 -2.3513464e-06 -4.538642e-07
-8.5211343e-07 2.7604974e-06 -4.0225473e-07 -6.9394184e-07 1.4957443e-06 -1.5322189e-07 1.595047e-08 -2.5742252e-06
-1.458618e-07 9.445543e-07 6.389408e-07 -3.9491315e-06 2.7334745e-06 -1.3019945e-06 -1.6499516e-06 -2.7112594e-06
-5.841528e-06 4.9826667e-06 -9.661331e-07 -5.8357034e-07 -2.649217e-06 -1.527149e-06 4.4031978e-07 -8.9661535e-07
5.186692e-06 -1.1771831e-06 -4.008123e-06 2.343715e-07 9.150128e-08 -5.629065e-06 -2.6454784e-06 -2.5168288e-06
-1.6303765e-06 3.7587154e-06 2.4459027e-06 -8.783701e-07 1.4442029e-06 -8.1722465e-07 -4.1000422e-07 -1.1148313e-06
-5.197339e-06 -2.738994e-07 4.0275463e-06 -4.648375e-06 7.991771e-07 -9.813285e-07 5.5605474e-06 -2.6105036e-07
6.9848113e-07 3.1894886e-06 -1.262027e-06 -2.9357247e-08 1.6021979e-06 1.237695e-06 1.3317107e-06 -6.759458e-07
-0.012578512 0.012909405 0.0012287636 0.012939951 0.009580638 0.016903363 -0.017212829 0.0040947706
0.004480165 0.020275587 0.02272673 0.010134843 0.016681192 -0.0024222345 -0.019262211 -0.015226937
0.016491769 0.004224893 0.02722207 0.011404435 0.012995071 -0.02617652 -0.0045467005 -0.009676734
-0.030388929 0.017204566 -0.0112193795 0.012209695 -0.013250139 -0.0131718265 -0.009034982 0.029527187
0.007149565 0.0165468 -0.009154814 0.012231592 -0.012390212 -0.008906415 0.005721342 0.008374799
0.034442555 -0.0047855233 0.006611854 0.010197335 0.013675154 -0.030247422 -0.00019611721 0.014348562
-0.02672736 0.011324763 -0.008010573 -0.010880712 -0.009821205 0.039223827 0.008044537 0.0051343446
-0.0009461727 0.011439825 -0.0002592831 -0.0014009338 -0.031737275 -0.012069223 -0.011981415 -0.0066743973

encoder.transformer.out_proj.weight f4 [64, 64]
00000000: 2a58 813d 18e3 583c 93c1 ba3d d9d0 e13d
00000010: 471a e1bd 0f86 953d e970 1abd e258 983c
00000020: 4095 9b3d 8eb9 09bd ddb1 f9bd dc95 c13c
00000030: f861 633d 4859 283d 480f 0c3d bb4b 673c
00000040: cf21 723c 02ec 10be a222 ce3d f2bd b5bd
00000050: b815 b63c a59a 8e3d ba24 f6bd cdcc 93bd
00000060: 37b0 52bd 1189 ed3d 17a6 97bd 73e5 2b3d
00000070: ab0a ddbc f32a 533c 40dd e73d d89a 6cbd
00000080: 111b 333d 4df1 da3d b85b f5bd 90bb b73d
00000090: e5a4 953c 5d09 b63d 8e52 c73d ecde abbd
000000a0: c620 75bd 7693 2dbd 7585 d83c 546f 613d
000000b0: d372 823c 9c3a f83d c344 943d 4fe3 463d
000000c0: a893 623c 6e78 39bc 532e 69bd 2418 113e
000000d0: c836 87bd d09e 14bd 5b9a 7cbc 5ba6 ac3d
000000e0: 31c5 d13d 7d54 cebd 74d4 40bc 45b1 9b3d
000000f0: 1a01 9abd a9cf a0bd 27f4 efbd 712f 29bd
00000100: dba5 133b 164a 183e 042b cfbd ba3c 32bc
00000110: a623 113e dcb3 ca3d 56f8 ce3d 40dd 4a3c
00000120: c6f5 133e 9299 cabd c392 343c 5c16 473e
00000130: 82f1 68bd 47db 963d d714 1cbc 5c00 183b
00000140: 9aa9 b33d d257 a23c cbb9 9bbc db20 58bd
00000150: c226 bf3d bb7d 513d 9949 04be 4d25 113d
00000160: 18a5 2a3c 19ee 823d d762 ef3d 4304 82bd
00000170: 23d5 eebd d8bc fdbc ae6f 133d 8f3d 10bd
00000180: 1251 0c3d 3d13 ddbd fa74 8b3d 96eb 7e3d
00000190: 9167 923d 6576 503c d240 07bd 236a 24bd
000001a0: ca40 8e3d e5f8 e7bd 7154 1b3e 38a8 ddbc
000001b0: 0bd4 053d cb8b 293e 33b6 aabd 3a81 babd
000001c0: 7249 86bd a625 803d f82c 993d 48f4 0f3e
000001d0: b37f 3fbc 4791 323d 92bc bd3d e009 533d
000001e0: 0354 8b3b 0623 df3d ac12 e83c bad3 073c
000001f0: 9b51 08bd 8c04 7d3c d554 b4bc acd1 9abd
00000200: a948 babd 6da2 32bc 4750 e6bd 0b35 adbc
00000210: d7e5 39bd b631 b53b f8f8 a93b 8bdc 353c
00000220: 17a1 b9bd 8f93 b2bd b2dc e13d 9ec1 603d
00000230: 45cd 8b3c 6866 92bd 6e76 40bc 5099 44bd
00000240: 1acc 0bbe 86b0 bfbd b83b e13d 97bb afbd
00000250: a9df c8bd 6e1c a23d 44c3 b93d 42d6 48bd
00000260: 81d3 89bd 1aab 323d 0a82 31bd bee4 3bbc
00000270: 52c0 4fbd ba48 90bd 0ebd 043e e1cf cc3a
00000280: 33ed 213b 20f0 e73c abf9 973d f6bb a73c
00000290: 65ee 643d e969 35bb 416e e43d bc41 02bd
000002a0: 4b32 21bd 92b9 cc3d 8aa5 03be e8e3 d63c
000002b0: 9456 873d 51c0 b63d a3fe 1e3e 1e70 a13d
000002c0: 5032 f1bb 58bc d8bd 12bc e53d 83cd 1bbc
000002d0: ece4 4abd 92d8 d53d dadc 55bd c8d1 d5bd
000002e0: 47c7 1d3d d4b2 e0bb 2bcf c3bd 549c ad3d
000002f0: e1b9 cc3c fff5 e03d 7edf 77bc f6ba 9e3d
00000300: 5fb0 cdbd ce45 d43d bf31 1ebe 882f 483d
00000310: ff76 dcbd 8320 953d ad56 b7bd 3b70 02bd
00000320: eebc 54bd 23b0 a03d db2f 0e3e 98f8 fabd
00000330: 7fa5 b7bd 8a56 42bd 53d7 f53d e883 0e3e
00000340: d1fd 033d ade2 273e c32a 8b3b 4aeb 5a3d
00000350: 795f 9ebd 2696 cbbb 7ade 5b3d bc23 ab3d
00000360: a669 adbd 2756 a03d 17a0 03bc 9da0 c83d
00000370: 2572 87bd d775 fabb a52f b23d fe67 d63d
00000380: 56cf bdbc 5638 523d 06b8 c4bd ab2e 103d
00000390: 6d9e da3d 241b 373a deea 27bd cef0 7dbd
000003a0: ddfe 8a3d 2955 f43c e6d6 83bc eb5e ea3c
000003b0: 364f 61bc f154 8e3d dd07 7fbd 6f57 803c
000003c0: 4325 c43d 5c2f 11bb 4287 803d cf87 723d
000003d0: 9115 ff3d eedc b5bd c1ff 16be 86bc 83bd
000003e0: f353 a03c 84b1 8d3d 5d1b b13c abee 62bd
000003f0: 7bfa 1dbb 1493 1d3e 2eb5 ef3b e850 833d
0.06315644 0.013237737 0.091189526 0.11026163 -0.1099134 0.0730096 -0.037705336 0.01859707
0.075968266 -0.033624224 -0.12192128 0.023631029 0.055513352 0.04110077 0.03419426 0.014117177
0.014778568 -0.1415253 0.100651994 -0.0887412 0.022227153 0.0696309 -0.12018724 -0.07216797
-0.051437583 0.11598409 -0.07404726 0.041966867 -0.026982626 0.012888658 0.11321497 -0.057764858
0.043726984 0.10690556 -0.119803846 0.089713216 0.018267104 0.08888505 0.09732543 -0.08392128
-0.05984571 -0.042376958 0.026430825 0.05503781 0.015923893 0.12120554 0.07239678 0.048556622
0.013829149 -0.011320217 -0.056928944 0.14169365 -0.066022456 -0.036284268 -0.015417661 0.08430167
0.102426894 -0.100747086 -0.011769403 0.07602171 -0.07519741 -0.07852108 -0.1171649 -0.04130501
0.0022529277 0.14872012 -0.101156265 -0.010878736 0.14173755 0.09897587 0.1010596 0.012381852
0.14449224 -0.098925725 0.011021319 0.19442123 -0.056870945 0.073660426 -0.009526453 0.0023193574
0.08772583 0.019817267 -0.019009491 -0.05276571 0.09333564 0.051145297 -0.129187 0.035435963
0.010415338 0.0639307 0.11688774 -0.06348469 -0.11661746 -0.030973837 0.035995178 -0.035214957
0.034257002 -0.10794685 0.06809421 0.06223639 0.0714866 0.01272354 -0.0330208 -0.040140282
0.06945951 -0.1132677 0.1516893 -0.027057752 0.032672923 0.16557233 -0.08335533 -0.09106679
-0.06556977 0.06257181 0.0747928 0.1405803 -0.011688161 0.04359558 0.092644826 0.05152309
0.0042519583 0.10895352 0.028329216 0.008290226 -0.03328095 0.015442979 -0.022013107 -0.07559523
-0.0909589 -0.010902983 -0.112457804 -0.021143457 -0.045385208 0.0055296076 0.00518715 0.011099945
-0.090639286 -0.08719551 0.110284224 0.054872148 0.017065654 -0.07148439 -0.011746986 -0.047997773
-0.13652077 -0.09359841 0.109977186 -0.08580702 -0.09808285 0.07915579 0.09070447 -0.049032457
-0.06729794 0.043620206 -0.043336906 -0.011468111 -0.05072052 -0.070451215 0.12962744 0.0015625918
0.0024708032 0.028312743 0.07420667 0.020475369 0.055891413 -0.0027681536 0.11153842 -0.03180097
-0.039354604 0.09996332 -0.12856117 0.026231721 0.0660831 0.089234 0.15526824 0.07882713
-0.007360734 -0.10582799 0.11217512 -0.009509447 -0.049534723 0.10441698 -0.052212574 -0.10440403
0.038520124 -0.0068572555 -0.095609985 0.08477083 0.024990978 0.1098442 -0.015128968 0.07750504
-0.10043406 0.10364877 -0.15448664 0.048873454 -0.10764884 0.07281592 -0.08952079 -0.031845313
-0.05193799 0.078460954 0.13885443 -0.12254447 -0.08967113 -0.04744581 0.120039605 0.13917506
0.03222448 0.16395064 0.004247041 0.053447045 -0.07733054 -0.0062129674 0.053678967 0.08356425
-0.084674165 0.07828932 -0.008033774 0.097962596 -0.06613568 -0.007643442 0.08700494 0.10469054
-0.023170155 0.051323257 -0.09605412 0.035200756 0.106747486 0.000698494 -0.04099547 -0.061997227
0.067868926 0.029825764 -0.016093682 0.028609714 -0.0137517955 0.06949795 -0.06226336 0.015666692
0.095774196 -0.0022153473 0.062757984 0.05921155 0.12455285 -0.088800296 -0.14746 -0.06432442
0.01957128 0.06918624 0.021619493 -0.055403393 -0.0024105597 0.15388137 0.0073152995 0.06411916

encoder.transformer.out_proj.bias f4 [64]
00000000: ff07 13bc 7500 c0bb 3f3a 493c 4b56 b0bb
00000010: 7f7f 3f3d 5406 51bd 3d51 1bb9 c92d 1b3c
00000020: 97c7 64bc 072a 303d 44cd 5abc 2e11 44bc
00000030: cab8 9abc da55 09bc 63ad 043c 01bd 313b
00000040: e3a5 e1bb b5b2 8c3c df70 98bc 2807 64bc
00000050: 5d70 23bc 0eea edbc d82f df3c fed7 17bc
00000060: 69da f539 c236 4ebc 7615 383c b412 153c
00000070: e5d9 00bc 4274 b0bc 7136 2a3c 5900 483c
00000080: 22f3 8e3c 3741 103d e9d6 fa3b 1b1d de3b
00000090: c29a 11bc 590c 873c 3f98 d5bc 375e ddbc
000000a0: e82f fcbc da35 893c 0b6e a5bb e5d2 f63b
000000b0: a3fb c33c 8f35 583b 13c1 b639 687e 0c3d
000000c0: 4ac0 7dbc a684 1f3d a45d 1abd 66a2 c53c
000000d0: 1064 bbbc 71b5 c93c 1d2d 8b3a 5927 003c
000000e0: dbaf b7bc 7fb3 893c f9c8 91bc b941 1abc
000000f0: e4a5 22bc 7259 52bc 68f6 93bc c365 fc3c
-0.008974074 -0.0058594295 0.012281953 -0.0053813807 0.04675245 -0.051031426 -0.00014812216 0.009471365
-0.013963602 0.04300883 -0.013354603 -0.011966987 -0.018886942 -0.008382285 0.008097979 0.0027120712
-0.0068862303 0.017175058 -0.018608509 -0.013917722 -0.00997552 -0.02904227 0.027244493 -0.009267805
0.0004689277 -0.0125862975 0.011235585 0.009098697 -0.00786445 -0.021539811 0.010388956 0.012207114
0.01744992 0.035218444 0.007655014 0.006778372 -0.008886995 0.01648538 -0.026073573 -0.027022464
-0.030784562 0.016749311 -0.0050485185 0.007532465 0.0239237 0.0032990908 0.00034857597 0.034300238
-0.01548774 0.038944863 -0.03768696 0.02412529 -0.022874862 0.02462265 0.0010618303 0.007821881
-0.022422722 0.016809223 -0.017796027 -0.009415084 -0.009927247 -0.012838708 -0.018061832 0.030810243

encoder.ln1.weight f4 [64]
00000000: 4ed2 813f c5e8 813f 65f1 753f 5356 793f
00000010: 0d45 833f b73b 8b3f 1586 793f d7bf 7e3f
00000020: 954b 803f e7c0 853f ea8b 7f3f a041 8d3f
00000030: 9cb1 853f 7032 803f a81f 793f 336b 773f
00000040: ea79 7c3f d8e0 7b3f d999 823f 6bd1 7a3f
00000050: 514e 8a3f 982f 8e3f d95a 803f 5e06 843f
00000060: e988 7b3f 727a 7a3f 74ef 7f3f 8e9f 753f
00000070: dcd5 783f de16 6f3f 4fba 833f 9f18 7b3f
00000080: 8fc8 7c3f baba 803f 526e 6c3f 5627 773f
00000090: 5a23 673f 997e 853f 8254 843f b099 813f
000000a0: 8616 873f 3233 8b3f 004e 813f 07d6 793f
000000b0: 18fb 853f e046 883f a683 6c3f 798f 863f
000000c0: b1f7 803f b3e8 873f 6d9e 813f ebab 743f
000000d0: 3ab4 7b3f 0bf4 823f 71dc 753f 4f4e 823f
000000e0: 7526 823f 608e 743f 06ee 763f 479d 763f
000000f0: bb17 743f 1c98 793f 9586 6c3f 4c32 823f
1.0142305 1.0149161 0.96071464 0.97397345 1.0255448 1.0877599 0.9747022 0.99511474
1.0023066 1.0449494 0.99822867 1.1035652 1.0444827 1.0015392 0.9731393 0.9664795
0.98623526 0.9838996 1.02032 0.97975796 1.080515 1.1108274 1.0027725 1.0314443
0.98255783 0.97843087 0.9997475 0.95946586 0.97201324 0.9339427 1.0291232 0.98084444
0.9874353 1.0056984 0.92355835 0.96544397 0.9028832 1.042926 1.033829 1.0125027
1.0553749 1.0874999 1.0101929 0.97592205 1.0467253 1.0646629 0.9238838 1.0512534
1.007559 1.0617889 1.0126473 0.95574826 0.9832188 1.0230726 0.9603949 1.0180148
1.0167986 0.95529747 0.96456945 0.96333736 0.9534871 0.97497725 0.92392856 1.0171599

encoder.ln1.bias f4 [64]
00000000: a6c9 bbbc 5721 eebc b6df 0b3c 0482 a638
00000010: 9ff3 8a3d 9b61 46bd 05a8 a1bb 8257 793c
00000020: d64a 79bc f917 8e3d b27c f53c d314 5dbd
00000030: e508 87bd 6b4e d2bc d5d7 f0bb 0766 7c3c
00000040: 9c02 aabc 923b d4bb 9d7e 86bd 361c d93c
00000050: 620e 12bd c04e c0bd d9e3 203d e589 b4bc
00000060: 91f8 81bc fb85 c0bc be62 c1ba 9932 1b3d
00000070: 9f2d 86bc 78ee 153c 14c8 eb3c 1481 7d3c
00000080: e4f5 ecba 0282 933d 432c cd3c e9b3 853c
00000090: e3cb 1fbc e5be de3c 794d 67bd cce5 f0bc
000000a0: eb86 c5bc 2dda a13d 3a2f 4d3c d1f7 a73c
000000b0: 1989 283d 93fe 2bbc 61e5 303d 1a67 6a3d
000000c0: 7081 34bd 5b50 853d 72bf 14bd 7380 093d
000000d0: c773 81bd 8a96 563d 7d7e 783c 0e47 803c
000000e0: e242 11bd b5e1 203d 5002 9dbc 313b f3bc
000000f0: 651c 11bd 6c6b 2fbd 41ef 51bd 56e1 b03d
-0.022923302 -0.029068632 0.008537224 7.939714e-05 0.06784748 -0.048432928 -0.0049333596 0.015218617
-0.015215596 0.06938166 0.029966686 -0.053974938 -0.06593493 -0.025672158 -0.007349948 0.015405185
-0.020753197 -0.006476828 -0.06567118 0.02650271 -0.035658248 -0.0939002 0.039279792 -0.02203841
-0.015865596 -0.023501387 -0.0014754159 0.03789005 -0.016379176 0.009151094 0.028781928 0.015472669
-0.0018078652 0.072025314 0.02504552 0.01632114 -0.0097532 0.027190635 -0.056470368 -0.02940645
-0.024112185 0.07902942 0.012523467 0.02050391 0.04114637 -0.010497707 0.043187503 0.05722723
-0.044068754 0.06509467 -0.03631539 0.033569764 -0.06320911 0.05238966 0.015166876 0.015658882
-0.035464175 0.03927775 -0.019166142 -0.02969131 -0.03542747 -0.042827055 -0.05125356 0.086367294

encoder.ln2.weight f4 [64]
00000000: 669a 823f f781 793f a3c9 6e3f c4e9 6d3f
00000010: f157 6f3f 47d8 853f 7f1a 6f3f a138 823f
00000020: e67d 7e3f f253 803f 609f 6d3f 5292 843f
00000030: 03df 733f e9a7 763f 6712 753f 4425 7e3f
00000040: e9c0 733f 414f 753f 7b8b 723f ee14 763f
00000050: eeaf 773f 0ffc 7c3f c96c 843f 8d9a 7f3f
00000060: e13c 783f 826b 733f 7c54 813f 3244 743f
00000070: 2c91 6d3f b66c 6d3f dc7d 813f 3b84 783f
00000080: 7a32 7a3f 7c79 6e3f 06db 613f f4e0 7e3f
00000090: 48d7 713f 9d0c 7f3f 889f 7f3f f1d9 7d3f
000000a0: 7819 773f 1c77 843f e1af 803f d731 743f
000000b0: 3342 8b3f dd64 7e3f 25e5 623f 9890 7b3f
000000c0: 2e8b 723f 27e8 813f 68ce 7d3f 89ff 703f
000000d0: fda5 6c3f d369 833f 51a0 743f 1313 803f
000000e0: 3be6 753f 322e 743f a30c 753f 4c40 6f3f
000000f0: 52b8 703f eb8d 803f beea 713f 10fd 783f
1.0203369 0.97463936 0.93276423 0.92934823 0.9349356 1.0456628 0.93399805 1.0173532
0.99410856 1.0025618 0.9282131 1.0357153 0.95262164 0.9634996 0.95731205 0.9927561
0.9521623 0.95824057 0.9474408 0.96125686 0.9675282 0.9882211 1.0345699 0.998452
0.96967894 0.9508592 1.0103908 0.9541656 0.9279964 0.92744005 1.0116534 0.9707677
0.9773327 0.9315412 0.8822483 0.99562 0.9446912 0.9962862 0.998528 0.9916068
0.9652324 1.0348849 1.0053674 0.9538855 1.0879577 0.99372655 0.88630897 0.9826751
0.9474362 1.0148972 0.99143076 0.94139916 0.9244078 1.026667 0.95557123 1.0005821
0.9605443 0.9538299 0.9572241 0.93457484 0.9403125 1.004331 0.94498813 0.9726114

encoder.ln2.bias f4 [64]
00000000: 7701 12bc 18ab 7bbb 088e 6e3c 1695 273c
00000010: 9e1b dc3b 9f00 babd 0131 a5bb bad4 df3b
00000020: 7d9f 69bc 066a c63d a7eb 783c 8087 64bd
00000030: 30ed 73bd 5480 dcbc 8d3a 1abc c69a f13c
00000040: af6f ddbc acee 83bc 2377 aebc b6fd ba3c
00000050: 6a44 94bc 342d 8dbd b4f5 523d 5dd8 2ebd
00000060: 1612 cdbc a0c6 68bc 3e45 a53c 54c1 723d
00000070: 43a5 81bc 08be 55bc 9736 ba3c 3bde 9a3c
00000080: 907d 82bb 1b5a 993d 34e8 8a3b 7057 a93c
00000090: 47e8 d9bc ef0b 763c f52d 66bd 1c14 1cbd
000000a0: 7307 15bd f94d 0b3d eea9 313d bf09 203b
000000b0: 8ec3 103d d0df 5ebd 9e8e df3c 170e 8b3d
000000c0: 44f8 7bbc b18f 983d 37e8 53bb 14ea d23c
000000d0: c6f7 33bd 7e10 483d 8de1 b13c ea54 413c
000000e0: b59c 2dbd 9488 113d faf9 b7bc 8d85 55bd
000000f0: 70de 9ebc 83dd f2bb aacc c4bc 198e 8b3d
-0.008911482 -0.003840154 0.01456023 0.010228416 0.0067171594 -0.0908215 -0.005041242 0.006830779
-0.014259216 0.09688191 0.015192903 -0.055793285 -0.05955237 -0.02691666 -0.009413374 0.029492747
-0.027030794 -0.016105019 -0.021297043 0.022826057 -0.018099029 -0.068933874 0.051503852 -0.04268681
-0.025033038 -0.014207512 0.020174619 0.059266403 -0.015825873 -0.013045795 0.022731109 0.018904796
-0.0039822534 0.074878894 0.0042391066 0.020671576 -0.026600016 0.015017494 -0.05619617 -0.038105115
-0.036384057 0.034009907 0.04337495 0.0024419872 0.035342745 -0.054412663 0.027289685 0.06789797
-0.015379015 0.07449282 -0.0032334456 0.025746383 -0.043937467 0.048843853 0.021713996 0.01180003
-0.042385776 0.03553064 -0.022458065 -0.052129317 -0.019393176 -0.00741166 -0.024023373 0.06814212
