experiments/model_16_60_2026-01-17_5100/model.pt (torch, 48032 bytes, 21 tensors)

encoder.graph_embed.GCN_in.A f4 [9, 9]
00000000: bb81 df3e 0581 9ebe 4f0d 13bf ee10 a83e
00000010: 9119 6bbe cd5e 9bbe 6afc 9abe 05e1 8d3f
00000020: b61c 4fbf 5a3c f93e 6c18 d63c 9eff 37bf
00000030: e42a e4be 21f1 f3be e902 483f b0a6 813f
00000040: e9eb 4ebf baa7 af3f 6c3a 923e 4a74 343f
00000050: 3095 0c3f 8bd8 573f 2812 1abe e4e5 0f3f
00000060: dcbf ccbf 0669 49bf 02aa 073f 5fd8 22bf
00000070: 7c50 9c3f e171 b9bf 234e 67bf 756f 393f
00000080: e17d a7bc ad14 59bd 93f8 9abf 4d62 42bf
00000090: d6b6 c3bc 0c81 acbf e9d1 cc3e c0c8 443f
000000a0: 72a6 c4be 6f5f fc3e 4bc9 9bbf d7a8 5a3f
000000b0: f70a 993f 903d 283f 1ecf 8cbf 1b7b 1a3e
000000c0: 64b9 893d 02f1 f5be 6179 0f3f 096c 433f
000000d0: 6df3 5cbf 5c5a 523e f56c 90bf 3852 8f3f
000000e0: cb65 c7bf 28ac adbf 0dd8 d8be 1fbc 693f
000000f0: 1180 20bf 9fd5 2c3f 8d2f 2b40 839f 25be
00000100: 1302 5ebf 028b 403f a162 6f3f abac 5b3e
00000110: 7615 68be 01c7 54bf 6a22 7d3f 14ca 61be
00000120: fd42 33bf 1812 c63e 9f49 88be 9514 a4bf
00000130: 3439 81be 126b 033f d8ab 6ebe dbe4 6f3f
00000140: dc64 00c0
0.43653664 -0.3095781 -0.5744218 0.32825416 -0.22958972 -0.30345765 -0.30270702 1.1084296
-0.80903184 0.48678857 0.026134692 -0.71874416 -0.44563973 -0.47644904 0.7812944 1.0128994
-0.8082872 1.3723061 0.28560197 0.70489943 0.5491514 0.84314793 -0.15045989 0.5621016
-1.5996051 -0.7867588 0.52993786 -0.63611406 1.2212062 -1.4487878 -0.903536 0.72435695
-0.020445766 -0.052998234 -1.2107109 -0.75931245 -0.023890894 -1.3476882 0.400039 0.7686882
-0.38408238 0.4929156 -1.2170805 0.8541388 1.1956471 0.65718937 -1.1000707 0.15086024
0.067248136 -0.48035437 0.56044585 0.76336724 -0.8630894 0.20542282 -1.1283251 1.1196966
-1.557794 -1.3568163 -0.42352334 0.91302675 -0.62695414 0.6751346 2.6747773 -0.1617413
-0.86721915 0.7521211 0.9350987 0.21452586 -0.22664437 -0.83116156 0.98880637 -0.22049743
-0.7002409 0.3868568 -0.26618668 -1.2818781 -0.25238955 0.5133525 -0.2330774 0.9370858
-2.006156

encoder.graph_embed.GCN_in.linear.weight f4 [16, 16]
00000000: 1c0d 4abe b8d0 d1bd d003 15be cce4 9d3d
00000010: 50ad 213e 8767 5b3e e985 a13d 05e3 9e3d
00000020: 47f7 553e e86f 72bd 0e86 45bb 3eda abbd
00000030: 02a0 933c 87d1 223b b6ed 8e3d 1942 6dbd
00000040: eb77 bf3d 5cf6 04be 469d d2bd 21af 86bc
00000050: 73db 0abe 7625 883e 349f 66bd ca72 6fbe
00000060: f340 8cbd 56f1 d13d c9ff d5bd 1b04 453e
00000070: cb90 dcbc fb71 0c3e a3b7 3a3c d8a6 e33d
00000080: 859a 7d3e e1e0 c73c 86a9 adbd 995d 07bc
00000090: a2e1 c13d 42b0 f73d 7d4b 1cbe 10da f6bd
000000a0: aaa7 96be 081a 12be 2c2b 0cbe eef4 5cbc
000000b0: 8adb 9a39 91fc 33be c6e4 dcbc a0ab 1ebe
000000c0: c60e 2c3d c9f7 df3c 588a 663e 9032 4d3e
000000d0: 5f21 a43c b36e 0cbd 73e2 623e 1b36 353d
000000e0: 997a d13d d60e 67bc 2868 823e 4949 35bd
000000f0: d7e7 d2bd 6a58 463d 2935 c3bc 93c5 c3bd
00000100: 2706 9bbd f901 05be 282a 3a3e 349e 133e
00000110: 6d88 4e3e a4a0 763d 9365 313e 3e6c 49be
00000120: 7a53 b0bd 0394 f63d 7481 85be ea13 05be
00000130: 716a 3c3e 35ef f4bd 345a 083e 4ad0 76bd
00000140: aa02 ebbd bbf5 583c ee01 983c 2627 c2be
00000150: 9aa4 4ebd 526f abbd 955b 663e 2f0b e6bd
00000160: d88b 8a3d 3089 683d 0222 74bd 92be 2c3d
00000170: cb6f 963d 2cc3 69bc bbd5 21bd 2862 a0bd
00000180: 5eb0 a33d 9c99 9d3d 254e 78b9 0b9f 0abe
00000190: e971 0b3e 4e5f 1b3e fa0b c8bc 8bc9 4fbe
000001a0: a2a3 ccbc a07a 2cbe 1942 60be 9c55 5abe
000001b0: 56a9 f9bc 9ca2 863d 4164 1d3c 7d4a 023e
000001c0: 3c5d 4abc d47e 5dbe 8a21 2e3e faba 5dbe
000001d0: 873c 79be 9ff6 ae3d 7d05 ce3d 21c7 753d
000001e0: 5965 16be cecd 4cbe fc49 28bd 7708 1bbe
000001f0: 9fa0 43bc 8a23 d93c 3055 64be e23c 70bd
00000200: 240a 82bd e32d 393e 09b5 17be 3f52 de3d
00000210: b72d 45be 95af 57be 43d3 e93d 3c85 133b
00000220: b99f af3c 53e9 b63d b51c 5dbe 87ca 7c3e
00000230: 43e7 663d 600c 3cbd 2dc2 b13d d1b0 29bd
00000240: e29d 58be ce8b 273e 1ca7 83be a6ab a33d
00000250: 94e5 213e 128b 96bd ae81 e73c 8d2f 43be
00000260: d705 403e e611 52bd 8557 02be 6c11 2cbe
00000270: f169 b3bd 334e 19be 084d c0bd d892 cc3c
00000280: 5a9d 003e e40a 52be 46d2 8dbe 427f 0fbe
00000290: 1e4c 5fbd 76b1 293c 5f50 d5bd b236 fcbd
000002a0: 3d67 2ebd 6d94 f93d 1d12 5c3e 1a2a 4c3d
000002b0: a23c 5bbd 9cff 063d 3fe9 02bc 01b2 23be
000002c0: b6fa b93d 9b0c db3d 1743 00bd b444 86be
000002d0: 6c9b 153e 9efd 873d 6dc2 f5bc 86c8 793e
000002e0: 9b37 333e 8999 fabd c71b a3bd bc40 77bd
000002f0: 9302 583d bce1 abbd 5653 2abd 7ee0 863d
00000300: f019 c8bd 7e22 233e 48ef 59be 0604 0e3e
00000310: 17ed a9bd e7d6 96bd d37d 0d3e 4fa6 f63c
00000320: f169 e43d f91e dbbd 5710 903e c1e0 4ebe
00000330: 83b4 053d f29b ff3d 5c07 2e3e 13f5 68ba
00000340: 82f5 50be aee5 6abd f22e 2cbe aca1 2bbe
00000350: 3cc3 21bc 50d9 30be 45d2 2cbd 0faf 7fbd
00000360: 5887 f93d 2175 86bd f2dd bbbd 705a 47bc
00000370: c69f c4bc a1d1 6a3d 2836 f43d cf48 12be
00000380: a9be 04be 7b0e 51bd 45c3 783e 6f9e 693d
00000390: 6519 70bd 6508 a0be 7c8b 4dbe 1f42 b63c
000003a0: 75f6 953c a38a 043c 85df 4cbe 0f67 483c
000003b0: d637 83bd 1c66 843d 95b4 323d ff2a 273d
000003c0: 2fa2 fabd 38b7 dbbd 75c6 d23c f433 ad3d
000003d0: 9eee 0bbe 12e8 783b 65da e3bd ed53 7abd
000003e0: 00b1 f3bd 3615 94bc 8252 1e3e c3fe 1dbe
000003f0: 13e8 0fbd abb4 17be 1d2d 91bd aeea a93c
-0.19731563 -0.10244888 -0.14552236 0.07709655 0.1578877 0.21426211 0.078868695 0.07758144
0.2089511 -0.059188753 -0.0030139717 -0.08391236 0.018020634 0.0024844126 0.069789335 -0.057924364
0.093490444 -0.12984604 -0.10283904 -0.01644093 -0.13560276 0.2659108 -0.05630417 -0.23383632
-0.068483256 0.10251109 -0.10449178 0.19239847 -0.026924511 0.13715355 0.0113963215 0.11115807
0.24765976 0.024399223 -0.084796 -0.0082620615 0.09466864 0.120941654 -0.15263171 -0.12053311
-0.29424793 -0.14267743 -0.13688344 -0.01348613 0.00029536738 -0.17576815 -0.026964556 -0.15495157
0.042006277 0.027339833 0.22513711 0.2003882 0.020035444 -0.03428526 0.22156696 0.044241052
0.10228462 -0.014102658 0.2547009 -0.044259343 -0.10298126 0.048424162 -0.02382906 -0.09559169
-0.07569533 -0.12989034 0.18180144 0.14415818 0.2016923 0.060211793 0.17323904 -0.19670197
-0.08609672 0.1203995 -0.26075327 -0.12995878 0.18399979 -0.119596876 0.1331566 -0.060257234
-0.114751175 0.01324218 0.018555608 -0.37920493 -0.050449945 -0.08370842 0.22495873 -0.11232602
0.06764954 0.056771457 -0.059602745 0.04217393 0.073455416 -0.014267724 -0.03951047 -0.07831222
0.07992624 0.07695314 -0.00023680234 -0.13537233 0.13617672 0.15173075 -0.024419773 -0.20291726
-0.02498037 -0.16843653 -0.21900214 -0.2132172 -0.030476253 0.06573984 0.009606422 0.12723728
-0.01235133 -0.21630412 0.17004982 -0.21653357 -0.24339496 0.08543133 0.100596406 0.060004357
-0.14687099 -0.20000383 -0.041086182 -0.15139948 -0.0119401505 0.026506204 -0.22298121 -0.058651812
-0.063495904 0.1808391 -0.14815153 0.10855531 -0.1925572 -0.21063073 0.11417248 0.0022509834
0.021438466 0.08931222 -0.21592982 0.24686633 0.056372892 -0.04591024 0.08679614 -0.04142839
-0.21153978 0.16361925 -0.25713432 0.07991724 0.15810233 -0.07350744 0.028260078 -0.19061108
0.18752228 -0.0512866 -0.12728699 -0.16803521 -0.08760441 -0.14971237 -0.093896925 0.024972364
0.12560025 -0.20511967 -0.27699488 -0.14013389 -0.05451595 0.010357251 -0.1041572 -0.1231512
-0.042578924 0.12186513 0.21491285 0.04984484 -0.05352462 0.03295861 -0.0079901805 -0.15985872
0.090810224 0.10695764 -0.03131398 -0.2622429 0.1461007 0.066401705 -0.029999936 0.243929
0.1750168 -0.12236316 -0.079642825 -0.06036447 0.05273683 -0.08392665 -0.04158338 0.06585787
-0.09770572 0.15931126 -0.21282685 0.13868722 -0.082971744 -0.07365208 0.1381753 0.030108599
0.11153019 -0.10699267 0.28137466 -0.20202924 0.032642853 0.12480916 0.16994995 -0.00088866166
-0.20406154 -0.057347946 -0.16814783 -0.16760892 -0.009873208 -0.17270398 -0.042192716 -0.06242281
0.12184018 -0.06565309 -0.09173192 -0.012167558 -0.024001967 0.057328824 0.11924392 -0.14285587
-0.12963356 -0.0510392 0.2429324 0.05703586 -0.058617968 -0.31256405 -0.2007274 0.022248326
0.018305996 0.008089694 -0.20007141 0.012231602 -0.06407134 0.06464788 0.043629248 0.04081249
-0.12237965 -0.107283056 0.025729397 0.08457175 -0.13665244 0.0037980122 -0.1112564 -0.061115194
-0.118989944 -0.01807652 0.15461162 -0.15429215 -0.035133433 -0.14815013 -0.07088683 0.020741787

encoder.graph_embed.GCN_in.linear.bias f4 [16]
00000000: 9e39 44bd a747 9ebd c8d2 183c f09c eabd
00000010: 7995 eb3d a956 883e ff62 0d3e 361c 08be
00000020: 6840 71bd 5ef1 053e 576a b9bc 116c 9e3d
00000030: 6975 513e 0e01 763d 2ea0 233e dc0f 813e
-0.04790651 -0.0772851 0.009327598 -0.11455715 0.11503119 0.26628616 0.13807295 -0.13292012
-0.058899313 0.13080356 -0.022633715 0.07735456 0.20454945 0.0600596 0.15979072 0.25207412

encoder.graph_embed.bn.weight f4 [16]
00000000: 3053 763f f9af 713f 9df6 663f f00a 7f3f
00000010: 6d3d 723f 2c63 743f e2bf 703f 4c3e 6d3f
00000020: d62e 823f 6c2d 6c3f 0073 7c3f fbc4 6f3f
00000030: af1e 693f 740f 5b3f 9e1c 813f c313 8f3f
0.96220684 0.9440914 0.9022005 0.99626064 0.9462498 0.95463824 0.9404279 0.9267318
1.0170543 0.9225681 0.98612976 0.93659943 0.91062444 0.85570455 1.0086858 1.1177906

encoder.graph_embed.bn.bias f4 [16]
00000000: 5974 e63c b6b4 e4bc 7fff 67bd 10fe 003e
00000010: 1933 933c 3abc 923d aa47 f53c 359b 27bd
00000020: c8fc b9bd 4bef c73c c71b 033e cb12 b63c
00000030: b4a8 00bc 94c0 783d 9ccb 9abd 2248 a5bd
0.02813165 -0.027918201 -0.056640144 0.12596917 0.017968701 0.071648076 0.029941399 -0.0409195
-0.09081417 0.024406096 0.12803565 0.022225758 -0.007852722 0.06073053 -0.07558367 -0.08070399

encoder.graph_embed.bn.running_mean f4 [16]
00000000: f8b8 b4bb b7eb bebc 6476 ae3c 8c07 a03c
00000010: 0b52 dc3b e943 d53c f7ac fd3c 3efd fc3b
00000020: fef4 90bd ad98 57bc 8dbf 893c 16bd 6dbd
00000030: 67dc 0dbc e7a3 71bb 7eab 1f3c 428b 6f3d
-0.005515214 -0.023305757 0.021296687 0.019534849 0.0067236475 0.026033359 0.030966265 0.0077206185
-0.070779786 -0.013158959 0.016814971 -0.058041655 -0.008658505 -0.0036871375 0.009745477 0.058482416

encoder.graph_embed.bn.running_var f4 [16]
00000000: b5fe b63b bc1d 943a 3f0f 8d3a 1b62 4a3a
00000010: 52fa 013b 2d59 9d3b b404 e53b 060a 483c
00000020: 1f51 5d3b 06ef e13a 7f94 563b 781e f63a
00000030: d73c 003b dcb1 0d3c 07b5 b13b dc86 ab3b
0.0055845627 0.0011300365 0.001076199 0.00077203073 0.001983304 0.0048018903 0.006989086 0.012209421
0.0033770276 0.0017237372 0.003274232 0.0018777391 0.0019567513 0.008648362 0.0054231915 0.0052345823

encoder.graph_embed.GCN_layers.0.A f4 [9, 9]
00000000: 5581 2dbe 4df7 c8be 69c0 abbe e186 c2bc
00000010: a7bb acbe 3b16 4240 81e8 91bd fb2e 833f
00000020: ddef 02bd be2c 0abf 1481 73be dff9 643e
00000030: 2ab0 323f e286 0fbf 8030 92bd ef40 4cbf
00000040: 5b57 9cbf 6683 08be 3073 453f ee94 1bbc
00000050: 7518 103f db3d 693e be18 d03e b9dd 57bf
00000060: 3b2a 963d 28c6 04bf 5552 2ebf fb33 553f
00000070: 587a f33d c9f6 ee3d ec88 983d 0386 fd3e
00000080: 8cfd 083f 0c1d 7abe 5104 e83d 2640 2f3f
00000090: 751e 033c 6e6b ba3f 2352 cdbe e5f2 713e
000000a0: 50e1 d1bd 49e7 713e e5c6 75bf f8b0 1e3f
000000b0: eaa6 74bd 902d 0dbd eb1c bdbe 2afa 74bf
000000c0: e6a8 923f 510e 223f c4d1 ac3d 9600 82bd
000000d0: 129c 86bf 95a3 3bbe 0b95 0ac0 6942 703e
000000e0: 382c 89bf 7879 293f 8736 143f be84 c13e
000000f0: 9670 c9bf 6414 d03e 8c0e 833e 7fb3 8ebd
00000100: caa6 403e 7dbf 2bbf 704c f03e 1c38 a43f
00000110: 2a25 0840 be1a 02bf 2850 51bd b9fd 573f
00000120: 2b53 72bf 1cc2 97bc 1112 773e b308 05bf
00000130: 384a 31be a9de 97bd f1af a1bf 83c2 c53d
00000140: c60b 4abd
-0.16943868 -0.39251176 -0.33545235 -0.023745956 -0.33736917 3.0326068 -0.07124425 1.0248712
-0.031967033 -0.5397452 -0.23779708 0.22360943 0.69800055 -0.5606519 -0.07138157 -0.7978658
-1.2214159 -0.13331375 0.7712889 -0.009495957 0.5628732 0.22777502 0.40643877 -0.84322697
0.073322736 -0.5186486 -0.6809438 0.8328244 0.118885696 0.11668164 0.07447991 0.49516305
0.5351188 -0.24425143 0.11328948 0.6845726 0.008002867 1.4564035 -0.40101728 0.23627813
-0.10248053 0.23623385 -0.96006614 0.6198878 -0.059729494 -0.03446728 -0.36936125 -0.9569422
1.1457794 0.63303095 0.08438447 -0.06347768 -1.0516379 -0.1832412 -2.1653469 0.23462833
-1.071662 0.6620097 0.578957 0.37796587 -1.5737484 0.40640557 0.25597036 -0.0696783
0.18813625 -0.6708906 0.46933317 1.2829623 2.1272683 -0.50822055 -0.051101834 0.84371525
-0.94658154 -0.018525176 0.24127986 -0.519664 -0.17313468 -0.07415516 -1.2631818 0.09656241
-0.049327634

encoder.graph_embed.GCN_layers.0.linear.weight f4 [16, 16]
00000000: 0b0d 893d 15e5 a1bd 62a5 bfbd e38e 9f3e
00000010: 16eb 3a3e 679a 3dbe dd60 8cbd b87d e83d
00000020: 4d44 04be 4ba0 d4bd e2b3 8bbe 7a09 943c
00000030: b79a 0b3e 8e6e 80be 822d 48be c0fa e0bc
00000040: 11ba bdbd f9c1 4dbe ea13 e9bd 38df 3abd
00000050: 7438 52bd 7041 133d e5ea 27be 21c2 79bd
00000060: 6386 093e 86a7 673d fe0f 8abe 84f3 8ebd
00000070: eadc db3d 2529 473e d122 5cbc 0d7d d5bc
00000080: 1e75 99bd 3021 89be 6fae c1bd ed2c 023c
00000090: 5ede 343d 54bc 393c 21a4 3b3e 7d5d 313c
000000a0: a4ab 80be d154 d1bd f793 013e 5d4d 1f3e
000000b0: 5b10 b5bc 014d 5f3d f6c9 f53d d984 e7ba
000000c0: d504 623e 2a17 1bbd 876b e2bd 7d05 7bbe
000000d0: 7ecd af3d 1027 63be a014 273d a1ee de3d
000000e0: 1f60 00be b568 f0bd f5d9 3bbd 7726 c93b
000000f0: 6612 e3bc dca9 83bc ccaf 443e d5af 87bc
00000100: 24fa 46be 1dea 843e 2cf9 bdbd 7743 843c
00000110: 9f8e 033e a5f8 74bd 1daa f4bb 7202 403e
00000120: 7740 55be c2f0 353e 42b5 adbd a9b3 94be
00000130: 2813 a03d 01b6 6d3d c429 1f3d 138b 973c
00000140: 7c4a 1f3d 4f9e 833d 4e65 e73d 10d9 13be
00000150: e08d 73be 4547 90bd f24c 0fbe ef24 2f3e
00000160: bc44 9cbe bea1 71be 67b3 bbbd 0c82 63be
00000170: ff85 aebd 3bb2 1e3e a410 873c 14f0 ce3d
00000180: 16ec 2ebe c76e 9d3d 568d 26be 39cc 263e
00000190: 5bcf 053d 6f7b 103e b1cb 213e 8a44 f33d
000001a0: 7c26 203e 69e4 27bd 4612 5cbe 5e22 063e
000001b0: 2077 36be 43eb b93d 1cc3 3d3e 31f3 16be
000001c0: da31 963c 64bf 8bbe 17e2 c5bd 7dab 7bbd
000001d0: 106b 033e 0a5f 6e3e b017 803e 8adc 92bd
000001e0: cb99 8c3d 3512 a4bd 9bab 523d 5c81 233e
000001f0: 5ae9 34be f07e ebbd 1bd9 dfbd e5aa c7be
00000200: 6497 c03d 7fde 82bd 4a6e 7d3e 0244 1d3e
00000210: 9189 57be 6cea 6ebe 9c13 0bbe b2d0 8abe
00000220: f493 08be 3f1e b7bd 2f2b 1bbd a034 46bd
00000230: c042 94bd c8bd 56be 32cc 433e 71cf 443c
00000240: 2cc7 3cbc 781b 623e e148 523d ea18 d0bd
00000250: dce9 baba c579 60be 342d 12be 9217 6c3d
00000260: 7755 053e 4395 f23d 494c 1abd fddc b3bd
00000270: 6eac 223e 7514 013e 1e58 9abd 45c1 3e3d
00000280: 6010 23be 6eb6 bc3d 8b92 08be e6ce 98be
00000290: 37a0 51be 81bb 5e3e 8daa 71be b681 2b3d
000002a0: 4e93 9bbd 3e69 bd3c ad31 533d df5b cd3b
000002b0: 463b 043e e649 453e 8088 453e beca c7bd
000002c0: 6158 373e 261a 67be 6e69 89be 893b b8bd
000002d0: e8c2 58be 0201 f6bd f9b0 14be f01e 1ebc
000002e0: f7d9 3e3e 5fdd 853c a938 473e 15a3 4c3e
000002f0: 4f69 243d 9aa9 dabd be29 05be ab70 61bd
00000300: 9c75 eabd a4aa 61be 6473 913d e643 0d3e
00000310: bdf8 0c3e 280e c7bd e2f9 eebd bfe5 3f3e
00000320: 21d1 403e d6c4 85be 2094 b63d 4fe3 783d
00000330: 49e2 d93d 57cf a73b 099c 8d3d 492d 1dbe
00000340: a62b 17be 6f98 a6bd bf8d 513d e6c8 c4bd
00000350: 05a4 b93d d7a0 ad3d 14b3 b7bd 901e 54be
00000360: d9ac 453e e8c6 563c d6d3 4dbe d7ec a93d
00000370: d551 73be 9c8d ac3d f027 913e e5ef b9bd
00000380: fb1e 183e 35da d93d 9b96 243e a7f6 20be
00000390: 9b28 343e 4539 b0bd c6de 2c3e 0504 e5bd
000003a0: 23a4 4c3c 6596 2f3e 2885 fcbd b229 4fbd
000003b0: a35c 29bd 4fd2 2fbd afd0 5dbe 8485 56be
000003c0: 1d7b 1f3e 91d5 533e c0c7 1f3d 52cc 86bd
000003d0: acb0 dd3c 3892 1f3e 0b91 9c3e b3ba 0d3d
000003e0: af98 d4bc 1cac 08be f258 223e fe81 383e
000003f0: b2b6 94bc 4d40 eb3d 01ba aabd f76b 213e
0.06691941 -0.07905022 -0.09357716 0.311637 0.1825374 -0.18515931 -0.06854413 0.11352104
-0.1291668 -0.10382136 -0.27285677 0.018070925 0.13633238 -0.25084347 -0.1954861 -0.027463317
-0.09264005 -0.20093526 -0.113807514 -0.045623034 -0.05132337 0.035951078 -0.16398199 -0.06097615
0.1343017 0.056556247 -0.26965326 -0.06980041 0.107354954 0.19449289 -0.013436035 -0.026060605
-0.074930415 -0.26783133 -0.09457099 0.007945281 0.04415738 0.011336405 0.18324329 0.010825512
-0.2513095 -0.102212556 0.126541 0.15556855 -0.022102525 0.054516796 0.120014116 -0.0017663493
0.22072156 -0.037863888 -0.110556655 -0.24513812 0.085841164 -0.2218287 0.040791154 0.108853586
-0.12536667 -0.11738721 -0.045862157 0.0061386186 -0.027718734 -0.016072206 0.19207686 -0.016563335
-0.19431359 0.25959864 -0.092760414 0.016145451 0.12847374 -0.05980744 -0.007466568 0.18750933
-0.20825373 0.17767623 -0.08481838 -0.2904332 0.07816154 0.0580349 0.03885819 0.018498933
0.038889393 0.06426679 0.11298619 -0.14438272 -0.2378459 -0.070448436 -0.13994196 0.17103933
-0.3052119 -0.23596856 -0.09165078 -0.22217578 -0.085216515 0.15497677 0.016487427 0.10104385
-0.17082247 0.07687145 -0.16264853 0.16288842 0.032668453 0.14109586 0.15800358 0.11878307
0.1563968 -0.040989313 -0.21491346 0.13099048 -0.1781888 0.09078076 0.1853146 -0.14741208
0.018334318 -0.27294457 -0.09662264 -0.06144284 0.1283381 0.23278442 0.25018072 -0.07170971
0.06865271 -0.08011285 0.051433187 0.15967315 -0.17667142 -0.11498821 -0.109300815 -0.3899757
0.094038755 -0.06390094 0.24749103 0.15357974 -0.21048571 -0.23331612 -0.13581699 -0.27112347
-0.1333769 -0.08941316 -0.03788298 -0.04839003 -0.07239294 -0.20970833 0.19120863 0.0120123485
-0.011522096 0.22080791 0.051339034 -0.10161002 -0.0014260369 -0.21921451 -0.14275056 0.057639666
0.13020884 0.11844876 -0.037670407 -0.087823845 0.15886089 0.1260546 -0.07536338 0.046571035
-0.15924215 0.09214483 -0.13337152 -0.2984535 -0.20471273 0.21751215 -0.23600216 0.04187175
-0.075964555 0.023121472 0.051561046 0.0062670554 0.12913236 0.19266471 0.19290352 -0.09755467
0.17904808 -0.22568569 -0.2683825 -0.089957304 -0.21168101 -0.12011911 -0.14520635 -0.009650931
0.18637834 0.01634091 0.19455208 0.19984086 0.040139493 -0.1067688 -0.13004205 -0.05503909
-0.114482135 -0.2203775 0.07102087 0.13795432 0.13766761 -0.09719497 -0.11668755 0.18739985
0.18829776 -0.26126736 0.08914971 0.060763653 0.106388636 0.0051211524 0.06914527 -0.15349306
-0.14762744 -0.08134543 0.05116057 -0.09608631 0.09064487 0.084779434 -0.08969703 -0.20714784
0.19304217 0.013108946 -0.2010034 0.08297127 -0.23761685 0.08425447 0.28350782 -0.090789594
0.14855568 0.10637323 0.16073076 -0.1571909 0.17593615 -0.08604673 0.16881856 -0.11182407
0.012490305 0.17147215 -0.12330085 -0.050576873 -0.04134811 -0.042925175 -0.21661638 -0.2094937
0.15574308 0.20686938 0.039008856 -0.0658194 0.027061783 0.15583122 0.3057941 0.03460188
-0.025951711 -0.13346905 0.15854242 0.18018338 -0.018153522 0.11486874 -0.08336259 0.15763842

encoder.graph_embed.GCN_layers.0.linear.bias f4 [16]
00000000: b09c 193d 6e11 a6bc ca5a 1bbd 06bf 493d
00000010: f1f7 35bd b28b b53d 4788 273c f02d 14b9
00000020: 1146 7abc 81cb 313a 192f ce3b 7bf3 543d
00000030: fade dabc c807 73bc 3ff6 f03c 73ae c7bd
0.037502944 -0.020271983 -0.03792838 0.04925444 -0.04442591 0.088645354 0.010225362 -0.00014131493
-0.015275494 0.00067823386 0.0062922356 0.051990014 -0.026717652 -0.014833398 0.029414294 -0.097500704

encoder.pos_enc.pe f4 [500, 16]
00000000: 0000 0000 0000 803f 0000 0000 0000 803f
00000010: 0000 0000 0000 803f 0000 0000 0000 803f
00000020: 0000 0000 0000 803f 0000 0000 0000 803f
00000030: 0000 0000 0000 803f 0000 0000 0000 803f
00000040: a46a 573f 4151 0a3f 3e39 9f3e 6b4e 733f
00000050: 7675 cc3d 98b8 7e3f 5b81 013d 3cdf 7f3f
00000060: 57d6 233c b9fc 7f3f 1c3e 4f3b acff 7f3f
00000070: 6d12 833a f8ff 7f3f 61cb a539 ffff 7f3f
00000080: b7c7 683f 3311 d5be 1b54 173f ec7b 4e3f
00000090: f86f 4b3e a5e5 7a3f c870 813d f97c 7f3f
000000a0: 3ed4 a33c e5f2 7f3f d83d cf3b b1fe 7f3f
000000b0: 6812 033b dfff 7f3f 60cb 253a fdff 7f3f
000000c0: c381 103e 2670 7dbf c209 503f 582f 153f
000000d0: 6c4e 973e ef90 743f c0ff c13d 4fd9 7e3f
000000e0: 1fb9 f53c 83e2 7f3f 0d6e 1b3c 0dfd 7f3f
000000f0: 929b 443b b5ff 7f3f 10b1 783a f9ff 7f3f
00000100: cfbd 41bf 3055 27bf de1d 743f b12e 9a3e
00000110: d761 c73e a7ca 6b3f 882e 013e 69f4 7d3f
00000120: dbcb 233d 94cb 7f3f c93c 4f3c c2fa 7f3f
00000130: 5712 833b 7aff 7f3f 5ecb a53a f3ff 7f3f
00000140: 107c 75bf 2c3c 913e 7ffc 7f3f e972 29bc
00000150: 4377 f53e 40a9 603f 1d3c 213e 81ce 7c3f
00000160: f4b6 4c3d 19ae 7f3f 7e85 813c cff7 7f3f
00000170: ddd6 a33b 2eff 7f3f 333e cf3a ebff 7f3f
00000180: 8c0f 8fbe b8cd 753f 4e78 723f 6d3f a4be
00000190: 688c 103f 3249 533f 6e20 413e e367 7b3f
000001a0: d19c 753d 128a 7f3f 436c 9b3c 34f4 7f3f
000001b0: 589b c43b d2fe 7f3f 08b1 f83a e2ff 7f3f
000001c0: 4630 283f bdff 403f 6ee8 4c3f bc74 19bf
000001d0: 72eb 243f b3cc 433f 50d3 603e eac0 793f
000001e0: 323e 8f3d 815f 7f3f a252 b53c f2ef 7f3f
000001f0: c55f e53b 65fe 7f3f ed11 113b d7ff 7f3f
00000200: 9546 7d3f f6fd 14be 7e06 133f e591 51bf
00000210: a5a4 373f 5f5b 323f 5126 803e 02da 773f
00000220: 50aa a33d 652e 7f3f 8a38 cf3c 08eb 7f3f
00000230: 1212 033c e7fd 7f3f 55cb 253b caff 7f3f
00000240: 3201 d33e d53f 69bf ee1f 953e a2e6 74bf
00000250: 1c88 483f d521 1f3f 2dc2 8f3e a9b3 753f
00000260: 3e12 b83d c2f6 7e3f ea1d e93c 76e5 7f3f
00000270: 3a74 133c 59fd 7f3f bc84 3a3b bcff 7f3f
00000280: f844 0bbf 64cd 56bf 9770 a9bc fbf1 7fbf
00000290: a46a 573f 4151 0a3f 3d39 9f3e 6b4e 733f
000002a0: 7675 cc3d 98b8 7e3f 5981 013d 3cdf 7f3f
000002b0: 57d6 233c b9fc 7f3f 223e 4f3b acff 7f3f
000002c0: 5cff 7fbf 7205 913b 1f41 a9be 8d9b 71bf
000002d0: 2a26 643f c33d e83e 8b87 ae3e e4aa 703f
000002e0: 72d3 e03d e873 7e3f 6873 0e3d 5bd8 7f3f
000002f0: 6938 343c 09fc 7f3f 87f7 633b 9bff 7f3f
00000300: d85c 09bf d006 583f 2491 1bbf 564f 4bbf
00000310: 1d9a 6e3f f786 b93e 2ca9 bd3e c3c9 6d3f
00000320: ac2b f53d b528 7e3f 1965 1b3d d2d0 7f3f
00000330: 709a 443c 48fb 7f3f ebb0 783b 87ff 7f3f
00000340: 2220 d73e 6f4e 683f 4c14 53bf 9dd9 10bf
00000350: c0ab 763f 9df5 883e 3f9a cc3e c3ab 6a3f
00000360: d0be 043e 00d7 7d3f 6556 283d a1c8 7f3f
00000370: 6afc 543c 76fa 7f3f 26b5 863b 72ff 7f3f
00000380: 7298 7d3f d704 0c3e b3a8 75bf 0a0d 90be
00000390: 6f46 7c3f e70b 2e3e f456 db3e b151 673f
000003a0: 64e4 0e3e cc7e 7d3f 4347 353d c9bf 7f3f
000003b0: 555e 653c 94f9 7f3f d611 913b 5cff 7f3f
000003c0: 4479 263f e87a 42bf 75e0 7fbf 9622 fe3c
000003d0: d55b 7f3f bade 903d 83db e93e 68bc 633f
000003e0: 4f06 193e 1a20 7d3f aa37 423d 49b6 7f3f
000003f0: 32c0 753c a1f8 7f3f 856e 9b3b 43ff 7f3f
0.0 1.0 0.0 1.0 0.0 1.0 0.0 1.0
0.0 1.0 0.0 1.0 0.0 1.0 0.0 1.0
0.84147096 0.54030234 0.3109836 0.9504153 0.099833414 0.9950042 0.031617504 0.99950004
0.009999833 0.99995 0.0031622713 0.999995 0.0009999998 0.9999995 0.00031622782 0.99999994
0.9092974 -0.41614684 0.5911271 0.8065784 0.19866931 0.9800666 0.063203394 0.9980007
0.019998666 0.9998 0.006324511 0.99998003 0.0019999985 0.99999803 0.0006324556 0.9999998
0.14112 -0.9899925 0.8126489 0.58275366 0.2955202 0.9553365 0.094726086 0.99550337
0.0299955 0.99955004 0.009486687 0.999955 0.0029999954 0.9999955 0.00094868336 0.9999996
-0.7568025 -0.6536436 0.95358074 0.30113748 0.38941833 0.921061 0.12615407 0.99201065
0.039989334 0.9992001 0.01264877 0.99992 0.003999989 0.999992 0.0012649109 0.9999992
-0.9589243 0.2836622 0.99994653 -0.010342338 0.47942552 0.87758255 0.15745588 0.987526
0.049979165 0.99875027 0.015810724 0.999875 0.004999979 0.9999875 0.0015811383 0.99999875
-0.2794155 0.96017027 0.9471482 -0.3207964 0.5646424 0.8253356 0.18860027 0.98205394
0.059964005 0.99820054 0.018972522 0.99982 0.0059999637 0.999982 0.0018973658 0.9999982
0.6569866 0.75390226 0.8004216 -0.5994375 0.6442176 0.7648422 0.2195561 0.9755999
0.06994285 0.997551 0.022134129 0.999755 0.006999942 0.9999755 0.0022135929 0.99999756
0.98935825 -0.14550003 0.5743178 -0.8186324 0.717356 0.6967067 0.25029233 0.9681703
0.07991469 0.9968017 0.025295515 0.99968004 0.007999914 0.999968 0.0025298197 0.9999968
0.4121185 -0.91113025 0.29125923 -0.9566442 0.78332686 0.62161 0.28077832 0.95977265
0.089878544 0.9959527 0.028456647 0.99959505 0.008999879 0.9999595 0.0028460464 0.99999595
-0.5440211 -0.8390715 -0.02068357 -0.9997861 0.84147096 0.54030234 0.31098357 0.9504153
0.099833414 0.9950042 0.031617496 0.99950004 0.009999833 0.99995 0.0031622727 0.999995
-0.9999902 0.004425698 -0.33057496 -0.94377977 0.89120734 0.4535962 0.34087786 0.9401076
0.1097783 0.9939561 0.03477803 0.9993951 0.010999777 0.9999395 0.003478499 0.999994
-0.53657293 0.84385395 -0.6076834 -0.7941793 0.9320391 0.36235783 0.3704313 0.9288599
0.119712204 0.99280864 0.03793821 0.9992801 0.011999711 0.999928 0.0037947248 0.9999928
0.42016703 0.9074468 -0.82452846 -0.5658205 0.9635582 0.26749888 0.3996143 0.9166834
0.12963414 0.9915619 0.041098017 0.9991551 0.012999633 0.9999155 0.00411095 0.99999154
0.9906074 0.13673721 -0.9596054 -0.28134948 0.98544973 0.16996728 0.42839777 0.90359026
0.13954312 0.990216 0.044257414 0.99902016 0.013999541 0.999902 0.004427175 0.9999902
0.65028787 -0.7596879 -0.9995187 0.031022351 0.997495 0.07073732 0.45675287 0.8895936
0.14943813 0.9887711 0.047416367 0.9988752 0.014999436 0.9998875 0.0047433996 0.99998873

encoder.transformer.in_proj_weight f4 [48, 16]
00000000: e438 433e 7f7a 8d3e d4ff f0bd 0ea8 bd3d
00000010: a2e7 253d f14b 0a3d 292f 823d aaea 553e
00000020: 3b80 89bd 4ff7 cfbd 1c9c 4bbe 6df9 08be
00000030: c971 433e d01a aa3c 3964 5b3d 0baf 2b3c
00000040: 3d43 5abe 5f64 ec3c d320 34be 8b67 3c3e
00000050: 0e37 213e 0afc af3e 1bd3 8ebd 4eb3 5d3e
00000060: 0fe3 2f3e 3be8 a2bd d923 6b3e 5d2d 183e
00000070: 404d a4bd 00ce 663e ca48 6b3e 8f49 cabd
00000080: 42d9 1dbe 54b9 a53d 66ab 3f3e 59ef 263e
00000090: 0c23 b23d 549e 153e 4071 783e 3a3d 65bd
000000a0: dabe 1d3d 088c 12bc 508f 5dbe c895 0c3e
000000b0: 040d 9f3d 957a 123e 376d 793e bc76 b43d
000000c0: 2eb6 903e ca62 713d 2e22 2ebe b144 5bbe
000000d0: 7e4c 38bd 8ca5 93bb a09c b43d 278a bdbe
000000e0: c4b8 18be 61e7 7d3c a72c 34be df1b a63e
000000f0: 44fc 363e 309f 153e a467 093e cf9d 243e
00000100: 59c9 1ebc 4ec0 573e 215e 07be 5454 76be
00000110: 3768 8a3c ec57 693e 85f7 84bd fff6 4a3e
00000120: 9ac3 c1bb a523 053e 3012 223e c74a c5bd
00000130: a5bd 93bd 4ac0 393e c7fd 71be a4a9 5d3e
00000140: 0e14 90be 329f 913e 3895 33bd af3c 89be
00000150: 4930 423d 2cbd 51be 2abb 93bc a25f 59be
00000160: adaa 153e 3904 083e 838b 53be 1e71 a8be
00000170: 68ba ecbd 39d4 2f3d 9a5b 6bbe 3f04 a3be
00000180: b1ae 64be ce94 a13e f306 563e 3c31 e1bc
00000190: 70ca 9e3e 6d7f e13d 6826 d33d a22f 483d
000001a0: 3cfe 8abe 234b 603e b507 ba3e f51d 8bbe
000001b0: d1f7 9d3e 0195 b2be 2b61 2cbe dbf6 8ebe
000001c0: 6376 333e c492 f8bb 227a 303e 4d85 333d
000001d0: 794a 1c3e 57ad 87be 44ed 7d3e 943d ff3d
000001e0: 7db8 653e 22b3 77be 4756 73be 9ad7 c4bd
000001f0: 413c 843e 3163 85bd a90e 913e 7a36 31be
00000200: 89b0 55be 72f4 883d 9eb1 803e 6c5c 293e
00000210: 2c42 253e 7421 37be 24fd 56be 1d3f 57be
00000220: ae72 05bf 0393 7cbe b404 72be 1f17 c7bd
00000230: 2202 b03e 769f 7d3e 7c30 1dbe 8f9b a73d
00000240: 1fee 733d 0ab8 2c3d f17a 1bbe 2758 0dbe
00000250: 3863 323e 00d8 94be 1d19 43be 5c8e 9a3e
00000260: 92d1 78be fab4 e7ba 042f 75bd 89a2 3dbe
00000270: b445 bb3d 9c43 a73e f932 0fbe 7795 4cbe
00000280: 0f0f 78be c4ad a2bd 147f 303e c530 813d
00000290: da9d dabd 19b0 b5bd 3da6 97bd 96a3 e2bd
000002a0: 7fbc 103e f288 7abe 68c2 513e f8ca 5abe
000002b0: b368 16be 0d04 343e b036 6abd 2098 4fbe
000002c0: 9184 b6bd 7c2f af3e 9af5 623e 68e3 13be
000002d0: d78a b13e 2c6c eebd 46f5 393e de3b e5bc
000002e0: 4d1f 7a3e a960 54be 215b 80be 3548 bbbb
000002f0: a6ca 053e 1525 80bd 17f2 0cbe 6530 96bb
00000300: c653 02be a6f1 25bd 61eb adbe 7c2c 893d
00000310: 1b1f bebe a722 523e ed02 88be cf7c c43c
00000320: 17e0 833e 0b32 84bd 4886 26be 9a05 3abe
00000330: e332 143e e67e 31bd 695e 81be 62e6 003e
00000340: d53d 163e 5776 28be facd f53d 8708 433e
00000350: 5aec a0bd ecba 8b3e db94 243e 7a9a 313e
00000360: c2f1 273e 8290 4cbd 9af7 2f3e f387 443e
00000370: e8bf 9abd 758d 2a3e 90ad 48be b701 1fbd
00000380: df91 bb3d cdfb b0bd e223 62be 9e08 063e
00000390: 7600 983e be83 693e 5dac df3d 6118 e6bd
000003a0: e85d a43e 2d8e b1be 661b 83be 4e11 a3bc
000003b0: ef2b a43e b5a5 5bbd da3d 29be 9fa1 56be
000003c0: 4165 97bd f405 36be 61d7 86be 232e 95bd
000003d0: 6be2 8fbe 7657 c73c 6623 7f3e 0f27 803b
000003e0: ab65 16be 4884 eb3d 386f 18be f638 99bd
000003f0: 944c bdbe c2af 193e bb8e 9cbe c283 9f3e
0.19064671 0.2763252 -0.11767545 0.092605695 0.040504105 0.03376383 0.06356651 0.20890298
-0.06713911 -0.10154592 -0.1988377 -0.13376398 0.19086374 0.020764738 0.053562377 0.010478745
-0.21314712 0.028856454 -0.17590646 0.18398874 0.15743658 0.34371978 -0.06973859 0.2165043
0.1717646 -0.07954451 0.22962894 0.14861055 -0.08022547 0.2253952 0.22976986 -0.098773114
-0.15414909 0.08091989 0.18717727 0.16302241 0.08698091 0.14611179 0.24261951 -0.055966593
0.03851209 -0.008944519 -0.216367 0.13729012 0.077661544 0.14304574 0.24358068 0.08811709
0.28263992 0.058932103 -0.17005226 -0.21412922 -0.044994824 -0.0045058187 0.08818936 -0.37019464
-0.14914232 0.01549706 -0.17595159 0.3244314 0.17869669 0.14611506 0.13418442 0.16075824
-0.00969156 0.21069452 -0.13219501 -0.24055606 0.016895397 0.22787446 -0.06492523 0.19820784
-0.00591321 0.13001879 0.1582725 -0.09633403 -0.07213906 0.18139759 -0.23631965 0.21646744
-0.281403 0.2844177 -0.043843478 -0.2680411 0.04740933 -0.2048232 -0.018033583 -0.21227887
0.14615889 0.13282861 -0.20658688 -0.32898802 -0.11558992 0.042927 -0.22984162 -0.31839177
-0.22332264 0.3155884 0.20901088 -0.027489297 0.31013823 0.11010633 0.1031006 0.04887355
-0.2714709 0.21903662 0.36334005 -0.27171293 0.3085313 -0.34879306 -0.16833942 -0.2792271
0.1752563 -0.007585855 0.1723409 0.043828297 0.15262784 -0.26499435 0.24797541 0.12462917
0.22433658 -0.24189427 -0.23763381 -0.09611435 0.2582722 -0.0651306 0.28331497 -0.17305937
-0.20868124 0.06687249 0.2513551 0.16539162 0.16138524 -0.17883855 -0.20995003 -0.2102017
-0.5212811 -0.24665456 -0.23634607 -0.09721207 0.34376627 0.24767861 -0.15350527 0.08183967
0.05955326 0.0421677 -0.15183617 -0.13803159 0.17420661 -0.29071045 -0.19052549 0.30186737
-0.24298695 -0.0017677837 -0.05985929 -0.18519033 0.09144154 0.3266877 -0.13984288 -0.19978891
-0.24224494 -0.079432994 0.17235976 0.0630813 -0.10674639 -0.088714786 -0.07404754 -0.11066358
0.14134406 -0.24466303 0.20484316 -0.21366489 -0.14688377 0.1757967 -0.05718106 -0.20272875
-0.08912004 0.34215915 0.22164002 -0.14442217 0.3467624 -0.11641726 0.1815997 -0.027982648
0.24426003 -0.20739998 -0.25069526 -0.005715395 0.13065585 -0.06257073 -0.13764225 -0.004583406
-0.1272727 -0.040513657 -0.33968642 0.06697938 -0.37133107 0.20521031 -0.26564732 0.023985295
0.25756904 -0.064548574 -0.16262162 -0.181662 0.14472537 -0.04333391 -0.25267342 0.12587884
0.14672025 -0.16451393 0.120021775 0.19046222 -0.078575805 0.27291048 0.16072409 0.17344084
0.16400817 -0.0499425 0.17184296 0.19192486 -0.075561345 0.16655524 -0.19597459 -0.038819995
0.09158682 -0.08641777 -0.22084 0.13089225 0.29687852 0.22804162 0.109215476 -0.11235119
0.32102895 -0.34678784 -0.2560684 -0.019905712 0.3206477 -0.053624827 -0.16527501 -0.20960091
-0.073923595 -0.17775708 -0.26336196 -0.072841905 -0.2810243 0.024333697 0.24915847 0.003910906
-0.14687221 0.1149984 -0.14886177 -0.074815676 -0.36972487 0.15008453 -0.30577645 0.3115521

encoder.transformer.in_proj_bias f4 [48]
00000000: 429a 01be a1f5 923d 2026 d93b b1f0 ae3d
00000010: 5ba6 42bc 9df8 0cbc 4376 aabd f550 8ebb
00000020: 1052 b5bd 7dda 68bd ad7e 6f3a a17f 05bd
00000030: 9ba0 563d 2b30 483d 3226 99bd 9bf3 f03d
00000040: 6b70 04b5 af04 8b34 3fe5 8933 e1e2 d533
00000050: 818d f3b3 25c0 07b5 a006 b0b3 3601 0835
00000060: af9b 48b5 c46d 34b5 7dd7 73b4 63e5 43b4
00000070: e4fd 1535 faaa 7a35 bfdd 8534 5838 e034
00000080: 5cc8 563d f473 383c 4152 833b 8ce2 143b
00000090: 4089 e6bc b2fc 823b 1023 febb 6690 29bd
000000a0: 73cd 143d d641 0d3d 51d9 4c3c 9f9a 08bd
000000b0: 9361 dbbc 291f a7bc 7196 293d 3448 9abd
-0.12656501 0.07175756 0.0066268593 0.08542002 -0.011880483 -0.008604196 -0.08323338 -0.004343147
-0.08853543 -0.05684899 0.00091360026 -0.03259242 0.05239926 0.04887406 -0.07477988 0.11765214
-4.933742e-07 2.5894175e-07 6.421259e-08 9.9598545e-08 -1.1341309e-07 -5.0571026e-07 -8.196844e-08 5.066571e-07
-7.4732355e-07 -6.7214955e-07 -2.2709533e-07 -1.824424e-07 5.5876285e-07 9.338106e-07 2.4934522e-07 4.1764247e-07
0.05243717 0.011258114 0.004007608 0.002271804 -0.028141618 0.003997409 -0.0077556446 -0.041397475
0.036328744 0.034486614 0.012502984 -0.033350583 -0.026779925 -0.0204006 0.041403238 -0.07533303

encoder.transformer.out_proj.weight f4 [16, 16]
00000000: bec6 e73c cff4 ea3b 6133 03bd 2615 cf3d
00000010: 8330 53bd 305f 00be 2fa4 4b3e 0af0 80be
00000020: 9788 a7bc 1dd9 dc3d 6d12 33be ccf5 343d
00000030: 498f 5e3d a15c 7a3e 42f2 29be 464a c93d
00000040: 51f0 87bd 7bc5 7bbd 89d7 8bbd 21ed f73d
00000050: 8e6c 25be 7806 f03d 85ab 6ebe d302 883e
00000060: 6823 3cbe b25d 63be 950b 5cbd be58 1abd
00000070: 1cf2 d83d f2cc 563c d554 7d3c ffa5 42be
00000080: a9d2 80be c39c 2ebe bf81 fd3d 9588 73bc
00000090: 065f 8a3e af9b 24be c275 4c3d cd72 02be
000000a0: 5f34 d6bc 88d0 7d3e 99a5 1cbe 76cd 1e3d
000000b0: 91dc 893b e24d 2dbe 3561 9c3c 5b3a 143e
000000c0: 260a cd3d d235 953b b11a 89bd a613 83bd
000000d0: 9fbd bc3d 7642 f73d 8199 46be f1db 9fbd
000000e0: fc6c f43c 78fd 393e 10be 0b3e 7051 90be
000000f0: fb4e 0bbe 672a 6e3c d5f1 a63e 6042 4fbd
00000100: 7e6e 193e 918b ec3d e10e 613e 3fa6 cb3d
00000110: 52fb 0ebe 6ba6 913e 8d22 6cbe 9139 38be
00000120: 7bb9 3fbe 4b9a 8a3e 0e34 8ebd 5b05 7abe
00000130: 2b7a 86be 3e85 9b3d 60be 67be 51bb 803e
00000140: e25b 1abe 977a 363d 68db 283e 4d74 38be
00000150: fbf4 4bbe 8730 283e 2589 02be 7a7e 96be
00000160: bc64 ef3d 8d93 173e fda5 8bbe 2282 7e3d
00000170: 05f8 b2bd a16f 4c3e 0ea8 693e a105 89be
00000180: ae6f 3c3d e800 a13c 85a3 063e b48b 163d
00000190: 3e58 31be 8d0b 923d 104e 82be d771 c9bc
000001a0: ee9a 7cbd bece 6dbd 5bed da3c a94d bdbd
000001b0: 290c 04be a65a 95bd 75b9 293e 4d50 883d
000001c0: f493 2cbe 2e50 223a fc81 153e 81e2 0ebe
000001d0: 4bb9 09be 1660 4cbe 28e9 843e b73e 723e
000001e0: dc7c 4cbe 6140 8cbe 4f4a 6f3d 1ae6 bd3d
000001f0: 73b8 c63d 9c0b 1b3d c7ad febd dc3e d0bb
00000200: e554 ccbc bc63 0b3c d5ac 213d 2dbd 59be
00000210: 4509 1b3c 6012 05be 27e2 01bd c48f 8dbd
00000220: 2361 a13d daa1 63be a52a a53e 9159 893e
00000230: 765e 4b3e ed3d 14be bcba 833d f96e 7a3e
00000240: b6b7 423c 8aed 22be 74c7 12be 7a6c 133d
00000250: 7bb6 983d 31df 46be 3ed2 1d3e 7570 0abd
00000260: 0414 b5bd aa68 a5bb 7d8a 513d 46d9 1e3e
00000270: 4a1a 04be f5b8 a53d 1458 4cbe 9474 f43d
00000280: 31d0 ea3d cf6d b9bb 2b7f b83d 73cf e53b
00000290: bd3b babe 7ce0 9cbe 68cd d2bc bbe3 a6be
000002a0: b96e 14be f085 2a3d 2713 7fba afd1 a2be
000002b0: 3018 8e3d 9abe 89bd a3e0 d73d c6ab 67be
000002c0: 5101 5c3d 2bb6 163e 1ae3 08bd ed98 113e
000002d0: da84 7ab9 e953 bcbd b1a3 803e b485 aebd
000002e0: a292 42be eee9 c23d 199a 8b3d e3b4 4fbe
000002f0: 8f40 133e 1931 8c3e 17f3 453e f0e1 623d
00000300: 3e0b 1d3d a3f7 20bd 04d2 b5bd 367f 88be
00000310: 8289 5cbe 6b69 563e a31d 2ebe e0f3 553e
00000320: ad48 193e 25ca 783d 6e75 a3bc c812 553e
00000330: 7850 b23d 6fa2 013e d4b4 6fbd d122 903d
00000340: 31cc 53be 5e90 863e 9cf3 81bd 33f1 bf3c
00000350: ae4a 57be 33e3 ebbd 2a6e fb3b 23d6 a53d
00000360: 7374 323e 8e6c 313e 714a a93e 063c 633e
00000370: b3ce 093d 5ec1 36be c32a af3c 5d7d 1dbe
00000380: 1abc 85bd cf61 0bbd 8982 1bbe 24bf b83d
00000390: 3395 1cbe 615c 093e 35ac ae3d 557c 503e
000003a0: 6910 17be 13f8 e0bd 8eb0 bdbd ffa1 fd3c
000003b0: e813 253e 13d0 ef3d 5ca9 273d 219b 703d
000003c0: 3b85 afbd ab9e 65be aaf9 6e3e fed3 c9bd
000003d0: fe49 963e b034 64be d796 98be f514 26bd
000003e0: cb5c 6c3e e767 193c 90be 1c3d 6938 7e3e
000003f0: 350f 313c 2689 543e 3e8d d6bd fe8f 243e
0.02829301 0.0071702967 -0.03203142 0.101114556 -0.051559936 -0.12536311 0.1988685 -0.25183135
-0.020450873 0.107835986 -0.17487498 0.044179723 0.054335866 0.24449398 -0.1659632 0.0982862
-0.066376336 -0.06146763 -0.068282194 0.121057756 -0.16154692 0.11719984 -0.23307617 0.26564655
-0.18372881 -0.2220371 -0.053721983 -0.037682287 0.10593054 0.013110386 0.01546212 -0.19008635
-0.2516072 -0.17051987 0.12378263 -0.014864107 0.27025622 -0.16075014 0.04991699 -0.12739106
-0.02614802 0.2478658 -0.15297545 0.03877016 0.004207202 -0.16924241 0.01908932 0.14475386
0.10011701 0.004553535 -0.06694544 -0.06400232 0.09215855 0.12073223 -0.19394495 -0.07805622
0.029837124 0.18163097 0.13646722 -0.28187132 -0.13604347 0.014536477 0.32606378 -0.05060041
0.14983556 0.11550058 0.21978332 0.09943818 -0.13963059 0.2844728 -0.23060055 -0.1799071
-0.18723099 0.2707084 -0.069435224 -0.24416105 -0.26265082 0.07593773 -0.22631216 0.2514291
-0.15074113 0.044550505 0.16489947 -0.18013115 -0.19917671 0.16424762 -0.12747629 -0.2939337
0.116891354 0.1480238 -0.27275077 0.062135823 -0.08738712 0.19964458 0.22818014 -0.26762107
0.046004944 0.019653752 0.13148315 0.036754325 -0.17318818 0.071311094 -0.25450182 -0.024590416
-0.06167119 -0.058058493 0.026724508 -0.09243328 -0.12895264 -0.072926804 0.16574652 0.06655941
-0.16853315 0.0006191757 0.14600366 -0.13953592 -0.1344959 -0.19958529 0.25959134 0.23656736
-0.19969505 -0.27392867 0.058420476 0.09272404 0.0970315 0.03785287 -0.12435489 -0.0063551497
-0.024942825 0.008507665 0.039471466 -0.21263571 0.009462659 -0.12995291 -0.031709816 -0.06912187
0.078798555 -0.2222971 0.32259098 0.26826146 0.19860253 -0.14476748 0.06432101 0.24456395
0.01188462 -0.15910926 -0.14333898 0.035992123 0.074566804 -0.19421078 0.15412232 -0.033798654
-0.08841708 -0.0050478773 0.051157463 0.1551257 -0.12900653 0.080919184 -0.19955474 0.11936298
0.114654906 -0.005658842 0.0900863 0.0070132553 -0.36373702 -0.30640018 -0.025732711 -0.3259562
-0.14495362 0.04163164 -0.0009730332 -0.318006 0.06938207 -0.067258075 0.10540893 -0.2262412
0.053712193 0.14717929 -0.033419706 0.14218493 -0.00023891349 -0.09195692 0.25124887 -0.085215956
-0.19001248 0.09517275 0.06816501 -0.20283847 0.14380096 0.2738121 0.19331013 0.055391252
0.0383408 -0.039298665 -0.08877948 -0.26659554 -0.2153683 0.20938651 -0.17003493 0.20893812
0.1496913 0.060739655 -0.019953456 0.20807946 0.087067544 0.1265962 -0.05852206 0.07037891
-0.20683362 0.26282018 -0.06345293 0.023430442 -0.21024582 -0.11517944 0.0076730447 0.08097484
0.17427234 0.17326567 0.33064607 0.22190866 0.03364439 -0.17847201 0.021382695 -0.15379854
-0.06530018 -0.034028824 -0.15186514 0.09020832 -0.1529129 0.13414146 0.0852894 0.20359929
-0.14752354 -0.109848164 -0.09262191 0.030961035 0.16120875 0.11709609 0.040932998 0.058741692
-0.085703336 -0.22423808 0.23337427 -0.098548874 0.29353327 -0.22285724 -0.29802582 -0.04054733
0.23082273 0.009363151 0.038267672 0.24826206 0.010806848 0.20755443 -0.104761586 0.16070554

encoder.transformer.out_proj.bias f4 [16]
00000000: 615c 1e3d 0e92 02bd 8c2e 24bd d820 be3d
00000010: 28b0 58ba a973 8d3d 2f00 423d 27dc 7ebc
00000020: bc95 30bd 2c08 f83c 1c23 a83d 0350 03bd
00000030: ab25 cf3c 9de6 0b3d 1bcc 76bd d22f 53bd
0.03866232 -0.03187757 -0.040083453 0.09283608 -0.00082659954 0.06906826 0.047363456 -0.015555418
-0.043111548 0.030277334 0.082098216 -0.032058727 0.025286516 0.034155477 -0.060253244 -0.051559277

encoder.ln1.weight f4 [16]
00000000: abb8 823f 7e65 813f 1a26 723f 757d 8e3f
00000010: 5eb8 823f 85b5 863f ec12 7c3f e10f 803f
00000020: e92a 7c3f d570 763f 8e0a 7c3f fcfe 763f
00000030: 1a7f 703f 3554 6b3f 46fd 833f 9283 873f
1.0212606 1.0109098 0.9458939 1.1132036 1.0212514 1.0524145 0.9846637 1.0004846
0.98502976 0.9626592 0.98453605 0.96482825 0.9394394 0.91925365 1.0311668 1.0587027

encoder.ln1.bias f4 [16]
00000000: a01a 1b3d a477 39bc 76e9 51bd e1a2 fd3d
00000010: cbfd c13b aecc b53d 87a1 9b3c 3443 6ebc
00000020: 6efb a4bd 36b7 e03c d6d4 de3d edd1 ad3c
00000030: 0abd 0d3b 9185 633d c155 78bd 1560 72bd
0.03786719 -0.011320028 -0.051248036 0.12384582 0.005920147 0.0887693 0.01899792 -0.01454239
-0.08055769 0.027431112 0.10880439 0.021218264 0.0021627569 0.0555473 -0.060628656 -0.059173662

encoder.ln2.weight f4 [16]
00000000: 0114 843f 0a38 863f ef1e 833f 3665 8a3f
00000010: 8819 8c3f df33 873f 4bfa 823f 2fa2 7e3f
00000020: 9fb6 893f d480 703f 0917 853f 1bdb 7e3f
00000030: 5fdd 7a3f ad96 873f 3c85 823f af5b 8a3f
1.0318605 1.0485852 1.0243815 1.0812137 1.0945292 1.0562705 1.0232633 0.9946622
1.0758857 0.93946576 1.0397655 0.9955308 0.97994035 1.0592858 1.019691 1.080923

encoder.ln2.bias f4 [16]
00000000: 749f d93c 0f01 66bd 7afb efbd 3a94 e33d
00000010: b1da a5bc 8c65 aa3d f705 803c e819 65bc
00000020: 88d0 83bd 1cd2 243d 6a9c e93d a887 0cb9
00000030: 9559 153c 526e 823d d587 15bd 381e d7bd
0.026565291 -0.056153353 -0.11717887 0.11112256 -0.020245882 0.0832015 0.015627844 -0.013983227
-0.064362586 0.04023944 0.11406787 -0.00013401976 0.009115596 0.06368698 -0.036506493 -0.10503811

decoder.output_head.weight f4 [24, 16]
00000000: ef80 013e cc13 2abe 690f 503e 40c9 a2bd
00000010: 96a7 9bbe 567e c2bc 6281 083e 8657 9bbd
00000020: f89d 4d3e f649 093e 18ff 70bc 2e8b 153e
00000030: 1383 8a3e 5a0a 923e a5d5 5f3e 4c79 173d
00000040: 7dfd 5c3c 23de ea3d db89 b9bb 0078 31bd
00000050: ed7b 75bd e46f 13be 4e97 c63d 5860 453d
00000060: b0d8 b13d b353 c43c 0d1a 0a3c 86de 1c3d
00000070: e853 26bd f064 dfbc b7a8 9abd 3335 0dbd
00000080: ac3b 943e 99b9 b9bd 5dee 913e 4a83 283e
00000090: 3b0e 303e 2520 f13d fabd 633e 7073 1f3e
000000a0: b5ff fbbc 8528 01bd 9c24 52be 0eef 82be
000000b0: d4af af3d 77b5 863d a7c0 f7bd f469 0abe
000000c0: 2385 673e 26c7 903d 0efd 7cbe 870b 0c3e
000000d0: 4998 d43c 5202 91bd a0c6 ffbd 8b9e 25be
000000e0: c482 4d3e 457e 743e e1e1 5fbe 2f1e 85bd
000000f0: 3080 08bd b5e1 503d 55e3 a63d 0ec6 c9be
00000100: b482 d43d 6fa2 dabd cb67 503d fa6a 863d
00000110: 66e3 87be 8297 b2bd 7bc5 0abe a9cc 813e
00000120: 1982 763e 0b74 3bbd 2c9e 59be 394e 183e
00000130: d15d 86bd b364 08bd ff3f 043d 30cd 2bbd
00000140: b2c5 153e 5af1 1fbe 9e14 01be c5c5 363e
00000150: a40b b93a bd8a ea3d ec6b a13b f6ab 5b3e
00000160: ee17 573d 3aa2 533e 3f2d c3bc ace7 e63d
00000170: 49fb 11be 3d4a 92be f497 973e b7b9 b33e
00000180: 8353 ad3e 4402 8fbd 4e40 76be b68b 7cbe
00000190: c93a 713d 4945 34be 9d78 163e c7e9 003e
000001a0: a983 53be 4040 8fbd 7e16 aabd 8fee 2cbd
000001b0: ed44 ef3d 2ff5 c5bd cff3 c7bd 9cc5 97bd
000001c0: 1ceb 703d d41e 89bd 183e b43d befc c0bd
000001d0: c0fa 8bbe 1e83 543b 6bea 23be e667 b53d
000001e0: 6757 053e 5532 f7bd 9f52 a2bd a7c6 3a3e
000001f0: 34f4 053d 02be 0a3e c651 3cbb 8c70 2bbe
00000200: 9748 703e c8cc 6d3e 31ab 9c3d a4d1 363d
00000210: 2f46 0fbd 7f63 67be 3e11 833e 1a80 933d
00000220: 84d0 cc3c 97ee 893e 6076 6e3e 2a29 203e
00000230: d3c0 a6be 6189 94bd b366 fc3c 9485 a5bd
00000240: 85cb 6fbd 63d9 01bd 017d 36bd 4615 a9bc
00000250: 1f6d b23d 7b50 05be 1aa1 2bbd 0c2f 26bd
00000260: 0beb d2bc 9e32 75bd 991a 083d 2c32 203e
00000270: cade 3ebc 8661 b43d ca68 9d3c 2ef6 97be
00000280: dd16 ad3e a58d 61bd c7c0 493e 0d7a 21be
00000290: bedb 563e a65a 3f3e 5ed8 f3bc 7386 a6bd
000002a0: 667c 3a3e 798b 083e 464b 0a3e 72e1 4e3e
000002b0: cb63 abbc 029d 90be 2f05 8abe 3925 7e3c
000002c0: 2483 973d 8e1a 02be dee1 18be 11f3 89bd
000002d0: d673 a0be 5e1c b63d fb70 453c a8ea a33e
000002e0: 4263 323e 6399 4d3d cecf c1bd 5227 c9bc
000002f0: aef2 a43c e0ba a83d a723 783c 5421 7abd
00000300: c643 96be 5aa1 e93d 2911 583e 6b80 cebe
00000310: d679 b13d 2c39 bebd ffd4 32be 71e0 a23c
00000320: 9473 d43c 4a26 debd 4b3d 8abe b3fb 32be
00000330: 1318 c9bd 3808 6abe b564 6a3c fd7f ed3c
00000340: b5dc 473e a847 783e 19c6 6fbd b647 89be
00000350: 797e 423c a0c7 3dbd 2721 413d fa9c 0e3e
00000360: c748 8ebd 9bc8 65be a410 50bc be4e 743e
00000370: 7a3d 973e ba68 5f3e 77e3 5a3e 6d18 f1bd
00000380: 84d1 b9bc 6a5e 973e 01ec 373e ca3a 49be
00000390: 9955 2f3d 8c24 5fbb b128 aa3d f585 fe3d
000003a0: bb87 51bc a19d 0f3e 22ae 62be b64c debc
000003b0: 2a3b fd3b 509f bcbd f89f 293e 80ee 03be
000003c0: 4d62 5dbe e24a 803d abcf ac3c 9233 68be
000003d0: 5739 e53d a6fa 84be e79f 02be c46d 833e
000003e0: 02f6 173d d969 f53d 8ac9 3ebe a20f 71bd
000003f0: 612e 8cbc 5dcf 1ebe 6106 58be 6ad2 09be
0.1264684 -0.16609114 0.20318379 -0.07948542 -0.30401295 -0.023741882 0.13330606 -0.07585053
0.20079792 0.1340712 -0.014709257 0.14603874 0.27053127 0.28523523 0.21858843 0.036980912
0.013488171 0.114681505 -0.0056621856 -0.04332733 -0.059932638 -0.14398152 0.09696828 0.048187584
0.08683908 0.023965692 0.008429063 0.038298152 -0.040607363 -0.02726981 -0.07551711 -0.034474563
0.28951776 -0.09068603 0.2850217 0.16456333 0.17192928 0.11773709 0.22240439 0.1557138
-0.030761579 -0.031532783 -0.20521778 -0.2557301 0.085784584 0.065775804 -0.120972924 -0.1351698
0.22609381 0.070692345 -0.24705908 0.13676272 0.025951521 -0.07080521 -0.124890566 -0.1617376
0.20069414 0.23876293 -0.2186351 -0.06499898 -0.033325374 0.0509965 0.08148829 -0.39408916
0.10376492 -0.10675513 0.050880235 0.06563373 -0.2654068 -0.08720304 -0.13551895 0.25351456
0.24073066 -0.045764964 -0.21251744 0.1487359 -0.06560863 -0.03329916 0.032287594 -0.04194373
0.14626196 -0.15619412 -0.12605521 0.1784888 0.0014117849 0.114522435 0.0049261954 0.21452317
0.052513056 0.20667353 -0.023825286 0.11274657 -0.14256014 -0.28572264 0.2960812 0.35102627
0.33852777 -0.06982854 -0.24047968 -0.2466267 0.058893953 -0.17604555 0.14694448 0.12589179
-0.20655693 -0.069946766 -0.08305071 -0.042219695 0.116830684 -0.09665906 -0.097633 -0.07410738
0.058817968 -0.06695333 0.08800906 -0.09423207 -0.27339745 0.0032426785 -0.16007392 0.08857708
0.13021623 -0.12070147 -0.07925915 0.18239842 0.032703593 0.13549045 -0.0028735264 -0.16742152
0.23465191 0.23222649 0.0764984 0.044633523 -0.03497904 -0.22596548 0.25599092 0.07202168
0.025001772 0.26939842 0.23287344 0.15640703 -0.32568988 -0.072527654 0.03081069 -0.08082119
-0.0585437 -0.031701457 -0.044552807 -0.020640027 0.087122194 -0.13018982 -0.041901685 -0.04057221
-0.025746843 -0.059862725 0.03322849 0.15644139 -0.011649797 0.088076636 0.019215006 -0.29680008
0.33806506 -0.055066723 0.19702445 -0.15769215 0.20982262 0.18686923 -0.029766258 -0.08131113
0.18211517 0.13334455 0.13505277 0.20203188 -0.020921608 -0.28244787 -0.2695708 0.015511804
0.0739806 -0.12705442 -0.14929911 -0.06735814 -0.31338376 0.08892129 0.012050862 0.32014966
0.17420676 0.05019511 -0.09463464 -0.024554882 0.02013525 0.082387686 0.015145219 -0.06106694
-0.29348582 0.114077285 0.21100296 -0.4033235 0.086658165 -0.092882484 -0.17464064 0.019882413
0.025934018 -0.10847147 -0.26999888 -0.17478828 -0.09819045 -0.22854698 0.014306237 0.028991694
0.19517787 0.24246085 -0.05853853 -0.26812524 0.011870974 -0.046332955 0.047150757 0.1392707
-0.06947475 -0.22439806 -0.01269928 0.23858163 0.2953909 0.21817294 0.21375833 -0.11772237
-0.022682913 0.2956422 0.17961122 -0.19651332 0.04280624 -0.0034048883 0.083085425 0.12427894
-0.012788708 0.14024974 -0.22136739 -0.027136188 0.007728 -0.09210074 0.1656493 -0.1288395
-0.2161953 0.06264283 0.021095118 -0.22675923 0.11192577 -0.2597248 -0.1275631 0.25669682
0.037099846 0.119830795 -0.18631569 -0.0588528 -0.017111959 -0.1550879 -0.21096183 -0.13459173

decoder.output_head.bias f4 [24]
00000000: fec7 83be 8cfb f03d 4bdc 8a3d 5827 84be
00000010: 1cd8 a73d 5929 1e3e e367 7a3e fd19 63bd
00000020: ce44 fdbd bb61 c8bd 923e 053d 5ccb 29be
00000030: 40bb 75be 9c42 84be faa4 cbbd 0f3f 4ebd
00000040: 8acd 07be f7ac 9abe e939 703d b97a 1e3d
00000050: f1e2 a6bd 5abf 503d 726d 1dbe 824e 02be
-0.2573852 0.11766729 0.06780299 -0.25811267 0.081955165 0.1544546 0.24453692 -0.055444706
-0.12366639 -0.097842656 0.032530375 -0.16581482 -0.23997211 -0.2583207 -0.09943576 -0.050353106
-0.13262 -0.30210087 0.058648977 0.038691256 -0.081487544 0.050963737 -0.15373781 -0.12725261
