experiments/model_128_30_2026-01-17_4964/model.pt (torch, 618784 bytes, 21 tensors)

encoder.graph_embed.GCN_in.A f4 [9, 9]
000000 d3 db 5c be 73 e4 b0 3c 5c b1 48 bf e6 f8 d7 bf
       -0.21568231 0.021593308 -0.7839563 -1.6872833
000010 a2 65 8c bd 74 2f cb bd a8 55 06 c0 4b 07 be bd
       -0.068553224 -0.0992116 -2.098978 -0.09278735
000020 39 9e ea 3f ee cd 7d bf 88 a7 c5 3d d3 89 7d bf
       1.8329536 -0.9914235 0.09651095 -0.9903843
000030 f3 21 ce bd 66 50 8a 3e 1f a3 58 3e af 92 36 3f
       -0.10065069 0.27014464 0.21155976 0.7131757
000040 d2 73 73 bf 8e a5 96 3f b7 2e a6 be 4a a2 aa 3f
       -0.950986 1.1769273 -0.32457516 1.3330777
000050 fa 94 92 bf 34 4d d9 be 8c b6 91 3f b6 07 08 be
       -1.1451714 -0.42441714 1.1383834 -0.13284191
000060 16 36 cc bf f6 d1 fc be 3b fa a9 3e b9 d4 4a c0
       -1.5954006 -0.49378937 0.33198723 -3.1692336
000070 1b 72 b2 bf f1 29 71 bf 8d 67 0c bf 83 ae 11 bf
       -1.3941072 -0.9420462 -0.54845506 -0.5690691
000080 ab c4 5f 3f 73 44 cb be 1a 54 86 bf 3a 7a cf 3c
       0.87409467 -0.3970066 -1.0494416 0.025326837
000090 0a 41 0f 3f 3b 0e ed be 5c 49 1b be 6d 9d 90 be
       0.55958617 -0.4629992 -0.15164703 -0.28245106
0000a0 66 b3 d9 3d 41 de fd bf 26 dc 50 3f 74 06 86 bf
       0.10629921 -1.9833452 0.8158592 -1.0470719
0000b0 0b 90 48 3f 0a 60 b5 bf 88 e3 0c 3e 6e 81 00 3e
       0.7834479 -1.4169934 0.13758671 0.12549374
0000c0 df 7e 9f 3f 55 f8 17 bf 77 2c e6 bf 22 ec 82 bf
       1.2460593 -0.593633 -1.798232 -1.0228312
0000d0 af e9 8a bd 14 73 1b 3f 21 ab 8f 3f 78 42 af bf
       -0.06782853 0.6072247 1.1224099 -1.369216
0000e0 b6 0e 92 bf bb 51 15 3f cc 08 dd 3e 3d 6e 95 be
       -1.141074 0.58327836 0.43170774 -0.29185668
0000f0 38 16 51 bd bf b4 de bd 18 e6 08 c0 db a3 8f bf
       -0.05104658 -0.10874318 -2.1390438 -1.122188
000100 bd 74 8e bf 65 1f b9 3e 06 4c 91 3f fa d9 63 3f
       -1.1129376 0.36156765 1.1351326 0.8900448
000110 f3 3b 43 3f d8 9d 4e bf c1 de 95 3f ad 45 52 bf
       0.7626335 -0.807096 1.1708604 -0.82137567
000120 6e 8f b2 bf 34 21 13 bf 05 c7 7b 3f e8 3f e5 3f
       -1.3950021 -0.5747254 0.98350555 1.7910128
000130 30 1b 83 3f f5 b6 84 bf d9 4e 7a 3f f1 ef 86 3e
       1.0242672 -1.0368334 0.9777656 0.26354936
000140 a5 18 4e 3f
       0.80506355

encoder.graph_embed.GCN_in.linear.weight f4 [128, 16]
000000 ae 5e 54 be 18 36 81 bc 89 eb 68 3e 3b 24 97 3d
       -0.20739242 -0.015772864 0.227461 0.07379957
000010 4a 22 e2 bd b1 99 8a 3e 69 2e 7d 3d 36 b8 e2 3d
       -0.11041696 0.27070382 0.06181184 0.11070292
000020 bf 0a 5e 3d 9b 70 83 bb 97 77 77 3e ce c2 ce 3d
       0.054209467 -0.0040112264 0.24166714 0.1009575
000030 03 31 46 3d 11 47 c7 bd 8a ff 05 be 23 93 a0 3d
       0.048386585 -0.09730352 -0.13085762 0.07840564
000040 fa 33 62 3e 71 33 86 3d ab df 11 be b4 77 87 bc
       0.2209014 0.065527804 -0.14245479 -0.016536571
000050 79 3b 92 3d 21 03 20 be e6 eb bc 3d d4 e1 b6 3d
       0.0714025 -0.15626194 0.092246816 0.08929792
000060 f4 bc 3c 3e 1a 43 10 3e 2e 29 83 3e d8 8b 74 3d
       0.18431455 0.14088097 0.25617355 0.059703678
000070 4e 98 57 be 15 40 18 3a e3 e0 46 bc 62 95 37 be
       -0.21054193 0.0005807889 -0.012138578 -0.17928079
000080 cf 27 00 bd 47 26 d7 3d 67 4a 6a 3d de 1a 7a be
       -0.031287964 0.10505348 0.05719986 -0.24424312
000090 27 dd 17 be 43 43 f5 bd b6 c9 66 be ce 80 a0 bd
       -0.14830457 -0.1197572 -0.22537884 -0.078370675
0000a0 00 77 84 3e 90 9e 44 be 0f bf cf 3d 08 74 7b 3e
       0.2587204 -0.19201112 0.101438634 0.24555981
0000b0 74 2e e3 3d c4 31 3a be 67 56 37 be fd 77 6f bd
       0.110928446 -0.18183047 -0.17904054 -0.05846404
0000c0 df 75 11 3e 40 99 03 bd 3a d5 f4 bd a2 87 82 3e
       0.1420512 -0.032128572 -0.11954732 0.25494105
0000d0 b2 78 4c be c6 e0 1e 3d 71 16 d8 3d 55 1b 65 3e
       -0.19967917 0.03878858 0.10551155 0.22373708
0000e0 d8 ce b3 bd b9 60 dd bd 1b e0 96 bd 55 88 86 bd
       -0.08779687 -0.10809464 -0.073669635 -0.06568972
0000f0 85 78 04 bd 87 34 3f 3e fe 95 d6 3d 82 1a f5 3c
       -0.0323415 0.18672381 0.104778275 0.029919866
000100 3d b1 48 3d d6 1d 82 3e b4 c6 a1 bd 4c 04 48 3e
       0.048997153 0.25413388 -0.07899228 0.19532889
000110 db 89 2b be c3 4d 5a be 0d c7 96 3d a9 ac 13 bd
       -0.16751806 -0.21318726 0.07362185 -0.036053333
000120 30 b3 b3 3c ff 81 d2 3c 98 15 ea 3d 0c 26 22 3e
       0.02193603 0.025696753 0.114299 0.15834826
000130 1b 69 1b be ff cf 17 3e ae 38 21 be 5a ee 47 be
       -0.15176813 0.14825438 -0.15744278 -0.19524518
000140 fb 6f fe 3d 52 b2 0c 3e 42 3d 14 3e f8 b9 48 3d
       0.12423702 0.13739899 0.14476493 0.04900548
000150 00 3d 11 be 1f b7 9c 3d 9e bc 64 be 53 27 48 3e
       -0.14183426 0.07652115 -0.22337577 0.19546251
000160 09 14 50 be 28 17 17 3e d7 46 56 3e 6c cd 35 3e
       -0.20320143 0.14754927 0.20925461 0.17754143
000170 d7 95 2f be 91 e6 33 3e be 17 ef bd 01 bd 06 3e
       -0.17147003 0.17568423 -0.1167445 0.13158037
000180 ba b5 3e be 17 8e 17 bd a9 61 1e be e8 45 07 be
       -0.1862401 -0.03700074 -0.15466942 -0.13210261
000190 c6 d6 87 3d 07 1e 31 be 9f 42 f6 3b 44 9b c1 bd
       0.06632762 -0.17296611 0.007515266 -0.09453443
0001a0 5d 4d 93 bb 67 be 10 be 6c 63 c6 3d 3b b9 1d be
       -0.0044953064 -0.14135133 0.09686932 -0.15402691
0001b0 a1 d0 f3 bd 3a 90 00 be 26 ee 3a be 6a d7 a1 bd
       -0.11905027 -0.12555018 -0.18254909 -0.07902415
0001c0 1a 99 80 bd 5f 51 b4 3d 31 0d a4 bd 98 06 82 3d
       -0.06279202 0.08804583 -0.080103286 0.06348914
0001d0 46 eb 4b be 69 6f 43 3e 6b b7 a3 bd 5d 98 d1 bd
       -0.19913968 0.19085468 -0.079939686 -0.10234139
0001e0 cf 05 c8 bd b9 df 72 3a d4 92 f8 bc 50 6d 65 3e
       -0.09766733 0.00092649047 -0.03034345 0.2240498
0001f0 e2 0e 67 3e be 4e c2 bd 03 4d f4 bd c1 e1 d9 bc
       0.22564271 -0.09487675 -0.11928751 -0.026596906
000200 2f 52 32 be 51 a7 32 3e f0 ce 29 3e a3 7b 65 3d
       -0.17414163 0.17446639 0.16582847 0.056026112
000210 a8 05 45 3e 93 3f 10 3d 2d 7e 81 3e d6 b1 fc 3d
       0.19240439 0.03521688 0.25291577 0.12338607
000220 2c e8 22 bd f8 ab 99 3d 5a ff 6b be 7a 10 32 be
       -0.039772198 0.075035036 -0.23046628 -0.17389098
000230 49 84 47 3e 5a bf be 3d 21 84 0d be 6a 5b a6 bd
       0.19484057 0.09313841 -0.13819934 -0.081229046
000240 4a 47 79 3e 68 05 29 be 5a d3 5c 3e 81 15 1b be
       0.24343601 -0.16505969 0.21564999 -0.15144922
000250 b3 9e 2b 3e d9 21 04 3e 92 39 60 bc 16 91 de bd
       0.16759758 0.12903537 -0.013685601 -0.10867517
000260 a6 f9 46 3e cf 23 79 3e a6 51 18 3e 7c d7 aa 3d
       0.19431171 0.24330066 0.14874896 0.08341882
000270 67 2d 8c bd 53 7a 71 3d 35 33 df 3b 55 ed 4d 3e
       -0.06844597 0.058954548 0.0068115243 0.20110066
000280 7e b4 74 3c 18 aa 1d bc 12 3f 89 3d be 2d 0f bd
       0.014935611 -0.009623073 0.06701483 -0.034955733
000290 6e 63 7b bc 0f d8 63 3c 92 a8 09 be 6f 76 c1 3d
       -0.01534353 0.013906493 -0.1344321 0.094464175
0002a0 96 30 45 3e 03 fe e3 bd 32 01 5e 3e 04 cc 2e 3d
       0.19256815 -0.11132433 0.21680143 0.042675033
0002b0 50 81 05 bd 8d ec 1d 3d af 08 40 be bc 6a 0f bd
       -0.032594025 0.03855567 -0.18753313 -0.0350139
0002c0 5a 24 02 3c ee 80 7b 3c 8f e4 a0 bd 62 9a 44 be
       0.007943237 0.015350563 -0.07856094 -0.19199517
0002d0 e7 77 1d be 91 01 3f bd 78 bf 48 be 6c ed 32 3e
       -0.1537777 -0.046632353 -0.1960429 0.17473382
0002e0 dc 08 50 3d fe 2a 23 3d 51 48 73 3e e9 c7 01 be
       0.0507897 0.039835922 0.23758055 -0.12673916
0002f0 df 18 9d bd 1b 04 7b bd ca 6b 02 3e a8 0a f8 bd
       -0.076707594 -0.061283212 0.12736431 -0.121114075
000300 f7 bc 29 3e cc cb e7 bc c9 a6 30 be b4 33 14 be
       0.1657599 -0.02829542 -0.17251123 -0.14472848
000310 86 d0 51 3e 7b c9 0a be d2 44 1a 3e 25 49 4b 3e
       0.20489702 -0.13553421 0.15065315 0.19852121
000320 36 a9 32 be f2 0f 46 3d 4f 9d 29 be 8f b7 d1 3d
       -0.17447361 0.04835505 -0.16563915 0.10240089
000330 84 5c 88 bd df 3a 61 bd e8 e5 3f 3e ad d6 0d 3d
       -0.06658271 -0.054987784 0.18740046 0.03462856
000340 ab e5 8f bd 99 e7 f7 3d df 0f 00 be 8b 55 1b be
       -0.070262276 0.121047206 -0.12506054 -0.15169351
000350 60 01 d2 3d e4 58 79 bd e7 ff 4f 3e c1 76 e2 3d
       0.102541685 -0.06087579 0.20312463 0.11057807
000360 dd 61 13 be ed 85 f2 3d dc d1 da 3c d6 db 2f 3e
       -0.143928 0.118419506 0.026711397 0.17173705
000370 be f4 50 3e 49 53 5b 3d cd 24 4f 3d 74 ea 6e 3e
       0.20405862 0.053546224 0.050572205 0.23331624
000380 1e 60 ab bd 20 ff 68 be 24 08 1d bd 9c aa be 3d
       -0.08367942 -0.22753572 -0.03833784 0.09309885
000390 31 fe 79 be 1b 3d ba bd d9 be d3 bd f4 66 02 bd
       -0.24413373 -0.09093686 -0.10339136 -0.031836465
0003a0 6e 60 7c be 80 41 11 be 32 ac 54 3e c2 42 6b 3e
       -0.2464616 -0.14185143 0.20768812 0.22974685
0003b0 39 58 24 bb 55 07 3c be 86 1d bd bc bb f3 6b be
       -0.0025077 -0.18362172 -0.023085367 -0.23042195
0003c0 66 38 06 be a9 66 5c be 53 31 de bd 9d 39 a1 3d
       -0.13107452 -0.21523537 -0.108492516 0.07872317
0003d0 8a 6e 1a 3e c5 87 91 bd 0e 3a 8d be f6 e5 4e be
       0.1508123 -0.07105974 -0.27583355 -0.2020491
0003e0 52 d4 33 3e a1 80 c3 3c 6e 33 04 3e 54 3f db bd
       0.17561463 0.023865046 0.12910244 -0.10705438
0003f0 e5 1a 67 3e c0 bf 34 3d 0a 9d 0c be 2e bf 42 bd
       0.22568853 0.04412818 -0.1373178 -0.047545604

encoder.graph_embed.GCN_in.linear.bias f4 [128]
000000 4a 2b f0 3d fe b8 38 be 20 fc 01 bb 8c 47 95 3b
       0.11727007 -0.18039319 -0.0019834116 0.004555648
000010 14 ab e0 bd a3 7b 68 bd bc a6 23 3d 5b 34 e9 bd
       -0.109701306 -0.056758534 0.039953932 -0.11386939
000020 09 af 28 3e 04 93 58 be 95 bd b2 3d b6 ca 50 3e
       0.1647302 -0.21149832 0.08727566 0.20389828
000030 ac 6e 1a 3d 75 1f af 3c a4 8f a9 3d 71 a5 15 3e
       0.0377032 0.021377305 0.082793504 0.14613892
000040 40 f7 6e 3d 31 60 4e 3e a1 45 bc 3d cf 5c 27 be
       0.058341265 0.20153882 0.09192968 -0.16343997
000050 f2 b8 32 be 0c 16 0b be 07 2b 71 be f5 ee 31 be
       -0.17453364 -0.13582629 -0.2355157 -0.17376311
000060 6e 39 eb 3d 9d 97 2f bd 78 24 40 be 11 1e db bd
       0.11485563 -0.0428692 -0.18763912 -0.10699094
000070 b9 6a 37 3e 05 e6 7d 3d c8 2b 9f 39 fe d7 05 3e
       0.17911805 0.06198694 0.00030359463 0.13070676
000080 b4 7e 8c 3b 11 f3 0b be 60 57 b0 bd e5 1e 8b 3d
       0.004287565 -0.13666941 -0.086104155 0.06793002
000090 ea 05 09 3d cd 9f 13 bc c7 e5 4e 3e 9f 38 8a 3c
       0.033452906 -0.009010267 0.2020484 0.016872702
0000a0 f1 79 df bd 09 54 d6 3d a4 d6 41 3e de 22 77 bd
       -0.1091193 0.10465247 0.18929535 -0.060335986
0000b0 9e ea b3 bd ab 31 9c 3c 94 c7 68 be 9b e7 db bd
       -0.08784984 0.019066652 -0.22732383 -0.107375346
0000c0 74 95 4c be 17 c7 24 3d 2b 26 58 be 32 75 39 3d
       -0.19978887 0.04022893 -0.2110831 0.04527778
0000d0 c7 06 44 3e fb 32 47 3d 8e 0f 17 3e 69 01 dc bd
       0.1914321 0.048632603 0.14752027 -0.107424565
0000e0 2d ff 30 3d 54 01 73 be 82 58 3e 3e 69 fc 2f bc
       0.043212105 -0.23730975 0.1858845 -0.010741332
0000f0 a5 fa b3 3d 7a d6 24 3e 4b be 8e 3d 4d e0 c5 3d
       0.08788041 0.16097441 0.06969889 0.096619226
000100 e8 29 ff 3d 71 b8 9f bc 4c e3 3f 3e e1 af 2e 3d
       0.12459165 -0.019497128 0.1873905 0.0426482
000110 ae b7 22 bd 58 14 10 be 02 57 1b be 53 8e a8 3d
       -0.03972595 -0.1407026 -0.1516991 0.08230271
000120 ec 8b a7 3d 67 b4 0f be da fb 19 3e de 04 c2 3d
       0.08180985 -0.14033662 0.1503748 0.094735846
000130 7b af 16 be 96 94 7d be e4 25 3b 3d 4e 2a e6 bb
       -0.14715378 -0.24763712 0.045690432 -0.007024086
000140 88 11 03 3e 88 de fb 3d dc 25 bd bd 6d 4d 09 be
       0.12799656 0.12298304 -0.09235737 -0.13408442
000150 80 3d fe 3b 40 52 18 3e 67 30 67 be 20 ee 55 3e
       0.007758796 0.14875126 -0.22577058 0.20891619
000160 a2 4e d6 bd df 4b b7 bd df 85 66 bd 5e 9f 6b 3e
       -0.10464217 -0.08950018 -0.056280013 0.23010013
000170 e4 56 72 be 82 38 02 3e de f6 4e 3e 20 0e f1 bd
       -0.23665959 0.12716869 0.2021136 -0.11770272
000180 1c 39 b6 bd c7 14 0e 3d 89 b8 c2 bd bd bb 45 be
       -0.088976115 0.034687784 -0.095078535 -0.19309898
000190 29 65 2f bd 00 86 44 be 22 22 f9 bc 54 e1 04 be
       -0.042821083 -0.19191742 -0.030411784 -0.12976581
0001a0 8c 18 f3 bc 11 94 22 3e d3 35 72 be 9f ef a2 3d
       -0.02967479 0.15876795 -0.23653345 0.0795586
0001b0 cc f1 53 be 03 35 49 be 45 7f cc bd f6 94 0e be
       -0.20697707 -0.19649129 -0.09985212 -0.13924012
0001c0 21 18 73 be 32 50 a6 3d 4e 02 cc 3d 00 10 4e 3e
       -0.23739673 0.08120765 0.09961377 0.20123291
0001d0 69 ef 3b be 1f c0 32 3e c4 9f 0a 3d 09 90 05 3e
       -0.18353046 0.17456101 0.03384377 0.13043226
0001e0 07 c5 8a bd 20 d4 22 3d 45 c0 07 3d 6e 2e bf 3d
       -0.06775861 0.03975308 0.033142347 0.09335028
0001f0 1f 24 14 be 74 99 55 3d 2f 1a 06 be 0f 3e 58 3e
       -0.14466904 0.052148297 -0.13095926 0.21117423

encoder.graph_embed.bn.weight f4 [128]
000000 38 9b 7d 3f 2f cc 7e 3f 22 e9 7a 3f 2b f7 76 3f
       0.9906497 0.9953031 0.9801198 0.964709
000010 d2 eb 7d 3f 46 cd 76 3f 00 e8 80 3f 9b fa 81 3f
       0.9918796 0.9640697 1.0070801 1.0154604
000020 da 3e 78 3f f7 25 74 3f 38 40 81 3f 77 c3 7a 3f
       0.96970904 0.9537043 1.0097723 0.97954506
000030 0f 50 83 3f 9c 99 80 3f ab 00 7f 3f f4 3e 76 3f
       1.0258807 1.0046878 0.99610394 0.9618981
000040 c9 6a 7f 3f d8 84 79 3f 41 ef 7a 3f 54 55 81 3f
       0.99772316 0.9746833 0.9802132 1.0104165
000050 e6 c5 7f 3f 98 af 84 3f 4e b3 76 3f e9 f6 81 3f
       0.99911344 1.0366087 0.9636735 1.0153476
000060 4e b3 80 3f c3 58 75 3f ea a4 7a 3f 71 52 79 3f
       1.005472 0.95838565 0.9790789 0.9739142
000070 5e 66 75 3f e2 e2 79 3f 0a 9a 75 3f 35 76 7c 3f
       0.95859325 0.9761182 0.9593817 0.9861787
000080 40 98 78 3f 28 72 73 3f 4f 49 78 3f e0 cd 7a 3f
       0.97107315 0.95096064 0.9698686 0.9797039
000090 41 f9 7c 3f 53 18 81 3f 5a 25 7a 3f c8 9d 7b 3f
       0.9881783 1.0085548 0.97713244 0.9828763
0000a0 39 6f 80 3f a1 b4 78 3f 5e db 80 3f 74 6b 77 3f
       1.0033942 0.9715062 1.0066946 0.96648335
0000b0 70 5f 7e 3f c2 4b 7f 3f ee f5 82 3f e1 be 79 3f
       0.99364376 0.9972497 1.0231302 0.97556883
0000c0 11 b8 7d 3f 92 39 80 3f d0 8d 7f 3f f2 38 7f 3f
       0.9910899 1.0017569 0.99825764 0.99696267
0000d0 24 9f 7b 3f 7e 54 77 3f c0 b8 7b 3f 19 73 81 3f
       0.98289704 0.966133 0.9832878 1.011325
0000e0 7a e2 78 3f ea 79 80 3f d8 00 7e 3f 50 a4 81 3f
       0.97220576 1.0037205 0.9922004 1.0128269
0000f0 9a 32 79 3f 73 6c 7c 3f b1 8f 78 3f 6f 41 76 3f
       0.97342837 0.9860298 0.97094256 0.96193594
000100 ec ab 75 3f 7c 4a 81 3f e4 ae 78 3f 44 e7 77 3f
       0.95965457 1.0100856 0.9714186 0.9683726
000110 e1 92 7c 3f ef 38 7c 3f 45 e6 77 3f b9 34 78 3f
       0.9866162 0.98524374 0.9683574 0.9695545
000120 3d f4 7c 3f 16 47 7e 3f 6e f7 77 3f 4e 10 82 3f
       0.9881018 0.9932722 0.9686192 1.0161226
000130 b7 56 7a 3f b7 55 7a 3f a8 bd 7c 3f f7 09 82 3f
       0.97788566 0.9778704 0.9872689 1.0159291
000140 83 e8 82 3f df 94 7c 3f ad 2c 78 3f 57 70 7a 3f
       1.0227207 0.9866466 0.9694317 0.97827667
000150 f0 f8 7b 3f 5f 51 80 3f 3b c3 79 3f 44 0c 82 3f
       0.98426723 1.0024832 0.97563523 1.0159993
000160 9c 17 7f 3f 25 41 81 3f 96 cd 7c 3f 33 62 7c 3f
       0.996454 1.0098006 0.987512 0.9858734
000170 ed fa 74 3f 47 d5 77 3f 3f 2d 79 3f f7 df 78 3f
       0.9569538 0.9680981 0.97334665 0.97216743
000180 df 4f 7d 3f 91 5e 7b 3f 70 9d 7d 3f 77 57 7c 3f
       0.9895 0.9819117 0.99068356 0.9857096
000190 33 bb 7b 3f b1 a2 7b 3f 3a 5a 7d 3f 1c 7e 79 3f
       0.9833252 0.9829512 0.989658 0.9745805
0001a0 ef fd 7f 3f 33 36 7d 3f 40 f9 78 3f 3f eb 73 3f
       0.99996847 0.98910826 0.97255325 0.9528083
0001b0 c7 4b 7a 3f d6 0f 80 3f 37 81 80 3f 69 af 78 3f
       0.9777188 1.0004833 1.0039433 0.97142655
0001c0 95 57 77 3f 14 49 7d 3f bc 29 80 3f 83 d1 80 3f
       0.96618015 0.98939633 1.0012736 1.0063938
0001d0 3a 81 82 3f 9e aa 7f 3f 2c e3 76 3f 9e 8b 7a 3f
       1.0195687 0.99869716 0.96440387 0.9786929
0001e0 83 8e 80 3f c3 94 72 3f d3 0a 7f 3f 73 c9 7a 3f
       1.0043491 0.9475824 0.9962589 0.9796364
0001f0 1d 4e 82 3f e0 c6 7f 3f c7 5a 7f 3f 51 cc 81 3f
       1.0180088 0.99912834 0.9974789 1.0140477

encoder.graph_embed.bn.bias f4 [128]
000000 63 d8 62 bc 34 79 74 bc 06 ee ac bc ba c9 0c bc
       -0.013845536 -0.014921475 -0.021109592 -0.008593017
000010 c6 22 29 bb a3 9f 0a bb 41 7a d6 3b 0c 33 a7 ba
       -0.002580808 -0.002115228 0.0065453355 -0.0012756302
000020 50 55 c2 bc 55 3a ac bc 03 dc d4 bc 82 72 fa 3b
       -0.02372232 -0.021023909 -0.025983816 0.007643045
000030 75 a1 68 bb 6b 89 60 3b 79 67 89 bc f8 d7 bb bc
       -0.0035496627 0.0034261595 -0.016772972 -0.02293013
000040 d8 50 4e 3b 3e 68 4d bc f3 90 e3 3b 91 52 85 bc
       0.0031481292 -0.01253706 0.0069447695 -0.016274722
000050 ab 42 32 3c 79 f7 9a 39 f6 22 e3 3a bc f9 d4 bb
       0.010880153 0.0002955755 0.0017329145 -0.006499497
000060 95 0a 27 3c b3 6d 13 3b 17 4a 92 bc 57 d5 95 bc
       0.010195394 0.0022495806 -0.017857594 -0.018290205
000070 c2 2a 7c bb d8 81 9a bb 0e 28 b2 bb 16 cb 91 bb
       -0.0038477634 -0.0047151856 -0.005436904 -0.0044492586
000080 bb 6c 97 bb 3d 9e d4 bc 54 08 00 3b 7b 98 ce bc
       -0.004621116 -0.02595436 0.0019536214 -0.025219193
000090 be 5f 21 3c 0e b9 64 bc d3 a5 ef 3b 5f 18 6a bc
       0.009849487 -0.013960136 0.007313469 -0.014288037
0000a0 1b 79 78 bb 26 78 df 3a 37 7e 86 3b 0f dd c1 bb
       -0.0037913981 0.0017049357 0.0041044015 -0.005916245
0000b0 60 b2 94 3c 69 11 70 3c bd f8 d7 3a d6 b3 df 3b
       0.018151462 0.014652588 0.0016477328 0.006826858
0000c0 44 ba 25 3c 3d b4 cb 3b 7e 55 2a 3c a2 aa 98 3a
       0.01011521 0.0062165544 0.0103963595 0.0011647532
0000d0 d0 58 a4 ba 52 e8 c9 3c 9b 29 15 3c 0a b2 3a 3b
       -0.0012538675 0.024646912 0.009104158 0.0028487467
0000e0 b3 77 9d 3a 40 ed 3f 3c 89 ab db 3b c6 0c cb 3a
       0.0012013823 0.01171428 0.006703798 0.0015491478
0000f0 20 27 8a 3a a5 86 a4 3c e9 8a 1f 3c d5 6e 83 3c
       0.0010540225 0.020083735 0.009737709 0.01604406
000100 5f ab 7d 3c 18 43 a4 3b 84 1b 3f bc a6 1c e5 3a
       0.015482753 0.005012881 -0.011664275 0.0017479851
000110 15 22 49 3c 71 1b 90 3b 64 18 4d bc 42 95 63 3c
       0.012276192 0.0043978025 -0.012518022 0.013890566
000120 24 99 36 bc 2d f6 08 3b ed cc 28 3b 54 d9 01 3b
       -0.01114491 0.0020898685 0.002575691 0.0019813376
000130 11 87 50 bc 3f cf 26 3c c6 9c 32 bc d6 03 80 3c
       -0.012727515 0.010181247 -0.0109016355 0.01562683
000140 da 33 4b 3c 2c 3c b0 bb 15 2a ab ba 4f 8c 83 3c
       0.012402499 -0.005378267 -0.0013058806 0.016058115
000150 9a f1 df 3b f6 f3 1e 3c 40 49 6e 3b 60 38 c0 3c
       0.006834221 0.0097017195 0.0036359578 0.023464382
000160 32 8f b9 bc 43 a4 c9 bb 0a 06 45 bc 37 4c bd 3b
       -0.022651289 -0.0061536147 -0.012025366 0.005776908
000170 d5 26 9f 3b a1 38 34 3c 26 ac 84 3b 5d e6 5d 3b
       0.004856924 0.0109998295 0.004048842 0.003385923
000180 ff 62 54 bc 8a 7f c2 38 20 9b ad bc 95 9f 65 3c
       -0.012963056 9.274397e-05 -0.021192133 0.014015098
000190 eb b0 bf 3b 70 2f 65 3b fc a4 91 bc 2a a0 40 3c
       0.0058499477 0.0034970902 -0.017778866 0.011756936
0001a0 e2 a4 d4 bc 46 06 37 bb f1 b1 77 bc 5f a9 99 3c
       -0.025957529 -0.0027927323 -0.015118108 0.01875752
0001b0 30 45 b2 3b c0 8a 16 bb 75 72 e6 3b c6 de 53 3c
       0.0054403767 -0.0022970885 0.0070326873 0.012931531
0001c0 9d 1a 18 bd c7 7b eb 3b 67 84 1c 3b 97 1e 37 3c
       -0.037134755 0.0071863863 0.002388263 0.011176727
0001d0 0e b7 ab bc ba 31 32 3c d5 3c 36 bc 9a 51 7d 3b
       -0.02096131 0.010876114 -0.011122902 0.0038653375
0001e0 93 50 a5 bb f6 d9 b1 3c 66 3d 47 3b e2 50 e1 3c
       -0.0050450056 0.021710377 0.0030401587 0.027504388
0001f0 c3 49 23 bc b1 ad 9f 3c bd 77 40 bc 38 8f 34 3c
       -0.009966317 0.019492002 -0.011747298 0.011020474

encoder.graph_embed.bn.running_mean f4 [128]
000000 14 82 a8 bc ae f8 d3 3b ca b4 58 3c 6a af 1d 3d
       -0.020569839 0.006468854 0.013226697 0.038497366
000010 7f 69 30 bc 37 42 34 bd 94 78 56 3d 1c 4c 77 bc
       -0.01076734 -0.04400846 0.052361086 -0.0150938295
000020 21 d7 db 3b 5a f3 12 3d 7b 7a b4 3b 57 44 e9 bb
       0.006708995 0.03587661 0.005507765 -0.0071187424
000030 c5 b4 51 bb 47 41 9d 3a 9e d7 0a 3d d7 36 93 bc
       -0.0031998616 0.0011997604 0.033897035 -0.017970486
000040 e0 5f 27 bc 4b 90 99 bc 76 e2 27 bc 28 6f 7c bc
       -0.0102157295 -0.018745562 -0.010246864 -0.015407361
000050 bd 7f 44 3b b9 a6 eb 3a de 3b 0b 3c 2e e9 90 bc
       0.0029983365 0.0017978764 0.00849816 -0.017689314
000060 1b f1 31 3d 0f 80 6e 3d 33 5c 13 bd 05 f0 84 3c
       0.043442827 0.058227595 -0.0359766 0.016227731
000070 3d 7d 18 bd 68 98 5b 3d a4 ff cb 3b d3 ea 04 bc
       -0.03722881 0.053612143 0.006225543 -0.008112627
000080 53 1e 10 3c 83 f4 bd 3b a6 03 4a 3c 02 3b 20 3d
       0.008796292 0.0057969703 0.012329971 0.039118774
000090 ac 0a 6f bc 0b bf 43 bc 76 bd 53 bd 64 66 49 bc
       -0.014589947 -0.011947404 -0.051694356 -0.012292478
0000a0 73 d2 93 bb e9 82 5a bd 42 6b 27 b9 05 5a 13 bd
       -0.0045111715 -0.053347502 -0.00015966318 -0.03597452
0000b0 64 38 1e bc 05 22 20 3d ee 90 d8 3b 4d 13 dc bc
       -0.009656999 0.039094944 0.006609074 -0.026864672
0000c0 06 8b 7d 3c dc fb af 3c 8d 58 99 3d 94 ca 4f 3c
       0.01547504 0.0214824 0.07487593 0.012682576
0000d0 69 fc 0a bd ad e4 ad ba d6 26 4c 3d 20 6b 88 bd
       -0.033932123 -0.0013267003 0.049841724 -0.066610575
0000e0 0d d6 68 3d cc 5d 56 3d 0c e1 22 bd bc ec 50 3c
       0.05684476 0.052335545 -0.039765403 0.012751754
0000f0 46 7a 79 3b b1 2a 2a bc 06 85 ed bb 58 b7 1e bd
       0.0038067265 -0.010386155 -0.0072485236 -0.03874907
000100 08 6d 45 3d ad cd c5 bc a5 e8 07 bd 18 85 91 ba
       0.048199683 -0.024145925 -0.03318085 -0.0011102287
000110 34 93 36 3b 44 5d 58 3d 50 65 68 bc 37 a0 29 3d
       0.0027858736 0.05282332 -0.014184311 0.04141256
000120 92 16 8a bc 61 ed 1e 3c 81 39 10 3d 8c 4f 90 bc
       -0.016856465 0.00970015 0.03521109 -0.017616056
000130 c7 61 a5 3c 1f 22 4e bc 8d ce 14 3d 92 58 1a 3d
       0.020188225 -0.012581377 0.036329795 0.037682123
000140 ed ad 99 3c 7f f3 7b 3c 45 be 1a 3d 70 d6 2a bd
       0.018759692 0.015377878 0.03777911 -0.04170841
000150 6f c4 a0 3b a5 8f 80 3d 23 6d 87 3d 80 46 a8 3d
       0.004906229 0.06277398 0.06612613 0.08216572
000160 c3 dd 02 bc b0 22 58 bc 7b 41 ae 3c b4 66 93 bb
       -0.007987442 -0.013191864 0.021271458 -0.004498327
000170 83 fb 56 bd 36 71 11 bd 44 12 fa bc 59 af 03 bd
       -0.052485954 -0.035508357 -0.030526288 -0.032149646
000180 bf c8 62 3d 48 d9 f3 3b d1 b4 5c bb aa 2d 00 3d
       0.055367228 0.0074416734 -0.003367711 0.03129355
000190 e1 1b a8 3b e3 da c0 bc a1 f6 a4 bc b3 bc f4 3c
       0.0051302765 -0.023541873 -0.020137133 0.029875135
0001a0 b9 4b 63 3c 98 67 4a 3d 0f 44 37 bb ec 45 91 3d
       0.013873034 0.0494152 -0.002796415 0.07093415
0001b0 fe 8b f7 bc 7f 05 de 3c a4 6c 31 3d e1 9b 8f bc
       -0.03021812 0.02710223 0.0433165 -0.017530384
0001c0 a1 60 86 3c 3a 09 27 bc bc 17 ba bc 4d 56 4b 3b
       0.016403498 -0.010195071 -0.022716396 0.003102678
0001d0 5e 2e 26 ba bb 95 8a 3c 4b 87 9f bc 5f 4e cc 3a
       -0.0006339307 0.0169171 -0.019473692 0.0015587321
0001e0 9a 66 b8 bb dc 77 ec 3c 8b 93 00 3d 47 a3 22 3d
       -0.0056274654 0.028865747 0.031390708 0.039706495
0001f0 92 96 55 bc 49 d2 03 bc e8 be 03 3d 75 b6 b5 bc
       -0.013036387 -0.008045741 0.032164484 -0.022181729

encoder.graph_embed.bn.running_var f4 [128]
000000 30 4d c1 3a 6f 64 99 3b f8 3c 24 3c 8f 38 94 3c
       0.0014747735 0.004681162 0.010024302 0.018093375
000010 88 f4 3f 3b 1e 53 30 3c e8 fb 87 3c 8b 83 56 3c
       0.002929004 0.010762004 0.01659961 0.013092886
000020 cf 13 3a 3b f0 b0 aa 3c b5 2f b6 3b 67 65 f2 3b
       0.0028393154 0.020836323 0.0055598863 0.007397342
000030 d3 69 03 3c 50 65 96 3b 89 d1 04 3c 82 2b 9e 3b
       0.008020836 0.004589714 0.008106598 0.004826964
000040 3d 37 22 3c fc 25 c6 3b 4b 96 cb 3b e1 5d 79 3b
       0.009900865 0.0060470086 0.0062129847 0.003805034
000050 47 cf fb 3b 40 98 2e 3b 5f 26 bc 3b ea bd 53 3b
       0.0076846215 0.002664104 0.005741879 0.0032309243
000060 5a 29 32 3c 59 a5 89 3c 02 4b 0e 3c df 92 f8 3b
       0.010874117 0.016802477 0.008684875 0.007585868
000070 52 a6 88 3b cb 24 95 3c f8 e5 6a 3c 36 c0 2b 3c
       0.0041702176 0.01820602 0.014337055 0.010482838
000080 ba c2 19 3c 5b 99 20 3c f5 d6 3b 3c 4c 1a 1f 3c
       0.009384805 0.009802188 0.011464824 0.0097108595
000090 6d 96 ca 3b 2b 06 a7 3b 68 1b 03 3c 99 db 0d 3c
       0.006182483 0.005097171 0.00800214 0.008658313
0000a0 69 91 c9 3b 08 1f 9a 3b 3c 7b 8c 3b ed 88 c0 3b
       0.0061513674 0.0047034062 0.0042871516 0.005875698
0000b0 1e 4f d0 3b 6d c3 d5 3b cd a8 75 3c 00 a3 92 3b
       0.0063570878 0.0065235407 0.0149938585 0.0044749975
0000c0 46 75 2b 3c 8c 08 2e 3c d7 b7 73 3c a2 04 8b 3b
       0.010464972 0.010622155 0.014875374 0.0042424956
0000d0 91 f8 e2 3b f4 a5 b9 3b a6 db 5e 3c 05 17 af 3b
       0.006926604 0.005665535 0.013602173 0.0053433203
0000e0 f8 c2 ae 3c 53 44 b2 3b 86 6b ca 3b 9a 5f 9c 3b
       0.021333203 0.005440274 0.0061773686 0.004772139
0000f0 c4 d5 54 3c 30 fd a8 3b ff 12 25 3b 39 45 1c 3b
       0.012990419 0.0051571354 0.0025188325 0.002384497
000100 f6 f9 3f 3c da d9 d6 3b c8 90 00 3c 53 ad 65 3b
       0.01171731 0.0065567316 0.007847019 0.0035045936
000110 d2 83 86 3b 23 96 67 3c 86 01 61 3b f5 85 d7 3b
       0.0041050697 0.0141349165 0.0034333183 0.006577248
000120 8f 91 4d 3b b2 9e 4a 3c 18 30 0c 3c a4 19 18 3c
       0.0031367277 0.0123669375 0.008556388 0.009283457
000130 32 00 2b 3c c2 85 59 3b 07 29 19 3c f1 e8 d0 3b
       0.010437058 0.0033191298 0.009348161 0.006375425
000140 7a 26 57 3c ba b9 8b 3b 00 f6 08 3c 9c 72 ea 3b
       0.013131732 0.0042640837 0.008359432 0.007154776
000150 4e 82 00 3b f0 72 0b 3c 17 a2 ce 3c e9 59 84 3c
       0.0019608918 0.00851129 0.025223775 0.016156154
000160 2e 2f 10 3b 4c f8 b1 3b 5d 7a 03 3d fb 56 9b 3b
       0.0022000778 0.0054312106 0.032099117 0.0047405935
000170 79 4e b3 3b a9 c0 35 3b fa 6b e0 3b 83 a4 2c 3b
       0.005472001 0.0027733243 0.0068488093 0.0026343174
000180 22 09 14 3c 39 bb cb 3b c0 8f 9a 3b 17 7c a5 3b
       0.009035381 0.006217387 0.0047168434 0.005050193
000190 e5 18 13 3c c8 6f 84 3b 88 a4 87 3b 28 b7 45 3c
       0.008978103 0.0040416457 0.0041394867 0.012067594
0001a0 2c 94 d0 3b b6 68 39 3c c8 7f 7d 3b b0 aa 98 3c
       0.0063653197 0.011316469 0.00386809 0.018636078
0001b0 ca 58 cf 3b 70 99 34 3c fb 41 24 3c 20 4b 95 3b
       0.006327723 0.0110229105 0.010025497 0.0045560747
0001c0 b3 5f 3c 3b 17 a1 8b 3c 02 ae e3 3b 72 75 83 3b
       0.0028743565 0.017044587 0.0069482336 0.0040118033
0001d0 82 ec 6a 3b af 1d 82 3b 90 f7 7f 3b 5f 2e c0 3b
       0.0035846536 0.0039708237 0.003905747 0.005864903
0001e0 2d 99 83 3b b8 9d a6 3b 54 f0 75 3b 35 1c 1c 3c
       0.0040160627 0.0050847195 0.003752728 0.009528209
0001f0 bf 5e e4 3b fa bc 1e 3c f2 b1 22 3c f6 dc 7b 3b
       0.0069693024 0.00968861 0.009930121 0.0038431264

encoder.graph_embed.GCN_layers.0.A f4 [9, 9]
000000 5e 9c ad bc 1d a0 c9 bf a4 32 4a be da 97 87 be
       -0.021192726 -1.5751988 -0.1974588 -0.2648304
000010 0b 40 17 40 b5 65 bb 3f b0 4e 76 3f 37 05 40 3f
       2.3632839 1.4640414 0.9621382 0.7500796
000020 db ee 1a bf ce a4 d3 be dd b1 b1 3e cb 5f 90 bf
       -0.60520715 -0.41336673 0.3470601 -1.1279234
000030 22 24 4a bc dd 35 38 3f e7 ac 64 3e a1 08 38 bf
       -0.012337716 0.7195719 0.22331582 -0.71888167
000040 50 12 b2 3f 12 74 2a bf 2b c3 98 3e df d5 9d be
       1.3911839 -0.6658336 0.298364 -0.30827233
000050 0a 6d 0f be fc 63 7b 3e 97 05 55 3f 76 32 91 bf
       -0.14006439 0.2454986 0.83211654 -1.1343524
000060 d4 fa 4d 3f 15 86 79 3f d9 cb a4 3d db d9 a3 3e
       0.8046086 0.9747022 0.08046693 0.32002148
000070 0b cc e6 bf f9 b6 83 3f d1 5a 9f bf ca 80 6f bf
       -1.8031019 1.0290214 -1.244959 -0.9355589
000080 14 2d 36 bf 69 09 73 3e 81 ae 9d bf e6 f5 9a bf
       -0.71162534 0.23734058 -1.2318879 -1.2106292
000090 7a 77 2d bf 45 94 86 3d 04 48 ea 3f 0a 08 5e 3f
       -0.6776043 0.06571249 1.8303227 0.86731017
0000a0 3b 12 db be f4 66 ee 3d c7 64 20 bf 64 84 c6 3f
       -0.42787346 0.116407305 -0.62653774 1.5509152
0000b0 12 3b be bf 2d ff 79 3f 8b 96 cc be 1c c0 8c bf
       -1.4861777 0.9765499 -0.39958605 -1.0996127
0000c0 e1 7c f7 3f 3d ee e5 be b3 f8 ab bf b8 ff ca 3f
       1.9334985 -0.44908324 -1.3435272 1.5859289
0000d0 8c 92 4f bf a8 6b 8c 3f 1a 7b ca be d3 96 3c bf
       -0.8108299 1.0970354 -0.39547044 -0.7366764
0000e0 04 76 7d 3f c2 a4 b6 bf 67 29 66 3f 30 51 b1 3f
       0.990082 -1.426903 0.89906925 1.3852901
0000f0 95 07 83 be 74 a9 eb 3f d9 cd 06 40 ec e8 7d be
       -0.25591722 1.8411088 2.106314 -0.24795884
000100 f4 9f 3f 3e 85 51 34 bf 27 9c 22 3f e4 0b df 3f
       0.18713361 -0.7043689 0.6351952 1.7425504
000110 a5 d5 a7 be 6a 6f 91 3f 18 3b 18 3e 69 1b 5b bf
       -0.32780185 1.1362126 0.14866292 -0.855887
000120 c7 25 03 bc ed 8a 1c bf e6 1d a9 3f 20 7c 5a 3f
       -0.008004612 -0.61149484 1.3212249 0.8534565
000130 f9 4b 5b 3f 88 40 6f bf 6f 35 a4 3e f6 1e aa bf
       0.856628 -0.9345784 0.32072017 -1.3290699
000140 aa 35 2b bf
       -0.6687876

encoder.graph_embed.GCN_layers.0.linear.weight f4 [128, 128]
000000 9f 66 81 bb 25 32 fb bc 03 5d 2e bb fc b7 24 bd
       -0.003949001 -0.03066356 -0.0026605732 -0.040214524
000010 f7 2d 27 bc b0 4c a4 bc 7a 85 27 3d aa af 29 3d
       -0.01020383 -0.020056099 0.040898778 0.041427292
000020 f9 e1 fd ba 7d a4 9c bd b7 5a 45 3d 4f 2f 91 3d
       -0.0019369713 -0.07648561 0.048182216 0.070891015
000030 0b 11 c1 bc 71 ef ba bd 09 84 e0 3d 84 c6 6f bc
       -0.023567697 -0.09127701 0.10962684 -0.014634732
000040 fd c5 ab bd d1 2f a7 3c f2 b2 24 3d 98 3c 1a 3c
       -0.08387373 0.020408543 0.040209718 0.009413861
000050 dd 16 08 3c dc 13 31 bd a6 93 2d bd b3 86 5b 3c
       0.008306232 -0.04323183 -0.042377137 0.013398814
000060 e6 2e c4 bc 07 1f 07 bc ea 9f 84 3b 3f ee 60 bd
       -0.023948144 -0.008247144 0.0040473836 -0.05491471
000070 70 20 86 3d 5d c9 a2 3d 72 39 8f bd a9 e4 91 bd
       0.06549156 0.07948563 -0.06993379 -0.071236916
000080 e3 86 85 3d 96 63 36 3d c9 7c 28 3d ea 55 81 3d
       0.06519868 0.044528566 0.04113463 0.06315215
000090 dd f4 c0 bc 58 c4 54 3c 69 57 0f 3d 97 68 0a bd
       -0.02355426 0.012986265 0.03499547 -0.03379115
0000a0 7e 49 95 3d 55 17 ad bd 5f 8f 57 3c d2 45 47 bd
       0.07289408 -0.08451716 0.013156741 -0.04865057
0000b0 cc 00 1d 3d c6 0f 14 bd 2e 70 7b bd a2 25 8b bc
       0.038330838 -0.036147855 -0.06138628 -0.016985718
0000c0 c1 ed 28 3d 66 01 c1 3a ee e8 48 3d 46 f9 2f bd
       0.041242365 0.0014725148 0.049050264 -0.042962335
0000d0 b1 83 9e 3d 6e 49 fa bc 42 af b0 3c 87 dc 16 3d
       0.07739962 -0.030552592 0.021567944 0.036831405
0000e0 97 88 f7 3b 7e 81 93 bd 41 1e 9e 3c 66 11 96 3d
       0.0075541246 -0.07202433 0.019301536 0.07327537
0000f0 c8 24 59 3c 0b ff f8 bb fc 6e aa 3d 53 f0 c7 3c
       0.013253398 -0.007598763 0.0832195 0.024406588
000100 29 c6 e6 bc 75 e4 b7 bc 5f 0c 1d 3c cc 21 76 3d
       -0.028170662 -0.022447804 0.009585469 0.060090825
000110 09 48 e7 3b 76 fd 71 bd 2a 79 8c bd f4 ec 5f bd
       0.007058148 -0.05907961 -0.06859048 -0.054669335
000120 d9 a1 01 bd 65 33 5f 3c 0c a8 fe bc 7e e6 42 bd
       -0.03164849 0.013623093 -0.03108599 -0.047583096
000130 35 45 6a 3d 3d bd 79 3d 7b 91 9a 3d 04 2d 3c ba
       0.057194907 0.060971487 0.075472794 -0.0007178339
000140 37 c1 29 3a f5 4e 13 3d 6b 53 b1 3a 4b 01 2c 3d
       0.00064756296 0.03596397 0.0013528889 0.04199342
000150 c6 22 6d 3d e4 b8 ea 3b 34 f9 83 3c e1 64 31 3d
       0.05789449 0.007163154 0.01611004 0.043309096
000160 72 d3 48 3d 8f 3c 2e bd e0 5a 5b 3c 0e 87 2d 3d
       0.049029775 -0.042538222 0.0133883655 0.042365126
000170 c1 6b 7b 3d 58 a8 d7 bc 80 d3 48 bd 94 9f e3 bc
       0.06138206 -0.02632539 -0.049029827 -0.027786054
000180 13 e3 01 3d d4 ba cb ba 19 2f 5c 3d 4f c8 99 3d
       0.031710695 -0.001554335 0.053755853 0.07508909
000190 00 6d 08 3d b6 af 29 bd 8f 5a 54 3c ff 7e 97 3d
       0.033307076 -0.041427337 0.012961044 0.073972695
0001a0 66 82 a2 bd 5d af 47 bd 73 91 c4 3c f4 c0 49 3d
       -0.07935028 -0.048751224 0.023995137 0.04925628
0001b0 10 64 49 3d df 9a d0 3c 74 a3 ab 3d 93 0b 9d bd
       0.049167693 0.025464473 0.083807856 -0.07668223
0001c0 4d ca 5e 3c 95 2d 5e 3d 2c 57 7a bd e5 db 25 3d
       0.013598037 0.05424269 -0.06111829 0.04049291
0001d0 22 ce 84 3d ef ab 94 3d e8 b3 4a 3d 48 9e bf bc
       0.06484629 0.07259356 0.04948798 -0.023390904
0001e0 0b 7a d3 3c 65 e4 bb bc 32 47 88 3d 5f 89 49 bd
       0.02581503 -0.022936055 0.066542044 -0.049203273
0001f0 89 2c c0 3c 12 60 3a 3d e0 80 08 3c 23 a8 bd 3c
       0.023458736 0.045501776 0.008331507 0.023151463
000200 dd b6 40 bd 13 0b 85 3d 11 fa 4d 3c 5a c6 9e bc
       -0.047049392 0.06496253 0.0125718275 -0.01938169
000210 1c 1f 8f 3c 40 d3 d1 3c 7e 8c 0b 3d 74 5b 70 3d
       0.017470889 0.025613427 0.03406953 0.058680966
000220 ea a8 39 3c 02 b9 ba 3d c3 a3 5b bd 37 85 df bc
       0.011331776 0.09117319 -0.053622972 -0.027285201
000230 3f b1 9f bd 67 8a 22 bc 5a b6 52 3b 42 82 4a bd
       -0.07797479 -0.009920693 0.0032152147 -0.04944063
000240 68 96 fe bc 00 d4 76 3c bd 4a 23 bd 8b 47 89 3d
       -0.031077579 0.015065193 -0.039866198 0.06703099
000250 fd fa 6e bd be 70 02 bc b0 95 e2 bb 6c ab a2 bd
       -0.05834483 -0.00796145 -0.006914817 -0.079428524
000260 70 50 0f bc 67 f6 ad 3d d0 44 1c bd 60 86 17 3c
       -0.008747205 0.08494263 -0.038151562 0.009248346
000270 07 c2 92 3d b6 dd 19 bd 71 03 3e bc 72 1b a3 bd
       0.07165914 -0.037564956 -0.0115975 -0.07964219
000280 c2 e5 fb ba b0 98 b3 3d b9 34 fc 3c e9 08 13 bc
       -0.0019218253 0.08769357 0.030786859 -0.008974292
000290 fe ff 2b 3d 61 9d bf bc 78 cb 60 3d ef 83 ab 3d
       0.04199218 -0.023390474 0.054881543 0.08374774
0002a0 31 71 9c 3d fc a5 87 3a f9 e5 7c bd 47 12 12 bd
       0.07638777 0.001034915 -0.061742757 -0.035661962
0002b0 0d 93 b4 bd 43 7e d4 3c c6 87 03 bc bd 86 80 bc
       -0.0881711 0.025939113 -0.008027976 -0.015689248
0002c0 1a 0c 0a 3d 66 e0 98 3d 20 e9 ab bd c6 96 25 bc
       0.033702947 0.074646756 -0.083940744 -0.010106748
0002d0 6a bd e4 bd a8 8b d2 bc 62 2e 84 bd 6e aa f0 bc
       -0.1116894 -0.025701359 -0.06454159 -0.029378142
0002e0 8c 98 d5 bb 78 9a d9 3d 51 b7 04 bd 8a 43 ae 3d
       -0.006518429 0.10625166 -0.032401387 0.08508976
0002f0 d1 15 ed 3c f8 ac 6c bd 20 80 1c bd 18 1b 5e 3d
       0.028941067 -0.057782143 -0.038208127 0.054225057
000300 9b 95 a7 bc 52 dd 02 3d 8e eb a8 bc 8e 69 95 3c
       -0.02045708 0.03194935 -0.020620134 0.018238809
000310 5e a6 96 bd ab 0f c3 3c 91 aa 85 bd 8b c9 a8 3d
       -0.07355951 0.023811182 -0.065266736 0.08241566
000320 1f d5 5b 3c cd e6 38 3d 59 fe 9a 3d 7e 10 92 3c
       0.013417511 0.045141984 0.07568044 0.01783013
000330 49 56 71 3d 72 03 c1 3d 1f b2 59 b9 0a 89 5e 3d
       0.05892018 0.09424485 -0.00020761088 0.05432991
000340 30 21 b3 3c b8 74 63 3d 9b c6 13 bc 86 ff de bd
       0.021866411 0.055531234 -0.009019519 -0.10888581
000350 b8 89 ea bc 31 62 7b bc a2 11 02 3d f5 33 c3 bd
       -0.028630123 -0.015343235 0.031755097 -0.095313944
000360 cf 63 e1 bc 95 31 ce 3c 7b 7f be 3d c9 56 27 3d
       -0.027513413 0.025170127 0.09301659 0.04085425
000370 1b 05 9f 3c 98 db 38 bd b1 6a 2c 3c f1 a6 7c 3d
       0.019411614 -0.045131296 0.010523484 0.061682645
000380 79 69 99 3d 3b 3d 6c bd b1 e5 b6 3d 4d 4a f8 bc
       0.074908204 -0.05767558 0.08930529 -0.030308867
000390 f2 b0 ba bd 73 80 5d 3d f2 3b 2c 3d 72 9d 21 3d
       -0.09115781 0.054077577 0.042049356 0.039456792
0003a0 8d af 74 3d 49 ee 5a 3d 25 e4 8c bc 38 42 90 3d
       0.05973773 0.053449903 -0.017198632 0.0704388
0003b0 f4 d6 9e bd 0c 8a 7f 3c eb e2 e2 3c 45 34 8a 3d
       -0.07755843 0.015596878 0.027696094 0.06748251
0003c0 34 8b 3f bd f3 da 6c 3d d4 00 c6 3d 16 fc ad bd
       -0.046763614 0.057825994 0.09668127 -0.08495347
0003d0 d9 2e 17 3a 42 20 32 3d 47 2e d9 bd 36 56 9b 3d
       0.0005767174 0.043487795 -0.1060453 0.07584803
0003e0 b8 92 81 bd 83 b4 d8 3c 49 0f d3 3c 44 a9 be bd
       -0.063268125 0.026453262 0.025764124 -0.093096286
0003f0 20 ab 86 3c 69 83 83 3d 34 fe a2 3c bc a9 c9 b6
       0.01643902 0.06421549 0.019896604 -6.0100265e-06

encoder.graph_embed.GCN_layers.0.linear.bias f4 [128]
000000 e5 cc b6 bd ff b4 03 3c cb b0 2f 3c 1f 97 ca 3b
       -0.08925799 0.008038758 0.010723303 0.006182566
000010 b5 ce 9d bd 30 7e 85 bc 8e 91 1e bd 74 6f 5c bd
       -0.07705442 -0.016295522 -0.03871303 -0.053817227
000020 06 4a 2b bc 3e 6e e9 bb b3 a7 f8 3c a1 c3 85 3c
       -0.01045466 -0.0071237376 0.030353403 0.016328635
000030 cd be fa 3c db 3d 93 bb fc da 32 3d 9b 10 f3 3c
       0.030608559 -0.0044934577 0.04366587 0.029671004
000040 2b 32 f4 3c 7e 0d c3 3d d4 82 9c 3c 8f 6f 2f bd
       0.029809078 0.09524058 0.019105352 -0.042831
000050 a3 0c bb 3c 22 33 61 3d 99 68 86 bc 8d 2c a0 bc
       0.022833174 0.054980405 -0.016407298 -0.019552493
000060 63 42 b5 39 5c 97 24 3d c0 a1 88 bb 1a ef ba 39
       0.00034572472 0.04018341 -0.0041696727 0.0003565483
000070 52 64 9d bd 92 f5 a8 3c bf 08 89 bd 86 bc 3f bd
       -0.0768515 0.02062491 -0.06691121 -0.04681065
000080 08 3e 19 bd f4 68 28 bd f9 30 22 bd 1a 57 56 3d
       -0.037412673 -0.041115716 -0.039597485 0.05232916
000090 6b 09 dc 3c 50 e5 91 3d 10 0d c4 bb da db 5e bd
       0.02685996 0.07123816 -0.0059830025 -0.054408886
0000a0 a0 5f a2 3c 0a b1 7f 3d df b5 b2 bb 94 ec 86 bd
       0.019820988 0.062424697 -0.0054538096 -0.065880924
0000b0 08 b2 8f 3d db f8 ac 3c b1 f4 93 39 c1 7a 63 3d
       0.07016379 0.021114757 0.00028220334 0.05553699
0000c0 13 94 9e 39 da ec 50 3c b8 19 94 bc 27 15 0d bd
       0.00030246432 0.012751782 -0.01807867 -0.034444
0000d0 e7 62 a8 bc b7 94 db bb 5d 00 29 3d 24 21 ff bc
       -0.020554973 -0.006701078 0.041260112 -0.031143732
0000e0 5b 1e 34 bd a2 3a d9 3b ef 4d 61 bc 85 b7 52 3d
       -0.04397426 0.006629304 -0.013751491 0.05144455
0000f0 92 e4 06 bd b2 fb a7 3c 93 6c e8 bc e1 56 70 3d
       -0.032932825 0.02050576 -0.028372085 0.058676604
000100 16 fd 9d bd a8 d9 6b bd b4 52 0d bc 7e 51 10 bd
       -0.07714288 -0.05758062 -0.008625675 -0.035233967
000110 fe 81 23 bd 9b 4d 45 3d 0e 7c 03 ba c0 99 0f bd
       -0.039918892 0.048169713 -0.0005015739 -0.035058737
000120 f7 f0 ad 3c f5 ce 73 bd 22 48 f1 bc 7e 35 05 3d
       0.021233065 -0.05952354 -0.02945334 0.032521717
000130 d9 55 2f 3d 95 83 ee 3c 6f 3f f3 3c 29 61 76 bc
       0.04280648 0.029115478 0.029693333 -0.015037813
000140 01 a4 2e 3c 5c 8c 73 bc 0e a2 b6 3c da cf 64 3d
       0.010659219 -0.014865007 0.02229407 0.055862285
000150 bc cd 74 bd 9a 42 28 3c 93 e9 40 3d 20 87 04 bd
       -0.059766516 0.010269785 0.047097754 -0.032355428
000160 4e a6 2f bd 40 9e ba 3d 62 3d 55 bd 2e f0 64 bb
       -0.04288321 0.09112215 -0.052060492 -0.0034933197
000170 a6 ae 4d bd 68 be 89 3d af c6 e8 3b e5 f4 30 bd
       -0.050215386 0.0672577 0.007103763 -0.0432023
000180 55 c5 2e 3d fb d5 4b 3d 49 58 74 bd 1d 84 fd 3c
       0.04266866 0.049764615 -0.059654508 0.030946786
000190 61 80 cb bc e6 50 00 bd 4b 81 cf 3c fc a8 6e bd
       -0.02484149 -0.03132715 0.025330206 -0.058266625
0001a0 85 8d 48 3c 38 31 2c bd af 37 04 3d 61 28 0a 3d
       0.012240772 -0.042039126 0.032279667 0.033729915
0001b0 01 7d 01 3c ea e8 ec 3b 4b 4d 9a 3d 76 20 20 bd
       0.007903338 0.007229914 0.07534274 -0.039093457
0001c0 6c c1 4b bd 93 66 48 3d 52 d8 63 bd 8f e8 ff bb
       -0.04974501 0.048925947 -0.05562622 -0.0078097056
0001d0 12 bb 59 bd 72 f6 04 bd f0 af 8b bd 6e ad 80 bd
       -0.05315692 -0.03246159 -0.06820667 -0.06283079
0001e0 b5 98 bc bc d6 ec 27 bd cb ff c8 3c 90 72 9a 3d
       -0.023022035 -0.04099735 0.024536034 0.07541382
0001f0 fb d6 43 bb 13 da 5a bc 41 2a da bc 01 d9 2f bd
       -0.0029882777 -0.013357657 -0.026631476 -0.04293156

encoder.pos_enc.pe f4 [500, 128]
000000 00 00 00 00 00 00 80 3f 00 00 00 00 00 00 80 3f
       0.0 1.0 0.0 1.0
000010 00 00 00 00 00 00 80 3f 00 00 00 00 00 00 80 3f
       0.0 1.0 0.0 1.0
000020 00 00 00 00 00 00 80 3f 00 00 00 00 00 00 80 3f
       0.0 1.0 0.0 1.0
000030 00 00 00 00 00 00 80 3f 00 00 00 00 00 00 80 3f
       0.0 1.0 0.0 1.0
000040 00 00 00 00 00 00 80 3f 00 00 00 00 00 00 80 3f
       0.0 1.0 0.0 1.0
000050 00 00 00 00 00 00 80 3f 00 00 00 00 00 00 80 3f
       0.0 1.0 0.0 1.0
000060 00 00 00 00 00 00 80 3f 00 00 00 00 00 00 80 3f
       0.0 1.0 0.0 1.0
000070 00 00 00 00 00 00 80 3f 00 00 00 00 00 00 80 3f
       0.0 1.0 0.0 1.0
000080 00 00 00 00 00 00 80 3f 00 00 00 00 00 00 80 3f
       0.0 1.0 0.0 1.0
000090 00 00 00 00 00 00 80 3f 00 00 00 00 00 00 80 3f
       0.0 1.0 0.0 1.0
0000a0 00 00 00 00 00 00 80 3f 00 00 00 00 00 00 80 3f
       0.0 1.0 0.0 1.0
0000b0 00 00 00 00 00 00 80 3f 00 00 00 00 00 00 80 3f
       0.0 1.0 0.0 1.0
0000c0 00 00 00 00 00 00 80 3f 00 00 00 00 00 00 80 3f
       0.0 1.0 0.0 1.0
0000d0 00 00 00 00 00 00 80 3f 00 00 00 00 00 00 80 3f
       0.0 1.0 0.0 1.0
0000e0 00 00 00 00 00 00 80 3f 00 00 00 00 00 00 80 3f
       0.0 1.0 0.0 1.0
0000f0 00 00 00 00 00 00 80 3f 00 00 00 00 00 00 80 3f
       0.0 1.0 0.0 1.0
000100 00 00 00 00 00 00 80 3f 00 00 00 00 00 00 80 3f
       0.0 1.0 0.0 1.0
000110 00 00 00 00 00 00 80 3f 00 00 00 00 00 00 80 3f
       0.0 1.0 0.0 1.0
000120 00 00 00 00 00 00 80 3f 00 00 00 00 00 00 80 3f
       0.0 1.0 0.0 1.0
000130 00 00 00 00 00 00 80 3f 00 00 00 00 00 00 80 3f
       0.0 1.0 0.0 1.0
000140 00 00 00 00 00 00 80 3f 00 00 00 00 00 00 80 3f
       0.0 1.0 0.0 1.0
000150 00 00 00 00 00 00 80 3f 00 00 00 00 00 00 80 3f
       0.0 1.0 0.0 1.0
000160 00 00 00 00 00 00 80 3f 00 00 00 00 00 00 80 3f
       0.0 1.0 0.0 1.0
000170 00 00 00 00 00 00 80 3f 00 00 00 00 00 00 80 3f
       0.0 1.0 0.0 1.0
000180 00 00 00 00 00 00 80 3f 00 00 00 00 00 00 80 3f
       0.0 1.0 0.0 1.0
000190 00 00 00 00 00 00 80 3f 00 00 00 00 00 00 80 3f
       0.0 1.0 0.0 1.0
0001a0 00 00 00 00 00 00 80 3f 00 00 00 00 00 00 80 3f
       0.0 1.0 0.0 1.0
0001b0 00 00 00 00 00 00 80 3f 00 00 00 00 00 00 80 3f
       0.0 1.0 0.0 1.0
0001c0 00 00 00 00 00 00 80 3f 00 00 00 00 00 00 80 3f
       0.0 1.0 0.0 1.0
0001d0 00 00 00 00 00 00 80 3f 00 00 00 00 00 00 80 3f
       0.0 1.0 0.0 1.0
0001e0 00 00 00 00 00 00 80 3f 00 00 00 00 00 00 80 3f
       0.0 1.0 0.0 1.0
0001f0 00 00 00 00 00 00 80 3f 00 00 00 00 00 00 80 3f
       0.0 1.0 0.0 1.0
000200 a4 6a 57 3f 41 51 0a 3f 1c 00 43 3f 28 dd 25 3f
       0.84147096 0.54030234 0.7617204 0.6479058
000210 ce 7a 2e 3f b0 54 3b 3f 3a cd 1a 3f aa e4 4b 3f
       0.68156135 0.731761 0.604694 0.7964579
000220 ba 7d 08 3f 0d 94 58 3f e3 96 ef 3e d5 3d 62 3f
       0.53316844 0.8460091 0.46794805 0.883756
000230 f0 90 d1 3e c7 92 69 3f 61 d7 b6 3e a9 1e 6f 3f
       0.4093089 0.9123959 0.35711196 0.9340616
000240 3e 39 9f 3e 6b 4e 73 3f 17 76 8a 3e 11 76 76 3f
       0.3109836 0.9504153 0.2704322 0.96273905
000250 25 8f 70 3e f1 d5 78 3f 61 ce 50 3e 09 9f 7a 3f
       0.23492105 0.9720145 0.20391227 0.9789892
000260 3a 23 35 3e 83 f6 7b 3f e3 10 1d 3e 7c f8 7c 3f
       0.17689219 0.9842302 0.15338473 0.9881666
000270 f3 25 08 3e 28 ba 7d 3f 5c f9 eb 3d 84 4b 7e 3f
       0.13295726 0.99112177 0.11522171 0.9933398
000280 76 75 cc 3d 98 b8 7e 3f bf 20 b1 3d 6e 0a 7f 3f
       0.099833414 0.9950042 0.08648824 0.9962529
000290 36 6f 99 3d d1 47 7f 3f 60 e6 84 3d de 75 7f 3f
       0.07491915 0.9971896 0.06489253 0.99789226
0002a0 ae 36 66 3d 68 98 7f 3f 12 62 47 3d 4f b2 7f 3f
       0.05620449 0.9984193 0.04867751 0.9988145
0002b0 fa ac 2c 3d bd c5 7f 3f c5 8a 15 3d 4f d4 7f 3f
       0.04215715 0.999111 0.036509294 0.9993333
0002c0 5b 81 01 3d 3c df 7f 3f a4 4d e0 3c 6e e7 7f 3f
       0.031617504 0.99950004 0.027380772 0.9996251
0002d0 a5 3e c2 3c 93 ed 7f 3f 82 36 a8 3c 2f f2 7f 3f
       0.023711512 0.99971884 0.020533804 0.9997892
0002e0 42 ab 91 3c a3 f5 7f 3f a3 4a 7c 3c 3b f8 7f 3f
       0.017781857 0.99984187 0.015398654 0.99988145
0002f0 49 7a 5a 3c 2c fa 7f 3f fa 31 3d 3c a1 fb 7f 3f
       0.013334819 0.99991107 0.01154756 0.9999333
000300 57 d6 23 3c b9 fc 7f 3f ba e0 0d 3c 8b fd 7f 3f
       0.009999833 0.99995 0.008659536 0.9999625
000310 16 b9 f5 3b 28 fe 7f 3f b3 c9 d4 3b 9e fe 7f 3f
       0.0074988706 0.99997187 0.006493771 0.9999789
000320 5a 44 b8 3b f7 fe 7f 3f a3 91 9f 3b 39 ff 7f 3f
       0.0056233825 0.9999842 0.004869656 0.99998814
000330 5a 2e 8a 3b 6b ff 7f 3f e9 51 6f 3b 90 ff 7f 3f
       0.0042169513 0.9999911 0.0036517328 0.9999933
000340 1c 3e 4f 3b ac ff 7f 3f fe 76 33 3b c1 ff 7f 3f
       0.0031622713 0.999995 0.0027384157 0.99999624
000350 03 69 1b 3b d1 ff 7f 3f 67 94 06 3b dd ff 7f 3f
       0.0023713715 0.9999972 0.0020535232 0.9999979
000360 20 15 e9 3a e6 ff 7f 3f 54 d7 c9 3a ec ff 7f 3f
       0.0017782785 0.99999845 0.0015399256 0.9999988
000370 8a c9 ae 3a f1 ff 7f 3f 09 5c 97 3a f5 ff 7f 3f
       0.001333521 0.9999991 0.0011547814 0.99999934
000380 6d 12 83 3a f8 ff 7f 3f e2 01 63 3a fa ff 7f 3f
       0.0009999998 0.9999995 0.00086596434 0.99999964
000390 89 94 44 3a fb ff 7f 3f 43 3b 2a 3a fd ff 7f 3f
       0.000749894 0.9999997 0.0006493816 0.9999998
0003a0 13 6a 13 3a fd ff 7f 3f ab 4f ff 39 fe ff 7f 3f
       0.0005623411 0.9999998 0.00048696747 0.9999999
0003b0 21 17 dd 39 ff ff 7f 3f d7 74 bf 39 ff ff 7f 3f
       0.00042169637 0.99999994 0.0003651741 0.99999994
0003c0 61 cb a5 39 ff ff 7f 3f 75 92 8f 39 ff ff 7f 3f
       0.00031622782 0.99999994 0.00027384204 0.99999994
0003d0 0d a8 78 39 00 00 80 3f e2 53 57 39 00 00 80 3f
       0.00023713727 1.0 0.00020535247 1.0
0003e0 53 77 3a 39 00 00 80 3f 19 79 21 39 00 00 80 3f
       0.00017782794 1.0 0.00015399269 1.0
0003f0 6d d4 0b 39 00 00 80 3f dd 2c f2 38 00 00 80 3f
       0.00013335208 1.0 0.00011547816 1.0
