experiments/model_32_60_2026-01-17_5503/model.pt (torch, 93423 bytes, 18 tensors)

encoder.graph_embed.GCN_in.A f4 [9, 9]
00000000: 146b 10bf 35a3 a9be ba58 acbf 42bb aebe
00000010: 7f34 8dbf 1bfa 1a3f 3beb 99bf f536 adbf
00000020: f6bd 6fbf 7a94 88bf 3e63 4d3f 77de 74be
00000030: 719c 153f 004d fc3e 910b eebf db83 c03f
00000040: 9482 4a3f e977 05be 2419 b83f c05b 0040
00000050: 24b8 e1bf 8a86 36bf 8cd0 7bbe faa7 7a3f
00000060: fb28 1abf 878b 07c0 34e3 1dbf db89 193e
00000070: e732 00bf 3d47 48bd 1349 8abf e704 7f3e
00000080: a777 5d3f ff8a 91bf 53b6 713f e072 9ebf
00000090: bca7 b83d e27b 12c0 329c 85be cc11 9b3e
000000a0: 3556 1ebe ccc4 cfbe 41eb 803d 19af 8ebf
000000b0: 2e56 fc3e 7326 b0bf 718a 46bf 47be 27be
000000c0: a97d 11bf adfa 8dbf 3c44 9bbf 618b 20bf
000000d0: 1942 693e f16e 47be d0c0 373f bf15 373f
000000e0: 3c3b dc3f ed35 7ebf a35f 9b3c c450 bc3f
000000f0: b9f0 8abe 8f82 07be 97e0 76bf 43ec 2a40
00000100: d8ba 14c0 a138 eb3e 0c54 ef3e 12fe b1bf
00000110: 7cfa d93e 69ff 7bbe f0e7 363f 3b3e bfbf
00000120: a325 8ebe 87d6 40bd 7d25 1fbf 7085 fc3e
00000130: 79c1 ac3d 8d14 c6bf ea78 81bf 25ff 10c0
00000140: e4dc ba3f
-0.5641339 -0.3313233 -1.3464577 -0.3412724 -1.1031646 0.6053788 -1.2024912 -1.3532397
-0.9364923 -1.0670311 0.80229557 -0.23912989 0.58441836 0.49277496 -1.859728 1.5040239
0.79105496 -0.13034023 1.4382672 2.0056 -1.763432 -0.7129904 -0.24591273 0.9791256
-0.6021878 -2.117891 -0.6167481 0.14993994 -0.5007767 -0.048896063 -1.080355 0.24904214
0.865107 -1.1370543 0.9441883 -1.2378807 0.09016368 -2.2888112 -0.2609573 0.30287015
-0.15462573 -0.40579832 0.06294871 -1.1147186 0.492845 -1.3761734 -0.77554995 -0.16381179
-0.5683237 -1.1092125 -1.2130198 -0.62712675 0.2277912 -0.19475915 0.71778584 0.71517557
1.7205577 -0.99301034 0.018966502 1.4712148 -0.27136782 -0.13233398 -0.96436447 2.6706703
-2.323904 0.45941642 0.4674381 -1.3905661 0.42573917 -0.2460915 0.7144766 -1.4940866
-0.2776309 -0.04707959 -0.6216658 0.49320555 0.084353395 -1.5475022 -1.0115025 -2.2655728
1.459866

encoder.graph_embed.GCN_in.linear.weight f4 [32, 16]
00000000: d1ad 5a3e d629 d3bd 0a8a 403e a1ad c6bd
00000010: a416 403d 1021 47bd 2889 91bd 56fe c5bd
00000020: 483f a93d b543 403d 3a1f d23c e09e 34be
00000030: 0d86 02be 3e53 f33d 255e bcbc 7d23 773e
00000040: c1e3 54be 6b34 d03d a8ec fb3d bac1 473d
00000050: 4334 72bd 3c8b 5cbd 7e2e cbbd 831b cf3d
00000060: 6ce8 20be dcbe 4ebd 5392 4c3d fd87 64be
00000070: d0bb 1bbe f4ff 263d 3c3f b63d 2ad2 6f3e
00000080: fd6b a7bb 04e7 213e a58e 8dbc 127c 143e
00000090: 2c15 263e c6e6 50bd f3c2 7f3e d387 28bd
000000a0: b33b 043e 7781 7ebc 7708 fc3d 354b 41be
000000b0: 44aa e93b d82a 363e 308b 3a3d 2744 30bd
000000c0: 02d5 933e 01bb 693e 410c 74bd 3756 1ebe
000000d0: 4978 703d c2b7 cc3c b4bd 18be 7472 7b3e
000000e0: fa4c 2abe 2ee1 5abd 5e07 9abe 81bd bd3c
000000f0: c996 e7bc 797d 8fbb b005 1d3d bd3b e7bd
00000100: 9b94 fb3d aa1a 64be db99 95bd deb0 33be
00000110: 82c2 f23d 44b7 5f3d 0cd3 a63d f80f 493e
00000120: 6d1a 003e bb2d 3abe f8b3 ccbd 17dc cfbd
00000130: 83cf 0f3e 49c8 c43d 636a 02be d984 babd
00000140: 0de3 65be 426a 08be 10f2 30be e260 05be
00000150: 6c3e 00bd eff9 e33c e266 e7bd 7416 57be
00000160: e020 fc3c e770 28bb a872 9e3b aa7c 50be
00000170: 63f7 793b 1c08 15be 5989 b3bd 60d0 9c3d
00000180: 0eae a93d 6c59 4ebe 6009 8fbd caf4 523e
00000190: 7277 9e3d 10c9 8b3d b320 cf3d ff77 723e
000001a0: 9569 3ebe 932b 20bd 2e81 153e f9ab 2a3e
000001b0: 441a f83d 15bf 4e3a 5a68 5ebe 0674 bf3d
000001c0: be05 a73d 708d d23d 8255 56be d87e 6fbd
000001d0: 1588 7cbd ee68 dd3d 49ad f8bc cdf2 1a3e
000001e0: b295 b23b a0c3 db3c bc1c 5cbe 6858 b6bd
000001f0: 6937 b5bd 26d4 c6bd 8053 adbd 5c08 2dbe
00000200: 7d19 33be 6d17 923e 17f7 79be 4c35 a73c
00000210: a847 7cbc 7112 acbd aeba ce3d 6441 ae3d
00000220: 2733 6d3b 3392 a3bd f206 453d e3bf 26be
00000230: b0d9 983d 8f81 f73d 6174 b13d 3389 7cbd
00000240: 7b82 82be 9ebc 583e 870e 36be a21d 273e
00000250: 6ffc ab3d e28b f9bd 4eb5 fcbd a794 afbd
00000260: e698 14be f929 cebd b172 a33c 6729 17be
00000270: 4945 993e 0262 62be 5189 44bc aff0 f83d
00000280: feb1 223d cd7c eebd dcc0 f93c 4b13 c13b
00000290: 9ee3 723e cbe1 253d 0035 993c 4b08 0a3e
000002a0: f3ff 8d3d f720 34be 75ac bbbd 7ae5 333e
000002b0: e579 a0bd 961b 923a 4e3d 013e 1d15 453d
000002c0: 1bd5 24be 184c e4bd 93a9 16be 8c1d eebd
000002d0: ab81 18be 7820 cabd f5b6 b6bd 4e2c 16bd
000002e0: 5d97 1cbe a83b f8bd 004a 46be 04af 2bbe
000002f0: 53fb 2d3e c6ac d8bb 5647 35be fabe 36be
00000300: c538 3dbe f8f9 4b3e 4ce3 d13d ef04 4e3e
00000310: 78ca ffbd 83f9 fabc e4a3 3c3e 3690 533e
00000320: b22a 1abe 1317 8d3b 729c cfbc d901 24be
00000330: 541f 22be d5b5 2fbd 3adb 183d ef55 2dbd
00000340: 670e 483e 373b ca3d 67d9 08be b6ad 51bd
00000350: d162 863e 39ed 253e 7163 7dbd 1654 4a3d
00000360: 96db 19be 7dd8 bc3d 26fd e13d 1026 653e
00000370: a218 d13d 0fdc bdbc 3d76 59be 4eae 8f3d
00000380: 5731 d2bd b16c 2d3c 7475 6bbe 66ab 69be
00000390: 4fee 14be 589e 44be 61c9 d5bc 6199 293e
000003a0: 2c0b c9bd 1f20 0bbe 07f3 41be 15ff b63d
000003b0: d2fa f6bd b04d d4bd f7c4 d1bd 4a45 823c
000003c0: e028 eb3d 480c 3ebe a239 59bd 8b9e 5abe
000003d0: 920e b83c e34e 8b3e 37b1 37be 9729 c7bd
000003e0: e7ed ec3d f484 22be bc1d 623e f371 70be
000003f0: d84c 653d ac93 d5bd 92a4 1bbe d246 fbbb
0.21355368 -0.10310714 0.18802658 -0.09701086 0.04689659 -0.048615515 -0.071062386 -0.09667651
0.08264023 0.04693957 0.025649656 -0.17638731 -0.12746449 0.118811116 -0.02299411 0.24134631
-0.20790006 0.10166248 0.12300998 0.048768736 -0.059131872 -0.05384372 -0.09920977 0.10112669
-0.15713662 -0.050474986 0.049944233 -0.223175 -0.15208364 0.04077144 0.0889878 0.23420015
-0.0051093088 0.15810782 -0.017279932 0.14500454 0.16219014 -0.051001333 0.24976711 -0.041145157
0.12913398 -0.0155337965 0.12306302 -0.18876345 0.007130893 0.17789781 0.045542896 -0.043033745
0.2887345 0.22825243 -0.059582 -0.15462576 0.058708463 0.024989966 -0.14916116 0.24555379
-0.16630927 -0.053437404 -0.30083746 0.023161652 -0.028270142 -0.004378971 0.038335502 -0.11290691
0.122842036 -0.22275797 -0.07304736 -0.17547938 0.11853506 0.054618135 0.08145723 0.19634998
0.1251008 -0.18181507 -0.09995264 -0.10149401 0.14044003 0.09608514 -0.12735896 -0.0910737
-0.22449894 -0.13321784 -0.1727984 -0.13025239 -0.03130953 0.027829139 -0.1129892 -0.21004659
0.030777395 -0.002570206 0.0048354454 -0.20360056 0.0038141839 -0.14553875 -0.08766431 0.07656932
0.082851514 -0.20151299 -0.0698421 0.20601192 0.07737626 0.06825459 0.10113659 0.23678587
-0.18594964 -0.039104056 0.1460006 0.16667165 0.12114385 0.000788675 -0.21719494 0.093483016
0.08155392 0.10280883 -0.20931056 -0.058470577 -0.061653215 0.108110294 -0.030356066 0.15131684
0.005449974 0.02682668 -0.21495336 -0.08903581 -0.08848459 -0.09708433 -0.08463192 -0.1689772
-0.17490192 0.28533497 -0.24410664 0.020411156 -0.015397944 -0.08401955 0.100942 0.08508566
0.003619382 -0.0798687 0.048102327 -0.16284136 0.074633956 0.12085258 0.08664776 -0.06165428
-0.25490174 0.21165702 -0.17778979 0.16319898 0.08397757 -0.12184884 -0.123392686 -0.08573275
-0.14511451 -0.100665994 0.01995215 -0.14761887 0.29935673 -0.221077 -0.011995629 0.12155282
0.039720528 -0.116448976 0.03048747 0.0058921925 0.23719642 0.040498536 0.01870203 0.13479726
0.06933584 -0.175907 -0.09163753 0.17568007 -0.078357495 0.0011147137 0.12621042 0.04811584
-0.16096918 -0.11147326 -0.14713125 -0.11626729 -0.14893214 -0.09869474 -0.08921615 -0.036663346
-0.15292116 -0.121207535 -0.19364166 -0.16765982 0.16990404 -0.006612393 -0.17702994 -0.1784629
-0.18478687 0.19919574 0.102484316 0.2011907 -0.1248979 -0.030636555 0.18421894 0.20660481
-0.1505535 0.004305729 -0.025343154 -0.1601633 -0.15832263 -0.042898018 0.037318446 -0.04231828
0.19536744 0.098745756 -0.13364182 -0.051191054 0.26247266 0.16203775 -0.061862413 0.049396597
-0.15025172 0.09220979 0.11034612 0.22377801 0.102097765 -0.023176221 -0.2123651 0.07015668
-0.10263317 0.010584996 -0.22994024 -0.2281929 -0.14544033 -0.19201028 -0.026097002 0.16562416
-0.09816584 -0.13586472 -0.18940364 0.08935372 -0.12059559 -0.1036638 -0.10242646 0.01590218
0.11482406 -0.18559372 -0.05303348 -0.21349542 0.022467885 0.27208623 -0.17938696 -0.097247295
0.11568814 -0.1587103 0.22081655 -0.23480968 0.055981487 -0.10428557 -0.15199497 -0.0076683545

encoder.graph_embed.GCN_in.linear.bias f4 [32]
00000000: f474 f439 4d63 823d 5a7f b8bd ad23 a53d
00000010: ac79 9c3d 442e 593d 4608 073e 5b7a cfbd
00000020: 4cfe 18bc 545a 083e 5c31 f43d 21f4 e0bc
00000030: 0334 e2bd 45b5 79bd c56e 0dbe ec46 3ebe
00000040: 383a a4bd 16ed e7bd 1035 8c3b 180a 5ebe
00000050: 5a15 9b3a c64e 83bd ade7 2f3d f434 0ebd
00000060: 56ac 49be 39b5 513e 4e77 a13d f39f eebd
00000070: aa8a 08bd c7c4 c13d 1138 373b b95f 14be
0.00046626444 0.06366596 -0.090086654 0.08063445 0.076403946 0.053022638 0.1318675 -0.10130759
-0.009337973 0.13315707 0.11923477 -0.02746016 -0.11045077 -0.060963888 -0.13811786 -0.18581742
-0.08018917 -0.113245174 0.0042787865 -0.21683538 0.0011831925 -0.06411509 0.042945553 -0.03471847
-0.19694647 0.20479287 0.07884084 -0.11651602 -0.033335365 0.094613604 0.0027957002 -0.1448964

encoder.graph_embed.bn.weight f4 [32]
00000000: 30d1 763f b580 7f3f 0918 853f 9574 6c3f
00000010: 5f20 7d3f 89e8 833f 13e1 6e3f 065e 863f
00000020: f5cf 843f 226f 6c3f b8ad 7b3f 7b33 773f
00000030: 0702 793f 7089 813f c50e 733f 4e05 723f
00000040: 8e9b 843f 830b 6d3f 4431 7d3f 0d37 833f
00000050: ecbc 7b3f afee 683f ee57 823f 0495 7d3f
00000060: b5f4 7f3f dc44 803f 0425 753f f973 6e3f
00000070: 3424 713f fd71 7b3f aa2c 763f b474 763f
0.96412945 0.99805766 1.039796 0.9236539 0.9887752 1.0305339 0.93312186 1.0497444
1.0375963 0.92357075 0.9831195 0.9656293 0.9726872 1.0120068 0.9494441 0.94539344
1.0359972 0.9259569 0.989033 1.0251175 0.98335147 0.909892 1.0183084 0.99055505
0.9998277 1.0021014 0.95759606 0.9314571 0.94195867 0.9822081 0.961619 0.96271825

encoder.graph_embed.bn.bias f4 [32]
00000000: 820a 2cbd da41 29bd 9723 adbc f97e 7dbd
00000010: e7e2 143d 0774 aabc b409 d1bc df2c a0bb
00000020: 2d91 17bd efb2 7a3d 5615 343b 60d2 27bc
00000030: edee 303c b31a e7b7 39ee e6bb 777c 2c3d
00000040: f32f 6ebc 0574 ab3c 29ae af3b cb84 733b
00000050: 8f54 213d c548 2a3c 0503 f1bc 1d77 b03c
00000060: abba e33c abe2 713d 46f1 44bd 12bb b33c
00000070: 38f6 edbc da04 043d ec38 97bc ef70 d73c
-0.04200221 -0.041322567 -0.021135135 -0.06188867 0.036349203 -0.02080728 -0.025517322 -0.0048881616
-0.037003685 0.0612058 0.0027478538 -0.010243028 0.010799152 -2.7549779e-05 -0.0070474413 0.042110886
-0.014537799 0.020929346 0.0053613377 0.0037158008 0.039387282 0.010393326 -0.029420385 0.021541173
0.027798971 0.059054058 -0.04808166 0.021939788 -0.02904807 0.03223119 -0.01845976 0.026298968

encoder.graph_embed.bn.running_mean f4 [32]
00000000: 175c 5a3e 0148 013e 5246 acba a4c5 2bbd
00000010: 823f 073e b86f 003d d1f6 aa3e 526e cebd
00000020: 2d90 cfbd 70ab c5bc a863 2abb d0d3 f4ba
00000030: 9872 313d 9f49 b33d 445b 60bd dae9 9f3d
00000040: f123 893c 9cd0 f8bd 35bc bf3c d98c bbbd
00000050: 99b3 eebd 7c87 d9bd 0e54 2f3e d665 cbbd
00000060: a4d0 f7bd 7e1c 483e d5fe 613d 079b d23c
00000070: 39bf dcbd 989a d9bc 388e 7e3d ca67 8e3c
0.21324192 0.12625124 -0.0013143516 -0.04193653 0.1320782 0.031356543 0.3339143 -0.10079636
-0.10134921 -0.0241296 -0.002599934 -0.0018678848 0.043322176 0.087542765 -0.054774538 0.078082755
0.016740771 -0.12149164 0.023405174 -0.09157724 -0.11655349 -0.10621545 0.17121908 -0.09931533
-0.12100342 0.19542119 0.055174667 0.025708688 -0.1077866 -0.026562974 0.06214735 0.017383475

encoder.graph_embed.bn.running_var f4 [32]
00000000: 1900 213d b80f 2f3d 96e2 0b3d 1b91 653d
00000010: a68f 403d 86ef 213d 8fb8 b53d 1a39 6c3c
00000020: c59e 5b3c dc13 063d c3dd c93c 2a78 d03c
00000030: 20bb 073d cd5f 423d 6da8 9c3c 5da2 5f3d
00000040: 1649 b83c db8b 883c c473 7d3c 2722 063d
00000050: 494a 7d3c cd4f 253c 07b4 4f3d f613 733c
00000060: 579c 693c 7d22 c33d 1c74 e53c 0816 d63c
00000070: ac15 813c 1a33 993c 5e61 813c 7aae 8c3c
0.039306734 0.0427396 0.034151636 0.056046586 0.047011994 0.039535068 0.088730924 0.014417911
0.013404553 0.032733783 0.024641877 0.025447924 0.03313744 0.047454644 0.01912328 0.0545982
0.022495788 0.01666825 0.015469495 0.032747414 0.0154596055 0.010089827 0.050708797 0.014836302
0.014258466 0.095280625 0.028009467 0.026133552 0.015757404 0.018701125 0.015793499 0.01717304

encoder.pos_enc.pe f4 [500, 32]
00000000: 0000 0000 0000 803f 0000 0000 0000 803f
00000010: 0000 0000 0000 803f 0000 0000 0000 803f
00000020: 0000 0000 0000 803f 0000 0000 0000 803f
00000030: 0000 0000 0000 803f 0000 0000 0000 803f
00000040: 0000 0000 0000 803f 0000 0000 0000 803f
00000050: 0000 0000 0000 803f 0000 0000 0000 803f
00000060: 0000 0000 0000 803f 0000 0000 0000 803f
00000070: 0000 0000 0000 803f 0000 0000 0000 803f
00000080: a46a 573f 4151 0a3f ba7d 083f 0d94 583f
00000090: 3e39 9f3e 6b4e 733f 3a23 353e 83f6 7b3f
000000a0: 7675 cc3d 98b8 7e3f ae36 663d 6898 7f3f
000000b0: 5b81 013d 3cdf 7f3f 42ab 913c a3f5 7f3f
000000c0: 57d6 233c b9fc 7f3f 5a44 b83b f7fe 7f3f
000000d0: 1c3e 4f3b acff 7f3f 2015 e93a e6ff 7f3f
000000e0: 6d12 833a f8ff 7f3f 136a 133a fdff 7f3f
000000f0: 61cb a539 ffff 7f3f 5377 3a39 0000 803f
00000100: b7c7 683f 3311 d5be 0af2 663f b2e8 dc3e
00000110: 1b54 173f ec7b 4e3f f647 b23e a6fa 6f3f
00000120: f86f 4b3e a5e5 7a3f 86d9 e53d f361 7e3f
00000130: c870 813d f97c 7f3f 5ca5 113d 8ed6 7f3f
00000140: 3ed4 a33c e5f2 7f3f 9b43 383c dbfb 7f3f
00000150: d83d cf3b b1fe 7f3f 0815 693b 96ff 7f3f
00000160: 6812 033b dfff 7f3f 126a 933a f5ff 7f3f
00000170: 60cb 253a fdff 7f3f 5377 ba39 ffff 7f3f
00000180: c381 103e 2670 7dbf d745 7e3f ab7f edbd
00000190: c209 503f 582f 153f 6c2f 023f 296d 5c3f
000001a0: 6c4e 973e ef90 743f d7ee 2b3e 9e5d 7c3f
000001b0: c0ff c13d 4fd9 7e3f 4e69 5a3d c3a2 7f3f
000001c0: 1fb9 f53c 83e2 7f3f c631 8a3c adf6 7f3f
000001d0: 0d6e 1b3c 0dfd 7f3f a8cf ae3b 11ff 7f3f
000001e0: 929b 443b b5ff 7f3f 171f dd3a e8ff 7f3f
000001f0: 10b1 783a f9ff 7f3f 7ed9 0b3a feff 7f3f
00000200: cfbd 41bf 3055 27bf ec49 473f 9eaf 20bf
00000210: de1d 743f b12e 9a3e bc1f 273f edeb 413f
00000220: d761 c73e a7ca 6b3f c565 643e 098d 793f
00000230: 882e 013e 69f4 7d3f c88d 913d 465a 7f3f
00000240: dbcb 233d 94cb 7f3f a040 b83c 6cef 7f3f
00000250: c93c 4f3c c2fa 7f3f a714 e93b 58fe 7f3f
00000260: 5712 833b 7aff 7f3f 0c6a 133b d6ff 7f3f
00000270: 5ecb a53a f3ff 7f3f 5277 3a3a fcff 7f3f
00000280: 107c 75bf 2c3c 913e d8da a53e 4032 72bf
00000290: 7ffc 7f3f e972 29bc abca 463f f14c 213f
000002a0: 4377 f53e 40a9 603f ed11 8e3e 7cf2 753f
000002b0: 1d3c 213e 81ce 7c3f 21db b53d 1efd 7e3f
000002c0: f4b6 4c3d 19ae 7f3f fb4d e63c 19e6 7f3f
000002d0: 7e85 813c cff7 7f3f bbac 113c 69fd 7f3f
000002e0: ddd6 a33b 2eff 7f3f 8944 383b beff 7f3f
000002f0: 333e cf3a ebff 7f3f 2615 693a f9ff 7f3f
00000300: 8c0f 8fbe b8cd 753f 76e5 6bbe 531d 79bf
00000310: 4e78 723f 6d3f a4be 8830 603f 352f f73e
00000320: 688c 103f 3249 533f fc7d a93e e290 713f
00000330: 6e20 413e e367 7b3f c219 da3d 518b 7e3f
00000340: d19c 753d 128a 7f3f be2c 0a3d b3da 7f3f
00000350: 436c 9b3c 34f4 7f3f 05cf 2e3c 45fc 7f3f
00000360: 589b c43b d2fe 7f3f 031f 5d3b a1ff 7f3f
00000370: 08b1 f83a e2ff 7f3f 7cd9 8b3a f7ff 7f3f
00000380: 4630 283f bdff 403f 70b6 36bf 5e4f 33bf
00000390: 6ee8 4c3f bc74 19bf 4484 723f baf8 a33e
000003a0: 72eb 243f b3cc 433f de60 c43e c66b 6c3f
000003b0: 50d3 603e eac0 793f ba46 fe3d e904 7e3f
000003c0: 323e 8f3d 815f 7f3f 5e31 213d 3bcd 7f3f
000003d0: a252 b53c f2ef 7f3f 2af1 4b3c ecfa 7f3f
000003e0: c55f e53b 65fe 7f3f bcfc 803b 7eff 7f3f
000003f0: ed11 113b d7ff 7f3f 6628 a33a f3ff 7f3f
0.0 1.0 0.0 1.0 0.0 1.0 0.0 1.0
0.0 1.0 0.0 1.0 0.0 1.0 0.0 1.0
0.0 1.0 0.0 1.0 0.0 1.0 0.0 1.0
0.0 1.0 0.0 1.0 0.0 1.0 0.0 1.0
0.84147096 0.54030234 0.53316844 0.8460091 0.3109836 0.9504153 0.17689219 0.9842302
0.099833414 0.9950042 0.05620449 0.9984193 0.031617504 0.99950004 0.017781857 0.99984187
0.009999833 0.99995 0.0056233825 0.9999842 0.0031622713 0.999995 0.0017782785 0.99999845
0.0009999998 0.9999995 0.0005623411 0.9999998 0.00031622782 0.99999994 0.00017782794 1.0
0.9092974 -0.41614684 0.9021307 0.43146282 0.5911271 0.8065784 0.34820527 0.93741834
0.19866931 0.9800666 0.1122313 0.9936821 0.063203394 0.9980007 0.03555809 0.9993676
0.019998666 0.9998 0.011246587 0.99993676 0.006324511 0.99998003 0.0035565514 0.9999937
0.0019999985 0.99999803 0.0011246821 0.99999934 0.0006324556 0.9999998 0.00035565588 0.99999994
0.14112 -0.9899925 0.9932532 -0.11596616 0.8126489 0.58275366 0.5085361 0.86104065
0.2955202 0.9553365 0.16790329 0.9858035 0.094726086 0.99550337 0.053323083 0.9985773
0.0299955 0.99955004 0.016869437 0.9998577 0.009486687 0.999955 0.005334813 0.99998575
0.0029999954 0.9999955 0.0016870227 0.99999857 0.00094868336 0.9999996 0.0005334838 0.9999999
-0.7568025 -0.6536436 0.7784717 -0.6276797 0.95358074 0.30113748 0.652828 0.7575062
0.38941833 0.921061 0.22304447 0.9748083 0.12615407 0.99201065 0.07107121 0.9974712
0.039989334 0.9992001 0.022491753 0.99974704 0.01264877 0.99992 0.0071130577 0.9999747
0.003999989 0.999992 0.0022493629 0.9999975 0.0012649109 0.9999992 0.0007113117 0.99999976
-0.9589243 0.2836622 0.32393527 -0.94607925 0.99994653 -0.010342338 0.77652997 0.6300803
0.47942552 0.87758255 0.2774805 0.96073127 0.15745588 0.987526 0.08879686 0.99604976
0.049979165 0.99875027 0.028113356 0.99960476 0.015810724 0.999875 0.00889128 0.9999605
0.004999979 0.9999875 0.0028117022 0.99999607 0.0015811383 0.99999875 0.0008891396 0.9999996
-0.2794155 0.96017027 -0.23036751 -0.9731037 0.9471482 -0.3207964 0.8757405 0.48278204
0.5646424 0.8253356 0.3310393 0.943617 0.18860027 0.98205394 0.10649444 0.9943133
0.059964005 0.99820054 0.033734076 0.99943084 0.018972522 0.99982 0.0106694745 0.9999431
0.0059999637 0.999982 0.0033740408 0.99999434 0.0018973658 0.9999982 0.0010669674 0.99999946
0.6569866 0.75390226 -0.7137213 -0.7004298 0.8004216 -0.5994375 0.9473307 0.320257
0.6442176 0.7648422 0.38355154 0.9235195 0.2195561 0.9755999 0.12415834 0.9922624
0.06994285 0.997551 0.03935372 0.9992253 0.022134129 0.999755 0.012447635 0.9999225
0.006999942 0.9999755 0.0039363783 0.99999225 0.0022135929 0.99999756 0.0012447953 0.9999992

encoder.transformer.in_proj_weight f4 [96, 32]
00000000: df02 e93d 6d22 72bd e7ae 7cbd d37c fc3d
00000010: b924 d83d 7efb 3e3e 7287 573d 9e4f b6bd
00000020: 52cd f9bd 1a8e 8d3d 4cb9 f7bd aba6 55be
00000030: f0eb 043c cb54 57be b351 d63d dcb8 543e
00000040: 6435 d03d 5915 c33d 0d7c 8ebe b937 58bd
00000050: 8481 ef3d 38ba 12be 3da4 7fbe bf76 013d
00000060: c653 1b3e 72a3 743e 7a43 1fbe 9999 883d
00000070: 7d8d 893d a869 fcbd 0923 a03c ba12 38bd
00000080: a7b4 993d 7fef f6bc 111e 4cbe b24c 223e
00000090: 1d50 95bd 78b3 56bd 384a f63d c7d3 99bd
000000a0: 8656 78bc aefe 533e 988f c03d ec1d c03c
000000b0: 9a74 3e3e 4306 f4bd 4e95 5f3d a54b 27be
000000c0: 597a 383c b867 5abe f379 4ebd a3a2 b8bc
000000d0: 1d46 333d 2600 ce3d d487 553e 84b4 71be
000000e0: 2533 42be 5b15 42bd 0e1e a3bd e83e 883d
000000f0: 944b f0bc fe9f f5bd 4856 27bd 8dee 1dbe
00000100: fe1f 053e c2af ffbd e70b 2e3d de55 883d
00000110: e663 803d d098 d7bd d099 683c c94d 0a3e
00000120: df35 a8bd c831 3fbe 80c1 0fbe fe8a da3d
00000130: 82cf be3d 4175 86bc b263 99bd 2cfb 03be
00000140: 9435 be3d b808 ffbd 2018 603e 1866 84be
00000150: 53b4 02be eafc 15be 0b5a 053e 43e8 89be
00000160: a3b9 503e be3a 12be a25a a63d 341d 5ebe
00000170: 1013 14be fc3a bdbd 3358 d63d 3957 2bbe
00000180: 6a89 33be 8395 3fbc e18b 3b3c 247b 583e
00000190: 95bf a53d 3e67 1dbe 9c13 42be c8e8 66bc
000001a0: 0835 61bd f0b5 733d b874 313e 6bef 2ebd
000001b0: 54eb 043c d0ed 533e e73d 72bd caff 373e
000001c0: 40f3 803d bb1e 83bd f7eb 1cbc 2863 243e
000001d0: da52 a83d c31f 233e 67d4 ea3d 83f3 ffbd
000001e0: 99e2 b03d 6be7 e93c 03e4 e6bd ec6b 653d
000001f0: f362 b3bc d65f 6a3e 2df9 4d3e f091 933d
00000200: 658c 883d c548 a5bd 4cb5 553e ce8e 52be
00000210: 6b9f 17bd 31b1 48bd 3c81 f53c ea43 04be
00000220: 5601 493d 684f 983c 5ecd 68be 2976 01be
00000230: d51b 26bc e916 0ebe f257 4d3e 83b6 25bd
00000240: 009b 69be 7705 ea3d 93c4 1dbe 2b65 62bc
00000250: 72c7 f2bd d8d5 ba3d 50be afbd 46d8 65be
00000260: 86d8 42be fa76 833d 0657 883d ac52 88bc
00000270: 56b4 f1bc a826 333d 34f8 75bd de12 2fbe
00000280: b3ff 7bbe 6499 4e3e 7f5b 02be ee59 28be
00000290: e5d4 8dbd c4c2 1c3e f002 0d3e a8e1 493e
000002a0: 0286 243e f74b 95bd 869d a8bd 2ee5 813c
000002b0: 4266 bfbd 475f 803e 6d6b 42be 6a3f 1d3c
000002c0: eb6a 083e 4f7a f4bd 3bcb dabd 3a33 e93d
000002d0: d228 18be 2f73 013e 2240 0f3e 77b9 7bbd
000002e0: 3ce1 333e 972f 18bc 70e6 23be 98cf d2bd
000002f0: 2128 a13d c6b7 13be fea9 1ebe 4634 10be
00000300: a092 17bd 902a 3f3e 893f 6c3e b3b2 213e
00000310: 7f4b 6abd 06c8 273e 329b e03d 1b0e 493e
00000320: d1f5 103e 6a05 3c3e 0b8e 2cbd 7603 5fbe
00000330: d589 08be 9d2a 133e 5cdb 9d3c ae92 a23d
00000340: af70 b83d 05e0 7dbe 20b1 7bbd 574b 19be
00000350: 2d4d c83d 0063 173e 087a 24be 7166 533e
00000360: 1abf 80bb 6d2e 50bd ca28 443e 39d7 75be
00000370: 3e2a 23be f5c9 89bd 36ab 083e ddbc f23d
00000380: d18c 543e 625a 40be ac18 4a3e 58c1 983d
00000390: e87e 41be 4fa1 97bd c21e edbd 2b79 e33d
000003a0: 60f2 da3d 57d0 a53c 64e8 d5bd d0ce 80bd
000003b0: 60b1 c23d ac23 463c 33f4 673e eae0 483c
000003c0: 98ee f4bb 927a 3a3e b5ca 8b3d a481 a43d
000003d0: 1b62 b23d aaf3 6e3d 123b 9d3d 4b59 843d
000003e0: 73b6 63be 1374 c3bd dfce 6cbd 6164 8ebd
000003f0: 3593 dabd b020 62be f35d 273e ec46 013e
0.11377501 -0.059114862 -0.061690237 0.12328496 0.10553879 0.18650624 0.052619405 -0.089019045
-0.12197365 0.06911869 -0.120958894 -0.2086436 0.0081128925 -0.2102844 0.10464802 0.20773643
0.101664335 0.09525556 -0.27829018 -0.052787516 0.11694625 -0.1432885 -0.24964996 0.031607386
0.15168676 0.23890474 -0.15553084 0.066699214 0.0671644 -0.1232484 0.019547956 -0.044939734
0.0750516 -0.030143498 -0.19933344 0.1584957 -0.07290671 -0.05241725 0.12025875 -0.075110964
-0.015157348 0.20702621 0.09402388 0.023451768 0.18599167 -0.11915257 0.054585747 -0.1633745
0.011259639 -0.21328628 -0.05040927 -0.022538489 0.043768037 0.10058622 0.20852596 -0.23604017
-0.18964823 -0.047383647 -0.07964717 0.066526234 -0.029332913 -0.11993407 -0.04085377 -0.15423031
0.13000485 -0.12484695 0.04249182 0.06657003 0.06269054 -0.105271935 0.014196828 0.13506235
-0.082134 -0.18671334 -0.14038658 0.10671042 0.09316923 -0.016413333 -0.074897185 -0.12888783
0.09287563 -0.12452835 0.21884203 -0.2585914 -0.127641 -0.1464726 0.1302263 -0.26935014
0.20383315 -0.14280221 0.081227556 -0.21690828 -0.14460397 -0.09239766 0.104660414 -0.16732492
-0.17532888 -0.011693361 0.011446924 0.21140724 0.08093182 -0.15371415 -0.18952793 -0.014093585
-0.054982215 0.05949968 0.17329681 -0.042708796 0.008112747 0.20696187 -0.059141066 0.1796867
0.06296396 -0.06402346 -0.009577743 0.1605345 0.08218928 0.15930085 0.11466294 -0.12497618
0.0863697 0.028552731 -0.112739585 0.056011125 -0.021897769 0.22888121 0.20114584 0.0720557
0.06667403 -0.0807052 0.2086994 -0.20562288 -0.037017267 -0.048997108 0.02996885 -0.12916532
0.04907354 0.018592551 -0.22734591 -0.12642731 -0.010138472 -0.13875927 0.2005308 -0.04045726
-0.22813034 0.114268236 -0.15407018 -0.013818066 -0.118544474 0.09122819 -0.08581221 -0.22445783
-0.1902791 0.06419177 0.066572234 -0.016640984 -0.029504936 0.043738037 -0.060051158 -0.17097041
-0.2460926 0.20175701 -0.12730215 -0.16440555 -0.06925372 0.15308672 0.13770652 0.19714987
0.16066745 -0.0728988 -0.0823317 0.015856352 -0.09345676 0.2507269 -0.18986292 0.009597639
0.13322036 -0.11937391 -0.106832944 0.11386724 -0.14859322 0.12641595 0.13989308 -0.06145617
0.17566389 -0.00928869 -0.16005874 -0.102935016 0.07868982 -0.14425573 -0.15494534 -0.1408244
-0.037005067 0.1866858 0.23071112 0.15790825 -0.057200905 0.16384897 0.10967101 0.19634287
0.14156272 0.1836144 -0.04212765 -0.21778664 -0.13333829 0.14371724 0.019269638 0.07938133
0.09005868 -0.24792488 -0.061448216 -0.14970146 0.09780345 0.14783859 -0.16062176 0.20644547
-0.003929031 -0.050825525 0.19156185 -0.24007882 -0.15934083 -0.06727973 0.13346562 0.11852429
0.20756842 -0.18784478 0.19735974 0.074587524 -0.18896067 -0.07403814 -0.11578132 0.11107095
0.106907606 0.020240946 -0.104447156 -0.06289446 0.09506488 0.012093466 0.22651748 0.012260655
-0.0074747317 0.1821082 0.06825773 0.080325395 0.087101184 0.058337845 0.076772824 0.06462344
-0.22237568 -0.09543624 -0.057814475 -0.069527395 -0.10672609 -0.22082782 0.16344433 0.12624711

encoder.transformer.in_proj_bias f4 [96]
00000000: 66cc 4c3d 6f05 afbc 44ac 75bd 0f0d d93c
00000010: 1465 403d a7dd 14bd 81e0 16bd 6ba1 053d
00000020: cd6d ac3c f921 5c3d 6508 7dbc 7e0d 3fbd
00000030: 670a 923c 8598 cbbc 1e80 e6bc 9b0d c73c
00000040: 0b75 223d 04a2 293d 43b7 413d d13a a43c
00000050: b6fe 3a3c 32d3 b6bc c5f4 3bbc 6d59 bf3c
00000060: 9342 853c 1b50 19bd 6db3 853b 018a a63c
00000070: 33c7 0fbd e032 023d 710b bdbc 3518 0a3d
00000080: 6be3 eab4 e208 c032 9da9 8d34 152c 1135
00000090: 20f8 4d33 3a1f b0b4 0e50 78b3 5544 5bb3
000000a0: d4c5 dbb3 8ee5 3435 f70d 03b4 0719 36b5
000000b0: 77ce 0cb5 d0e8 c034 c50d 6335 fcec adb2
000000c0: f774 1c35 9c0a 6134 43ee 3435 43e7 2834
000000d0: fdbb b8b4 fc3e f834 54f3 8e34 5451 1034
000000e0: a69b b9b4 187c f034 cbbd 93b3 fecd 86b2
000000f0: d70e 53b4 6cc4 2fb3 7cda 9db4 fbea e734
00000100: 7d49 893c 6377 cdbb f877 a53b 293e 6bbd
00000110: b03f ed3c 18a6 12bd afea c13c e161 df3c
00000120: 2b52 433d 6fdb 313d d346 5f3d 0fb1 803c
00000130: 7e28 323c ed63 1dbb 8697 053c ed8a 833c
00000140: b92a 563d 89c7 a9bc 7186 06bd 587d ab3c
00000150: 8dc5 283d a5ed 98bc 6d93 433c f021 1abd
00000160: 0a28 1e3d d22f b53c b3cc 313b 61e9 54bd
00000170: 4a3d 28ba 908a c9bc 65f5 e7bb 422e 84bd
0.049999617 -0.021364896 -0.05997874 0.026495485 0.046971396 -0.036344197 -0.036835197 0.032624643
0.02104845 0.053743336 -0.015443896 -0.046643727 0.017827226 -0.024853 -0.028137263 0.02429848
0.039662402 0.041414276 0.047293913 0.020047577 0.011413267 -0.022317503 -0.011471932 0.023358071
0.016267097 -0.03742991 0.004080227 0.020329477 -0.03510208 0.0317868 -0.023076745 0.033714492
-4.3751365e-07 2.2355781e-08 2.6386707e-07 5.4080857e-07 4.795595e-08 -3.2805275e-07 -5.781481e-08 -5.105206e-08
-1.0233967e-07 6.738927e-07 -1.2205406e-07 -6.7836703e-07 -5.245451e-07 3.593218e-07 8.4584127e-07 -2.0247619e-08
5.8284735e-07 2.0958618e-07 6.740194e-07 1.5730352e-07 -3.440945e-07 4.6239427e-07 2.6626606e-07 1.3440632e-07
-3.4572184e-07 4.4793774e-07 -6.879744e-08 -1.5693328e-08 -1.9656305e-07 -4.0924007e-08 -2.9402497e-07 4.3198074e-07
0.016758675 -0.0062703355 0.005049702 -0.057432327 0.028961033 -0.03580293 0.023671476 0.027268352
0.047685783 0.04342216 0.054510903 0.015709428 0.010873912 -0.002401586 0.008153802 0.016057456
0.052286837 -0.020725029 -0.032843057 0.020933792 0.041204024 -0.018668005 0.0119370045 -0.03763002
0.038612403 0.022117529 0.0027130067 -0.05198038 -0.0006417824 -0.024602205 -0.007078814 -0.064541355

encoder.transformer.out_proj.weight f4 [32, 32]
00000000: f738 14be 52c0 e2bd 7d7c 68bc bc46 283e
00000010: 227c 38be 893b c23d b428 1f3e c861 b73d
00000020: 34c1 e6bd 1137 f4bc 1eee ef3d a268 d13d
00000030: 80f6 cfbd 0d55 9d3d ba0d df3d 183c 403e
00000040: 1447 0dbe b099 d7bd 43d8 173e 9903 75bd
00000050: 65f6 53bd 0cf9 1a3e 56f0 013e ada6 843d
00000060: 98a8 26be 1126 35bd bc4c 933d 85cc 9abd
00000070: 0b75 1a3e 2f89 ebbb 1126 9ebd 9f01 083e
00000080: 564d aabd 3ae3 4b3e 708e 9cbd ce1c a6bd
00000090: d3f0 17bc 2c3e e6bc 0894 cbbd 7e0e ccbc
000000a0: 2782 0cb9 3e35 86bd a14d 503c 1227 41be
000000b0: 87ab 34be 8ec4 8a3d 1a19 bdbd c69c b1bd
000000c0: e701 f3bd 40c0 d8bd 2d48 303b 5a43 68be
000000d0: 3b2e afbc 0bfa d1bd 8956 d3bd 27a4 f73d
000000e0: cb62 bbbb d97b 15be 2c6e b2bd a56a 243b
000000f0: a896 31be 5cd9 9dbd 9cd8 94bd bbf7 2b3e
00000100: 974b 31be 03bb e53d 9c72 3ebd 0727 b5ba
00000110: 1bec 50bd 703f e03d c40a 1f3e 8ec4 9abd
00000120: 7770 d7bb f856 0fbc cd34 94bc 619a bcbd
00000130: e50e 23be b115 ad3d 7036 bebd 8419 2f3e
00000140: 9018 ecbd 40c4 4d3e 4c2c 8bbd 85f5 ff3d
00000150: b275 12bd 32b3 3b3d 7b19 16be 95d6 5fbd
00000160: ac75 cb3c 41ee 1b3d 89f7 60be eb9a 27bd
00000170: af10 993d c849 07be 5b8e 4fbe 1ea0 2c3e
00000180: a4eb cfbd 755a 98bd d343 11bd fa17 4e3e
00000190: 026a 0fbe 44de bbbc fba5 e8bd e105 82bd
000001a0: 78f2 53bc 2435 bc3b 3e35 5ebe 9b63 50bd
000001b0: 1d46 80bc 3a6b fdbd 5979 493e e93e f5bd
000001c0: c6b8 45be 07d0 bebd bf06 58bd d788 b63a
000001d0: 24a9 b4bd 9e10 02bd d873 b5bd 2417 aebd
000001e0: 821b 8ebd a1af b5bd 368e 0f3e b038 2c3e
000001f0: 6233 333d 5a62 473e b3c6 df3d 21c9 063e
00000200: d55a c03c 5215 27be 2fee 6cbd 680b ea3d
00000210: cd82 ef3c 2f5b 10be 156b dfbb 47ec cd3c
00000220: 0644 1b3e 7e32 403e 641b 0d3e 3218 0cbe
00000230: 3948 0e3d 6b0a 7cbd c18e e5bd 54e7 5a3d
00000240: ca16 3b3e c644 273d 8636 53be 9dea 383e
00000250: 5e8d d33d 0fd9 9f3c 54cd 383e 294d ff3d
00000260: be7b 53bc 4f56 babd d413 993d b978 d1bd
00000270: e2eb 803c a69a 9c3d 7c61 513b 99a3 3fbd
00000280: 294c 38be d87a d83d 93e1 a7bd daec 943d
00000290: 5e65 dfbd dc91 113e 43b1 63bd a0d6 713d
000002a0: 473a fe3d 8a17 d63d a905 173e 2d39 b13c
000002b0: e4d2 b1bd 571d 4b3e 4f49 e33b 9d8a 08be
000002c0: 7e45 71bc 550c e23a 34db 563d df21 3bbe
000002d0: 8583 3bbe 0fc7 bcbd 8b59 39be 17be ba3d
000002e0: 6a38 0fbc e3f1 7bbd 15bb b83d 95f9 1a3d
000002f0: 1f77 bb3d 838b 073e b92c 0b3d 4bc8 913d
00000300: a978 cb3d 41fd 87bd 4fe3 873d 7c6a a8bd
00000310: 2762 8dbd 6641 2ebe ed87 03bc 6443 39be
00000320: cb82 cfbd c59e 033d 8ba3 bd3c 78dc e23d
00000330: b2e8 a4bd 5740 5b3e 7ec7 79bd 9720 b2ba
00000340: 946f 37be 9de8 dfbd 2de1 b4bd 707b 01be
00000350: 0527 903d a15d b9bd 7efb 3b3d 14b3 debd
00000360: 77f5 463e 6e3b edbb 00d0 2ebc 7c12 9b3d
00000370: fe45 93bd 650d 2b3c ad7b 0bbe 4eec 03be
00000380: 243c 3d3e fe4f b9bd 9d55 703d 3f58 043e
00000390: a15c 1a3e bcac 0f3e cc77 43bb 8907 2f3e
000003a0: fe78 703d 8c91 f8bd dbbe 2c3e 141e 6f3c
000003b0: a0e7 28bc 08e7 043d 9642 c63d 52ed 8bbd
000003c0: 8c33 0a3d e13f 0b3e 39ab 9a3d 0ada edbb
000003d0: 25bb 9ebb a6a0 663d 6adc 2ebd 4fc7 bdbd
000003e0: 65a9 053e 79ce ebbd 2b85 23bc 68e5 993d
000003f0: c15e 90bd 61e2 b2bd ee90 ebbd 4137 923c
-0.14474855 -0.110718384 -0.014189837 0.16433233 -0.18016103 0.09484012 0.15542871 0.08954197
-0.11267319 -0.029811414 0.11715339 0.10225035 -0.10154438 0.07682238 0.1089129 0.18772924
-0.13796645 -0.105273604 0.14828591 -0.059817884 -0.051748652 0.15134066 0.12689337 0.064771034
-0.16275251 -0.044225756 0.0719237 -0.0755854 0.15083711 -0.0071879844 -0.07722104 0.13281868
-0.08315532 0.19910899 -0.07644355 -0.08110963 -0.009273726 -0.028105818 -0.09940344 -0.024909254
-0.00013399926 -0.06553124 0.012713821 -0.1886256 -0.17643557 0.06775771 -0.09233303 -0.0867248
-0.11865597 -0.10583544 0.002689849 -0.22681943 -0.02138435 -0.1025277 -0.1031924 0.120918564
-0.005718564 -0.14598025 -0.0871242 0.002508798 -0.17342627 -0.07707474 -0.072678775 0.1679372
-0.17313991 0.1121731 -0.04649602 -0.0013820835 -0.051006418 0.109496 0.1553145 -0.07557021
-0.006574686 -0.008748762 -0.018091584 -0.09209133 -0.1592365 0.08451403 -0.09287727 0.17099577
-0.115281224 0.20094395 -0.06795558 0.12498001 -0.035756774 0.04582519 -0.14658158 -0.054648
0.024836384 0.038069014 -0.21969427 -0.040919226 0.07473885 -0.13211739 -0.20269148 0.16857955
-0.10152367 -0.07439128 -0.035465073 0.20126334 -0.14005283 -0.022933133 -0.11359783 -0.063487776
-0.012936227 0.0057436395 -0.21699998 -0.05087624 -0.015658433 -0.123739675 0.19675197 -0.1197489
-0.19308767 -0.09317022 -0.05274081 0.001392628 -0.088213235 -0.03175413 -0.08859986 -0.085005075
-0.069388404 -0.08871389 0.14019093 0.168185 0.043750174 0.19471112 0.10926571 0.13162662
0.023480812 -0.16316727 -0.057844337 0.11427957 0.029237175 -0.14097284 -0.006818185 0.02513708
0.15162668 0.18769261 0.1377998 -0.13681105 0.034736846 -0.061533373 -0.11208869 0.053443268
0.18270412 0.04083707 -0.20626268 0.18058248 0.10329698 0.019512681 0.18047076 0.12465889
-0.01290792 -0.09098493 0.07474485 -0.10228104 0.015737478 0.07646684 0.0031948974 -0.04678688
-0.17997803 0.105703056 -0.08197322 0.07271738 -0.10908006 0.14215797 -0.05558897 0.059042573
0.12413459 0.104537085 0.14748253 0.021633709 -0.08682802 0.19835411 0.0069362293 -0.13334127
-0.014726041 0.0017246107 0.052455142 -0.1827464 -0.1831189 -0.09217655 -0.18100564 0.09118288
-0.0087414775 -0.061509978 0.09020058 0.037835676 0.0915358 0.13236813 0.033978198 0.07118281
0.099351235 -0.06640101 0.066351525 -0.08223435 -0.06903487 -0.17017135 -0.008028013 -0.18092114
-0.10132369 0.032133836 0.023149272 0.11077207 -0.080521956 0.21411262 -0.060981266 -0.0013590035
-0.17913657 -0.10933039 -0.08832011 -0.12644744 0.070386924 -0.090510614 0.04589414 -0.10874
0.19429575 -0.0072397506 -0.010669708 0.07571885 -0.07191084 0.010440205 -0.13621397 -0.12883112
0.18479973 -0.090484604 0.058675397 0.12924288 0.15074398 0.14030737 -0.0029826043 0.17092718
0.058709137 -0.12137136 0.1686968 0.0145945735 -0.01030913 0.03244689 0.09680669 -0.06832375
0.033740565 0.13598587 0.075521894 -0.0072586583 -0.0048440867 0.05630555 -0.042690672 -0.09266531
0.130529 -0.11513991 -0.00998048 0.07514459 -0.07049323 -0.087345846 -0.115022525 0.017848613

encoder.transformer.out_proj.bias f4 [32]
00000000: 3ffc cfbc ccea a5bc 8f27 dcbc 3a58 30bd
00000010: babe 293d 7eeb 79bc 785b f13a e7fe ef3b
00000020: 91a3 f4bc 83a6 493d 4d6e 693a 42f2 a63b
00000030: 2843 973c 1a99 f9bb b6af e7bc d159 203d
00000040: 64b9 09bc e3d4 123c f6fa 48bc d4df a9bc
00000050: bff7 563d 2f24 613c 013b 4e3c 175e 69ba
00000060: 8338 2e3d 31b5 173d 1a99 0dbd b942 50bb
00000070: e31c 4abd da1c f53b 434d cebb d0c5 9b3c
-0.025388835 -0.020253561 -0.026874332 -0.04305289 0.041441657 -0.0152539 0.0018414101 0.007324088
-0.02986315 0.049231064 0.0008904681 0.0050947974 0.01846464 -0.007617128 -0.028282028 0.039148156
-0.008406017 0.008961889 -0.012266865 -0.020736612 0.052482363 0.013741537 0.01258731 -0.0008902265
0.042534363 0.037038032 -0.034569837 -0.003177805 -0.049343955 0.007480246 -0.0062958314 0.019015223

encoder.ln1.weight f4 [32]
00000000: 511f 763f edb0 843f 0f0c 823f 7aed 7f3f
00000010: fc28 7b3f b385 823f 9c5b 783f e8ca 853f
00000020: 4a55 853f b36d 7f3f 30c5 7a3f 9f6c 7e3f
00000030: 7278 823f bdc4 833f afa8 753f 76e7 7f3f
00000040: e514 863f 70fa 703f 5d71 803f 6528 843f
00000050: 7ff7 7c3f 4d40 703f 0640 843f f794 823f
00000060: f184 803f 8bff 873f 47d9 753f 35b7 783f
00000070: 43af 7b3f 03b8 823f c26d 763f af31 7d3f
0.96141535 1.0366493 1.015993 0.99971735 0.9810941 1.0197052 0.97014785 1.0452547
1.0416653 0.9977676 0.97957134 0.9938449 1.0193007 1.0294415 0.95960516 0.99962556
1.0475127 0.9413214 1.0034596 1.0324827 0.9881515 0.93848115 1.0332038 1.020171
1.004057 1.062486 0.96034664 0.9715455 0.98314303 1.0212406 0.9626123 0.98903936

encoder.ln1.bias f4 [32]
00000000: 8add 27bd 2488 ffbc 97f0 c7bc e1c5 6cbd
00000010: 0d03 ff3c 48ed aebc a5d0 0ebc 13dc 153b
00000020: 6d72 05bd 3109 453d 0962 4f3c 9e20 65bb
00000030: 0ef1 4e3c 7046 463b 9294 15bc d6b1 4a3d
00000040: c2a3 42bc 338c e03c 927b be3a 9c85 8b3b
00000050: 09b9 0a3d 644d 893c 6eeb e5bc 0e8d ab3c
00000060: 492f ff3c bea8 663d bd02 2ebd cfb2 d03c
00000070: f8c7 e5bc 75ea 3b3d dcc4 a1bc 9604 f43c
-0.04098276 -0.031192847 -0.024406714 -0.0578059 0.031129384 -0.021353379 -0.008716737 0.002286677
-0.032579828 0.04810447 0.012657651 -0.0034962068 0.012630714 0.0030254386 -0.00912966 0.049486004
-0.011879863 0.027410602 0.0014532676 0.004257871 0.03386787 0.016760536 -0.028066363 0.020941284
0.031150477 0.05631327 -0.04248308 0.025475888 -0.028049454 0.045877893 -0.01974719 0.029787343

encoder.ln2.weight f4 [32]
00000000: 88c8 7b3f a37c 833f cd80 803f 5166 813f
00000010: 0612 7a3f 9b7c 833f e9ef 743f 5bfd 833f
00000020: f5fb 823f 1d0b 813f c97e 7f3f 905c 793f
00000030: 90b1 7f3f 179e 833f 5441 783f 3a36 843f
00000040: 96a4 813f 90b1 743f ee0b 803f 914f 873f
00000050: 8d74 823f 305f 733f 1218 853f a041 773f
00000060: 6df1 833f 8035 883f 2347 793f 64d4 7a3f
00000070: 01fe 7e3f c305 803f 4c69 7e3f cd1b 7f3f
0.9835286 1.0272411 1.0039307 1.010935 0.9768375 1.0272402 0.95678574 1.0311693
1.0233141 1.0081517 0.99802834 0.97406864 0.99880314 1.028262 0.9697468 1.0329049
1.0128353 0.9558344 1.0003641 1.0571157 1.0191818 0.9506712 1.0397971 0.9658451
1.0308052 1.0641327 0.9737417 0.9798033 0.9960633 1.0001758 0.9937942 0.99651796

encoder.ln2.bias f4 [32]
00000000: 5866 c7bc 9d54 58bc 5713 b2bc 982f 2ebd
00000010: 6f6b 603d 3383 58bc 59d8 a13c 751a aa3c
00000020: 6183 f3bc be26 5a3d 0606 713c 4b69 203c
00000030: 8a87 c33c 711e 9f3b 5194 92bc 32fe 343d
00000040: 9395 c5ba 35c8 973c 3cde 1d3b aefe 31bc
00000050: bf33 843d e06f 623c 7599 753c 1087 113b
00000060: af8b 533d 2e9c 423d dd88 15bd 0c04 113c
00000070: 123c 02bd e979 823c e919 923c 0f03 a83c
-0.024340793 -0.013203767 -0.021737738 -0.042525858 0.054789957 -0.013214874 0.019756483 0.020764569
-0.029725732 0.053259604 0.014710909 0.009790729 0.023868341 0.004855924 -0.017892988 0.044187732
-0.0015074484 0.018528083 0.002408876 -0.010863943 0.06455182 0.013820618 0.0149902 0.0022205748
0.051646885 0.047512226 -0.036507476 0.0088510625 -0.03179557 0.015927272 0.01783462 0.020509271

decoder.output_head.weight f4 [24, 32]
00000000: 60ea 25bc 7132 adbc 76e2 e43c 2f22 d2bc
00000010: e0c8 363e 4a1b 4abe a89d a0ba 7a05 8f3d
00000020: 4269 f6bb a9fc d6bd d0a5 82bd 2052 b73d
00000030: f79c 833d c882 2a3e 5e62 b83d dd87 33be
00000040: 9853 f93d 9cf2 29be 1e52 33bc 998c db3d
00000050: d6e6 c93d 6ea7 be3d 2227 84bc 8c3c e53d
00000060: 9535 393d 13a4 d53d b9d7 38be 8dfa ec3d
00000070: a4f0 dd3d 9ef4 afbd 51d1 b03d 3cdf ac3d
00000080: abc7 d23c 3714 dfbd f643 4b3d 060c d33d
00000090: 90d0 20be 9bae 99bd a5bf 0cbe f124 a7bd
000000a0: 65cb 1d3e d616 40bb 0630 a03c 9971 12be
000000b0: dc74 8fbd 895f 763d b334 ba3d b130 babc
000000c0: 88cd 83bd aa20 f4bd 8610 9bbd 74c2 a8bd
000000d0: df6d 293d 6620 c03d dd37 103d 0e03 75bc
000000e0: f607 503c 5b4f 1cbe 0e80 a9bd 4af7 bcbd
000000f0: 869c e0bd d398 35bd 35d5 9a3d c608 f9bc
00000100: fd61 313e 2c77 1ebd f69d c03d ae61 053e
00000110: 4e55 613d e890 b9bd ae98 ec3d ebfd 2ebe
00000120: 511d 01be 5834 c4bd f47c 04be 9512 c1bc
00000130: 29aa 273e a1df c53d d9b5 dfbd 0e01 923d
00000140: 2234 973b f83c 1bbd a45d c23d 9d18 e8bc
00000150: 6d77 9cbd 1d5e 89bd f9e6 e23d 7381 18be
00000160: bfc9 403d b787 f0bc 842a 88bd fd7b 113e
00000170: e3c3 be3d 6c28 bbbd 1a6c b43d 08c1 e4bd
00000180: 8929 ba3d 7d8f fa3c 8bbd 183e 991b 23be
00000190: 6f44 3fbe f64a 4dbd 0d6b 003e 1d71 f13d
000001a0: 5bf0 a2bd d848 b3bc ebfc eabd 2107 23be
000001b0: 9848 293b 2817 023d b464 7bbd 8440 2fbd
000001c0: b776 4d3d fcce df3d 7741 1dbe 209c 873d
000001d0: f381 df3c ca44 3dbe 9b4b 30be 960d 603d
000001e0: 8116 0ebd a2fb 55be 2529 41bd a514 02be
000001f0: c6ee 01bd bd2c a73d ecb4 f2bd b06b 99bd
00000200: c219 b03d 1d1d d9bd 2173 2e3d 91d1 babc
00000210: eaa4 e8bc b11e a2bd 8292 f2bc 2d60 9f3d
00000220: f19f ffbd a2be d0bd 4aae 3b3e f66b e6bd
00000230: f414 cdbd 271c 4b3e 2d7d bebd e0a5 883d
00000240: db2c 4d3a 1bcd af3d 437c 1dbd f9da 0c3e
00000250: b7b1 d23c 0246 f3bd d582 f6bd ee1c 71bd
00000260: 5b5a 063e dd3e 52bb 8533 fb3c 6c12 643d
00000270: 7815 30bc e290 d13d d631 85bc ad7d 663d
00000280: 4542 41bd 9c11 41bd 460f f3bc 19c9 1bbe
00000290: d46c 2abc 770a 2b3c 1631 ad3c 3807 293e
000002a0: be0f 19bd a2c6 b83c 6669 073e 0563 9e3d
000002b0: 7a62 2fbe ab16 123e ae9e d5bd 9146 ae3d
000002c0: 131f 393e c07d 0a3e fd1f 39be d987 e03c
000002d0: 7168 bd3d 041d 9c3d 31b5 0f3e a09d 36bd
000002e0: 31a3 29bd 6f79 543e 587e cabd 812f a8bd
000002f0: bfbe 1abe 1e0f 98bd dc88 c0bd 58fa 0ebe
00000300: b12e 613d edb8 d0bd 785a 433e 41dc 003e
00000310: a4ef c63d 1263 c63d 218b 7e3c cf18 d0bb
00000320: b3a8 ae3d facf ac3d bb2d a73d 3ecc 01be
00000330: 28a5 4d3e 6ec8 9abd eda6 da3c 4092 9e3d
00000340: 9236 ad3d 3721 38be 78c7 b7bd 8fed 453d
00000350: 34c0 343b 532e d43d 90b2 3d3d 55ed 58be
00000360: a4c4 69bd 3683 3bbe d84e 73bd 6876 1ebe
00000370: df46 c5bd 8004 f3bd 789a 5e3d 60df a33d
00000380: ad3c af3d 020d 4bbe 3cef b93d de21 433e
00000390: f891 5d3d 916a 70bd c674 133e 9c6c 4c3d
000003a0: d3c9 8b3d af4d 9fbb 2827 013e bf74 01be
000003b0: d949 1b3d 3e12 173d 822c a4bd 7990 a6bd
000003c0: 816f f5bd d88c da3d 61b2 f6bc 8bd9 5b3d
000003d0: 39e1 213e 8727 18be 51d0 43be 564d 1b3e
000003e0: d5df 85bd de02 343d 82ab a13c 51b0 ca3d
000003f0: 0ea2 c2bd 2742 3b3d 88c6 853d 5843 063e
-0.01012668 -0.021142216 0.027940016 -0.025651066 0.17850065 -0.19736972 -0.0012254016 0.069834664
-0.007519872 -0.1049741 -0.063792825 0.08951211 0.06426423 0.16651452 0.09003137 -0.17532296
0.12174147 -0.16596454 -0.010944871 0.10720176 0.098584816 0.093092784 -0.016131941 0.11193189
0.045217115 0.10431685 -0.18051042 0.11571226 0.10836914 -0.08591579 0.08633674 0.08441016
0.025729975 -0.108925276 0.04962536 0.10305028 -0.1570456 -0.075040065 -0.13744982 -0.08161343
0.1540962 -0.0029310486 0.01955415 -0.14301147 -0.07004711 0.060149703 0.09092083 -0.022728296
-0.06435686 -0.11920293 -0.07571511 -0.08240214 0.041364547 0.093811795 0.035209525 -0.014954342
0.012697211 -0.15264647 -0.082763776 -0.09226854 -0.109673545 -0.044335198 0.07560197 -0.030399691
0.17322536 -0.03868787 0.09405129 0.13025543 0.055012994 -0.09060842 0.11552559 -0.1708905
-0.1260884 -0.09580296 -0.12938291 -0.02356843 0.16373505 0.096617945 -0.109233566 0.071291074
0.004614369 -0.03789994 0.09490517 -0.028332049 -0.07639966 -0.06707404 0.11079211 -0.14893131
0.0470674 -0.029361589 -0.06648734 0.14207454 0.09314706 -0.09138569 0.08809681 -0.1116963
0.090899535 0.030585999 0.14916055 -0.15928496 -0.18678449 -0.050120316 0.12540837 0.11789153
-0.079560004 -0.02188532 -0.114740215 -0.15920688 0.0025830623 0.031760365 -0.061375335 -0.042786136
0.050162043 0.10928151 -0.15357004 0.06621575 0.027283644 -0.18483272 -0.17216341 0.054700457
-0.03468943 -0.20896772 -0.04715838 -0.12703188 -0.031721853 0.0816283 -0.11850914 -0.07491243
0.08598663 -0.10601256 0.042590264 -0.022805007 -0.02839895 -0.0791601 -0.029610876 0.07782016
-0.12481678 -0.1019261 0.18328205 -0.11251061 -0.10013762 0.19834958 -0.09301219 0.06672263
0.00078268134 0.08584043 -0.038448583 0.13755406 0.025719507 -0.11878587 -0.12036673 -0.05886548
0.13120405 -0.0032080926 0.030664215 0.05568163 -0.010747306 0.10232712 -0.016259115 0.056272198
-0.04718234 -0.047135934 -0.029670369 -0.15213431 -0.010401923 0.010439507 0.02114157 0.1650666
-0.03736853 0.022555653 0.132238 0.0773373 -0.1712741 0.1426646 -0.104306564 0.08509553
0.1807826 0.13524532 -0.18078609 0.027408527 0.09248436 0.07622722 0.14033963 -0.044583917
-0.041415397 0.20749448 -0.098873794 -0.08212186 -0.15111826 -0.074247584 -0.09401104 -0.13962686
0.05497617 -0.10191522 0.1907748 0.1258402 0.097136766 0.09686865 0.015536101 -0.0063506137
0.085282706 0.08438106 0.08163019 -0.12675568 0.20082533 -0.0755776 0.026690925 0.07742739
0.08457674 -0.1798142 -0.089735925 0.048322257 0.0027580382 0.10360398 0.04631287 -0.21184285
-0.057072297 -0.18311772 -0.059401363 -0.15474856 -0.09632658 -0.11866093 0.05434653 0.0800159
0.08556495 -0.19829181 0.090788335 0.19055888 0.054094285 -0.05869538 0.14400014 0.049908265
0.06825604 -0.0048615555 0.12612593 -0.12642191 0.037912223 0.03688263 -0.08016302 -0.08133025
-0.11984158 0.10671395 -0.030114355 0.053674262 0.15808572 -0.14858828 -0.19122435 0.1516622
-0.06536833 0.043948047 0.019735102 0.09896911 -0.09503566 0.045717385 0.065320075 0.13111627

decoder.output_head.bias f4 [24]
00000000: a4d9 85bb 0168 c33d 8e23 d43b d67e 723d
00000010: 1ff8 43be 1b25 233e 07bb 04bd 1967 1bbe
00000020: 64ea f43d a9b9 21be ab82 98bd 702f c7bd
00000030: fcdb c6bd 1042 0dbc 2b5f b5bc 3c49 933d
00000040: f1c7 41be b8d0 e63d 0d62 d4bd b837 e4bd
00000050: 960e 2fbe c7ae 0e3e 1c6b e5bd af45 ad3d
-0.0040847827 0.095413215 0.006473965 0.05920299 -0.1913762 0.15932123 -0.032404926 -0.15176047
0.11958769 -0.1579348 -0.07446798 -0.09725845 -0.097099274 -0.008621708 -0.022140106 0.07191703
-0.18923928 0.11270279 -0.10370264 -0.1114344 -0.17095408 0.1393386 -0.1120207 0.08460557
