experiments/model_128_50_2026-01-17_0725/model.pt (torch, 551535 bytes, 18 tensors)

encoder.graph_embed.GCN_in.A f4 [9, 9]
0	0xbf8f2ab2	-1.1184905
1	0xbe4afe73	-0.19823627
2	0xbfa90fb3	-1.3207916
3	0xbf57e5f4	-0.84335256
4	0x3f8b1f60	1.086895
5	0x3fc4a569	1.5362979
6	0xbf907f52	-1.1288855
7	0xbf97619f	-1.1826667
8	0xbcf56719	-0.029956387
9	0x3f82a4af	1.0206507
10	0x3f5539bb	0.83291215
11	0xbeba1318	-0.36342692
12	0xbfa1e2b4	-1.2647309
13	0xbf89463f	-1.0724562
14	0x3fac01f3	1.3438095
15	0xbec8f734	-0.392511
16	0x3ee44f12	0.44591576
17	0x3e1a2462	0.15052941
18	0x3fdcf662	1.726269
19	0x3f2c46c0	0.67295456
20	0x3e7e9aaf	0.24863695
21	0xbeff8f4b	-0.4991401
22	0xbf676ee2	-0.9040357
23	0xc025ceff	-2.590759
24	0x3f4ca4e6	0.79939115
25	0xbeaec0df	-0.34131524
26	0x3ea98a9a	0.33113557
27	0xbf42651a	-0.7593552
28	0xbf8b9237	-1.0903996
29	0xbd8eff43	-0.06982281
30	0x3f125277	0.5715708
31	0xbfe600ab	-1.7968954
32	0x3f52ac69	0.8229433
33	0x3e5c1a36	0.21494374
34	0xbfaa0959	-1.3284103
35	0x3ffc9dea	1.9735692
36	0xc003d266	-2.0597167
37	0x3ea7dd42	0.32785994
38	0xbfb8b559	-1.4430343
39	0xbfbdf43d	-1.4840161
40	0xbfc1b9c0	-1.5134811
41	0xbfd7d143	-1.6860737
42	0x3f491634	0.78549504
43	0xbed0690f	-0.40705153
44	0xbf35f454	-0.7107594
45	0x3f059f6a	0.5219637
46	0x3f833f17	1.0253628
47	0xbe97764f	-0.2958245
48	0x3e81ecce	0.2537598
49	0x3f9ca70e	1.2238481
50	0xbeb8d963	-0.36103353
51	0x3e8f5c5d	0.28000155
52	0x3fa567c8	1.2922297
53	0xbeab861a	-0.3350075
54	0xbf52976a	-0.8226229
55	0xbe54fb29	-0.20798935
56	0xc00420a1	-2.0644915
57	0xbe6a1601	-0.22859956
58	0xbdd3045f	-0.10303568
59	0xbf8df8b4	-1.1091523
60	0xbf847385	-1.0347754
61	0x3dbcfb6f	0.09227645
62	0x3e9a3ec0	0.30126
63	0x3f2d39a2	0.67666066
64	0xbfc66dff	-1.5502318
65	0x3f098a37	0.53726524
66	0x3f9ed115	1.2407557
67	0xbf5d02c6	-0.86332357
68	0x3f88e48d	1.0694748
69	0xbf179ad4	-0.59220624
70	0xbebd441b	-0.36966023
71	0xbdd7d70a	-0.10539062
72	0xbeb90f95	-0.361447
73	0x3f09d690	0.5384302
74	0xbc506b27	-0.01272086
75	0xbf2bf4a2	-0.67170155
76	0x3b2a5492	0.002599035
77	0x3fa634d3	1.2984871
78	0x3e69ca03	0.22830968
79	0x4011a48b	2.275668
80	0xbeb36098	-0.35034633

encoder.graph_embed.GCN_in.linear.weight f4 [128, 16]
0	0xbe57381b	-0.21017496
1	0xbd80200f	-0.06256115
2	0xbdc4a1aa	-0.096011475
3	0x3b218e76	0.0024651564
4	0x3cd7050d	0.026247526
5	0x3e94ec52	0.29086548
6	0xbd210e1b	-0.039320093
7	0xbd095d57	-0.03353628
8	0x3deab32f	0.11459958
9	0x3e43a683	0.19106488
10	0xbe0977aa	-0.13424554
11	0x3e6c46a1	0.23073818
12	0xbd8e95e2	-0.06962182
13	0xbc310bfc	-0.01080608
14	0x3e02f558	0.12788904
15	0xbd8f473e	-0.0699601
16	0x3d94a119	0.072572894
17	0x3d74814f	0.05969363
18	0x3dc9c256	0.0985152
19	0x3e2385de	0.15969035
20	0x3d01b88a	0.03167013
21	0x3e24b5c3	0.16084962
22	0xbc69e68a	-0.014276156
23	0x3d80d375	0.06290332
24	0xbe3a8676	-0.18215355
25	0xbe47ad6c	-0.19499749
26	0xbd90cf40	-0.0707078
27	0x3d36b7e9	0.044608984
28	0xbd677b4b	-0.056514066
29	0x3e1dc620	0.1540761
30	0xbcc750ce	-0.024330523
31	0x3e4ce554	0.20009357
32	0xbe025dcf	-0.12731098
33	0x3dcb1001	0.09915162
34	0xbe3e5148	-0.18585694
35	0xbdd5e140	-0.10443354
36	0xbe49a39c	-0.19691318
37	0xbe6ac32f	-0.22926019
38	0x3d8bc93b	0.06825491
39	0x3dbe305d	0.09286568
40	0xbd35bf7b	-0.044372063
41	0x3e5a33ed	0.2130887
42	0xbd8a5cad	-0.06755958
43	0x3e4a2e8e	0.19744322
44	0x3e4e094f	0.20120738
45	0x3d337766	0.04381504
46	0xbdce11ca	-0.10061987
47	0x3e0bb438	0.13642967
48	0xbde9b774	-0.11411944
49	0x3aacb637	0.0013176863
50	0xbd0f1a1d	-0.034937013
51	0xbd862aed	-0.06551156
52	0xbdef6ca2	-0.11690642
53	0xbe848156	-0.25879925
54	0xbdb2c947	-0.08729797
55	0x3db67466	0.0890892
56	0xbc4caec8	-0.012492843
57	0xbe1919ad	-0.14951201
58	0xbe266b9a	-0.16251984
59	0xbd2dda57	-0.042444553
60	0xbdb33f5c	-0.08752319
61	0x3e2de02f	0.1698005
62	0xbe0f6d89	-0.14006628
63	0xbe1442c3	-0.14478593
64	0xbe3e2c4b	-0.18571584
65	0xbe3a980e	-0.18222067
66	0xbb13c7d0	-0.0022549517
67	0x3df10551	0.11768592
68	0xbe3a4ce6	-0.18193397
69	0x3e785df0	0.24254584
70	0x3e16f46a	0.14741674
71	0xbd49decc	-0.04928474
72	0x3dbea24b	0.09308299
73	0x3ddd9647	0.10819679
74	0xbb8d227c	-0.0043070894
75	0x3daf6b4f	0.08565389
76	0xbc580812	-0.013185518
77	0x3cc8c5e6	0.024508428
78	0xbd227325	-0.03966059
79	0x3e55fb12	0.20896557
80	0x3dd12764	0.10212591
81	0xbe738687	-0.23781787
82	0x3e1219ae	0.14267609
83	0x3e28e690	0.16494203
84	0x3e626145	0.22107418
85	0x3e77f628	0.24214995
86	0x3e3d0b3e	0.1846132
87	0x3e1fb8e9	0.15597881
88	0xbe7622c3	-0.24036698
89	0x3d2308ee	0.039803438
90	0x3da34e4f	0.079739206
91	0x3e14285c	0.14468521
92	0x3e28a42c	0.16468877
93	0xbe77a699	-0.24184646
94	0x3e387272	0.18012407
95	0xbe2ed404	-0.17073065
96	0xbe319965	-0.17343672
97	0xbe6c0bb8	-0.23051345
98	0xbe52131d	-0.20515104
99	0x3e864b68	0.26229405
100	0x3e00b573	0.12569217
101	0x3d5a9305	0.053362865
102	0xbe608fc7	-0.21929847
103	0xbdd4faec	-0.10399422
104	0xbe6f3901	-0.23361589
105	0xbd97f1d8	-0.07419175
106	0xbdf59c2b	-0.11992677
107	0xbd5fc5dd	-0.054632057
108	0x3d9f8f51	0.07791007
109	0x3e662cd1	0.22478034
110	0x3e0d777a	0.13815108
111	0x3e415b68	0.18882525
112	0xbdec98e3	-0.11552598
113	0x3e800831	0.2500625
114	0x3e564900	0.20926285
115	0xbdbdc64e	-0.09266339
116	0xbe055d86	-0.13023958
117	0xbdebbb2a	-0.11510308
118	0xbd667c93	-0.056271147
119	0xbdb54e22	-0.08852793
120	0x3dac28ed	0.084062435
121	0xbe3fd35e	-0.18732974
122	0xbd203818	-0.039115995
123	0x3de1d45f	0.11026835
124	0xbdda25a2	-0.10651709
125	0xbd17a314	-0.037020758
126	0x3d4908fa	0.049080826
127	0xbdf53b33	-0.11974182
128	0xbd3c8a83	-0.046030533
129	0x3e078c23	0.13237052
130	0xbdee2da6	-0.116298005
131	0xbe1c8f90	-0.1528914
132	0xbe69710f	-0.22797035
133	0x3e88b7bf	0.26702687
134	0xbe93909e	-0.28821272
135	0x3e049f66	0.1295143
136	0xbb8da94f	-0.0043231617
137	0x3d386851	0.04502136
138	0xbe6076f9	-0.21920384
139	0xbd9aee42	-0.07564975
140	0x3d5a08c6	0.053231023
141	0xbde5b89e	-0.112168536
142	0x3e2ad08d	0.16681118
143	0xbda1a992	-0.07893671
144	0xbda28134	-0.079348
145	0xbe5ad659	-0.2137083
146	0x3db9995f	0.09062456
147	0xbe9600a7	-0.29297373
148	0x3e18ff00	0.14941025
149	0x3d4c7aa5	0.04992165
150	0xbdf07f46	-0.117430255
151	0xbc0783ae	-0.008271141
152	0x3d838a48	0.064228594
153	0xbdc0de25	-0.09417371
154	0x3d0957cf	0.033531006
155	0xbd91fca3	-0.07128265
156	0xbd0b44ee	-0.034001283
157	0xbd796191	-0.060884062
158	0xbe2b7c3f	-0.16746615
159	0xbc802073	-0.015640473
160	0x3e1d34b1	0.15352131
161	0xbd9e7ca2	-0.077386156
162	0x3e5a532a	0.21320787
163	0xbe23b0a4	-0.15985352
164	0x3c81dfcc	0.015853785
165	0x3d90bcac	0.07067236
166	0xbd577de1	-0.05261028
167	0x3d7f84ce	0.06238251
168	0xbe74761b	-0.23873179
169	0xbe3380f5	-0.17529662
170	0xbe101050	-0.14068723
171	0xbe280969	-0.1640984
172	0x3d47ef83	0.0488124
173	0xbe1c08b6	-0.15237698
174	0x3e66cde1	0.22539474
175	0x3db0d2a8	0.086339295
176	0xbe7e7950	-0.24850965
177	0x3e236c49	0.15959276
178	0xbe099638	-0.1343621
179	0xbe8196d0	-0.25310373
180	0xbe6ac013	-0.22924833
181	0xbdd1796c	-0.102282375
182	0x3e231490	0.15925813
183	0x3d8a68e3	0.06758287
184	0x3d5a187e	0.053246014
185	0x3e5dd2a7	0.21662389
186	0xbe4c4847	-0.19949447
187	0xbd94995b	-0.07255813
188	0x3e0f40fb	0.13989632
189	0xbdf02e3d	-0.11727569
190	0xbd81f609	-0.063457556
191	0x3e3ab5c6	0.18233404
192	0x3daf13a6	0.085486695
193	0x3e559695	0.20858224
194	0x3d8cd0a1	0.0687573
195	0xbe28a7e1	-0.1647029
196	0x3d61a6da	0.055090763
197	0x3c821834	0.015880682
198	0x3e63457a	0.22194472
199	0x3de3b68d	0.11118803
200	0x3e00bb1b	0.12571375
201	0x3d9736ba	0.07383485
202	0x3e367eac	0.17821759
203	0x3e269aed	0.16270037
204	0x3e6d3490	0.23164582
205	0xbc9c1a86	-0.019055616
206	0x3b624c50	0.003453035
207	0x3d287676	0.0411286
208	0x3e60d32a	0.21955553
209	0xbdc588bd	-0.096452214
210	0x3e196554	0.1498006
211	0x3e19144b	0.14949147
212	0x3e039e34	0.12853318
213	0xbe8d2bf8	-0.27572608
214	0x3e316533	0.1732376
215	0x3d6db7fb	0.058036786
216	0xbd04cd2c	-0.03242223
217	0x3e5b37cc	0.21408004
218	0xbc0d1914	-0.008611936
219	0xbde994bb	-0.11405321
220	0x3cd6ab8b	0.026204845
221	0xbd47ad63	-0.04874934
222	0x3c09fbe0	0.008421868
223	0xbe05cf3f	-0.1306734
224	0x3d27d18c	0.040971324
225	0xba126ab6	-0.0005585359
226	0x3da3517b	0.079745255
227	0xbde9f42b	-0.114235245
228	0x3dea7f1f	0.11450028
229	0xbdf7dddf	-0.121028654
230	0x3c9ca6ef	0.019122569
231	0x3e747c90	0.23875642
232	0x3e525b8d	0.20542736
233	0xbe57f03b	-0.21087734
234	0xbe53af48	-0.20672333
235	0x3dd36973	0.10322847
236	0xbe3a58ab	-0.18197887
237	0x3d0475c2	0.032338865
238	0xbd8e2189	-0.0693999
239	0x3e103c17	0.14085422
240	0xbe5bc3b7	-0.21461378
241	0xbe05fe6b	-0.13085334
242	0x3e10530f	0.14094184
243	0xbc11dc01	-0.008902551
244	0x3dc7195d	0.097216345
245	0x3dfe94eb	0.124307476
246	0xbe4c8ecf	-0.19976352
247	0x3e0c2f26	0.1368986
248	0xbcec8214	-0.02887062
249	0xbe57d3c0	-0.2107687
250	0xbdddfb14	-0.10838905
251	0x3e35657d	0.17714496
252	0x3e615a32	0.22007063
253	0xbe464a0a	-0.19364181
254	0x3e047575	0.12935431
255	0xbdde9e37	-0.10870021

encoder.graph_embed.GCN_in.linear.bias f4 [128]
0	0xbe0bbf35	-0.13647158
1	0xbbc66727	-0.006054777
2	0xbd24db7f	-0.04024839
3	0xbe2ab84e	-0.16671869
4	0x3e0f64e1	0.14003326
5	0xbd10f380	-0.03538847
6	0xbd229c11	-0.039699618
7	0xbda15df7	-0.078792505
8	0xbe14e9ec	-0.14542359
9	0x3d73516d	0.059403826
10	0xbd9d7e9f	-0.07690167
11	0xbe21056c	-0.15724725
12	0x3dd9bde6	0.106319234
13	0xbd9c949d	-0.07645533
14	0x3d9b9e3c	0.0759854
15	0xbd6313b4	-0.055438712
16	0xbdaf7315	-0.08566872
17	0xbe35a882	-0.17740062
18	0xbd2f9663	-0.04286803
19	0x3dce2b48	0.10066849
20	0xbd83169c	-0.06400797
21	0xbe596102	-0.21228412
22	0xbdbccca7	-0.09218722
23	0x3cfdbb58	0.030973122
24	0x3db55321	0.08853746
25	0xbe1c1b37	-0.15244757
26	0xbd4aac50	-0.049480736
27	0x3cd143cf	0.025545029
28	0xbe46e001	-0.19421388
29	0xbd5818d7	-0.052758064
30	0xbdef5ec6	-0.116879985
31	0xbe1884c6	-0.14894399
32	0x3da98949	0.08278138
33	0x3bd48c20	0.0064864308
34	0x3d98986d	0.07450948
35	0x3e075f2e	0.13219902
36	0xbe31be7f	-0.17357825
37	0xbe04f439	-0.12983789
38	0xbd560dd7	-0.052259292
39	0x3e0a827f	0.13526343
40	0xbdf11024	-0.11770657
41	0x3e23e863	0.16006617
42	0xbdbb83c9	-0.091559954
43	0x3e106749	0.141019
44	0xbe7c534a	-0.24641147
45	0xbd73b347	-0.059497144
46	0x3d31474b	0.04328088
47	0xbd387d67	-0.045041468
48	0x3d0f303f	0.03495812
49	0x3af73829	0.0018861342
50	0xbd3a62b1	-0.045504276
51	0xbe054bc2	-0.1301718
52	0x3e04bd82	0.12962916
53	0xbe047e69	-0.12938847
54	0x3de95b80	0.11394405
55	0xbe2c463c	-0.16823667
56	0xbd8c19cc	-0.06840858
57	0xbbcf3489	-0.0063234014
58	0xbd85b42a	-0.06528504
59	0x3d734871	0.059395257
60	0xbda2d8e5	-0.079515256
61	0xbd436b9d	-0.04771005
62	0xbe09f60d	-0.13472767
63	0x3d8a50d3	0.06753697
64	0x3da86330	0.082220435
65	0x3de4ed29	0.11178047
66	0x3b09cbf8	0.0021026116
67	0x3d2fc011	0.04290778
68	0xbe6933e4	-0.22773701
69	0xbd1ad3f9	-0.03779981
70	0xbe118799	-0.14211883
71	0x3dab6dbf	0.08370542
72	0x3c95b5dd	0.018275196
73	0x3db75363	0.08951452
74	0x3e3fc05b	0.18725722
75	0x3d2d5d7f	0.042325493
76	0x3d5d7b98	0.054072946
77	0xbd053367	-0.032519724
78	0xbdff12a8	-0.1245473
79	0xbd38b729	-0.04509655
80	0x3e0b3af9	0.13596715
81	0x3ca906bc	0.020633094
82	0xbdbdc200	-0.09265518
83	0xbd4d0616	-0.050054632
84	0xbdd8a8ad	-0.10579047
85	0x3d32c2fc	0.043642983
86	0xbcb5e9dc	-0.02220624
87	0xbd64b5b2	-0.05583734
88	0xbdc172d1	-0.094457276
89	0xbd9f4999	-0.077777095
90	0xbe05e14d	-0.13074227
91	0xbe0444a4	-0.1291681
92	0xbe399a7f	-0.18125342
93	0xbd73062d	-0.05933206
94	0xbda0ac1c	-0.07845327
95	0xbdd7dc6a	-0.105400875
96	0xbe8350f5	-0.25647703
97	0xbd39dd20	-0.045376897
98	0x3e12d3fb	0.14338677
99	0x3bc65326	0.0060523925
100	0xbd82d341	-0.0638795
101	0x3da83549	0.08213288
102	0x3caa1619	0.02076249
103	0xbd3b415f	-0.04571664
104	0xbe29b49e	-0.16572806
105	0x3e08df72	0.13366488
106	0xbde5c74d	-0.11219654
107	0xbcabdde6	-0.020979833
108	0xbdfc5add	-0.12322018
109	0xbae8cca8	-0.0017761188
110	0x3d28ddab	0.041227024
111	0xbcf6660f	-0.030077962
112	0xbd793101	-0.06083775
113	0x3de205ba	0.110362485
114	0xbe35b0f9	-0.17743291
115	0x3e2580c9	0.16162409
116	0x3d87e8ec	0.06636223
117	0x3d61afff	0.055099484
118	0xbe0389af	-0.12845491
119	0x3dd969d0	0.10615885
120	0xbd13be20	-0.03606999
121	0x3e0c4c5c	0.13701004
122	0x3de7b83e	0.11314438
123	0x3e0f6f39	0.14007272
124	0xbe069887	-0.13144122
125	0x3e2acbf0	0.16679358
126	0x3d8460f5	0.064638056
127	0x3dab7023	0.08370998

encoder.graph_embed.bn.weight f4 [128]
0	0x3f8117c8	1.0085382
1	0x3f832287	1.0244912
2	0x3f8010a8	1.0005083
3	0x3f7ca5e0	0.98690605
4	0x3f777cd0	0.96674824
5	0x3f81ff89	1.0156108
6	0x3f7a7820	0.97839546
7	0x3f793f0c	0.97361827
8	0x3f797198	0.97438955
9	0x3f81116c	1.0083442
10	0x3f77bf40	0.967762
11	0x3f79765d	0.97446233
12	0x3f7c3f3d	0.98533994
13	0x3f7f10dc	0.996351
14	0x3f7e712e	0.9939145
15	0x3f7359cc	0.95058894
16	0x3f82f316	1.0230434
17	0x3f766f0a	0.9626318
18	0x3f78f1c0	0.9724388
19	0x3f7500d4	0.9570439
20	0x3f785570	0.9700537
21	0x3f7387fc	0.9512937
22	0x3f7450f1	0.95436007
23	0x3f750adb	0.9571969
24	0x3f806640	1.0031204
25	0x3f6ce93c	0.9254339
26	0x3f782129	0.969256
27	0x3f7a2827	0.9771752
28	0x3f7ecc17	0.99530166
29	0x3f794787	0.9737477
30	0x3f6f4345	0.9346202
31	0x3f7ceeaf	0.988017
32	0x3f81334e	1.0093782
33	0x3f774675	0.96591884
34	0x3f730ac1	0.94938284
35	0x3f75f700	0.9608002
36	0x3f7dd4b3	0.9915268
37	0x3f74cdf3	0.95626754
38	0x3f786a9b	0.9703767
39	0x3f677c5e	0.90424144
40	0x3f7383b3	0.9512283
41	0x3f6c8b91	0.9240046
42	0x3f748d40	0.9552803
43	0x3f74a0ec	0.9555805
44	0x3f74b811	0.95593363
45	0x3f789750	0.97105885
46	0x3f81c096	1.0136898
47	0x3f7c2970	0.9850073
48	0x3f837ea3	1.0273021
49	0x3f8106a3	1.008015
50	0x3f78eb35	0.972339
51	0x3f7f288b	0.9967124
52	0x3f7ac4d2	0.97956574
53	0x3f7d80d1	0.99024683
54	0x3f6e11ed	0.929961
55	0x3f64700d	0.89233476
56	0x3f8046bc	1.0021586
57	0x3f7d388b	0.989144
58	0x3f75aae7	0.959639
59	0x3f7148f2	0.9425193
60	0x3f77e460	0.9683285
61	0x3f71d7ba	0.944698
62	0x3f7bd956	0.98378503
63	0x3f82ac75	1.020888
64	0x3f82587d	1.0183254
65	0x3f7ac85a	0.9796196
66	0x3f7ea094	0.9946377
67	0x3f719394	0.9436581
68	0x3f785946	0.9701122
69	0x3f72d656	0.948583
70	0x3f795a13	0.9740307
71	0x3f73a2a9	0.95170075
72	0x3f7d54f2	0.9895774
73	0x3f7d029e	0.9883212
74	0x3f797655	0.97446185
75	0x3f7982ed	0.974654
76	0x3f82360a	1.0172741
77	0x3f7f675d	0.99767095
78	0x3f760584	0.96102166
79	0x3f7460e1	0.95460325
80	0x3f7b900c	0.98266673
81	0x3f84e885	1.0383459
82	0x3f7a969f	0.9788608
83	0x3f6b9742	0.92027676
84	0x3f7ed289	0.9954
85	0x3f737a10	0.9510813
86	0x3f7396fc	0.9515226
87	0x3f6e2eea	0.93040335
88	0x3f7fc477	0.99909157
89	0x3f70bf25	0.94041663
90	0x3f7a1780	0.9769211
91	0x3f7ad00d	0.9797371
92	0x3f7afc26	0.98041
93	0x3f680da4	0.90645814
94	0x3f715828	0.9427514
95	0x3f7726d3	0.96543616
96	0x3f7a77ac	0.97838855
97	0x3f786286	0.97025335
98	0x3f78099e	0.96889675
99	0x3f692a19	0.9107986
100	0x3f74ad8e	0.95577323
101	0x3f7b20fb	0.980972
102	0x3f7a9623	0.9788534
103	0x3f78c8a6	0.97181165
104	0x3f7d51c0	0.98952866
105	0x3f7ca948	0.986958
106	0x3f7c9e84	0.98679376
107	0x3f796b9e	0.97429836
108	0x3f74818d	0.9551018
109	0x3f758192	0.95900834
110	0x3f77c9a6	0.96792066
111	0x3f7d00c0	0.9882927
112	0x3f6bd88d	0.92127305
113	0x3f7f8bca	0.99822676
114	0x3f7cd1c8	0.987576
115	0x3f7bff51	0.98436457
116	0x3f748019	0.9550796
117	0x3f73cbfb	0.95233124
118	0x3f71d8e3	0.9447157
119	0x3f7f4d1c	0.99727035
120	0x3f79c1d2	0.9756137
121	0x3f7226a5	0.94590217
122	0x3f72027a	0.9453503
123	0x3f7c80a6	0.986338
124	0x3f7f908a	0.99829924
125	0x3f6ccb23	0.9249746
126	0x3f789b1d	0.97111684
127	0x3f6665fd	0.8999937

encoder.graph_embed.bn.bias f4 [128]
0	0xbd842ccd	-0.064538576
1	0xbbe14751	-0.0068749567
2	0xbb4ad157	-0.003094753
3	0xbc20b5f2	-0.009809004
4	0xbc6e1c89	-0.0145331705
5	0x3977c563	0.00023629288
6	0x3c0f55e7	0.008748508
7	0x3bff90b0	0.0077992305
8	0x3ca082e7	0.01959367
9	0x3c3270fe	0.010891197
10	0xbd4289c8	-0.04749468
11	0xbb716a8e	-0.0036837193
12	0xba9b2afd	-0.0011838373
13	0xbc3d83b2	-0.011567043
14	0xbba15d76	-0.0049244715
15	0x3c8f591d	0.017498547
16	0xbc86ad2d	-0.016439999
17	0xbd364bfc	-0.044506058
18	0x3c6e4fb1	0.014545367
19	0x3c79486b	0.01521502
20	0x3b15c226	0.0022851317
21	0xbc3b0d1d	-0.011416701
22	0xbcce756b	-0.025202474
23	0xbc79cfaf	-0.0152472695
24	0x3d0f7842	0.035026796
25	0xbce6a800	-0.02815628
26	0xbb89ac36	-0.0042014373
27	0xbc2f0409	-0.010682114
28	0xbb991746	-0.004671964
29	0x3c68587f	0.014181255
30	0xbc4dfbe4	-0.012572262
31	0x3c1b8711	0.009492652
32	0xbd133ff3	-0.03594966
33	0xbcd43cfc	-0.025907986
34	0xbd1f961c	-0.038961515
35	0x3cabd7d1	0.020976933
36	0xbcf382f6	-0.029725533
37	0xbcba1fd8	-0.022720262
38	0xbca08c34	-0.019598104
39	0xbcbb9f3f	-0.022903083
40	0xbc9c7685	-0.019099483
41	0xbd2507ad	-0.040290523
42	0x3c49da40	0.012320101
43	0xbb9a966f	-0.00471764
44	0xbc2c77e6	-0.010526633
45	0xbbba8e8b	-0.005693262
46	0x3cd4139b	0.025888255
47	0xbd067fce	-0.032836728
48	0x3c114e03	0.008868697
49	0xbcd8af6e	-0.026450839
50	0x3cd35cc5	0.025801072
51	0x3ba9507c	0.005167065
52	0x3c02ec30	0.007990882
53	0x3c7a4222	0.015274556
54	0x3c9d5acb	0.019208333
55	0x3ceed210	0.0291529
56	0x3c3213bb	0.010868962
57	0xbc949983	-0.018139606
58	0x3bbbb35f	0.00572817
59	0x3cb1b3eb	0.021692237
60	0x3bb3ab2c	0.0054830518
61	0x3cd21a58	0.025647327
62	0x3cfe83d7	0.031068726
63	0x3be66a6b	0.007031729
64	0x3c29d9df	0.010366886
65	0x3c51a96f	0.012796744
66	0x3c615bc0	0.013754785
67	0x39c804c2	0.00038150518
68	0x3c17816c	0.009247165
69	0x3bec46ba	0.0072105797
70	0x3c88a3cc	0.016679667
71	0x3d0e7064	0.034775153
72	0xbbe8b777	-0.007101949
73	0xbbbe4859	-0.0058069644
74	0x3b3c3fb5	0.0028724496
75	0x3c6a1d45	0.014289205
76	0x3caf61d3	0.02140895
77	0xbbd5176b	-0.006503036
78	0x3c46fdee	0.0121455025
79	0x3bae85fd	0.0053260312
80	0xbc8875f2	-0.016657803
81	0xbb8dc6c0	-0.0043266714
82	0xbc55a58b	-0.013039957
83	0x3bd9d12d	0.00664725
84	0xbbbb69cf	-0.0057194005
85	0x3cde78d0	0.027157217
86	0xbc99567c	-0.018717997
87	0x3c0a9eb3	0.008460688
88	0xbca77ecd	-0.020446206
89	0x3c354e68	0.011066057
90	0xbc567abb	-0.013090785
91	0x3ca86900	0.02055788
92	0x3bf134f7	0.00736105
93	0x3c638c79	0.013888472
94	0xbc1aa933	-0.009439754
95	0x3c993979	0.018704163
96	0xbc1effa9	-0.009704509
97	0xb8ea6993	-0.00011177654
98	0xbb9e9417	-0.004839431
99	0x3d1b4d08	0.03791526
100	0xbc74bbcb	-0.014937351
101	0x3d14c7c0	0.03632331
102	0x3bf7e2dd	0.007564886
103	0x3cc15da3	0.02360422
104	0xbbcf56a9	-0.0063274694
105	0x3b7d6649	0.0038665703
106	0xbcc7ade3	-0.024374908
107	0x3a74424e	0.00093177415
108	0xbcc46d00	-0.023977757
109	0x3d175416	0.036945425
110	0xbb9da5e5	-0.004811036
111	0xbc2ef1db	-0.01067778
112	0xbbf4e0cc	-0.007473087
113	0x3c936883	0.017994171
114	0xbbea0c71	-0.0071425964
115	0x3c16a533	0.00919466
116	0xbc444624	-0.011979613
117	0x3cbcc776	0.02304433
118	0xbce39f5a	-0.027785946
119	0xbb320266	-0.0027162074
120	0xbcb7ea47	-0.02245058
121	0x3ae2f04c	0.0017314046
122	0x3c0b534a	0.008503744
123	0x3c91b8c4	0.017788298
124	0x3b532747	0.0032219456
125	0x3d3ec550	0.04657489
126	0xbcd338a4	-0.025783844
127	0x3bdf0386	0.00680584

encoder.graph_embed.bn.running_mean f4 [128]
0	0xbc41b8d1	-0.011823849
1	0x3c7847ad	0.015153808
2	0x3e064cd4	0.13115245
3	0xbd3b3996	-0.045709215
4	0x3e0d2055	0.13781865
5	0x3e6b4b20	0.22977877
6	0x3da3861b	0.07984563
7	0xbd3d6ffd	-0.04624938
8	0xbcc479ae	-0.023983803
9	0x3d7e1ac6	0.062037252
10	0xbd26b33b	-0.04069827
11	0x3e35e2f2	0.17762354
12	0x3dcc71a5	0.099826135
13	0x3d1b2f4c	0.037886903
14	0x3e005a64	0.12534481
15	0x3dad9b1a	0.08476849
16	0xbc5f6e4b	-0.013637136
17	0x3db74c15	0.08950058
18	0x3df5252d	0.11969981
19	0x3e5d3231	0.21601178
20	0xbd56a8cf	-0.052407082
21	0x3d229e60	0.03970182
22	0x3d17f45f	0.037098285
23	0x3e432a89	0.19059195
24	0x3dc145e4	0.09437159
25	0xbc17c12b	-0.009262363
26	0x3e2d52d1	0.16926123
27	0x3ce8976e	0.02839252
28	0xbd08c16f	-0.033387598
29	0xbcc82c00	-0.024435043
30	0xbc9a6e34	-0.018851377
31	0x3db193c1	0.0867076
32	0x3d1ed2ef	0.03877538
33	0x3d4c6588	0.049901515
34	0x3df5333d	0.119726636
35	0x3e4a9621	0.19783832
36	0x3d1fa00d	0.038970996
37	0xbcbee809	-0.023304002
38	0x3d263dfc	0.040586457
39	0x3ea1fcc7	0.31638166
40	0x3e442b2b	0.19157092
41	0x3def231e	0.1167662
42	0x3a274d51	0.00063820655
43	0x3e35528b	0.17707269
44	0x3d821f02	0.063535705
45	0xbc9dec65	-0.01927776
46	0x3e0e77e4	0.13912922
47	0x3cda30ee	0.02663466
48	0x3c530a5d	0.012880889
49	0x3a0c9844	0.00053632655
50	0x3e0b6f08	0.13616574
51	0xbd3f2bd7	-0.04667267
52	0x3e37a0f4	0.17932492
53	0x3d6deca6	0.058087014
54	0x3de88e76	0.11355297
55	0x3c470784	0.012147788
56	0x3ca3b072	0.019981597
57	0x3d4ec6e7	0.050482657
58	0x3db9daa5	0.09074906
59	0x3dc30c73	0.09523859
60	0x3d965bd7	0.07341736
61	0x3d97693f	0.07393121
62	0xbc335fa3	-0.010948095
63	0xbc1d8bba	-0.009615833
64	0x3d8734e7	0.06601887
65	0x3e19856e	0.14992306
66	0x3d9df854	0.077133805
67	0x3e09fc1d	0.1347508
68	0x3dd24c7f	0.10268497
69	0x3d162c57	0.03666338
70	0xbbfebf68	-0.0077742822
71	0xbc16aea4	-0.009196911
72	0x3e7b57fa	0.24545279
73	0x3e0974d3	0.13423471
74	0x3e019b71	0.12656952
75	0x3e417f32	0.18896177
76	0x3cce5bdb	0.025190284
77	0xbbdd81a2	-0.006759838
78	0x3c5f7d05	0.013640647
79	0x3d36bd43	0.044614088
80	0x3d9ee7fc	0.07759091
81	0x3d024d4c	0.031811997
82	0x3d37af72	0.044845052
83	0x3d985bf0	0.07439411
84	0x3c98b916	0.018642943
85	0x3d8ab4fe	0.06772803
86	0x3d67b9f9	0.05657384
87	0xbc786591	-0.015160934
88	0xbcf0493a	-0.029331792
89	0x3dcca6e4	0.09992769
90	0x3bda45a8	0.0066611357
91	0x3bffd5d7	0.007807474
92	0xbd4b4c5a	-0.04963336
93	0x3e171f47	0.14758025
94	0x3e4c66cc	0.19961089
95	0xbce3ccb2	-0.027807567
96	0x3e01029c	0.12598652
97	0xbceae4e4	-0.028673597
98	0x3d5ed558	0.05440268
99	0x3e2a35c3	0.16622071
100	0x3d32260d	0.04349332
101	0x3d1c3244	0.038133875
102	0x3e357f1a	0.17724267
103	0x3e12c7ac	0.14333981
104	0xbd318f38	-0.043349475
105	0x3d70fb88	0.05883363
106	0xbaf4dcf7	-0.0018681575
107	0x3c5a6b68	0.013331272
108	0x3e2ae8a5	0.1669031
109	0x3de8320e	0.11337672
110	0x3c21dd35	0.0098794
111	0xbcaf765f	-0.021418748
112	0xbc5f56c1	-0.013631524
113	0x3de56036	0.111999914
114	0xbc3d5e66	-0.011558151
115	0x3e64a6b0	0.22329211
116	0x3d99e790	0.0751487
117	0x3dc86452	0.097847596
118	0x3caf4c79	0.02139877
119	0x3e306227	0.17224942
120	0x3dc19dc1	0.09453917
121	0x3e52da6a	0.20591131
122	0x3d8eaecb	0.06966933
123	0x3e7a5065	0.2444473
124	0x3a30cc2f	0.0006744293
125	0x3e86500b	0.26232943
126	0x3da53077	0.080658846
127	0xbc7ded20	-0.01549843

encoder.graph_embed.bn.running_var f4 [128]
0	0x3cc64a00	0.024205208
1	0x3d1b7ca2	0.037960656
2	0x3dc9b05b	0.0984809
3	0x3c82d1f3	0.015969252
4	0x3e036052	0.12829712
5	0x3ea36331	0.31911615
6	0x3d9feb3a	0.07808538
7	0x3c9bac71	0.019003125
8	0x3d05934b	0.032611173
9	0x3d95e2ac	0.07318625
10	0x3d190232	0.03735561
11	0x3e5c6eaa	0.2152659
12	0x3d48be03	0.049009334
13	0x3d1aa729	0.037757073
14	0x3e155435	0.14582904
15	0x3e0ec284	0.1394139
16	0x3cd8fe42	0.026488427
17	0x3e49f925	0.19723947
18	0x3d5a8a4e	0.053354554
19	0x3e944503	0.28958902
20	0x3c8c758d	0.017145896
21	0x3dccff3b	0.10009619
22	0x3d38d3cf	0.04512387
23	0x3e7c8283	0.24659161
24	0x3d3aaed5	0.04557689
25	0x3d9d7ace	0.07689439
26	0x3e530a70	0.2060945
27	0x3d35d432	0.04439182
28	0x3cc78ec6	0.024360072
29	0x3c8c60c5	0.017135987
30	0x3c5aed0d	0.013362181
31	0x3dd90c21	0.105980165
32	0x3ca38955	0.019962946
33	0x3d8310af	0.063996665
34	0x3d6afe07	0.057371166
35	0x3e2d0e23	0.16899924
36	0x3d712c69	0.058880243
37	0x3d050128	0.032471806
38	0x3d042f53	0.032271694
39	0x3eed0d89	0.4629939
40	0x3e5b3d64	0.21410137
41	0x3dc09ce4	0.094049245
42	0x3ca931b5	0.020653585
43	0x3de595c3	0.112102054
44	0x3ddf7c55	0.10912386
45	0x3c0132e9	0.007885673
46	0x3e067298	0.13129652
47	0x3d137809	0.036003146
48	0x3cb08044	0.021545537
49	0x3d0a3a2e	0.03374689
50	0x3e2b2853	0.16714601
51	0x3d090163	0.033448588
52	0x3da22c8b	0.07918652
53	0x3dbfb9b2	0.093615904
54	0x3d8a43f5	0.06751243
55	0x3d69ab48	0.057048112
56	0x3d2e883d	0.042610396
57	0x3c937e29	0.018004494
58	0x3e1cb789	0.15304388
59	0x3da6f502	0.081522
60	0x3d95f760	0.07322574
61	0x3d811eae	0.0630468
62	0x3ccdd05e	0.025123771
63	0x3ca18b3f	0.019719718
64	0x3d5e50dc	0.054276332
65	0x3de94ca0	0.11391568
66	0x3d937729	0.07200462
67	0x3de130cd	0.10995636
68	0x3e17a4e6	0.14808998
69	0x3d7166c4	0.058935896
70	0x3d7457f6	0.0596542
71	0x3d2958f1	0.041344587
72	0x3e8e9e0c	0.27854955
73	0x3e01c71c	0.1267361
74	0x3d7cb149	0.06169251
75	0x3ddc7bb3	0.10765781
76	0x3d2c5ae2	0.04207886
77	0x3c82d8bd	0.01597249
78	0x3d172ab6	0.036905967
79	0x3d40b902	0.047051437
80	0x3d88ba19	0.0667612
81	0x3d329c07	0.04360583
82	0x3d3b708e	0.045761637
83	0x3cc068b6	0.02348743
84	0x3d2eff72	0.04272408
85	0x3d81971b	0.06327649
86	0x3dad40a1	0.084595926
87	0x3cac8eb2	0.021064136
88	0x3c5b60e8	0.0133898035
89	0x3df06896	0.11738698
90	0x3d51d8e1	0.051232222
91	0x3c74c77d	0.01494014
92	0x3c3856a3	0.011251125
93	0x3e8a97af	0.2706885
94	0x3ec062ea	0.37575465
95	0x3cdb766f	0.026789872
96	0x3e14223b	0.14466183
97	0x3cfcdcdd	0.030867035
98	0x3d84393d	0.0645623
99	0x3e07470c	0.13210696
100	0x3d3853be	0.045001738
101	0x3c6ee247	0.014580316
102	0x3e900685	0.28129974
103	0x3de90c2f	0.11379277
104	0x3d0993b1	0.033588115
105	0x3cc93ff3	0.024566626
106	0x3d534ac1	0.051584963
107	0x3d221166	0.039567374
108	0x3e685f42	0.22692588
109	0x3db00300	0.08594322
110	0x3d105a4e	0.03524237
111	0x3c99c7e5	0.018772075
112	0x3ce12874	0.02748511
113	0x3d9190fb	0.07107731
114	0x3c45e662	0.012078853
115	0x3eabdcb0	0.3356681
116	0x3da1937e	0.0788946
117	0x3dd31069	0.10305864
118	0x3d86b777	0.06577962
119	0x3df9212d	0.12164531
120	0x3e560364	0.20899731
121	0x3e172b68	0.14762652
122	0x3d95522b	0.07291063
123	0x3e364dc1	0.17803098
124	0x3ca48b63	0.020085996
125	0x3e84d3fc	0.2594298
126	0x3d9d51b4	0.07681599
127	0x3d1e89a8	0.038705498

encoder.pos_enc.pe f4 [500, 128]
0	0x00000000	0.0
1	0x3f800000	1.0
2	0x00000000	0.0
3	0x3f800000	1.0
4	0x00000000	0.0
5	0x3f800000	1.0
6	0x00000000	0.0
7	0x3f800000	1.0
8	0x00000000	0.0
9	0x3f800000	1.0
10	0x00000000	0.0
11	0x3f800000	1.0
12	0x00000000	0.0
13	0x3f800000	1.0
14	0x00000000	0.0
15	0x3f800000	1.0
16	0x00000000	0.0
17	0x3f800000	1.0
18	0x00000000	0.0
19	0x3f800000	1.0
20	0x00000000	0.0
21	0x3f800000	1.0
22	0x00000000	0.0
23	0x3f800000	1.0
24	0x00000000	0.0
25	0x3f800000	1.0
26	0x00000000	0.0
27	0x3f800000	1.0
28	0x00000000	0.0
29	0x3f800000	1.0
30	0x00000000	0.0
31	0x3f800000	1.0
32	0x00000000	0.0
33	0x3f800000	1.0
34	0x00000000	0.0
35	0x3f800000	1.0
36	0x00000000	0.0
37	0x3f800000	1.0
38	0x00000000	0.0
39	0x3f800000	1.0
40	0x00000000	0.0
41	0x3f800000	1.0
42	0x00000000	0.0
43	0x3f800000	1.0
44	0x00000000	0.0
45	0x3f800000	1.0
46	0x00000000	0.0
47	0x3f800000	1.0
48	0x00000000	0.0
49	0x3f800000	1.0
50	0x00000000	0.0
51	0x3f800000	1.0
52	0x00000000	0.0
53	0x3f800000	1.0
54	0x00000000	0.0
55	0x3f800000	1.0
56	0x00000000	0.0
57	0x3f800000	1.0
58	0x00000000	0.0
59	0x3f800000	1.0
60	0x00000000	0.0
61	0x3f800000	1.0
62	0x00000000	0.0
63	0x3f800000	1.0
64	0x00000000	0.0
65	0x3f800000	1.0
66	0x00000000	0.0
67	0x3f800000	1.0
68	0x00000000	0.0
69	0x3f800000	1.0
70	0x00000000	0.0
71	0x3f800000	1.0
72	0x00000000	0.0
73	0x3f800000	1.0
74	0x00000000	0.0
75	0x3f800000	1.0
76	0x00000000	0.0
77	0x3f800000	1.0
78	0x00000000	0.0
79	0x3f800000	1.0
80	0x00000000	0.0
81	0x3f800000	1.0
82	0x00000000	0.0
83	0x3f800000	1.0
84	0x00000000	0.0
85	0x3f800000	1.0
86	0x00000000	0.0
87	0x3f800000	1.0
88	0x00000000	0.0
89	0x3f800000	1.0
90	0x00000000	0.0
91	0x3f800000	1.0
92	0x00000000	0.0
93	0x3f800000	1.0
94	0x00000000	0.0
95	0x3f800000	1.0
96	0x00000000	0.0
97	0x3f800000	1.0
98	0x00000000	0.0
99	0x3f800000	1.0
100	0x00000000	0.0
101	0x3f800000	1.0
102	0x00000000	0.0
103	0x3f800000	1.0
104	0x00000000	0.0
105	0x3f800000	1.0
106	0x00000000	0.0
107	0x3f800000	1.0
108	0x00000000	0.0
109	0x3f800000	1.0
110	0x00000000	0.0
111	0x3f800000	1.0
112	0x00000000	0.0
113	0x3f800000	1.0
114	0x00000000	0.0
115	0x3f800000	1.0
116	0x00000000	0.0
117	0x3f800000	1.0
118	0x00000000	0.0
119	0x3f800000	1.0
120	0x00000000	0.0
121	0x3f800000	1.0
122	0x00000000	0.0
123	0x3f800000	1.0
124	0x00000000	0.0
125	0x3f800000	1.0
126	0x00000000	0.0
127	0x3f800000	1.0
128	0x3f576aa4	0.84147096
129	0x3f0a5141	0.54030234
130	0x3f43001c	0.7617204
131	0x3f25dd28	0.6479058
132	0x3f2e7ace	0.68156135
133	0x3f3b54b0	0.731761
134	0x3f1acd3a	0.604694
135	0x3f4be4aa	0.7964579
136	0x3f087dba	0.53316844
137	0x3f58940d	0.8460091
138	0x3eef96e3	0.46794805
139	0x3f623dd5	0.883756
140	0x3ed190f0	0.4093089
141	0x3f6992c7	0.9123959
142	0x3eb6d761	0.35711196
143	0x3f6f1ea9	0.9340616
144	0x3e9f393e	0.3109836
145	0x3f734e6b	0.9504153
146	0x3e8a7617	0.2704322
147	0x3f767611	0.96273905
148	0x3e708f25	0.23492105
149	0x3f78d5f1	0.9720145
150	0x3e50ce61	0.20391227
151	0x3f7a9f09	0.9789892
152	0x3e35233a	0.17689219
153	0x3f7bf683	0.9842302
154	0x3e1d10e3	0.15338473
155	0x3f7cf87c	0.9881666
156	0x3e0825f3	0.13295726
157	0x3f7dba28	0.99112177
158	0x3debf95c	0.11522171
159	0x3f7e4b84	0.9933398
160	0x3dcc7576	0.099833414
161	0x3f7eb898	0.9950042
162	0x3db120bf	0.08648824
163	0x3f7f0a6e	0.9962529
164	0x3d996f36	0.07491915
165	0x3f7f47d1	0.9971896
166	0x3d84e660	0.06489253
167	0x3f7f75de	0.99789226
168	0x3d6636ae	0.05620449
169	0x3f7f9868	0.9984193
170	0x3d476212	0.04867751
171	0x3f7fb24f	0.9988145
172	0x3d2cacfa	0.04215715
173	0x3f7fc5bd	0.999111
174	0x3d158ac5	0.036509294
175	0x3f7fd44f	0.9993333
176	0x3d01815b	0.031617504
177	0x3f7fdf3c	0.99950004
178	0x3ce04da4	0.027380772
179	0x3f7fe76e	0.9996251
180	0x3cc23ea5	0.023711512
181	0x3f7fed93	0.99971884
182	0x3ca83682	0.020533804
183	0x3f7ff22f	0.9997892
184	0x3c91ab42	0.017781857
185	0x3f7ff5a3	0.99984187
186	0x3c7c4aa3	0.015398654
187	0x3f7ff83b	0.99988145
188	0x3c5a7a49	0.013334819
189	0x3f7ffa2c	0.99991107
190	0x3c3d31fa	0.01154756
191	0x3f7ffba1	0.9999333
192	0x3c23d657	0.009999833
193	0x3f7ffcb9	0.99995
194	0x3c0de0ba	0.008659536
195	0x3f7ffd8b	0.9999625
196	0x3bf5b916	0.0074988706
197	0x3f7ffe28	0.99997187
198	0x3bd4c9b3	0.006493771
199	0x3f7ffe9e	0.9999789
200	0x3bb8445a	0.0056233825
201	0x3f7ffef7	0.9999842
202	0x3b9f91a3	0.004869656
203	0x3f7fff39	0.99998814
204	0x3b8a2e5a	0.0042169513
205	0x3f7fff6b	0.9999911
206	0x3b6f51e9	0.0036517328
207	0x3f7fff90	0.9999933
208	0x3b4f3e1c	0.0031622713
209	0x3f7fffac	0.999995
210	0x3b3376fe	0.0027384157
211	0x3f7fffc1	0.99999624
212	0x3b1b6903	0.0023713715
213	0x3f7fffd1	0.9999972
214	0x3b069467	0.0020535232
215	0x3f7fffdd	0.9999979
216	0x3ae91520	0.0017782785
217	0x3f7fffe6	0.99999845
218	0x3ac9d754	0.0015399256
219	0x3f7fffec	0.9999988
220	0x3aaec98a	0.001333521
221	0x3f7ffff1	0.9999991
222	0x3a975c09	0.0011547814
223	0x3f7ffff5	0.99999934
224	0x3a83126d	0.0009999998
225	0x3f7ffff8	0.9999995
226	0x3a6301e2	0.00086596434
227	0x3f7ffffa	0.99999964
228	0x3a449489	0.000749894
229	0x3f7ffffb	0.9999997
230	0x3a2a3b43	0.0006493816
231	0x3f7ffffd	0.9999998
232	0x3a136a13	0.0005623411
233	0x3f7ffffd	0.9999998
234	0x39ff4fab	0.00048696747
235	0x3f7ffffe	0.9999999
236	0x39dd1721	0.00042169637
237	0x3f7fffff	0.99999994
238	0x39bf74d7	0.0003651741
239	0x3f7fffff	0.99999994
240	0x39a5cb61	0.00031622782
241	0x3f7fffff	0.99999994
242	0x398f9275	0.00027384204
243	0x3f7fffff	0.99999994
244	0x3978a80d	0.00023713727
245	0x3f800000	1.0
246	0x395753e2	0.00020535247
247	0x3f800000	1.0
248	0x393a7753	0.00017782794
249	0x3f800000	1.0
250	0x39217919	0.00015399269
251	0x3f800000	1.0
252	0x390bd46d	0.00013335208
253	0x3f800000	1.0
254	0x38f22cdd	0.00011547816
255	0x3f800000	1.0

encoder.transformer.in_proj_weight f4 [384, 128]
0	0x3d18df08	0.037322074
1	0xbd93d23c	-0.072178334
2	0xbcc5abd7	-0.024129791
3	0xbcfbc203	-0.03073216
4	0xbda2c069	-0.079468556
5	0xbc857614	-0.016291656
6	0x3d39d6ae	0.04537075
7	0x3dbb07db	0.09132358
8	0x3d8dbb55	0.069204964
9	0x3dda244e	0.10651456
10	0x3d1445f9	0.036199544
11	0x3da89e1c	0.08233282
12	0xbddb9a83	-0.1072283
13	0x3de63a37	0.11241572
14	0x3d016ab0	0.031595886
15	0x3b83a8ee	0.0040179407
16	0x3d8810a2	0.066437975
17	0x3cbdbab8	0.023160324
18	0x3d40c7fb	0.047065716
19	0x3dc6cdf0	0.09707248
20	0x3d48973a	0.048972346
21	0xbddf2add	-0.108968474
22	0x3dde6a63	0.108601354
23	0x3b96ff14	0.0046080444
24	0xbd572fc3	-0.052535783
25	0x3c0372f2	0.008023011
26	0xbddff138	-0.10934681
27	0x3d1ccf29	0.0382835
28	0xbdbf1048	-0.09329277
29	0xbdb9b8d7	-0.090684585
30	0xbd699c2a	-0.057033695
31	0x3d2cefd9	0.042220924
32	0x3dab891d	0.08375762
33	0xbd837446	-0.06418662
34	0x3d2928a1	0.041298512
35	0x3c799361	0.015232892
36	0xbda3d7b2	-0.08000125
37	0x3db884ae	0.09009682
38	0x3d05b86d	0.032646585
39	0x3d8b8a03	0.06813433
40	0xbacfe9b0	-0.0015862491
41	0x3d803c24	0.06261471
42	0xbdc9bfe6	-0.09851055
43	0xbd19c6d9	-0.03754315
44	0xbdae1c88	-0.08501536
45	0x3d95fa36	0.073231146
46	0xbd0ac67e	-0.033880703
47	0x3cc4c7dc	0.024021082
48	0xbd48e781	-0.049048904
49	0xbc96b7be	-0.018398162
50	0xbc191d96	-0.009345433
51	0xbbeae364	-0.0071682204
52	0xbd9a6faf	-0.07540833
53	0xbc9eb28b	-0.019372245
54	0xbd541530	-0.05177802
55	0x3d90662d	0.070507385
56	0xbd465629	-0.048422012
57	0xbd5df607	-0.054189708
58	0xbd8a3897	-0.06749075
59	0x3d4141c8	0.047181875
60	0xba79c6ba	-0.0009528209
61	0xbbc00832	-0.005860352
62	0xbd619aba	-0.0550792
63	0x3d9c7b77	0.076407366
64	0xbde1f5ad	-0.11033187
65	0x3976b7aa	0.00023528808
66	0x3d2365c5	0.039891977
67	0xbdbbdd99	-0.09173126
68	0x3d55e5ac	0.052220985
69	0xbbe9957f	-0.007128417
70	0x3ddd0696	0.10792272
71	0x3d5342df	0.051577445
72	0xbda6648e	-0.08124648
73	0xbe0a0458	-0.1347822
74	0xbdc08b42	-0.09401561
75	0xbd048a48	-0.032358438
76	0x3dbaab44	0.091146976
77	0xbc888908	-0.016666904
78	0x3dc8ecf9	0.09810824
79	0x3d80092a	0.06251748
80	0xbcea2e8d	-0.02858665
81	0xbd3fc9c7	-0.04682329
82	0xbce8304d	-0.028343344
83	0x3cd59a9e	0.026074704
84	0xbcf66149	-0.030075686
85	0x3d582c60	0.052776694
86	0x3d0f113b	0.03492854
87	0xbdaf72aa	-0.08566792
88	0x3d6d82a7	0.057985928
89	0x3d182433	0.037143897
90	0x3c55d0e6	0.013050294
91	0xbd22aa36	-0.039713107
92	0x3d876ed2	0.06612934
93	0x3daa6edd	0.08321927
94	0xbd40a5d0	-0.04703313
95	0xbd9049d4	-0.070453316
96	0x3df6b011	0.12045301
97	0x3d6a2bf2	0.057170816
98	0x3dccbbd7	0.09996765
99	0xbd637459	-0.05553088
100	0xbd9c5f79	-0.076353975
101	0x3d8a680c	0.067581266
102	0x3dc75811	0.09733594
103	0x3d90aa6f	0.07063758
104	0x3de3c1b3	0.111209296
105	0xbdab9fdc	-0.083801
106	0x3d79fe78	0.061033696
107	0xbdb278a8	-0.087144196
108	0xbd11acca	-0.035565175
109	0x399177bf	0.00027745773
110	0x3bcbbff4	0.006217951
111	0x3b5f64f4	0.0034087272
112	0x3d762ecb	0.06010322
113	0xbb6b7d51	-0.0035932849
114	0x3b9800f3	0.004638785
115	0x3b7bf661	0.0038446414
116	0xbc34b39b	-0.011029149
117	0xbd5c54c1	-0.053791765
118	0x3d0783b4	0.033084586
119	0x3d6f8291	0.058474127
120	0x3d0ed6c9	0.034872804
121	0xbd8a7df3	-0.06762304
122	0x3cd06542	0.025438908
123	0xbd906230	-0.07049978
124	0x3da5bdbc	0.080928296
125	0xbc80f658	-0.015742466
126	0x3e06bb74	0.13157445
127	0xbdd17047	-0.10226493
128	0xbd833bbe	-0.06407879
129	0xbd3fa840	-0.046791315
130	0xbdfd90c9	-0.12381131
131	0xbd8e40d6	-0.0694596
132	0xbe06b7a0	-0.13155985
133	0xbc6041fd	-0.013687608
134	0x3d828d8e	0.06374656
135	0x3dcb4e4b	0.099270426
136	0x3c5dec36	0.013545087
137	0x3cf5e43c	0.030016057
138	0xbd9dbe96	-0.07702367
139	0xbc44ea27	-0.012018717
140	0x3dfaba73	0.122425936
141	0xb9a6994d	-0.00031776205
142	0xbde1329d	-0.10995982
143	0x3d6ee749	0.05832604
144	0x3d8618bf	0.06547689
145	0xbe1b3c4b	-0.15159719
146	0x3d5a0c03	0.05323411
147	0xbdb6bbe7	-0.08922558
148	0x3d6a6be7	0.05723181
149	0xbae2a5d0	-0.0017291848
150	0xbc9966e6	-0.018725824
151	0xbd8c5815	-0.06852738
152	0xbd9f77f5	-0.07786552
153	0xbca11294	-0.019662179
154	0x3d935da9	0.07195599
155	0x3de754fc	0.11295506
156	0xbd448480	-0.047977924
157	0xbd330f31	-0.04371566
158	0xbdb91ef6	-0.090391085
159	0x3b821e89	0.003970925
160	0x3cbf0212	0.023316417
161	0x3cff6680	0.031176805
162	0xbdf0695c	-0.11738846
163	0xbcde2db3	-0.0271214
164	0x3b9fe673	0.0048797666
165	0x3d0c1f2c	0.034209415
166	0xbd33089d	-0.043709386
167	0x3c3be38e	0.0114678275
168	0xbcb3950b	-0.021921655
169	0xbdb89e45	-0.090145625
170	0x3ddd4936	0.108049795
171	0xbc578922	-0.013155254
172	0x3d814b80	0.063132286
173	0x3d0964ea	0.033543505
174	0x3c6d9d45	0.014502828
175	0x3d69fc6c	0.057125494
176	0x3dc7749f	0.097390406
177	0x3c68196b	0.014166216
178	0x3cbee342	0.023301724
179	0xbd29e884	-0.04148151
180	0x3d664b50	0.056224167
181	0xbd24d9ca	-0.040246762
182	0x3d4718c8	0.048607618
183	0x3dcbc164	0.09948996
184	0xbd8b5672	-0.068035975
185	0xbd97ea6e	-0.07417761
186	0x3c3f2bdd	0.011668173
187	0x3dbf7d6b	0.093500935
188	0x3dc74626	0.09730177
189	0x3d9fe856	0.078079864
190	0xbd696ddb	-0.056989532
191	0x3df18b3e	0.117941365
192	0x3df9c01a	0.121948436
193	0x3d567e50	0.052366555
194	0xbae233a8	-0.0017257826
195	0xbd549a69	-0.05190507
196	0xbd4cd9aa	-0.050012268
197	0x3da7a824	0.08186367
198	0x3d826283	0.06366446
199	0xbc16e5e6	-0.0092100855
200	0x3a3e9d4d	0.00072713644
201	0x3db8b747	0.090193324
202	0x3e03e2ef	0.12879537
203	0xbd98c7a5	-0.07459954
204	0xb7e04f6a	-2.6739861e-05
205	0x3dee9c98	0.11650962
206	0xba7de20d	-0.0009684868
207	0x3da535ba	0.08066888
208	0x3db0eb9c	0.08638689
209	0xbd62d13b	-0.05537532
210	0x3c631e9d	0.013862279
211	0xbc4ecec4	-0.012622539
212	0x3cd110db	0.025520733
213	0xbd31b14a	-0.043381967
214	0x3d1acbe0	0.037792087
215	0x3dcbd074	0.09951869
216	0xbd87af38	-0.06625217
217	0x3c533585	0.012891178
218	0x3d7d3b77	0.06182429
219	0x3dd40393	0.10352244
220	0xbc5abf6b	-0.013351302
221	0xbd7ae73a	-0.06125567
222	0xbd8a8717	-0.067640476
223	0x3dc10157	0.09424084
224	0x3db0d89a	0.086350635
225	0xbb290394	-0.0025789486
226	0xbd643795	-0.05571707
227	0x3e018077	0.12646662
228	0x3ca67f45	0.020324359
229	0xbb2b242b	-0.0026114087
230	0xbdf4f43a	-0.11960645
231	0xbd7dfe2e	-0.062009983
232	0xbdbcc3c9	-0.092170306
233	0x3c827bbe	0.015928145
234	0x3d8f0886	0.069840476
235	0xbc53c631	-0.0129256705
236	0xbde119bc	-0.109912366
237	0x3cb241b4	0.021759845
238	0x3d065ee5	0.032805342
239	0x3dfa3806	0.12217717
240	0xbc0ff9ef	-0.008787616
241	0x3dbbb8d2	0.09166111
242	0xbdb4b520	-0.08823609
243	0x3ccd6cc9	0.025076287
244	0x3d5fe89c	0.054665193
245	0xbc8f1e5e	-0.017470535
246	0xbd2468b1	-0.040138904
247	0x3d4812a2	0.048845895
248	0x3b9c5b01	0.0047715907
249	0x3c3ab3a7	0.0113953715
250	0x3d5e345d	0.054249156
251	0x3c962bf3	0.018331503
252	0xbd988c8d	-0.07448683
253	0xbd959613	-0.07304015
254	0x3d7b7141	0.061387304
255	0x3cbbb6a1	0.022914233

encoder.transformer.in_proj_bias f4 [384]
0	0xbd01b812	-0.031669684
1	0x3d333f1d	0.04376136
2	0xbb3e5179	-0.002904026
3	0x3c81a8e6	0.015827607
4	0x3ced4f67	0.028968526
5	0xbca1a318	-0.01973109
6	0xbd15b81f	-0.036552545
7	0x3c0e8ab9	0.008700066
8	0xbb7f57ad	-0.003896217
9	0xbcdeab31	-0.02718124
10	0xbbe7d901	-0.0070754294
11	0xbcb6a650	-0.0222961
12	0xbcd2f8a8	-0.025753334
13	0x3c0e07fe	0.008668898
14	0xbc1df35c	-0.009640541
15	0x3d0373f3	0.032093
16	0xb9a00e20	-0.00030528102
17	0x3c834d7e	0.016028162
18	0x3cabcdd7	0.020972176
19	0x3d199f8a	0.037505664
20	0xbc649cf8	-0.01395344
21	0xbc14ad5b	-0.009074534
22	0xbcb8227d	-0.022477383
23	0x3d14efc7	0.036361482
24	0x3d011ff9	0.031524632
25	0x3c3da9f6	0.011576166
26	0x3c594ea8	0.013263382
27	0xbca0f9c1	-0.019650342
28	0xbcc22d4e	-0.023703244
29	0xbc60e726	-0.013726985
30	0xbca55cbb	-0.020185819
31	0xbc9414a3	-0.018076247
32	0xbb3e83b9	-0.0029070212
33	0x3d2187b1	0.039436046
34	0xbb1234de	-0.0022309343
35	0x3a809368	0.0009809555
36	0x3b6019d9	0.0034195094
37	0xbc141dc8	-0.0090403035
38	0xbcca54df	-0.024698673
39	0x3d237e9e	0.039915673
40	0x3c752a1a	0.014963651
41	0x3c4a7dd8	0.012359105
42	0x3c1bee79	0.0095173055
43	0xbcb8e1a9	-0.02256854
44	0xbca0daf1	-0.01963565
45	0xbbfa3b6a	-0.0076364772
46	0x3c9d6b0b	0.019216081
47	0x3ae1fb74	0.0017241077
48	0xbd001deb	-0.031278532
49	0xbc060758	-0.008180462
50	0x3c97b117	0.01851706
51	0x3c0e089c	0.008669045
52	0x3d126793	0.035743307
53	0xbd24e3b2	-0.04025621
54	0xbccc8c5b	-0.02496927
55	0xbc80004c	-0.015625142
56	0xbc1eaa9e	-0.009684233
57	0xbbbe7e61	-0.0058134054
58	0x3c406377	0.011742464
59	0x3c40c17c	0.01176488
60	0xbbbf824c	-0.00584439
61	0xbb8fcf6b	-0.00438874
62	0xbc78e561	-0.015191407
63	0xbc5418a2	-0.012945326
64	0x3c11c529	0.008897104
65	0xbc05e8df	-0.008173197
66	0x3c4d4424	0.012528453
67	0xbc8e5a94	-0.017377175
68	0x3c9e9a6e	0.019360747
69	0x3c170817	0.009218237
70	0x3c3211ad	0.010868472
71	0x3cd44129	0.025909977
72	0xbc83ec0a	-0.016103763
73	0x3cb1310d	0.021629835
74	0x3bd91423	0.006624715
75	0xbc5c43df	-0.013443916
76	0xbca560bd	-0.02018773
77	0x3c52e59d	0.012872127
78	0x3c89c128	0.016815737
79	0xbc3e1048	-0.011600561
80	0xbc8d4769	-0.017245965
81	0x3c381a33	0.011236715
82	0x3c2deb9f	0.0106152585
83	0x3cb18b83	0.02167297
84	0xbc0318a8	-0.008001484
85	0xbce3da73	-0.027814126
86	0x3b5d46d6	0.0033764145
87	0x3aac2e65	0.0013136385
88	0x3c72ef1e	0.014827518
89	0x3bc6f09c	0.0060711633
90	0x3c9fb753	0.019496595
91	0x3cc8687c	0.024463885
92	0x3d07307b	0.03300522
93	0xbc5fe587	-0.013665563
94	0x3a7649c1	0.00093951455
95	0xbc9680f1	-0.01837203
96	0x3cc6a382	0.024247888
97	0x3c493d27	0.012282646
98	0x3a845bb6	0.0010098133
99	0xbce38fcb	-0.027778527
100	0x3b00922b	0.0019618373
101	0xbbc32555	-0.005955378
102	0xbcb95e18	-0.022627875
103	0xbc1d51d2	-0.009602027
104	0x3cbb567f	0.022868393
105	0x3b922a35	0.004460598
106	0xbc7c316f	-0.015392645
107	0xbc4e05ee	-0.012574656
108	0xbcb33036	-0.021873575
109	0xbc93385a	-0.017971206
110	0xbb9476bf	-0.004530757
111	0xbae92ce8	-0.0017789872
112	0x3cba1496	0.022714894
113	0xbbdee4ec	-0.006802192
114	0xbc8766d2	-0.01652852
115	0xbc302cc7	-0.010752863
116	0x3ba64de6	0.005075204
117	0xbbff207f	-0.0077858563
118	0x3ca482cc	0.0200819
119	0xbc9c4c37	-0.01907931
120	0x3c818178	0.015808806
121	0x3c46555f	0.012105315
122	0x3c076492	0.008263724
123	0xbc73339f	-0.01484385
124	0x3cd05235	0.025429824
125	0xbcaf1d6a	-0.02137633
126	0x3ae14e75	0.001718952
127	0x3bd0b982	0.0063697705
128	0xb4c53b2a	-3.6737157e-07
129	0x35a6ea6f	1.2436193e-06
130	0x348e4d2b	2.6505708e-07
131	0x350bb034	5.2037944e-07
132	0x35236193	6.086422e-07
133	0xb4691376	-2.1706896e-07
134	0xb5528f5d	-7.843972e-07
135	0xb455d152	-1.9913321e-07
136	0x350c0b28	5.21703e-07
137	0xb5730515	-9.053195e-07
138	0xb529e81f	-6.3295187e-07
139	0xb534667e	-6.720437e-07
140	0xb4cfff8d	-3.8742692e-07
141	0xb458f72d	-2.020649e-07
142	0xb2d2c101	-2.4534986e-08
143	0x359be703	1.1615633e-06
144	0xb428ff50	-1.5739101e-07
145	0x34f110d6	4.4901998e-07
146	0x3528b4fc	6.2848244e-07
147	0x3597cb10	1.1309476e-06
148	0xb487c0b4	-2.528592e-07
149	0x34bc8664	3.511551e-07
150	0xb5206d8f	-5.9764074e-07
151	0x3574addc	9.115008e-07
152	0x350eeccc	5.3243707e-07
153	0x34817bdd	2.4118245e-07
154	0x31b57f40	5.28226e-09
155	0xb5394a54	-6.902603e-07
156	0xb4ef4bd7	-4.45724e-07
157	0xb440d88b	-1.7960171e-07
158	0xb47c39cd	-2.3490357e-07
159	0xb51eab79	-5.910911e-07
160	0x34230e52	1.5185768e-07
161	0x34d68b94	3.9962163e-07
162	0x34d7fe4f	4.0231905e-07
163	0xb446a9f5	-1.8502017e-07
164	0x3482d2f7	2.4367884e-07
165	0xb3307353	-4.108308e-08
166	0x3517062d	5.626087e-07
167	0x34d40eb8	3.9498786e-07
168	0xb4da5001	-4.0663875e-07
169	0x33c08eb0	8.9666514e-08
170	0x32c16366	2.2513358e-08
171	0xb4f34d6b	-4.5318606e-07
172	0x346a8f81	2.1845155e-07
173	0x33c2b14e	9.0660805e-08
174	0xb39713fd	-7.035121e-08
175	0xb4a53c31	-3.077744e-07
176	0xb491fac6	-2.7190816e-07
177	0x33de48e9	1.0350943e-07
178	0xb4cfc6ff	-3.8701543e-07
179	0x3453c0fc	1.9721114e-07
180	0xb4b1d021	-3.3120253e-07
181	0x34b665da	3.3974248e-07
182	0x340a985c	1.290768e-07
183	0xb4312a90	-1.6499894e-07
184	0xb44940d1	-1.8743164e-07
185	0x338ec39b	6.647971e-08
186	0x338bef3e	6.51621e-08
187	0x344a69c8	1.8851199e-07
188	0x33bb7bcf	8.730387e-08
189	0xb3dd77f0	-1.0312931e-07
190	0xb1ef9779	-6.973036e-09
191	0x3459a94c	2.027129e-07
192	0xb512c338	-5.467332e-07
193	0x354901f7	7.4881194e-07
194	0xb48042c4	-2.3890436e-07
195	0x35326fa6	6.647264e-07
196	0xb4afb3b4	-3.272704e-07
197	0xb53c5d7f	-7.017151e-07
198	0xb453fa81	-1.9742039e-07
199	0xb54c590c	-7.61255e-07
200	0x348df595	2.644198e-07
201	0xb53731dd	-6.8245373e-07
202	0xb5757a20	-9.144733e-07
203	0x35294969	6.306423e-07
204	0x3500a8b0	4.792919e-07
205	0x33cbe6b5	9.4948895e-08
206	0xb4971cb4	-2.8146826e-07
207	0x345a6aad	2.034164e-07
208	0x35821c42	9.693979e-07
209	0xb5cd2b4c	-1.5286291e-06
210	0xb3c34bf8	-9.094214e-08
211	0xb59015bf	-1.0735165e-06
212	0xb46fcdc4	-2.2333467e-07
213	0x35462e6b	7.3828295e-07
214	0x34e6e937	4.3010525e-07
215	0xb51a1f16	-5.7414707e-07
216	0x338caa80	6.550272e-08
217	0xb48f83a2	-2.67316e-07
218	0xb53ea78f	-7.1024346e-07
219	0xb50dac17	-5.2777017e-07
220	0xb55727fd	-8.015193e-07
221	0x31a8d24d	4.913352e-09
222	0x33a4ae3b	7.6685374e-08
223	0x34fae602	4.6733481e-07
224	0xb619e3e2	-2.2931422e-06
225	0xb5aa6b91	-1.2697293e-06
226	0xb5078321	-5.0482237e-07
227	0x334f3117	4.824059e-08
228	0x350eff9c	5.327108e-07
229	0xb1822b78	-3.78844e-09
230	0x35fd6f08	1.8882283e-06
231	0x356afa3e	8.7535943e-07
232	0xb5529e0c	-7.8461085e-07
233	0x339b471a	7.230683e-08
234	0x353ed14d	7.108509e-07
235	0x348e8aa7	2.6550444e-07
236	0x35dc770a	1.6425922e-06
237	0x357fb0ff	9.5252466e-07
238	0xb4b3bbed	-3.3478082e-07
239	0x343948ae	1.7255908e-07
240	0xb3c920d3	-9.3657626e-08
241	0x35262fce	6.1909384e-07
242	0x349eac74	2.955527e-07
243	0x34d24474	3.9165354e-07
244	0x34d6b001	3.9988666e-07
245	0x3311bf94	3.3934683e-08
246	0xb5e16386	-1.6792771e-06
247	0x35b84c18	1.3731214e-06
248	0xb58ded6e	-1.057442e-06
249	0xb5247f5f	-6.128011e-07
250	0xb47862ff	-2.3132814e-07
251	0x34f2e9b4	4.5246054e-07
252	0xb5850703	-9.911313e-07
253	0x3522b079	6.0606504e-07
254	0xb5209414	-5.9820127e-07
255	0x34978b8d	2.8227478e-07
