experiments/model_16_30_2026-01-17_2990/model.pt (torch, 48032 bytes, 21 tensors)

encoder.graph_embed.GCN_in.A f4 [9, 9]
0.13296795 1.9841834 1.5083222 -0.49529445 0.34863904 -0.5479005 0.2005752 -1.4239817
-0.21081302 -1.0322143 0.46146357 -0.66504675 -1.0239855 0.89933145 1.260327 -0.5328531
-1.124428 -0.9818542 0.74191743 -1.1554272 -0.7200159 1.2556378 -0.67347217 0.2574275
-0.10143339 0.089263946 1.0489856 0.43592688 -1.1855383 -2.2722287 -1.7225885 -0.82269883
-0.12749429 -0.35089594 0.3671143 0.72166926 0.45190847 0.58567727 -0.18988442 0.45682237
1.120159 1.2125151 0.854784 0.48296523 0.24858722 1.1089151 -0.8572688 -2.1578643
-1.0914781 1.3723394 0.9602418 1.902662 -0.34447914 -0.6957286 -0.92226857 0.017931873
-1.4082226 0.4526194 -0.123267055 0.48443976 0.6245083 -0.108118325 1.3437376 1.5485407
0.32353547 0.25525698 -0.69545674 1.5388888 0.10488485 0.5100227 0.20987469 -1.6984304
-0.6282968 -0.9735642 -0.626711 0.82772404 -0.0856742 -0.019031942 0.681655 1.4829867
0.4325557
00000000: c028 083e b9f9 fd3f b410 c13f 3c97 fdbe
00000010: d180 b23e 3543 0cbf 9663 4d3e 0845 b6bf
00000020: 5edf 57be 991f 84bf f444 ec3e 8140 2abf
00000030: f511 83bf 963a 663f 6552 a13f 1069 08bf
00000040: 42ed 8fbf cc5a 7bbf 4dee 3d3f 0ae5 93bf
00000050: f652 38bf bdb8 a03f ac68 2cbf 8acd 833e
00000060: 4fbc cfbd 04d0 b63d 2945 863f cf31 df3e
00000070: b8bf 97bf 326c 11c0 c87d dcbf 649c 52bf
00000080: dd8d 02be a2a8 b3be 68f6 bb3e 51bf 383f
00000090: 8c60 e73e f2ee 153f 1071 42be 9fe4 e93e
000000a0: 5f61 8f3f b233 9b3f 20d3 5a3f 3847 f73e
000000b0: a68d 7e3e eef0 8d3f f875 5bbf 731a 0ac0
000000c0: 8eb5 8bbf d1a8 af3f 68d2 753f 6e8a f33f
000000d0: 925f b0be 451b 32bf cb19 6cbf dde5 923c
000000e0: a340 b4bf bbbd e73e 7073 fcbd 7d08 f83e
000000f0: c7df 1f3f 246d ddbd 98ff ab3f 9536 c63f
00000100: 71a6 a53e 0bb1 823e 7409 32bf 4ffa c43f
00000110: decd d63d d990 023f 64e9 563e 2b66 d9bf
00000120: 0fd8 20bf 813b 79bf 2270 20bf b9e5 533f
00000130: f475 afbd e0e8 9bbc f180 2e3f 82d2 bd3f
00000140: f177 dd3e

encoder.graph_embed.GCN_in.linear.weight f4 [16, 16]
0.09250856 0.015325861 -0.053620465 0.026837828 0.110173024 -0.11237122 -0.08690871 0.17301351
-0.099010095 0.05257364 -0.22518687 0.042861827 0.07731113 -0.07439204 -0.05426357 0.011233078
-0.21503109 -0.119424894 -0.085000075 0.07883454 -0.28754345 -0.18112019 0.2127202 -0.040162593
0.003022805 0.08368091 -0.07165064 -0.058999 0.055903405 -0.070562564 0.06086939 -0.05131518
-0.07282141 -0.25920063 0.26597998 0.18675381 0.24789242 0.107347146 -0.038509417 -0.0442267
0.16211227 -0.2406567 0.25055745 0.011060385 -0.020516494 0.09098453 -0.09193162 -0.22923838
-0.15638052 -0.22090419 -0.027258169 -0.048617084 -0.00012916679 0.031820115 0.031449772 -0.22117393
-0.30698743 -0.03663909 0.104957305 0.087662965 -0.14030398 -0.14521168 -0.13860093 0.10519322
-0.027475648 0.26480418 0.12841284 0.01680188 0.16231954 -0.303654 0.065777734 -0.2287056
-0.14978841 0.25408372 0.20842947 0.1764225 -0.074733 -0.13137487 0.018989883 -0.12467245
0.16055873 0.04143726 -0.09387473 0.007902122 0.27556825 0.06561013 0.18483382 0.2921415
0.23796952 0.13139392 -0.14220864 0.005465853 0.0088141095 0.17145944 -0.066724755 0.10126335
-0.0213446 0.016714461 -0.058085807 -0.27192026 -0.022334496 0.16518255 0.019027183 0.028640717
-0.20676988 0.070102826 0.010503336 -0.06834432 0.16699697 -0.17563054 -0.07106805 -0.1261682
-0.0875763 0.18123212 -0.1460534 0.003338618 0.24786723 -0.21154244 0.21507308 -0.1425877
-0.08056812 -0.03794622 -0.09440797 0.044923846 -0.0033956002 -0.077167 0.023748862 -0.04328142
0.10420971 0.29248086 0.09607184 0.3113616 0.08036768 0.030695632 0.23355621 -0.07175547
-0.04908728 -0.006099584 0.20741978 0.023263222 0.16974956 -0.110677086 8.7507455e-05 0.061061867
-0.024357634 -0.09365273 -0.23359406 -0.013151356 0.16581714 -0.10237239 0.19400333 -0.077407695
0.2993878 0.12742607 -0.07569713 0.0015091716 -0.0630106 0.118390754 -0.03145614 0.035903256
0.22055432 -0.2292748 0.074473895 0.24545215 0.037973616 0.09699 0.20437433 -0.15503007
-0.20590776 -0.1987266 -0.1018417 -0.09369941 0.032586478 -0.059195876 0.07311338 -0.058960605
0.26556802 0.09828776 -0.14233467 0.1996274 -0.18428338 -0.15204668 -0.00884887 -0.06828987
0.034320224 0.07767072 0.08757775 0.023503985 0.0424264 0.071859546 -0.039463744 0.15064636
0.15461646 0.11838925 0.26290062 -0.16559716 0.027632162 -0.30225146 0.07946676 0.07217676
-0.14901686 -0.1619799 -0.045253392 -0.20138219 -0.070978366 -0.016566126 -0.00096991716 0.097857594
-0.009470419 -0.012137415 -0.20025544 -0.042776313 0.2954057 0.014678681 -0.09282908 -0.1444432
-0.17479983 0.04660989 0.1837322 -0.16479403 0.030907895 0.029194243 0.10150449 0.06581659
-0.0034074173 0.2032898 -0.13183802 -0.08241316 -0.07752117 -0.059615597 -0.28001374 -0.13030262
0.17901137 -0.26921546 0.037582614 -0.061148748 -0.110951364 0.04373881 -0.12397074 -0.19450496
-0.19003232 0.15711756 -0.07362107 0.07691278 -0.05851653 -0.04227567 0.06348773 -0.043691594
-0.23508102 0.14497241 -0.06734494 -0.18372722 0.040850304 0.081198186 -0.15589517 0.07454728
00000000: 2175 bd3d 5219 7b3c 22a1 5bbd 01db db3c
00000010: 65a2 e13d e222 e6bd 32fd b1bd 742a 313e
00000020: cec5 cabd 7557 573d 6397 66be e28f 2f3d
00000030: 4c55 9e3d db5a 98bd 7a43 5ebd f20a 383c
00000040: 1c31 5cbe 0a95 f4bd 8514 aebd 0174 a13d
00000050: e538 93be 9277 39be 53d3 593e 8881 24bd
00000060: 411a 463b e660 ab3d 92bd 92bd efa8 71bd
00000070: f8fa 643d 1b83 90bd 2e52 793d de2f 52bd
00000080: 6423 95bd f2b5 84be 872e 883e 643c 3f3e
00000090: 83d7 7d3e d2d8 db3d 0dbc 1dbd 0e27 35bd
000000a0: c200 263e b66e 76be 1149 803e 9e36 353c
000000b0: 3512 a8bc 1956 ba3d a546 bcbd 77bd 6abe
000000c0: 3722 20be b534 62be 864c dfbc b522 47bd
000000d0: f270 07b9 cf55 023d 7ad1 003d 6b7b 62be
000000e0: 752d 9dbe df12 16bd dbf3 d63d a488 b33d
000000f0: d9ab 0fbe 5fb2 14be 67ed 0dbe 8b6f d73d
00000100: 9c14 e1bc 6a94 873e a87e 033e 19a4 893c
00000110: 1837 263e 8978 9bbe 7ab6 863d cd31 6abe
00000120: 2262 19be 4317 823e 896e 553e 1aa8 343e
00000130: 9d0d 99bd 2287 06be ac90 9b3c 4554 ffbd
00000140: 8269 243e 1eba 293d 6541 c0bd e777 013c
00000150: 4817 8d3e 9b5e 863d 1445 3d3e 9293 953e
00000160: 48ae 733e 218c 063e 249f 11be e61a b33b
00000170: 0e69 103c 1093 2f3e fda6 88bd 2963 cf3d
00000180: dfda aebc c4ec 883c 62eb 6dbd 2239 8bbe
00000190: d5f6 b6bc 9d25 293e e5de 9b3c f09f ea3c
000001a0: 7cbb 53be 1292 8f3d 2f16 2c3c 1bf8 8bbd
000001b0: 4101 2b3e 7ed8 33be 208c 91bd 3d32 01be
000001c0: 345b b3bd ea94 393e 068f 15be b7cc 5a3b
000001d0: e8d0 7d3e 959e 58be 1e3c 5c3e 8302 12be
000001e0: e600 a5bd 7f6d 1bbd f758 c1bd 1102 383d
000001f0: b888 5ebb bb09 9ebd f98c c23c dc47 31bd
00000200: e76b d53d 0dc0 953e 50c1 c43d ca6a 9f3e
00000210: cf97 a43d 6875 fb3c 5c29 6f3e 88f4 92bd
00000220: be0f 49bd 05df c7bb da65 543e 8392 be3c
00000230: d4d2 2d3e abaa e2bd 3584 b738 021c 7a3d
00000240: a989 c7bc 01cd bfbd 4833 6fbe c978 57bc
00000250: f8cb 293e 9ea8 d1bd cfa8 463e ed87 9ebd
00000260: 5c49 993e fb7b 023e 1907 9bbd 65cf c53a
00000270: b40b 81bd da76 f23d 27d8 00bd 4b0f 133d
00000280: fed8 613e 03c7 6abe c585 983d cf57 7b3e
00000290: 398a 1b3d b1a2 c63d 8147 513e 34c0 1ebe
000002a0: 7cd9 52be fc7e 4bbe 6292 d0bd 7ae5 bfbd
000002b0: 6679 053d 6077 72bd 78bc 953d ad80 71bd
000002c0: 88f8 873e 184b c93d 2ec0 11be 206b 4c3e
000002d0: c8b4 3cbe 20b2 1bbe dafa 10bc 8fdb 8bbd
000002e0: 5d93 0c3d d411 9f3d f75b b33d 6e8b c03c
000002f0: 4ec7 2d3d 192b 933d bca4 21bd 0a43 1a3e
00000300: c753 1e3e 1076 f23d e99a 863e 4d92 29be
00000310: d85c e23c b4c0 9abe 78bf a23d 69d1 933d
00000320: e097 18be 0fde 25be 9f5b 39bd 2237 4ebe
00000330: 1b5d 91bd afb5 87bc 0a42 7eba 9069 c83d
00000340: d129 1bbc 02dc 46bc c30f 4dbe 3736 2fbd
00000350: 6a3f 973e da7e 703c 2c1d bebd ebe8 13be
00000360: bafe 32be 03ea 3e3d 4b24 3c3e c4bf 28be
00000370: 8e32 fd3c c428 ef3c 96e1 cf3d d9ca 863d
00000380: fa4e 5fbb 342b 503e 8c00 07be 3bc8 a8bd
00000390: 6bc3 9ebd 7c2f 74bd f65d 8fbe 0d6e 05be
000003a0: c24e 373e 9cd6 89be 3af0 193d 1c77 7abd
000003b0: 783a e3bd 7727 333d 5fe4 fdbd 4f2c 47be
000003c0: d597 42be 6de3 203e a5c6 96bd 7384 9d3d
000003d0: 07af 6fbd 4129 2dbd db05 823d f5f5 32bd
000003e0: 14b9 70be a673 143e 25ec 89bd fd22 3cbe
000003f0: a652 273d 3c4b a63d fca2 1fbe 3fac 983d

encoder.graph_embed.GCN_in.linear.bias f4 [16]
0.081921704 -0.022590712 -0.013696576 0.033686597 0.123567246 -0.0834498 -0.11786876 0.21752386
-0.018754575 0.10533645 0.046897966 0.08908727 0.09647758 0.00092956255 0.18529668 -0.12564647
00000000: 91c6 a73d 2810 b9bc 9a67 60bc f5fa 093d
00000010: d310 fd3d bbe7 aabd 2d65 f1bd 93be 5e3e
00000020: 32a3 99bc a3ba d73d 1518 403d 6373 b63d
00000030: 0a96 c53d e3ad 733a 6abe 3d3e 78a9 00be

encoder.graph_embed.bn.weight f4 [16]
0.91574925 0.9529245 0.98245233 1.0744253 0.9276915 1.0711858 0.9926162 0.84076524
1.0639983 0.85816234 0.8926171 0.7847835 0.96435845 0.79700065 0.91787004 1.0026476
00000000: 8b6e 6a3f dcf2 733f ff81 7b3f c586 893f
00000010: 317d 6d3f 9e1c 893f 181c 7e3f 643c 573f
00000020: 1931 883f 87b0 5b3f 8e82 643f 92e7 483f
00000030: 32e0 763f 3c08 4c3f 88f9 6a3f c256 803f

encoder.graph_embed.bn.bias f4 [16]
-0.0014952804 -0.074194275 -0.049369387 0.031072153 0.005149585 -0.0586337 -0.035518285 0.10618354
0.021115262 0.0313 -0.0849421 0.09814055 -0.056816686 0.10916914 -0.06108793 0.056547705
00000000: 49fd c3ba 2bf3 97bd 8e37 4abd 078b fe3c
00000010: dabd a83b e429 70bd 9f7b 11bd c176 d93d
00000020: eaf9 ac3c 6e34 003d 20f6 adbd eafd c83d
00000030: 9db8 68bd 1294 df3d 5637 7abd 919e 673d

encoder.graph_embed.bn.running_mean f4 [16]
0.052314464 0.026497992 0.048376482 -0.015432135 -0.02471827 -0.071940154 -0.025105618 0.0398769
0.034385704 0.07758439 -0.0040319334 -0.03238902 -0.011903195 0.003497471 -0.0040611597 0.030492056
00000000: b147 563d 5112 d93c 6b26 463d 11d7 7cbc
00000010: f87d cabc 5c55 93bd 4caa cdbc f655 233d
00000020: 06d8 0c3d 91e4 9e3d 4f1e 84bb 59aa 04bd
00000030: 9e05 43bc d435 653b 7a13 85bb 7aca f93c

encoder.graph_embed.bn.running_var f4 [16]
0.015804905 0.0064734374 0.012916281 0.011723718 0.0053311484 0.007732297 0.0042225933 0.009409865
0.0125229955 0.029137552 0.0066339 0.0061868764 0.006770613 0.004951972 0.0040415954 0.0034768449
00000000: 4a79 813c 211f d43b cf9e 533c d614 403c
00000010: eab0 ae3b 355f fd3b ae5d 8a3b d62b 1a3c
00000020: 402d 4d3c e0b1 ee3c 3061 d93b 48bb ca3b
00000030: 05dc dd3b 2744 a23b 5c6f 843b c7db 633b

encoder.graph_embed.GCN_layers.0.A f4 [9, 9]
-1.1483904 0.4977062 -0.14683403 0.33334988 0.86238885 1.603235 -0.47541502 -0.71878386
0.09408755 0.13572983 -0.12559155 -0.07851834 0.10536761 0.35474443 -0.42854106 0.7328838
0.5299831 -0.62697726 0.62531215 0.15518719 -0.59384507 0.19094224 1.3263081 0.0007104644
0.8561225 2.099986 -1.5842267 -0.5489491 -0.76748925 -0.8288863 0.6318797 0.059890963
-0.30820966 -0.20723109 1.4640127 -0.7428261 0.24082069 -0.8484455 1.0846183 -0.67847973
0.5049974 -0.90178585 -0.882313 -0.20102897 0.06481133 -0.54104835 1.1012874 -0.48721975
1.1026021 0.99639916 -1.068914 1.5904901 1.3074923 0.2599204 -1.3237996 0.25577685
-0.022081519 -1.9096977 -0.90429455 1.1094639 -0.244946 -0.16575348 0.7689207 0.1464253
0.6794056 -0.55951965 -0.30776775 -0.30003464 0.9905983 0.8429754 -0.72022355 0.54468626
-0.23125128 -0.6269534 -1.7318213 -1.6620313 0.8219071 -0.08400863 -0.37310824 0.35147887
-0.08091344
00000000: 75fe 92bf 59d3 fe3e a95b 16be d6ac aa3e
00000010: 84c5 5c3f ce36 cd3f 9969 f3be 3802 38bf
00000020: f9b0 c03d c3fc 0a3e 129b 00be 39ce a0bd
00000030: f9ca d73d 10a1 b53e bc69 dbbe 469e 3b3f
00000040: f9ac 073f 9581 20bf 7514 203f 64e9 1e3e
00000050: 3b06 18bf 5d86 433e 77c4 a93f 753e 3a3a
00000060: d82a 5b3f 2c66 0640 f1c7 cabf ee87 0cbf
00000070: 2d7a 44bf e431 54bf dec2 213f 3a50 753d
00000080: a8cd 9dbe 6334 54be c564 bb3f da29 3ebf
00000090: b399 763e b933 59bf c6d4 8a3f d9b0 2dbf
000000a0: 8247 013f 70db 66bf 44df 61bf 8ada 4dbe
000000b0: cdbb 843d 2582 0abf fcf6 8c3f de74 f9be
000000c0: 1122 8d3f 0414 7f3f 2dd2 88bf 2e95 cb3f
000000d0: e85b a73f 4914 853e 4472 a9bf 2ff5 823e
000000e0: 4de4 b4bc f970 f4bf d97f 67bf ea02 8e3f
000000f0: 20d3 7abe 48bb 29be fdd7 443f 84f0 153e
00000100: 87ed 2d3f ae3c 0fbf bc93 9dbe 249e 99be
00000110: da97 7d3f 3ccd 573f 9260 38bf 8f70 0b3f
00000120: 23cd 6cbe 0580 20bf 52ac ddbf 71bd d4bf
00000130: 8168 523f b70c acbd 0b08 bfbe 0af5 b33e
00000140: f2b5 a5bd

encoder.graph_embed.GCN_layers.0.linear.weight f4 [16, 16]
0.2679458 -0.20103192 -0.12602797 0.059936535 0.09644605 0.19809923 0.032013923 0.19999917
-0.10198904 0.05197626 -0.104320504 0.044865247 -0.08823288 0.23434211 0.0011953696 -0.04832331
-0.06964553 0.23682417 -0.17383897 -0.059744123 0.040666245 0.028742403 -0.018719064 0.057062335
0.17028485 0.11445678 -0.1034009 -0.089457154 0.11704634 0.063223965 -0.061657406 0.06302583
0.045921806 0.013596097 0.058347125 0.11106575 0.17769928 0.1535184 0.019862438 0.20382872
0.07562027 0.02189621 0.16941044 0.22677204 -0.10541161 -0.076284416 -0.13902178 0.058357038
0.07690674 -0.17423573 -0.12977035 0.035948858 -0.103672855 0.046629906 0.3666354 -0.085559264
-0.20591608 -0.18385234 0.13726497 -0.09468905 0.121930234 0.18017513 -0.11694922 -0.023117043
-0.27406135 -0.20998473 0.13981833 0.24986646 0.060619622 0.12753624 -0.015914828 -0.21482055
-0.053556535 0.12743904 0.10557875 -0.0020081224 -0.11552924 0.0853312 -0.22455376 0.052177135
-0.18423113 0.1044751 0.3157817 0.16016345 -0.27640653 0.15567309 0.2844794 0.091029994
-0.19875672 -0.085714266 0.039857686 -0.17324673 -0.027247842 0.17190373 0.15113997 0.031929746
-0.02953119 0.11032954 -0.25083557 0.078201406 -0.30323243 -0.14662898 0.20495929 -0.04416725
-0.1470071 0.06286447 0.22901773 0.022458509 0.110397875 0.18509589 0.112103574 -0.06492657
0.13684864 -0.28046903 0.3460746 -0.042778917 -0.08179686 -0.012815856 0.03285692 0.07400201
0.1255027 0.12560903 -0.17884284 0.14553313 0.0056613805 0.19119303 -0.018676016 -0.2940249
0.08161678 0.099292405 -0.2102254 -0.24468508 -0.067591734 -0.036532212 0.14323303 0.08965257
-0.06540119 0.20846264 -0.27873936 0.010034632 -0.0062523526 -0.29211238 0.0848957 0.013681438
-0.28731972 -0.1358566 0.18522891 -0.029038891 -0.07168037 -0.11163744 -0.046005182 -0.02352787
0.24997573 0.25506178 0.058772553 0.24005379 0.23015647 -0.15611126 0.22513548 0.032373484
-0.16588458 0.16105579 0.20545502 -0.08529899 0.2593016 0.20977858 -0.045035962 -0.2602799
-0.06773041 -0.32350606 0.05685623 0.076780304 0.21605386 0.16456017 0.1708634 0.14381917
-0.26165602 -0.20667736 0.11807236 0.037083868 -0.069527715 -0.31097186 0.25062662 -0.10191397
-0.17789736 -0.07844996 0.093562335 0.16132438 0.021301042 -0.1307565 0.109823026 0.1493163
0.011638599 -0.0038627905 0.077208444 -0.12206426 -0.041456465 -0.07635337 0.2655185 -0.086242355
0.20074406 -0.029967872 0.23773809 -0.16014376 0.21160576 -0.32667577 0.028119382 -0.097073354
-0.14817321 0.20157456 0.07827467 0.12839508 0.062058512 -0.18264002 0.20365237 -0.013278238
0.24119134 0.035781838 0.043355063 -0.09940077 0.09187435 0.14921725 -0.23767497 0.28771996
0.10802722 0.0012229547 -0.14150825 -0.17623945 -0.13893856 0.2391651 -0.16779506 0.057323184
0.14024039 0.10819109 -0.11287336 -0.069527686 -0.2293986 0.15076768 0.016812237 -0.10610656
0.064361446 0.06115847 0.15659833 -0.08622443 -0.10676929 -0.12392116 0.18591256 0.0005849409
0.010529175 -0.05781047 0.21876252 0.17490017 0.10183665 -0.34621403 0.046403255 -0.0927686
00000000: 3130 893e 50db 4dbe 7a0d 01be 0380 753d
00000010: 8285 c53d 86da 4a3e 0821 033d 95cc 4c3e
00000020: a1df d0bd 0fe5 543d fda5 d5bd 9fc4 373d
00000030: 71b3 b4bd 61f7 6f3e f3ad 9c3a aaee 45bd
00000040: 51a2 8ebd 0982 723e d802 32be 41b6 74bd
00000050: a691 263d 3075 eb3c b958 99bc 32ba 693d
00000060: 275f 2e3e 5168 ea3d dac3 d3bd 5035 b7bd
00000070: feb5 ef3d 917b 813d 7a8c 7cbd b013 813d
00000080: 8118 3c3d 2ac2 5e3c 65fd 6e3d 7176 e33d
00000090: cdf6 353e ed33 1d3e 8db6 a23c 7ab8 503e
000000a0: cdde 9a3d ae5f b33c ee79 2d3e ee36 683e
000000b0: 0be2 d7bd 013b 9cbd ba5b 0ebe ca07 6f3d
000000c0: 4881 9d3d da6a 32be 85e2 04be 1c3f 133d
000000d0: 6f52 d4bd 00ff 3e3d a3b7 bb3e b239 afbd
000000e0: aadb 52be ca43 3cbe 308f 0c3e 55ec c1bd
000000f0: 8fb6 f93d d47f 383e 1383 efbd f45f bdbc
00000100: c551 8cbe 3d06 57be 892c 0f3e fedc 7f3e
00000110: 484c 783d dc98 023e d05f 82bc ebf9 5bbe
00000120: 195e 5bbd 617f 023e ac39 d83d b49a 03bb
00000130: 989a ecbd 20c2 ae3d 6cf1 65be b1b7 553d
00000140: 16a7 3cbe 0bf7 d53d 24ae a13e e301 243e
00000150: 2885 8dbe c468 1f3e 49a7 913e ef6d ba3d
00000160: e286 4bbe f68a afbd d041 233d 9767 31be
00000170: de36 dfbc 8807 303e 70c4 1a3e c4c8 023d
00000180: 65eb f1bc 74f4 e13d 856d 80be 0f28 a03d
00000190: 4841 9bbe e825 16be d9e0 513e b8e8 34bd
000001a0: 0789 16be 16bf 803d a083 6a3e e8fa b73c
000001b0: 4818 e23d c789 3d3e 8f96 e53d 39f8 84bd
000001c0: 0d22 0c3e a399 8fbe b130 b13e f238 2fbd
000001d0: 1d85 a7bd 99f9 51bc fa94 063d 5e8e 973d
000001e0: c883 003e a79f 003e 9422 37be a306 153e
000001f0: 1a83 b93b 1bc8 433e 72fe 98bc 6f8a 96be
00000200: b326 a73d d159 cb3d 5445 57be ba8e 7abe
00000210: 896d 8abd cda2 15bd aeab 123e c49b b73d
00000220: 0ff1 85bd 3b77 553e edb6 8ebe 4c68 243c
00000230: 89e0 ccbb c18f 95be ccdd ad3d 1c28 603c
00000240: 921b 93be fe1d 0bbe a6ac 3d3e f8e2 edbc
00000250: 28cd 92bd 2ca2 e4bd ee6f 3cbd 85bd c0bc
00000260: a3f9 7f3e 7597 823e 7dbb 703d a9d0 753e
00000270: 23ae 6b3e a1db 1fbe ea89 663e 0f9a 043d
00000280: a6dd 29be cfeb 243e cd62 523e 3db1 aebd
00000290: 2ec3 843e 32d0 563e a177 38bd 6843 85be
000002a0: 3eb6 8abd 96a2 a5be 14e2 683d fe3e 9d3d
000002b0: 393d 5d3e 7682 283e d1f6 2e3e 5545 133e
000002c0: c7f7 85be 3ba3 53be eccf f13d 41e5 173d
000002d0: 8c64 8ebd b437 9fbe 2252 803e 46b8 d0bd
000002e0: ba2a 36be 5faa a0bd 9c9d bf3d 3832 253e
000002f0: 867f ae3c 08e5 05be e5ea e03d 5fe6 183e
00000300: d3af 3e3c df26 7dbb 761f 9e3d d4fc f9bd
00000310: 41ce 29bd 285f 9cbd 0af2 873e d59f b0bd
00000320: da8f 4d3e 2f7f f5bc 9d71 733e bafc 23be
00000330: 2eaf 583e 0c42 a7be 9e5a e63c 65ce c6bd
00000340: b8ba 17be 9069 4e3e 784e a03d 007a 033e
00000350: 1131 7e3d fc05 3bbe 3f8a 503e f78c 59bc
00000360: ddfa 763e fa8f 123d 1495 313d a292 cbbd
00000370: 9f28 bc3d 68cc 183e 1161 73be 0850 933e
00000380: 603d dd3d 8d4b a03a 8ae7 10be 1d78 34be
00000390: e945 0ebe b2e7 743e 78d2 2bbe b7cb 6a3d
000003a0: 2d9b 0f3e 4a93 dd3d 262a e7bd 8864 8ebd
000003b0: 77e7 6abe d862 1a3e d1b9 893c 654e d9bd
000003c0: efcf 833d 4e81 7a3d 505b 203e 6f96 b0bd
000003d0: dca9 dabd 61ca fdbd dd5f 3e3e b856 193a
000003e0: 9082 2c3c acca 6cbd 4803 603e 0819 333e
000003f0: bc8f d03d f742 b1be 5711 3e3d 77fd bdbd

encoder.graph_embed.GCN_layers.0.linear.bias f4 [16]
-0.012762642 0.010520206 -0.09163804 0.07336688 0.057092436 -0.08456935 0.0020919351 -0.005932964
0.012466628 -0.0149341915 -0.06249443 0.016332395 -0.036609776 0.048451528 -0.030584468 -0.017777076
00000000: 671a 51bc f15c 2c3c baac bbbd 6041 963d
00000010: c2d9 693d b232 adbd d918 093b 4f69 c2bb
00000020: d440 4c3c 8aae 74bc 29fa 7fbd 84cb 853c
00000030: 22f4 15bd 1c75 463d 478c fabc 3ba1 91bc

encoder.pos_enc.pe f4 [500, 16]
0.0 1.0 0.0 1.0 0.0 1.0 0.0 1.0
0.0 1.0 0.0 1.0 0.0 1.0 0.0 1.0
0.84147096 0.54030234 0.3109836 0.9504153 0.099833414 0.9950042 0.031617504 0.99950004
0.009999833 0.99995 0.0031622713 0.999995 0.0009999998 0.9999995 0.00031622782 0.99999994
0.9092974 -0.41614684 0.5911271 0.8065784 0.19866931 0.9800666 0.063203394 0.9980007
0.019998666 0.9998 0.006324511 0.99998003 0.0019999985 0.99999803 0.0006324556 0.9999998
0.14112 -0.9899925 0.8126489 0.58275366 0.2955202 0.9553365 0.094726086 0.99550337
0.0299955 0.99955004 0.009486687 0.999955 0.0029999954 0.9999955 0.00094868336 0.9999996
-0.7568025 -0.6536436 0.95358074 0.30113748 0.38941833 0.921061 0.12615407 0.99201065
0.039989334 0.9992001 0.01264877 0.99992 0.003999989 0.999992 0.0012649109 0.9999992
-0.9589243 0.2836622 0.99994653 -0.010342338 0.47942552 0.87758255 0.15745588 0.987526
0.049979165 0.99875027 0.015810724 0.999875 0.004999979 0.9999875 0.0015811383 0.99999875
-0.2794155 0.96017027 0.9471482 -0.3207964 0.5646424 0.8253356 0.18860027 0.98205394
0.059964005 0.99820054 0.018972522 0.99982 0.0059999637 0.999982 0.0018973658 0.9999982
0.6569866 0.75390226 0.8004216 -0.5994375 0.6442176 0.7648422 0.2195561 0.9755999
0.06994285 0.997551 0.022134129 0.999755 0.006999942 0.9999755 0.0022135929 0.99999756
0.98935825 -0.14550003 0.5743178 -0.8186324 0.717356 0.6967067 0.25029233 0.9681703
0.07991469 0.9968017 0.025295515 0.99968004 0.007999914 0.999968 0.0025298197 0.9999968
0.4121185 -0.91113025 0.29125923 -0.9566442 0.78332686 0.62161 0.28077832 0.95977265
0.089878544 0.9959527 0.028456647 0.99959505 0.008999879 0.9999595 0.0028460464 0.99999595
-0.5440211 -0.8390715 -0.02068357 -0.9997861 0.84147096 0.54030234 0.31098357 0.9504153
0.099833414 0.9950042 0.031617496 0.99950004 0.009999833 0.99995 0.0031622727 0.999995
-0.9999902 0.004425698 -0.33057496 -0.94377977 0.89120734 0.4535962 0.34087786 0.9401076
0.1097783 0.9939561 0.03477803 0.9993951 0.010999777 0.9999395 0.003478499 0.999994
-0.53657293 0.84385395 -0.6076834 -0.7941793 0.9320391 0.36235783 0.3704313 0.9288599
0.119712204 0.99280864 0.03793821 0.9992801 0.011999711 0.999928 0.0037947248 0.9999928
0.42016703 0.9074468 -0.82452846 -0.5658205 0.9635582 0.26749888 0.3996143 0.9166834
0.12963414 0.9915619 0.041098017 0.9991551 0.012999633 0.9999155 0.00411095 0.99999154
0.9906074 0.13673721 -0.9596054 -0.28134948 0.98544973 0.16996728 0.42839777 0.90359026
0.13954312 0.990216 0.044257414 0.99902016 0.013999541 0.999902 0.004427175 0.9999902
0.65028787 -0.7596879 -0.9995187 0.031022351 0.997495 0.07073732 0.45675287 0.8895936
0.14943813 0.9887711 0.047416367 0.9988752 0.014999436 0.9998875 0.0047433996 0.99998873
00000000: 0000 0000 0000 803f 0000 0000 0000 803f
00000010: 0000 0000 0000 803f 0000 0000 0000 803f
00000020: 0000 0000 0000 803f 0000 0000 0000 803f
00000030: 0000 0000 0000 803f 0000 0000 0000 803f
00000040: a46a 573f 4151 0a3f 3e39 9f3e 6b4e 733f
00000050: 7675 cc3d 98b8 7e3f 5b81 013d 3cdf 7f3f
00000060: 57d6 233c b9fc 7f3f 1c3e 4f3b acff 7f3f
00000070: 6d12 833a f8ff 7f3f 61cb a539 ffff 7f3f
00000080: b7c7 683f 3311 d5be 1b54 173f ec7b 4e3f
00000090: f86f 4b3e a5e5 7a3f c870 813d f97c 7f3f
000000a0: 3ed4 a33c e5f2 7f3f d83d cf3b b1fe 7f3f
000000b0: 6812 033b dfff 7f3f 60cb 253a fdff 7f3f
000000c0: c381 103e 2670 7dbf c209 503f 582f 153f
000000d0: 6c4e 973e ef90 743f c0ff c13d 4fd9 7e3f
000000e0: 1fb9 f53c 83e2 7f3f 0d6e 1b3c 0dfd 7f3f
000000f0: 929b 443b b5ff 7f3f 10b1 783a f9ff 7f3f
00000100: cfbd 41bf 3055 27bf de1d 743f b12e 9a3e
00000110: d761 c73e a7ca 6b3f 882e 013e 69f4 7d3f
00000120: dbcb 233d 94cb 7f3f c93c 4f3c c2fa 7f3f
00000130: 5712 833b 7aff 7f3f 5ecb a53a f3ff 7f3f
00000140: 107c 75bf 2c3c 913e 7ffc 7f3f e972 29bc
00000150: 4377 f53e 40a9 603f 1d3c 213e 81ce 7c3f
00000160: f4b6 4c3d 19ae 7f3f 7e85 813c cff7 7f3f
00000170: ddd6 a33b 2eff 7f3f 333e cf3a ebff 7f3f
00000180: 8c0f 8fbe b8cd 753f 4e78 723f 6d3f a4be
00000190: 688c 103f 3249 533f 6e20 413e e367 7b3f
000001a0: d19c 753d 128a 7f3f 436c 9b3c 34f4 7f3f
000001b0: 589b c43b d2fe 7f3f 08b1 f83a e2ff 7f3f
000001c0: 4630 283f bdff 403f 6ee8 4c3f bc74 19bf
000001d0: 72eb 243f b3cc 433f 50d3 603e eac0 793f
000001e0: 323e 8f3d 815f 7f3f a252 b53c f2ef 7f3f
000001f0: c55f e53b 65fe 7f3f ed11 113b d7ff 7f3f
00000200: 9546 7d3f f6fd 14be 7e06 133f e591 51bf
00000210: a5a4 373f 5f5b 323f 5126 803e 02da 773f
00000220: 50aa a33d 652e 7f3f 8a38 cf3c 08eb 7f3f
00000230: 1212 033c e7fd 7f3f 55cb 253b caff 7f3f
00000240: 3201 d33e d53f 69bf ee1f 953e a2e6 74bf
00000250: 1c88 483f d521 1f3f 2dc2 8f3e a9b3 753f
00000260: 3e12 b83d c2f6 7e3f ea1d e93c 76e5 7f3f
00000270: 3a74 133c 59fd 7f3f bc84 3a3b bcff 7f3f
00000280: f844 0bbf 64cd 56bf 9770 a9bc fbf1 7fbf
00000290: a46a 573f 4151 0a3f 3d39 9f3e 6b4e 733f
000002a0: 7675 cc3d 98b8 7e3f 5981 013d 3cdf 7f3f
000002b0: 57d6 233c b9fc 7f3f 223e 4f3b acff 7f3f
000002c0: 5cff 7fbf 7205 913b 1f41 a9be 8d9b 71bf
000002d0: 2a26 643f c33d e83e 8b87 ae3e e4aa 703f
000002e0: 72d3 e03d e873 7e3f 6873 0e3d 5bd8 7f3f
000002f0: 6938 343c 09fc 7f3f 87f7 633b 9bff 7f3f
00000300: d85c 09bf d006 583f 2491 1bbf 564f 4bbf
00000310: 1d9a 6e3f f786 b93e 2ca9 bd3e c3c9 6d3f
00000320: ac2b f53d b528 7e3f 1965 1b3d d2d0 7f3f
00000330: 709a 443c 48fb 7f3f ebb0 783b 87ff 7f3f
00000340: 2220 d73e 6f4e 683f 4c14 53bf 9dd9 10bf
00000350: c0ab 763f 9df5 883e 3f9a cc3e c3ab 6a3f
00000360: d0be 043e 00d7 7d3f 6556 283d a1c8 7f3f
00000370: 6afc 543c 76fa 7f3f 26b5 863b 72ff 7f3f
00000380: 7298 7d3f d704 0c3e b3a8 75bf 0a0d 90be
00000390: 6f46 7c3f e70b 2e3e f456 db3e b151 673f
000003a0: 64e4 0e3e cc7e 7d3f 4347 353d c9bf 7f3f
000003b0: 555e 653c 94f9 7f3f d611 913b 5cff 7f3f
000003c0: 4479 263f e87a 42bf 75e0 7fbf 9622 fe3c
000003d0: d55b 7f3f bade 903d 83db e93e 68bc 633f
000003e0: 4f06 193e 1a20 7d3f aa37 423d 49b6 7f3f
000003f0: 32c0 753c a1f8 7f3f 856e 9b3b 43ff 7f3f

encoder.transformer.in_proj_weight f4 [48, 16]
0.22056381 0.2701473 0.041569106 0.22155108 -0.13037269 0.036361963 0.16429035 0.1684082
0.1534839 0.06176941 0.13891183 -0.29888347 0.14472461 -0.28047734 -0.2069991 -0.34325132
-0.0931872 -0.29648417 0.24963227 0.0572672 -0.030106759 -0.4400974 0.4037266 0.3280647
0.28916347 0.34842223 0.1906613 0.19639552 -0.3806635 0.27800626 0.10610925 -0.14553751
0.17329772 0.22476974 -0.22826585 0.107238114 0.13934667 -0.17704156 -0.40066418 0.10965941
0.096767604 -0.35235107 0.23093614 0.027329074 0.2848682 0.30657193 0.26796708 -0.25126913
-0.21420589 0.3388645 -0.14193231 -0.03534289 -0.33154476 0.18481673 -0.14445755 0.18438622
-0.1871635 0.14290527 -0.08395198 0.060353797 0.44805786 -0.020259682 0.057178646 0.07056234
-0.3902248 -0.028209299 0.38955712 0.05208905 -0.28774512 0.1990091 -0.11549716 -0.022447923
0.14586578 0.04990971 0.24599175 0.18065844 -0.0046862205 0.32495135 -0.07908816 -0.14633287
-0.006304949 0.11081711 0.09132028 0.11811033 -0.35661662 0.060613383 0.032160737 -0.2646176
-0.31952748 -0.00089275616 -0.31904757 -0.26426518 0.27482083 -0.058983475 0.31236166 -0.251918
-0.13455686 -0.21371388 -0.11383769 -0.21524073 -0.15589245 0.13809906 0.044199906 0.074419804
-0.17807429 0.053018875 -0.20072952 0.14969534 0.0010868259 -0.002223606 0.049447037 -0.009201631
0.047770917 0.2632334 -0.24127258 0.08811397 -0.25696343 -0.090137556 -0.2685177 -0.21668117
0.096675806 -0.23939945 0.09183005 -0.08260907 -0.18155165 0.27993655 0.18009865 -0.10137438
0.011971405 0.08344342 -0.15949634 0.06603892 0.43279055 0.14868124 0.08834032 -0.07997855
0.06844604 0.3365491 0.14009751 0.103471935 0.050934628 0.037258867 -0.11756504 0.065691195
0.16018079 -0.27587405 -0.26709244 0.24679309 -0.2644676 -0.2268059 -0.03446435 -0.06222179
0.122856334 0.0836309 0.27354297 0.24690543 -0.20975257 -0.03445221 -0.1395101 -0.244324
-0.26739687 -0.0011039246 0.18502861 -0.09198085 0.37577274 0.0536263 0.09357804 0.12952326
0.06606036 -0.29103556 -0.05906248 0.23764159 -0.19525717 -0.0034770248 0.3165209 -0.05783001
-0.2948244 0.27350947 -0.24638851 0.23113614 -0.39983007 0.2776115 0.21602686 -0.27487484
-0.21298477 0.26094574 0.120384745 0.2182856 -0.17510659 0.25104165 0.2509887 -0.21272652
0.08820785 -0.33849993 -0.2663142 0.24075912 -0.06072163 -0.123741515 -0.108204074 0.2668862
0.033967275 0.23650008 0.10645979 0.046818808 0.0035770272 0.26782262 -0.111726865 0.19102198
0.15083687 -0.0016370432 0.00052590994 0.4160334 0.2747361 0.18510681 0.07834637 -0.08849893
0.2060928 0.07139229 -0.08850784 -0.0008959117 0.23241664 0.13245663 0.12192999 0.059481278
0.054798875 -0.18818606 0.21259014 0.197166 -0.37892225 0.26621476 0.11798772 -0.26002184
0.15744054 0.0549899 -0.29042205 -0.28932968 0.089702636 0.081727654 0.116346434 0.05542977
-0.22297843 -0.0013375864 0.23956726 0.025435986 -0.3238578 0.060335122 0.06634342 0.16605912
0.31628162 0.18842997 -0.11850091 0.0685007 -0.26748985 0.24747778 -0.19962905 0.14263786
00000000: 7bdb 613e bf50 8a3e 5e44 2a3d 49de 623e
00000010: 6b80 05be 48f0 143d bb3b 283e 3373 2c3e
00000020: e22a 1d3e ec01 7d3d e73e 0e3e 4107 99be
00000030: b032 143e ba9a 8fbe 92f7 53be a3be afbe
00000040: eed8 bebd c6cc 97be 9a9f 7f3e 0391 6a3d
00000050: 73a2 f6bc 7254 e1be 41b5 ce3e 19f8 a73e
00000060: 3c0d 943e 6664 b23e b73c 433e e81b 493e
00000070: 54e6 c2be d656 8e3e ce4f d93d c907 15be
00000080: f574 313e 0a2a 663e 86be 69be a89f db3d
00000090: e5b0 0e3e 624a 35be db23 cdbe 1d95 e03d
000000a0: 182e c63d 5c67 b4be 867a 6c3e 39e1 df3c
000000b0: 3fda 913e fff6 9c3e fb32 893e 59a6 80be
000000c0: ca58 5bbe a67f ad3e b456 11be b5c3 10bd
000000d0: 3cc0 a9be 9940 3d3e aeec 13be becf 3c3e
000000e0: caa7 3fbe c255 123e 04ef abbd 8b35 773d
000000f0: d767 e53e a2f7 a5bc 2834 6a3d fd82 903d
00000100: 8ccb c7be 3017 e7bc 0874 c73e 545b 553d
00000110: 5453 93be 0bc9 4b3e c689 ecbd b5e4 b7bc
00000120: d75d 153e 206e 4c3d 43e5 7b3e 87fe 383e
00000130: de8e 99bb 0660 a63e f9f8 a1bd 49d8 15be
00000140: bf99 cebb 15f4 e23d 2106 bb3d d4e3 f13d
00000150: 7496 b6be bd45 783d faba 033d f57b 87be
00000160: 1b99 a3be da07 6aba 345a a3be c44d 87be
00000170: 51b5 8c3e a898 71bd deed 9f3e 65fb 80be
00000180: 46c9 09be d0d7 5abe bc23 e9bd 1168 5cbe
00000190: 45a2 1fbe d769 0d3e f60a 353d 6969 983d
000001a0: 1b59 36be 522a 593d 0a8c 4dbe bc49 193e
000001b0: d373 8e3a ebb9 11bb fa88 4a3d 70c2 16bc
000001c0: 70ab 433d 87c6 863e 2910 77be 1975 b43d
000001d0: b690 83be 0a9a b8bd 277b 89be abe1 5dbe
000001e0: f7fd c53d 2125 75be 6511 bc3d f22e a9bd
000001f0: ade8 39be d853 8f3e c86b 383e 5f9d cfbd
00000200: b623 443c 62e4 aa3d 0253 23be 6a3f 873d
00000210: b996 dd3e e53f 183e c5eb b43d cbcb a3bd
00000220: 702d 8c3d 2a50 ac3e b975 0f3e 18e9 d33d
00000230: d4a0 503d c19c 183d f1c5 f0bd 1b89 863d
00000240: 6f06 243e 5d3f 8dbe 57c0 88be 54b7 7c3e
00000250: 4c68 87be ce3f 68be 7e2a 0dbd 47dc 7ebd
00000260: 1a9c fb3d ad46 ab3d d30d 8c3e c7d4 7c3e
00000270: 61c9 56be c31d 0dbd bcdb 0ebe 1230 7abe
00000280: 3ee8 88be 90b1 90ba 2478 3d3e 7560 bcbd
00000290: 4965 c03e 40a7 5b3d d8a5 bf3d bfa1 043e
000002a0: a74a 873d 9d02 95be 80eb 71bd 5158 733e
000002b0: 7ff1 47be ccde 63bb 070f a23e 29df 6cbd
000002c0: 39f3 96be 6f09 8c3e 454d 7cbe f4ae 6c3e
000002d0: 87b6 ccbe 1823 8e3e 2536 5d3e 65bc 8cbe
000002e0: ae18 5abe ae9a 853e 478c f63d 4386 5f3e
000002f0: 244f 33be 8888 803e 9781 803e fbd4 59be
00000300: 51a6 b43d dd4f adbe 565a 88be 8f89 763e
00000310: 3eb7 78bd 316c fdbd 199a ddbd 4fa5 883e
00000320: 4521 0b3d 142d 723e 9707 da3d 14c5 3f3d
00000330: 8f6c 6a3b 0c20 893e 0ed1 e4bd 449b 433e
00000340: fb74 1a3e 0e92 d6ba 38dd 093a 5402 d53e
00000350: 36aa 8c3e a48c 3d3e 1074 a03d ed3e b5bd
00000360: fe09 533e 1f36 923d 9943 b5bd 9edb 6aba
00000370: a1fe 6d3e b6a2 073e 6eb6 f93d a4a2 733d
00000380: c974 603d d9b3 40be 3bb1 593e e2e5 493e
00000390: 1902 c2be 4d4d 883e 8ca3 f13d 9521 85be
000003a0: 1838 213e 173d 613d 33b2 94be 0523 94be
000003b0: 04b6 b73d d460 a73d 0a47 ee3d 540a 633d
000003c0: 7554 64be f451 afba 1f51 753e 215f d03c
000003d0: b1d0 a5be f621 773d 0fdf 873d 670b 2a3e
000003e0: aaef a13e c9f3 403e 9bb0 f2bd 184a 8c3d
000003f0: 6ef4 88be d16a 7d3e 8f6b 4cbe a90f 123e

encoder.transformer.in_proj_bias f4 [48]
-0.0792588 0.13321897 -0.0529843 -0.08654398 0.0855487 -0.08462095 -0.048449203 -0.06440565
0.06988028 -0.026009072 -0.019723453 0.005599078 0.082412526 -0.14442961 -0.039876577 0.046438716
-1.1576041e-06 4.236766e-06 -9.428776e-07 -3.9763695e-06 1.3849024e-07 -3.3411645e-06 4.1584346e-07 -1.947129e-07
1.2295585e-06 4.470311e-07 3.6998429e-06 3.9917492e-07 1.8123825e-06 -1.1599631e-06 -3.7349575e-06 9.622198e-07
0.116278194 0.09723396 -0.008824587 -0.008780577 0.036930647 -0.06671593 -0.02141053 -0.0407604
0.11154087 0.079284586 -0.076175764 0.103130385 0.04634356 -0.074674286 0.01781989 0.02731558
00000000: 7052 a2bd 8e6a 083e 1106 59bd f83d b1bd
00000010: 2834 af3d c04d adbd ac72 46bd 1ce7 83bd
00000020: 641d 8f3d fa10 d5bc 1493 a1bc 7878 b73b
00000030: e6c7 a83d 5be5 13be 9f55 23bd 8636 3e3d
00000040: f95e 9bb5 8b29 8e36 0e1a 7db5 c16c 85b6
00000050: e8b3 1434 c538 60b6 1741 df34 4612 51b4
00000060: 4f07 a535 7dff ef34 d14a 7836 2f4e d634
00000070: fd40 f335 07b0 9bb5 15a6 7ab6 9f25 8135
00000080: 4323 ee3d 9922 c73d 0095 10bc 69dc 0fbc
00000090: 9744 173d 5da2 88bd 2365 afbc 61f4 26bd
000000a0: 8a6f e43d f55f a23d 0a02 9cbd 0636 d33d
000000b0: bfd2 3d3d d5ee 98bd 05fb 913c ecc4 df3c

encoder.transformer.out_proj.weight f4 [16, 16]
-0.061145533 -0.19432972 -0.22918113 0.028886553 -0.13858362 -0.22856702 0.19021048 0.08206941
0.02459462 0.10941333 -0.06269111 -0.1072003 -0.15180269 -0.08892792 0.18876041 -0.14824997
0.24917373 -0.35920084 0.019672906 -0.10353058 -0.069292545 -0.18353441 0.15250295 0.014083918
0.14646612 -0.0641763 0.09195954 -0.26811054 0.038185764 0.3201027 0.054516375 -0.11283614
-0.30110404 -0.23058783 -0.016336124 -0.14652053 0.07645587 0.06601072 0.13855857 0.16593978
-0.26043645 -0.3231375 0.17262901 -0.2288838 0.17405072 0.08150171 0.11586556 -0.17444117
0.075858444 0.21355653 0.006875209 0.23389381 -0.0066306023 -0.11926476 -0.009584593 0.04585848
0.19724555 -0.11188519 0.022769231 0.033240225 0.2230569 -0.22285733 -0.030478021 -0.14053601
0.27146634 -0.24951644 -0.11063437 0.1847768 -0.06349365 0.27136183 0.18600631 -0.274269
-0.017834025 -0.092905544 0.099509075 -0.2077169 -0.31439036 0.15224552 -0.20284374 0.1909376
0.044588372 0.112148836 0.2244979 0.32125446 0.020063775 0.2680316 0.22435254 0.25344062
-0.23173855 0.072309665 -0.037960645 -0.04554315 -0.16072492 0.12633939 0.013688909 0.058661055
-0.16758703 -0.1631111 0.07753698 -0.0003360838 -0.36498013 0.08048811 -0.13668929 -0.28272647
-0.036118265 -0.10534703 0.12069055 0.004269055 -0.09582016 0.34184936 0.12105052 -0.09386556
0.14939903 0.24862811 -0.047688514 -0.14908701 0.16440617 -0.21765862 0.25378555 0.08826933
0.2989821 -0.0654718 -0.038469214 0.15680316 0.337935 -0.40989378 0.14222614 0.2623259
-0.06526472 -0.13874814 -0.18014775 -0.3251974 -0.17454676 0.2982242 -0.25821486 0.09675667
-0.09530251 0.15910384 -0.054841764 0.00022160535 0.25517726 -0.0037290165 0.23254387 0.032727975
0.32151347 0.05892639 -0.2532633 -0.17011163 -0.14612037 -0.17525695 0.02156908 0.09797573
0.27950513 0.33958173 -0.15287893 -0.25454256 -0.24409223 -0.11907838 -0.14975025 0.0094078295
-0.14794476 -0.13092166 -0.23292291 0.106488034 -0.17388695 0.086544245 0.0034953428 0.25225264
-0.30664158 -0.027270172 0.08414575 -0.16789743 -0.10291942 0.1035419 -0.1346154 0.106325194
-0.05367982 -0.14817879 0.047799807 -0.30868527 -0.23916923 0.18305409 -0.27469504 -0.13540997
0.18798478 0.086285904 -0.05020297 0.2037599 0.15523508 -0.101119705 0.28572878 0.078557834
-0.055275727 -0.1277201 -0.03783683 -0.07187366 -0.05958849 0.16071117 0.25275743 -0.012629895
-0.2883124 -0.22557211 -0.34195805 -0.13544188 0.024238873 -0.17644596 -0.18230538 -0.045744468
0.006848885 0.079564214 -0.1614321 0.17602752 -0.07878421 -0.20927367 0.18665601 -0.12764388
0.2078951 0.3046344 -0.05785678 0.18171994 0.047769945 -0.1533602 -0.19626988 -0.19118148
-0.13256304 0.003071619 -0.033917088 -0.033136424 0.117433816 -0.11812991 -0.13837382 0.087459706
-0.13882568 -0.0713534 -0.26817867 -0.070487946 0.19903338 0.038936853 -0.23227528 -0.169259
0.045183323 -0.11450192 0.074030966 0.09886439 0.26797822 -0.02828852 0.0024047652 0.1340827
0.10325912 -0.16863808 -0.06770299 0.101779945 0.18260786 0.13384956 -0.32798707 0.010908316
00000000: bd73 7abd 5ffe 46be 75ae 6abe 7ea3 ec3c
00000010: dde8 0dbe 790d 6abe 89c6 423e 0214 a83d
00000020: a87a c93c 1914 e03d 3264 80bd d58b dbbd
00000030: 2a72 1bbe d71f b6bd 694a 413e d7ce 17be
00000040: 6627 7f3e 2ce9 b7be 1329 a13c d707 d4bd
00000050: 40e9 8dbd 72f0 3bbe bc29 1c3e 3cc0 663c
00000060: 37fb 153e dd6e 83bd 4955 bc3d c945 89be
00000070: ad68 1c3d 80e4 a33e 904c 5f3d a216 e7bd
00000080: 4f2a 9abe 371f 6cbe 56d3 85bc 7a09 16be
00000090: e594 9c3d a130 873d 4ce2 0d3e 1eec 293e
000000a0: ed57 85be 4772 a5be a9c5 303e 8460 6abe
000000b0: 5a3a 323e 5eea a63d ec4a ed3d b5a0 32be
000000c0: ac5b 9b3d 90ae 5a3e 6f49 e13b dc81 6f3e
000000d0: 8645 d9bb 1541 f4bd b208 1dbc 1ad6 3b3d
000000e0: bdfa 493e 1024 e5bd 8a86 ba3c e726 083d
000000f0: 0769 643e b634 64be 0bad f9bc ace8 0fbe
00000100: a3fd 8a3e 3d81 7fbe 4694 e2bd 2136 3d3e
00000110: f508 82bd f0ef 8a3e 7078 3e3e fd6c 8cbe
00000120: a918 92bc 4345 bebd 6acb cb3d bdb3 54be
00000130: c6f7 a0be 40e6 1b3e 45b6 4fbe 2585 433e
00000140: 4ca2 363d 4aae e53d c7e2 653e 777b a43e
00000150: c95c a43c 703b 893e acbc 653e f8c2 813e
00000160: df4c 6dbe 1717 943d 9f7c 1bbd 748b 3abd
00000170: 1395 24be 1d5f 013e 7247 603c 9346 703d
00000180: ef9b 2bbe 9906 27be b5cb 9e3d 6734 b0b9
00000190: adde babe f3d6 a43d 47f8 0bbe 86c1 90be
000001a0: bff0 13bd 2fc0 d7bd 9b2c f73d 6ee3 8b3b
000001b0: 5c3d c4bd e106 af3e 56e9 f73d 963c c0bd
000001c0: 0ffc 183e 5e98 7e3e 0855 43bd 44aa 18be
000001d0: 175a 283e e7e1 5ebe 2ef0 813e 8dc6 b43d
000001e0: 2f14 993e 1416 86bd e591 1dbd 0291 203e
000001f0: d105 ad3e 99dd d1be bba3 113e 954f 863e
00000200: 82a9 85bd fe13 0ebe a778 38be 4680 a6be
00000210: 63bc 32be d8b0 983e bd34 84be 5c28 c63d
00000220: f62d c3bd 1eec 223e c2a1 60bd bc5e 6839
00000230: 98a6 823e 8462 74bb fb1f 6e3e c50d 063d
00000240: 6a9d a43e cc5c 713d baab 81be be31 2ebe
00000250: 94a0 15be 8f76 33be a4b1 b03c 80a7 c83d
00000260: 4c1b 8f3e a8dd ad3e 4b8c 1cbe 6753 82be
00000270: 50f3 79be 5edf f3bd 2158 19be 4c23 1a3c
00000280: d57e 17be 5410 06be 5883 6ebe 6616 da3d
00000290: 6c0f 32be 1c3e b13d 1f12 653b 4227 813e
000002a0: 2000 9dbe b265 dfbc 9b54 ac3d 4eed 2bbe
000002b0: 6bc7 d2bd c70d d43d 9fd8 09be 06c1 d93d
000002c0: 5fdf 5bbd 2ebc 17be bbc9 433d ff0b 9ebe
000002d0: c7e8 74be 8872 3b3e d4a4 8cbe e9a8 0abe
000002e0: 157f 403e aab6 b03d a1a1 4dbd 6fa6 503e
000002f0: f2f5 1e3e d917 cfbd 0b4b 923e eee2 a03d
00000300: cd68 62bd 0fc9 02be cbfa 1abd 7f32 93bd
00000310: 0f13 74bd 7891 243e 6c69 813e 9eed 4ebc
00000320: af9d 93be 60fc 66be 2015 afbe 47b1 0abe
00000330: 9a90 c63c 40ae 34be 43ae 3abe 8d5e 3bbd
00000340: 9d6c e03b 90f2 a23d 754e 25be 8f40 343e
00000350: 9e59 a1bd d64b 56be c122 3f3e 14b5 02be
00000360: 74e2 543e 0af9 9b3e 3bfb 6cbd cb14 3a3e
00000370: 6baa 433d 750a 1dbe f9fa 48be 14c5 43be
00000380: 9bbe 07be 374d 493b a5ec 0abd 0fba 07bd
00000390: 2481 f03d 18ee f1bd deb1 0dbe 131e b33d
000003a0: 5228 0ebe bb21 92bd b74e 89be fc5b 90bd
000003b0: 68cf 4b3e 407c 1f3d 92d9 6dbe 3b52 2dbe
000003c0: 2612 393d fc7f eabd 8c9d 973d 6a79 ca3d
000003d0: 7134 893e 54bd e7bc 4499 1d3b fa4c 093e
000003e0: 8479 d33d 76af 2cbe dda7 8abd 0172 d03d
000003f0: 8efd 3a3e dc0f 093e eced a7be cbb8 323c

encoder.transformer.out_proj.bias f4 [16]
-0.024395848 -0.050850384 -0.097578526 0.059140343 0.00888935 0.033338077 -0.049903486 0.097342215
0.05307001 0.016941113 -0.10768825 0.027356382 -0.034594387 0.06451902 -0.02967344 0.071199395
00000000: cdd9 c7bc 7e48 50bd 40d7 c7bd 253d 723d
00000010: a3a4 113c 828d 083d 9967 4cbd 5b5b c73d
00000020: f05f 593d 17c8 8a3c a88b dcbd 7e1a e03c
00000030: d8b2 0dbd 8c22 843d b715 f3bc fdd0 913d

encoder.ln1.weight f4 [16]
0.9611835 1.0404127 0.9732897 0.96006465 0.9382618 1.031768 0.997704 1.0513296
1.0940934 0.9893365 1.0213842 0.9697345 0.98244745 0.94450426 0.9906023 1.0343422
00000000: 1f10 763f 3e2c 853f 8429 793f ccc6 753f
00000010: ed31 703f f910 843f 8869 7f3f f891 863f
00000020: 410b 8c3f 2845 7d3f b8bc 823f 8540 783f
00000030: ad81 7b3f 08cb 713f 1d98 7d3f 5365 843f

encoder.ln1.bias f4 [16]
0.015397851 -0.04256642 -0.050288692 0.049358953 -0.017295912 -0.05396746 -0.038581405 0.09000555
0.017805668 -0.0067214426 -0.11166837 0.073673524 -0.06212114 0.091185875 -0.064502954 0.05855081
00000000: 4547 7c3c 205a 2ebd 84fb 4dbd 9d2c 4a3d
00000010: 28b0 8dbc fc0c 5dbd 8907 1ebd d454 b83d
00000020: 31dd 913c 8c3f dcbb 63b2 e4bd 25e2 963d
00000030: bd72 7ebd a9bf ba3d 201a 84bd f9d2 6f3d

encoder.ln2.weight f4 [16]
0.9656879 1.0710149 1.0437684 1.0358092 1.034526 1.0221229 1.0792292 1.0941699
1.0446352 1.0422015 1.0087621 0.9826701 0.9978853 0.99861467 1.0384147 1.085475
00000000: 5237 773f 0417 893f 349a 853f 6595 843f
00000010: 596b 843f ecd4 823f 2f24 8a3f c20d 8c3f
00000020: 9bb6 853f dc66 853f 1e1f 813f 4590 7b3f
00000030: 6975 7f3f 36a5 7f3f c6ea 843f d8f0 8a3f

encoder.ln2.bias f4 [16]
-0.019541211 -0.073783904 -0.09812879 0.0575277 -0.0050894357 0.03740281 -0.04716385 0.12429646
0.058669418 0.0345879 -0.14352034 0.03607827 -0.023465332 0.142282 -0.011630356 0.07026793
00000000: e414 a0bc 041c 97bd bff7 c8bd 2aa2 6b3d
00000010: 48c5 a6bb b033 193d e22e 41bd 248f fe3d
00000020: 584f 703d 0bac 0d3d fff6 12be cfc6 133d
00000030: 5e3a c0bc 5fb2 113e 408d 3ebc a2e8 8f3d

decoder.output_head.weight f4 [24, 16]
-0.05005877 -0.14419475 0.21903141 0.15970568 -0.2245723 -0.10783029 -0.1651355 -0.058441624
-0.05645886 -0.06383119 0.017013557 -0.19394155 0.06096947 0.06290388 0.17077054 0.18767492
0.23930873 -0.07721302 -0.09566747 0.011943695 -0.07884812 -0.096859045 -0.120454974 -0.15555637
0.064773634 0.12391143 0.073284775 0.0860265 -0.0016167802 0.08591651 0.02566042 -0.01963247
-0.041299712 -0.060515217 -0.12762937 -0.1223506 0.16240619 -0.061474454 -0.18386146 -0.09633664
-0.20160215 0.0021461402 0.1400308 -0.032393415 0.17238866 0.06717073 -0.2325141 0.20550226
-0.043036003 0.11588577 0.25551775 -0.15720084 0.12799211 -0.24746948 -0.078938715 -0.0032544746
-0.1790796 0.21221645 0.059926827 -0.14339902 -0.07964889 0.1714644 0.17647074 0.1770431
0.12897366 -0.050706223 0.11490121 0.075082034 -0.07220287 0.15644896 -0.24431342 0.276833
-0.17930749 -0.041988883 -0.09756957 -0.1372859 0.15678059 -0.01521728 0.18656039 -0.035413083
0.1301514 -0.12577946 -0.0017699974 0.20748171 0.2155638 0.34920123 0.17004216 0.038677517
0.012408847 -0.06388256 -0.10190082 0.16295168 0.016752511 0.123181745 0.2015339 0.090315536
-0.1732108 0.33513412 0.23852804 -0.0020811057 0.072788 -0.16116513 -0.050052747 0.056189705
-0.04495839 0.17595455 -0.16002989 -0.06843375 0.17859581 -0.027952535 -0.070633225 0.11990409
-0.10250224 -0.0948148 0.14757694 0.19743016 -0.11010595 -0.046914656 -0.26672146 0.18473795
0.062755086 0.101970315 0.17469077 -0.10952603 0.13946319 -0.203936 0.16847853 0.03518737
-0.13354236 0.00062220806 -0.050724644 -0.32154197 0.012741989 0.035991214 -0.07437539 -0.10931332
0.34209093 0.12216947 -0.13305198 0.060792975 -0.04474631 -0.22467005 0.18306082 -0.0970829
0.18931381 0.12620184 0.08904399 0.07786658 0.089392304 -0.33344895 -0.12775348 0.046463657
0.017853357 0.011799308 -0.070217855 -0.059791524 -0.111859314 0.26833138 0.0098678395 -0.2268919
0.02407661 -0.029023224 0.13985851 -0.0959049 0.3261915 0.021497112 -0.29286358 0.18168731
-0.21791689 0.26611656 0.37420735 0.18052258 -0.19821914 -0.12789565 -0.23888925 -0.28569332
0.15442042 -0.011957881 -0.020542212 0.07485928 -0.24792992 0.022832444 -0.32615837 0.02994933
0.01095868 -0.22930224 -0.14729935 -0.006212462 0.26423064 0.1723092 0.18012093 0.116487116
0.19066025 0.26217595 0.01487062 -0.091881365 -0.13410926 0.100128666 0.110015795 -0.08099431
-0.22278653 -0.30641174 0.25103843 -0.058581848 0.13747959 -0.22784643 -0.055235263 -0.31792483
0.1265733 0.120781764 0.31962112 -0.22236122 -0.18557462 -0.11007168 -0.16105449 0.08445362
0.16556261 0.036559284 0.26590934 -0.21688649 0.13590631 0.025083777 0.18827629 -0.09654226
0.10157504 0.07549014 0.13800661 -0.12144618 0.09939032 -0.1533597 0.05475606 -0.12468648
-0.07207946 0.08605677 -0.0013597657 -0.18366994 0.29481924 -0.024824899 0.00329857 -0.26695648
-0.16681604 0.090179615 0.16426836 0.105617546 0.06037592 0.11701355 -0.16107085 -0.2588175
0.091310136 0.14109409 -0.10569456 0.1664128 0.019141048 -0.06393879 0.14063571 -0.010095869
00000000: 6d0a 4dbd caa7 13be c549 603e e389 233e
00000010: 48f6 65be 21d6 dcbd 4819 29be 7c60 6fbd
00000020: 6841 67bd edb9 82bd 0460 8b3c 9d98 46be
00000030: 1fbb 793d c0d3 803d 79de 2e3e db2d 403e
00000040: 590d 753e dc21 9ebd 4eed c3bd 7daf 433c
00000050: 207b a1bd 095e c6bd 19b1 f6bd 2b4a 1fbe
00000060: 0aa8 843d 47c5 fd3d 5416 963d a92e b03d
00000070: 24ea d3ba fff4 af3d cd35 d23c 46d4 a0bc
00000080: e329 29bd cede 77bd 46b1 02be f492 fabd
00000090: cf4d 263e a3cc 7bbd 2e46 3cbe 254c c5bd
000000a0: cb70 4ebe 42a6 0c3b 3c64 0f3e f5ae 04bd
000000b0: a786 303e cf90 893d 2d18 6ebe 2f6f 523e
000000c0: 8546 30bd 8555 ed3d 39d3 823e 42f9 20be
000000d0: 5d10 033e a468 7dbe 9faa a1bd 0649 55bb
000000e0: a560 37be 454f 593e d575 753d 31d7 12be
000000f0: f51e a3bd 5d94 2f3e bfb4 343e c94a 353e
00000100: ac11 043e 54b1 4fbd 5351 eb3d 9cc4 993d
00000110: 19df 93bd 2834 203e 4c2d 7abe 0ebd 8d3e
00000120: 629c 37be 89fc 2bbd 8ed2 c7bd ad94 0cbe
00000130: 178b 203e e651 79bc b009 3f3e 4f0d 11bd
00000140: 6946 053e 55cc 00be 42ff e7ba 1676 543e
00000150: c2bc 5c3e 81ca b23e 881f 2e3e 516c 1e3d
00000160: 7a4e 4b3c dcd4 82bd 61b1 d0bd cedc 263e
00000170: 903c 893c b646 fc3d e75e 4e3e 5af7 b83d
00000180: 2c5e 31be b396 ab3e b240 743e 2963 08bb
00000190: e011 953d 7908 25be 1c04 4dbd 2d27 663d
000001a0: 4a26 38bd 6e2d 343e e0de 23be fe26 8cbd
000001b0: d2e1 363e b7fc e4bc 27a8 90bd 4790 f53d
000001c0: b2ec d1bd 432e c2bd 691e 173e 222b 4a3e
000001d0: 3a7f e1bd 9529 40bd b78f 88be f22b 3d3e
000001e0: bd85 803d d0d5 d03d 23e2 323e 2f4f e0bd
000001f0: 70cf 0e3e 99d4 50be a385 2c3e a220 103d
00000200: 54bf 08be ad1b 233a a5c4 4fbd 26a1 a4be
00000210: c7c3 503c 866b 133d 2052 98bd a9df dfbd
00000220: 8b26 af3e fd33 fa3d c73e 08be 0e02 793d
00000230: e847 37bd e80f 66be 4c74 3b3e 66d3 c6bd
00000240: 7bdb 413e 0e3b 013e b25c b63d 8378 9f3d
00000250: 5013 b73d d2b9 aabe cfd1 02be ad50 3e3d
00000260: 3441 923c e251 413c 61ce 8fbd f5e7 74bd
00000270: 7f16 e5bd bb62 893e b8ac 213c 5a56 68be
00000280: 503c c53c 1dc2 edbc 1237 0f3e ca69 c4bd
00000290: 9302 a73e b61a b03c 37f2 95be 3d0c 3a3e
000002a0: 9b25 5fbe 6e40 883e 1b98 bf3e e9da 383e
000002b0: f5f9 4abe 14f7 02be 629f 74be 6546 92be
000002c0: 6320 1e3e fdea 43bc 2448 a8bc d24f 993d
000002d0: 57e1 7dbe 1b0b bb3c 3bfe a6be 4c58 f53c
000002e0: 098c 333c 35ce 6abe a4d5 16be e991 cbbb
000002f0: 3d49 873e d371 303e 9f71 383e cc90 ee3d
00000300: 713c 433e ed3b 863e e7a3 733c 4c2c bcbd
00000310: f053 09be 4210 cd3d f64f e13d 58e0 a5bd
00000320: 2722 64be 00e2 9cbe 1c88 803e 85f3 6fbd
00000330: 73c7 0c3e 9350 69be 5f3e 62bd 0bc7 a2be
00000340: 6e9c 013e 6e5c f73d 61a5 a33e a9b2 63be
00000350: 4607 3ebe 436d e1bd 78eb 24be 05f6 ac3d
00000360: 3f89 293e 30bf 153d 4525 883e 7e17 5ebe
00000370: 062b 0b3e 7e7c cd3c 80cb 403e f3b7 c5bd
00000380: 9306 d03d 939a 9a3d 9b51 0d3e c6b8 f8bd
00000390: 278d cb3d 530a 1dbe e447 603d a05b ffbd
000003a0: 659e 93bd 883e b03d 2a3a b2ba f913 3cbe
000003b0: 8cf2 963e 965d cbbc d22c 583b 85ae 88be
000003c0: d3d1 2abe 17b0 b83d f735 283e 034e d83d
000003d0: be4c 773d cda4 ef3d c2ef 24be ba83 84be
000003e0: cf00 bb3d f87a 103e 6476 d8bd 1e68 2a3e
000003f0: b0cd 9c3c 57f2 82bd cf02 103e 2569 25bc

decoder.output_head.bias f4 [24]
0.07822417 -0.22578767 -0.11870937 -0.10060079 -0.003273723 0.16008079 0.11203457 0.08747263
0.076662615 -0.19329031 0.16353582 -0.13831723 -0.18111615 -0.07927748 0.067866705 -0.15631004
-0.093392275 -0.06563891 -0.20958075 0.11304536 0.14783992 -0.23309718 -0.033264805 0.016386207
00000000: fe33 a03d e234 67be e61d f3bd c907 cebd
00000010: f58b 56bb 38ec 233e 6172 e53d da24 b33d
00000020: 4a01 9d3d e5ed 45be ef75 273e 08a3 0dbe
00000030: 8376 39be 3b5c a2bd b3fd 8a3d bd0f 20be
00000040: 7344 bfbd b16d 86bd 569c 56be 5384 e73d
00000050: 5963 173e 07b1 6ebe ad40 08bd 5e3c 863c
