experiments/model_64_60_2026-01-17_1949/model.pt (torch, 213359 bytes, 18 tensors)

encoder.graph_embed.GCN_in.A f4 [9, 9]
-1.3159549 -1.0603769 0.28868282 -0.45881432 1.339449 0.2786073 1.0701802 -0.52148306
-0.69518965 -0.010802824 -2.2221587 -0.8693835 1.5709945 -0.119352385 -1.2016286 -0.30445647
-0.22531992 -0.43327108 -1.3500401 0.35706094 -0.3051784 1.2935928 -0.4413197 -0.66896784
0.27943188 -0.97751105 -3.1228387 1.481414 0.71684235 -1.152801 -1.5441865 -0.6913516
0.45719427 1.0694056 0.9899442 -0.8688084 -1.7501513 0.82173 1.424628 -0.018524481
-0.52505285 1.6515543 -0.9914036 0.95759726 -0.1692734 0.090815865 1.2915974 0.47373563
-2.4943779 1.536467 0.06596624 -0.24989781 -0.3642838 0.52161044 -0.5395205 -0.5392086
-0.92529374 1.0143715 1.5065436 1.723341 -0.60020834 -0.5809785 -0.96283025 -0.70202637
-0.30822176 1.9987348 1.0915817 -0.34722584 0.08092676 -0.93175817 0.74957645 0.047792662
-0.24888527 -1.097554 1.5859113 0.7116326 0.95666564 -0.03674934 0.2990428 -0.61704403
-0.902568
00000000: 3671 a8bf 6eba 87bf 3cce 933e b6e9 eabe
00000010: 1173 ab3f 9ea5 8e3e aafb 883f ea7f 05bf
00000020: f3f7 31bf 54fe 30bc d937 0ec0 eb8f 5ebf
00000030: 5916 c93f 066f f4bd f7ce 99bf b8e1 9bbe
00000040: 44ba 66be b5d5 ddbe 1dce acbf b1d0 b63e
00000050: 5840 9cbe 7394 a53f a8f4 e1be 7a41 2bbf
00000060: b211 8f3e 2a3e 7abf 97dc 47c0 f99e bd3f
00000070: fb82 373f fc8e 93bf e7a7 c5bf 6bfc 30bf
00000080: 5e15 ea3e 48e2 883f fc6c 7d3f 3a6a 5ebf
00000090: f504 e0bf e65c 523f 365a b63f a7c0 97bc
000000a0: dd69 06bf 2266 d33f a0cc 7dbf 1825 753f
000000b0: 0256 2dbe abfd b93d 1053 a53f 7a8d f23e
000000c0: e3a3 1fc0 f3aa c43f 4f19 873d 36e5 7fbe
000000d0: 6883 babe 4388 053f 041e 0abf 9309 0abf
000000e0: 0de0 6cbf edd6 813f 6cd6 c03f 7096 dc3f
000000f0: 41a7 19bf 02bb 14bf 0b7c 76bf 00b8 33bf
00000100: 3ecf 9dbe 8bd6 ff3f f3b8 8b3f 96c7 b1be
00000110: eebc a53d b487 6ebf 3ee4 3f3f 3dc2 433d
00000120: c8db 7ebe a67c 8cbf 24ff ca3f 8e2d 363f
00000130: 0ae8 743f 7a86 16bd 231c 993e 99f6 1dbf
00000140: b20e 67bf

encoder.graph_embed.GCN_in.linear.weight f4 [64, 16]
-0.050817184 0.1587691 -0.10920491 0.11311158 0.1402011 0.18859789 -0.12713094 0.15793318
0.071723685 -0.24157475 -0.04600401 0.111737184 -0.15799569 -0.057480372 0.20588882 0.1383477
0.072079964 0.07650366 -0.11899969 0.2158933 -0.21368934 -0.068957895 -0.033816855 0.18644963
0.056140248 0.19345126 0.120869644 0.16608658 0.0699834 -0.22025411 -0.026644683 -0.09527464
0.25271794 0.18617217 0.12260374 -0.04250338 0.18133457 -0.2136941 -0.08627553 0.12827908
0.021454386 0.18808523 -0.17430808 0.0023785047 0.10377331 0.11614879 0.053414963 -0.113738075
-0.15311116 -0.25430766 0.15488103 -0.21050572 0.27673617 0.22379026 0.08404797 0.05957056
-0.045247983 0.085549995 0.12332984 -0.015054069 -0.09802689 -0.19133224 0.18137114 0.13367243
-0.07741884 -0.14415866 0.2055405 0.15017594 -0.035365615 -0.175536 -0.11090473 -0.19152306
-0.13890019 0.07144339 0.071134664 -0.00690009 0.106744416 0.19550847 0.014828504 0.08666398
0.26366225 -0.014495341 0.10630208 -0.07607682 0.15225913 0.040863983 -0.16193452 0.1013303
-0.0998702 0.12957232 -0.13418674 -0.081969015 0.055905767 -0.009847882 -0.21610725 0.14896548
-0.09402659 -0.02848138 -0.12889393 -0.19002372 0.0043866425 0.25191572 -0.081245415 0.20238833
-0.13146067 0.25687993 -0.16711238 0.056357343 -0.018136095 -0.18049547 -0.025523312 0.19970398
0.18553534 0.20280918 0.013572218 -0.13397306 0.19836916 0.020436823 -0.21639988 0.14619501
0.04810356 -0.17468423 0.15685123 -0.16144575 0.0851658 -0.23414922 -0.03404903 -0.18206444
-0.13298601 -0.10501739 -0.16567492 -0.21986292 -0.12954138 0.18410079 -0.23322757 -0.06993901
0.13899444 -0.18986513 0.19669743 -0.05524852 0.07519055 0.11402148 -0.16137509 0.040353574
-0.008236119 -0.093289256 -0.24449551 -0.069459 -0.18508771 0.15987208 0.223009 -0.18113945
0.18643048 -0.21032056 -0.07049792 0.12832831 -0.021151792 0.05460824 0.123817 0.0017329435
0.029533528 0.030938318 0.25908685 0.100160204 -0.1282153 0.06759129 -0.08956284 0.16019283
0.22294846 0.059751086 0.017440313 0.17700969 -0.038638853 0.2753082 0.07766282 -0.03160007
0.14546245 -0.006854024 0.016723627 0.19287367 -0.08656627 0.21042201 0.09164359 -0.12440857
0.06971292 -0.061999187 -0.28012806 0.14396146 0.10901198 -0.069029555 0.0067155296 -0.00956413
-0.23056391 0.19155051 0.18543842 -0.19257933 -0.15590091 0.09420188 -0.20090072 0.05203113
0.21780303 0.047254797 -0.21852803 -0.19544964 -0.004580214 0.13760263 0.22703463 -0.21679042
-0.028579272 -0.19896634 -0.04207728 0.1977489 0.19823273 -0.1943726 -0.113155365 0.019873414
0.105596274 -0.019107757 -0.028406011 -0.15003487 -0.009805779 0.021155294 0.017907802 0.03097046
0.09908631 0.004420097 -0.09604935 0.13054593 -0.1001523 0.0018338073 0.1986386 -0.06380975
-0.050123114 0.16721272 0.07463707 0.24882868 0.2522018 -0.07916485 0.04483204 -0.071106225
-0.18873051 0.18499689 -0.033323973 0.115756795 0.12436582 -0.2522459 0.13966212 0.028865855
-0.010960806 -0.099047594 -0.19799276 -0.050474584 -0.1085239 0.22217472 -0.16389725 0.17449611
00000000: ae25 50bd 5e94 223e d3a6 dfbd 0ba7 e73d
00000010: e190 0f3e ce1f 413e 9d2e 02be 3cb9 213e
00000020: dee3 923d 5f5f 77be b36e 3cbd 77d6 e43d
00000030: 9fc9 21be 8a70 6bbd 85d4 523e 05ab 0d3e
00000040: a99e 933d f3ad 9c3d 1cb6 f3bd 2213 5d3e
00000050: 61d1 5abe cc39 8dbd 8b83 0abd a7ec 3e3e
00000060: 51f3 653d 1618 463e 818a f73d 9a12 2a3e
00000070: 7553 8f3d 4b8a 61be f345 dabc 5a1f c3bd
00000080: 3f64 813e eba3 3e3e ab17 fb3d 0618 2ebd
00000090: c5af 393e a0d2 5abe 3ab1 b0bd 975b 033e
000000a0: 1cc1 af3c 6a99 403e d17d 32be b0e0 1b3b
000000b0: 1a87 d43d 6bdf ed3d a6c9 5a3d 82ef e8bd
000000c0: 2cc9 1cbe 9d34 82be 2299 1e3e d08e 57be
000000d0: 5db0 8d3e 4629 653e 5821 ac3d 4200 743d
000000e0: f355 39bd d634 af3d 5b94 fc3d 58a5 76bc
000000f0: 52c2 c8bd 99ec 43be 5bb9 393e 6de1 083e
00000100: c58d 9ebd 549e 13be 3579 523e b9c7 193e
00000110: 89db 10bd b6bf 33be 0522 e3bd 9f1e 44be
00000120: da3b 0ebe e950 923d 0daf 913d 261a e2bb
00000130: d19c da3d 5f33 483e 41f3 723c e27c b13d
00000140: bdfe 863e de7d 6dbc e8b4 d93d 2ace 9bbd
00000150: d1e9 1b3e fe60 273d 2ad2 25be 4386 cf3d
00000160: bf88 ccbd 9bae 043e 4068 09be 5fdf a7bd
00000170: 72fd 643d 0359 21bc 384b 5dbe 688a 183e
00000180: 0391 c0bd c851 e9bc c5fc 03be 9495 42be
00000190: d3bd 8f3b 19fb 803e ff63 a6bd e33e 4f3e
000001a0: a09d 06be c485 833e 821f 2bbe f5d6 663d
000001b0: 2692 94bc ced3 38be 4416 d1bc 337f 4c3e
000001c0: fafc 3d3e 36ad 4f3e 025e 5e3c 3c30 09be
000001d0: 4921 4b3e 206b a73c ee97 5dbe 25b4 153e
000001e0: 3d08 453d 6ce0 32be 9c9d 203e 0952 25be
000001f0: 686b ae3d d0c4 6fbe ff76 0bbd 1a6f 3abe
00000200: 7c2d 08be 5b13 d7bd b0a6 29be bf23 61be
00000210: 7fa6 04be eb84 3c3e 35d3 6ebe 2f3c 8fbd
00000220: 8f54 0e3e 016c 42be 0d6b 493e 464c 62bd
00000230: 81fd 993d 1884 e93d 833f 25be ca49 253d
00000240: c9f0 06bc 700e bfbd 085d 7abe 8540 8ebd
00000250: a287 3dbe 82b5 233e 795c 643e 9f7c 39be
00000260: a2e7 3e3e 465e 57be 3761 90bd 7f68 033e
00000270: 8646 adbc e4ac 5f3d c493 fd3d ef23 e33a
00000280: 4cf0 f13c 5b72 fd3c 08a7 843e cb20 cd3d
00000290: df4a 03be 4d6d 8a3d b96c b7bd 9709 243e
000002a0: 9a4c 643e 8ebd 743d fdde 8e3c 0742 353e
000002b0: c643 1ebd 32f5 8c3e af0d 9f3d 136f 01bd
000002c0: 1cf4 143e b897 e0bb fdff 883c ad80 453e
000002d0: a849 b1bd de78 573e a2af bb3d ecc9 febd
000002e0: a6c5 8e3d dcf2 7dbd f26c 8fbe a26a 133e
000002f0: ac41 df3d 5e5f 8dbd f20d dc3b deb2 1cbc
00000300: f218 6cbe d125 443e 92e3 3d3e 8433 45be
00000310: 7da4 1fbe eaec c03d ebb8 4dbe 981e 553d
00000320: c207 5f3e 3f8e 413d d0c5 5fbe f323 48be
00000330: 9f15 96bb b4e7 0c3e c47b 683e 4ffe 5dbe
00000340: 141f eabc d5bd 4bbe 3a59 2cbd b07e 4a3e
00000350: 85fd 4a3e 9c09 47be 00be e7bd 92cd a23c
00000360: dc42 d83d df87 9cbc b9b3 e8bc bea2 19be
00000370: 6ba8 20bc de4d ad3c 62b3 923c c3b5 fd3c
00000380: c3ed ca3d 76d6 903b 86b5 c4bd d5ad 053e
00000390: a61c cdbd 5d5c f03a eb67 4b3e b0ae 82bd
000003a0: e54d 4dbd d039 2b3e 52db 983d f2cc 7e3e
000003b0: 9820 813e 2e21 a2bd cda1 373d 24a0 91bd
000003c0: 9242 41be d36f 3d3e b87e 08bd e611 ed3d
000003d0: 82b3 fe3d 6026 81be 9603 0f3e 1678 ec3c
000003e0: f494 33bc 77d9 cabd 9dbe 4abe 70be 4ebd
000003f0: c741 debd c581 633e aed4 27be 1caf 323e

encoder.graph_embed.GCN_in.linear.bias f4 [64]
0.11971451 -0.18707925 -0.109212 0.00040757403 0.17867498 0.067580715 0.12498697 0.13708793
0.18215005 0.06917266 -0.20119672 0.10934631 0.091587946 0.10791809 0.0017880996 0.21817978
-0.065854125 0.17016928 -0.015134085 -0.102745146 0.1738787 -0.11442672 0.23208123 0.22476327
-0.011472459 -0.2109897 0.15446848 0.10554947 -0.019495891 -0.16464677 0.16045351 0.16495751
0.16506293 -0.04184915 -0.0076505095 -0.06833163 0.08616948 0.1914836 0.0134075 0.086259276
0.017652124 -0.027715899 0.15755546 0.0155894365 0.063347116 0.15965798 0.16122185 -0.10633471
-0.104633234 0.08962262 0.087623954 -0.07437707 -0.19496009 0.22752899 0.14049117 0.15410951
-0.19929056 0.1713448 0.08383183 0.026391206 -0.121138714 -0.13641368 0.12557448 0.15356582
00000000: e22c f53d b491 3fbe 8baa dfbd a9af d539
00000010: 93f6 363e c267 8a3d 2bf9 ff3d c760 0c3e
00000020: 8b85 3a3e 65aa 8d3d 8306 4ebe f5f0 df3d
00000030: 7692 bb3d 2904 dd3d ab5e ea3a 856a 5f3e
00000040: 87de 86bd db40 2e3e f4f4 77bc 0c6c d2bd
00000050: 420d 323e 8e58 eabd b4a6 6d3e 5828 663e
00000060: fbf6 3bbc af0d 58be fc2c 1e3e 522a d83d
00000070: d9b5 9fbc 2a99 28be ed4d 243e 9fea 283e
00000080: 4206 293e 046a 2bbd 20b1 fabb 74f1 8bbd
00000090: a079 b03d 4714 443e 22ab 5b3c b4a8 b03d
000000a0: 309b 903c 740c e3bc 3856 213e d66a 7f3c
000000b0: 22bc 813d 627d 233e 5717 253e 03c6 d9bd
000000c0: f349 d6bd 108c b73d 3074 b33d 0153 98bd
000000d0: 9ea3 47be 5cfd 683e ebdc 0f3e e2ce 1d3e
000000e0: d312 4cbe 0375 2f3e 06b0 ab3d 5f32 d83c
000000f0: 9317 f8bd 07b0 0bbe 9996 003e 5c40 1d3e

encoder.graph_embed.bn.weight f4 [64]
0.9541388 1.0001892 1.0345095 1.0022346 0.99827725 0.9945276 0.9627398 0.9646739
1.0169134 0.9774802 0.95407194 0.9570675 0.9591819 1.0510248 0.9839577 0.9548914
1.0003343 0.95075977 0.9989739 0.95032436 1.02058 1.0146481 1.0294129 0.99636656
1.0172532 0.93665016 0.9517857 0.9761377 0.97306854 1.0168438 0.9413428 1.0260001
1.0191932 0.9643011 0.9969697 0.9751507 0.97195345 1.006934 0.95756125 0.97703433
1.0001074 0.992667 1.024097 0.98384005 0.9694808 0.9989636 0.98945326 0.9744461
0.94383794 1.0172894 0.96894807 0.9598517 0.96515805 0.9538145 0.9872853 0.9979923
1.0123858 0.97090685 0.9974096 0.9868618 0.966882 1.0032452 1.002744 1.0390341
00000000: 7142 743f 3306 803f cf6a 843f 3949 803f
00000010: 198f 7f3f 5c99 7e3f 1e76 763f def4 763f
00000020: 382a 823f 243c 7a3f 0f3e 743f 6002 753f
00000030: f28c 753f fb87 863f a7e4 7b3f c373 743f
00000040: f40a 803f fe64 733f c1bc 7f3f 7548 733f
00000050: 5ea2 823f fddf 813f cdc3 833f e111 7f3f
00000060: 5a35 823f 4ec8 6f3f 3aa8 733f 29e4 793f
00000070: 051b 793f f027 823f d7fb 703f f953 833f
00000080: ec74 823f 70dc 763f 6839 7f3f 7aa3 793f
00000090: f1d1 783f 37e3 803f bc22 753f ec1e 7a3f
000000a0: 8503 803f 6d1f 7e3f 9c15 833f f1dc 7b3f
000000b0: e52f 783f 14bc 7f3f cf4c 7d3f 4d75 793f
000000c0: 5d9f 713f 8a36 823f fb0c 783f d7b8 753f
000000d0: 9914 773f 302d 743f bbbe 7c3f 6c7c 7f3f
000000e0: dc95 813f 5a8d 783f 3c56 7f3f faa2 7c3f
000000f0: 9485 773f 576a 803f ea59 803f 12ff 843f

encoder.graph_embed.bn.bias f4 [64]
0.012146422 -0.035574127 -0.025792418 -0.014443407 0.0138976965 -0.02676949 0.003910816 0.02246212
0.02425995 0.008279041 -0.015360917 -0.027418332 -0.014321668 0.01310002 0.00268029 0.009881753
0.012119275 -0.012197914 -0.028166944 -0.023212463 -0.015346111 -0.034272123 -0.006112607 -0.015218672
0.020766435 -0.03938982 0.051150575 0.03773301 0.0046399217 -0.010753916 -0.0058304714 -0.002296741
0.017250111 0.043233488 0.019280558 -0.026809845 -0.0061013126 0.0011096376 -0.0046537416 0.03510855
0.018983275 0.039593503 -0.023360776 0.010983972 0.006959474 0.04347391 -0.03068879 0.03265702
-0.038433276 0.004633641 -0.02284715 0.0045065964 -0.02767693 0.0037579965 0.010867765 0.02504006
-0.012509185 0.016808374 -0.020151779 0.01113142 -0.020033391 -0.014462356 0.0044262744 -0.010498397
00000000: c901 473c 2db6 11bd 9f4a d3bc 0aa4 6cbc
00000010: 2ab3 633c b14b dbbc 4d26 803b 7b02 b83c
00000020: cdbc c63c d1a4 073c 5bac 7bbc 699c e0bc
00000030: 6ea5 6abc 77a1 563c cea7 2f3b 13e7 213c
00000040: ec8f 463c c2d9 47bc 5dbe e6bc 1028 bebc
00000050: 416e 7bbc ed60 0cbd 444c c8bb bd57 79bc
00000060: 5f1e aa3c 3857 21bd 4483 513d ee8d 1a3d
00000070: 7c0a 983b 3131 30bc 8a0d bfbb eb84 16bb
00000080: 1b50 8d3c 9915 313d 43f2 9d3c 52a0 dbbc
00000090: 85ed c7bb 4271 913a 6a7e 98bb fccd 0f3d
000000a0: d082 9b3c cc2c 223d 195f bfbc 1ef6 333c
000000b0: 4d0c e43b b311 323d 0f67 fbbc 5ec3 053d
000000c0: 366c 1dbd ccd5 973b f229 bbbc 12ac 933b
000000d0: bbba e2bc b848 763b b60e 323c d020 cd3c
000000e0: 53f3 4cbc b7b1 893c 5815 a5bc 8f60 363c
000000f0: 111d a4bc 85f3 6cbc 480a 913b 7801 2cbc

encoder.graph_embed.bn.running_mean f4 [64]
0.0678418 -0.019429674 0.024507858 -0.02027021 0.27289763 -0.11657571 -0.054684095 0.0808987
0.066284135 0.14681669 0.026126819 0.12683396 0.6224024 0.12096115 0.05704477 0.06980663
0.07484398 0.24938743 0.1624041 -0.033576354 0.1863169 0.023966772 0.16030477 0.30174437
0.13093178 0.041344456 0.3505512 0.13905743 0.034790855 0.0679645 0.47443727 0.5481152
0.16918927 0.041518252 0.17286973 0.0041367165 0.30962864 0.38884974 -0.05789658 0.13405943
-0.0963099 -0.0144208735 0.051052958 0.16575044 -0.08922727 0.08004421 0.13330439 0.066506006
-0.12275494 0.12735473 0.121972464 0.1536207 -0.13123819 -0.04430277 0.327138 0.026806947
0.19977309 0.22325054 0.06401232 0.39939106 -0.08282469 -0.07974187 0.21107449 0.10988971
00000000: a4f0 8a3d fb2a 9fbc b4c4 c83c b60d a6bc
00000010: 3db9 8b3e 3fbf eebd 6efc 5fbd 38ae a53d
00000020: fabf 873d 1d57 163e e907 d63c c3e0 013e
00000030: c455 1f3f 7bba f73d c7a7 693d c7f6 8e3d
00000040: cd47 993d 6b5f 7f3e 434d 263e 5c87 09bd
00000050: dcc9 3e3e f755 c43c ef26 243e 3d7e 9a3e
00000060: fb12 063e ce58 293d 727b b33e 1265 0e3e
00000070: db80 0e3d f930 8b3d 71e9 f23e 4751 0c3f
00000080: f43f 2d3e 0b0f 2a3d c304 313e 4b8d 873b
00000090: a587 9e3e 5017 c73e f724 6dbd e046 093e
000000a0: 203e c5bd 8745 6cbc e81c 513d 7cba 293e
000000b0: c9bc b6bd 38ee a33d f280 083e 4d34 883d
000000c0: f166 fbbd 4769 023e b3cc f93d bf4e 1d3e
000000d0: 4e63 06be d276 35bd a27e a73e 3e9a db3c
000000e0: 5191 4c3e ca9b 643e e418 833d fc7c cc3e
000000f0: fe9f a9bd b54f a3bd e923 583e db0d e13d

encoder.graph_embed.bn.running_var f4 [64]
0.023309527 0.020672519 0.039267655 0.026515732 0.12573132 0.016072528 0.024676003 0.062129762
0.068466656 0.031776622 0.022963677 0.1184988 0.24078913 0.016537245 0.044705637 0.030783653
0.036024608 0.056800447 0.027526436 0.022344545 0.13223165 0.024857916 0.13975167 0.1422511
0.101464994 0.074044846 0.09690008 0.083513916 0.03654232 0.086242475 0.22506289 0.19966121
0.055345144 0.024031809 0.0669512 0.044662364 0.09195226 0.10602355 0.023222573 0.08870721
0.015896127 0.010150686 0.010466484 0.09755651 0.017929597 0.032437697 0.029130388 0.010743021
0.008783955 0.017181035 0.0510196 0.048452973 0.01187503 0.03592317 0.08603147 0.039449733
0.11124588 0.060615093 0.067044385 0.07703706 0.019831408 0.013293047 0.062108926 0.07742964
00000000: 9ff3 be3c 6a59 a93c 1fd7 203d 8537 d93c
00000010: b6bf 003e 89aa 833c 5425 ca3c c77b 7e3d
00000020: 3f38 8c3d 3428 023d 521e bc3c 80af f23d
00000030: 6d91 763e 1e79 873c 421d 373d 002e fc3c
00000040: 8a8e 133d 96a7 683d 1f7f e13c e80b b73c
00000050: bc67 073e d4a2 cb3c 101b 0f3e 46aa 113e
00000060: e1cc cf3d d3a4 973d 8d73 c63d 5809 ab3d
00000070: 66ad 153d e59f b03d e376 663e fd73 4c3e
00000080: 97b1 623d 5bde c43c b61d 893d e2ef 363d
00000090: 7751 bc3d e022 d93d 443d be3c 20ac b53d
000000a0: 9838 823c 104f 263c 9e7b 2b3c b5cb c73d
000000b0: 17e1 923c 64dd 043d daa2 ee3c 7f03 303c
000000c0: 94ea 0f3c 3ebf 8c3c eef9 503d a076 463d
000000d0: 7c8f 423c 2d24 133d 4431 b03d 0b96 213d
000000e0: e1d4 e33d 8847 783d 914e 893d 9bc5 9d3d
000000f0: 7a75 a23c 15cb 593c ee65 7e3d 6e93 9e3d

encoder.pos_enc.pe f4 [500, 64]
0.0 1.0 0.0 1.0 0.0 1.0 0.0 1.0
0.0 1.0 0.0 1.0 0.0 1.0 0.0 1.0
0.0 1.0 0.0 1.0 0.0 1.0 0.0 1.0
0.0 1.0 0.0 1.0 0.0 1.0 0.0 1.0
0.0 1.0 0.0 1.0 0.0 1.0 0.0 1.0
0.0 1.0 0.0 1.0 0.0 1.0 0.0 1.0
0.0 1.0 0.0 1.0 0.0 1.0 0.0 1.0
0.0 1.0 0.0 1.0 0.0 1.0 0.0 1.0
0.84147096 0.54030234 0.68156135 0.731761 0.53316844 0.8460091 0.4093089 0.9123959
0.3109836 0.9504153 0.23492105 0.9720145 0.17689219 0.9842302 0.13295726 0.99112177
0.099833414 0.9950042 0.07491915 0.9971896 0.05620449 0.9984193 0.04215715 0.999111
0.031617504 0.99950004 0.023711512 0.99971884 0.017781857 0.99984187 0.013334819 0.99991107
0.009999833 0.99995 0.0074988706 0.99997187 0.0056233825 0.9999842 0.0042169513 0.9999911
0.0031622713 0.999995 0.0023713715 0.9999972 0.0017782785 0.99999845 0.001333521 0.9999991
0.0009999998 0.9999995 0.000749894 0.9999997 0.0005623411 0.9999998 0.00042169637 0.99999994
0.00031622782 0.99999994 0.00023713727 1.0 0.00017782794 1.0 0.00013335208 1.0
0.9092974 -0.41614684 0.99748 0.070948265 0.9021307 0.43146282 0.7469035 0.6649324
0.5911271 0.8065784 0.45669332 0.8896242 0.34820527 0.93741834 0.26355368 0.96464473
0.19866931 0.9800666 0.1494172 0.98877424 0.1122313 0.9936821 0.08423935 0.99644554
0.063203394 0.9980007 0.04740969 0.9988755 0.03555809 0.9993676 0.026667267 0.99964434
0.019998666 0.9998 0.014997319 0.9998875 0.011246587 0.99993676 0.008433828 0.9999644
0.006324511 0.99998003 0.00474273 0.99998873 0.0035565514 0.9999937 0.0026670394 0.9999964
0.0019999985 0.99999803 0.0014997876 0.99999887 0.0011246821 0.99999934 0.0008433926 0.99999964
0.0006324556 0.9999998 0.0004742745 0.9999999 0.00035565588 0.99999994 0.00026670416 1.0
0.14112 -0.9899925 0.7782725 -0.6279267 0.9932532 -0.11596616 0.95363444 0.3009673
0.8126489 0.58275366 0.652904 0.7574407 0.5085361 0.86104065 0.3894703 0.92103904
0.2955202 0.9553365 0.22307542 0.9748012 0.16790329 0.9858035 0.12617177 0.9920084
0.094726086 0.99550337 0.071081206 0.9974705 0.053323083 0.9985773 0.039994974 0.99919987
0.0299955 0.99955004 0.022494925 0.999747 0.016869437 0.9998577 0.012650555 0.99991995
0.009486687 0.999955 0.0071140616 0.9999747 0.005334813 0.99998575 0.0040005534 0.999992
0.0029999954 0.9999955 0.0022496805 0.9999975 0.0016870227 0.99999857 0.0012650888 0.9999992
0.00094868336 0.9999996 0.00071141176 0.99999976 0.0005334838 0.9999999 0.00040005625 0.99999994
00000000: 0000 0000 0000 803f 0000 0000 0000 803f
00000010: 0000 0000 0000 803f 0000 0000 0000 803f
00000020: 0000 0000 0000 803f 0000 0000 0000 803f
00000030: 0000 0000 0000 803f 0000 0000 0000 803f
00000040: 0000 0000 0000 803f 0000 0000 0000 803f
00000050: 0000 0000 0000 803f 0000 0000 0000 803f
00000060: 0000 0000 0000 803f 0000 0000 0000 803f
00000070: 0000 0000 0000 803f 0000 0000 0000 803f
00000080: 0000 0000 0000 803f 0000 0000 0000 803f
00000090: 0000 0000 0000 803f 0000 0000 0000 803f
000000a0: 0000 0000 0000 803f 0000 0000 0000 803f
000000b0: 0000 0000 0000 803f 0000 0000 0000 803f
000000c0: 0000 0000 0000 803f 0000 0000 0000 803f
000000d0: 0000 0000 0000 803f 0000 0000 0000 803f
000000e0: 0000 0000 0000 803f 0000 0000 0000 803f
000000f0: 0000 0000 0000 803f 0000 0000 0000 803f
00000100: a46a 573f 4151 0a3f ce7a 2e3f b054 3b3f
00000110: ba7d 083f 0d94 583f f090 d13e c792 693f
00000120: 3e39 9f3e 6b4e 733f 258f 703e f1d5 783f
00000130: 3a23 353e 83f6 7b3f f325 083e 28ba 7d3f
00000140: 7675 cc3d 98b8 7e3f 366f 993d d147 7f3f
00000150: ae36 663d 6898 7f3f faac 2c3d bdc5 7f3f
00000160: 5b81 013d 3cdf 7f3f a53e c23c 93ed 7f3f
00000170: 42ab 913c a3f5 7f3f 497a 5a3c 2cfa 7f3f
00000180: 57d6 233c b9fc 7f3f 16b9 f53b 28fe 7f3f
00000190: 5a44 b83b f7fe 7f3f 5a2e 8a3b 6bff 7f3f
000001a0: 1c3e 4f3b acff 7f3f 0369 1b3b d1ff 7f3f
000001b0: 2015 e93a e6ff 7f3f 8ac9 ae3a f1ff 7f3f
000001c0: 6d12 833a f8ff 7f3f 8994 443a fbff 7f3f
000001d0: 136a 133a fdff 7f3f 2117 dd39 ffff 7f3f
000001e0: 61cb a539 ffff 7f3f 0da8 7839 0000 803f
000001f0: 5377 3a39 0000 803f 6dd4 0b39 0000 803f
00000200: b7c7 683f 3311 d5be d95a 7f3f 534d 913d
00000210: 0af2 663f b2e8 dc3e 1135 3f3f 0339 2a3f
00000220: 1b54 173f ec7b 4e3f b5d3 e93e 69be 633f
00000230: f647 b23e a6fa 6f3f 82f0 863e f5f2 763f
00000240: f86f 4b3e a5e5 7a3f d300 193e 4f20 7d3f
00000250: 86d9 e53d f361 7e3f ae85 ac3d 0e17 7f3f
00000260: c870 813d f97c 7f3f aa30 423d 4eb6 7f3f
00000270: 5ca5 113d 8ed6 7f3f 5075 da3c b1e8 7f3f
00000280: 3ed4 a33c e5f2 7f3f 51b7 753c a1f8 7f3f
00000290: 9b43 383c dbfb 7f3f 0a2e 0a3c abfd 7f3f
000002a0: d83d cf3b b1fe 7f3f e768 9b3b 43ff 7f3f
000002b0: 0815 693b 96ff 7f3f 7fc9 2e3b c4ff 7f3f
000002c0: 6812 033b dfff 7f3f 8594 c43a edff 7f3f
000002d0: 126a 933a f5ff 7f3f 1f17 5d3a faff 7f3f
000002e0: 60cb 253a fdff 7f3f 0ca8 f839 feff 7f3f
000002f0: 5377 ba39 ffff 7f3f 6dd4 8b39 0000 803f
00000300: c381 103e 2670 7dbf de3c 473f cebf 20bf
00000310: d745 7e3f ab7f edbd 6321 743f 6318 9a3e
00000320: c209 503f 582f 153f b724 273f a2e7 413f
00000330: 6c2f 023f 296d 5c3f a768 c73e 37c9 6b3f
00000340: 6c4e 973e ef90 743f e26d 643e 928c 793f
00000350: d7ee 2b3e 9e5d 7c3f 2c33 013e 43f4 7d3f
00000360: c0ff c13d 4fd9 7e3f 0693 913d 3a5a 7f3f
00000370: 4e69 5a3d c3a2 7f3f c5d1 233d 90cb 7f3f
00000380: 1fb9 f53c 83e2 7f3f 4747 b83c 6bef 7f3f
00000390: c631 8a3c adf6 7f3f 4644 4f3c c1fa 7f3f
000003a0: 0d6e 1b3c 0dfd 7f3f 131d e93b 58fe 7f3f
000003b0: a8cf ae3b 11ff 7f3f 1317 833b 7aff 7f3f
000003c0: 929b 443b b5ff 7f3f 606f 133b d6ff 7f3f
000003d0: 171f dd3a e8ff 7f3f 56d1 a53a f3ff 7f3f
000003e0: 10b1 783a f9ff 7f3f 097e 3a3a fcff 7f3f
000003f0: 7ed9 0b3a feff 7f3f a4be d139 ffff 7f3f

encoder.transformer.in_proj_weight f4 [192, 64]
0.050402887 -0.016546166 0.08500911 0.107777774 0.14353453 -0.106742 -0.10556581 -0.0995023
-0.07626077 0.11902162 0.120880984 -0.12712346 -0.1309348 0.0741221 -0.02824364 -0.08161403
-0.119865075 -0.06383183 0.14726506 0.12637645 -0.113021724 -0.041474998 0.10429512 -0.019444672
-0.0881557 0.041428845 -0.030280972 0.033557415 -0.003407349 0.103002645 -0.12007634 -0.061702788
0.02581802 0.10069604 0.15180817 -0.072314024 -0.032969885 -0.023613304 -0.11624097 0.07215323
0.027360618 -0.093038574 -0.073107146 0.07259897 0.027436174 -0.11478989 -0.13451035 0.03771128
-0.11630893 0.0086175045 -0.009378338 0.048049305 0.12376836 -0.12732837 -0.0019910957 -0.14195532
0.09264751 -0.072158545 -0.037578978 -0.10764577 0.11436618 0.049979437 -0.14268276 -0.08631551
0.07957446 0.050389245 0.028432185 0.0049887835 -0.14357872 0.13477467 0.06298959 0.06938681
-0.09303329 0.09594725 -0.10363877 0.19060266 0.099575676 -0.089289345 -0.025291182 -0.040102635
0.073754 0.043454517 0.14964883 0.05262397 0.022186378 -0.09739048 -0.012320888 0.115835235
-0.05209517 -0.1245433 0.02347085 0.15368336 -0.114981875 0.18752632 -0.106346585 0.08183717
0.028524723 -0.1376545 0.030203398 0.08862296 0.15098616 -0.04394092 -0.016725915 -0.024275286
-0.04298717 0.09765276 0.13021372 -0.14044307 -0.08636922 -0.033389222 0.08730188 0.045927774
-0.17248659 0.09285023 0.021578776 -0.073572725 0.049641795 -0.16355518 -0.023689836 0.07395575
0.017491596 0.11217613 0.004574191 -0.07681887 0.16321011 -0.18786374 0.0192772 -0.087163165
-0.05643117 -0.060443275 -0.100747816 0.020109775 0.06805643 0.17139134 -0.10238912 -0.070563294
-0.027807023 0.10601537 -0.058288716 -0.1411764 0.08385183 0.032313813 -0.05835841 -0.020607686
-0.10716731 -0.0108085 0.15244846 0.13554992 0.14019568 0.036866523 0.04183708 -0.026033882
-0.02537053 0.051062696 -0.08329041 0.13322371 0.08141885 0.008025377 -0.08087769 0.06930535
-0.09111746 0.03615643 0.16470098 -0.1067812 -0.024250802 0.0790343 0.0027562613 -0.106552176
0.10925982 -0.11682626 -0.08161568 -0.14043991 0.021409726 -0.13861313 0.030567667 0.0184741
-0.011884134 0.030890822 -0.06386059 0.029191433 0.14966069 0.07303078 -0.12594147 0.07177105
0.06422682 0.06796421 0.099546954 0.07391988 0.17875417 -0.14472422 -0.11133666 -0.04740969
0.01643559 0.022363966 0.15251176 0.12933749 -0.12240967 -0.14307377 0.035943296 0.07108666
-0.14477052 0.078137666 0.008621764 -0.106219314 -0.15535203 -0.012842255 -0.028568864 0.020577848
0.10953226 0.09493768 0.016241014 0.026912665 0.13610885 0.08903012 0.12473078 -0.15855123
-0.1333264 -0.1349231 -0.06474646 -0.055773865 0.11555398 0.1016213 0.1170898 -0.04382602
-0.06292029 0.06789294 -0.20492314 0.09334024 -0.17785408 0.06060258 0.10811454 0.08663902
-0.05881381 0.17113334 0.12452087 0.08752427 -0.019544126 0.07346298 0.11079917 -0.017767165
0.10407927 -0.0135075785 0.04170408 0.020711705 -0.152341 -0.08857575 -0.088149145 -0.15239495
-0.010277431 -0.11656188 0.05789905 -0.085471496 0.00842293 -0.08498927 0.1661675 0.14112768
00000000: 4273 4e3d d38b 87bc 4219 ae3d 98ba dc3d
00000010: b7fa 123e 8d9b dabd e332 d8bd ddc7 cbbd
00000020: 9b2e 9cbd 9bc1 f33d 7390 f73d a72c 02be
00000030: c613 06be 54cd 973d 355f e7bc 4225 a7bd
00000040: d27b f5bd 43ba 82bd a7cc 163e d468 013e
00000050: ef77 e7bd b0e1 29bd ae98 d53d 6f4a 9fbc
00000060: fa8a b4bd 4bb1 293d cd0f f8bc 8073 093d
00000070: d54d 5fbb 0df3 d23d 96ea f5bd 10bc 7cbd
00000080: 5080 d33c ba39 ce3d 9a73 1b3e 6019 94bd
00000090: 6e0b 07bd b070 c1bc bf0f eebd 13c5 933d
000000a0: 6023 e03c 028b bebd 33b9 95bd c5ae 943d
000000b0: d4c1 e03c f616 ebbd 15bd 09be 2577 1a3d
000000c0: 6033 eebd 6f30 0d3c 9aa7 19bc 59cf 443d
000000d0: 447a fd3d 5e62 02be 0b7d 02bb bc5c 11be
000000e0: fabd bd3d dcc7 93bd 6aec 19bd 6375 dcbd
000000f0: d138 ea3d 3db7 4c3d 6e1b 12be 30c6 b0bd
00000100: eff7 a23d f464 4e3d 9dea e83c f378 a33b
00000110: 4d06 13be 5f02 0a3e b000 813d ac1a 8e3d
00000120: 3d88 bebd fe7f c43d 9040 d4bd 582d 433e
00000130: 55ee cb3d 55dd b6bd 742f cfbc a942 24bd
00000140: 560c 973d 5dfd 313d 8b3d 193e 3b8c 573d
00000150: 35c0 b53c a974 c7bd 8ddd 49bc 063b ed3d
00000160: bf61 55bd 8f10 ffbd f145 c03c 2c5f 1d3e
00000170: 9e7b ebbd e606 403e 3dcc d9bd 3f9a a73d
00000180: aeac e93c 4df5 0cbe 1e6d f73c f47f b53d
00000190: 1e9c 1a3e 65fb 33bd c904 89bc f7dc c6bc
000001a0: 5113 30bd 2cfe c73d bf56 053e 4fd0 0fbe
000001b0: 58e2 b0bd 23c3 08bd 54cb b23d c31e 3c3d
000001c0: 53a0 30be 4328 be3d f9c5 b03c 4cad 96bd
000001d0: 3255 4b3d 027b 27be 3011 c2bc 1d76 973d
000001e0: 894a 8f3c 99bc e53d 18e3 953b 3653 9dbd
000001f0: 8d20 273e 5a5f 40be 38eb 9d3c 9a82 b2bd
00000200: 5f24 67bd 5e93 77bd df54 cebd 41bd a43c
00000210: 2b61 8b3d 3681 2f3e 63b1 d1bd 7d83 90bd
00000220: 8ecb e3bc 961e d93d 26c0 6ebd 8c90 10be
00000230: 82ba ab3d 7d5b 043d 3a09 6fbd 73d1 a8bc
00000240: 897a dbbd 2316 31bc 731b 1c3e 99cd 0a3e
00000250: 758f 0f3e 5a01 173d 5c5d 2b3d 0245 d5bc
00000260: dcd5 cfbc 1e27 513d 2a94 aabd cc6b 083e
00000270: edbe a63d df7c 033c 34a3 a5bd f7ef 8d3d
00000280: ca9b babd c418 143d 60a7 283e 1ab0 dabd
00000290: 9ea9 c6bc bcdc a13d 64a2 343b 0738 dabd
000002a0: 9dc3 df3d 9b42 efbd 1f26 a7bd 7bcf 0fbe
000002b0: 7363 af3c 9af0 0dbe 0b69 fa3c ff56 973c
000002c0: acb5 42bc c00e fd3c 57c9 82bd df22 ef3c
000002d0: a740 193e 2991 953d cdf6 00be b3fc 923d
000002e0: 5a89 833d d230 8b3d 46df cb3d 4e63 973d
000002f0: 550b 373e 9632 14be 7a04 e4bd aa30 42bd
00000300: eea3 863c a334 b73c 0b2c 1c3e 0c71 043e
00000310: ecb1 fabd ee81 12be 4739 133d e295 913d
00000320: b93e 14be a406 a03d 4d42 0d3c 8389 d9bd
00000330: 9a14 1fbe 5268 52bc 4009 eabc e092 a83c
00000340: 7352 e03d b06e c23d e00b 853c f377 dc3c
00000350: 1e60 0b3e 6c55 b63d da72 ff3d 415b 22be
00000360: b786 08be 4829 0abe cb99 84bd 2373 64bd
00000370: 91a7 ec3d d41e d03d c7cc ef3d ea82 33bd
00000380: 5adc 80bd 740b 8b3d 5fd7 51be 2b29 bf3d
00000390: 611f 36be 693a 783d 286b dd3d cc6f b13d
000003a0: c0e6 70bd 943d 2f3e cc04 ff3d ed3f b33d
000003b0: 011b a0bc c273 963d adea e23d 728c 91bc
000003c0: 8327 d53d e44e 5dbc e6d1 2a3d 98ab a93c
000003d0: 47ff 1bbe 3467 b5bd 8a87 b4bd 6c0d 1cbe
000003e0: ac62 28bc ffb7 eebd 8e27 6d3d ae0b afbd
000003f0: 5400 0a3c db0e aebd d027 2a3e c683 103e

encoder.transformer.in_proj_bias f4 [192]
-0.010348057 -0.022662604 -0.025596183 0.014728186 0.025180852 -0.039035 0.004916959 -0.017747011
-0.039320976 0.0067871567 0.030900149 -0.0140404375 -0.014010429 0.01671322 0.03123032 0.011936633
0.016632563 0.0036534227 0.04177547 -0.006280526 0.027514718 0.035673805 -0.016039854 0.046883017
-0.045135234 -0.0015069564 0.05871368 -0.048043612 0.01618678 0.060798224 0.037745845 -0.033286896
-0.029676976 0.04062131 0.041057177 -0.047488786 0.018033577 -0.014743689 0.048319545 0.072434746
0.028936975 0.0060867197 -0.03707424 0.05659793 0.045372557 0.0006026059 0.025448687 0.06428664
-0.007944069 -0.0271789 -0.051436067 0.024626821 0.012745811 0.050377402 0.05297968 0.0126308985
-0.010535726 0.020503053 -0.016173301 0.029395618 0.020560103 -0.01737407 0.03732119 0.06575593
-5.310987e-09 -2.0746847e-07 -5.3625365e-07 4.1645762e-07 -2.7807025e-07 -1.1494374e-06 4.7115304e-07 4.9062237e-07
-6.734174e-07 -4.3615725e-07 1.0399162e-06 8.051551e-08 3.374819e-07 1.2005553e-06 3.3341456e-07 1.742347e-07
-1.1544797e-08 4.4705084e-07 -1.1403203e-07 8.360289e-08 1.264778e-07 5.0851116e-07 -4.26727e-08 1.4082656e-07
-2.6444698e-07 3.211347e-08 5.139773e-07 3.8595854e-07 1.1995961e-07 1.02549336e-07 4.2454833e-08 1.7171583e-07
2.3263262e-07 -4.7387346e-07 2.509512e-07 1.8130775e-07 1.2879973e-08 -3.5047628e-07 4.5097607e-08 2.640342e-07
3.793925e-07 -2.53358e-07 2.1412082e-07 -8.644472e-08 -1.0851809e-07 4.34345e-07 2.5725888e-07 5.5907716e-08
5.834863e-07 3.3348695e-07 -1.4255598e-07 2.6527002e-07 -9.333251e-08 -4.3466883e-07 -2.1457726e-08 2.7697374e-07
-3.311691e-07 -1.9448116e-07 3.3567375e-08 6.752148e-07 1.4913772e-07 -1.3485533e-07 5.107828e-07 2.0472201e-07
0.014956029 -0.008940453 0.025716519 0.009037353 -0.006838354 -0.0072385487 -0.018415758 0.012390971
-0.031255655 -0.011451174 -0.00212234 -0.0085745165 0.008722275 -0.0073298267 0.01849215 0.030606074
0.006015 0.009117005 0.007431269 -0.003021698 -0.008476162 -0.0002391744 0.00038264637 0.008717592
0.018765252 -0.020128937 0.012356815 0.016435774 0.0016415153 -0.04242932 -0.018736966 -0.020158332
0.009133325 0.01191054 0.0127795795 0.008528798 0.025293136 -0.029362429 -0.01312252 -0.00825035
0.0066996166 0.002986541 0.01913624 -0.0029479016 -0.046166833 -0.0005091279 -0.027685985 0.02116471
0.018759545 0.033651803 -0.0043208026 0.035244465 0.01751996 -0.003228216 0.016355218 -0.00178419
-0.014146001 0.012857705 0.021571174 -0.0076681147 -0.013151437 0.009395325 0.023084579 0.004366166
00000000: e68a 29bc eda6 b9bc 16af d1bc 7d4e 713c
00000010: 1348 ce3c 2ae3 1fbd 711e a13b 2e62 91bc
00000020: 080f 21bd cc66 de3b 4f22 fd3c dd09 66bc
00000030: 008c 65bc 2aea 883c bad6 ff3c de91 433c
00000040: 0341 883c 436e 6f3b c11c 2b3d dfcc cdbb
00000050: 8c66 e13c b21e 123d 0366 83bc 6808 403d
00000060: b9df 38bd 1185 c5ba c17d 703d 61c9 44bd
00000070: 239a 843c 8f07 793d 639b 1a3d d757 08bd
00000080: 211d f3bc 8862 263d 922b 283d 9a83 42bd
00000090: 27bb 933c 848f 71bc b7ea 453d ab58 943d
000000a0: 3c0d ed3c 1b73 c73b 29db 17bd 3bd3 673d
000000b0: 93d8 393d 33f8 1d3a c479 d03c b7a8 833d
000000c0: d727 02bc 49a6 debc a0ae 52bd 30be c93c
000000d0: ced3 503c 8958 4e3d 3901 593d d4f1 4e3c
000000e0: 0a9e 2cbc 05f6 a73c df7d 84bc 14cf f03c
000000f0: a96d a83c 1154 8ebc 1bde 183d 0cab 863d
00000100: f07b b6b1 80c4 5eb4 12f3 0fb5 8095 df34
00000110: af49 95b4 5e46 9ab5 c8f2 fc34 50b3 0335
00000120: e4c4 34b5 ff28 eab4 4093 8b35 dfe7 ac33
00000130: 292f b534 c422 a135 2600 b334 4515 3b34
00000140: 8e56 46b2 3302 f034 c5e1 f4b3 2d89 b333
00000150: f4cd 0734 9f80 0835 2147 37b3 1c36 1734
00000160: 51f9 8db4 22ed 0933 40f8 0935 bd35 cf34
00000170: 3fce 0034 1839 dc33 9557 3633 e360 3834
00000180: 91c9 7934 ac68 feb4 78ba 8634 7fad 4234
00000190: b846 5d32 1829 bcb4 58b1 4133 96c0 8d34
000001a0: 4faf cb34 4205 88b4 15e9 6534 7da3 b9b3
000001b0: 730a e9b3 ec2f e934 641d 8a34 2f1f 7033
000001c0: e0a0 1c35 190a b334 7d11 19b4 6f6a 8e34
000001d0: 176e c8b3 6e5c e9b4 0a52 b8b2 fbb2 9434
000001e0: 89cb b1b4 93d2 50b4 b82b 1033 6840 3535
000001f0: aa22 2034 c0cc 10b4 ba1c 0935 8fd1 5b34
00000200: 220a 753c fa7a 12bc 73ab d23c 6811 143c
00000210: 4514 e0bb 5931 edbb a5dc 96bc 8003 4b3c
00000220: ee05 00bd b49d 3bbc f516 0bbb 217c 0cbc
00000230: dfe7 0e3c 0b2f f0bb d97c 973c 97b9 fa3c
00000240: 7a19 c53b 7e5f 153c 0182 f33b ae07 46bb
00000250: 9adf 0abc e4ca 7ab9 ed9d c839 3bd4 0e3c
00000260: 96b9 993c 71e5 a4bc 3d74 4a3c 51a4 863c
00000270: 1d28 d73a 5eca 2dbd 447e 99bc 1623 a5bc
00000280: f1a3 153c 6d24 433c 7161 513c 5fbc 0b3c
00000290: 8d33 cf3c 7a89 f0bc d7ff 56bc 7a2c 07bc
000002a0: 7588 db3b d8b9 433b 9bc3 9c3c 9531 41bb
000002b0: 6f19 3dbd ff76 05ba b8cd e2bc 9d61 ad3c
000002c0: 9ead 993c 79d6 093d 8595 8dbb 805c 103d
000002d0: 0586 8f3c 7a90 53bb 61fb 853c 7bdb e9ba
000002e0: a1c4 67bc 20a9 523c 08b6 b03c cf44 fbbb
000002f0: 2079 57bc d9ee 193c df1b bd3c 0e12 8f3b

encoder.transformer.out_proj.weight f4 [64, 64]
0.0034892145 0.0097119445 0.094969414 -0.1087413 -0.09171827 -0.016381275 0.054950725 0.08011591
-0.037458908 -0.07304081 0.12918274 0.08406415 -0.05133269 0.0773081 0.08251426 -0.09510763
0.092289105 -0.06627316 0.018565707 0.037800957 0.0076479274 -0.007561125 0.0443983 -0.050784472
-0.04039158 -0.12759817 0.036055073 0.02564414 0.07000838 -0.105902694 0.055615235 -0.10668973
0.033617098 -0.0026719898 -0.13028245 0.07945349 0.024388762 0.024366105 -0.1231459 -0.0042341687
-0.122561604 -0.14211953 -0.090880655 0.05458855 -0.0027454079 0.08938109 -0.054450467 0.08866412
0.120346814 -0.05084991 -0.008819857 -0.016947009 0.03623736 0.03021084 -0.080490924 -0.012896201
0.096148044 -0.027890723 -0.038071048 -0.16354127 0.0288314 0.121868156 0.04324758 0.032109115
-0.06937508 -0.06087111 -0.099466376 -0.009845251 0.025423136 -0.035579786 -0.022791954 -0.04149805
0.046692315 0.083928734 0.012329195 -0.11484199 0.02879917 0.06918918 -0.12111777 -0.06503457
-0.037635215 0.045205355 0.06246401 -0.051167626 0.034676686 -0.11079505 0.13649113 0.08997899
-0.15520445 -0.056302004 0.06699888 -0.12148854 -0.080556095 0.012176088 0.085338086 0.03279069
0.033499077 -0.008684939 -0.04639225 -0.14111082 -0.11327246 -0.09006164 0.13070066 -0.013436938
-0.13509573 0.057896554 -0.105529614 -0.043789692 0.06478539 0.004569733 0.046250165 0.012318293
0.04622838 -0.03969046 0.032595888 -0.1134022 0.012188811 0.024561444 0.025921049 -0.07953096
-0.08963967 -0.124842785 0.07992093 0.03684995 0.11169035 0.013772503 -0.104018465 -0.087230325
0.002154622 -0.08274633 -0.15447664 -0.00048979616 -0.0967335 -0.013180546 0.102591634 0.03217181
0.002081029 0.0022926563 -0.13421007 -0.011382479 -0.06422635 0.10114787 0.07239619 -0.1102416
0.09479262 0.036129758 -0.083938405 0.09706663 -0.063964434 -0.0664829 0.1005453 0.006461699
0.04045913 0.0048059747 0.039286576 -0.09337505 -0.03191279 0.08992196 0.067459725 0.04190149
-0.11854649 -0.050199155 0.17955448 -0.03367147 -0.00014999945 0.053201012 -0.044733025 0.059488717
-0.08228232 -0.07242418 -0.07172412 -0.0632443 0.08758475 0.07001633 -0.008069741 0.08734289
-0.14170043 -0.009646961 -0.082282536 0.008745227 0.05812439 -0.105102725 -0.105856396 -0.014031355
-0.08907874 0.0072556315 0.007000928 0.13061477 0.11992166 -0.1328359 0.05069136 -0.11474938
-0.07777385 -0.05863704 0.107779354 -0.03219041 0.08044357 0.07134334 0.14754748 -0.030474275
-0.03300376 0.08504162 0.050993856 0.06642708 -0.07174219 0.0079912655 0.0008260855 -0.09254321
0.10618176 -0.08254998 0.0778258 -0.0715477 0.015452259 0.09709156 0.10318231 0.060642414
-0.011534605 0.022720112 0.16108108 -0.15932655 0.024315236 0.011958552 0.14156224 0.15235998
0.11263841 0.12382438 0.047640614 -0.045418274 -0.13624234 -0.040407114 -0.082871996 -0.05243631
0.12682533 -0.1091708 -0.028015373 -0.0016915457 -0.045836847 0.02358836 0.11165478 0.055027395
-0.011609259 -0.030644739 0.06327983 -0.10114117 -0.015109619 0.072963975 -0.06821135 -0.08887931
0.13740921 0.04426597 0.038800072 0.12080443 -0.07735327 0.029059663 -0.09104899 -0.09704236
00000000: 4eab 643b d91e 1f3c 537f c23d c2b3 debd
00000010: cad6 bbbd 0632 86bc 0314 613d cf13 a43d
00000020: 836e 19bd 6c96 95bd 7b48 043e d329 ac3d
00000030: 3a42 52bd b653 9e3d 3dfd a83d cac7 c2bd
00000040: 1202 bd3d 39ba 87bd 1c17 983c 2dd5 1a3d
00000050: 779b fa3b 50c3 f7bb feda 353d 6103 50bd
00000060: a471 25bd 18a9 02be 7cae 133d a913 d23c
00000070: 8e60 8f3d 83e3 d8bd cdcc 633d 2580 dabd
00000080: 15b2 093d 8d1c 2fbb c368 05be 83b8 a23d
00000090: f1ca c73c 6d9b c73c eb33 fcbd c8be 8abb
000000a0: 9401 fbbd c887 11be a31f babd 3e98 5f3d
000000b0: 4dec 33bb 6f0d b73d 7407 5fbd 8995 b53d
000000c0: 6478 f63d ff47 50bd 2981 10bc 74d4 8abc
000000d0: a06d 143d b97c f73c 6dd8 a4bd 964a 53bc
000000e0: 44e9 c43d 167b e4bc 63f0 1bbd 5d77 27be
000000f0: d42f ec3c 0396 f93d 6024 313d d984 033d
00000100: 8614 8ebd fc53 79bd 07b5 cbbd fa4d 21bc
00000110: 2e44 d03c 1cbc 11bd 31b6 babc dcf9 29bd
00000120: 7140 3f3d d4e2 ab3d 6400 4a3c 4732 ebbd
00000130: 3dec eb3c 0fb3 8d3d 980c f8bd d830 85bd
00000140: 6227 1abd 4029 393d 43da 7f3d 2595 51bd
00000150: 2409 0e3d 84e8 e2bd 55c4 0b3e e846 b83d
00000160: eaed 1ebe ee9c 66bd b536 893d fcce f8bd
00000170: 98fa a4bd 377e 473c bcc5 ae3d 884f 063d
00000180: 5436 093d 464b 0ebc cd05 3ebd 5b7f 10be
00000190: 64fb e7bd 3d72 b8bd 65d6 053e 9a26 5cbc
000001a0: 8956 0abe f024 6d3d e91f d8bd d25c 33bd
000001b0: 34ae 843d b3bd 953b d070 3d3d aad2 493c
000001c0: f859 3d3d 7792 22bd 4483 053d 6a3f e8bd
000001d0: 94b3 473c 1535 c93c 6158 d43c 21e1 a2bd
000001e0: 0195 b7bd 93ad ffbd 96ad a33d f9ef 163d
000001f0: e9bd e43d 10a6 613c a207 d5bd d0a5 b2bd
00000200: 8f34 0d3b e876 a9bd 202f 1ebe aa65 00ba
00000210: 371c c6bd 38f3 57bc 901b d23d 96c6 033d
00000220: df61 083b 6440 163b 5d6e 09be 947d 3abc
00000230: 1b89 83bd 9d26 cf3d 7444 943d 59c6 e1bd
00000240: a222 c23d ccfc 133d e6e7 abbd dfca c63d
00000250: c9ff 82bd 3028 88bd b2ea cd3d a9bc d33b
00000260: 79b8 253d 707b 9d3b f6ea 203d 6b3b bfbd
00000270: fcb6 02bd 0129 b83d 5328 8a3d e6a0 2b3d
00000280: 81c8 f2bd a19d 4dbd 21dd 373e 18eb 09bd
00000290: 2c49 1db9 4ee9 593d fa39 37bd 71aa 733d
000002a0: a283 a8bd 2153 94bd 18e4 92bd 3a86 81bd
000002b0: a25f b33d b964 8f3d f236 04bc d4e0 b23d
000002c0: eb19 11be 4a0e 1ebc bf83 a8bd 2448 0f3c
000002d0: d713 6e3d 1940 d7bd 3dcb d8bd c5e3 65bc
000002e0: ea6e b6bd a6c0 ed3b 0a68 e53b e1bf 053e
000002f0: 7d99 f53d 2206 08be bea1 4f3d b901 ebbd
00000300: e547 9fbd 652d 70bd 6cbb dc3d 17da 03bd
00000310: 99bf a43d 751c 923d b016 173e 30a5 f9bc
00000320: f32e 07bd 4d2a ae3d efde 503d ec0a 883d
00000330: 92ed 92bd cced 023c a98d 583a 4b87 bdbd
00000340: d375 d93d f70f a9bd 2263 9f3d 9a87 92bd
00000350: 792b 7d3c f1d7 c63d 3f51 d33d 2e64 783d
00000360: a4fb 3cbc 871f ba3c 70f2 243e 8026 23be
00000370: bf30 c73c cded 433c b1f5 103e 4104 1c3e
00000380: f7ae e63d a397 fd3d ce22 433d 8308 3abd
00000390: 1d83 0bbe ee81 25bd cbb8 a9bd 75c7 56bd
000003a0: 80de 013e f194 dfbd 7f80 e5bc dbb6 ddba
000003b0: 6bbf 3bbd 603c c13c 43ab e43d 6864 613d
000003c0: c334 3ebc ad0a fbbc db98 813d 1a23 cfbd
000003d0: 568e 77bc 236e 953d 64b2 8bbd 5b06 b6bd
000003e0: 00b5 0c3e 3c50 353d d3ec 1e3d 5068 f73d
000003f0: 646b 9ebd 880e ee3c e577 babd 25be c6bd

encoder.transformer.out_proj.bias f4 [64]
0.01436877 -0.023731798 -0.017943459 -0.017681573 0.009376927 -0.016529452 0.0055242814 0.01943084
0.023772947 -0.008249295 -0.008311484 -0.017030658 -0.006370087 0.008569094 0.002948532 0.01838747
0.003925818 -0.009236946 0.0022152355 -0.013360913 0.0003503527 -0.029084984 -0.013689355 -0.0035582532
0.022252588 -0.018641734 0.035776183 0.027270287 0.011316549 -0.01424568 -0.02340336 0.00057564187
0.009505304 0.031070614 0.009628763 -0.022941984 0.004315407 -0.008749822 -0.007253695 0.012501254
0.0050396994 0.032121535 -0.019820277 0.0007072963 0.009726241 0.038274467 -0.017162772 0.015607314
-0.020175409 0.0021806906 -0.012349179 -0.0027846864 -0.015393285 -0.01589588 0.010093166 0.019300599
0.0017662926 0.00742522 -0.009332779 -0.0015641606 -0.00985597 -0.008217575 -0.00094955985 -0.010297515
00000000: fd6a 6b3c 3069 c2bc 29fe 92bc f2d8 90bc
00000010: afa1 193c c668 87bc 0805 b53b 6d2d 9f3c
00000020: 7cbf c23c 0d28 07bc e42c 08bc e183 8bbc
00000030: 2abc d0bb 6365 0c3c 293c 413b 52a1 963c
00000040: 26a4 803b 8f56 17bc 7c2d 113b bbe7 5abc
00000050: 8baf b739 a243 eebc 5149 60bc 9531 69bb
00000060: 0f4b b63c 8db6 98bc 0c8a 123d f065 df3c
00000070: 0c69 393c b666 69bc 67b8 bfbc ace6 163a
00000080: 22bc 1b3c cd87 fe3c f6c1 1d3c d4f0 bbbc
00000090: 4268 8d3b 6a5b 0fbc 67b0 edbb 0fd2 4c3c
000000a0: 1024 a53b df91 033d 225e a2bc da69 393a
000000b0: d05a 1f3c b0c5 1c3d f198 8cbc d2b5 7f3c
000000c0: e646 a5bc ebe9 0e3b 3654 4abc 497f 36bb
000000d0: 1e34 7cbc 1438 82bc ce5d 253c 4a1c 9e3c
000000e0: f282 e73a 434f f33b 83e8 18bc 8504 cdba
000000f0: ef7a 21bc 02a3 06bc e2eb 78ba e9b6 28bc

encoder.ln1.weight f4 [64]
0.9609093 1.0347487 1.0407103 0.9952756 1.0122198 1.0167843 0.9718231 0.99081993
1.0060014 1.0022669 0.97102785 0.96998584 0.9913752 1.0398548 1.0019588 0.9598709
1.0236231 0.9734339 1.019583 0.98915744 1.024796 1.0512438 1.032719 1.014698
1.030448 0.99707603 1.0182847 0.99536735 0.9968664 1.02574 0.95948356 1.040677
1.0292538 1.0139537 1.0125054 0.9766533 0.97652197 1.0169635 0.97026736 1.0133598
1.003048 1.0252354 1.0316691 1.0084771 0.9769473 1.0414304 1.0222309 1.020186
0.9558214 1.0182325 0.9902992 0.98813653 0.9970533 0.9679053 0.9897892 1.025207
1.026293 1.0050138 1.0147377 1.0074248 0.9901595 0.9947832 1.007468 1.0224915
00000000: 27fe 753f a572 843f ff35 853f 62ca 7e3f
00000010: 6b90 813f fd25 823f 66c9 783f 60a6 7d3f
00000020: a7c4 803f 484a 803f 4895 783f fe50 783f
00000030: c4ca 7d3f f619 853f 3040 803f 19ba 753f
00000040: 1506 833f f732 793f b281 823f 6c39 7d3f
00000050: 842c 833f 288f 863f 2330 843f a0e1 813f
00000060: b8e5 833f 6040 7f3f 2757 823f 65d0 7e3f
00000070: a332 7f3f 734b 833f b7a0 753f e734 853f
00000080: 97be 833f 3cc9 813f c799 813f f305 7a3f
00000090: 58fd 793f dc2b 823f 7163 783f c6b5 813f
000000a0: e063 803f ea3a 833f bc0d 843f c715 813f
000000b0: 3819 7a3f 974d 853f 76d8 823f 7495 823f
000000c0: b6b0 743f 7155 823f 4084 7d3f 84f6 7c3f
000000d0: e33e 7f3f a4c8 773f d362 7d3f fc39 833f
000000e0: 925d 833f 4ba4 803f ede2 813f 4cf3 803f
000000f0: 187b 7d3f 1daa 7e3f b6f4 803f 00e1 823f

encoder.ln1.bias f4 [64]
0.011668753 -0.030881202 -0.02701094 -0.016142586 0.009557328 -0.025750196 0.004923792 0.019048858
0.019918354 -0.005237313 -0.018210439 -0.021944052 -0.0064760437 0.009697688 0.0009975146 0.013364243
0.0068778326 -0.0159265 -0.021905662 -0.029190192 -0.0114318 -0.03730459 0.0021197996 -0.014293111
0.02089053 -0.0365226 0.04952927 0.038331315 0.006138864 -0.0077619674 -0.009122719 0.0005769158
0.01381305 0.046290528 0.013541987 -0.022234695 -0.0025096394 0.00024630805 -0.008831505 0.036207497
0.014181629 0.041817654 -0.02257859 0.011799141 0.005900532 0.047260545 -0.030765926 0.031670492
-0.03869034 0.005810751 -0.026623623 0.007266581 -0.03209563 0.0071125147 0.00735358 0.02665035
-0.012609089 0.018033577 -0.02066072 0.012081626 -0.020048248 -0.013807564 0.005745477 -0.009167854
00000000: 4c2e 3f3c 93fa fcbc 0c46 ddbc 753d 84bc
00000010: 5796 1c3c 13f2 d2bc c357 a13b 5a0c 9c3c
00000020: d12b a33c c49d abbb 0f2e 95bc 03c4 b3bc
00000030: fe34 d4bb 0de3 1e3c 09bf 823a b3f5 5a3c
00000040: 715f e13b 4b78 82bc 8173 b3bc 4520 efbc
00000050: 724c 3bbc b3cc 18bd 56ec 0a3b a72d 6abc
00000060: 9e22 ab3c b998 15bd 34df 4a3d 4c01 1d3d
00000070: 8628 c93b 1a58 febb 7577 15bc 2a3c 173a
00000080: 2250 623c 239b 3d3d 36df 5d3c 8925 b6bc
00000090: c378 24bb e822 8139 04b2 10bc 504e 143d
000000a0: 105a 683c fd48 2b3d bcf6 b8bc 2f51 413c
000000b0: 4059 c13b 4694 413d d308 fcbc ebb8 013d
000000c0: c379 1ebd 1d68 be3b c919 dabc 801c ee3b
000000d0: b576 03bd 1910 e93b 4df6 f03b d651 da3c
000000e0: 5a96 4ebc 27bb 933c ac40 a9bc 03f2 453c
000000f0: 393c a4bc 1f39 62bc 8e44 bc3b c434 16bc

encoder.ln2.weight f4 [64]
0.9705445 1.0141774 1.0343248 0.97370803 0.97959906 1.0077566 0.96875995 1.0027109
1.0002071 0.9906521 0.95888424 0.9821689 0.9967128 1.0220639 0.97403634 0.9644298
0.98932886 0.9777059 0.995282 0.9881612 0.99310225 1.0220011 1.0001636 0.99418503
1.0103822 1.001928 1.022255 1.0014329 0.998744 1.0141413 0.97212803 1.0201008
1.0061536 1.0060105 0.9903996 0.96551365 0.9624624 0.9916785 0.98287743 0.9991418
1.0221388 1.011367 1.0303851 1.0089768 0.9767633 0.9955263 1.012035 1.0020454
0.9668915 1.0261747 0.96981174 0.99232036 0.9825688 0.96410555 0.9878071 1.0070478
0.99607265 0.97433436 0.9747644 0.99461645 0.9915652 1.0055435 1.0023831 1.0110854
00000000: 9b75 783f 91d0 813f c164 843f ee44 793f
00000010: 01c7 7a3f 2bfe 803f a700 783f d558 803f
00000020: c906 803f 609b 7d3f 7079 753f 6c6f 7b3f
00000030: 9228 7f3f fdd2 823f 725a 793f dfe4 763f
00000040: a844 7d3f ef4a 7a3f cdca 7e3f 22f8 7c3f
00000050: f33b 7e3f efd0 823f 5c05 803f e982 7e3f
00000060: 3454 813f 2d3f 803f 40d9 823f f42e 803f
00000070: b0ad 7f3f 62cf 813f 62dd 783f aa92 823f
00000080: a4c9 803f f4c4 803f d48a 7d3f e72b 773f
00000090: f063 763f a4de 7d3f db9d 7b3f c2c7 7f3f
000000a0: 72d5 823f 7974 813f a9e3 833f 2726 813f
000000b0: 290d 7a3f d0da 7e3f 5d8a 813f 0643 803f
000000c0: 3486 773f b159 833f 9545 783f b508 7e3f
000000d0: a189 7b3f 9fcf 763f ede0 7c3f f1e6 803f
000000e0: 9efe 7e3f fa6d 793f 298a 793f 2f9f 7e3f
000000f0: 38d7 7d3f a6b5 803f 174e 803f 3f6b 813f

encoder.ln2.bias f4 [64]
0.014730335 -0.024563035 -0.021529095 -0.027340926 0.0069975285 -0.014940629 0.010878908 0.021306772
0.032670777 -0.0050923815 -0.016258951 -0.026500478 -0.0041666725 0.018921768 -0.0005894789 0.021143453
0.0076612467 -0.0096735535 0.005834695 -0.01583625 -0.004517926 -0.024155956 -0.019865982 0.0071987496
0.021875557 -0.018391421 0.048794117 0.032732055 0.010126282 -0.014880941 -0.038281176 0.0015059687
0.003069242 0.03022857 0.013470149 -0.034537908 -0.0023057503 -0.009691827 -0.005753226 0.011265052
0.005824041 0.035566185 -0.023527015 -0.0034065899 0.01100492 0.04010361 -0.022877298 0.018483927
-0.021794757 -0.0010078467 -0.012054511 -0.0072992546 -0.015920978 -0.018856354 0.013543462 0.02077644
0.0077942833 0.0006155857 -0.010000843 -0.009711363 -0.012827594 -0.011588783 -0.0033865948 -0.013160045
00000000: 8157 713c 6b38 c9bc c95d b0bc 14fa dfbc
00000010: 864b e53b 8ac9 74bc 733d 323c 8a8b ae3c
00000020: cbd1 053d fedd a6bb 7e31 85bc 8817 d9bc
00000030: 9588 88bb d301 9b3c 4287 1aba 0935 ad3c
00000040: 320b fb3b d37d 1ebc f830 bf3b 06bb 81bc
00000050: 1c0b 94bb b6e2 c5bc fcbd a2bc 7de3 eb3b
00000060: 5e34 b33c 9ba9 96bc 57dc 473d 0c12 063d
00000070: b5e8 253c 31cf 73bc b9cc 1cbd ed63 c53a
00000080: 5625 493b e8a1 f73c e6b1 5c3c 9f77 0dbd
00000090: 121c 17bb 78ca 1ebc 8f85 bcbb 0d91 383c
000000a0: 99d7 be3b d9ad 113d babb c0bc 1841 5fbb
000000b0: fb4d 343c af43 243d 2c69 bbbc 9b6b 973c
000000c0: eb8a b2bc b919 84ba 4980 45bc 962e efbb
000000d0: b66c 82bc a478 9abc 66e5 5d3c 5a33 aa3c
000000e0: 3067 ff3b 425f 213a 93da 23bc 691c 1fbc
000000f0: d42a 52bc e1de 3dbc a2f1 5dbb 3b9d 57bc
