experiments/model_128_30_2026-01-18_1981/model.pt (torch, 618784 bytes, 21 tensors)

encoder.graph_embed.GCN_in.A f4 [9, 9]
-1.4123911 -1.1176205 -1.2699051 -1.6883551 0.6887813 0.13977496 1.588385 -1.4481565
1.0229403 0.24930097 -1.0756922 -0.045993514 0.22134584 -1.3498629 1.3081267 0.5399084
-0.8398401 1.5906241 -0.6436421 -0.25120014 -0.21696593 0.7561191 2.014314 0.6767107
-1.7572248 -0.0865412 0.7359375 0.7454311 0.18480657 -1.3950735 0.14325863 -0.5149273
0.7832314 0.017963957 -0.50919783 2.041069 -0.2727107 -0.7342872 -0.11237247 -1.4340795
-0.7889818 -0.11679674 0.79206 -1.0575877 -0.21310598 -0.4357689 -0.90746677 -1.2740299
0.22802722 -0.34022456 -2.161629 0.09173932 -0.5651813 1.3167789 -0.4651108 -0.47941127
0.7805077 -0.51321477 0.563029 -0.5237054 0.7135213 -1.8633171 1.4685138 -0.5450268
0.1957514 -1.2543567 -0.6842305 -1.1761806 0.49976042 -0.82983196 -0.6829076 1.9803005
-1.0747657 0.35002363 -1.0521187 -0.48673534 1.305355 -0.46671787 -0.5489556 1.3348867
-0.8197901
00000000: 3bc9 b4bf 300e 8fbf 408c a2bf 051c d8bf
00000010: f953 303f 2b21 0f3e 3350 cb3f 315d b9bf
00000020: b5ef 823f c148 7f3e 48b0 89bf b263 3cbd
00000030: 7ca8 623e 4fc8 acbf b270 a73f 7037 0a3f
00000040: c3ff 56bf 9299 cb3f bbc5 24bf 4e9d 80be
00000050: 512c 5ebe 0591 413f 85ea 0040 ea3c 2d3f
00000060: beec e0bf 833c b1bd 6666 3c3f 93d4 3e3f
00000070: ef3d 3d3e c591 b2bf 64b2 123e 47d2 03bf
00000080: da81 483f 2629 933c ca5a 02bf e0a0 0240
00000090: bda0 8bbe 3ffa 3bbf 8a23 e6bd eb8f b7bf
000000a0: b6fa 49bf 2133 efbd 72c4 4a3f 095f 87bf
000000b0: 7438 5abe 1a1d dfbe be4f 68bf 6913 a3bf
000000c0: f87f 693e ea31 aebe 2158 0ac0 d3e1 bb3d
000000d0: b9af 10bf 368c a83f 0123 eebe 6575 f5be
000000e0: 5acf 473f 0b62 03bf ab22 103f 8f11 06bf
000000f0: 55a9 363f 2d81 eebf 43f8 bb3f e086 0bbf
00000100: 0e73 483e c38e a0bf bb29 2fbf 168d 96bf
00000110: 99e0 ff3e de6f 54bf 08d3 2ebf 7d7a fd3f
00000120: ec91 89bf 4c36 b33e d3ab 86bf 6035 f9be
00000130: df15 a73f a5f5 eebe 5b88 0cbf 91dd aa3f
00000140: c4dd 51bf

encoder.graph_embed.GCN_in.linear.weight f4 [128, 16]
-0.05110243 0.23800506 0.21986738 0.12791897 -0.16363065 -0.05955836 0.046938136 0.18876804
-0.14635886 -0.14630252 0.21848148 -0.09526774 0.14563267 -0.07791277 0.17410466 0.016986113
0.035122477 -0.17542288 0.100116 0.13235702 -0.26564926 -0.09478718 0.18113278 0.122224346
0.124662444 0.08604541 -0.1493836 -0.2361422 0.16239208 -0.22045273 -0.1491537 -0.1508279
-0.071131535 0.18557166 -0.19152492 0.031206094 -0.09162717 0.09705343 0.20784202 0.2558031
0.01865759 -0.062052954 -0.116810925 -0.07643623 -0.18481518 0.1656388 0.14458972 0.15796264
0.22442885 -0.1762082 -0.07669912 0.20221008 -0.25628763 0.17669319 -0.19054498 0.013989458
0.07158635 -0.23728251 0.2175746 0.1622648 0.14117542 0.014591806 0.04034339 -0.006447013
-0.14070806 0.045258038 -0.013085877 -0.1573236 0.07728102 -0.12149221 0.14739566 -0.14743233
-0.2409101 -0.14633831 -0.13581342 0.036022764 0.2517763 -0.2350589 0.13540965 -0.08678662
0.08556008 -0.03182662 -0.186189 -0.11650753 0.017226042 -0.20719482 -0.030802162 0.23144707
-0.14855877 -0.04219243 -0.21233281 0.23418465 -0.03209788 -0.082642235 0.07408215 -0.04394582
0.16583267 -0.20605624 0.24018788 0.02192343 -0.15025009 -0.079392016 0.1327406 0.19446804
-0.120503835 0.19528784 0.17796037 -0.1795601 0.089823015 -0.23314182 0.2660315 -0.21598075
-0.029570937 -0.22474405 -0.048568252 -0.22322397 -0.039864235 0.07031535 0.05413963 -0.11458194
-0.047381695 0.004653732 0.13650282 -0.084454775 -0.18360645 -0.17009255 0.12886128 0.20517175
0.10306487 0.18666966 0.226623 -0.06743758 0.079014584 0.19941643 -0.17215876 0.20493224
0.07296796 0.13251369 -0.049498927 -0.14649613 0.020930646 -0.08932204 -0.1422832 0.14040859
-0.123973615 -0.013685181 -0.003873691 -0.12461349 -0.025320536 -0.12628102 -0.0842628 -0.09530979
0.19944942 -0.052844312 -0.1387591 -0.06869451 -0.064710304 0.07182878 0.1564308 -0.04396165
-0.12414439 -0.23698127 0.14569187 0.083644256 -0.03264655 -0.14707217 0.19465294 -0.10991632
-0.2251317 -0.08552727 -0.19318596 -0.11262586 -0.06382784 -0.06980482 0.18430547 0.17890814
-0.09451623 0.1286423 0.04314174 -0.15920308 -0.16160023 0.28514394 -0.10831166 -0.07378978
0.18566704 0.18955728 -0.065489896 0.12642708 -0.17859705 0.21242163 -0.23117012 0.024613352
-0.15640536 0.0121313315 0.0036227154 0.21592258 -0.058687195 0.053785488 -0.025919871 0.15955298
0.21009324 0.13837421 0.042114682 -0.06738537 0.1786245 0.23050882 -0.11814389 -0.029902609
-0.20001492 0.15960914 -0.2579267 0.20101413 -0.03466649 -0.22002247 -0.12027074 -0.017815884
0.20911354 -0.2443941 -0.08452712 0.23378062 -0.016928801 -0.17614703 -0.14718065 0.033279583
-0.0043139905 -0.17218035 0.0040215226 0.02793557 0.22867839 0.1975967 0.15812135 -0.17507568
0.22190389 0.18485518 -0.1682365 -0.20913799 0.23387784 0.18469928 -0.20205787 0.15309681
0.16280964 -0.048962202 -0.08916684 -0.09781989 -0.1897104 0.004441783 0.15656865 0.018967198
-0.22152026 -0.09746133 0.22025822 0.22954188 -0.119365126 0.14640611 0.05584046 -0.010001068
00000000: c850 51bd 99b7 733e ea24 613e 31fd 023e
00000010: cb8e 27be 78f3 73bd 3442 403d 694c 413e
00000020: 19df 15be 54d0 15be 9cb9 5f3e bc1b c3bd
00000030: bb20 153e bb90 9fbd 7e48 323e 7626 8b3c
00000040: 96dc 0f3d 0ea2 33be 9e09 cd3d 9988 073e
00000050: 2e03 88be c81f c2bd df7a 393e c250 fa3d
00000060: 064f ff3d 9338 b03d 04f8 18be 43cf 71be
00000070: 1c4a 263e 5cbe 61be bfbb 18be a172 1abe
00000080: 69ad 91bd 7f06 3e3e 1c1f 44be eca3 ff3c
00000090: 07a7 bbbd f3c3 c63d 8ad4 543e a0f8 823e
000000a0: cdd7 983c 3d2b 7ebd 913a efbd 998a 9cbd
000000b0: 3140 3dbe 389d 293e 540f 143e f5c0 213e
000000c0: add0 653e ec6f 34be 6e14 9dbd 2910 4f3e
000000d0: 2238 83be 0fef 343e 391e 43be 0a34 653c
000000e0: dd9b 923d 30fa 72be e0cb 5e3e be28 263e
000000f0: 4a90 103e 7812 6f3c 1c3f 253d 7741 d3bb
00000100: c615 10be 7e60 393d 2566 56bc 7019 21be
00000110: 8345 9e3d e8d0 f8bd e3ee 163e 80f8 16be
00000120: 23b1 76be b6d9 15be ac12 0bbe 9b8c 133d
00000130: d3e8 803e 48b3 70be d4a8 0a3e 2fbd b1bd
00000140: 203a af3d a15c 02bd 54a8 3ebe 809b eebd
00000150: a11d 8d3c e12a 54be d154 fcbc 7600 6d3e
00000160: ca1f 18be f8d1 2cbd c66d 59be 1ace 6f3e
00000170: 1179 03bd 5540 a9bd 62b8 973d 8800 34bd
00000180: 0ad0 293e 6800 53be d0f3 753e c498 b33c
00000190: 29db 19be 4898 a2bd 27ed 073e a122 473e
000001a0: b7ca f6bd 89f9 473e 3e3b 363e 9ade 37be
000001b0: 21f5 b73d bbbc 6ebe 4835 883e 0f2a 5dbe
000001c0: c03e f2bc 4e23 66be 81ef 46bd d394 64be
000001d0: ae48 23bd 7f01 903d 84c1 5d3d f0a9 eabd
000001e0: 4f13 42bd 557e 983b 65c7 0b3e a0f6 acbd
000001f0: 5403 3cbe be2c 2ebe 36f4 033e 8b18 523e
00000200: ad13 d33d 5526 3f3e dc0f 683e b71c 8abd
00000210: 66d2 a13d d233 4c3e 634a 30be c2d9 513e
00000220: 3a70 953d abb1 073e 63bf 4abd 1503 16be
00000230: bf76 ab3c 79ee b6bd b0b2 11be 45c7 0f3e
00000240: e1e5 fdbd cf37 60bc c0dd 7dbb 5c35 ffbd
00000250: 036d cfbc d04f 01be fa91 acbd c731 c3bd
00000260: 783c 4c3e 4773 58bd de16 0ebe b5af 8cbd
00000270: d686 84bd f81a 933d 652f 203e 2211 34bd
00000280: 6a3f febd 38ab 72be 4030 153e ae4d ab3d
00000290: 64b8 05bd 169a 16be 1a53 473e cf1b e1bd
000002a0: ed88 66be ec28 afbd 8ad2 45be 63a8 e6bd
000002b0: 2cb8 82bd d4f5 8ebd 93ba 3c3e b233 373e
000002c0: ba91 c1bd cfba 033e 65b5 303d 2206 23be
000002d0: 887a 25be 63fe 913e 81d2 ddbd 191f 97bd
000002e0: 801f 3e3e 4e1b 423e 911f 86bd 1a76 013e
000002f0: 25e2 36be 0e85 593e dcb7 6cbe f1a1 c93c
00000300: ba28 20be 7ec2 463c 146b 6d3b cf1a 5d3e
00000310: fc61 70bd 2c4e 5c3d e955 d4bc db61 233e
00000320: af22 573e f8b1 0d3e 7280 2c3d 5701 8abd
00000330: 57e9 363e 810a 6c3e 6cf5 f1bd 51f6 f4bc
00000340: b6d0 4cbe 9470 233e f80e 84be a6d6 4d3e
00000350: 73fe 0dbd 924d 61be 8150 f6bd 9ef2 91bc
00000360: dc21 563e 7242 7abe 8e1c adbd 3064 6f3e
00000370: 45ae 8abc e35f 34be 86b6 16be 2c50 083d
00000380: 605c 8dbb 0c50 30be fac6 833b 23d9 e43c
00000390: ab2a 6a3e ca56 4a3e 90ea 213e 0a47 33be
000003a0: c63a 633e ad4a 3d3e 3046 2cbe 4528 56be
000003b0: ac7d 6f3e cf21 3d3e 42e8 4ebe 69c5 1c3e
000003c0: 92b7 263e 978c 48bd 1b9d b6bd cb55 c8bd
000003d0: 7143 42be 608c 913b 8853 203e 1961 9b3c
000003e0: 35d6 62be ce99 c7bd 5f8b 613e 070d 6b3e
000003f0: b475 f4bd 7ceb 153e f7b8 643d 85db 23bc

encoder.graph_embed.GCN_in.linear.bias f4 [128]
-0.2012117 -0.15082851 -0.07229658 0.058848698 -0.16277443 0.07200585 -0.15308586 -0.18174142
-0.046776827 -0.04365228 -0.042184733 -0.056475695 0.21186103 0.018705335 -0.17876478 0.008593219
0.15900756 0.0717752 -0.22015294 0.15818985 -0.18186606 0.12312301 0.017048767 0.21668795
-0.022629011 -0.07006648 0.122937374 -0.013521997 0.09554281 -0.19289799 -0.012572373 -0.055963602
0.088095844 -0.18374445 0.23433904 -0.23209317 -0.18438679 -0.05239723 0.19322084 0.22106354
-0.23907578 -0.12827554 0.09711606 -0.17825824 -0.06928989 0.13584033 0.13619164 0.10174152
-0.071446896 -0.14236674 -0.038410403 0.18083188 -0.15729678 -0.00871337 -0.15697105 -0.18033767
-0.048173044 -0.026958006 -0.23390615 -0.053590763 0.007992135 -0.21508454 -0.050131988 -0.16441111
0.106679566 -0.08642211 -0.06408294 0.03990559 0.18653157 0.005712547 0.037693582 -0.095492594
-0.02960903 0.2563128 -0.10728214 -0.1218857 0.19593094 -0.10058924 0.12636659 0.08848774
0.17804037 0.1608329 -0.21354637 0.0798813 0.011637076 0.16684535 -0.19681053 -0.0797469
0.0006486406 0.02554851 0.048024535 0.20335385 -0.11845152 -0.014601419 0.1679383 -0.09160288
-0.1377452 0.18941131 -0.14168806 0.22236426 0.22273415 -0.13286483 -0.15144645 -0.20358697
-0.1232929 -0.13316885 -0.14640762 0.14101861 0.23089613 -0.11650125 -0.14849862 -0.04008116
0.17865223 0.048237264 0.18945867 0.1272072 -0.121835046 -0.07138677 0.002120266 -0.056341406
0.2058757 0.25347787 -0.14433794 0.24090053 -0.21786095 0.19601475 -0.19685729 -0.18570358
00000000: 710a 4ebe ca72 1abe 3b10 94bd 550b 713d
00000010: 57ae 26be ce77 933d 8ac2 1cbe 6c1a 3abe
00000020: 0f99 3fbd bccc 32bd e6c9 2cbd 0f53 67bd
00000030: 19f2 583e ee3b 993c 1d0e 37be 93ca 0c3c
00000040: e1d2 223e e0fe 923d c66f 61be 85fc 213e
00000050: 193b 3abe eb27 fc3d dba9 8b3c 72e3 5d3e
00000060: 7a60 b9bc 047f 8fbd 97c6 fb3d 5e8b 5dbc
00000070: f3ab c33d 0d87 45be 5bfc 4dbc 173a 65bd
00000080: 986b b43d 8127 3cbe 93f6 6f3e d5a9 6dbe
00000090: e4cf 3cbe 7a9e 56bd afdb 453e 7b5e 623e
000000a0: 48d0 74be aa5a 03be c9e4 c63d 5489 36be
000000b0: dce7 8dbd ba19 0b3e d275 0b3e dc5d d03d
000000c0: c052 92bd 96c8 11be 3a54 1dbd fe2b 393e
000000d0: 6812 21be 86c2 0ebc 05bd 20be 70aa 38be
000000e0: 1951 45bd 09d7 dcbc 1885 6fbe fd81 5bbd
000000f0: 72f1 023c 1f3f 5cbe 3357 4dbd 635b 28be
00000100: d17a da3d 13fe b0bd eb3d 83bd 0b74 233d
00000110: 2202 3f3e 5130 bb3b 9664 1a3d 9f91 c3bd
00000120: a38e f2bc 6e3b 833e bdb6 dbbd 369f f9bd
00000130: 1fa2 483e bb01 cebd 3e66 013e 0f39 b53d
00000140: 3750 363e 61b1 243e e6ab 5abe cf98 a33d
00000150: 6fa9 3e3c 82d9 2a3e b388 49be 5852 a3bd
00000160: 8909 2a3a 1c4b d13c 60b5 443d fe3b 503e
00000170: b696 f2bd ca3a 6fbc 05f8 2b3e 4a9a bbbd
00000180: 140d 0dbe 0af5 413e ad16 11be 75b3 633e
00000190: 6c14 643e b80d 08be c714 1bbe 1a79 50be
000001a0: fd80 fcbd 6a5d 08be e1eb 15be 2f67 103e
000001b0: 0970 6c3e 3598 eebd 0610 18be 242c 24bd
000001c0: 9cf0 363e 7094 453d 7401 423e 9b42 023e
000001d0: a784 f9bd 3a33 92bd 29f4 0a3b 3fc6 66bd
000001e0: 14d1 523e dac7 813e 53cd 13be a1ae 763e
000001f0: f116 5fbe 17b8 483e f594 49be 1429 3ebe

encoder.graph_embed.bn.weight f4 [128]
0.9237279 0.93040866 0.9787422 0.9532318 0.93856496 0.9459376 0.97458553 1.0010607
0.99219954 0.91386706 0.94725174 0.9069506 0.9575793 0.9531999 0.9721316 0.9750124
0.9952812 0.9501891 0.9272045 0.96671814 0.948285 0.9846202 0.92862076 0.9205707
0.90516233 0.9712289 0.9424491 0.9564215 0.97748804 0.92240477 0.99043024 0.94811225
0.9754858 0.903883 0.97347873 0.9260525 0.9637862 0.9750003 0.974351 1.0082026
0.9690191 0.96412414 0.9293316 0.94682974 0.9531347 1.0092483 0.9444267 0.985607
0.9859204 0.971951 0.9683059 1.0017321 1.0048292 1.0126309 0.95672315 0.95384383
0.98736525 0.97194326 0.9633287 0.9321514 0.92898357 0.94757557 0.94916445 0.91318274
0.9716224 0.9650497 1.0037056 0.94606924 0.9639724 0.9086855 0.96599966 0.97145545
0.9555512 0.95889765 1.003959 0.9923456 0.97206515 0.97776127 0.97545385 0.97565573
0.9820669 1.0107632 0.9626026 0.9576526 0.95463043 0.96781766 0.93218786 0.9430992
0.956013 0.9571277 0.95385426 1.0005219 0.9519828 0.99162585 1.0037732 0.97350353
0.9885311 0.9643592 0.95061016 0.9653129 0.98431355 0.9655716 0.9945685 0.9728581
0.9349751 0.95948315 0.97638786 1.0002481 0.9400254 0.8862087 0.9414054 0.94311804
1.0001773 0.92066664 0.95784605 1.001057 0.94393086 0.94353837 0.9767522 0.9467343
0.91666186 0.9515341 0.947418 0.95988744 1.0144037 0.95225537 0.9535397 0.9696764
00000000: 6f79 6c3f 432f 6e3f d98e 7a3f 0007 743f
00000010: cb45 703f f728 723f 707e 793f c222 803f
00000020: ca00 7e3f 31f3 693f 177f 723f ea2d 683f
00000030: eb23 753f e904 743f 9edd 783f 6a9a 793f
00000040: c0ca 7e3f 983f 733f 465d 6d3f d77a 773f
00000050: cec2 723f 1210 7c3f 17ba 6d3f 85aa 6b3f
00000060: b8b8 673f 75a2 783f 5844 713f 0ad8 743f
00000070: a83c 7a3f b822 6c3f d68c 7d3f 7cb7 723f
00000080: 70b9 793f e064 673f e735 793f c711 6d3f
00000090: b1ba 763f 9f99 793f 116f 793f c80c 813f
000000a0: a311 783f d7d0 763f ade8 6d3f 6f63 723f
000000b0: a300 743f 0c2f 813f f3c5 713f be50 7c3f
000000c0: 4865 7c3f c8d1 783f e5e2 773f c238 803f
000000d0: 3e9e 803f e49d 813f cfeb 743f 1c2f 743f
000000e0: f8c3 7c3f 46d1 783f b69c 763f 79a1 6e3f
000000f0: ded1 6d3f 5094 723f 71fc 723f 58c6 693f
00000100: 3fbc 783f 7f0d 773f 6d79 803f 9831 723f
00000110: e5c6 763f 9d9f 683f c14b 773f 4eb1 783f
00000120: 019f 743f 517a 753f ba81 803f 5c0a 7e3f
00000130: 43d9 783f 904e 7a3f 58b7 793f 93c4 793f
00000140: bd68 7b3f b060 813f 206d 763f b928 753f
00000150: a962 743f e6c2 773f dda3 6e3f f36e 713f
00000160: 45bd 743f 5206 753f cb2f 743f 1a11 803f
00000170: 25b5 733f 31db 7d3f a47b 803f 8737 793f
00000180: 6010 7d3f 3fe0 763f 305b 733f bf1e 773f
00000190: f9fb 7b3f b32f 773f 0b9c 7e3f 3a0d 793f
000001a0: 875a 6f3f b0a0 753f 8ef4 793f 2108 803f
000001b0: 81a5 703f 93de 623f f2ff 703f 2f70 713f
000001c0: cf05 803f cfb0 6b3f 6635 753f a322 803f
000001d0: 74a5 713f bb8b 713f 6f0c 7a3f 2e5d 723f
000001e0: 5aaa 6a3f bd97 733f fc89 723f 2fbb 753f
000001f0: fbd7 813f 02c7 733f 2e1b 743f b63c 783f

encoder.graph_embed.bn.bias f4 [128]
-0.061782934 -0.020422464 0.021351334 0.046526268 0.0243145 -0.01615579 -0.010681683 -0.008708378
-0.028309973 -0.032224584 0.007326711 -0.04494767 -0.011137117 0.03469006 -0.030405974 -0.032382682
0.00067397824 -0.020320684 0.017560063 -0.012240335 0.042207077 0.020364212 -0.005627766 0.06992413
-0.035950057 0.010415277 -0.030293653 0.01005103 -0.03339414 -0.030279202 -0.027124472 -0.04297602
0.015256597 -0.05218109 0.058067024 -0.0112038655 -0.024458619 -0.069146164 0.007118656 -0.03864229
0.0044112466 -0.0028008425 0.011493991 -0.014428468 0.019246006 0.017194008 0.034040637 0.010563609
0.01328877 0.018421102 0.04261584 0.0068198876 -0.02772853 -0.008382503 -0.030513532 0.020590283
0.0056267437 0.002850508 0.0066888575 0.033800412 -0.0017200103 0.021359645 -0.031332243 0.038103707
-0.021399435 0.0073889485 -0.009681347 0.0027307882 0.014252142 0.016989252 -0.0054127895 0.005200998
-0.0070740883 0.018469507 -0.008178674 0.06141176 -0.042469855 0.019688336 -0.0036456177 7.456599e-05
-0.04125017 0.054510035 -0.017505875 0.0069218557 -0.004866418 0.020246292 -0.02666627 0.043508504
-0.025137022 0.026114067 -0.029108873 0.01299816 -0.02467241 -0.0007924142 0.0087522175 0.058197554
-0.026565166 0.009109031 0.00066779094 0.035084307 -0.02935806 0.036176167 0.022932813 0.025387013
-0.025206834 0.009676969 -0.0050446116 0.042074207 -0.038295083 0.042927746 -0.029551199 0.032405976
0.013807309 0.042075217 0.005401271 0.021072162 -0.02639741 0.016038768 0.040073805 0.005174547
-0.057947647 0.045339648 -0.05928073 0.009275847 0.002379088 0.025184171 0.008175456 -0.004203968
00000000: 1a10 7dbd 034d a7bc fee8 ae3c 5492 3e3d
00000010: 342f c73c 2659 84bc 3a02 2fbc 96ad 0ebc
00000020: 51ea e7bc edfd 03bd e814 f03b 0c1b 38bd
00000030: 7478 36bc 2a17 0e3d f315 f9bc b4a3 04bd
00000040: eaad 303a 9077 a6bc 1fda 8f3c b08b 48bc
00000050: 54e1 2c3d d9d2 a63c 1f69 b8bb 6234 8f3d
00000060: 5e40 13bd d7a4 2a3c 652a f8bc 13ad 243c
00000070: 4bc8 08bd 170c f8bc 2434 debc a007 30bd
00000080: cef6 793c d7bb 55bd b0d7 6d3d 6b90 37bc
00000090: 715d c8bc 819c 8dbd 9d43 e93b 6147 1ebd
000000a0: 388c 903b 578e 37bb 4b51 3c3c 6265 6cbc
000000b0: cda9 9d3c 73da 8c3c 326e 0b3d fd12 2d3c
000000c0: 24b9 593c dae7 963c f28d 2e3d 5d79 df3b
000000d0: f126 e3bc c456 09bc 84f7 f9bc f4ac a83c
000000e0: 8c60 b83b 97cf 3a3b 342e db3b 4d72 0a3d
000000f0: f871 e1ba 6cfa ae3c 3d56 00bd a212 1c3d
00000100: de4d afbc fe1e f23b 839e 1ebc 06f7 323b
00000110: d181 693c 0b2d 8b3c c55d b1bb 226d aa3b
00000120: c1cd e7bb 5d4d 973c d8ff 05bc e68a 7b3d
00000130: dff4 2dbd 6f49 a13c 51eb 6ebb 5060 9c38
00000140: f0f5 28bd ea45 5f3d 7b68 8fbc bcd0 e23b
00000150: 7976 9fbb 8ddb a53c 3973 dabc f935 323d
00000160: 28ec cdbc 2bed d53c bb75 eebc 3cf6 543c
00000170: cb1d cabc 04ba 4fba 7665 0f3c 8f60 6e3d
00000180: 319f d9bc 0c3e 153c b10e 2f3a 90b4 0f3d
00000190: 5080 f0bc 762d 143d 98dd bb3c 6df8 cf3c
000001a0: 907e cebc 268c 1e3c 454d a5bb 0156 2c3d
000001b0: 4edb 1cbd 01d5 2f3d 5b15 f2bc 21bc 043d
000001c0: 0d38 623c 1057 2c3d 25fd b03b 879f ac3c
000001d0: 623f d8bc bc63 833c 6e24 243d 3f8f a93b
000001e0: 835a 6dbd 11b6 393d 5ad0 72bd b9f9 173c
000001f0: 79ea 1b3b 094f ce3c 59f2 053c 71c1 89bb

encoder.graph_embed.bn.running_mean f4 [128]
0.04976178 -0.012772978 0.04089683 0.021512091 -0.0200436 0.023700885 0.013819077 0.007118397
-0.001434267 -0.0054327934 -0.035474867 0.00023245052 0.00030244305 0.014076111 0.020694027 -0.008601464
0.0128730815 0.013393991 0.0041008648 -0.009907221 0.005750346 0.0040039173 0.009376108 -0.01699683
-0.003770335 -0.009838223 -0.010558949 -0.014885771 0.007113131 0.009594302 0.00567205 0.012026963
-0.015921203 0.0076648877 0.023393486 -0.014831516 -0.017781548 -0.0060272943 -0.004942528 -0.006935888
-0.0067036725 -0.011836524 -0.02577069 -0.010180169 0.010923173 0.012966972 -0.035881978 -0.010842723
0.03782749 0.027411172 0.007664099 0.024944162 -0.014093972 0.0023052748 -0.0037868107 -0.010109028
-0.000630915 0.009134355 -0.011480094 -0.012614218 -0.0013688662 0.03200124 0.0049028886 -0.021693058
0.00028923986 0.023520093 0.022033103 -0.015507325 0.026309533 0.009127584 0.01428575 -0.0090200165
0.026882213 0.022668594 0.0027340008 0.019808348 -0.0015544381 -0.00022984282 -0.023820579 0.019258395
0.0076789446 -0.0056092185 0.005992691 0.002635099 -0.017689656 0.012925663 -0.016518412 -0.01575895
-0.023924705 -0.025450088 0.025763351 0.007217957 0.0041262154 -0.0034100758 0.0033974221 0.03865647
0.0155259585 -0.016885981 0.00440455 0.028598633 -0.002115857 0.017851135 -0.01795057 0.019874658
0.005854233 -0.0062512583 -0.00191683 -0.00022725282 0.003392295 -0.004480587 0.008078585 -0.0057648965
-0.0116481455 0.025791204 0.032433227 0.053947505 -0.018322771 -0.025937807 -0.004673065 -0.0197538
-0.014724195 0.0152071845 -0.00068962824 0.0042121443 0.026034495 -0.00827876 0.025610778 -0.009746575
00000000: 02d3 4b3d c145 51bc 6f83 273d 203a b03c
00000010: 7a32 a4bc 5c28 c23c 6969 623c 7141 e93b
00000020: 04fe bbba 9305 b2bb 184e 11bd f6bd 7339
00000030: 3891 9e39 7d9f 663c 8586 a93c 28ed 0cbc
00000040: 9ee9 523c 7872 5b3c 8c60 863b e651 22bc
00000050: 666d bc3b 4b33 833b 3f9e 193c f03c 8bbc
00000060: ba17 77bb 8030 21bc 71ff 2cbc 73e3 73bc
00000070: 4515 e93b 6b31 1d3c 9bdc b93b bd0c 453c
00000080: 2f6d 82bc bd29 fb3b b2a3 bf3c e3ff 72bc
00000090: 9caa 91bc 9c80 c5bb eef4 a1bb 7246 e3bb
000000a0: 7baa dbbb fbed 41bc 0e1d d3bc b9ca 26bc
000000b0: 1cf7 323c 6c73 543c fbf8 12bd ada5 31bc
000000c0: 00f1 1a3d 658d e03c 1f23 fb3b b357 cc3c
000000d0: 67ea 66bc 1814 173b 242c 78bb 56a0 25bc
000000e0: fd63 25ba 43a8 153c 0117 3cbc ddab 4ebc
000000f0: 876b b3ba bb13 033d 69a8 a03b a4b5 b1bc
00000100: 1ea5 9739 36ad c03c c47e b43c 6f12 7ebc
00000110: 1787 d73c dd8b 153c c70e 6a3c b1c8 13bc
00000120: 1638 dc3c 7db3 b93c ec2c 333b 1e45 a23c
00000130: 4abe cbba f601 71b9 6023 c3bc c8c3 9d3c
00000140: a89f fb3b 89cd b7bb 565e c43b a0b1 2c3b
00000150: e6e9 90bc 29c6 533c 9f51 87bc ea18 81bc
00000160: befd c3bc b47c d0bc aa0d d33c 9d84 ec3b
00000170: 3435 873b 947b 5fbb 49a7 5e3b 3f56 1e3d
00000180: 9760 7e3c 7854 8abc 0b54 903b ae47 ea3c
00000190: 31aa 0abb 8b3c 923c 130d 93bc 2ed0 a23c
000001a0: ded4 bf3b 5bd7 ccbb 243e fbba b74a 6eb9
000001b0: 4451 5e3b e3d1 92bb 0b5c 043c 75e7 bcbb
000001c0: ddd7 3ebc 1348 d33c b4d8 043d 0ff8 5c3d
000001d0: a319 96bc 867b d4bc 8320 99bb b9d2 a1bc
000001e0: c03d 71bc 8e27 793c 2bc8 34ba 0706 8a3b
000001f0: 4b46 d53c a3a3 07bc b2cd d13c 19b0 1fbc

encoder.graph_embed.bn.running_var f4 [128]
0.010721845 0.0061979825 0.00862146 0.008358968 0.0050834618 0.010781112 0.0031246506 0.0036046205
0.0038447792 0.0026765866 0.0035063608 0.003397634 0.004395441 0.00315956 0.008361438 0.0046260078
0.00195637 0.0029457065 0.007817432 0.005008765 0.003428624 0.0034076 0.0024129564 0.0027900038
0.0009657078 0.0055559 0.0034337046 0.0012455279 0.0028354684 0.0059554125 0.011565409 0.011136721
0.0037877779 0.0072458163 0.0043034586 0.0057667512 0.0031175085 0.0024953876 0.002077884 0.0019450396
0.0017313584 0.001568149 0.0026285297 0.0038937908 0.0013363543 0.0065483823 0.00403977 0.0015246848
0.009795169 0.007369189 0.0038006953 0.0033324196 0.0036854339 0.0046960292 0.0028112272 0.0031772377
0.006083786 0.006953398 0.0024399778 0.0037499222 0.0049345754 0.0048559317 0.0008833833 0.008771879
0.002452362 0.009792857 0.003310863 0.0012187853 0.008716566 0.0078003434 0.0042370404 0.00295181
0.010031409 0.003719727 0.0022915467 0.0029188404 0.0023343416 0.01968031 0.001671436 0.004427143
0.006288675 0.0015426014 0.004916812 0.0026714457 0.007577001 0.0034715026 0.0032453602 0.0022796325
0.002906152 0.000864331 0.019976545 0.0033396787 0.002195698 0.0051854295 0.0065659015 0.005266162
0.0020416554 0.0021728107 0.0020580688 0.0029697164 0.001682327 0.014947452 0.003681816 0.0029668517
0.0013809126 0.0046982127 0.0021145546 0.0020395357 0.0015362641 0.0046864273 0.0024647636 0.0021986996
0.0017211323 0.0025246632 0.006155858 0.011090338 0.0037895194 0.0031946788 0.004713745 0.0031700665
0.0035996663 0.004226186 0.012711768 0.0024689073 0.0021632228 0.009382742 0.008642278 0.0028527868
00000000: adaa 2f3c 7218 cb3b 0641 0d3c 0ef4 083c
00000010: 2b93 a63b 43a3 303c f0c6 4c3b 7f3b 6c3b
00000020: b1f8 7b3b ac69 2f3b f9ca 653b d7aa 5e3b
00000030: a207 903b 9f10 4f3b 6afe 083c c495 973b
00000040: 7136 003b c10c 413b b014 003c 9120 a43b
00000050: c4b2 603b 0b52 5f3b b122 1e3b 7fd8 363b
00000060: 8e27 7d3a 440e b63b 0108 613b fb40 a33a
00000070: 44d3 393b 9f25 c33b d77c 3d3c cb76 363c
00000080: 5e3c 783b 506e ed3b 0704 8d3b 04f7 bc3b
00000090: 1d4f 4c3b a889 233b 1c2d 083b b3f0 fe3a
000000a0: bfee e23a 598a cd3a 6943 2c3b f82e 7f3b
000000b0: 9c28 af3a d093 d63b 0c60 843b efd7 c73a
000000c0: eb7b 203c 3d79 f13b 1615 793b b964 5a3b
000000d0: 5287 713b 26e1 993b 913c 383b 3439 503b
000000e0: 7f5a c73b 55d9 e33b 09e8 1f3b 41c1 753b
000000f0: 38b2 a13b 821e 9f3b da92 673a edb7 0f3c
00000100: cfb7 203b 3872 203c 10fb 583b a6bf 9f3a
00000110: edcf 0e3c 069a ff3b dfd6 8a3b 2773 413b
00000120: c75a 243c aac6 733b c62d 163b 044a 3f3b
00000130: c1fb 183b 9a38 a13c 1614 db3a 9111 913b
00000140: 3b11 ce3b 1d31 ca3a 351d a13b 6c13 2f3b
00000150: 7e48 f83b 2682 633b 1cb0 543b e365 153b
00000160: 2475 3e3b 4694 623a daa5 a33c 83de 5a3b
00000170: b3e5 0f3b 89ea a93b c626 d73b c58f ac3b
00000180: 4bcd 053b b765 0e3b aae0 063b 939f 423b
00000190: 8781 dc3a 28e6 743c 9f4a 713b 836f 423b
000001a0: bdff b43a 77f3 993b 5794 0a3b bba9 053b
000001b0: 785c c93a 9a90 993b df87 213b 0f18 103b
000001c0: 9e97 e13a d274 253b 14b7 c93b 40b4 353c
000001d0: 9659 783b d15d 513b c275 9a3b e4c0 4f3b
000001e0: 61e8 6b3b d17b 8a3b 0545 503c 64cd 213b
000001f0: dbc4 0d3b 13ba 193c 5798 0d3c d2f5 3a3b

encoder.graph_embed.GCN_layers.0.A f4 [9, 9]
-0.5433523 -0.23152013 -0.65758497 -1.0820348 -0.44566834 -1.1378697 1.5231293 -0.120718636
1.076808 0.81959605 0.4030182 -0.6124722 0.82315373 -1.3721275 0.21319626 -0.9034604
-1.1873155 1.6410234 1.8906659 -0.0842519 -0.37694356 0.81771934 0.18314092 0.5146567
0.24540433 -2.2011745 0.03603067 1.6223502 -0.28307104 0.21395892 0.7692935 -1.2231002
0.56831837 -0.570151 1.1548177 1.5275836 1.7299534 0.08133632 -0.5279607 -0.020343252
-1.6376964 -1.1570026 0.6676692 -1.3894645 1.389896 0.38049868 0.98260987 0.18236218
-0.11397868 0.630536 -1.0462583 -0.42104897 0.45343858 0.7011014 -1.0210714 -0.25626752
0.9225602 0.6977089 -0.05525212 -0.11754201 1.2552602 -0.08891311 1.2240702 -0.47008362
-0.43028608 0.72498906 0.23908398 0.4359262 0.5696993 3.0877273 -0.77302986 0.14027213
1.000537 0.9518501 -1.0698148 0.52315706 -0.01824903 0.39473125 -0.20572673 0.33576363
0.6800269
00000000: 2319 0bbf 9d13 6dbe 7d57 28bf 1e80 8abf
00000010: a42e e4be b7a5 91bf e7f5 c23f 553b f7bd
00000020: d8d4 893f 0cd1 513f 6758 ce3e faca 1cbf
00000030: 34ba 523f e0a1 afbf 1f50 5a3e 2e49 67bf
00000040: f4f9 97bf 0e0d d23f 5701 f23f 438c acbd
00000050: bffe c0be 0e56 513f 4b89 3b3e 8bc0 033f
00000060: 464b 7b3e 0be0 0cc0 e594 133d 2ca9 cf3f
00000070: b0ee 90be 0c18 5b3e 6bf0 443f 8c8e 9cbf
00000080: 507d 113f 6af5 11bf 11d1 933f dc87 c33f
00000090: 1d6f dd3f a893 a63d 6f28 07bf e4a6 a6bc
000000a0: 09a0 d1bf a918 94bf 5eec 2a3f f9d9 b1bf
000000b0: 1de8 b13f b9d0 c23e 528c 7b3f 27bd 3a3e
000000c0: a76d e9bd cf6a 213f cbeb 85bf bb93 d7be
000000d0: 1a29 e83e 627b 333f 78b2 82bf 7f35 83be
000000e0: e82c 6c3f 0d9d 323f 0c50 62bd deb9 f0bd
000000f0: 5eac a03f 1418 b6bd 55ae 9c3f cdae f0be
00000100: 754e dcbe e298 393f 6ed2 743e b831 df3e
00000110: d0d7 113f 539d 4540 49e5 45bf 7fa3 0f3e
00000120: 9911 803f 73ac 733f b1ef 88bf 9fed 053f
00000130: fd7e 95bc 371a ca3e 07aa 52be 36e9 ab3e
00000140: 3e16 2e3f

encoder.graph_embed.GCN_layers.0.linear.weight f4 [128, 128]
0.05680537 -0.025752585 -0.05405239 -0.11729243 0.0038794822 0.010926248 0.09215236 0.040100627
-0.07203803 0.09091371 0.0073637376 -0.04122234 0.025616387 -0.0610716 -0.0039430633 -0.042661376
0.038521226 -0.09695166 0.0349426 0.02058357 0.060047235 0.049293052 -0.11279286 0.06163957
-0.059656918 0.0030838947 0.030635884 0.0060332664 -0.08390923 -0.056381956 -0.015551969 -0.097635426
-0.041602038 0.010397416 -0.03676626 -0.111514896 -0.026883299 -0.022953274 0.0052765682 -0.07230986
-0.015287898 0.0050253514 0.035415996 0.02694218 0.035205524 -0.05285419 0.02930647 0.015012178
-0.008411608 -0.04816016 0.03471709 -0.07395648 0.035154887 -0.02289707 0.049144108 -0.0606629
-0.020040805 -0.015475781 0.017058117 -0.01897942 -0.0378077 0.029812811 0.07974254 -0.06411376
-0.057771023 -0.031344187 -0.013956569 0.05394905 -0.06865128 -0.07528807 -0.04768074 -0.05307813
-0.10164687 -0.06704917 0.016618872 0.018604837 -0.0413478 0.008304297 -0.0075174323 -0.066063724
-0.07176216 0.09617447 -0.015523841 -0.0060322727 0.08646206 0.08148884 -0.015189674 0.02295412
-0.008089842 0.011546986 0.025151435 -0.020268815 -0.017655406 0.06214278 -0.095231205 0.058689535
-0.04339292 0.084843755 -0.058052413 0.015034936 -0.023049839 -0.066531144 -0.086649 0.045880947
-0.035056975 -0.019970246 0.08836312 -0.04331487 -0.018872652 0.053635057 -0.06617981 0.04759646
-0.041554518 -0.06395986 -0.084914766 0.05258556 -0.015125283 -0.0014318577 0.06920942 0.025170961
0.06117554 -0.047496293 -0.07252024 0.090548076 -0.09362936 0.05061759 0.08497679 0.025400603
-0.0021424585 0.03362304 -0.004642555 0.07666414 0.02532793 0.06921801 0.0860711 0.029214198
-0.00015605423 0.022080846 0.002734084 0.0621768 0.011981588 0.034177642 -0.04151564 0.035055034
0.0034380706 -0.06140917 -0.003632928 0.0390973 0.06644139 -0.0631432 0.0921337 0.081043676
0.007980976 0.09065432 0.04461259 -0.003070586 -0.005293642 0.06749766 0.074580595 0.021158138
0.037154485 0.10317003 0.05498281 -0.044908326 -0.05269419 0.06527288 0.09288447 -0.017886948
0.051059894 0.05521994 -0.027885042 -0.074189596 0.015429074 -0.016725803 -0.018300628 0.08299527
-0.009411965 -0.0017373868 -0.083016895 -0.04826016 -0.06145978 -0.047495123 0.06945709 0.04352859
-0.080445185 -0.015859878 0.041223146 -0.051753823 -0.06897219 0.07517746 -0.07392268 -0.010979559
-0.009926455 -0.05149563 -0.03276162 -0.04705772 -0.047805883 0.013016193 -0.06832125 0.062213097
-0.080570124 -0.0901243 -0.09374112 0.106388636 0.013104633 -0.044647526 0.07811409 0.08255257
0.0014386127 -0.02738691 0.032439813 0.07585028 -0.07560664 0.027875941 -0.099089414 0.016195696
-0.020334926 0.019987395 -0.027088558 -0.019038863 0.007365282 0.0012441848 0.04569777 0.08431189
-0.059112687 -0.0121942125 -0.04760878 0.095906995 0.089152426 -0.030817008 0.03510924 0.06507669
0.016419252 -0.049067166 -0.052869402 -0.049016595 0.08040536 -0.10501363 -0.009031803 -0.057454877
-0.05251847 -0.08853783 -0.055736087 -0.015410643 -0.020515755 0.027404662 -0.03179282 -0.006865199
-0.00027657347 0.09136278 -0.04906391 -0.033121612 -0.02389116 -0.055923704 -0.06696925 0.018414523
00000000: bfac 683d 16f7 d2bc 0a66 5dbd 0337 f0bd
00000010: e93e 7e3b 0104 333c 60ba bc3d 8e40 243d
00000020: ad88 93bd f830 ba3d 824b f13b c2d8 28bd
00000030: 75d9 d13c 3726 7abd d034 81bb b2bd 2ebd
00000040: 6fc8 1d3d 988e c6bd f91f 0f3d e09e a83c
00000050: 17f4 753d 83e7 493d f1ff e6bd c679 7c3d
00000060: d05a 74bd 2b1b 4a3b 1bf8 fa3c b5b2 c53b
00000070: 9ad8 abbd c4f0 66bd b0cd 7ebc 15f5 c7bd
00000080: e666 2abd ec59 2a3c 3898 16bd ec61 e4bd
00000090: 5d3a dcbc 8108 bcbc 10e7 ac3b 3117 94bd
000000a0: 177a 7abc b4ab a43b 5d10 113d d9b5 dc3c
000000b0: ab33 103d a37d 58bd 1f14 f03c a3f5 753c
000000c0: d7d0 09bc 9743 45bd 8233 0e3d 7f76 97bd
000000d0: 92fe 0f3d a392 bbbc 554b 493d a979 78bd
000000e0: 9d2c a4bc 218e 7dbc 77bd 8b3c bb7a 9bbc
000000f0: 3fdc 1abd ff39 f43c 0f50 a33d 134e 83bd
00000100: 4fa1 6cbd c362 00bd 18aa 64bc aef9 5c3d
00000110: 0b99 8cbd a230 9abd e14c 43bd 7468 59bd
00000120: 3c2c d0bd 1351 89bd 4d24 883c 2c69 983c
00000130: 505c 29bd bf0e 083c cb54 f6bb 6b4c 87bd
00000140: 0af8 92bd 1ff7 c43d b557 7ebc 5faa c5bb
00000150: 0513 b13d 9fe3 a63d 1cde 78bc 470a bc3c
00000160: 428b 04bc 922f 3d3c 620a ce3c c90a a6bc
00000170: 12a2 90bc 6d89 7e3d 9408 c3bd 7064 703d
00000180: c6bc 31bd 90c2 ad3d 5ec8 6dbd 1855 763c
00000190: 04d3 bcbc 7b41 88bd 0875 b1bd a9ed 3b3d
000001a0: e797 0fbd a498 a3bc b9f7 b43d ef6a 31bd
000001b0: d29a 9abc 6fb0 5b3d 4889 87bd 81f4 423d
000001c0: 1235 2abd 63fd 82bd cbe7 adbd f563 573d
000001d0: 09d0 77bc 2cad bbba abbd 8d3d 5533 ce3c
000001e0: 3493 7a3d 798b 42bd 7e85 94bd 4571 b93d
000001f0: c0c0 bfbd 6454 4f3d 5008 ae3d ed14 d03c
00000200: 7d68 0cbb 50b8 093d 9320 98bb 1702 9d3d
00000210: 857c cf3c 2cc2 8d3d 0b46 b03d 9d52 ef3c
00000220: 7da2 23b9 e4e2 b43c 512e 333b 1aad 7e3d
00000230: 6c4e 443c dbfd 0b3d 4e0c 2abd de95 0f3d
00000240: 4151 613b 2f88 7bbd 6b16 6ebb 7e24 203d
00000250: 6c12 883d 3951 81bd 98b0 bc3d 3afa a53d
00000260: a4c2 023c f9a8 b93d b1bb 363d e23b 49bb
00000270: 4a76 adbb 373c 8a3d b6bd 983d d553 ad3c
00000280: 4d2f 183d cf4a d33d a835 613d cbf1 37bd
00000290: ddd5 57bd caad 853d 373a be3d a687 92bc
000002a0: 2e24 513d 4e2e 623d 2c6f e4bc b7f0 97bd
000002b0: 3aca 7c3c 8d04 89bc 33eb 95bc 6df9 a93d
000002c0: a434 1abc 07b9 e3ba c304 aabd 72ac 45bd
000002d0: 40bd 7bbd 3f8a 42bd 853f 8e3d 094b 323d
000002e0: 72c0 a4bd 93ec 81bc 9ad9 283d d1fb 53bd
000002f0: 4b41 8dbd a4f6 993d c664 97bd 9ce3 33bc
00000300: 92a2 22bc 15ed 52bd 0c31 06bd 99bf 40bd
00000310: 1ad0 43bd df41 553c 03ec 8bbd 29d3 7e3d
00000320: f301 a5bd 1793 b8bd 58fb bfbd 49e2 d93d
00000330: d1b4 563c 53e0 36bd 48fa 9f3d 5211 a93d
00000340: d58f bc3a 835a e0bc 9cdf 043d 6457 9b3d
00000350: a7d7 9abd 165c e43c 64ef cabd d6ac 843c
00000360: 6e95 a6bc 9bbc a33c d3e8 ddbc 64f7 9bbc
00000370: 7758 f13b ea13 a33a 962d 3b3d b6ab ac3d
00000380: 2520 72bd 3cca 47bc 6d01 43bd e36a c43d
00000390: 8c95 b63d f373 fcbc b5ce 0f3d ed46 853d
000003a0: ab81 863c a7fa 48bd 968d 58bd a0c5 48bd
000003b0: 91ab a43d 6311 d7bd 21fa 13bc ce55 6bbd
000003c0: 9b1d 57bd 5253 b5bd 864b 64bd ec7c 7cbc
000003d0: a810 a8bc be7f e03c 3039 02bd 77f5 e0bb
000003e0: 1001 91b9 691c bb3d 3df7 48bd 87aa 07bd
000003f0: 65b7 c3bc 4110 65bd 2d27 89bd 0eda 963c

encoder.graph_embed.GCN_layers.0.linear.bias f4 [128]
0.10909328 -0.06643583 -0.017446222 -0.048088692 -0.040736645 -0.055574566 0.10241469 -0.06024691
-0.014613615 -0.0954858 -0.023564596 0.014314523 -0.067270055 -0.053563002 -0.010547791 -0.04514381
-0.0018396111 -0.055426173 -0.026030997 0.017159855 0.007168834 0.052395348 -0.057393588 0.027718078
-0.017051293 0.05125113 -0.014634713 0.04363423 0.027880518 -0.024432054 0.020243982 0.0092556225
-0.053967785 -0.0025606658 0.0372166 0.016158268 -0.029047078 -0.03862221 0.01394101 -0.022685533
-0.057883717 0.017758835 -0.005592093 -0.04561536 -0.021389285 -0.021497699 -0.019828059 0.0027225136
-0.031972554 0.022817824 0.009926639 0.0082948655 0.025933573 -0.087352514 0.054587103 -0.036240015
0.0053200102 0.044591032 -0.084086746 -0.016634455 -0.058189925 0.029572377 -0.062265072 -0.02595661
0.012855134 0.05780258 0.14250344 0.027461847 0.035279356 -0.018614542 0.06787896 -0.03591764
0.03202275 0.018484 -0.025948932 -0.0073494003 0.062232185 -0.03727282 0.051113866 -0.054399576
-0.06427717 -0.032318994 -0.0008667042 -0.04451914 0.0136705665 0.028066795 -0.046821393 0.023630846
-0.038655926 0.021922885 0.003918504 -0.03223218 -0.005244244 0.052909944 0.05148054 0.015808411
0.06471745 -0.030341765 0.007558107 -0.023807878 -0.025926797 0.021462958 -0.050417066 -0.012680318
0.013970232 0.08986055 0.0513421 0.021265527 -0.043888297 0.05746629 -0.030153846 -0.028706638
-0.03973629 -0.023795305 0.03430717 -0.01696934 -0.08387474 0.0077853063 0.059771676 -0.043326907
-0.028398857 -0.030139606 0.052154846 0.08695957 -0.04577941 -0.024777308 0.016562743 0.023876663
00000000: 4c6c df3d 820f 88bd 61eb 8ebc a6f8 44bd
00000010: 78db 26bd 28a2 63bd cbbe d13d 77c5 76bd
00000020: f26d 6fbc 0f8e c3bd 8a0a c1bc 7687 6a3c
00000030: e2c4 89bd e164 5bbd a4d0 2cbc b7e8 38bd
00000040: 1b1f f1ba 8e06 63bd f53e d5bc d392 8c3c
00000050: 8ae8 ea3b 819c 563d 8a15 6bbd 0611 e33c
00000060: 27af 8bbc b4ec 513d 6fc6 6fbc ceb9 323d
00000070: af65 e43c bb25 c8bc b5d6 a53c e5a4 173c
00000080: 530d 5dbd d8d0 27bb 6f70 183d 585e 843c
00000090: 23f4 edbc 5332 1ebd d668 643c 03d7 b9bc
000000a0: 7a17 6dbd fa7a 913c e03d b7bb 2cd7 3abd
000000b0: 9538 afbc f11b b0bc 746e a2bc 336c 323b
000000c0: a7f5 02bd 72ec ba3c 57a3 223c 30e7 073c
000000d0: a572 d43c e0e5 b2bd ba96 5f3d 6970 14bd
000000e0: 7b53 ae3b 16a5 363d ac35 acbd fb44 88bc
000000f0: 8f58 6ebd c541 f23c a909 7fbd f5a2 d4bc
00000100: 579e 523c 66c2 6c3d 6cec 113e abf7 e03c
00000110: 1681 103d 867d 98bc 2004 8b3d 601e 13bd
00000120: 492a 033d c26b 973c db92 d4bc 3dd3 f0bb
00000130: 2de7 7e3d 62ab 18bd c65c 513d 17d2 5ebd
00000140: c0a3 83bd ec60 04bd 8933 63ba b459 36bd
00000150: 83fa 5f3c 56ec e53c cac7 3fbd 7a95 c13c
00000160: ad55 1ebd 9f97 b33c cb66 803b e405 04bd
00000170: e8d7 abbb 19b8 583d 42dd 523d a480 813c
00000180: 958a 843d 4b8f f8bc ffa9 f73b bd08 c3bc
00000190: 6f64 d4bc 16d3 af3c 2082 4ebd 1cc1 4fbc
000001a0: 66e3 643c cf08 b83d 184c 523d 0b35 ae3c
000001b0: 37c4 33bd c661 6b3d 3305 f7bc 2f2a ebbc
000001c0: 85c2 22bd 5fee c2bc ad85 0c3d 4903 8bbc
000001d0: 85c6 abbd e21b ff3b 25d3 743d 8e77 31bd
000001e0: b8a4 e8bc 56e7 f6bc 52a0 553d dc17 b23d
000001f0: 3183 3bbd c8f9 cabc 97ae 873c fe98 c33c

encoder.pos_enc.pe f4 [500, 128]
0.0 1.0 0.0 1.0 0.0 1.0 0.0 1.0
0.0 1.0 0.0 1.0 0.0 1.0 0.0 1.0
0.0 1.0 0.0 1.0 0.0 1.0 0.0 1.0
0.0 1.0 0.0 1.0 0.0 1.0 0.0 1.0
0.0 1.0 0.0 1.0 0.0 1.0 0.0 1.0
0.0 1.0 0.0 1.0 0.0 1.0 0.0 1.0
0.0 1.0 0.0 1.0 0.0 1.0 0.0 1.0
0.0 1.0 0.0 1.0 0.0 1.0 0.0 1.0
0.0 1.0 0.0 1.0 0.0 1.0 0.0 1.0
0.0 1.0 0.0 1.0 0.0 1.0 0.0 1.0
0.0 1.0 0.0 1.0 0.0 1.0 0.0 1.0
0.0 1.0 0.0 1.0 0.0 1.0 0.0 1.0
0.0 1.0 0.0 1.0 0.0 1.0 0.0 1.0
0.0 1.0 0.0 1.0 0.0 1.0 0.0 1.0
0.0 1.0 0.0 1.0 0.0 1.0 0.0 1.0
0.0 1.0 0.0 1.0 0.0 1.0 0.0 1.0
0.84147096 0.54030234 0.7617204 0.6479058 0.68156135 0.731761 0.604694 0.7964579
0.53316844 0.8460091 0.46794805 0.883756 0.4093089 0.9123959 0.35711196 0.9340616
0.3109836 0.9504153 0.2704322 0.96273905 0.23492105 0.9720145 0.20391227 0.9789892
0.17689219 0.9842302 0.15338473 0.9881666 0.13295726 0.99112177 0.11522171 0.9933398
0.099833414 0.9950042 0.08648824 0.9962529 0.07491915 0.9971896 0.06489253 0.99789226
0.05620449 0.9984193 0.04867751 0.9988145 0.04215715 0.999111 0.036509294 0.9993333
0.031617504 0.99950004 0.027380772 0.9996251 0.023711512 0.99971884 0.020533804 0.9997892
0.017781857 0.99984187 0.015398654 0.99988145 0.013334819 0.99991107 0.01154756 0.9999333
0.009999833 0.99995 0.008659536 0.9999625 0.0074988706 0.99997187 0.006493771 0.9999789
0.0056233825 0.9999842 0.004869656 0.99998814 0.0042169513 0.9999911 0.0036517328 0.9999933
0.0031622713 0.999995 0.0027384157 0.99999624 0.0023713715 0.9999972 0.0020535232 0.9999979
0.0017782785 0.99999845 0.0015399256 0.9999988 0.001333521 0.9999991 0.0011547814 0.99999934
0.0009999998 0.9999995 0.00086596434 0.99999964 0.000749894 0.9999997 0.0006493816 0.9999998
0.0005623411 0.9999998 0.00048696747 0.9999999 0.00042169637 0.99999994 0.0003651741 0.99999994
0.00031622782 0.99999994 0.00027384204 0.99999994 0.00023713727 1.0 0.00020535247 1.0
0.00017782794 1.0 0.00015399269 1.0 0.00013335208 1.0 0.00011547816 1.0
00000000: 0000 0000 0000 803f 0000 0000 0000 803f
00000010: 0000 0000 0000 803f 0000 0000 0000 803f
00000020: 0000 0000 0000 803f 0000 0000 0000 803f
00000030: 0000 0000 0000 803f 0000 0000 0000 803f
00000040: 0000 0000 0000 803f 0000 0000 0000 803f
00000050: 0000 0000 0000 803f 0000 0000 0000 803f
00000060: 0000 0000 0000 803f 0000 0000 0000 803f
00000070: 0000 0000 0000 803f 0000 0000 0000 803f
00000080: 0000 0000 0000 803f 0000 0000 0000 803f
00000090: 0000 0000 0000 803f 0000 0000 0000 803f
000000a0: 0000 0000 0000 803f 0000 0000 0000 803f
000000b0: 0000 0000 0000 803f 0000 0000 0000 803f
000000c0: 0000 0000 0000 803f 0000 0000 0000 803f
000000d0: 0000 0000 0000 803f 0000 0000 0000 803f
000000e0: 0000 0000 0000 803f 0000 0000 0000 803f
000000f0: 0000 0000 0000 803f 0000 0000 0000 803f
00000100: 0000 0000 0000 803f 0000 0000 0000 803f
00000110: 0000 0000 0000 803f 0000 0000 0000 803f
00000120: 0000 0000 0000 803f 0000 0000 0000 803f
00000130: 0000 0000 0000 803f 0000 0000 0000 803f
00000140: 0000 0000 0000 803f 0000 0000 0000 803f
00000150: 0000 0000 0000 803f 0000 0000 0000 803f
00000160: 0000 0000 0000 803f 0000 0000 0000 803f
00000170: 0000 0000 0000 803f 0000 0000 0000 803f
00000180: 0000 0000 0000 803f 0000 0000 0000 803f
00000190: 0000 0000 0000 803f 0000 0000 0000 803f
000001a0: 0000 0000 0000 803f 0000 0000 0000 803f
000001b0: 0000 0000 0000 803f 0000 0000 0000 803f
000001c0: 0000 0000 0000 803f 0000 0000 0000 803f
000001d0: 0000 0000 0000 803f 0000 0000 0000 803f
000001e0: 0000 0000 0000 803f 0000 0000 0000 803f
000001f0: 0000 0000 0000 803f 0000 0000 0000 803f
00000200: a46a 573f 4151 0a3f 1c00 433f 28dd 253f
00000210: ce7a 2e3f b054 3b3f 3acd 1a3f aae4 4b3f
00000220: ba7d 083f 0d94 583f e396 ef3e d53d 623f
00000230: f090 d13e c792 693f 61d7 b63e a91e 6f3f
00000240: 3e39 9f3e 6b4e 733f 1776 8a3e 1176 763f
00000250: 258f 703e f1d5 783f 61ce 503e 099f 7a3f
00000260: 3a23 353e 83f6 7b3f e310 1d3e 7cf8 7c3f
00000270: f325 083e 28ba 7d3f 5cf9 eb3d 844b 7e3f
00000280: 7675 cc3d 98b8 7e3f bf20 b13d 6e0a 7f3f
00000290: 366f 993d d147 7f3f 60e6 843d de75 7f3f
000002a0: ae36 663d 6898 7f3f 1262 473d 4fb2 7f3f
000002b0: faac 2c3d bdc5 7f3f c58a 153d 4fd4 7f3f
000002c0: 5b81 013d 3cdf 7f3f a44d e03c 6ee7 7f3f
000002d0: a53e c23c 93ed 7f3f 8236 a83c 2ff2 7f3f
000002e0: 42ab 913c a3f5 7f3f a34a 7c3c 3bf8 7f3f
000002f0: 497a 5a3c 2cfa 7f3f fa31 3d3c a1fb 7f3f
00000300: 57d6 233c b9fc 7f3f bae0 0d3c 8bfd 7f3f
00000310: 16b9 f53b 28fe 7f3f b3c9 d43b 9efe 7f3f
00000320: 5a44 b83b f7fe 7f3f a391 9f3b 39ff 7f3f
00000330: 5a2e 8a3b 6bff 7f3f e951 6f3b 90ff 7f3f
00000340: 1c3e 4f3b acff 7f3f fe76 333b c1ff 7f3f
00000350: 0369 1b3b d1ff 7f3f 6794 063b ddff 7f3f
00000360: 2015 e93a e6ff 7f3f 54d7 c93a ecff 7f3f
00000370: 8ac9 ae3a f1ff 7f3f 095c 973a f5ff 7f3f
00000380: 6d12 833a f8ff 7f3f e201 633a faff 7f3f
00000390: 8994 443a fbff 7f3f 433b 2a3a fdff 7f3f
000003a0: 136a 133a fdff 7f3f ab4f ff39 feff 7f3f
000003b0: 2117 dd39 ffff 7f3f d774 bf39 ffff 7f3f
000003c0: 61cb a539 ffff 7f3f 7592 8f39 ffff 7f3f
000003d0: 0da8 7839 0000 803f e253 5739 0000 803f
000003e0: 5377 3a39 0000 803f 1979 2139 0000 803f
000003f0: 6dd4 0b39 0000 803f dd2c f238 0000 803f

encoder.transformer.in_proj_weight f4 [384, 128]
-0.05030908 -0.049558546 0.008228808 -0.022107488 -0.052122246 -0.07806003 -0.11434523 0.07254977
-0.078836255 0.016016731 -0.031394396 -0.015880119 0.02173208 0.012534448 -0.040630754 -0.064877205
-0.064584404 0.070931144 -0.016170679 -0.035065893 0.08130196 0.05689357 -0.04537853 -0.021148851
-0.11865109 -0.01647383 0.00056291535 -0.037481796 0.07177563 0.09139507 -0.022268461 -0.056557704
-0.012221794 0.03307217 0.027338466 -0.041704502 -0.078684926 0.008990428 0.05418335 -0.019790208
0.06092099 0.07985659 -0.04988687 -0.046667214 0.0170926 0.09443424 0.049376775 -0.07973018
0.0664973 -0.027562127 0.07168876 0.017253755 -0.065970436 -0.046770412 -0.006575701 0.033156864
0.08461092 0.0365892 0.064209536 -0.03168354 -0.0378189 -0.034576062 -0.10824406 0.064667545
0.026240697 -0.08209331 -0.1319387 0.03237037 -0.10097322 0.011310596 -0.053656645 -0.09001853
0.08418223 0.005108753 0.036097657 0.008409335 0.08672609 -0.032081332 -0.032477807 0.09428968
-0.013593903 -0.07528622 0.020649072 0.05703917 0.06461335 -0.10055956 -0.002453833 0.09733665
0.04733189 -0.077373825 0.023959478 -0.02772112 -0.084461085 0.07529457 0.0047506047 -0.07815473
-0.040946975 -0.006211703 -0.057571072 0.021700023 0.036552664 0.05387291 -0.02515171 -0.00980148
-0.0507052 -0.04199398 0.002027436 0.008264135 0.05815358 -0.07019187 0.059751824 -0.056775805
0.023253404 -0.055469487 -0.052284427 0.10807491 0.02503266 -0.08681491 -0.085431464 -0.007255182
0.026796041 0.011800114 0.061935864 0.027452469 -0.09807552 0.082894996 -0.037255246 -0.022234127
-0.058475897 -0.07682477 -0.09453192 0.06836239 0.03218258 -0.05405756 -0.0503697 -0.03812106
0.026242 0.036375854 0.013143768 -0.01968404 -0.049667936 0.014733746 -0.03482853 -0.031613044
-0.09080921 -0.045518707 0.08560771 -0.07886565 0.016288793 -0.07286867 -0.01848359 0.05785756
0.05768595 -0.0771867 0.002675999 -0.021237154 0.023181742 0.073121615 0.013475758 0.023692751
-0.07940187 0.046225533 0.06552092 0.0012296934 -0.09701315 -0.06729576 0.041166406 -0.09532828
0.06545454 -0.035329383 0.075091854 -0.07511573 -0.03209085 -0.056607045 -0.023626124 -0.02752169
-0.034771353 0.10944048 -0.011240314 0.07212571 -0.08617442 0.072034284 -0.08532436 -0.004697683
0.0672442 0.07610402 -0.0510913 0.107570924 0.0076588397 -0.034908377 -0.05858131 0.05822772
-0.0059665474 0.009199026 -0.04265523 -0.04804918 -0.057441846 0.11215679 -0.10817066 0.033586387
-0.026236007 -0.016107872 -0.0862112 0.071391925 -0.06361715 0.092460796 0.0030958902 -0.04077847
-0.032403566 0.05531505 0.09156853 0.022757601 -0.073380955 0.08934377 -0.0007867692 -0.056601312
-0.05559419 0.06335081 -0.032887705 0.061152656 -0.01859361 -0.037582256 0.03848084 -0.011618104
0.041857205 0.095092475 -0.06399545 0.08321901 -0.025870446 0.008578749 -0.06229364 -0.010131926
-0.06005364 -0.107444465 -0.11187325 0.016015824 0.09052363 0.067762844 -0.059966806 0.11468654
0.00038081137 0.0076133064 -0.032405194 -0.014398639 0.008930286 0.01020194 -0.11260358 0.091273606
0.010290049 0.05404322 0.07759151 0.0027693948 -0.016624695 0.015775671 -0.12101649 -0.07350787
00000000: e510 4ebd e7fd 4abd 1fd2 063c c31a b5bc
00000010: 237e 55bd f0dd 9fbd d52d eabd f994 943d
00000020: e774 a1bd 8535 833c 6997 00bd 0617 82bc
00000030: 7a07 b23c 495d 4d3c 6f6c 26bd 57de 84bd
00000040: d444 84bd 5944 913d 5f78 84bc 41a1 0fbd
00000050: a481 a63d 3b09 693d d6de 39bd 5b40 adbc
00000060: 58ff f2bd 20f4 86bc 9c90 133a 8386 19bd
00000070: 1aff 923d 572d bb3d 596c b6bc 0da9 67bd
00000080: eb3d 48bc af76 073d ebf4 df3c 57d2 2abd
00000090: 9025 a1bd 974c 133c 5cef 5d3d 131f a2bc
000000a0: 4a88 793d da8b a33d 2d56 4cbd 1f26 3fbd
000000b0: c805 8c3c bd66 c13d 4d3f 4a3d 9449 a3bd
000000c0: bd2f 883d f8c9 e1bc 8ed1 923d bf57 8d3c
000000d0: 821b 87bd 5592 3fbd fa78 d7bb 7ecf 073d
000000e0: 7d48 ad3d 8fde 153d 4a80 833d 9ac6 01bd
000000f0: fee7 1abd a19f 0dbd 10af ddbd 6b70 843d
00000100: bbf6 d63c 8a20 a8bd f01a 07be cb96 043d
00000110: 0ccb cebd 1450 393c 12c7 5bbd a35b b8bd
00000120: bc67 ac3d 5467 a73b 23db 133d 4fc7 093c
00000130: 739d b13d b767 03bd 7307 05bd f31a c13d
00000140: f6b8 5ebc a92f 9abd 3e28 a93c e8a1 693d
00000150: 0154 843d 2cf2 cdbd 7cd0 20bb 7058 c73d
00000160: 15df 413d 2b76 9ebd ab46 c43c 6717 e3bc
00000170: eff9 acbd 0a34 9a3d f6aa 9b3b 960f a0bd
00000180: 04b8 27bd 8b8b cbbb a5cf 6bbd 3fc4 b13c
00000190: 3fb8 153d d7a9 5c3d f50a cebc 6396 20bc
000001a0: 41b0 4fbd e101 2cbd bbde 043b 4b66 073c
000001b0: 7332 6e3d c1c0 8fbd 54be 743d bf8d 68bd
000001c0: ec7d be3c f933 63bd 3228 56bd 6156 dd3d
000001d0: 4b11 cd3c 04cc b1bd b1f6 aebd e1bc edbb
000001e0: 5f83 db3c 4455 413c 76b0 7d3d 00e4 e03c
000001f0: d1db c8bd dac4 a93d f598 18bd 5824 b6bc
00000200: 6c84 6fbd 4e56 9dbd f499 c1bd 9501 8c3d
00000210: e2d1 033d 766b 5dbd 7550 4ebd d424 1cbd
00000220: 76f9 d63c d9fe 143d f558 573c 6d40 a1bc
00000230: 9b70 4bbd cf65 713c 5ca8 0ebd ae7c 01bd
00000240: 2efa b9bd d371 3abd 1853 af3d 5084 a1bd
00000250: 1370 853c 2b3c 95bd e66a 97bc 0dfc 6c3d
00000260: 1a48 6c3d 1014 9ebd d05f 2f3b 8af9 adbc
00000270: a3e7 bd3c c9c0 953d 6dc9 5c3c 4d17 c23c
00000280: 739d a2bd fc56 3d3d d52f 863d aa2d a13a
00000290: d5ae c6bd 5cd2 89bd 1b9e 283d 793b c3bd
000002a0: 080d 863d 8bb5 10bd c2c9 993d 47d6 99bd
000002b0: b271 03bd cadc 67bd 938b c1bc 2b75 e1bc
000002c0: 686c 0ebd 5522 e03d 4b29 38bc a5b6 933d
000002d0: 377c b0bd b686 933d 8abe aebd 05ef 99bb
000002e0: 54b7 893d 6ddc 9b3d 1c45 51bd 254e dc3d
000002f0: 01f7 fa3b 16fc 0ebd f5f2 6fbd 3180 6e3d
00000300: 0783 c3bb 83b7 163c 40b7 2ebd 38cf 44bd
00000310: 2448 6bbd 76b2 e53d 9488 ddbd e191 093d
00000320: e5ec d6bc a8f4 83bc 7f8f b0bd ee35 923d
00000330: b549 82bd 165c bd3d 6be4 4a3b 5307 27bd
00000340: 9ab9 04bd 0992 623d 4888 bb3d 266e ba3c
00000350: c148 96bd def9 b63d 303f 4eba c7d6 67bd
00000360: bcb6 63bd 12be 813d 42b5 06bd 357b 7a3d
00000370: a051 98bc daef 19bd 169e 1d3d dc59 3ebc
00000380: 7672 2b3d d8bf c23d 0c10 83bd ba6e aa3d
00000390: 42ee d3bc e28d 0c3c 9e27 7fbd 6100 26bc
000003a0: cefa 75bd d80b dcbd cd1d e5bd 9e33 833c
000003b0: 7464 b93d 3fc7 8a3d c19f 75bd c7e0 ea3d
000003c0: a3a7 c739 0b79 f93b 4fbb 04bd 45e8 6bbc
000003d0: 5650 123c 0a26 273c b59c e6bd a8ed ba3d
000003e0: 9897 283c 6c5c 5d3d 4ce8 9e3d bc7e 353b
000003f0: 8330 88bc fb3b 813c 7ed7 f7bd 4b8b 96bd
