experiments/model_128_30_2026-01-17_7664/model.pt (torch, 618784 bytes, 21 tensors)

encoder.graph_embed.GCN_in.A f4 [9, 9]
000000 33 f7 9e bf 34 84 c6 bf 2b f2 e9 bf 58 28 50 bf
       -1.2419189 -1.5509095 -1.8277029 -0.8131156
000010 e1 48 b6 3d d8 a5 50 bf 38 a6 fb ba 81 b2 d2 3e
       0.08900619 -0.8150306 -0.0019199317 0.41151813
000020 0d e3 9b bf af bb 18 bf 7e 3e 07 3d 89 0f 1c 3f
       -1.2178665 -0.5966138 0.03301858 0.60961205
000030 c6 8b f8 be d3 c7 35 3f 8e bf d8 3f d1 55 c9 bd
       -0.4854414 0.7100803 1.6933458 -0.09830821
000040 e3 01 ff be 5a 85 da 3f 80 63 e2 bf c1 22 ca 3f
       -0.49806127 1.7071946 -1.7686615 1.5791856
000050 1d b3 03 3f 4c df ff bf d1 da 47 3e e6 af 11 bf
       0.5144518 -1.999002 0.19517066 -0.56909025
000060 8f 71 12 bf 90 65 83 bf 63 36 65 3e 5f d0 17 3d
       -0.57204527 -1.026537 0.22384028 0.037063953
000070 ae 40 c9 bf c3 a2 9a bf 44 aa 94 bf 6a 65 62 3f
       -1.5722864 -1.2080921 -1.1614461 0.88435996
000080 da 9d 49 3f 74 85 e0 3d aa 23 52 be d5 bd 34 c0
       0.7875649 0.10962954 -0.20521417 -2.8240864
000090 c2 5b 7e 3f 8d dd 0e bf fd 0c bb bf 87 8d 71 3f
       0.9935876 -0.5580681 -1.4613339 0.9435658
0000a0 f0 98 49 bf 55 ea 9e 3e e9 37 bb 3e 61 01 77 bf
       -0.7874899 0.31038156 0.36566094 -0.9648648
0000b0 8f b4 11 3f bc a4 b1 bf 54 75 26 3f cc 01 b8 3f
       0.56916136 -1.3878398 0.6502278 1.4375548
0000c0 70 38 c0 bd 29 64 1a 40 0a a4 89 bf df c7 26 3f
       -0.093857646 2.4123633 -1.0753186 0.6514873
0000d0 b2 bb 5e 3f 74 f2 43 bf f3 42 b1 3e 4f 7c aa bc
       0.8700515 -0.7654183 0.3462139 -0.020811228
0000e0 2e 1e 1f 3f 2a 51 34 3d 17 3c 9a 3f 02 ff 1e c0
       0.62155426 0.044022717 1.2049588 -2.4843144
0000f0 4c 36 83 3e 5d 87 cb be 63 ea 35 bd 56 79 89 be
       0.25627363 -0.3975171 -0.04441298 -0.26850384
000100 89 de a1 3d be b8 8f bd 0f 73 f9 3e 19 11 66 bf
       0.07903773 -0.07017659 0.48720595 -0.8986984
000110 27 2c 00 c0 16 53 ab 3f 96 92 48 3d 44 e9 09 3f
       -2.0026948 1.3384731 0.04896792 0.5387156
000120 cb a6 df 3e 61 85 a9 bf 78 70 bb 3f a7 65 ef be
       0.4368194 -1.3243829 1.4643698 -0.46757242
000130 bb f0 ce be c3 e9 1a 3e 76 d8 12 40 99 68 d7 3e
       -0.40418038 0.15128236 2.2944617 0.4207199
000140 84 14 6d 3f
       0.9260943

encoder.graph_embed.GCN_in.linear.weight f4 [128, 16]
000000 fe 1e 50 3d 17 59 df bd 2a 6e 51 3e 59 e2 56 be
       0.050810806 -0.109056644 0.2045218 -0.20984782
000010 ee a9 3a be 42 0e 71 3e bd 53 6b be 9f 45 d8 3b
       -0.18228886 0.23540595 -0.22981162 0.0066000964
000020 3f 9d 58 bd b8 f9 38 be d0 63 b3 bd 5e a9 91 bd
       -0.052884337 -0.1806401 -0.08759272 -0.07112382
000030 3c 6c cc 3d ba 23 37 be aa b4 cb bd 01 c3 91 3d
       0.099815816 -0.17884722 -0.09946568 0.07117272
000040 4e 85 07 be 77 ba a4 bd f6 e4 01 3e 26 56 13 bd
       -0.13234445 -0.08043378 0.12684998 -0.03597083
000050 fa b0 f9 3d e9 c6 58 3e fb e4 75 bb 12 d4 c6 bd
       0.12191959 0.21169628 -0.0037520516 -0.09708418
000060 63 90 f7 bd b5 77 63 3e 1b 12 19 be b0 f0 fd bd
       -0.120880865 0.22213633 -0.14948313 -0.12399423
000070 7e 0c f8 3d c8 33 dd bd a0 4b a3 3d 1c b9 36 3c
       0.12111758 -0.10800892 0.07973409 0.011152532
000080 e1 a0 09 be 25 e6 5e 3d 16 f1 7a be 9e ea 20 be
       -0.13440277 0.0544187 -0.2450603 -0.157145
000090 47 f0 f8 3d 28 99 29 be 4e 32 17 be 2b f5 09 be
       0.12155204 -0.1656233 -0.14765283 -0.1347243
0000a0 9c 32 d5 3d 05 3f 55 3d 0f 36 3b 3e 5c 9d 49 bd
       0.104100436 0.052062053 0.1828234 -0.049222335
0000b0 3d b8 f0 bd 64 a3 44 3d 3b 11 6d 3e 12 c4 b6 bd
       -0.11753891 0.048007384 0.23151104 -0.08924116
0000c0 0e 5e 5d 3e cc 36 ed bd 3f 6b e2 bc 84 3a 0a 3d
       0.2161791 -0.11582717 -0.02763903 0.03374721
0000d0 bd 45 f4 bc d8 6d 82 bd 69 79 46 3e 94 95 3d be
       -0.02981841 -0.06368607 0.19382252 -0.18514091
0000e0 82 e6 3c be ee ce 63 3b 42 22 4b be 35 a9 4e 3d
       -0.18447307 0.003476079 -0.19837287 0.050454337
0000f0 b8 01 5f 3e 49 cb d8 3d 70 f0 19 be 89 8f 98 bc
       0.21778 0.105856486 -0.15033126 -0.01862313
000100 6d 53 2e 3e 3c 12 5e be 95 88 d2 3d cf 55 a2 3d
       0.17024012 -0.21686643 0.10279957 0.07926523
000110 56 ab ae 3d 1e 16 2f be d7 23 54 be 51 2a 46 3e
       0.085287735 -0.17098281 -0.20716797 0.1935208
000120 5d bf b1 3c d3 0f 3b be 86 1e 18 3d 0c 0f 21 be
       0.021697694 -0.18267755 0.037138484 -0.15728396
000130 00 67 0a 3e ea 26 9d 3c a2 04 f8 3c 24 e1 32 3e
       0.13515854 0.019183595 0.030275647 0.17468697
000140 8e b8 51 be 03 d2 07 3e e3 a5 6b bc 54 e4 1b 3e
       -0.20480558 0.13263707 -0.014382812 0.15223819
000150 fa 2e 03 3e e6 e2 26 bd 37 31 69 3e 05 b6 ac 3d
       0.12810889 -0.04074373 0.2277268 0.08433155
000160 4c de 65 be e4 3c 3b be a5 31 23 3e aa 38 c8 3d
       -0.22448081 -0.18284947 0.15936907 0.09776433
000170 95 50 20 3e a0 c7 9e 3d 60 a6 14 be 78 43 63 be
       0.1565574 0.07752919 -0.14516592 -0.22193706
000180 73 7e aa bd 48 30 3b be ea 3d fe 3d 45 90 11 be
       -0.083248995 -0.18280137 0.12414153 -0.1421519
000190 04 12 37 3e f3 5a 02 bc d9 27 32 3e 7e 21 6a 3d
       0.17877966 -0.007956254 0.17398013 0.057160847
0001a0 e6 af 2a be 05 e7 03 3e 43 60 af 3d 40 5e 3b be
       -0.16668662 0.12881096 0.08563282 -0.18297672
0001b0 38 56 88 bd 20 d8 4f be a9 89 7f 3d 3a 58 ae bd
       -0.0665707 -0.20297289 0.062387142 -0.08512922
0001c0 2f 6c 84 bb ae f2 33 be 49 73 5a be 88 b8 54 be
       -0.004041217 -0.17573044 -0.2133304 -0.20773518
0001d0 e6 bb 91 3b cb 83 23 be 08 bb d3 bd e1 4e 1c 3d
       0.004447448 -0.15968244 -0.10338408 0.038161162
0001e0 21 fe a6 bd 65 e0 b5 3a d1 ce 05 3e 96 7a 69 be
       -0.0815394 0.0013876079 0.13067175 -0.22800669
0001f0 dc eb 13 3e ee c1 ff 3d 8b 12 8e 3d 4c 49 27 3c
       0.14445442 0.12488161 0.069371305 0.010210346
000200 a3 e8 aa 3d fe 8d 11 3e ed 92 4e 3b f3 49 86 3e
       0.08345153 0.14214322 0.003152068 0.26228294
000210 59 0c a2 bd 04 db 49 3e a4 1e 41 3e 63 18 10 3e
       -0.079125114 0.19712454 0.18859345 0.14071803
000220 71 fd 02 be df 3c 7b 3e 77 38 2c be b2 d8 df bd
       -0.12791993 0.24534939 -0.16818415 -0.10930003
000230 62 05 a9 bd 5d dd 4a bd 49 8f 7a 3e fe 86 a6 bd
       -0.0825298 -0.049527515 0.24468721 -0.081312165
000240 65 cb 35 be 2e 00 2b 3e 10 17 49 bc e8 a6 82 bd
       -0.1775337 0.16699287 -0.012273565 -0.06379491
000250 37 24 0e be 14 7e 09 bd 67 4c 47 3e f0 88 2b 3e
       -0.13881002 -0.033567503 0.19462739 0.16751456
000260 5b c5 6b bd 7d 71 35 be 74 39 16 be 81 b7 19 be
       -0.05756126 -0.17719074 -0.14670354 -0.15011407
000270 96 7c 4f be 43 80 84 bd 9f 85 ba 3d 39 25 5c be
       -0.2026237 -0.064697765 0.091075175 -0.21498574
000280 0b 43 6b be e6 25 39 3e ae c4 cd 3d 67 33 c6 3c
       -0.22974794 0.18080863 0.10047279 0.024194432
000290 b9 ec 6b 3d c2 d1 3d 3e fd 1b b1 bd 66 52 6e 3e
       0.057598803 0.18537048 -0.086479165 0.2327362
0002a0 41 8a 7f 3e b7 3f 1e 3e 35 93 9d bd f1 ae 40 be
       0.24955083 0.15453993 -0.07694093 -0.18816735
0002b0 a8 22 35 3d 70 a4 cc bd 98 c0 35 3e da 9f 8a bc
       0.044222504 -0.099923015 0.1774925 -0.016921926
0002c0 e9 8f 80 3e 09 fe 82 3d 61 ea 40 3e 0f 98 31 bd
       0.25109795 0.063961096 0.18839408 -0.043357905
0002d0 f5 dc ae 3d 6c 85 16 3e 05 9e a2 3d 22 0c e2 bc
       0.08538238 0.14699334 0.07940296 -0.027593676
0002e0 75 6e ac 3d 46 9e 28 3c fb 3f 63 3e 6f 05 e8 bd
       0.084195055 0.010291642 0.22192375 -0.113291614
0002f0 4a 0f 83 3d 79 ff ac 3d 58 84 4d be 8c 7d 3f 3d
       0.063994005 0.08447165 -0.20070016 0.04675059
000300 83 16 bb bc fb 53 7a be f4 95 1d be 1b 34 a5 3d
       -0.022837883 -0.24446099 -0.15389234 0.08066579
000310 b5 12 21 3c ea bb 6e 3e e3 3d ca bd 78 e9 c1 bd
       0.00983112 0.23313871 -0.09875085 -0.09468359
000320 ea b7 36 bd c9 e3 dc bd ad e6 c8 3d 35 40 6f be
       -0.044608988 -0.10785634 0.09809623 -0.23364337
000330 61 cc 41 3e 9b 48 19 be 8e a7 3c be 7f a7 13 be
       0.1892562 -0.14969103 -0.18423292 -0.14419363
000340 29 8e 80 bd 50 c4 3b be 21 ba b4 bc 52 df d9 bd
       -0.06277115 -0.18336606 -0.02206141 -0.10638298
000350 69 5d 76 be d9 95 03 3e 3a 37 44 be 4c 07 52 bd
       -0.2405907 0.12850131 -0.19161692 -0.05127649
000360 8e 3e e0 3c e9 22 05 3d c8 1b 17 bd 59 df 94 bd
       0.027373578 0.032503996 -0.03689173 -0.07269163
000370 4b 42 00 3e e7 46 6c be 21 39 ff bd 98 a0 62 3d
       0.12525289 -0.23073922 -0.12462068 0.055328935
000380 5e 23 15 3e d0 ae 83 3e 10 6c 69 3d c7 c4 37 be
       0.14564273 0.2571931 0.056987822 -0.17946158
000390 e6 ce e3 3d 47 ee b6 3d 3c c6 47 3e 90 bd 66 be
       0.11123447 0.089321665 0.19509214 -0.2253325
0003a0 93 bc c7 3d 19 b7 54 3e 1a 33 58 be 05 89 40 3e
       0.097527646 0.20772971 -0.21113244 0.18802269
0003b0 42 25 46 bc 15 e6 08 3d 87 eb a9 bc 89 5c 69 bc
       -0.012093844 0.03342255 -0.020742191 -0.0142432535
0003c0 6a 35 83 3e 8a c6 1e be ad 45 38 be c2 3a 67 3e
       0.2562669 -0.15505424 -0.17995329 0.22581008
0003d0 80 17 4a be b9 99 f7 bd ed 0c 84 3e d9 4f aa 3d
       -0.19735527 -0.12089867 0.25791112 0.08316011
0003e0 03 0c 04 be fe 15 3e 3d f1 f5 2c bd 40 b1 0e 3e
       -0.12895207 0.046407692 -0.042226736 0.13934803
0003f0 08 26 f2 bc f8 60 71 be c1 45 69 bd d6 1b 44 be
       -0.02955915 -0.23572147 -0.056951288 -0.19151244

encoder.graph_embed.GCN_in.linear.bias f4 [128]
000000 b6 27 b5 bd a1 e7 c4 bb 23 1e 4d be 51 48 67 bb
       -0.08845465 -0.0060090576 -0.20031027 -0.0035290907
000010 16 2e d5 3d 85 d3 a8 bd 62 9a 61 3c 63 74 08 3d
       0.10409181 -0.08243469 0.013769718 0.03331412
000020 7f ce 60 be 1a 89 a8 3d bb d0 34 3e 8b a9 37 be
       -0.21953772 0.08229275 0.1765775 -0.1793577
000030 a2 3c b3 3d 58 75 fc 3d 10 56 14 be 0c de 49 3e
       0.08751799 0.12327069 -0.14485955 0.1971361
000040 af ab 35 be a9 ad 41 3e a2 08 c3 3d 91 8c b1 bd
       -0.17741273 0.18913902 0.09523131 -0.08669389
000050 f8 5d d9 3d 41 38 24 be 14 70 28 3e a0 1c 81 3e
       0.10613626 -0.16037084 0.16449004 0.25217152
000060 62 36 6f be f1 53 9e 3b cf 32 83 3b e1 af 90 3d
       -0.23360589 0.004831784 0.0040038596 0.07064796
000070 de 4b 9f 3d 2c 93 7a 3e db 9e 2f bd 34 91 25 be
       0.077781424 0.24470204 -0.042876106 -0.16168672
000080 42 7f b7 bd c3 48 06 3c a6 3d 55 3e d6 32 76 3e
       -0.089598194 0.008196059 0.20824298 0.2404283
000090 61 7f c4 ba 75 db 07 3e 7c 59 b7 bd 65 c6 f5 bd
       -0.0014991575 0.1326731 -0.08952615 -0.120007314
0000a0 93 3a 31 3b 5f 5d ed bd aa 32 59 be a2 03 5a 3e
       0.002704297 -0.11590075 -0.21210733 0.21290448
0000b0 1a fe 9e bd ac 52 21 be da 51 bb bd fe fe 6a bc
       -0.0776331 -0.15754193 -0.09146471 -0.014343021
0000c0 d3 a8 fa bd 14 c1 40 be 69 24 2b be d5 da 6b 3e
       -0.12239232 -0.18823653 -0.16713108 0.23032697
0000d0 97 b5 ef bd 0c 59 53 be 69 5d 47 3d 73 60 38 be
       -0.117045574 -0.20639437 0.048673067 -0.18005542
0000e0 92 6c 1e be c0 2e 3d bc 46 95 69 be b4 ba 09 3e
       -0.15471104 -0.011546791 -0.2281085 0.13450128
0000f0 a2 ee 29 3e 38 f8 cf 3d 24 b0 8e bd bd 37 21 be
       0.16594937 0.10154766 -0.0696719 -0.15743919
000100 a4 fc cd bd 11 d7 ab bd 7d 50 75 bd 57 cd f2 bc
       -0.10057953 -0.0839063 -0.059891213 -0.02963893
000110 bf f6 eb 3d 55 68 c3 3d 3c aa 38 be 2d 11 56 3e
       0.115216725 0.09541384 -0.1803369 0.2090499
000120 e3 ba 09 3e 0d fc a4 bd 64 85 22 be 35 76 7b be
       0.13450198 -0.08055887 -0.15871197 -0.24556811
000130 af c6 87 bd 6f 53 27 3d 59 cb 67 be 1d 68 ad 3d
       -0.06629693 0.040851053 -0.22636165 0.08467124
000140 59 15 0c be 81 f2 32 3e 56 09 b8 bd 5e 1a 4c be
       -0.13680018 0.1747532 -0.08986156 -0.19931933
000150 5c 45 02 bd 19 59 24 3e 1e 1f 6f be 43 16 3e be
       -0.031804428 0.16049613 -0.23351714 -0.1856318
000160 f5 fd 73 be 0d 8b 31 3e 47 4d 49 3e 19 0b 74 be
       -0.23827346 0.173382 0.19658385 -0.23832358
000170 bd d9 f7 3d 01 b4 60 3e fa 53 e8 3d ad ac f1 bd
       0.12102077 0.21943666 0.11344142 -0.118005134
000180 a0 74 85 bd 04 fe bc 3d c9 fb dc bc a3 65 dc 3d
       -0.06516385 0.09228137 -0.02697553 0.10761573
000190 3c 1a fa 3d 8f 44 cd 3d 29 55 7e bd 4f f4 63 3e
       0.12212035 0.10022842 -0.062092934 0.22261165
0001a0 08 58 4c 3e f2 2b 79 be 00 b5 69 be f6 72 12 3e
       0.19955456 -0.2433317 -0.22822952 0.14301667
0001b0 fb 3d d7 3d 48 a3 1e bd c5 46 05 3c 1e ed 6c be
       0.10509869 -0.038729936 0.008134549 -0.23137328
0001c0 87 f7 70 3d d6 dd 91 bd c2 b4 3c 3e 2f 62 88 3b
       0.05882981 -0.0712239 0.18428329 0.004162095
0001d0 af ed 1e 3e d3 86 8d 3d 38 23 8d 3b ad 41 01 3e
       0.15520357 0.06910481 0.004307177 0.1262271
0001e0 34 77 ab 3d 16 58 1f be 3a 24 39 bd 87 29 82 3c
       0.083723456 -0.15560946 -0.045200564 0.015888942
0001f0 1a 47 30 3e 6e c4 96 bd 12 95 05 3d 11 11 d2 3d
       0.17214623 -0.07361685 0.032612868 0.102571614

encoder.graph_embed.bn.weight f4 [128]
000000 9c 85 77 3f 2e 34 7b 3f 67 a7 7c 3f c0 a1 7c 3f
       0.96688247 0.98126495 0.98692936 0.9868431
000010 d8 e6 80 3f 2c 13 7b 3f 3d c8 7b 3f d4 e4 7d 3f
       1.0070448 0.9807613 0.98352414 0.9917729
000020 a6 67 80 3f d7 76 81 3f dc 39 7e 3f a9 ee 7f 3f
       1.0031631 1.0114392 0.99307036 0.9997354
000030 24 1e 81 3f 56 75 7a 3f a2 4d 7b 3f 34 3d 81 3f
       1.0087323 0.9783529 0.98165333 1.0096803
000040 db 12 7e 3f 5b eb 7b 3f df ad 81 3f 9f 36 80 3f
       0.9924752 0.98406 1.0131186 1.0016669
000050 90 2e 81 3f 2b 26 80 3f 8d 1b 80 3f 4d 29 79 3f
       1.0092335 1.0011648 1.0008408 0.97328645
000060 30 34 78 3f 79 81 7d 3f 9b 60 7e 3f a9 fc 7c 3f
       0.9695463 0.99025685 0.9936616 0.9882303
000070 e7 fe 7e 3f 17 c1 78 3f 23 a7 79 3f a2 10 78 3f
       0.996077 0.9716963 0.97520655 0.9690038
000080 84 33 7b 3f 45 52 7e 3f 02 16 79 3f fe 53 7b 3f
       0.9812548 0.99344283 0.97299206 0.98175037
000090 88 b5 78 3f d7 d5 7d 3f c3 5a 7d 3f f4 e8 7f 3f
       0.97151995 0.9915442 0.98966616 0.99964833
0000a0 c9 7d 80 3f 6e 87 81 3f cc 6e 7d 3f e8 74 78 3f
       1.0038387 1.0119455 0.9899719 0.97053385
0000b0 06 e6 7a 3f b5 35 7f 3f 4d 82 80 3f 19 fa 81 3f
       0.9800724 0.99691325 1.0039765 1.0154449
0000c0 cb f3 78 3f 1b c5 80 3f 09 0a 7f 3f 56 dc 78 3f
       0.97247 1.0060152 0.9962469 0.97211206
0000d0 5a 8d 79 3f c5 51 7c 3f 9d 28 7c 3f 48 29 82 3f
       0.9748131 0.9856227 0.9849947 1.0168848
0000e0 5c 21 80 3f 49 83 80 3f a8 e2 7d 3f ca 15 78 3f
       1.001018 1.0040065 0.99173975 0.9690825
0000f0 fd 97 80 3f 47 aa 81 3f 94 4a 7d 3f cc 62 79 3f
       1.0046383 1.013009 0.9894192 0.9741638
000100 1f 99 7b 3f 72 c2 7b 3f f0 ba 81 3f fe 44 78 3f
       0.9828052 0.98343575 1.0135174 0.96980274
000110 e9 5b 7f 3f c3 ab 76 3f 7f 21 80 3f 0c fa 7b 3f
       0.9974962 0.9635584 1.0010222 0.98428416
000120 de 2c 80 3f a7 a4 7f 3f 14 fe 7b 3f fb c7 81 3f
       1.0013692 0.99860615 0.9843457 1.0139154
000130 50 66 7e 3f c6 40 7f 3f 88 bc 7e 3f b9 5d 79 3f
       0.99374866 0.9970821 0.99506426 0.97408634
000140 87 f7 7b 3f 0e 31 7e 3f be 18 7b 3f b0 3b 80 3f
       0.9842457 0.992936 0.9808463 1.0018215
000150 14 a5 7a 3f f2 bf 80 3f ba 52 7b 3f b0 1a 7d 3f
       0.9790814 1.0058577 0.98173106 0.98868847
000160 e5 46 80 3f 90 78 7b 3f d4 56 7c 3f 65 28 7d 3f
       1.0021635 0.9823084 0.9856999 0.9888976
000170 d7 db 7f 3f 45 f2 7a 3f 15 10 7e 3f bc ed 7a 3f
       0.99944824 0.98025924 0.9924329 0.98019004
000180 85 fe 79 3f 97 46 7b 3f 23 39 7e 3f 08 b2 7a 3f
       0.9765399 0.98154587 0.99305934 0.97927904
000190 90 19 7a 3f a1 55 7b 3f 50 d8 7d 3f 03 a1 81 3f
       0.97695255 0.98177534 0.9915819 1.0127262
0001a0 e2 29 81 3f a8 51 7c 3f 45 e3 81 3f 95 d0 7e 3f
       1.0090907 0.985621 1.0147482 0.9953702
0001b0 fa 49 7d 3f f5 4d 7e 3f 10 72 7f 3f cd 57 7e 3f
       0.98941004 0.99337703 0.9978342 0.99352723
0001c0 f1 12 80 3f 1b 14 7a 3f cd 1f 7b 3f 81 5c 80 3f
       1.000578 0.9768693 0.980954 1.002823
0001d0 3b a4 80 3f e2 5c 7e 3f 25 74 7a 3f f7 18 7b 3f
       1.0050119 0.9936048 0.9783347 0.9808497
0001e0 f9 51 78 3f a2 e1 7b 3f df 97 81 3f a8 e7 7e 3f
       0.9700008 0.98391163 1.0124472 0.9957223
0001f0 63 78 82 3f 88 35 7d 3f ad 9d 7c 3f 21 58 81 3f
       1.0192989 0.9890981 0.98678094 1.010502

encoder.graph_embed.bn.bias f4 [128]
000000 a7 83 05 bc e7 11 f1 bb 46 a6 b6 bc e6 ae 6a 3b
       -0.008149064 -0.0073568705 -0.022296082 0.0035809814
000010 74 97 c6 3c c2 14 5b ba b7 15 10 3b 03 99 c6 3b
       0.02424214 -0.000835728 0.00219856 0.006060721
000020 3b 7e 68 bc 69 35 07 3c 5c 78 e2 b9 91 89 3d 3c
       -0.014190252 0.00825248 -0.00043195754 0.011568443
000030 e2 c4 32 bc ef fa 13 bb e8 b6 d7 bc 3e 51 5d bc
       -0.010911198 -0.0022579988 -0.026332334 -0.013508139
000040 00 0e a7 3b 5a f6 11 bc c2 4b 38 bc ab 9f b3 bb
       0.0050981045 -0.008908832 -0.011248531 -0.0054816804
000050 f9 40 8f 3c 3d 4d 8d 3c f1 81 5b bc 9a 19 49 3b
       0.017487036 0.017248744 -0.01339768 0.0030685426
000060 8e 0c 9b bc 51 85 ac 3b 8b 1c 60 bc 29 33 cc 3b
       -0.018926885 0.005264916 -0.01367868 0.0062316847
000070 4b 09 39 ba 7a 63 9d bc 86 73 55 bc 11 b3 99 3b
       -0.00070585747 -0.019212473 -0.013028031 0.004690536
000080 2b 41 3e 3c d8 4b 32 bc 32 30 7a bc 78 15 6d bc
       0.011612217 -0.01088234 -0.01527028 -0.014470451
000090 aa a2 76 3b 41 83 8c bc 42 b4 a2 3a 2f 58 84 bc
       0.0037633576 -0.01715243 0.001241334 -0.01615533
0000a0 e7 ec 7c 3c 73 5f 4b 3c b6 af 05 bc 03 d0 1e bc
       0.015437341 0.012412894 -0.0081595685 -0.009693149
0000b0 d3 b9 0d 3c 65 84 8c ba 76 8c 96 bb 8f 62 ce 3c
       0.008650261 -0.0010720609 -0.004594381 0.02519348
0000c0 3d 3b ad bb d9 2a 11 bc 3a a8 0b 3b b4 95 c3 3b
       -0.005286603 -0.008860313 0.0021309988 0.0059687737
0000d0 14 22 99 bb 5d 9a 88 3b 45 84 a5 ba bc 08 13 3c
       -0.004673252 0.004168792 -0.001262792 0.00897425
0000e0 32 51 c7 3b 55 ff 01 3c 9a 96 2c bc 36 73 8a bc
       0.0060826773 0.007934411 -0.010533953 -0.01690064
0000f0 c7 c4 6b bb 68 e4 06 3c d5 84 e3 3b 9d e8 6e 3c
       -0.0035975443 0.008233167 0.006943325 0.0145818265
000100 04 92 cc bc b4 4c 1d 3b 03 5e cc bc 4c ec 36 3c
       -0.02497197 0.0024002017 -0.024947172 0.011164736
000110 57 85 11 3b 99 d5 b5 3b a8 1c 2b 3c 08 3b 04 3b
       0.002220472 0.0055491445 0.010443844 0.0020176787
000120 5f 46 74 ba 26 88 c5 3c ad 7e 81 3c 3e a3 7a 38
       -0.00093183474 0.024112772 0.015807474 5.9756676e-05
000130 55 08 80 bc b6 cb 8d bc ba 99 20 3c dd 90 86 3c
       -0.015628973 -0.017309051 0.009802276 0.016426498
000140 e1 c6 5e 3c 9b d4 17 3c 33 3b 0a bc 58 49 e2 3c
       0.013597221 0.009266998 -0.008436966 0.027622864
000150 fd 7d 45 bc 0d 7c 93 3b 4c 28 16 bc 3c 46 95 3c
       -0.012053964 0.004500872 -0.009164881 0.018221967
000160 94 80 f6 bb 30 1d a7 3b 50 19 05 3c 56 53 b6 3b
       -0.007522652 0.005099915 0.008123711 0.0055641336
000170 89 55 6b 3b 7a 8a 13 3b 3e 81 42 bb 08 84 a4 3b
       0.0035909137 0.0022512958 -0.0029679085 0.005020622
000180 07 2a e8 bb 87 26 f7 3b 9a 92 4c bc ad c2 bd 3b
       -0.007085088 0.0075424346 -0.012486124 0.0057910294
000190 00 b2 81 bb 79 28 4b bc c4 3f be bb 18 c8 c9 bb
       -0.003957987 -0.012399786 -0.0058059413 -0.0061578862
0001a0 c7 31 f9 ba 2b dd e3 3b 13 e4 2b bb 52 b4 65 bc
       -0.0019012027 0.0069538555 -0.0026228472 -0.0140200425
0001b0 fc 19 8a bc 37 c9 83 bb c1 5e 88 bc 89 7b 89 3a
       -0.016858093 -0.0040217894 -0.016646745 0.0010489087
0001c0 3f 86 7c ba 11 35 6e 3c 67 c4 a2 bb 4f f2 aa ba
       -0.00096330413 0.014539019 -0.0049672606 -0.0013042184
0001d0 5d 45 ac ba 8d 14 3c 3c 2c 3f 3c 3b cf b2 25 3c
       -0.001314323 0.011479509 0.0028724177 0.010113432
0001e0 f3 4e 3b 3b a9 39 83 3c ff 89 83 3b 16 7d 43 3c
       0.0028580993 0.016018705 0.004014253 0.011931678
0001f0 e1 eb 5a bb 51 1b b3 3c 6d ce a1 bc 3a 4b b4 3c
       -0.0033404755 0.021863611 -0.019751752 0.022008527

encoder.graph_embed.bn.running_mean f4 [128]
000000 b5 d7 94 3c d9 e4 04 bc 2d c5 14 ba d5 36 d7 3c
       0.018169263 -0.008111202 -0.00056751334 0.026271263
000010 c7 fa 5f 3c e1 80 ab bb 85 ff 8b bc ad 87 07 bd
       0.01367063 -0.0052338694 -0.017089615 -0.033088375
000020 99 12 4e 3d 26 df a6 3c 20 6c 9c 3c ec e6 dc 3c
       0.050310705 0.020370077 0.019094527 0.02696558
000030 ab e0 a2 3c 5c 2f 88 bc 87 25 fe bc b6 fc 0b 3d
       0.01988252 -0.016624145 -0.031023754 0.03417655
000040 63 f5 e5 3d 82 91 7d 3b 00 c5 c3 bc ba 9e a7 3b
       0.112284444 0.0038691466 -0.023897648 0.005115357
000050 f8 6e 9d bc 22 8d 4b bc 37 e3 7e 3c 76 84 f5 bc
       -0.019217953 -0.012423785 0.015557102 -0.029970389
000060 31 7d 1d 3d 37 1b ef bc 7d 42 42 3c 6c 95 a7 bc
       0.03844947 -0.029187782 0.011856672 -0.020456992
000070 02 89 3b bc 3a 19 0d 3d 6f 4f 41 3c 8b 07 ab bc
       -0.011446239 0.034447886 0.011798724 -0.02087762
000080 5c 7e 41 3d 15 b7 e9 bb 48 fd 72 bb 1e ca b2 3c
       0.047239646 -0.007132421 -0.0037077237 0.021824893
000090 ef fd 9a bc 98 b9 e4 3c 60 02 eb 3c 78 a5 f0 ba
       -0.018919913 0.02792053 0.028687656 -0.001835986
0000a0 81 0b 11 3d 8d b5 b8 bc 4b 16 82 3c 27 86 81 3d
       0.03541136 -0.022547508 0.01587977 0.06324416
0000b0 c1 c3 85 bc 35 98 9c bb a5 80 24 3c 31 55 e9 bc
       -0.016328694 -0.0047788867 0.010040437 -0.028483005
0000c0 d5 69 dc 3b 9e a5 a3 bb 93 90 90 bc c0 de 1c 3d
       0.0067264833 -0.0049941083 -0.017647063 0.03829837
0000d0 75 ea 1e bc 09 9e 3c bc 0a 78 9b 3c fe 20 d7 bb
       -0.009699454 -0.011512288 0.018978138 -0.0065652123
0000e0 70 a6 6f bc b5 57 f7 3c 0f 9a 58 bd 56 c0 01 bd
       -0.014627084 0.03019319 -0.052881297 -0.031677566
0000f0 c6 a9 7b 3c 99 75 db 3c 8a 5b 7d 3c 68 83 ca 3c
       0.015360301 0.026789473 0.015463719 0.024720863
000100 03 61 67 3c 2b fa 6f 3c 31 a4 83 3c 1c 1b d5 3b
       0.0141222505 0.014647047 0.016069504 0.006503476
000110 bc c3 fb bb dd fa 4f bc 62 c8 d7 3c 7e f1 5a 3c
       -0.0076832455 -0.012694088 0.026340667 0.01336324
000120 9d e4 9c 3b 5b 1d 90 bc 6a 63 00 bd 2a bb f6 bb
       0.004787995 -0.017592123 -0.03134481 -0.007529636
000130 69 da e0 3c 0b 0c a6 3b 72 05 c2 3c f7 3b c0 bb
       0.027447896 0.0050673536 0.023684237 -0.0058665234
000140 fc eb c4 bb fa a3 0f bc 4b 4e c4 bb 3e f3 bc bc
       -0.006009577 -0.008767122 -0.0059907786 -0.023065206
000150 1e 55 8b bc 41 85 9c bc 53 91 cd 3c f5 5f 14 bb
       -0.01700836 -0.01910651 0.02509371 -0.0022640203
000160 a4 53 35 3b 3a c8 9b 39 89 ba 31 bc f6 27 9c bc
       0.0027668262 0.00029713084 -0.010847696 -0.019062024
000170 85 3c 8f bc 35 cf ec bc 69 e1 2e 3c 29 8f 56 3d
       -0.017484913 -0.028907398 0.010673859 0.052382622
000180 5d 41 82 bc cb 35 99 3c 27 fb ed bc 49 94 ac 3b
       -0.015900308 0.018702408 -0.029050423 0.0052667004
000190 dd 8b 24 3d d3 c2 55 3d 48 d3 31 3d 73 49 09 3c
       0.040172447 0.052187752 0.043414384 0.008379328
0001a0 e6 5f 85 bb eb 3a 63 3c 96 1e 2a 3b cb fc 56 3d
       -0.00407027 0.013869028 0.0025958172 0.052487176
0001b0 e7 25 58 bb 4f c2 8f bc 6d d8 0f bd fb b5 ac bc
       -0.0032981576 -0.017548708 -0.03511851 -0.021082869
0001c0 02 45 f4 3c 05 ff 0f bb fb 41 57 bc 2a 63 93 3d
       0.029818062 -0.0021972072 -0.01313829 0.071966484
0001d0 ff 64 79 bc 3f 08 04 bd bf 8e 96 39 f8 17 c8 3b
       -0.015221833 -0.032234427 0.00028716584 0.006106373
0001e0 b9 82 a4 b9 5d 10 aa bb 52 6a 46 bb 5c 53 82 bc
       -0.00031377914 -0.005189939 -0.0030275774 -0.01590889
0001f0 09 62 c1 3c a7 1c b2 bb 0e 12 bb 3c 4a e6 d7 bc
       0.023606317 -0.0054355445 0.022835758 -0.026354928

encoder.graph_embed.bn.running_var f4 [128]
000000 bd ea 35 3c 4f 80 b5 3b 2a 2b 92 3b 9c ef 7e 3b
       0.011103329 0.005538977 0.004460712 0.0038900143
000010 09 59 98 3b 1c c0 8c 3a 88 56 3b 3b 47 26 81 3b
       0.0046492857 0.0010738405 0.0028585512 0.0039413306
000020 74 4e b6 3b e0 0c 95 3b 47 a3 f2 3a cc fd 58 3b
       0.0055635516 0.004548654 0.0018511795 0.003311026
000030 60 ce b2 3b 3f 7d a0 3b 80 d5 9b 3b 57 fb 96 3c
       0.0054567307 0.004897743 0.004755676 0.018430395
000040 74 3a 66 3c 1d a3 d9 3b 75 aa 2b 3b fd d1 b3 3b
       0.014052022 0.006641759 0.002619413 0.005487679
000050 59 82 6f 3b 78 67 57 3b b3 05 40 3b 06 9e 41 3b
       0.00365462 0.0032868069 0.0029300272 0.0029543652
000060 6e 5f b4 3c 63 3e 9d 3b a4 ca 6b 3b 76 01 b5 3b
       0.02201816 0.004798697 0.0035978938 0.005523856
000070 72 3c a0 3a f5 35 63 3b 20 1e 2c 3c a3 e1 e4 3b
       0.0012225045 0.0034669612 0.010505229 0.006984906
000080 17 23 23 3c 97 c4 60 3a f9 24 dc 3a 9b 09 5f 3c
       0.009957097 0.0008574216 0.0016795687 0.01361313
000090 35 2e 6b 3b 31 e6 a0 3b ae 79 b9 3c a0 0e 6b 3c
       0.0035885696 0.0049102535 0.02264103 0.014346749
0000a0 dd 0e f1 3b 45 6c c8 3b 47 46 cd 3b b0 07 a1 3c
       0.007356508 0.0061164224 0.006264481 0.019656986
0000b0 44 07 2f 3b 79 f1 69 3b 8b b5 ed 3b eb 66 19 3b
       0.0026707212 0.0035696907 0.0072543076 0.002340729
0000c0 76 76 b1 3c 23 4b 7b 3a 9d 36 c9 3b f2 c0 dc 3c
       0.021662932 0.00095860864 0.0061405436 0.026947472
0000d0 d3 37 c7 3b 9d e6 1b 3b 9a ab 82 3c 76 4a cc 3a
       0.006079653 0.002378858 0.015950967 0.0015586156
0000e0 77 c2 69 3b 7c f7 f1 3a 5b 4b 61 3b 3e 04 19 3c
       0.0035668889 0.0018460597 0.003437719 0.00933939
0000f0 cf 58 88 3b 93 a1 f8 3b a1 7c 38 3b 34 8f 4c 3b
       0.0041609774 0.0075876205 0.0028150456 0.0031213285
000100 53 38 36 3c bb 0f 28 3c eb 40 29 3b 69 07 c8 3b
       0.011121827 0.010257657 0.0025826048 0.006104399
000110 ac 1b fd 3b be 78 da 3b 8c ea 91 3b 80 cd 1f 3b
       0.007724246 0.0066672256 0.004453009 0.0024383962
000120 e0 8c 66 3b 70 e3 b6 3b 36 01 2b 3b 47 cb f7 3b
       0.0035179183 0.005581312 0.002609325 0.0075620743
000130 f4 ed 04 3c c5 5d 82 3b 8e 25 34 3c 71 34 e5 3b
       0.008113373 0.0039784634 0.010995282 0.006994777
000140 d2 d4 18 3c 69 32 9e 3b bd 0f a9 3a 58 4b 27 3b
       0.009328084 0.0048277867 0.0012898367 0.0025527086
000150 b3 11 d7 3b cf e4 98 3a 61 a6 de 3a c6 a8 a7 3b
       0.006563389 0.001166487 0.0016986841 0.005116555
000160 3e a7 52 3b f5 78 a4 3b b0 1a cb 3b 73 68 ee 3a
       0.003214314 0.005019302 0.0061982498 0.0018189087
000170 ae 09 8c 3b e8 59 a9 3b 23 81 65 3b 43 01 9f 3b
       0.004273615 0.0051681884 0.0035019598 0.0048524453
000180 96 c4 68 3b 68 03 d0 3b 9a 3e bb 3b c8 1e 74 3b
       0.0035517565 0.0063480623 0.00571425 0.0037249792
000190 97 37 3a 3c 27 00 19 3d ea 99 9c 3c 95 67 02 3b
       0.011365793 0.03735366 0.01911636 0.0019898165
0001a0 32 17 8c 3b 69 8c 17 3c 5e 93 b2 3c 37 14 ed 3b
       0.004275226 0.009249785 0.021798786 0.007235076
0001b0 5e d9 b4 3b d1 43 3c 3b 9a 02 8d 3b b8 b0 13 3b
       0.0055190763 0.0028726945 0.0043032886 0.0022535753
0001c0 c3 8a ac 3b b4 57 a2 3b e3 89 e1 3b c7 e7 3e 3c
       0.005265565 0.0049543027 0.0068828925 0.01165194
0001d0 19 64 14 3b 15 34 bc 3a d1 55 6a 3b 7c 5e 32 3c
       0.002264267 0.0014358783 0.0035756717 0.010886785
0001e0 83 77 0d 3c 3e 8c 4d 3c c8 c5 d1 3a 8f 66 05 3b
       0.008634451 0.012545643 0.0016004378 0.002035532
0001f0 e5 a7 2a 3b 03 c5 06 3c bf 68 4e 3b 83 d6 2b 3b
       0.0026040014 0.008225682 0.003149554 0.0026220388

encoder.graph_embed.GCN_layers.0.A f4 [9, 9]
000000 de 49 ad be 23 fd 33 bc 40 c4 ff be 49 56 86 3f
       -0.3384542 -0.010985645 -0.49954414 1.0495082
000010 f8 8d 2c bf 31 25 c6 be a2 23 13 3f 12 fc 70 be
       -0.6740413 -0.3870025 0.57476246 -0.23533657
000020 15 c5 1c 3f fa 46 a0 be 74 ad a9 be d3 bc 65 3f
       0.61238223 -0.3130415 -0.33140147 0.8974125
000030 c3 76 8a bf de 00 09 3f fb cd 54 3e a9 35 a6 3f
       -1.0817493 0.5351695 0.207817 1.2985126
000040 86 5d e8 bf 6c af a6 be 4e f6 b3 3f 91 4c 69 3d
       -1.8153541 -0.3255571 1.4059541 0.056957785
000050 a3 b4 f9 bf cb c2 4e bf 68 1e d5 bd a5 27 05 bf
       -1.9508251 -0.8076598 -0.1040619 -0.5201362
000060 37 62 c2 3f aa 76 83 3f 42 15 70 bc 08 7b 9e 3f
       1.5186223 1.0270588 -0.014653506 1.2381296
000070 64 db 02 3e aa bb b0 bf fd e5 8e bf 4d ec e9 3d
       0.12779003 -1.380727 -1.1163937 0.11422024
000080 8a 52 19 3f 11 ec 7e bf b3 3f 24 3f b3 32 9c be
       0.5989157 -0.9957896 0.641597 -0.3050743
000090 37 37 77 3f 42 af 04 40 c0 71 c3 3e 8a 08 01 bf
       0.96568626 2.073197 0.38172722 -0.50403655
0000a0 e6 55 66 3e 91 9c cb 3f 72 af 3a be f5 15 5f 3f
       0.22493705 1.5907155 -0.1823099 0.8714288
0000b0 82 32 9e 3f 11 da 2f bf b9 c9 9a bf de 91 0f 3f
       1.2359164 -0.6869212 -1.2092811 0.5608195
0000c0 b4 9f b9 3e ef a9 35 bf cb 5b 65 3f bb dc c9 3e
       0.36254656 -0.70962423 0.8959319 0.39426216
0000d0 09 88 b3 3f 76 4f 09 bf 16 70 6f 3e bb c5 13 bf
       1.402589 -0.5363687 0.23382601 -0.5772359
0000e0 f2 14 25 bc 37 eb 99 3f 06 14 f6 bd c4 22 41 3e
       -0.0100757945 1.2024907 -0.12015538 0.18860918
0000f0 30 72 55 3f e0 ec a0 3f 6a 22 0d 3f f7 c9 fe bd
       0.8337736 1.2572289 0.55130637 -0.124408655
000100 9b 64 e0 bd e1 01 20 3f 52 a7 c1 bf 4f 0d ea be
       -0.10956689 0.62502867 -1.5129187 -0.4571328
000110 a2 5d d1 bf 0a 78 1f be d5 70 13 3f 7a fd ce 3f
       -1.63567 -0.15573135 0.57594043 1.6171105
000120 e4 89 77 3f 2a e4 0c bf 2e 6e 08 be 67 95 11 40
       0.9669478 -0.5503565 -0.1332328 2.2747438
000130 e7 12 f8 3f cf 1d 0f 40 48 e5 70 3e 62 f7 7e 3e
       1.9380769 2.2361944 0.23524964 0.24899057
000140 e5 55 49 bf
       -0.7864669

encoder.graph_embed.GCN_layers.0.linear.weight f4 [128, 128]
000000 27 0a 69 3d d5 38 65 3b 3c 9f ad bd 03 cf 02 bc
       0.056894448 0.0034976501 -0.08477637 -0.007983926
000010 0b 86 63 3d 06 60 94 3d ad ee cc 3b b2 20 f2 3c
       0.055547755 0.072448775 0.0062540383 0.029556606
000020 aa f2 7e bd 59 d9 fc 3c 77 12 43 bd 3d c1 c3 bd
       -0.06224314 0.030865358 -0.04762503 -0.09558342
000030 ea e7 52 3c 67 f3 39 bd 4e 8d bc 3d 7c 3d 08 3d
       0.012872675 -0.045398142 0.09206639 0.03326176
000040 82 d7 2e 3d a5 e2 3d bb b4 a0 31 bd 05 cc fb bc
       0.042685993 -0.0028974202 -0.04336615 -0.030736933
000050 6b 6d 49 3d 2d c0 01 3d 83 27 94 3c b0 e2 2e bd
       0.049176615 0.031677414 0.018085247 -0.042696655
000060 dc 85 27 3d 68 4d 9c 3c 2c ad 0b bd c6 8c 54 bd
       0.040899143 0.019079879 -0.034100696 -0.051892065
000070 90 ec 23 3c 57 1f 6b 3b b6 85 88 bd 1e 15 92 3d
       0.010005131 0.0035876834 -0.06666128 0.07132934
000080 d9 80 91 bd 2d 85 23 bd b1 13 54 3d 24 50 15 3d
       -0.07104654 -0.03992193 0.05177659 0.03645338
000090 7b 28 15 bd 1b 07 f4 3c 27 46 33 bd 28 3e a1 bc
       -0.03641556 0.029788544 -0.043768074 -0.019682959
0000a0 64 c8 84 3c da 27 da bc 63 b5 aa 3d 3f ac 35 3d
       0.016208835 -0.02663033 0.08335378 0.04435372
0000b0 c0 94 b0 3c a2 a8 9a bd 06 b6 f7 bc e5 41 35 3d
       0.021555305 -0.075516954 -0.030238163 0.044252295
0000c0 88 b0 5a 3c ab d8 9a 3c 79 7d 06 bd 29 c8 67 bd
       0.013347752 0.018902143 -0.032834504 -0.056587372
0000d0 53 31 0a 3d 59 ae e3 3c 7f 0e 33 bc be 94 8c 3d
       0.033738445 0.027793096 -0.010928749 0.06864308
0000e0 73 b3 c5 bd 53 a0 b5 bc 80 a2 75 3d 60 69 8b 3d
       -0.09653368 -0.022171175 0.059969425 0.06807208
0000f0 0f 31 ba bd 74 04 16 bd 01 b2 4e bd de ed a1 bc
       -0.090913884 -0.03662534 -0.050462727 -0.019766744
000100 79 d8 e9 bb 06 6c 45 3b e7 ad d1 3c fc 13 e5 3b
       -0.0071364013 0.0030124201 0.025595618 0.0069909077
000110 89 b2 70 3d 7d 16 83 3d 78 ad a1 3d 73 9c aa bd
       0.058764014 0.06400774 0.07894415 -0.083306216
000120 c8 48 b9 bd ed 17 a5 bd 7d d3 65 3c 68 f9 9a 3d
       -0.09047085 -0.08061204 0.0140274735 0.07567102
000130 3e 24 89 3d 96 f1 7f 3c 5d 49 76 bd 1e 0c 50 3d
       0.06696366 0.015621563 -0.06012856 0.050792806
000140 ad 7f dd 3d 8a 7b a9 bc 41 55 80 3d 7d b2 87 3a
       0.10815368 -0.02068879 0.06266261 0.0010352876
000150 a5 d9 2d 3d c5 e9 54 bd 07 1c 84 3d 4a 42 30 bd
       0.04244389 -0.051980752 0.06450658 -0.04303197
000160 12 a1 c3 bc 35 ad 31 bd a9 e7 5d 3d 1e 0b cc bd
       -0.023880515 -0.043378074 0.054176006 -0.09963058
000170 4f 52 22 3c a2 65 d3 bc f8 33 0f bd 9b 31 ae bd
       0.009907319 -0.025805298 -0.03496167 -0.08505555
000180 ba 8c 00 bc b0 17 21 bd 1c b2 8e bd dd d8 59 3c
       -0.007846052 -0.03932923 -0.069675654 0.013296333
000190 a6 47 69 3d be 92 24 3c 23 f3 97 bb 28 fa 64 3d
       0.056953095 0.010044752 -0.0046371385 0.05590263
0001a0 38 1a 0d 3d 43 65 6d bc e4 78 21 3d fb 2d 85 bc
       0.034448832 -0.014489475 0.03942193 -0.016257277
0001b0 a4 e5 6b 3c fb 4e a5 3d fc 68 b5 bd 28 bb 66 bd
       0.014398012 0.08071705 -0.08857915 -0.05633083
0001c0 c6 2d 08 bb 2b da 69 bd 60 50 67 3d 9d ce 4f bd
       -0.0020779236 -0.057092827 0.056473136 -0.05073415
0001d0 ca 75 69 3c b7 b0 91 bb df 57 dd bc 81 74 c7 ba
       0.0142492745 -0.004446115 -0.02701944 -0.0015217216
0001e0 a1 bd a6 3d a7 4d 97 bd 82 1c 7b bb 7e b8 76 bd
       0.081416376 -0.07387858 -0.0038316553 -0.06023454
0001f0 17 c3 c1 bd ae 1b cf bc 48 9b 7c 3d e4 7c ad bc
       -0.094610386 -0.025281753 0.061671525 -0.021177717
000200 a3 92 7f bd 9e db 71 3c 85 60 b3 3d 79 1d 98 bc
       -0.062395703 0.0147618335 0.08758644 -0.018568741
000210 7b 38 be bd 19 cb 47 bc 77 a2 00 bd 8d f0 71 bc
       -0.092881165 -0.012194418 -0.03140494 -0.014766824
000220 6c 67 88 bd 4c ba 9f 3d 22 b7 b2 bc c6 f1 a4 bd
       -0.06660351 0.07799205 -0.02181584 -0.08053927
000230 8f 45 86 bd bd 41 38 3d d8 92 a3 3d a9 00 a6 bc
       -0.06556236 0.044984568 0.079869926 -0.020263987
000240 31 27 73 bd 33 bf 81 bd 0e 2d 6e 3d 72 d4 1e 3d
       -0.059363548 -0.063352965 0.058148436 0.038776822
000250 99 c6 0f 3d d2 b9 90 3d 60 ea 9b 3d b2 ca 79 bd
       0.035101507 0.070666924 0.07613063 -0.06098432
000260 1c db 15 bd bc 5a a3 3d 5b dd 8c 3d de 9a 8b bd
       -0.036585912 0.079762906 0.06878158 -0.06816648
000270 9f e4 81 3d 34 d7 65 3d 16 ce fe 3c 69 cc ab 3d
       0.06342434 0.056113437 0.031104129 0.083885975
000280 33 d3 5a 3c 87 0f 96 bd 7d 6e 96 3c f6 fe 60 bd
       0.013356018 -0.0732718 0.018363232 -0.05493065
000290 f5 f8 8e 3d a7 af 7f 3d 5a 3a f5 bc fd 1d 4a 3d
       0.069810785 0.062423375 -0.02993505 0.049345005
0002a0 75 ee 13 bd 38 7c c6 3c 2e 08 8e 3c 0f 10 53 3d
       -0.036116082 0.024229154 0.017337885 0.051528987
0002b0 1c 50 89 3d f5 04 cd 3d 94 61 a6 3c 4f f5 05 3d
       0.06704733 0.10010711 0.0203102 0.032704648
0002c0 ba 1d b1 bc f6 ec ed bc c1 f7 47 3d a9 99 9a bc
       -0.02162062 -0.029043656 0.04882026 -0.018872099
0002d0 06 23 7c 3c 91 3d f6 bc 4c 36 5d 3d 64 f1 78 3d
       0.01538921 -0.030058654 0.05400686 0.060777083
0002e0 39 14 63 bd ac 50 ff bc 87 31 9b bb 03 68 3d bc
       -0.055439208 -0.031166397 -0.0047361287 -0.011560443
0002f0 15 9a 3c 3d 19 da 45 3c 4c 91 cd 3c 7a 76 fd bc
       0.04604538 0.012075924 0.025093697 -0.030940283
000300 bc 2a b8 3c 28 05 2b bd 99 1d 1c bd 89 a4 13 bd
       0.022481315 -0.041752964 -0.038114164 -0.036045585
000310 d5 29 28 3c 4e 0d 8d 3c 96 83 e7 3b f2 8d db bc
       0.01026388 0.017218258 0.007065247 -0.026801083
000320 10 31 bf bc a4 ed d7 3c 7e c5 8e bd 12 89 0c 3d
       -0.023338825 0.026358433 -0.069712624 0.034310408
000330 34 37 12 3c 42 34 a1 3d 7c 3b 7c 3c 21 70 5f bd
       0.008924294 0.078712955 0.015395042 -0.054550294
000340 77 47 94 bd 8f 87 8a bc 0b 72 f8 3c a7 25 c8 3c
       -0.07240193 -0.016910342 0.030327817 0.024432017
000350 3d 11 47 3d ac 9a 5c bd 7c fc 8f 3d 87 bc a1 3b
       0.048600424 -0.053858444 0.070305794 0.0049358043
000360 49 3d 64 bd f3 4f a7 bc 64 3c d2 3d 47 9f ea bc
       -0.05572251 -0.020423865 0.10265425 -0.028640402
000370 57 67 22 3d 1a 9d 77 3a 7f 4e 04 bc e7 32 54 bd
       0.039649334 0.0009445712 -0.008075356 -0.051806357
000380 0c 76 38 bd 93 fe 99 bd 6d a4 cb 3d 68 ea 9c bd
       -0.045034453 -0.07519259 0.09943471 -0.07661897
000390 47 ef 58 3d 4a c6 9a bd 69 02 9b bd 93 a4 b3 3c
       0.052962568 -0.07557352 -0.07568819 0.021929061
0003a0 a8 f3 31 bd 74 53 d7 bd 7a ad 44 3d a1 11 67 bb
       -0.04344526 -0.10513964 0.048017003 -0.003525831
0003b0 2d 4e b5 3d 87 d5 3c bd 91 70 96 bd a4 e9 aa 3d
       0.088528015 -0.046102073 -0.07345689 0.08345345
0003c0 7f 54 7f bc 11 08 5a bd 9e 18 0f bd da 6c 2c 3d
       -0.01558411 -0.05323035 -0.034935586 0.042095996
0003d0 c0 84 75 3c dc 22 b9 3b 47 93 5f 3c da 3a 95 bd
       0.014985263 0.0056499075 0.0136459535 -0.07286616
0003e0 8c d9 70 bd 75 3d 7b 3d 1c e4 a4 bd 49 c0 a1 bc
       -0.05880122 0.061337907 -0.08051321 -0.019745009
0003f0 ea 20 32 bd 5b cb 22 bd 92 78 cb bc 4f 11 b8 bd
       -0.04348842 -0.039744716 -0.024837766 -0.08987676

encoder.graph_embed.GCN_layers.0.linear.bias f4 [128]
000000 71 b0 cf 3c 40 a1 3f 3d 58 fc 5d bd 8f 27 61 3d
       0.025352689 0.04678464 -0.054195732 0.054969367
000010 e2 8a 5f bd b4 0e b2 3c 04 78 fe 3c d4 45 80 3d
       -0.05457581 0.021735527 0.031063087 0.06263319
000020 23 c0 3f bc 27 d2 0e 3d ed 4d 58 3d 81 f2 24 bd
       -0.011703524 0.034868386 0.05280869 -0.040270332
000030 9f f6 50 3c 78 4f ab bd 9f b0 d0 bb 02 f5 ad bd
       0.012754112 -0.08364767 -0.006368711 -0.08493997
000040 d6 0b 28 bc bd ee 24 bd 88 3f b4 bd a8 23 38 bd
       -0.010256728 -0.04026674 -0.0880118 -0.04495588
000050 36 47 6c bd 15 9d c5 bd 0d 7f 14 3d 7e 8d 69 bd
       -0.0576851 -0.09649102 0.036253978 -0.057019703
000060 d2 05 20 3d 7d 13 1e 3d e3 a8 9c bc 63 fa e2 bb
       0.03906805 0.038592804 -0.0191235 -0.006926821
000070 c1 12 14 bd f9 c3 80 bd 4b cf 50 bc 1e 0a 41 bd
       -0.036150698 -0.06287379 -0.012744735 -0.04712879
000080 e0 17 8e 3b 2e 9c d4 bc 3e 41 2a bd 81 f7 e7 bb
       0.004336342 -0.025953379 -0.041566126 -0.0070790653
000090 01 99 e4 bc 49 9b 01 3d 74 10 6f bd 86 9c 4f 3c
       -0.02790499 0.031642232 -0.0583653 0.012671595
0000a0 3d 86 50 bc 93 a0 ee bc df 62 74 bd 1d 2c bc 3c
       -0.012727317 -0.029129302 -0.059664603 0.022970254
0000b0 f8 2f 94 bd 8a 44 b0 3c 2d a4 8c bd 27 4c 9e 3c
       -0.07235712 0.021517057 -0.068672515 0.019323422
0000c0 f4 1d 8f 3c 0d 95 b8 bd 86 66 57 bd cf e2 ab bb
       0.017470337 -0.09012804 -0.05258801 -0.0052455436
0000d0 ce 6c bb bc 2a 3c 90 3c 94 33 d1 bc dd 1d 61 3d
       -0.02287903 0.017606813 -0.02553729 0.05496012
0000e0 5d db ec 3c 4d 75 9c bc ab 6c c0 bc 3b b8 e5 bb
       0.028913194 -0.019098902 -0.023489317 -0.0070104874
0000f0 cd a9 ee bc b8 ff d6 3a 9c 8d 30 3c 5c fe 24 3b
       -0.029133702 0.0016403114 0.01077595 0.0025176024
000100 71 a9 0c 3d 28 7c be 3c 52 e2 9d 3c 73 36 18 bd
       0.03434128 0.023252562 0.019272957 -0.0371613
000110 5d 2b 23 bd 90 ff c7 bc 5a 9e b9 bc ff 2c 22 3d
       -0.039836276 -0.024413854 -0.022658516 0.039593693
000120 8b af 29 3d b6 d1 18 bd 37 b2 3c 3c 6a 12 bb 3c
       0.041427176 -0.03730937 0.011517099 0.022835929
000130 c7 0d 6f bd 24 d7 e4 3c 7c 8b 4b 3d 9d 10 72 3d
       -0.05836275 0.027934618 0.04969357 0.059097875
000140 52 f6 5d bc a6 c3 99 3d 22 c3 f1 3b 47 f4 1b 3c
       -0.013547497 0.0750802 0.007377998 0.0095186895
000150 70 f4 46 3d cd b9 f4 3c 50 2a 3a 3d bc 54 63 3b
       0.048572958 0.029873753 0.04545051 0.0034687957
000160 27 16 1e bd 0a 37 b8 3c 25 fb 03 bd 61 c6 8c 3d
       -0.038595345 0.022487182 -0.032221932 0.06873775
000170 a6 bf a5 3c 35 91 35 bd a2 f5 2e bd 9f a2 5a 3d
       0.020232987 -0.044327933 -0.042714722 0.053377744
000180 99 74 50 bc dd 06 d3 bc 6e d8 22 3d 75 74 66 bc
       -0.012723112 -0.025760109 0.039757185 -0.014065851
000190 37 16 f1 bc 1e f8 43 3c 3d ec ea 3a 48 1b 88 3d
       -0.029429538 0.011961011 0.0017923188 0.066458285
0001a0 34 fa 45 bb df 61 85 3b 56 85 e8 bc c3 ba 30 bd
       -0.0030208947 0.004070505 -0.028383892 -0.04314686
0001b0 14 5d 24 3c 1a 4c 5c 3c 8c a5 9c 3c ff 0c 07 3c
       0.010031957 0.013445878 0.019121908 0.008242845
0001c0 4b 54 39 3d c3 4d 50 bc fa cb 01 3d 38 29 e1 3c
       0.045246404 -0.012713852 0.031688668 0.027485475
0001d0 6d 24 92 3c 06 f2 18 bd 20 47 32 bd 99 70 51 bd
       0.017839635 -0.037340187 -0.04352486 -0.051132772
0001e0 c8 4b 69 bc a9 f6 96 bc 09 f6 88 3d 14 fc 70 3c
       -0.014239259 -0.018428164 0.066875525 0.014708538
0001f0 6d a1 bf 3c 45 4d 45 bd 7f c9 c0 3d 6c 9b 77 bc
       0.023392403 -0.048169393 0.09413432 -0.015112739

encoder.pos_enc.pe f4 [500, 128]
000000 00 00 00 00 00 00 80 3f 00 00 00 00 00 00 80 3f
       0.0 1.0 0.0 1.0
000010 00 00 00 00 00 00 80 3f 00 00 00 00 00 00 80 3f
       0.0 1.0 0.0 1.0
000020 00 00 00 00 00 00 80 3f 00 00 00 00 00 00 80 3f
       0.0 1.0 0.0 1.0
000030 00 00 00 00 00 00 80 3f 00 00 00 00 00 00 80 3f
       0.0 1.0 0.0 1.0
000040 00 00 00 00 00 00 80 3f 00 00 00 00 00 00 80 3f
       0.0 1.0 0.0 1.0
000050 00 00 00 00 00 00 80 3f 00 00 00 00 00 00 80 3f
       0.0 1.0 0.0 1.0
000060 00 00 00 00 00 00 80 3f 00 00 00 00 00 00 80 3f
       0.0 1.0 0.0 1.0
000070 00 00 00 00 00 00 80 3f 00 00 00 00 00 00 80 3f
       0.0 1.0 0.0 1.0
000080 00 00 00 00 00 00 80 3f 00 00 00 00 00 00 80 3f
       0.0 1.0 0.0 1.0
000090 00 00 00 00 00 00 80 3f 00 00 00 00 00 00 80 3f
       0.0 1.0 0.0 1.0
0000a0 00 00 00 00 00 00 80 3f 00 00 00 00 00 00 80 3f
       0.0 1.0 0.0 1.0
0000b0 00 00 00 00 00 00 80 3f 00 00 00 00 00 00 80 3f
       0.0 1.0 0.0 1.0
0000c0 00 00 00 00 00 00 80 3f 00 00 00 00 00 00 80 3f
       0.0 1.0 0.0 1.0
0000d0 00 00 00 00 00 00 80 3f 00 00 00 00 00 00 80 3f
       0.0 1.0 0.0 1.0
0000e0 00 00 00 00 00 00 80 3f 00 00 00 00 00 00 80 3f
       0.0 1.0 0.0 1.0
0000f0 00 00 00 00 00 00 80 3f 00 00 00 00 00 00 80 3f
       0.0 1.0 0.0 1.0
000100 00 00 00 00 00 00 80 3f 00 00 00 00 00 00 80 3f
       0.0 1.0 0.0 1.0
000110 00 00 00 00 00 00 80 3f 00 00 00 00 00 00 80 3f
       0.0 1.0 0.0 1.0
000120 00 00 00 00 00 00 80 3f 00 00 00 00 00 00 80 3f
       0.0 1.0 0.0 1.0
000130 00 00 00 00 00 00 80 3f 00 00 00 00 00 00 80 3f
       0.0 1.0 0.0 1.0
000140 00 00 00 00 00 00 80 3f 00 00 00 00 00 00 80 3f
       0.0 1.0 0.0 1.0
000150 00 00 00 00 00 00 80 3f 00 00 00 00 00 00 80 3f
       0.0 1.0 0.0 1.0
000160 00 00 00 00 00 00 80 3f 00 00 00 00 00 00 80 3f
       0.0 1.0 0.0 1.0
000170 00 00 00 00 00 00 80 3f 00 00 00 00 00 00 80 3f
       0.0 1.0 0.0 1.0
000180 00 00 00 00 00 00 80 3f 00 00 00 00 00 00 80 3f
       0.0 1.0 0.0 1.0
000190 00 00 00 00 00 00 80 3f 00 00 00 00 00 00 80 3f
       0.0 1.0 0.0 1.0
0001a0 00 00 00 00 00 00 80 3f 00 00 00 00 00 00 80 3f
       0.0 1.0 0.0 1.0
0001b0 00 00 00 00 00 00 80 3f 00 00 00 00 00 00 80 3f
       0.0 1.0 0.0 1.0
0001c0 00 00 00 00 00 00 80 3f 00 00 00 00 00 00 80 3f
       0.0 1.0 0.0 1.0
0001d0 00 00 00 00 00 00 80 3f 00 00 00 00 00 00 80 3f
       0.0 1.0 0.0 1.0
0001e0 00 00 00 00 00 00 80 3f 00 00 00 00 00 00 80 3f
       0.0 1.0 0.0 1.0
0001f0 00 00 00 00 00 00 80 3f 00 00 00 00 00 00 80 3f
       0.0 1.0 0.0 1.0
000200 a4 6a 57 3f 41 51 0a 3f 1c 00 43 3f 28 dd 25 3f
       0.84147096 0.54030234 0.7617204 0.6479058
000210 ce 7a 2e 3f b0 54 3b 3f 3a cd 1a 3f aa e4 4b 3f
       0.68156135 0.731761 0.604694 0.7964579
000220 ba 7d 08 3f 0d 94 58 3f e3 96 ef 3e d5 3d 62 3f
       0.53316844 0.8460091 0.46794805 0.883756
000230 f0 90 d1 3e c7 92 69 3f 61 d7 b6 3e a9 1e 6f 3f
       0.4093089 0.9123959 0.35711196 0.9340616
000240 3e 39 9f 3e 6b 4e 73 3f 17 76 8a 3e 11 76 76 3f
       0.3109836 0.9504153 0.2704322 0.96273905
000250 25 8f 70 3e f1 d5 78 3f 61 ce 50 3e 09 9f 7a 3f
       0.23492105 0.9720145 0.20391227 0.9789892
000260 3a 23 35 3e 83 f6 7b 3f e3 10 1d 3e 7c f8 7c 3f
       0.17689219 0.9842302 0.15338473 0.9881666
000270 f3 25 08 3e 28 ba 7d 3f 5c f9 eb 3d 84 4b 7e 3f
       0.13295726 0.99112177 0.11522171 0.9933398
000280 76 75 cc 3d 98 b8 7e 3f bf 20 b1 3d 6e 0a 7f 3f
       0.099833414 0.9950042 0.08648824 0.9962529
000290 36 6f 99 3d d1 47 7f 3f 60 e6 84 3d de 75 7f 3f
       0.07491915 0.9971896 0.06489253 0.99789226
0002a0 ae 36 66 3d 68 98 7f 3f 12 62 47 3d 4f b2 7f 3f
       0.05620449 0.9984193 0.04867751 0.9988145
0002b0 fa ac 2c 3d bd c5 7f 3f c5 8a 15 3d 4f d4 7f 3f
       0.04215715 0.999111 0.036509294 0.9993333
0002c0 5b 81 01 3d 3c df 7f 3f a4 4d e0 3c 6e e7 7f 3f
       0.031617504 0.99950004 0.027380772 0.9996251
0002d0 a5 3e c2 3c 93 ed 7f 3f 82 36 a8 3c 2f f2 7f 3f
       0.023711512 0.99971884 0.020533804 0.9997892
0002e0 42 ab 91 3c a3 f5 7f 3f a3 4a 7c 3c 3b f8 7f 3f
       0.017781857 0.99984187 0.015398654 0.99988145
0002f0 49 7a 5a 3c 2c fa 7f 3f fa 31 3d 3c a1 fb 7f 3f
       0.013334819 0.99991107 0.01154756 0.9999333
000300 57 d6 23 3c b9 fc 7f 3f ba e0 0d 3c 8b fd 7f 3f
       0.009999833 0.99995 0.008659536 0.9999625
000310 16 b9 f5 3b 28 fe 7f 3f b3 c9 d4 3b 9e fe 7f 3f
       0.0074988706 0.99997187 0.006493771 0.9999789
000320 5a 44 b8 3b f7 fe 7f 3f a3 91 9f 3b 39 ff 7f 3f
       0.0056233825 0.9999842 0.004869656 0.99998814
000330 5a 2e 8a 3b 6b ff 7f 3f e9 51 6f 3b 90 ff 7f 3f
       0.0042169513 0.9999911 0.0036517328 0.9999933
000340 1c 3e 4f 3b ac ff 7f 3f fe 76 33 3b c1 ff 7f 3f
       0.0031622713 0.999995 0.0027384157 0.99999624
000350 03 69 1b 3b d1 ff 7f 3f 67 94 06 3b dd ff 7f 3f
       0.0023713715 0.9999972 0.0020535232 0.9999979
000360 20 15 e9 3a e6 ff 7f 3f 54 d7 c9 3a ec ff 7f 3f
       0.0017782785 0.99999845 0.0015399256 0.9999988
000370 8a c9 ae 3a f1 ff 7f 3f 09 5c 97 3a f5 ff 7f 3f
       0.001333521 0.9999991 0.0011547814 0.99999934
000380 6d 12 83 3a f8 ff 7f 3f e2 01 63 3a fa ff 7f 3f
       0.0009999998 0.9999995 0.00086596434 0.99999964
000390 89 94 44 3a fb ff 7f 3f 43 3b 2a 3a fd ff 7f 3f
       0.000749894 0.9999997 0.0006493816 0.9999998
0003a0 13 6a 13 3a fd ff 7f 3f ab 4f ff 39 fe ff 7f 3f
       0.0005623411 0.9999998 0.00048696747 0.9999999
0003b0 21 17 dd 39 ff ff 7f 3f d7 74 bf 39 ff ff 7f 3f
       0.00042169637 0.99999994 0.0003651741 0.99999994
0003c0 61 cb a5 39 ff ff 7f 3f 75 92 8f 39 ff ff 7f 3f
       0.00031622782 0.99999994 0.00027384204 0.99999994
0003d0 0d a8 78 39 00 00 80 3f e2 53 57 39 00 00 80 3f
       0.00023713727 1.0 0.00020535247 1.0
0003e0 53 77 3a 39 00 00 80 3f 19 79 21 39 00 00 80 3f
       0.00017782794 1.0 0.00015399269 1.0
0003f0 6d d4 0b 39 00 00 80 3f dd 2c f2 38 00 00 80 3f
       0.00013335208 1.0 0.00011547816 1.0
