experiments/model_16_30_2026-01-17_7564/model.pt (torch, 48032 bytes, 21 tensors)

encoder.graph_embed.GCN_in.A f4 [9, 9]
-0.87185484 -0.8737205 -0.7812147 1.186344 -0.7168497 0.8297544 0.98016155 0.8558378
1.8129519 -1.6016804 0.31383646 0.2699324 -1.5009519 0.8326112 0.94642466 -0.12266049
-2.3588567 -1.3578736 0.4817224 0.16345036 -0.49269548 -0.16313824 0.32119778 -0.76071286
-0.5338813 0.39186978 0.007017208 -1.1746155 -0.80551404 0.581886 1.2446971 0.087766364
1.2457035 0.6335385 -2.8245394 -1.0006368 -0.13676399 0.38683918 -1.1620684 0.08864553
-0.16082948 -0.37271813 -0.94541436 -2.3859951 0.8064259 -0.51690704 1.0022683 0.42118713
-0.47641748 -0.7043757 -0.25480527 -0.008329844 -0.16714369 0.62676924 0.21186812 -1.2005467
0.5920735 1.5501411 0.36439618 1.2768595 0.2760058 -1.092405 -0.4561807 1.0472584
-0.7165603 1.1199527 -0.37825432 -0.25562322 -0.6243697 -0.4430652 -0.43451023 -1.9550756
-0.9819922 0.20973827 -1.1098051 -0.74555755 0.17329668 0.0748362 0.19269282 -1.0271442
1.7792019
00000000: e131 5fbf 26ac 5fbf b0fd 47bf 1fda 973f
00000010: 7683 37bf c96a 543f deeb 7a3f 3018 5b3f
00000020: cf0e e83f dd03 cdbf 2caf a03e 9434 8a3e
00000030: 311f c0bf 0226 553f e348 723f 6c35 fbbd
00000040: 82f7 16c0 cdce adbf 52a4 f63e 885f 273e
00000050: 9542 fcbe b60d 27be 0974 a43e 14be 42bf
00000060: 72ac 08bf 28a3 c83e 9bf0 e53b cd59 96bf
00000070: 2b36 4ebf 7bf6 143f 3c52 9f3f dabe b33d
00000080: 3673 9f3f 942f 223f 41c5 34c0 de14 80bf
00000090: dc0b 0cbe c90f c63e a8be 94bf ca8b b53d
000000a0: 7cb0 24be e9d4 bebe ad06 72bf 25b4 18c0
000000b0: ee71 4e3f 0554 04bf 544a 803f d7a5 d73e
000000c0: feec f3be f751 34bf d675 82be e679 08bc
000000d0: b727 2bbe f373 203f f5f3 583e 84ab 99bf
000000e0: 2192 173f 066b c63f 2392 ba3e 2270 a33f
000000f0: a250 8d3e edd3 8bbf 8490 e9be 900c 863f
00000100: 7f70 37bf 9c5a 8f3f 8daa c1be 0ce1 82be
00000110: b1d6 1fbf 71d9 e2be 2078 debe eb3f fabf
00000120: d763 7bbf a1c5 563e 180e 8ebf dcdc 3ebf
00000130: af74 313e b943 993d 4451 453e 7679 83bf
00000140: e3bc e33f

encoder.graph_embed.GCN_in.linear.weight f4 [16, 16]
0.009751056 -0.2700474 0.16578259 -0.18935867 -0.13466759 -0.2521529 -0.006843211 -0.06769872
0.06931015 -0.026030393 -0.15744245 -0.031203352 -0.09427703 0.20168692 0.16201913 -0.13821074
-0.088346094 0.17069124 0.26493338 -0.15841988 0.13538153 -0.13582315 0.063874915 0.092578754
0.1457818 0.057710595 -0.18363638 -0.18842813 -0.025355967 0.025777433 -0.032552857 0.11724323
-0.1449652 -0.09359289 -0.14735506 0.012339228 -0.18390003 0.21157213 -0.12253355 -0.24809062
-0.19397105 -0.08992861 0.020381665 0.18804745 -0.13931149 -0.007845251 0.08730893 -0.070476964
0.021988802 0.047090173 0.12390461 -0.25671083 -0.10230995 -0.093440615 -0.061440777 -0.23446646
-0.03374042 -0.01033767 -0.21258737 -0.08651744 0.2511729 -0.2006462 -0.060875606 -0.22883794
-0.075305425 0.09769138 -0.15779631 -0.042562187 0.05300926 0.08965219 -0.055556048 -0.058997132
0.19174467 0.01409725 -0.14613472 0.15277459 -0.01387152 0.005505168 0.25544116 -0.12267188
-0.10546294 -0.23749228 -0.066522285 -0.08589477 0.047551073 0.21440251 -0.15537566 0.094663896
-0.18859722 0.1588988 -0.062688336 -0.16400155 -0.11981794 -0.21779554 0.07980516 -0.07761553
0.12919743 -0.11502475 0.17088112 -0.018786898 0.11150462 0.12639113 0.110118404 0.1197938
-0.15266117 0.13772658 -0.19869888 0.20475818 0.07287894 -0.12761666 -0.0444136 -0.24873061
0.15047747 0.16688785 0.17517753 0.17791757 0.01776387 0.22771151 -0.12790073 0.20899382
-0.17004205 -0.01928212 -0.13131253 -0.09237085 0.089910336 0.13831884 -0.18771419 -0.06890774
0.1525049 0.088517725 -0.009034806 0.0014202436 -0.16982663 -0.04054762 0.2530757 0.09939876
0.04469539 -0.034384962 -0.26053858 0.028295225 -0.16323134 0.18179975 0.0029801014 0.19913894
0.17060992 -0.15057658 -0.16211905 -0.12677926 -0.279077 0.019642109 -0.26199296 -0.10792839
0.13856454 -0.31106508 0.14284113 -0.25839052 -0.01252128 0.20004408 -0.15686578 0.14734498
-0.15926301 0.013826604 0.10969079 0.030281477 -0.07397852 -0.14109701 0.043215863 -0.23973508
0.07695629 0.13029443 0.015480768 -0.2508724 -0.018751198 0.12998277 -0.011043307 0.15241022
-0.061737742 0.19010936 -0.08374847 -0.036818184 0.060644 0.15612905 0.23629741 -0.039188597
-0.06726966 0.29317635 -0.06791878 0.02825258 0.13463044 -0.21632712 0.17438662 -0.14964701
0.08546557 -0.014010265 -0.036931455 0.12327399 0.15313908 -0.039331973 0.21124473 -0.2702941
-0.21215567 -0.23288408 0.0067401677 -0.0005679713 0.14179322 0.03131648 0.21012859 0.029158091
0.20834401 0.03761859 -0.0006203544 0.012170954 -0.045532025 0.2222844 -0.11927769 0.000498382
-0.024813784 -0.1393415 0.13214326 0.089384235 -0.02509059 0.08888155 -0.04439389 0.1710668
-0.15381807 -0.061142225 -0.21642904 -0.011567719 0.1182718 0.03833959 -0.009340001 0.16711883
-0.16441688 -0.18295752 -0.09321511 -0.26696473 0.041217215 0.008593114 -0.011395877 0.19219603
-0.17698778 0.1391519 -0.2206649 0.016354963 0.24635637 -0.26146448 -0.1857781 -0.059568472
-0.116381004 -0.077361874 0.064713314 -0.03133712 0.1291969 0.19661915 0.03453249 -0.14308788
00000000: e5c2 1f3c a743 8abe e9c2 293e 3de7 41be
00000010: 4de6 09be 2f1a 81be 043d e0bb a0a5 8abd
00000020: 7bf2 8d3d b13d d5bc 9838 21be 2c9e ffbc
00000030: 5114 c1bd 0487 4e3e 58e8 253e 1e87 0dbe
00000040: ccee b4bd afc9 2e3e 59a5 873e d238 22be
00000050: 75a1 0a3e 3915 0bbe dad0 823d ee99 bd3d
00000060: d347 153e f261 6c3d 2d0b 3cbe 4ef3 40be
00000070: 51b7 cfbc 322b d33c 2556 05bd 381d f03d
00000080: c271 14be a1ad bfbd 3fe4 16be 792a 4a3c
00000090: 4a50 3cbe 5da6 583e dff2 fabd 780b 7ebe
000000a0: 59a0 46be 7e2c b8bd 73f7 a63c 838f 403e
000000b0: aca7 0ebe 5e89 00bc 06cf b23d 3a56 90bd
000000c0: dc21 b43c a0e1 403d b3c1 fd3d 9a6f 83be
000000d0: e187 d1bd cb5d bfbd 53a9 7bbd fa17 70be
000000e0: 6533 0abd 555f 29bc 81b0 59be 0e30 b1bd
000000f0: bc99 803e 3376 4dbe b358 79bd 7e54 6abe
00000100: bb39 9abd 6b12 c83d 5b95 21be b055 2ebd
00000110: 3d20 593d 919b b73d bd8e 63bd faa6 71bd
00000120: b758 443e 27f8 663c 57a4 15be f170 1c3e
00000130: 5f45 63bc b264 b43b 2fc9 823e 653b fbbd
00000140: f4fc d7bd 2d31 73be d63c 88bd 99e9 afbd
00000150: eac4 423d 558c 5b3e cc1a 1fbe 25df c13d
00000160: a11f 41be 5eb6 223e be62 80bd 06f0 27be
00000170: 1c63 f5bd cb05 5fbe e370 a33d e4f4 9ebd
00000180: 554c 043e 1992 ebbd 76fb 2e3e fbe6 99bc
00000190: 895c e43d ad6c 013e c285 e13d 7456 f53d
000001a0: 3653 1cbe 3208 0d3e b877 4bbe 21ac 513e
000001b0: 8e41 953d f1ad 02be 09eb 35bd 3db3 7ebe
000001c0: c416 1a3e a6e4 2a3e bd61 333e 0630 363e
000001d0: 8985 913c 352d 693e 69f8 02be 7a02 563e
000001e0: 811f 2ebe 89f5 9dbc cb76 06be ee2c bdbd
000001f0: e922 b83d 74a3 0d3e 2638 40be 801f 8dbd
00000200: 3f2a 1c3e c848 b53d b906 14bc 7827 ba3a
00000210: 08e7 2dbe 4315 26bd 2393 813e 9491 cb3d
00000220: 8312 373d 3fd7 0cbd 5065 85be 63cb e73c
00000230: 1e26 27be b729 3a3e ce4d 433b 14eb 4b3e
00000240: 5eb4 2e3e bf30 1abe 8902 26be 6cd2 01be
00000250: 2ee3 8ebe 7de8 a03c f123 86be 8f09 ddbd
00000260: dde3 0d3e ec43 9fbe f244 123e c34b 84be
00000270: 0e26 4dbc 5bd8 4c3e 6ca1 20be 9ae1 163e
00000280: d815 23be fb88 623c 91a5 e03d dc10 f83c
00000290: 0d82 97bd bc7b 10be 1e03 313d 1d7d 75be
000002a0: 429b 9d3d e76b 053e 0ca3 7d3c 5972 80be
000002b0: 1d9c 99bc 341a 053e fdee 34bc 6d11 1c3e
000002c0: b7e0 7cbd 07ac 423e 5184 abbd aace 16bd
000002d0: d865 783d 4be0 1f3e f3f7 713e 3984 20bd
000002e0: adc4 89bd 361b 963e 0019 8bbd f471 e73c
000002f0: 90dc 093e db84 5dbe 6892 323e 113d 19be
00000300: 9308 af3d 4f8b 65bc 7045 17bd 1377 fc3d
00000310: 7ed0 1c3e 901a 21bd 8a50 583e fd63 8abe
00000320: 563f 59be 2a79 6ebe a0dc dc3b e9e3 14ba
00000330: 3e32 113e b645 003d f32b 573e f3dc ee3c
00000340: 2258 553e f315 1a3d 479f 22ba ae68 473c
00000350: ca7f 3abd 869e 633e dd47 f4bd daa5 023a
00000360: 4746 cbbc 8aaf 0ebe 9050 073e 150f b73d
00000370: c88a cdbc 8807 b63d 5ed6 35bd 232c 2f3e
00000380: 7c82 1dbe 4570 7abd 939f 5dbe 8886 3dbc
00000390: 7c38 f23d f909 1d3d ce06 19bc 3321 2b3e
000003a0: e65c 28be 3759 3bbe 90e7 bebd 9aaf 88be
000003b0: 62d3 283d 22ca 0c3c c6b5 3abc 09cf 443e
000003c0: 493c 35be d67d 0e3e fbf5 61be d8fa 853c
000003d0: d844 7c3e acde 85be 9d3c 3ebe 12fe 73bd
000003e0: 2a59 eebd e76f 9ebd 6a88 843d 5a5b 00bd
000003f0: 314c 043e 8856 493e f171 0d3d a185 12be

encoder.graph_embed.GCN_in.linear.bias f4 [16]
0.059100594 0.026397126 0.18530458 -0.03111036 -0.26860353 -0.031855542 -0.17066137 0.25358844
0.07466932 0.25163674 0.07829822 -0.17741248 -0.20598717 0.09725651 0.05503002 0.03939413
00000000: 7713 723d c93e d83c 7cc0 3d3e 27db febc
00000010: 6786 89be f57a 02bd dbc1 2ebe 58d6 813e
00000020: 3aec 983d 88d6 803e d15a a03d 9eab 35be
00000030: 4dee 52be 6c2e c73d 2967 613d bd5b 213d

encoder.graph_embed.bn.weight f4 [16]
1.0394996 1.0101156 0.95299727 0.8894023 0.93362236 1.0034778 0.98606527 1.0143226
1.0386863 1.0488812 0.93881994 0.88336945 0.9841956 0.9750158 0.92687094 1.007166
00000000: 530e 853f 784b 813f a1f7 733f deaf 633f
00000010: e001 6f3f f671 803f c66e 7c3f 53d5 813f
00000020: acf3 843f bd41 863f 8156 703f 8024 623f
00000030: 3ef4 7b3f a39a 793f 6a47 6d3f d1ea 803f

encoder.graph_embed.bn.bias f4 [16]
-0.015213499 -0.018349616 0.013218544 0.01311385 -0.058298625 -0.053988203 0.032506235 0.06594919
0.032984845 -0.027156089 -0.053044215 0.0029097437 -0.0048904503 -0.0026855904 0.0020315717 0.055993352
00000000: 0a42 79bc ef51 96bc 9892 583c 79db 563c
00000010: 8aca 6ebd bc22 5dbd 4225 053d 5e10 873d
00000020: 1e1b 073d 7276 debc e444 59bd 66b1 3e3b
00000030: 1240 a0bb bb00 30bb 1e24 053b 4959 653d

encoder.graph_embed.bn.running_mean f4 [16]
0.055407666 0.054821044 0.013214747 -0.017995663 0.013227289 0.009477142 -0.019612968 -0.026752723
0.017935919 -0.028506765 0.025755882 -0.08161901 0.010222722 0.020956118 0.086095534 -0.041358788
00000000: 26f3 623d 088c 603d ab82 583c a46b 93bc
00000010: 45b7 583c 0446 1b3c 60ab a0bc 8728 dbbc
00000020: 59ee 923c 0587 e9bc 00fe d23c de27 a7bd
00000030: 347d 273c 2aac ab3c db52 b03d d567 29bd

encoder.graph_embed.bn.running_var f4 [16]
0.058181476 0.03112636 0.01406625 0.012519358 0.008691259 0.012708179 0.0099121025 0.005749901
0.023690203 0.003487264 0.015258204 0.0082377065 0.016545659 0.03800758 0.07252796 0.003686942
00000000: b34f 6e3d b5fc fe3c 2176 663c fe1d 4d3c
00000010: c865 0e3c f735 503c 5f66 223c aa69 bc3b
00000020: f511 c23c 958a 643b 8cfd 793c 72f7 063c
00000030: c38a 873c d6ad 1b3d 8a89 943d 9fa0 713b

encoder.graph_embed.GCN_layers.0.A f4 [9, 9]
0.3281476 -0.6906669 -0.13972436 0.843145 -0.75678295 1.2889314 -0.5752584 0.77397686
1.3889253 -0.011694313 -1.0175858 -0.40693223 0.692576 0.5495025 -0.23338804 -0.8885079
-0.61517197 1.1508485 0.2120698 1.7315179 -0.44246045 0.09595426 0.33520123 0.5452391
-1.1438738 0.6511463 -0.67355055 0.4207262 0.16637345 1.1909349 -0.2755356 0.875412
-0.13403757 0.17253709 1.4476526 -0.86513007 0.7684843 0.4486465 -1.7598909 -0.49927235
1.232721 -0.2832925 1.6752412 1.4600842 0.8993857 1.4329581 0.5667762 1.626495
-0.11375058 0.3138814 1.5145359 1.7957376 1.6659865 -0.12525487 1.5402551 1.217014
-0.6018587 -0.070325516 -0.46590292 0.13119067 -0.024280757 0.42545736 -1.3021722 -1.144181
0.03729358 1.2880018 0.99318343 -0.35693702 -0.37668052 0.55056167 1.0064628 -0.2624173
1.1418977 -0.6775314 -0.6951162 0.46800673 0.12818113 0.76205295 -0.31559625 0.70294416
-0.41823065
00000000: f602 a83e 8ccf 30bf e713 0fbe 5ad8 573f
00000010: 87bc 41bf b4fb a43f 2244 13bf 5923 463f
00000020: 4ec8 b13f 8199 3fbc 4040 82bf 6c59 d0be
00000030: a94c 313f 32ac 0c3f 46fd 6ebe 4175 63bf
00000040: e97b 1dbf 014f 933f d328 593e 61a2 dd3f
00000050: 2d8a e2be ab83 c43d 7f9f ab3e ca94 0b3f
00000060: 756a 92bf 86b1 263f cf6d 2cbf 6d69 d73e
00000070: cd5d 2a3e 8e70 983f 0113 8dbe 001b 603f
00000080: 2541 09be 90ad 303e ae4c b93f 2a79 5dbf
00000090: 63bb 443f feb4 e53e 1b44 e1bf a0a0 ffbe
000000a0: cdc9 9d3f b70b 91be 4e6e d63f 0ae4 ba3f
000000b0: 243e 663f 2c6b b73f 3f18 113f fd30 d03f
000000c0: 10f6 e8bd 10b5 a03e 50dc c13f bbda e53f
000000d0: 0c3f d53f d042 00be 1427 c53f 1dc7 9b3f
000000e0: 6913 1abf d306 90bd d48a eebe d956 063e
000000f0: 70e8 c6bc 8cd5 d93e 94ad a6bf 8674 92bf
00000100: 27c1 183d 3edd a43f 4541 7e3f 73c0 b6be
00000110: 45dc c0be 9cf1 0c3f c6d3 803f 8f5b 86be
00000120: b429 923f b372 2dbf 23f3 31bf 949e ef3e
00000130: ea41 033e e715 433f d595 a1be 26f4 333f
00000140: 5422 d6be

encoder.graph_embed.GCN_layers.0.linear.weight f4 [16, 16]
-0.16707481 -0.08330197 -0.14334878 0.20958509 0.16555023 0.036125004 0.1943362 0.065171376
-0.014114971 0.06405404 -0.27144983 0.032840867 0.2677023 0.19674249 -0.0071859458 -0.094343856
0.22441551 0.17042446 0.094807826 0.10562216 0.12531604 -0.0347157 0.08409823 -0.24207005
-0.22793654 0.10185594 0.18475375 -0.034218095 -0.24234506 0.26207152 0.30299884 -0.07251167
0.053279273 -0.07921784 -0.20184252 -0.27593067 -0.06665108 0.17482394 0.022868589 0.16518827
-0.0365441 -0.014600329 0.10897836 0.0083438475 -0.14722764 0.17844431 -0.11935374 0.17757317
0.04404955 -0.18373638 -0.030848274 0.007841887 -0.17619118 0.03428161 0.13928139 0.17964098
0.2369921 -0.15205172 0.19304493 -0.16149402 -0.27432716 -0.10299756 -0.13831046 -0.28971794
0.045810483 -0.03926558 -0.042145412 0.09069275 -0.059958063 0.025260782 0.0036055762 -0.0763348
0.10960834 0.26871926 -0.029020946 -0.181485 -0.19369379 0.026151238 -0.10120509 0.22221671
0.077267654 0.19761023 0.06505578 0.08657742 0.12696183 0.07042147 0.11338359 0.08724285
-0.07707501 -0.27345923 0.21109769 0.18071954 -0.12996615 -0.009244833 -0.16149557 -0.055741936
0.18080483 0.09385552 0.13799849 -0.16393057 0.1756137 0.039936945 -0.23788245 0.1849534
-0.2880823 0.16600882 -0.15589422 -0.2237129 -0.04332781 0.09898885 0.17244262 -0.10440034
-0.1433756 0.082368515 0.034927055 -0.28495586 -0.14473607 0.014118815 -0.26955718 0.110974185
0.023415873 -0.1640831 -0.01407248 0.025125075 -0.22547244 -0.115140945 -0.073520556 -0.007797351
-0.07869867 -0.113322444 -0.07758688 0.08572225 -0.15501964 -0.057297055 0.040550534 0.08423149
-0.09115925 -0.06891065 -0.33239436 0.19326742 0.14006877 -0.04171098 0.15810709 0.005278344
0.19135067 0.06983926 0.042760264 0.26095617 0.12494794 0.20165613 -0.127584 0.21642692
-0.06130257 0.21100539 -0.10210429 -0.11641829 0.2766917 -0.017617706 0.055057343 -0.17200167
0.19155096 -0.14309274 -0.11023093 0.043196626 0.05688228 0.078253254 -0.114658765 -0.11444351
0.001409985 -0.05957616 0.1405275 0.091174915 0.10497692 -0.067855865 0.10455795 -0.12381935
-0.09513753 -0.06302642 0.12641698 -0.18115859 0.1838311 -0.034256257 -0.06533038 -0.21117231
0.23600526 -0.15820533 -0.124745615 0.3188624 -0.21591942 -0.15256123 0.26285952 0.06963948
-0.144935 0.18541843 0.20825101 0.08420709 0.044123016 0.042503346 -0.11140864 0.0038048655
0.08757843 0.29558057 -0.14656498 0.06932009 0.16225849 -0.10441566 0.069214225 -0.16649814
0.1149019 -0.055713534 0.0170682 0.19156957 0.14848424 0.14399645 0.23729527 -0.036154974
0.109010704 0.05625442 -0.2818118 -0.007686515 -0.055418693 0.22445492 0.030348517 -0.14348572
0.0028655343 -0.21117897 -0.10449405 -0.05890901 0.02487578 -0.14409262 -0.26044762 -0.07615751
0.13122392 0.15205729 0.23789331 0.14972544 0.058106594 -0.2293013 0.12495552 0.14466856
0.09595691 0.21950367 0.16171616 0.08516665 -0.14413844 -0.2519803 -0.04851342 -0.11018428
0.18591793 0.035601743 -0.13935593 -0.074246936 0.1929431 -0.04447471 -0.27868333 -0.08922533
00000000: a915 2bbe 399a aabd 06ca 12be 799d 563e
00000010: 0086 293e d0f7 133d 1200 473e 9278 853d
00000020: 7b42 67bc c42e 833d 79fb 8abe 2584 063d
00000030: 4710 893e dd76 493e 1578 ebbb 5a37 c1bd
00000040: 2ecd 653e c083 2e3e 9b2a c23d 6e50 d83d
00000050: d952 003e 0d32 0ebd b13b ac3d 36e1 77be
00000060: 3268 69be d999 d03d 1630 3d3e 4628 0cbd
00000070: 4e29 78be 3d2e 863e aa22 9b3e 0081 94bd
00000080: 5e3b 5a3d f73c a2bd ceaf 4ebe c946 8dbe
00000090: 5d80 88bd 0c05 333e e856 bb3c 1d27 293e
000000a0: 44af 15bd 3836 6fbc 0c30 df3d a2b4 083c
000000b0: d8c2 16be 1bba 363e bc6f f4bd bed5 353e
000000c0: 4d6d 343d 6425 3cbe 85b5 fcbc 427b 003c
000000d0: 766b 34be e06a 0c3d c89f 0e3e cef3 373e
000000e0: 0fae 723e 72b3 1bbe 92ad 453e b05e 25be
000000f0: 9c74 8cbe 62f0 d2bd 42a1 0dbe e955 94be
00000100: c6a3 3b3d f2d4 20bd aba0 2cbd 1fbd b93d
00000110: 9696 75bd b3ef ce3c 884b 6c3b 6b55 9cbd
00000120: 567a e03d 9295 893e 56bd edbc 34d7 39be
00000130: aa57 46be 1f3b d63c 9d44 cfbd c78c 633e
00000140: 813e 9e3d 565a 4a3e f73b 853d 814f b13d
00000150: 4802 023e 2239 903d a835 e83d 61ac b23d
00000160: 81d9 9dbd d902 8cbe fe29 583e 8b0e 393e
00000170: d915 05be a477 17bc 185f 25be a851 64bd
00000180: e724 393e 5337 c03d 7a4f 0d3e 6add 27be
00000190: 14d4 333e ec94 233d 7597 73be 6d64 3d3e
000001a0: 867f 93be 37fe 293e bca2 1fbe ff14 65be
000001b0: 8078 31bd abba ca3d cc94 303e d8cf d5bd
000001c0: 0ed1 12be d3b0 a83d ac0f 0f3d bce5 91be
000001d0: b135 14be 9a52 673c 6603 8abe 6f46 e33d
000001e0: a5d2 bf3c 6605 28be 4290 66bc 1ad3 cd3c
000001f0: 3fe2 66be 04cf ebbd f291 96bd ec80 ffbb
00000200: c52c a1bd 9915 e8bd dfe5 9ebd 268f af3d
00000210: 78bd 1ebe 51b0 6abd 5118 263d 8f81 ac3d
00000220: b3b1 babd 0721 8dbd 982f aabe e5e7 453e
00000230: 306e 0f3e 22d9 2abd d3e6 213e f5f5 ac3b
00000240: 6ef1 433e e307 8f3d 6325 2f3d 0c9c 853e
00000250: b5e4 ff3d f27e 4e3e 61a5 02be 059f 5d3e
00000260: 6718 7bbd cc11 583e 0e1c d1bd b66c eebd
00000270: 89aa 8d3e 0253 90bc cf83 613d 3521 30be
00000280: ef25 443e e786 12be c1c0 e1bd f2ee 303d
00000290: 65fd 683d 3e43 a03d 37d2 eabd 5c61 eabd
000002a0: 3fcf b83a 2206 74bd 71e6 0f3e eab9 ba3d
000002b0: 24fe d63d 04f8 8abd 7a22 d63d 0095 fdbd
000002c0: 77d7 c2bd ff13 81bd 7473 013e a381 39be
000002d0: 383e 3c3e 4a50 0cbd efcb 85bd 8e3d 58be
000002e0: 5dab 713e 9400 22be a17a ffbd ef41 a33e
000002f0: fb19 5dbe 0339 1cbe 8695 863e 259f 8e3d
00000300: d769 14be 54de 3d3e c13f 553e c474 ac3d
00000310: 56ba 343d fd17 2e3d 372a e4bd 0d5b 793b
00000320: 525c b33d 5656 973e 2115 16be b1f7 8d3d
00000330: 1727 263e e1d7 d5bd 30c0 8d3d 7d7e 2abe
00000340: b051 eb3d e033 64bd 9cd2 8b3c d02a 443e
00000350: 410c 183e ce73 133e 88fd 723e 3d17 14bd
00000360: 0141 df3d 096b 663d a349 90be 29df fbbb
00000370: b6fe 62bd 83d7 653e 749d f83c eced 12be
00000380: b0cb 3b3b 4d3f 58be fa00 d6bd 934a 71bd
00000390: 4bc8 cb3c 048d 13be 6459 85be 78f8 9bbd
000003a0: 905f 063e e8b4 1b3e 4e9a 733e a051 193e
000003b0: 2e01 6e3d f6cd 6abe aee8 ff3d ff23 143e
000003c0: 0e85 c43d 92c5 603e ec98 253e da6b ae3d
000003d0: 0799 13be 9003 81be 02b6 46bd 4ca8 e1bd
000003e0: 4561 3e3e 22d3 113d 52b3 0ebe c70e 98bd
000003f0: e092 453e 1d2b 36bd 95af 8ebe c5bb b6bd

encoder.graph_embed.GCN_layers.0.linear.bias f4 [16]
0.005562883 -0.004610265 -0.07483608 -0.17014924 -0.0053637535 -0.09511444 -0.014214803 0.06441599
0.06239524 -0.09468107 0.07831161 -0.18008384 -0.04594538 -0.05410686 0.010651211 0.030521335
00000000: d848 b63b b511 97bb a943 99bd 9a3b 2ebe
00000010: 6dc2 afbb 5ccb c2bd 35e5 68bc 88ec 833d
00000020: 2792 7f3d 26e8 c1bd d661 a03d e667 38be
00000030: 3931 3cbd 289f 5dbd 6b82 2e3c e107 fa3c

encoder.pos_enc.pe f4 [500, 16]
0.0 1.0 0.0 1.0 0.0 1.0 0.0 1.0
0.0 1.0 0.0 1.0 0.0 1.0 0.0 1.0
0.84147096 0.54030234 0.3109836 0.9504153 0.099833414 0.9950042 0.031617504 0.99950004
0.009999833 0.99995 0.0031622713 0.999995 0.0009999998 0.9999995 0.00031622782 0.99999994
0.9092974 -0.41614684 0.5911271 0.8065784 0.19866931 0.9800666 0.063203394 0.9980007
0.019998666 0.9998 0.006324511 0.99998003 0.0019999985 0.99999803 0.0006324556 0.9999998
0.14112 -0.9899925 0.8126489 0.58275366 0.2955202 0.9553365 0.094726086 0.99550337
0.0299955 0.99955004 0.009486687 0.999955 0.0029999954 0.9999955 0.00094868336 0.9999996
-0.7568025 -0.6536436 0.95358074 0.30113748 0.38941833 0.921061 0.12615407 0.99201065
0.039989334 0.9992001 0.01264877 0.99992 0.003999989 0.999992 0.0012649109 0.9999992
-0.9589243 0.2836622 0.99994653 -0.010342338 0.47942552 0.87758255 0.15745588 0.987526
0.049979165 0.99875027 0.015810724 0.999875 0.004999979 0.9999875 0.0015811383 0.99999875
-0.2794155 0.96017027 0.9471482 -0.3207964 0.5646424 0.8253356 0.18860027 0.98205394
0.059964005 0.99820054 0.018972522 0.99982 0.0059999637 0.999982 0.0018973658 0.9999982
0.6569866 0.75390226 0.8004216 -0.5994375 0.6442176 0.7648422 0.2195561 0.9755999
0.06994285 0.997551 0.022134129 0.999755 0.006999942 0.9999755 0.0022135929 0.99999756
0.98935825 -0.14550003 0.5743178 -0.8186324 0.717356 0.6967067 0.25029233 0.9681703
0.07991469 0.9968017 0.025295515 0.99968004 0.007999914 0.999968 0.0025298197 0.9999968
0.4121185 -0.91113025 0.29125923 -0.9566442 0.78332686 0.62161 0.28077832 0.95977265
0.089878544 0.9959527 0.028456647 0.99959505 0.008999879 0.9999595 0.0028460464 0.99999595
-0.5440211 -0.8390715 -0.02068357 -0.9997861 0.84147096 0.54030234 0.31098357 0.9504153
0.099833414 0.9950042 0.031617496 0.99950004 0.009999833 0.99995 0.0031622727 0.999995
-0.9999902 0.004425698 -0.33057496 -0.94377977 0.89120734 0.4535962 0.34087786 0.9401076
0.1097783 0.9939561 0.03477803 0.9993951 0.010999777 0.9999395 0.003478499 0.999994
-0.53657293 0.84385395 -0.6076834 -0.7941793 0.9320391 0.36235783 0.3704313 0.9288599
0.119712204 0.99280864 0.03793821 0.9992801 0.011999711 0.999928 0.0037947248 0.9999928
0.42016703 0.9074468 -0.82452846 -0.5658205 0.9635582 0.26749888 0.3996143 0.9166834
0.12963414 0.9915619 0.041098017 0.9991551 0.012999633 0.9999155 0.00411095 0.99999154
0.9906074 0.13673721 -0.9596054 -0.28134948 0.98544973 0.16996728 0.42839777 0.90359026
0.13954312 0.990216 0.044257414 0.99902016 0.013999541 0.999902 0.004427175 0.9999902
0.65028787 -0.7596879 -0.9995187 0.031022351 0.997495 0.07073732 0.45675287 0.8895936
0.14943813 0.9887711 0.047416367 0.9988752 0.014999436 0.9998875 0.0047433996 0.99998873
00000000: 0000 0000 0000 803f 0000 0000 0000 803f
00000010: 0000 0000 0000 803f 0000 0000 0000 803f
00000020: 0000 0000 0000 803f 0000 0000 0000 803f
00000030: 0000 0000 0000 803f 0000 0000 0000 803f
00000040: a46a 573f 4151 0a3f 3e39 9f3e 6b4e 733f
00000050: 7675 cc3d 98b8 7e3f 5b81 013d 3cdf 7f3f
00000060: 57d6 233c b9fc 7f3f 1c3e 4f3b acff 7f3f
00000070: 6d12 833a f8ff 7f3f 61cb a539 ffff 7f3f
00000080: b7c7 683f 3311 d5be 1b54 173f ec7b 4e3f
00000090: f86f 4b3e a5e5 7a3f c870 813d f97c 7f3f
000000a0: 3ed4 a33c e5f2 7f3f d83d cf3b b1fe 7f3f
000000b0: 6812 033b dfff 7f3f 60cb 253a fdff 7f3f
000000c0: c381 103e 2670 7dbf c209 503f 582f 153f
000000d0: 6c4e 973e ef90 743f c0ff c13d 4fd9 7e3f
000000e0: 1fb9 f53c 83e2 7f3f 0d6e 1b3c 0dfd 7f3f
000000f0: 929b 443b b5ff 7f3f 10b1 783a f9ff 7f3f
00000100: cfbd 41bf 3055 27bf de1d 743f b12e 9a3e
00000110: d761 c73e a7ca 6b3f 882e 013e 69f4 7d3f
00000120: dbcb 233d 94cb 7f3f c93c 4f3c c2fa 7f3f
00000130: 5712 833b 7aff 7f3f 5ecb a53a f3ff 7f3f
00000140: 107c 75bf 2c3c 913e 7ffc 7f3f e972 29bc
00000150: 4377 f53e 40a9 603f 1d3c 213e 81ce 7c3f
00000160: f4b6 4c3d 19ae 7f3f 7e85 813c cff7 7f3f
00000170: ddd6 a33b 2eff 7f3f 333e cf3a ebff 7f3f
00000180: 8c0f 8fbe b8cd 753f 4e78 723f 6d3f a4be
00000190: 688c 103f 3249 533f 6e20 413e e367 7b3f
000001a0: d19c 753d 128a 7f3f 436c 9b3c 34f4 7f3f
000001b0: 589b c43b d2fe 7f3f 08b1 f83a e2ff 7f3f
000001c0: 4630 283f bdff 403f 6ee8 4c3f bc74 19bf
000001d0: 72eb 243f b3cc 433f 50d3 603e eac0 793f
000001e0: 323e 8f3d 815f 7f3f a252 b53c f2ef 7f3f
000001f0: c55f e53b 65fe 7f3f ed11 113b d7ff 7f3f
00000200: 9546 7d3f f6fd 14be 7e06 133f e591 51bf
00000210: a5a4 373f 5f5b 323f 5126 803e 02da 773f
00000220: 50aa a33d 652e 7f3f 8a38 cf3c 08eb 7f3f
00000230: 1212 033c e7fd 7f3f 55cb 253b caff 7f3f
00000240: 3201 d33e d53f 69bf ee1f 953e a2e6 74bf
00000250: 1c88 483f d521 1f3f 2dc2 8f3e a9b3 753f
00000260: 3e12 b83d c2f6 7e3f ea1d e93c 76e5 7f3f
00000270: 3a74 133c 59fd 7f3f bc84 3a3b bcff 7f3f
00000280: f844 0bbf 64cd 56bf 9770 a9bc fbf1 7fbf
00000290: a46a 573f 4151 0a3f 3d39 9f3e 6b4e 733f
000002a0: 7675 cc3d 98b8 7e3f 5981 013d 3cdf 7f3f
000002b0: 57d6 233c b9fc 7f3f 223e 4f3b acff 7f3f
000002c0: 5cff 7fbf 7205 913b 1f41 a9be 8d9b 71bf
000002d0: 2a26 643f c33d e83e 8b87 ae3e e4aa 703f
000002e0: 72d3 e03d e873 7e3f 6873 0e3d 5bd8 7f3f
000002f0: 6938 343c 09fc 7f3f 87f7 633b 9bff 7f3f
00000300: d85c 09bf d006 583f 2491 1bbf 564f 4bbf
00000310: 1d9a 6e3f f786 b93e 2ca9 bd3e c3c9 6d3f
00000320: ac2b f53d b528 7e3f 1965 1b3d d2d0 7f3f
00000330: 709a 443c 48fb 7f3f ebb0 783b 87ff 7f3f
00000340: 2220 d73e 6f4e 683f 4c14 53bf 9dd9 10bf
00000350: c0ab 763f 9df5 883e 3f9a cc3e c3ab 6a3f
00000360: d0be 043e 00d7 7d3f 6556 283d a1c8 7f3f
00000370: 6afc 543c 76fa 7f3f 26b5 863b 72ff 7f3f
00000380: 7298 7d3f d704 0c3e b3a8 75bf 0a0d 90be
00000390: 6f46 7c3f e70b 2e3e f456 db3e b151 673f
000003a0: 64e4 0e3e cc7e 7d3f 4347 353d c9bf 7f3f
000003b0: 555e 653c 94f9 7f3f d611 913b 5cff 7f3f
000003c0: 4479 263f e87a 42bf 75e0 7fbf 9622 fe3c
000003d0: d55b 7f3f bade 903d 83db e93e 68bc 633f
000003e0: 4f06 193e 1a20 7d3f aa37 423d 49b6 7f3f
000003f0: 32c0 753c a1f8 7f3f 856e 9b3b 43ff 7f3f

encoder.transformer.in_proj_weight f4 [48, 16]
-0.20112543 0.20165019 -0.1527799 0.21566918 0.21881613 0.20546843 0.033591278 -0.17746174
0.05036033 -0.06008355 0.14452444 0.11742275 0.032057796 -0.11198086 0.16177729 -0.14565474
-0.27466035 -0.27408946 -0.31154582 -0.19042075 0.028973132 -0.17340207 -0.09613285 -0.22321664
0.1440038 0.06862772 -0.24612954 0.2962199 0.30132246 -0.053365413 -0.19276635 0.23789258
0.091909595 0.011134768 0.28933373 0.22939469 -0.19179378 -0.14348893 -0.014382445 0.13709658
0.05582683 0.054396056 -0.15806511 -0.19477531 -0.1134331 0.27630788 -0.027830034 -0.0484179
-0.054435134 -0.14133202 -0.11291914 -0.31216985 0.16994356 0.07647674 0.1835163 -0.2055216
-0.24153915 -0.018454833 -0.096848205 0.14016208 0.13191193 -0.30263662 -0.032983813 -0.16995464
-0.22489564 -0.06023685 0.0922602 -0.05575005 0.26576284 0.12578575 0.20071201 -0.121104635
-0.1954462 -0.25956067 -0.14530483 -0.06994074 -0.03697176 -0.21988146 0.036705144 -0.14097458
-0.2566179 -0.0500248 0.18616313 0.21101162 0.17878163 -0.2561979 -0.08394781 -0.004825204
0.26201674 -0.22858194 -0.17039047 -0.1151086 0.20302229 -0.15713066 0.17797023 -0.21790351
-0.20049195 0.11842211 -0.1959984 0.18626948 -0.1840988 0.008112096 0.12082009 -0.3044927
0.00090437767 0.11213768 0.20911676 -0.21514744 0.10990151 -0.20222588 -0.12108371 -0.0989116
-0.11320083 0.14184654 -0.056261685 0.25229806 -0.29447165 -0.11886771 -0.31163386 -0.114146784
0.23421581 0.18657805 0.22241747 -0.037907615 0.277411 -0.13586278 -0.27301773 -0.069053836
0.28535217 -0.16920847 -0.16004407 0.06587047 0.18033835 0.31860834 0.0666435 -0.0031167588
-0.24061865 0.21376027 0.15212736 -0.29476002 0.32840246 0.08985856 -0.17659381 0.06574979
-0.17237094 0.25471458 0.27370644 -0.31507903 0.23697713 -0.19071269 0.0036166792 0.22869805
0.09857641 -0.14102508 -0.18464313 -0.20190582 0.0029240004 -0.061170798 -0.22535458 0.1671218
-0.3187932 0.072525464 -0.0011076054 0.124266975 0.084043615 -0.20164852 0.02318382 -0.12157895
0.13912156 0.12855266 -0.09339272 0.21145901 -0.099030726 0.20085858 -0.26734143 0.07933763
-0.08426091 0.2797879 -0.12665622 -0.2827957 -0.1736221 -0.21815926 0.14862697 0.20591314
0.17318538 0.19299258 -0.10250241 -0.12088879 -0.14346601 -0.12555209 -0.08554615 0.30651316
0.2812437 -0.16072112 -0.01110275 0.08971337 -0.1807557 0.22612278 0.014482279 -0.19061281
-0.08565712 -0.12380002 -0.26693076 0.07097056 -0.044921413 -0.0060591167 -0.059288274 0.2707547
0.1383906 0.15215594 0.03714444 -0.14353052 0.0110658 -0.038879223 0.34014627 -0.07171348
0.003162171 0.0026873378 0.02952405 -0.019150063 -0.137855 -0.1892959 -0.2977742 -0.29755408
-0.2558432 0.11831158 0.07738576 0.2841481 -0.17201495 -0.012731133 -0.037110195 0.22444664
-0.23128507 -0.035649307 -0.149177 0.058089703 -0.08767212 -0.24411076 -0.1618797 0.15096845
0.06805104 0.2491236 0.0011615533 0.3161004 -0.14352196 -0.13323171 -0.13141981 -0.16009876
0.22998066 -0.16148715 0.10623445 -0.018042108 0.12808783 0.30123863 0.04937612 -0.016860561
00000000: d3f3 4dbe 637d 4e3e 5672 1cbe 62d8 5c3e
00000010: 5611 603e 5166 523e 0297 093d 88b8 35be
00000020: a246 4e3d 2b1a 76bd 37fe 133e 577b f03d
00000030: 094f 033d 3956 e5bd f2a8 253e 8426 15be
00000040: 48a0 8cbe 7455 8cbe ef82 9fbe a8fd 42be
00000050: 1059 ed3c 5090 31be 4de1 c4bd e792 64be
00000060: bb75 133e b18c 8c3d 6209 7cbe 22aa 973e
00000070: f046 9a3e b195 5abd 8b64 45be 1d9a 733e
00000080: 193b bc3d 9a6e 363c 8d23 943e 71e6 6a3e
00000090: 9765 44be c3ee 12be 59a4 6bbc 0c63 0c3e
000000a0: adaa 643d 66ce 5e3d d2db 21be 2e73 47be
000000b0: 9d4f e8bd 3a78 8d3e d0fb e3bc d951 46bd
000000c0: 60f7 5ebd 57b9 10be 2642 e7bd bad4 9fbe
000000d0: af05 2e3e d69f 9c3d b2eb 3b3e 4174 52be
000000e0: 0a56 77be 972e 97bc 5a58 c6bd a686 0f3e
000000f0: ec13 073e 30f3 9abe 091a 07bd 9708 2ebe
00000100: 0b4b 66be eaba 76bd eaf2 bc3d 2a5a 64bd
00000110: 1112 883e fbcd 003e 7387 4d3e b505 f8bd
00000120: 0c23 48be 23e5 84be caca 14be 173d 8fbd
00000130: b36f 17bd 9b28 61be 2258 163d a45b 10be
00000140: 6c63 83be cee6 4cbd 8ca1 3e3e 6e13 583e
00000150: 8812 373e 5f2c 83be d4ec abbd bf1c 9ebb
00000160: 0f27 863e 6211 6abe d77a 2ebe 0fbe ebbd
00000170: 13e5 4f3e dce6 20be d43d 363e 1922 5fbe
00000180: c34d 4dbe 4b87 f23d ceb3 48be 6dbd 3e3e
00000190: 6584 3cbe 99e8 043c 8670 f73d 78e6 9bbe
000001a0: c213 6d3a 71a8 e53d b422 563e 9c4f 5cbe
000001b0: 0b14 e13d 4d14 4fbe bcfa f7bd 2a92 cabd
000001c0: d6d5 e7bd 3840 113e a772 66bd 362d 813e
000001d0: fdc4 96be ea70 f3bd 798e 9fbe cac5 e9bd
000001e0: 45d6 6f3e 510e 3f3e 68c1 633e 0445 1bbd
000001f0: d108 8e3e 9d1f 0bbe fbc8 8bbe 196c 8dbd
00000200: ae19 923e fc44 2dbe 98e2 23be 19e7 863d
00000210: 9eaa 383e a220 a33e 637c 883d 8942 4cbb
00000220: bc64 76be f9e3 5a3e 46c7 1b3e c9ea 96be
00000230: 5e24 a83e c407 b83d 02d5 34be d3a7 863d
00000240: 0282 30be f369 823e 4023 8c3e 0a52 a1be
00000250: 22aa 723e 304a 43be cf05 6d3b d22f 6a3e
00000260: 6ee2 c93d e168 10be 1713 3dbe 66c0 4ebe
00000270: 96a0 3f3b 3b8e 7abd 5ac3 66be fa21 2b3e
00000280: dd38 a3be 3b88 943d 122d 91ba af7f fe3d
00000290: 0f1f ac3d f37c 4ebe ffeb bd3c 62fe f8bd
000002a0: e275 0e3e 4fa3 033e af44 bfbd b688 583e
000002b0: 9fd0 cabd dfad 4d3e fae0 88be c47b a23d
000002c0: fc90 acbd 5c40 8f3e 2bb2 01be 99ca 90be
000002d0: fec9 31be 2465 5fbe ab31 183e e5da 523e
000002e0: 8257 313e d99f 453e c9ec d1bd 8b94 f7bd
000002f0: c1e8 12be ba90 00be d232 afbd 4bef 9c3e
00000300: 2dff 8f3e 1494 24be 4fe8 35bc a5bb b73d
00000310: 0618 39be bb8c 673e 1547 6d3c 0130 43be
00000320: 006d afbd dd8a fdbd 26ab 88be 0359 913d
00000330: 84ff 37bd 8e8b c6bb 43d8 72bd 5ca0 8a3e
00000340: 44b6 0d3e c4ce 1b3e c524 183d aaf9 12be
00000350: 544d 353c d23f 1fbd a727 ae3e 84de 92bd
00000360: 6d3c 4f3b 0c1e 303b 6cdc f13c 98e0 9cbc
00000370: dc29 0dbe c9d6 41be dc75 98be 0259 98be
00000380: e1fd 82be 574d f23d 6d7c 9e3d dc7b 913e
00000390: b024 30be 3e96 50bc dc00 18bd 57d5 653e
000003a0: fed5 6cbe 0205 12bd dbc1 18be 78ef 6d3d
000003b0: 718d b3bd 2cf8 79be cbc3 25be 7997 1a3e
000003c0: 585e 8b3d 421a 7f3e 433f 983a e9d7 a13e
000003d0: 6cf7 12be e56d 08be ea92 06be eef0 23be
000003e0: 0d80 6b3e e35c 25be 7391 d93d 0bcd 93bc
000003f0: 7529 033e f33b 9a3e 9d3e 4a3d 291f 8abc

encoder.transformer.in_proj_bias f4 [48]
-0.0021504196 0.043614727 0.044565573 -0.0074635795 -0.04574576 0.004726607 -0.01298243 -0.055123907
-0.029500363 0.00840015 0.04020613 0.045105334 0.013374294 0.018663289 -0.020305922 -0.016502328
1.2055536e-07 2.0921435e-07 -1.9849413e-07 2.124466e-07 4.8642637e-08 -1.5573023e-07 1.4661626e-07 -2.252618e-08
8.618716e-08 -1.0642757e-07 9.716967e-08 4.2830933e-08 -5.8923703e-08 9.772295e-08 -1.4391883e-07 -7.101378e-08
0.030302221 -0.07438965 0.016437877 0.0032664004 -0.021350406 -0.021018744 0.020094477 0.03224403
0.02592423 0.008348282 0.0565114 0.034418914 -0.028147109 -0.025703624 -0.009809088 0.03490526
00000000: 0eee 0cbb 5ba5 323d 648a 363d 0b91 f4bb
00000010: e85f 3bbd a7e1 9a3b 42b4 54bc 9bc9 61bd
00000020: bfaa f1bc c8a0 093c 2faf 243d 5fc0 383d
00000030: db1f 5b3c c1e3 983c 9b58 a6bc e42f 87bc
00000040: 0172 0134 67a4 6034 a721 55b4 e01c 6434
00000050: 25eb 5033 cd36 27b4 926d 1d34 987f c1b2
00000060: e415 b933 2d8d e4b3 97ab d033 1cf5 3733
00000070: 4c13 7db3 c3db d133 1b88 1ab4 3d80 98b3
00000080: 5d3c f83c 9a59 98bd baa8 863c 1b11 563b
00000090: 0ce7 aebc 802f acbc 2c9d a43c 5112 043d
000000a0: 0d5f d43c 3cc7 083c 7f78 673d d9fa 0c3d
000000b0: c494 e6bc 6890 d2bc 4cb6 20bc d1f8 0e3d

encoder.transformer.out_proj.weight f4 [16, 16]
0.024692766 0.23320271 -0.17464882 0.14132111 0.21940821 0.21569245 -0.071601756 0.19437712
0.2520485 -0.21865456 0.19613469 -0.14249718 0.08339647 0.14183846 0.22074017 0.031773053
0.1836614 0.060689732 -0.11899376 0.057874616 -0.13268232 -0.24281156 0.06300158 -0.064216085
0.07877868 -0.023281401 -0.14099385 0.014591465 -0.1758688 0.1262335 -0.23288961 0.0031365498
-0.25085187 0.0998008 0.1787643 0.112049125 -0.16963863 0.1308275 -0.18087584 -0.14584851
0.12522788 -0.06914799 0.045382418 0.06625455 0.023410434 -0.058406863 -0.14774023 0.015378696
0.12848091 0.18146275 0.12165002 -0.2878549 -0.12704912 -0.0369991 -0.032470383 -0.045793336
0.10653368 -0.052652527 0.28361946 0.23727868 0.12144654 0.2005946 -0.124709606 0.19968285
-0.07098447 0.09223514 -0.1192051 -0.08684827 0.29591325 0.055316262 -0.27271113 0.039475355
-0.14165689 0.11720091 -0.1030056 0.03314527 0.22940359 0.12799028 0.17173928 -0.22821997
-0.13111407 0.05279847 -0.049270302 -0.112758204 -0.11262694 0.25271398 -0.23329319 -0.21726725
-0.24894579 0.25824958 -0.21631812 -0.09790429 -0.13028975 0.1831996 0.26212552 -0.120057605
0.03385342 -0.19326334 -0.11744476 0.20157117 -0.1548934 -0.23086922 0.18878603 -0.025576627
0.18900652 0.05471596 0.0026509927 0.038901236 0.133956 0.057548843 0.1657693 0.23070353
-0.16242756 -0.23228794 -0.0044161836 -0.24385366 0.029277146 -0.23614563 0.11861916 -0.099259555
-8.798357e-05 0.24323815 0.032958534 0.10905802 -0.073962934 -0.15234531 0.14494397 -0.06911746
-0.048327334 -0.050679356 0.23794821 -0.0850958 -0.007996443 0.09328606 -0.14889391 0.10100166
0.1325955 0.13265806 0.042939708 0.0859911 -0.18264294 0.006750967 -0.082838625 -0.16357967
-0.07606309 0.19974485 -0.20107418 -0.091151185 -0.110085 0.032891482 0.0239528 -0.038560394
0.19120908 -0.22015974 0.17160039 0.118582234 -0.16907291 0.06862709 0.08398941 -0.21019256
0.08159514 -0.09514208 0.16590323 0.07441431 0.073545 -0.054099623 0.17488518 -0.13020377
-0.20842505 0.19075747 0.031792704 -0.13916104 0.06265727 -0.22372636 -0.1781588 -0.1636363
-0.1286507 -0.25461748 -0.104409985 -0.15282394 0.05285434 0.17308918 0.06491086 -0.09919741
-0.030552274 -0.24396577 0.13347971 0.2225846 0.23622955 -0.03315881 -0.1052207 0.19448549
-0.04166927 0.07059695 0.16823362 -0.041983437 -0.30908996 -0.042470444 0.061927095 -0.23483185
-0.015460636 -0.24464002 0.014983486 0.16883336 0.27251735 -0.064897574 0.06804677 -0.11326567
-0.174544 -0.14114292 -0.111676775 -0.07076078 0.04296583 0.33010262 0.041356128 -0.06389143
0.048881605 -0.085492395 0.14180812 0.21167944 0.1649895 0.087207474 -0.108046785 -0.09378613
0.2234049 -0.117795154 0.17854026 -0.09518165 -0.19754875 -0.21129963 0.21992487 0.21497677
-0.10332506 0.032814596 0.24392013 0.22291091 0.1960194 0.10351246 -0.040251736 -0.24709965
-0.20289588 -0.21980473 -0.021914225 -0.068686396 -0.016195338 0.11474646 -0.004380036 -0.2098292
-0.15431194 -0.27446625 0.25740302 0.077381834 0.051424067 0.2340013 0.24060492 0.034413345
00000000: 7c48 ca3c b1cc 6e3e 24d7 32be 7bb6 103e
00000010: 8cac 603e 7bde 5c3e f1a3 92bd cc0a 473e
00000020: 800c 813e fbe6 5fbe 88d7 483e c8ea 11be
00000030: c5cb aa3d 1a3e 113e b609 623e 7624 023d
00000040: bc11 3c3e cc95 783d 00b3 f3bd ef0d 6d3d
00000050: e0dd 07be 98a3 78be f906 813d b983 83bd
00000060: b756 a13d a3b8 bebc b160 10be 0a11 6f3c
00000070: f316 34be 5b43 013e 9d7a 6ebe 938e 4d3b
00000080: a86f 80be 5d64 cc3d fd0d 373e 037a e53d
00000090: c0b5 2dbe a5f7 053e 8437 39be 5059 15be
000000a0: bd3b 003e 769d 8dbd eae2 393d 77b0 873d
000000b0: 3dc7 bf3c 093c 6fbd 3749 17be edf6 7b3c
000000c0: 8090 033e 5fd1 393e a523 f93d b861 93be
000000d0: 2a19 02be 5e8c 17bd aaff 04bd cb91 3bbd
000000e0: 542e da3d 2daa 57bd 9236 913e 2ff9 723e
000000f0: f7b8 f83d ac68 4d3e c067 ffbd a979 4c3e
00000100: 4e60 91bd c7e5 bc3d ce21 f4bd 81dd b1bd
00000110: f181 973e 4e93 623d cba0 8bbe e9b0 213d
00000120: 810e 11be 0807 f03d 9af4 d2bd 56c3 073d
00000130: c6e8 6a3e e20f 033e 6cdc 2f3e 7fb2 69be
00000140: c442 06be 3543 583d a8cf 49bd c6ed e6bd
00000150: f4a8 e6bd ba63 813e 69e4 6ebe 4e7b 5ebe
00000160: a5eb 7ebe 4a39 843e 7f82 5dbe 0b82 c8bd
00000170: ad6a 05be ad98 3b3e 5135 863e c3e0 f5bd
00000180: e2a9 0a3d d3e6 45be e186 f0bd ac68 4e3e
00000190: 609c 1ebe fb68 6cbe 2051 413e 1386 d1bc
000001a0: ed8a 413e d81d 603d 47bc 2d3b e756 1f3d
000001b0: c32b 093e 56b8 6b3d 6dbf 293e 8c3d 6c3e
000001c0: 6953 26be e4dc 6dbe a2b5 90bb c6b4 79be
000001d0: a0d6 ef3c 29d0 71be 9aee f23d 9848 cbbd
000001e0: d283 b8b8 6c13 793e 87ff 063d d059 df3d
000001f0: e179 97bd 6900 1cbe 316c 143e 748d 8dbd
00000200: e2f2 45bd 2895 4fbd b2a8 733e b546 aebd
00000210: 8303 03bc c30c bf3d a577 18be f5d9 ce3d
00000220: 1dc7 073e 84d7 073e 8ce1 2f3d 1a1c b03d
00000230: c006 3bbe 3737 dd3b 4ca7 a9bd 6e81 27be
00000240: f7c6 9bbd ea89 4c3e 64e6 4dbe 79ad babd
00000250: 3f74 e1bd 38b9 063d aa38 c43c 81f1 1dbd
00000260: 50cc 433e 8e71 61be 03b8 2f3e 3edb f23d
00000270: 7321 2dbe 5c8c 8c3d a402 ac3d b83c 57be
00000280: 5a1b a73d dad9 c2bd 89e2 293e 8866 983d
00000290: c39e 963d 9197 5dbd 1a15 333e 2354 05be
000002a0: 606d 55be ed55 433e 1139 023d 3b80 0ebe
000002b0: 7452 803d 8618 65be 436f 36be 4690 27be
000002c0: 02bd 03be 395d 82be e7d4 d5bd e17d 1cbe
000002d0: cb7d 583d 4a3e 313e fcef 843d 0328 cbbd
000002e0: c348 fabc 2ad2 79be e8ae 083e 38ed 633e
000002f0: 29e6 713e 88d1 07bd f37d d7bd 3427 473e
00000300: 65ad 2abd 2295 903d 6f45 2c3e d3f6 2bbd
00000310: 0a41 9ebe 7df5 2dbd 44a7 7d3d c377 70be
00000320: 9b4e 7dbc ea82 7abe 4c7d 753c a7e2 2c3e
00000330: 6587 8b3e 05e9 84bd 1b5c 8b3d d5f7 e7bd
00000340: aabb 32be c587 10be cbb6 e4bd 07eb 90bd
00000350: f0fc 2f3d 3603 a93e 0b65 293d 83d9 82bd
00000360: 1438 483d a316 afbd 2636 113e 7fc2 583e
00000370: 02f3 283e d599 b23d a247 ddbd f112 c0bd
00000380: 41c4 643e 963e f1bd 42d3 363e 99ee c2bd
00000390: 384a 4abe ee5e 58be fc33 613e df22 5c3e
000003a0: 179c d3bd 9968 063d 33c6 793e c242 643e
000003b0: 4fb9 483e 57fe d33d 01df 24bd b107 7dbe
000003c0: f0c3 4fbe 7e14 61be 7685 b3bc 74ab 8cbd
000003d0: 16ac 84bc 3100 eb3d 6886 8fbb 77dd 56be
000003e0: f303 1ebe d786 8cbe 54ca 833e 5e7a 9e3d
000003f0: 0ba2 523d 099e 6f3e 2361 763e 02f5 0c3d

encoder.transformer.out_proj.bias f4 [16]
-0.0017734052 -0.0044355663 -0.0144377 -0.00043301517 -0.060455933 -0.06318988 0.025119295 0.0423166
0.060249522 -0.030671988 -0.03985727 0.004000947 -0.010784694 -0.005081098 0.014154128 0.04914188
00000000: 9b71 e8ba 3a58 91bb 1a8c 6cbc 5006 e3b9
00000010: a4a0 77bd b269 81bd fbc6 cd3c 2c54 2d3d
00000020: 34c8 763d d243 fbbc 6041 23bd 601a 833b
00000030: 49b2 30bc 577f a6bb b7e6 673c ff48 493d

encoder.ln1.weight f4 [16]
1.0255654 1.0119897 0.96339774 0.9207954 0.92512393 1.0865133 1.0261852 1.0685848
1.062557 0.99093795 0.9423697 0.92430574 0.97792065 0.99658746 0.94066525 1.058693
00000000: ba45 833f e188 813f 3ca1 763f 3fb9 6b3f
00000010: ecd4 6c3f de12 8b3f 095a 833f 63c7 883f
00000020: de01 883f 1cae 7d3f 243f 713f 4d9f 6c3f
00000030: 0259 7a3f 5b20 7f3f 70cf 703f 4183 873f

encoder.ln1.bias f4 [16]
-0.007932868 -0.0050594583 0.009671614 0.0387007 -0.05985308 -0.0515942 0.032535367 0.061367333
0.036409948 -0.018234638 -0.042638127 0.017813051 0.006297241 -0.003627933 0.010969346 0.060887307
00000000: dcf8 01bc d0c9 a5bb b075 1e3c a084 1e3d
00000010: 8128 75bd 7154 53bd ce43 053d 505c 7b3d
00000020: 9922 153d cf60 95bc 51a5 2ebd adec 913c
00000030: 1659 ce3b 9ec2 6dbb c6b8 333c f864 793d

encoder.ln2.weight f4 [16]
1.015382 0.96187675 1.00731 0.9571612 0.97844005 1.0428965 1.016274 1.0679712
0.9865887 0.9763065 0.98807585 0.9477847 0.96933305 0.98124903 1.001587 1.0034833
00000000: 0af8 813f 8e3d 763f 89ef 803f 8408 753f
00000010: 0c7b 7a3f a27d 853f 4415 823f 48b3 883f
00000020: 1491 7c3f 39ef 793f 8af2 7c3f 05a2 723f
00000030: 3626 783f 2333 7b3f 0134 803f 2472 803f

encoder.ln2.bias f4 [16]
0.020143181 0.03500258 -0.0122179985 0.0038917444 -0.057343956 -0.03490564 0.030460177 0.03983203
0.05507303 -0.023464222 -0.029179212 0.009730514 -0.0015922181 -0.021130564 0.024035547 0.03021798
00000000: 5003 a53c de5e 0f3d 002e 48bc a30c 7f3b
00000010: 7fe1 6abd 37f9 0ebd 9f87 f93c e926 233d
00000020: 4294 613d 0a38 c0bc 3e09 efbc bc6c 1f3c
00000030: f9b1 d0ba 011a adbc 32e6 c43c b28b f73c

decoder.output_head.weight f4 [24, 16]
0.067066215 -0.17126112 0.038010634 0.10081161 0.19110423 0.047372736 0.0075879577 0.059261505
0.22856046 -0.1655395 0.0064780507 -0.08456917 -0.17488313 0.23140503 -0.25587127 0.092310876
0.07544928 -0.10530643 -0.14527458 0.17889631 0.1577855 0.111955166 0.17207289 0.005314176
0.14134699 -0.14331047 -0.0081761265 0.14408945 -0.008808501 -0.113051794 0.03469804 0.13677357
0.16285793 -0.012046555 0.14225996 0.05347093 -0.12854032 -0.07042599 -0.023417229 0.05085902
-0.16748872 0.097245775 0.044996403 -0.16755939 -0.15320481 -0.123912014 0.030584127 0.1071254
0.122606434 -0.17449567 0.14373653 0.08745945 0.050465193 0.10577584 0.19366385 0.075822346
0.021303045 -0.11957979 0.22090356 0.19779634 0.026655298 0.078353465 0.09211437 -0.08996694
0.19532734 0.096716724 0.20410948 -0.17716692 -0.062043518 0.11092562 0.18429533 0.08739805
0.07989267 -0.059516907 -0.039367586 0.055286583 -0.20515989 0.213265 -0.26337263 -0.09889511
0.16102508 -0.023422962 -0.122136444 0.08102136 -0.09262084 -0.23326524 0.1505978 -0.13339204
0.060561545 0.016216883 -0.16613735 0.13015841 -0.007839417 0.06529306 0.05052456 -0.14639445
-0.14057247 0.1683977 -0.07710486 -0.01883201 -0.20751327 0.048634518 -0.3031158 0.09338018
-0.05644703 -0.05533478 0.024696674 -0.15055947 -0.0267715 0.032376576 -0.09902145 0.0116587635
0.029708866 -0.17876115 0.27544054 0.06281681 -0.007780857 0.13800322 0.07589152 0.023639591
0.1573225 -0.12013305 -0.29170707 -0.06184115 0.058990687 0.088770606 -0.06593949 0.10353713
-0.10304419 0.026948802 -0.13783786 0.21755707 -0.047963366 0.045962345 0.15423481 0.032174464
0.09630671 -0.1540363 0.10975908 -0.0028186606 0.085427456 0.18201873 0.26222062 -0.18149355
0.04119595 -0.053571004 0.042202737 0.15667056 -0.086839296 0.08740132 -0.11246241 0.23481286
0.09121405 -0.20317875 0.16755058 -0.08325564 -0.07986432 0.03387787 0.22206102 -0.02938307
-0.21451803 -0.010737915 0.072407566 -0.010611065 -0.014327639 -0.07902444 0.17696965 0.06946425
0.12120135 -0.27937484 0.05519292 -0.0863766 0.15001072 -0.047176734 -0.08715203 0.044697225
0.16499421 -0.2584735 0.15641534 0.112860486 0.07353715 -0.03695711 -0.15378839 -0.009480617
-0.021749131 0.098740615 -0.07650387 -0.05447144 -0.2363087 0.18023823 -0.20204325 0.06483131
0.035583608 -0.13443366 -0.19963732 0.24797398 0.24748956 0.16793822 -0.24963097 -0.2890307
-0.20186144 -0.1467737 0.17984249 -0.28520176 0.10069631 0.09013666 0.038405422 -0.11331149
0.17732026 -0.16281672 -0.07342092 -0.07790245 0.21345687 0.078662105 -0.20922653 -0.008293387
0.0063703675 -0.20296977 -0.06514902 0.059543125 0.049233895 -0.119335756 0.15441333 0.0018609796
0.0749257 -0.052399084 -0.13887484 0.20811564 0.19787124 0.17514749 -0.07555271 0.17017813
-0.0024025189 0.088194214 0.065109126 0.022245428 0.082767844 -0.073286965 -0.097107284 0.16158552
-0.091981724 -0.06972555 -0.026513746 0.13301086 -0.12125465 0.1950162 -0.20713137 -0.0122406725
0.0062975497 0.12709075 0.116179176 0.1492875 -0.028659055 -0.07018527 0.14981373 0.08886337
00000000: 035a 893d 135f 2fbe 0ab1 1b3d 5176 ce3d
00000010: d4b0 433e ea09 423d 67a4 f83b 31bc 723d
00000020: c10b 6a3e 3083 29be d445 d43b 9a32 adbd
00000030: 9014 33be 71f5 6c3e 8f01 83be 7c0d bd3d
00000040: 2785 9a3d e6aa d7bd dcc2 14be 9830 373e
00000050: 8692 213e c048 e53d e033 303e 8a22 ae3b
00000060: 44bd 103e fbbf 12be 29f5 05bc 2f8c 133e
00000070: 8851 10bc b387 e7bd 881f 0e3d 5f0e 0c3e
00000080: 3bc4 263e ea5e 45bc 98ac 113e 5504 5b3d
00000090: 13a0 03be 803b 90bd 7dd5 bfbc 8c51 503d
000000a0: 2a82 2bbe cb28 c73d 264e 383d b094 2bbe
000000b0: b9e1 1cbe 95c5 fdbd 908b fa3c 9064 db3d
000000c0: 1519 fb3d feae 32be ab2f 133e f11d b33d
000000d0: 97b4 4e3d 01a1 d83d d14f 463e bf48 9b3d
000000e0: b983 ae3c 40e6 f4bd 8b34 623e 208b 4a3e
000000f0: 365c da3c c877 a03d 75a6 bc3d 9640 b8bd
00000100: e403 483e 6b13 c63d 1302 513e 3f6b 35be
00000110: 5821 7ebd f92c e33d eab7 3c3e c0fd b23d
00000120: c59e a33d 00c8 73bd e83f 21bd 2f74 623d
00000130: 6f15 52be 2462 5a3e c7d8 86be 8589 cabd
00000140: c2e3 243e 83e1 bfbc ac22 fabd 87ee a53d
00000150: ffaf bdbd 15dd 6ebe 4f36 1a3e ec97 08be
00000160: 620f 783d 45d9 843c e91f 2abe 3f48 053e
00000170: e670 00bc 5eb8 853d d7f2 4e3d 6de8 15be
00000180: 3bf2 0fbe 7270 2c3e 27e9 9dbd 9645 9abc
00000190: 5c7e 54be fd34 473d fe31 9bbe 1c3e bf3d
000001a0: 0035 67bd b9a6 62bd ae50 ca3c 432c 1abe
000001b0: e84f dbbc 4d9d 043d c2cb cabd 6604 3f3c
000001c0: 0260 f33c 2a0d 37be 8b06 8d3e 1aa6 803d
000001d0: 8ff6 febb b750 0d3e 036d 9b3d d1a7 c13c
000001e0: 2619 213e 5108 f6bd a15a 95be 254d 7dbd
000001f0: 38a0 713d 5dcd b53d 490b 87bd 460b d43d
00000200: d508 d3bd bcc3 dc3c 5e25 0dbe 48c7 5e3e
00000210: 3c75 44bd 0343 3c3d bbef 1d3e 5fc9 033d
00000220: 743c c53d b1bb 1dbe 5ec9 e03d 47b9 38bb
00000230: 97f4 ae3d 1e63 3a3e c841 863e 72d9 39be
00000240: 16bd 283d 456d 5bbd c7dc 2c3d 3f6e 203e
00000250: cdd8 b1bd 77ff b23d b152 e6bd c872 703e
00000260: 6fce ba3d 170e 50be 6192 2b3e ef81 aabd
00000270: e88f a3bd 85c3 0a3d f763 633e c4b4 f0bc
00000280: 9daa 5bbe 14ee 2fbc 6b4a 943d 08da 2dbc
00000290: 79be 6abc 91d7 a1bd 8837 353e 4643 8e3d
000002a0: 6a38 f83d 380a 8fbe f911 623d 37e6 b0bd
000002b0: 699c 193e 643c 41bd c37c b2bd 7014 373d
000002c0: 3ef4 283e a356 84be 582b 203e 6623 e73d
000002d0: a59a 963d 5760 17bd b47a 1dbe 9754 1bbc
000002e0: 3c2b b2bc 8538 ca3d 10ae 9cbd 721d 5fbd
000002f0: e8fa 71be 5f90 383e 6de4 4ebe 47c6 843d
00000300: 1ec0 113d faa8 09be ba6d 4cbe e4ec 7d3e
00000310: e76d 7d3e fff7 2b3e 439f 7fbe d5fb 93be
00000320: c4b4 4ebe d84b 16be a128 383e f705 92be
00000330: de39 ce3d 9299 b83d 014f 1d3d db0f e8bd
00000340: 7193 353e 6db9 26be b55d 96bd 528b 9fbd
00000350: 7094 5a3e 9919 a13d 7b3f 56be fce0 07bc
00000360: 84be d03b 4fd7 4fbe d96c 85bd 7ee3 733d
00000370: 7ba9 493d 4e66 f4bd 871e 1e3e 1dec f33a
00000380: a572 993d 6ca0 56bd 3535 0ebe 441c 553e
00000390: c29e 4a3e dd59 333e 61bb 9abd 2d43 2e3e
000003a0: 9473 1dbb 2b9f b43d ef57 853d 0b3c b63c
000003b0: 3082 a93d 7a17 96bd 2fe0 c6bd ad76 253e
000003c0: ea60 bcbd 45cc 8ebd 5b33 d9bc 0034 083e
000003d0: 5c54 f8bd 54b2 473e 3f1a 54be 1a8d 48bc
000003e0: ad5b ce3b 1424 023e 59ef ed3d d3de 183e
000003f0: 65c6 eabc 4bbd 8fbd c568 193e 00fe b53d

decoder.output_head.bias f4 [24]
0.019174539 -0.03764538 -0.025904363 -0.083416186 -0.005942402 -0.047763918 0.2562096 -0.09387194
0.07289241 0.13816138 0.00079444307 -0.014093013 -0.14891313 0.1596312 0.053524606 -0.103055835
0.098961405 -0.063845895 -0.055027608 -0.07167467 0.21612929 0.121965125 0.14077024 -0.15101922
00000000: ec13 9d3c 0b32 1abd 6335 d4bc 1bd6 aabd
00000010: 7bb8 c2bb 19a4 43bd e82d 833e ef3f c0bd
00000020: 9e48 953d 2d7a 0d3e 2c42 503a 61e6 66bc
00000030: af7c 18be 5c76 233e 9e3c 5b3d f00e d3bd
00000040: 47ac ca3d a3c1 82bd a164 61bd 2bca 92bd
00000050: ff50 5d3e dac8 f93d 1326 103e c8a4 1abe
