experiments/model_16_60_2026-01-17_9323/model.pt (torch, 48032 bytes, 21 tensors)

encoder.graph_embed.GCN_in.A f4 [9, 9]
-0.1992325 1.5003936 -1.1013838 -0.071984716 -1.3908335 0.81952244 0.04995088 -1.3332769
0.19393936 0.29661676 -0.8044049 -0.12895615 -0.9740514 0.34820858 0.64528346 1.2125221
-0.53001994 2.4557817 -0.6349839 -1.600685 0.9029194 -0.4246387 0.004668896 -1.1429104
0.010087726 -0.76821125 1.1216952 -0.5088772 0.42281762 1.854718 0.95896184 -0.16926378
1.4993894 0.844237 -0.46136674 0.706076 -0.6166679 -0.89400184 -0.12185406 1.5222372
-0.3048932 -0.44591272 -0.33920336 -0.8953263 0.2007177 1.1426194 -0.3008619 0.24333581
-0.60406303 -0.5841433 -0.3776271 -0.19357336 -0.28972492 -0.23522341 -0.0058797607 -0.038230885
0.7289468 0.65204036 0.22060806 0.6958539 -0.29588267 -0.03589046 1.1869394 0.75398827
-2.0594766 -1.037287 0.52610034 0.4686058 -0.08500481 -1.2826589 0.39911267 0.6947504
0.5277163 -0.64681745 -1.1866692 0.36636418 -0.2351259 -1.1211348 1.5489187 -0.5377805
-0.1575645
00000000: 9b03 4cbe e60c c03f 25fa 8cbf b96c 93bd
00000010: d506 b2bf 39cc 513f 4b99 4c3d d1a8 aabf
00000020: 0a98 463e 27de 973e 7bed 4dbf 150d 04be
00000030: 6f5b 79bf 6548 b23e 4c31 253f ed33 9b3f
00000040: 63af 07bf 872b 1d40 4e8e 22bf 3fe3 ccbf
00000050: ba25 673f 3e6a d9be 8afd 983b e34a 92bf
00000060: fd46 253c 7ea9 44bf b593 8f3f c745 02bf
00000070: 8d7b d83e 6667 ed3f 867e 753f 7c53 2dbe
00000080: feeb bf3f eb1f 583f 4338 ecbe 66c1 343f
00000090: f3dd 1dbf 4edd 64bf 9f8e f9bd abd8 c23f
000000a0: f61a 9cbe ac4e e4be 10ac adbe 1b34 65bf
000000b0: f188 4d3e 5a41 923f 920a 9abe 062d 793e
000000c0: e0a3 1abf 6a8a 15bf 5758 c1be 1838 46be
000000d0: d356 94be 68de 70be 02ab c0bb fd97 1cbd
000000e0: 429c 3a3f 1eec 263f 14e7 613e 7b23 323f
000000f0: ef7d 97be e001 13bd a1ed 973f 6005 413f
00000100: 77ce 03c0 d2c5 84bf 83ae 063f 19ed ef3e
00000110: 0017 aebd 2b2e a4bf 7f58 cc3e 2adb 313f
00000120: 6a18 073f d495 25bf c7e4 97bf 1694 bb3e
00000130: d8c4 70be 5881 8fbf f842 c63f fcab 09bf
00000140: 9758 21be

encoder.graph_embed.GCN_in.linear.weight f4 [16, 16]
-0.30513445 -0.12843712 -0.13756527 -0.02599393 0.19971749 0.29938164 -0.18325807 -0.065434285
-0.044543773 0.1227246 0.10719415 0.20351298 -0.042283926 -0.1091251 -0.035743825 0.14997853
0.021626104 0.17691584 0.030230332 -0.15092891 0.018304067 -0.020286523 0.24597384 -0.22811957
-0.10174106 0.05901814 0.27894282 -0.23880458 -0.03584978 0.13707529 0.06384991 0.180946
0.03402397 0.20493543 0.028059194 -0.06493664 0.27095947 0.16072129 -0.14017643 0.20454444
-0.09460744 -0.10806105 -0.13764615 0.21916777 -0.0697389 -0.02346067 0.013868069 0.08152172
0.15426092 -0.2721093 -0.044227883 0.22006589 0.17016532 0.049560156 -0.026203647 -0.20710257
-0.028057616 0.017804608 0.2968682 -0.062383786 -0.07763096 -0.1093227 -0.07112299 -0.10569844
0.2384725 0.11475245 -0.12730503 -0.014062637 -0.037532 0.09550107 0.22356401 0.003465297
0.049639795 0.150851 -0.13688448 0.21296337 0.052594204 -0.21626805 0.03916787 -0.16152948
0.10474787 -0.2463337 -0.008502083 -0.13446508 -0.060104907 0.22528851 0.044575807 -0.05870923
-0.059074745 -0.010677182 0.07291974 0.14311573 -0.17407453 -0.040471926 0.13231674 -0.008253345
0.020148141 0.00993665 -0.13226087 0.229681 -0.07617865 0.06945666 0.13169159 -0.013053972
-0.110614486 0.330329 0.021482337 0.025689911 0.08713166 0.047810342 -0.15438998 0.17134652
0.1486772 -0.10912302 0.14478573 -0.15570402 -0.016652508 0.1358851 0.081700325 0.22622406
0.2526362 0.22724847 0.015027622 0.07721958 0.08909664 0.109333254 -0.16257259 0.032720067
0.114236124 0.08312112 0.057325114 0.1815523 -0.18109144 -0.19797687 -0.15784025 0.20544805
0.121128134 -0.31928557 -0.027243676 0.24581774 -0.043640755 -0.12048593 -0.067350864 0.22541805
0.18740274 0.12923557 0.059052665 0.051241025 0.16591476 -0.29960158 0.005014514 0.10010761
0.1309811 0.17722346 -0.048199225 -0.016943745 -0.14791578 -0.013424086 -0.07325519 0.19761014
-0.1571473 0.20521687 -0.17151733 -0.047841154 0.021207787 0.05673872 0.10319567 -0.14572415
0.08376407 0.22045904 -0.015361129 -0.08231333 -0.12071171 -0.11655068 -0.10630132 -0.017342329
-0.024521407 0.11245223 0.19306724 -0.18827486 -0.051233105 0.26899385 -0.08344018 0.18382293
-0.16546537 -0.074786566 -0.12857093 -0.0978366 0.07727358 0.021420427 -0.06891161 -0.039922245
0.019353617 0.04839523 -0.07623561 -0.090235285 0.18386443 -0.058297917 -0.03319622 -0.03794611
-0.13370615 -0.09288721 -0.06386846 0.051103573 -0.045759656 0.003279406 0.24974729 -0.021237705
0.049064957 0.058865033 0.060909953 -0.1331121 -0.15735132 0.036124554 0.027119288 0.32847786
-0.18905641 0.021164697 0.14467216 0.2523581 -0.061174136 0.21245204 0.23960038 0.09844236
0.13007577 -0.035792965 0.21353364 0.11784642 -0.15198857 -0.1597743 0.25761598 -0.1182988
0.010465596 0.12257217 -0.19928606 0.1877064 0.058164764 -0.058140095 0.12347534 -0.16197282
-0.124661304 0.14823985 0.09206678 0.056942437 0.08067581 -0.1033744 -0.0027422563 0.2171538
0.005028766 0.18945047 0.18624282 -0.19763635 0.098517686 -0.014589497 -0.01893458 -0.122884095
00000000: 953a 9cbe 0585 03be e9dd 0cbe 39f1 d4bc
00000010: be82 4c3e 8d48 993e 01a8 3bbe 6902 86bd
00000020: 8873 36bd 0957 fb3d 9b88 db3d b565 503e
00000030: e931 2dbd fb7c dfbd 1e68 12bd f993 193e
00000040: 3a29 b13c 6d29 353e 9aa5 f73c 1c8d 1abe
00000050: 69f2 953c ec2f a6bc 91e0 7b3e 2d98 69be
00000060: 9e5d d0bd 01bd 713d 98d1 8e3e 3089 74be
00000070: 38d7 12bd 775d 0c3e bec3 823d e949 393e
00000080: b85c 0b3d 98da 513e 65dc e53c 80fd 84bd
00000090: 33bb 8a3e 1f94 243e 698a 0fbe 1974 513e
000000a0: 8cc1 c1bd 1d4f ddbd 1df3 0cbe 846d 603e
000000b0: 45d3 8ebd 9730 c0bc e636 633c dcf4 a63d
000000c0: 93f6 1d3e e951 8bbe 4c28 35bd f458 613e
000000d0: d13f 2e3e 97ff 4a3d 08a9 d6bc b212 54be
000000e0: 16d9 e5bc f8da 913c 1cff 973e 2486 7fbd
000000f0: fbfc 9ebd 94e4 dfbd eea8 91bd 6c78 d8bd
00000100: 2332 743e 5503 eb3d 405c 02be fa66 66bc
00000110: 28bb 19bd 1196 c33d f7ed 643e 091a 633b
00000120: 1953 4b3d af78 1a3e 722b 0cbe 1213 5a3e
00000130: 056d 573d 5f75 5dbe 7d6e 203d fc67 25be
00000140: 0d86 d63d e73e 7cbe 524c 0bbc 37b1 09be
00000150: 9030 76bd 08b2 663e 1f95 363d 1779 70bd
00000160: 5cf8 71bd 59ef 2ebc f256 953d ee8c 123e
00000170: 9840 32be e4c5 25bd 0a7e 073e 0a39 07bc
00000180: b70d a53c 55cd 223c 656f 07be 7f31 6b3e
00000190: 8d03 9cbd 4b3f 8e3d 29da 063e 54e0 55bc
000001a0: d989 e2bd e220 a93e bafb af3c a673 d23c
000001b0: 1572 b23d c7d4 433d 6818 1ebe 7675 2f3e
000001c0: d63e 183e e47b dfbd b642 143e e070 1fbe
000001d0: d76a 88bc 7725 0b3e 8052 a73d 48a7 673e
000001e0: 8859 813e d3b3 683e 6a36 763c 4d25 9e3d
000001f0: 4d78 b63d 1dea df3d 6e79 26be 7a05 063d
00000200: a1f4 e93d 683b aa3d bdcd 6a3d d9e8 393e
00000210: 0970 39be 73ba 4abe e0a0 21be f960 523e
00000220: 0712 f83d 6679 a3be 212e dfbc a5b7 7b3e
00000230: a6c0 32bd 54c1 f6bd 40ef 89bd fdd3 663e
00000240: 81e6 3f3e 5456 043e 35e1 713d 1ce2 513d
00000250: 8fe5 293e 6165 99be cb50 a43b 3805 cd3d
00000260: e91f 063e 117a 353e 8d6c 45bd 9ccd 8abc
00000270: 3c77 17be b3f0 5bbc d106 96bd 505a 4a3e
00000280: 39eb 20be 5f24 523e 3da2 2fbe 16f5 43bd
00000290: f4bb ad3c dc66 683d 4058 d33d b638 15be
000002a0: 7f8c ab3d 04c0 613e 3fad 7bbc e493 a8bd
000002b0: b337 f7bd 1fb2 eebd 82b4 d9bd 8011 8ebc
000002c0: 1ee1 c8bc 5b4d e63d 6bb3 453e 20cb 40be
000002d0: ced9 51bd 90b9 893e afe2 aabd 143c 3c3e
000002e0: c16f 29be b329 99bd 19a8 03be 8e5e c8bd
000002f0: 9c41 9e3d e479 af3c 8821 8dbd 8285 23bd
00000300: 7a8b 9e3c 143a 463d 6a21 9cbd 47cd b8bd
00000310: f546 3c3e ccc9 6ebd c2f8 07bd 616d 1bbd
00000320: 44ea 08be a63b bebd 78cd 82bd fb51 513d
00000330: 7a6e 3bbd 4eeb 563b c1bd 7f3e b2fa adbc
00000340: 56f8 483d 761c 713d b77c 793d 8a4e 08be
00000350: b420 21be 57f7 133d 4529 de3c 402e a83e
00000360: 0198 41be 9661 ad3c f024 143e 1535 813e
00000370: bb91 7abd 078d 593e cd59 753e 269c c93d
00000380: 9532 053e a59b 12bd 90a8 5a3e 7759 f13d
00000390: e4a2 1bbe e09b 23be 3ee6 833e a446 f2bd
000003a0: e477 2b3c 1e07 fb3d a511 4cbe 1b36 403e
000003b0: 2d3e 6e3d 4f24 6ebd a4e0 fc3d 34dc 25be
000003c0: 6d4e ffbd 30cc 173e 828d bc3d 793c 693d
000003d0: 5c39 a53d f5b5 d3bd 6db7 33bb 915d 5e3e
000003e0: 59c8 a43b 4eff 413e 70b6 3e3e 2f61 4abe
000003f0: a4c3 c93d c908 6fbc b11c 9bbc a8aa fbbd

encoder.graph_embed.GCN_in.linear.bias f4 [16]
-0.0053347647 -0.15593067 0.02173702 0.21379635 0.25150067 0.24530545 -0.071684085 0.051189728
-0.26823476 0.23227035 0.06355969 0.039364144 -0.24027155 -0.19991529 0.09912581 0.14823756
00000000: 40cf aebb 4aac 1fbe d611 b23c 6eed 5a3e
00000010: b2c4 803e 5a31 7b3e 1bcf 92bd 52ac 513d
00000020: 1156 89be 47d8 6d3e 952b 823d 4c3c 213d
00000030: bf09 76be 98b6 4cbe 7902 cb3d 96cb 173e

encoder.graph_embed.bn.weight f4 [16]
0.89922506 0.9668292 0.9046674 1.0178211 0.95250446 0.9782112 0.9855949 1.04199
1.0405036 0.971625 1.0749351 0.9495117 0.97817874 0.9670326 0.9570931 1.0796027
00000000: 9d33 663f 1e82 773f 4898 673f f647 823f
00000010: 55d7 733f 0d6c 7a3f f34f 7c3f ee5f 853f
00000020: 392f 853f 6abc 783f 7997 893f 3313 733f
00000030: ec69 7a3f 738f 773f 0e04 753f 6c30 8a3f

encoder.graph_embed.bn.bias f4 [16]
0.07252375 0.013057358 0.02466424 -0.05921366 -0.067627564 -0.10173645 0.08811334 -0.027539866
0.047176424 -0.06762998 -0.052330904 0.019918168 0.09840304 0.07653204 -0.0070411367 -0.008102473
00000000: 5587 943d 87ee 553c a90c ca3c 068a 72bd
00000010: 5280 8abd 335b d0bd c474 b43d 499b e1bc
00000020: 113c 413d 9681 8abd ee58 56bd 6d2b a33c
00000030: 8887 c93d d5bc 9c3d 56b9 e6bb 3cc0 04bc

encoder.graph_embed.bn.running_mean f4 [16]
0.019796904 -0.015767545 0.014882218 -0.012984263 0.019550884 0.03328152 -0.0043521426 -0.023241011
0.013311318 -0.06297709 0.05376964 -0.002362266 -0.0034286762 -0.0023998623 0.09290487 0.13311462
00000000: 1e2d a23c f02a 81bc 8cd4 733c f2bb 54bc
00000010: 2d29 a03c 3452 083d 6b9c 8ebb ef63 bebc
00000020: b717 5a3c 22fa 80bd 8e3d 5c3d 3fd0 1abb
00000030: a4b3 60bb 0247 1dbb e944 be3d 334f 083e

encoder.graph_embed.bn.running_var f4 [16]
0.003440895 0.012353935 0.007386236 0.0038982923 0.003149397 0.003337893 0.0025886605 0.0057974313
0.0019976753 0.0047631306 0.015864743 0.0032367837 0.0053251525 0.0060310694 0.0081647625 0.012503001
00000000: a380 613b 2968 4a3c 3d08 f23b 7e7a 7f3b
00000010: 1d66 4e3b 8dc0 5a3b 84a6 293b 61f8 bd3b
00000020: 6eeb 023b 0914 9c3b c7f6 813c 3820 543b
00000030: 9e7e ae3b 47a0 c53b 7fc5 053c 63d9 4c3c

encoder.graph_embed.GCN_layers.0.A f4 [9, 9]
-0.31421044 -0.6481764 0.9308835 -0.027833441 0.5015179 0.54936904 -0.46666744 1.2481875
-0.8059852 2.4559758 -0.24036421 0.34422567 -0.39287874 -0.2620416 0.59638816 1.7671489
-0.7691375 1.6205704 0.25440395 0.7152881 1.2495149 -0.66429263 -1.633025 0.57781243
0.21754292 -0.109308265 1.2155381 -2.3096044 0.16017301 -0.606556 -0.4674914 -1.1466895
-0.5446275 -0.14733958 -0.0659783 -1.2187213 1.2689424 -1.685848 -0.63751537 0.04959024
1.2341756 0.8263471 0.19680086 0.6803432 -0.15868373 -0.13902883 0.90936315 -2.277316
-0.1000361 -0.52298045 0.3091555 -0.41231185 0.071109645 0.27711418 -0.97342145 -0.39022297
0.2832187 0.21698233 1.2527769 -0.14288998 -1.8539084 -0.67613363 -1.3791032 -0.0136682745
1.1301438 0.20828108 -1.3562806 -1.8209592 0.43828365 -0.95255417 -0.792057 -0.020898446
0.30333167 -0.113685325 0.3203115 0.19046979 -0.9592461 -0.8933246 0.43895918 -0.040955313
-0.25151643
00000000: 31e0 a0be e3ee 25bf 624e 6e3f f502 e4bc
00000010: 7a63 003f 73a3 0c3f 09ef eebe 9cc4 9f3f
00000020: 0c55 4ebf b52e 1d40 0922 76be 593e b03e
00000030: 6727 c9be 512a 86be e5ac 183f ef31 e23f
00000040: 32e6 44bf da6e cf3f 3c41 823e 1f1d 373f
00000050: 1bf0 9f3f 150f 2abf f706 d1bf 84eb 133f
00000060: 92c3 5e3e 03dd dfbd c196 9b3f 8fd0 13c0
00000070: 6504 243e 4147 1bbf 085b efbe b9c6 92bf
00000080: b56c 0bbf 30e0 16be a21f 87bd 0fff 9bbf
00000090: b46c a23f dec9 d7bf 3534 23bf 231f 4b3d
000000a0: 77f9 9d3f 7c8b 533f 2a86 493e f92a 2e3f
000000b0: fd7d 22be 935d 0ebe 06cc 683f 8cbf 11c0
000000c0: badf ccbd 0ce2 05bf a149 9e3e 8a1a d3be
000000d0: efa1 913d e9e1 8d3e 2632 79bf 4ecb c7be
000000e0: 0b02 913e 9e30 5e3e fe5a a03f c051 12be
000000f0: df4c edbf 1817 2dbf 7486 b0bf e6f0 5fbc
00000100: 8da8 903f a347 553e 9a9a adbf 3115 e9bf
00000110: b766 e03e 97da 73bf 3fc4 4abf 3833 abbc
00000120: 4a4e 9b3e dad3 e8bd deff a33e 830a 433e
00000130: 2791 75bf ecb0 64bf 42bf e03e c2c0 27bd
00000140: c3c6 80be

encoder.graph_embed.GCN_layers.0.linear.weight f4 [16, 16]
0.19083577 -0.14029196 -0.23294008 -0.043910436 -0.020795314 0.054105885 0.2388919 -0.08906791
0.11684651 -0.16481264 0.2414712 -0.028152753 0.098703586 0.06404786 -0.17244245 -0.06701198
0.06125491 0.1859563 0.06819632 -0.17078045 0.19079146 -0.02797999 -0.10782261 0.0018666893
0.2047092 0.16992474 0.09657102 0.09685667 0.021434467 0.106989644 0.19670388 -0.16674449
0.2538252 0.15371858 0.30933094 0.11160221 0.17323844 -0.24159585 0.20073488 0.15732361
0.15561517 -0.08580659 0.18205573 0.03954456 -0.10915069 0.12712274 0.029246222 -0.18603261
0.22542031 0.014969156 -0.2699046 0.078984685 -0.26914623 -0.19520822 -0.13177477 -0.13813853
0.16176036 -0.16049361 -0.03514507 0.16661648 -0.15748191 -0.15035908 0.10573228 -0.25158334
0.122814536 0.10980312 0.14538707 -0.06518234 0.13071436 -0.264779 0.23403676 -0.22039022
0.10597873 0.2929438 -0.12053491 -0.2731056 0.13281137 0.26623216 -0.087891184 0.18291253
0.039063785 0.13719682 0.055067074 -0.16741261 0.03443347 0.103829116 -0.14207917 -0.133131
0.07697281 -0.1691696 0.15881887 0.23221113 -0.10182275 -0.0642255 0.14706601 0.05430919
-0.16244367 -0.06330819 -0.21606652 -0.17331429 -0.23830661 0.07183837 -0.23097509 0.24191575
0.28443918 0.21798857 0.041399017 -0.13083434 -0.23882955 -0.11989855 0.17673501 -0.100346185
0.0871728 0.21210042 -0.032068964 0.27808505 -0.13539198 0.14704868 -0.05127724 -0.09707691
0.19287194 0.0026162986 -0.19444396 0.1625748 0.05649595 -0.09554381 -0.12504235 0.016604165
0.13281679 -0.08760321 0.114224546 0.002757585 0.14341167 -0.0374481 -0.11183446 -0.06369215
0.100928284 -0.11194485 -0.099999554 0.084328376 -0.070752196 0.059965383 0.019567344 0.11538
0.29617676 -0.015259498 -0.08038288 0.06879213 -0.080862544 0.24506952 -0.016105054 0.11391578
0.07608727 0.043862075 0.0392993 -0.12380729 -0.121646635 -0.020238673 -0.29968414 0.044336665
-0.24773842 0.21841367 -0.22059873 -0.1795223 0.2095359 -0.118791565 0.12070597 -0.21285127
-0.0016462844 -0.04236599 0.26016808 0.096690305 0.0072702616 0.0019983351 0.14715345 -0.17466176
0.2540799 0.08704968 -0.23245218 0.08925163 -0.041394457 0.18469545 0.09710461 -0.04776777
0.03904731 -0.20195085 0.14839299 0.029061334 0.12247814 0.15276664 0.04181751 0.2636314
0.13648894 0.020115111 -0.061979696 0.015132126 0.1372649 0.13200487 0.22513546 -0.12385257
0.1424498 0.043687567 -0.05134798 0.123621516 0.21899827 -0.043559473 0.06756572 -0.21877235
-0.08300033 0.026896417 0.1712851 0.26787955 0.033708088 0.2094555 0.070906006 -0.08588062
-0.018003654 0.18369395 -0.13618451 0.07238453 -0.08961531 0.24584849 -0.14989278 0.17960727
-0.031768676 -0.13674188 0.02740608 -0.03178432 -0.09009434 -0.19435881 0.1478736 0.03397937
-0.11979512 0.19974108 -0.013621112 -0.018214677 -0.08812907 -0.004498998 0.31205404 0.11518002
-0.22254893 0.13292436 -0.21461174 -0.021381596 0.12529576 -0.046821855 0.030657237 -0.16003288
0.17559323 0.22671975 -0.07293518 0.20051478 -0.034198344 0.16545711 0.26733074 0.28546143
00000000: 746a 433e b2a8 0fbe d887 6ebe 6edb 33bd
00000010: ef5a aabc 229e 5d3d 14a0 743e 3d69 b6bd
00000020: 394d ef3d a5c4 28be 3a44 773e 9aa0 e6bc
00000030: 1b25 ca3d 862b 833d c194 30be 943d 89bd
00000040: 6ee6 7a3d 546b 3e3e 83aa 8b3d 12e1 2ebe
00000050: d65e 433e 4b36 e5bc 1ad2 dcbd b3ab f43a
00000060: 4a9f 513e c000 2e3e 07c7 c53d ca5c c63d
00000070: 5697 af3c 631d db3d be6c 493e 11bf 2abe
00000080: 60f5 813e 6768 1d3e a060 9e3e b38f e43d
00000090: 6b65 313e e764 77be 728d 4d3e 7119 213e
000000a0: 9559 1f3e 5ebb afbd d16c 3a3e 7af9 213d
000000b0: 668a dfbd 772c 023e c695 ef3c 557f 3ebe
000000c0: 95d4 663e 3141 753c f030 8abe b9c2 a13d
000000d0: 89cd 89be aae4 47be f7ef 06be 3074 0dbe
000000e0: 82a4 253e 7058 24be 47f4 0fbd 839d 2a3e
000000f0: f042 21be bbf7 19be 2a8a d83d 88cf 80be
00000100: 3086 fb3d 75e0 e03d 59e0 143e 527e 85bd
00000110: fcd9 053e 1d91 87be 55a7 6f3e f9ad 61be
00000120: 600b d93d bbfc 953e 02db f6bd 7fd4 8bbe
00000130: b4ff 073e 954f 883e 4b00 b4bd 6c4d 3b3e
00000140: 5901 203d 537d 0c3e 038e 613d 366e 2bbe
00000150: 1c0a 0d3d 5ca4 d43d 347d 11be 7e53 08be
00000160: eca3 9d3d cc3a 2dbe 6aa1 223e c1c8 6d3e
00000170: 7288 d0bd a988 83bd 7998 163e 5073 5e3d
00000180: a257 26be b9a7 81bd 8b40 5dbe 4d79 31be
00000190: a606 74be ff1f 933d bc84 6cbe c3b8 773e
000001a0: 03a2 913e 6538 5f3e 0492 293d 70f9 05be
000001b0: bc8f 74be 5f8d f5bd 06fa 343e 4d82 cdbd
000001c0: a787 b23d da30 593e bf5a 03bd 2a61 8e3e
000001d0: 32a4 0abe ee93 163e 1508 52bd 42d0 c6bd
000001e0: 3980 453e 3576 2b3b 511c 47be 027a 263e
000001f0: 4c68 673d 79ac c3bd 1a0b 00be 7505 883c
00000200: 2001 083e 5069 b3bd 8fee e93d 99b8 343b
00000210: 82da 123e 2e63 19bd 7709 e5bd 0871 82bd
00000220: 7db3 ce3d 5743 e5bd 91cc ccbd 5bb4 ac3d
00000230: 87e6 90bd 439e 753d b24b a03c 594c ec3d
00000240: 7ba4 973e f902 7abc c89f a4bd e3e2 8c3d
00000250: 439b a5bd 81f3 7a3e bfee 83bc ad4c e93d
00000260: a5d3 9b3d b8a8 333d 4ef8 203d ad8e fdbd
00000270: df21 f9bd 93cb a5bc 3370 99be 5d9a 353d
00000280: 24af 7dbe d5a7 5f3e a2e4 61be b2d4 37be
00000290: 9490 563e fe48 f3bd b134 f73d aff5 59be
000002a0: 23c8 d7ba f687 2dbd c034 853e 9105 c63d
000002b0: 603b ee3b 80f6 023b 65af 163e 88da 32be
000002c0: c316 823e 1a47 b23d f207 6ebe 8fc9 b63d
000002d0: 3c8d 29bd ce20 3d3e c8de c63d 23a8 43bd
000002e0: 12f0 1f3d 34cc 4ebe 55f4 173e 0912 ee3c
000002f0: d2d5 fa3d dc6e 1c3e d648 2b3d b2fa 863e
00000300: c2c3 0b3e 72c8 a43c 6cde 7dbd bdec 773c
00000310: 2c8f 0c3e 492c 073e e989 663e 6ba6 fdbd
00000320: 5cde 113e bcf1 323d 4252 52bd 472d fd3d
00000330: 1541 603e 6b6b 32bd e55f 8a3d dc05 60be
00000340: 14fc a9bd e055 dc3c 5c65 2f3e 8227 893e
00000350: 7e11 0a3d 817b 563e 2b37 913d 2ee2 afbd
00000360: 667c 93bc 441a 3c3e f473 0bbe 573e 943d
00000370: 3b88 b7bd b5bf 7b3e 7e7d 19be f8ea 373e
00000380: df1f 02bd 1006 0cbe b782 e03c 4630 02bd
00000390: 6283 b8bd ff05 47be 2d6c 173e f42d 0b3d
000003a0: 2557 f5bd ed88 4c3e 162b 5fbc f236 95bc
000003b0: 047d b4bd 556c 93bb 8cc5 9f3e 81e3 eb3d
000003c0: dee3 63be 531d 083e 2ec3 5bbe 7528 afbc
000003d0: 884d 003e 46c8 3fbd e324 fb3c a9df 23be
000003e0: b6ce 333e 3929 683e 0a5f 95bd bf53 4d3e
000003f0: 9013 0cbd 976d 293e 93df 883e 0028 923e

encoder.graph_embed.GCN_layers.0.linear.bias f4 [16]
0.12526941 -0.13741602 0.03069559 0.15401457 -0.014136291 0.026665656 0.069385074 0.0027992032
-0.037490983 -0.059683695 -0.015830511 -0.090716586 -0.08350943 -0.13381599 0.030147545 -0.022774458
00000000: a046 003e c9b6 0cbe 5175 fb3c ffb5 1d3e
00000010: e79b 67bc ef71 da3c c319 8e3d d672 373b
00000020: 2590 19bd e476 74bd fdae 81bc 9ec9 b9bd
00000030: fe06 abbd 0f07 09be fcf7 f63c 8091 babc

encoder.pos_enc.pe f4 [500, 16]
0.0 1.0 0.0 1.0 0.0 1.0 0.0 1.0
0.0 1.0 0.0 1.0 0.0 1.0 0.0 1.0
0.84147096 0.54030234 0.3109836 0.9504153 0.099833414 0.9950042 0.031617504 0.99950004
0.009999833 0.99995 0.0031622713 0.999995 0.0009999998 0.9999995 0.00031622782 0.99999994
0.9092974 -0.41614684 0.5911271 0.8065784 0.19866931 0.9800666 0.063203394 0.9980007
0.019998666 0.9998 0.006324511 0.99998003 0.0019999985 0.99999803 0.0006324556 0.9999998
0.14112 -0.9899925 0.8126489 0.58275366 0.2955202 0.9553365 0.094726086 0.99550337
0.0299955 0.99955004 0.009486687 0.999955 0.0029999954 0.9999955 0.00094868336 0.9999996
-0.7568025 -0.6536436 0.95358074 0.30113748 0.38941833 0.921061 0.12615407 0.99201065
0.039989334 0.9992001 0.01264877 0.99992 0.003999989 0.999992 0.0012649109 0.9999992
-0.9589243 0.2836622 0.99994653 -0.010342338 0.47942552 0.87758255 0.15745588 0.987526
0.049979165 0.99875027 0.015810724 0.999875 0.004999979 0.9999875 0.0015811383 0.99999875
-0.2794155 0.96017027 0.9471482 -0.3207964 0.5646424 0.8253356 0.18860027 0.98205394
0.059964005 0.99820054 0.018972522 0.99982 0.0059999637 0.999982 0.0018973658 0.9999982
0.6569866 0.75390226 0.8004216 -0.5994375 0.6442176 0.7648422 0.2195561 0.9755999
0.06994285 0.997551 0.022134129 0.999755 0.006999942 0.9999755 0.0022135929 0.99999756
0.98935825 -0.14550003 0.5743178 -0.8186324 0.717356 0.6967067 0.25029233 0.9681703
0.07991469 0.9968017 0.025295515 0.99968004 0.007999914 0.999968 0.0025298197 0.9999968
0.4121185 -0.91113025 0.29125923 -0.9566442 0.78332686 0.62161 0.28077832 0.95977265
0.089878544 0.9959527 0.028456647 0.99959505 0.008999879 0.9999595 0.0028460464 0.99999595
-0.5440211 -0.8390715 -0.02068357 -0.9997861 0.84147096 0.54030234 0.31098357 0.9504153
0.099833414 0.9950042 0.031617496 0.99950004 0.009999833 0.99995 0.0031622727 0.999995
-0.9999902 0.004425698 -0.33057496 -0.94377977 0.89120734 0.4535962 0.34087786 0.9401076
0.1097783 0.9939561 0.03477803 0.9993951 0.010999777 0.9999395 0.003478499 0.999994
-0.53657293 0.84385395 -0.6076834 -0.7941793 0.9320391 0.36235783 0.3704313 0.9288599
0.119712204 0.99280864 0.03793821 0.9992801 0.011999711 0.999928 0.0037947248 0.9999928
0.42016703 0.9074468 -0.82452846 -0.5658205 0.9635582 0.26749888 0.3996143 0.9166834
0.12963414 0.9915619 0.041098017 0.9991551 0.012999633 0.9999155 0.00411095 0.99999154
0.9906074 0.13673721 -0.9596054 -0.28134948 0.98544973 0.16996728 0.42839777 0.90359026
0.13954312 0.990216 0.044257414 0.99902016 0.013999541 0.999902 0.004427175 0.9999902
0.65028787 -0.7596879 -0.9995187 0.031022351 0.997495 0.07073732 0.45675287 0.8895936
0.14943813 0.9887711 0.047416367 0.9988752 0.014999436 0.9998875 0.0047433996 0.99998873
00000000: 0000 0000 0000 803f 0000 0000 0000 803f
00000010: 0000 0000 0000 803f 0000 0000 0000 803f
00000020: 0000 0000 0000 803f 0000 0000 0000 803f
00000030: 0000 0000 0000 803f 0000 0000 0000 803f
00000040: a46a 573f 4151 0a3f 3e39 9f3e 6b4e 733f
00000050: 7675 cc3d 98b8 7e3f 5b81 013d 3cdf 7f3f
00000060: 57d6 233c b9fc 7f3f 1c3e 4f3b acff 7f3f
00000070: 6d12 833a f8ff 7f3f 61cb a539 ffff 7f3f
00000080: b7c7 683f 3311 d5be 1b54 173f ec7b 4e3f
00000090: f86f 4b3e a5e5 7a3f c870 813d f97c 7f3f
000000a0: 3ed4 a33c e5f2 7f3f d83d cf3b b1fe 7f3f
000000b0: 6812 033b dfff 7f3f 60cb 253a fdff 7f3f
000000c0: c381 103e 2670 7dbf c209 503f 582f 153f
000000d0: 6c4e 973e ef90 743f c0ff c13d 4fd9 7e3f
000000e0: 1fb9 f53c 83e2 7f3f 0d6e 1b3c 0dfd 7f3f
000000f0: 929b 443b b5ff 7f3f 10b1 783a f9ff 7f3f
00000100: cfbd 41bf 3055 27bf de1d 743f b12e 9a3e
00000110: d761 c73e a7ca 6b3f 882e 013e 69f4 7d3f
00000120: dbcb 233d 94cb 7f3f c93c 4f3c c2fa 7f3f
00000130: 5712 833b 7aff 7f3f 5ecb a53a f3ff 7f3f
00000140: 107c 75bf 2c3c 913e 7ffc 7f3f e972 29bc
00000150: 4377 f53e 40a9 603f 1d3c 213e 81ce 7c3f
00000160: f4b6 4c3d 19ae 7f3f 7e85 813c cff7 7f3f
00000170: ddd6 a33b 2eff 7f3f 333e cf3a ebff 7f3f
00000180: 8c0f 8fbe b8cd 753f 4e78 723f 6d3f a4be
00000190: 688c 103f 3249 533f 6e20 413e e367 7b3f
000001a0: d19c 753d 128a 7f3f 436c 9b3c 34f4 7f3f
000001b0: 589b c43b d2fe 7f3f 08b1 f83a e2ff 7f3f
000001c0: 4630 283f bdff 403f 6ee8 4c3f bc74 19bf
000001d0: 72eb 243f b3cc 433f 50d3 603e eac0 793f
000001e0: 323e 8f3d 815f 7f3f a252 b53c f2ef 7f3f
000001f0: c55f e53b 65fe 7f3f ed11 113b d7ff 7f3f
00000200: 9546 7d3f f6fd 14be 7e06 133f e591 51bf
00000210: a5a4 373f 5f5b 323f 5126 803e 02da 773f
00000220: 50aa a33d 652e 7f3f 8a38 cf3c 08eb 7f3f
00000230: 1212 033c e7fd 7f3f 55cb 253b caff 7f3f
00000240: 3201 d33e d53f 69bf ee1f 953e a2e6 74bf
00000250: 1c88 483f d521 1f3f 2dc2 8f3e a9b3 753f
00000260: 3e12 b83d c2f6 7e3f ea1d e93c 76e5 7f3f
00000270: 3a74 133c 59fd 7f3f bc84 3a3b bcff 7f3f
00000280: f844 0bbf 64cd 56bf 9770 a9bc fbf1 7fbf
00000290: a46a 573f 4151 0a3f 3d39 9f3e 6b4e 733f
000002a0: 7675 cc3d 98b8 7e3f 5981 013d 3cdf 7f3f
000002b0: 57d6 233c b9fc 7f3f 223e 4f3b acff 7f3f
000002c0: 5cff 7fbf 7205 913b 1f41 a9be 8d9b 71bf
000002d0: 2a26 643f c33d e83e 8b87 ae3e e4aa 703f
000002e0: 72d3 e03d e873 7e3f 6873 0e3d 5bd8 7f3f
000002f0: 6938 343c 09fc 7f3f 87f7 633b 9bff 7f3f
00000300: d85c 09bf d006 583f 2491 1bbf 564f 4bbf
00000310: 1d9a 6e3f f786 b93e 2ca9 bd3e c3c9 6d3f
00000320: ac2b f53d b528 7e3f 1965 1b3d d2d0 7f3f
00000330: 709a 443c 48fb 7f3f ebb0 783b 87ff 7f3f
00000340: 2220 d73e 6f4e 683f 4c14 53bf 9dd9 10bf
00000350: c0ab 763f 9df5 883e 3f9a cc3e c3ab 6a3f
00000360: d0be 043e 00d7 7d3f 6556 283d a1c8 7f3f
00000370: 6afc 543c 76fa 7f3f 26b5 863b 72ff 7f3f
00000380: 7298 7d3f d704 0c3e b3a8 75bf 0a0d 90be
00000390: 6f46 7c3f e70b 2e3e f456 db3e b151 673f
000003a0: 64e4 0e3e cc7e 7d3f 4347 353d c9bf 7f3f
000003b0: 555e 653c 94f9 7f3f d611 913b 5cff 7f3f
000003c0: 4479 263f e87a 42bf 75e0 7fbf 9622 fe3c
000003d0: d55b 7f3f bade 903d 83db e93e 68bc 633f
000003e0: 4f06 193e 1a20 7d3f aa37 423d 49b6 7f3f
000003f0: 32c0 753c a1f8 7f3f 856e 9b3b 43ff 7f3f

encoder.transformer.in_proj_weight f4 [48, 16]
0.22933209 -0.33885464 -0.12603422 -0.2884874 0.20276192 0.28357422 -0.027825546 -0.111143894
-0.101039484 0.07005026 -0.1223145 0.03986116 -0.02635327 -0.10701419 0.17008512 0.19775638
-0.28038898 0.22389206 0.19185477 -0.25289005 -0.012094512 -0.18058655 0.050375186 -0.17796732
-0.012557095 -0.21101056 0.098488025 0.05347207 0.17156109 -0.09075235 -0.23161273 -0.16628405
0.03470581 0.25205493 0.20671341 -0.009473462 0.18219326 0.21312487 -0.15090904 -0.22540209
0.118319444 -0.20641504 -0.24241853 -0.18683167 -0.082841784 0.3363794 0.18378206 -0.27445155
-0.19532512 0.17284812 -0.2932911 0.07762959 -0.06952901 0.25172517 0.31754854 -0.051751498
0.26777312 0.21536964 -0.28874496 -0.18210426 -0.013175507 0.3134148 -0.11958487 0.3461778
-0.03149938 0.041947763 -0.23112279 0.08133816 -0.05311481 0.0940176 0.078622386 -0.24851646
-0.023673778 0.09144346 0.19432862 0.07073673 -0.0709132 0.059133466 0.24770343 -0.20798469
-0.25671905 0.09152526 -0.22179134 0.13815907 0.18321174 0.021088352 -0.2602824 0.050242998
0.20411952 0.17407455 0.096786566 0.28940362 0.16050419 0.26607412 -0.087644555 -0.061872937
-0.026199667 0.27055064 0.17859885 0.031554315 -0.11817118 -0.21302028 -0.25872478 -0.11554852
-0.061194617 -0.22862796 0.09456596 -0.23478945 0.24922581 0.18767332 -0.07242911 0.008040475
0.053724185 0.2911479 0.21942025 0.15506288 0.2032081 0.028657934 -0.08794807 0.048885122
0.2092337 -0.31748676 -0.10107334 -0.0724371 0.30708006 0.07795396 -0.1472115 -0.1047747
0.007223271 -0.18254499 -0.022620764 -0.1489731 -0.066848956 0.044487324 0.33734328 -0.0010364585
0.0402549 0.29839885 -0.28436276 -0.2205655 -0.24261501 -0.19009304 -0.080986105 0.043367296
-0.20463154 0.15679024 -0.123710215 -0.09746336 -0.13972673 -0.1793534 -0.11106026 -0.11937703
0.038520712 0.07957043 0.33227512 -0.24370205 -0.0871894 -0.09206501 0.018996527 -0.24879986
0.32906142 -0.286025 0.022521693 0.3147309 0.07425678 0.05783052 0.21845408 0.21080862
0.24080202 -0.1484632 -0.07093436 -0.07116721 -0.26414144 0.036924187 -0.35431477 -0.10461399
-0.14102522 0.03553192 -0.24706127 0.25991645 0.14426708 -0.23548518 0.14810985 0.2478314
-0.3706215 -0.07000201 -0.109338306 0.21175818 0.0066790166 -0.33864608 -0.33090532 -0.2278358
0.06483287 0.12233918 0.2501025 -0.15256809 -0.32255778 0.14769308 0.15791322 0.1209582
0.2944634 0.10759475 -0.1068438 -0.12753686 0.27379298 0.04979693 0.17280233 0.33056405
0.30626363 -0.044451315 -0.39856717 -0.059320573 -0.4151287 -0.04590903 0.21577123 -0.002791306
0.014032458 0.25251138 -0.23590095 0.024457047 0.037799336 -0.12788907 -0.10140193 0.387754
-0.07246028 -0.1670361 0.04952824 -0.19500002 -0.225325 0.11586391 0.05613527 0.018741632
-0.24599856 -0.16741335 -0.42015627 -0.079678535 -0.22603248 -0.17313279 0.33522794 0.26853135
-0.2329402 0.08669444 0.20499839 -0.011748928 -0.013501178 -0.007346978 -0.23759304 -0.019228265
0.123237506 -0.27595955 0.36603954 -0.25927413 0.11050995 -0.18208666 0.12743954 -0.1469416
00000000: 08d6 6a3e 5b7e adbe 1d0f 01be 9fb4 93be
00000010: d2a0 4f3e a430 913e 66f2 e3bc 699f e3bd
00000020: caed cebd 8376 8f3d 0680 fabd 7545 233d
00000030: d0e2 d7bc 412a dbbd cb2a 2e3e a680 4a3e
00000040: 258f 8fbe f643 653e 9475 443e ce7a 81be
00000050: 0f28 46bc aeeb 38be 3656 4e3d 113d 36be
00000060: 46bc 4dbc 2713 58be 17b4 c93d 8705 5b3d
00000070: b6ad 2f3e 5edc b9bd e32b 6dbe 5e46 2abe
00000080: ae27 0e3d 580d 813e aeac 533e 9436 1bbc
00000090: df90 3a3e 683d 5a3e e687 1abe cecf 66be
000000a0: 7751 f23d 775e 53be 903c 78be cd50 3fbe
000000b0: f4a8 a9bd ec39 ac3e 5d31 3c3e ea84 8cbe
000000c0: 4f03 48be 19ff 303e 402a 96be 43fc 9e3d
000000d0: 3a65 8ebd 1fe2 803e b995 a23e 61f9 53bd
000000e0: 8f19 893e dc89 5c3e 61d6 93be 8a79 3abe
000000f0: 15de 57bc e877 a03e eae8 f4bd 373e b13e
00000100: 7e05 01bd 6bd1 2b3d 74ab 6cbe 9f94 a63d
00000110: ea8e 59bd 4d8c c03d c604 a13d 197b 7ebe
00000120: 83ef c1bc b546 bb3d 15fe 463e 6bde 903d
00000130: f13a 91bd ef35 723d f8a5 7d3e f0f9 54be
00000140: ae70 83be 9871 bb3d 451d 63be 9279 0d3e
00000150: dc9b 3b3e 7bc1 ac3c bc43 85be 9acb 4d3d
00000160: b504 513e 9940 323e 0938 c63d b62c 943e
00000170: 365b 243e de3a 883e fd7e b3bd 7a6e 7dbd
00000180: afa0 d6bc 9d85 8a3e 9ee2 363e 193f 013d
00000190: bb03 f2bd fd21 5abe 9377 84be b4a4 ecbd
000001a0: 35a7 7abd 731d 6abe ccab c13d a56c 70be
000001b0: 0d35 7f3e 6f2d 403e b755 94bd 32bc 033c
000001c0: e40d 5c3d 5611 953e b4af 603e cec8 1e3e
000001d0: c915 503e 0bc4 ea3c 1e1e b4bd c43b 483d
000001e0: 5c41 563e a08d a2be 8aff cebd e759 94bd
000001f0: 9939 9d3e 53a6 9f3d 9dbe 16be 1e94 d6bd
00000200: 30b1 ec3b 13ed 3abe 2e4f b9bc 688c 18be
00000210: 1be8 88bd 5738 363d 42b8 ac3e c7d9 87ba
00000220: 52e2 243d bcc7 983e ff97 91be ecdb 61be
00000230: 1270 78be c0a7 42be 0bdc a5bd e8a1 313d
00000240: ee8a 51be 9f8d 203e c85b fdbd df9a c7bd
00000250: 8614 0fbe 6ba8 37be 9073 e3bd f27b f4bd
00000260: e5c7 1d3d d2f5 a23d f71f aa3e 088d 79be
00000270: 5b90 b2bd 948c bcbd 9b9e 9b3c 64c5 7ebe
00000280: bd7a a83e de71 92be 6a7f b83c 6924 a13e
00000290: f013 983d b2df 6c3d 6db2 5f3e 37de 573e
000002a0: ce94 763e bd06 18be 0946 91bd 1dc0 91bd
000002b0: 8c3d 87be d13d 173d bf68 b5be dc3f d6bd
000002c0: ea68 10be eb89 113d a1fd 7cbe c513 853e
000002d0: c0ba 133e 0723 71be 1caa 173e 84c7 7d3e
000002e0: 1ac2 bdbe 375d 8fbd c3ec dfbd 23d7 583e
000002f0: a7db da3b 0563 adbe 6c6c a9be ca4d 69be
00000300: 19c7 843d f78c fa3d 6f0d 803e cf3a 1cbe
00000310: 4b26 a5be db3c 173e 01b4 213e efb8 f73d
00000320: e8c3 963e a35a dc3d ecd0 dabd 0699 02be
00000330: 982e 8c3e def7 4b3d 18f3 303e b13f a93e
00000340: 96ce 9c3e 9512 36bd ff10 ccbe 21fa 72bd
00000350: c08b d4be 1b0b 3cbd 22f3 5c3e 58ee 36bb
00000360: 65e8 653c 2c49 813e 0590 71be 255a c83c
00000370: 7ad3 1a3d 5af5 02be d1ab cfbd b187 c63e
00000380: 0e66 94bd 830b 2bbe 20de 4a3d 16ae 47be
00000390: 99bb 66be 0f4a ed3d 19ee 653d 0d88 993c
000003a0: 0ce7 7bbe 686e 2bbe b91e d7be 802e a3bd
000003b0: 0f75 67be b949 31be ffa2 ab3e f17c 893e
000003c0: e087 6ebe db8c b13d 19eb 513e 937e 40bc
000003d0: 0b34 5dbc ebbe f0bb 974b 73be 9884 9dbc
000003e0: f263 fc3d 924a 8dbe 8969 bb3e 94bf 84be
000003f0: 0a53 e23d ed74 3abe 837f 023e dc77 16be

encoder.transformer.in_proj_bias f4 [48]
0.060890462 -0.0047305417 -0.039963428 0.09828755 0.050293624 0.059832834 0.010729784 -0.011321166
0.081478395 -0.058890853 0.109775245 -0.032326177 0.06192478 0.11968856 0.05579152 -0.10244982
8.503588e-07 -1.9629135e-06 -6.6136735e-08 3.1676885e-07 -2.3515743e-06 -1.6950947e-06 -2.039736e-06 -2.4084172e-06
-3.1656054e-06 1.140287e-06 -1.7358932e-06 -2.7410655e-07 -3.2363764e-07 -2.264833e-06 -1.7366139e-06 3.9363285e-06
-0.06700331 0.048875995 -0.07239976 -0.024859803 -0.10269885 0.053860158 -0.059833255 -0.0448734
-0.08542521 0.03001281 0.06149775 -0.017137464 0.08578788 -0.10639304 -0.020286502 -0.044032972
00000000: 4768 793d a902 9bbb b1b0 23bd fc4a c93d
00000010: b000 4e3d 4613 753d facb 2f3c 697c 39bc
00000020: 25de a63d 8937 71bd d8d1 e03d 7468 04bd
00000030: d7a4 7d3d 471f f53d a685 643d 36d1 d1bd
00000040: 3644 6435 99ba 03b6 0e07 8eb3 6110 aa34
00000050: bdcf 1db6 0383 e3b5 66e2 08b6 4ba0 21b6
00000060: b070 54b6 f70b 9935 d6fc e8b5 eb28 93b4
00000070: 6bc0 adb4 89fd 17b6 9915 e9b5 ce14 8436
00000080: 0839 89bd 3232 483d 5346 94bd c9a6 cbbc
00000090: c653 d2bd 789c 5c3d b713 75bd 2ccd 37bd
000000a0: 6af3 aebd 6ddd f53c 11e5 7b3d de63 8cbc
000000b0: 8eb1 af3d 98e4 d9bd e12f a6bc eb5b 34bd

encoder.transformer.out_proj.weight f4 [16, 16]
0.112812415 0.06668937 -0.13760425 0.14478333 -0.17435236 0.2758691 0.17233334 -0.14977005
-0.28272554 0.0010433435 -0.060918596 -0.18590206 -0.16951235 -0.32075197 -0.08457072 0.12763013
-0.11625671 -0.14466602 0.06281662 -0.026637342 -0.052014448 0.22683692 0.0376689 0.183591
0.12585142 0.1079006 -0.12979412 0.2589161 -0.016422672 -0.30363816 0.13143936 0.019254886
0.015769763 0.20328228 -0.22736526 -0.2200263 -0.18720664 -0.33312935 -0.30399892 0.008831176
-0.09554349 -0.00976857 -0.07646081 0.062354065 -0.18744516 -0.08284819 -0.06733429 0.266533
-0.2037574 0.22720422 -0.06467894 -0.03622161 0.053607997 0.21852882 0.04257669 0.16551393
0.14129171 -0.13537224 -0.15950699 0.01854821 -0.017643604 -0.12540126 0.16487356 0.254634
0.2802685 -0.23690027 0.27385026 -0.14631654 -0.08524436 0.121048495 0.24075383 0.0009837619
0.2706129 0.0828218 0.08564602 0.22546609 -0.27017826 -0.037200578 -0.10267679 0.11283844
0.26333913 -0.09483956 -0.032317124 0.31511608 0.093948536 0.012483929 -0.10755767 0.29036123
0.14735709 -0.32510233 -0.14638457 0.20910218 -0.3256023 -0.022914896 0.15871297 0.2525215
0.18172868 -0.00059648603 -0.017700402 -0.126226 -0.05993293 0.096822135 0.025434302 -0.19979513
-0.12331147 0.08266958 0.0055138776 0.22529355 0.27694398 -0.11426091 -0.016696708 -0.04908444
0.3162018 -0.048631407 -0.15563364 0.05094172 -0.050602164 -0.29173908 0.053885352 0.11600921
0.27423024 -0.10217391 -0.20475662 0.09917199 0.20753115 -0.20188427 -0.00090704474 0.23227829
0.21609363 -0.014302124 -0.0352675 0.057038642 -0.13638471 -0.21538495 -0.100103006 -0.24388288
0.1956797 0.026501937 -0.14825964 0.14451833 0.07311972 -0.007828497 0.22589557 -0.14783084
0.25505432 -0.042874 0.16770466 0.13980213 0.120677404 -0.23972587 0.17555557 0.20594373
0.18098533 0.08579079 -0.28903317 -0.091023974 -0.3127185 0.28484955 0.17019911 0.29464018
0.21177992 0.08842623 -0.11844042 -0.14003417 0.03363562 0.016949356 0.28182793 0.2840577
0.26127195 -0.21611789 0.03713531 -0.13036469 0.03969013 -0.033600967 0.1326673 -0.30273026
0.13208638 -0.075394735 0.13468593 0.17878667 -0.17157483 0.060913164 0.23643371 0.003177211
-0.20920566 -0.15143828 0.023266803 0.26802158 -0.08155493 -0.07213125 0.020517876 -0.05915443
0.020218764 0.1694342 -0.07897554 -0.04858177 -0.23938906 -0.016019212 -0.29641804 0.0028279433
0.060368206 0.05015081 0.15823914 -0.09330563 0.2759925 -0.31986475 0.03851512 0.22659275
-0.05909011 0.1003643 -0.13848351 0.16337936 -0.22770163 0.19708177 0.08056286 0.24343765
-0.26207832 -0.14784779 0.037996694 0.18822001 0.3106256 -0.15578207 -0.13814509 -0.25119093
0.056550946 0.25800976 -0.19414009 -0.19592775 -0.24763362 0.03435209 -0.08935821 0.10121741
0.18010856 -0.20101222 0.21211381 0.06695307 -0.10875108 -0.13703549 -0.041387647 -0.016475208
0.08135104 -0.023703447 0.2067935 0.046273462 0.19463623 -0.08728516 0.031441666 -0.21542343
0.28003198 -0.10601748 -0.13548487 -0.13525946 -0.08922359 -0.089120544 -0.016449971 -0.1732126
00000000: 320a e73d 7094 883d 21e8 0cbe 1542 143e
00000010: 6d89 32be b73e 8d3e 2778 303e 525d 19be
00000020: 67c1 90be ccc0 883a c785 79bd 1c5d 3ebe
00000030: a594 2dbe 9a39 a4be 6a33 adbd 79b1 023e
00000040: ff17 eebd 5423 14be 00a6 803d 8e36 dabc
00000050: 1a0d 55bd f047 683e b44a 1a3d 47ff 3b3e
00000060: 32df 003e fdfa dc3d c0e8 04be a790 843e
00000070: d788 86bc 7676 9bbe 0a98 063e 6cbc 9d3c
00000080: 972f 813c 3b29 503e 70d2 68be 934e 61be
00000090: 19b3 3fbe ee8f aabe bfa5 9bbe a3b0 103c
000000a0: 4eac c3bd 5a0c 20bc 7c97 9cbd fa66 7f3d
000000b0: a0f1 3fbe 50ac a9bd 8fe6 89bd 0377 883e
000000c0: c8a5 50be 39a8 683e 6476 84bd 1c5d 14bd
000000d0: 0f94 5b3d 05c6 5f3e e564 2e3d 7c7c 293e
000000e0: c6ae 103e 059f 0abe cd55 23be 6af2 973c
000000f0: 5289 90bc 3069 00be 9dd4 283e 635f 823e
00000100: 5a7f 8f3e fc95 72be 1a36 8c3e 01d4 15be
00000110: 9894 aebd 46e8 f73d 2c88 763e 92f1 803a
00000120: c68d 8a3e 7a9e a93d 2e67 af3d 95e0 663e
00000130: ce54 8abe a25f 18bd 3548 d2bd d717 e73d
00000140: 63d4 863e 3e3b c2bd f65e 04bd e556 a13e
00000150: 1768 c03d 6589 4c3c 3247 dcbd 3aaa 943e
00000160: c7e4 163e d073 a6be d6e5 15be e21e 563e
00000170: 58b5 a6be 05b8 bbbc a785 223e 804a 813e
00000180: 1517 3a3e 805d 1cba 6f00 91bc 6341 01be
00000190: 3b7c 75bd af4a c63d 995b d03c 1897 4cbe
000001a0: b98a fcbd ab4e a93d c2ad b43b 5ab3 663e
000001b0: 9acb 8d3e a001 eabd 89c7 88bc c40c 49bd
000001c0: 34e5 a13e ba31 47bd 6d5e 1fbe 44a8 503d
000001d0: 3744 4fbd d35e 95be e3b6 5c3d 3d96 ed3d
000001e0: e867 8c3e 8e40 d1bd b8ab 51be af1a cb3d
000001f0: 0c83 543e c0ba 4ebe bec6 6dba 5cda 6d3e
00000200: a647 5d3e 7553 6abc a774 10bd 5aa1 693d
00000210: 6fa8 0bbe df8d 5cbe ce02 cdbd 6fbc 79be
00000220: 4260 483e 971a d93c 60d1 17be 9dfc 133e
00000230: cbbf 953d 1943 00bc 2b51 673e f860 17be
00000240: 7b96 823e a69c 2fbd c5ba 2b3e 4a28 0f3e
00000250: b725 f73d b37a 75be d7c4 333e eae2 523e
00000260: 3854 393e 15b3 af3d 28fc 93be c76a babd
00000270: a41c a0be cdd7 913e ad48 2e3e 14db 963e
00000280: d6dc 583e d018 b53d e490 f2bd 1e65 0fbe
00000290: 81c5 093d 60d9 8a3c c04b 903e 0370 913e
000002a0: 70c5 853e 024e 5dbe 321b 183d 527e 05be
000002b0: 1e92 223d 2ba1 09bd f0d9 073e 76ff 9abe
000002c0: a741 073e 8e68 9abd 1ceb 093e da13 373e
000002d0: 50b1 2fbe 1580 793d ae1b 723e c138 503b
000002e0: 023a 56be a312 1bbe 069a be3c 203a 893e
000002f0: 4506 a7bd 8cb9 93bd 1b15 a83c ea4b 72bd
00000300: d2a1 a53c 2980 2d3e eebd a1bd aefd 46bd
00000310: 6822 75be b93a 83bc 1bc4 97be 0455 393b
00000320: a744 773d f06a 4d3d 7109 223e 0617 bfbd
00000330: e44e 8d3e 50c5 a3be 08c2 1d3d ee07 683e
00000340: 7908 72bd cc8b cd3d 9fce 0dbe eb4c 273e
00000350: 9e2a 69be cecf 493e 24fe a43d b847 793e
00000360: 212f 86be 6965 17be 6ca2 1b3d bfbc 403e
00000370: 520a 9f3e 5685 1fbe e875 0dbe 199c 80be
00000380: f7a1 673d db19 843e a9cc 46be 49a1 48be
00000390: ab93 7dbe c7b4 0c3d 7001 b7bd 134b cf3d
000003a0: 616e 383e 26d6 4dbe 5d34 593e b11e 893d
000003b0: e3b8 debd 0853 0cbe 1886 29bd 04f7 86bc
000003c0: 609b a63d bb2d c2bc adc1 533e 3e89 3d3d
000003d0: b84e 473e 90c2 b2bd fac8 003d f697 5cbe
000003e0: 5a60 8f3e b11f d9bd 8cbc 0abe 7581 0abe
000003f0: dcba b6bd d584 b6bd 17c2 86bc a55e 31be

encoder.transformer.out_proj.bias f4 [16]
0.053323098 0.06832493 0.020412087 -0.023012523 -0.06836799 -0.08590901 0.06310223 -0.028353084
0.012387438 -0.06173393 -0.023686776 -0.03865587 0.122968785 0.05763419 0.008899391 -0.006314331
00000000: 5269 5a3d f1ed 8b3d 4037 a73c c284 bcbc
00000010: 8404 8cbd 10f1 afbd be3b 813d ba44 e8bc
00000020: aef4 4a3c b8dc 7cbd c50a c2bc 9e55 1ebd
00000030: 0fd7 fb3d d411 6c3d c0ce 113c 73e8 cebb

encoder.ln1.weight f4 [16]
0.89920926 0.9355936 0.93985474 1.0079336 1.0343853 0.9880234 1.0548784 1.0475886
1.0592651 0.9262514 1.0694597 0.9955961 0.92851174 1.0332185 0.9636034 1.055148
00000000: 9432 663f 1083 6f3f 529a 703f f803 813f
00000010: bd66 843f 1aef 7c3f 4106 873f 6217 863f
00000020: 0096 873f d01e 6d3f 0ee4 883f 63df 7e3f
00000030: f2b2 6d3f 8140 843f b6ae 763f 170f 873f

encoder.ln1.bias f4 [16]
0.058120273 0.03249193 0.017185893 -0.07187527 -0.0690447 -0.10582703 0.062258553 -0.019881332
0.036411453 -0.06836982 -0.042704064 0.012471941 0.09667467 0.06279489 -0.010567601 -0.014688434
00000000: 860f 6e3d 4216 053d 6ec9 8c3c 5733 93bd
00000010: 4f67 8dbd d8bb d8bd d302 7f3d 2dde a2bc
00000020: 2d24 153d 7a05 8cbd 75ea 2ebd 1d57 4c3c
00000030: 5ffd c53d 9b9a 803d bb23 2dbc c2a7 70bc

encoder.ln2.weight f4 [16]
1.0231409 0.97010356 1.0094005 1.0407393 1.059571 1.0318596 1.0413345 1.0329361
1.0623374 1.0248914 1.0413522 1.0181646 1.0352256 1.0546596 1.0066258 1.083441
00000000: 48f6 823f b558 783f 0934 813f f236 853f
00000010: 06a0 873f fa13 843f 734a 853f 4037 843f
00000020: acfa 873f a42f 833f 074b 853f 3853 823f
00000030: 4682 843f 16ff 863f 1dd9 803f 32ae 8a3f

encoder.ln2.bias f4 [16]
0.06659958 0.015389439 0.0042697373 -0.02837188 -0.11307285 -0.10219295 0.058244713 -0.053796474
-0.016201306 -0.089619964 -0.031343445 -0.042251594 0.14399514 0.083121315 -0.01260032 -0.050324213
00000000: 5c65 883d fc23 7c3c 27e9 8b3b 256c e8bc
00000010: bd92 e7bd 8a4a d1bd 0292 6e3d b159 5cbd
00000020: 9ab8 84bc ac8a b7bd fc61 00bd 0210 2dbd
00000030: 7673 133e 823b aa3d 9371 4ebc c320 4ebd

decoder.output_head.weight f4 [24, 16]
0.06864113 -0.10137134 0.019272396 -0.33366686 -0.011107446 -0.116608135 -0.0007967068 0.09860181
0.28559062 0.034057442 -0.12956049 -0.17335217 0.14272021 -0.10410195 0.012406067 0.23047782
0.15946138 0.18615729 0.10994145 -0.07884255 0.1344776 -0.064631164 -0.010270617 -0.0150495665
-0.1161094 -0.23803778 -0.16798232 0.080065764 -0.069516696 -0.19417049 -0.072000474 0.17000602
0.01605619 0.062372707 -0.1768916 -0.04641101 -0.22964227 0.040150665 0.094647296 0.104709096
0.005780086 -0.08979464 -0.26863584 -0.10983156 -0.2573972 -0.14411102 0.08966438 0.16011508
0.13158344 0.13336699 0.08619511 0.16788015 0.2417799 -0.24879417 -0.058090694 0.11199974
-0.1593812 -0.14519049 0.11497676 0.013654574 0.22389306 0.11780724 0.14553376 0.19950402
-0.21560135 -0.0036363113 0.22635803 -0.15971807 -0.12254157 -0.1370628 0.020852309 0.020800892
0.12328164 0.054952886 -0.29087004 -0.15567717 0.07707384 -0.027136646 -0.008849594 -0.004568053
0.21202156 -0.06998392 0.22265911 0.12270985 -0.27449352 0.096924864 -0.27103266 -0.17780195
0.039936543 0.23524252 -0.1799324 -0.117877096 0.05099418 -0.06553398 -0.030190652 -0.19197042
-0.07581499 -0.12414721 0.025737789 -0.023660984 0.047515355 0.06546581 0.082166836 -0.18284085
-0.10953675 -0.14204898 0.20958376 -0.02678687 0.059955798 -0.08709493 0.068802886 0.14239725
-0.14712471 -0.09544833 0.1956064 -0.06449896 0.057063404 -0.21561809 -0.04516076 -0.03262291
0.19441721 -0.1736563 -0.15637715 -0.24398193 -0.12509227 0.12379799 -0.0018424772 0.01687443
0.12959936 0.15963435 -0.15055473 -0.073831365 0.07317265 -0.19046503 0.21232645 -0.28896666
0.08399337 0.08930855 0.18097241 0.11785739 -0.18065652 -0.18094435 0.11651315 -0.15792972
0.127365 -0.15646143 0.075137585 -0.23454197 0.12729147 -0.13579811 -0.16627336 -0.22733368
-0.14545159 0.044039827 0.1535023 0.04840069 -0.10009303 0.0317918 0.25189212 0.002221793
-0.06470748 -0.19678533 0.05526341 0.08468722 0.23521073 -0.11241397 0.16623463 0.2955669
-0.21563675 0.051878337 -0.0010230173 0.26875028 0.027457647 0.2909615 -0.13299796 0.09525186
-0.22120367 -0.0964936 0.17626898 -0.29197624 -0.15388191 -0.17108956 -0.15303814 -0.14415622
0.066966996 -0.1631422 -0.08970128 -0.19190407 0.1018102 -0.038953084 0.09011685 -0.10438317
0.045108248 0.23097606 0.10980718 -0.01322102 0.21898475 0.23735836 -0.2867766 0.25218576
0.07472782 -0.07359106 0.08656787 0.051449116 -0.25416917 -0.28873074 0.09773883 0.0342029
-0.110434964 0.2088798 0.17413442 -0.25760013 0.14767566 0.01862936 -0.031990048 -0.20242985
-0.028684653 -0.013499505 0.18507041 -0.19499598 -0.12662472 -0.09341696 0.31428725 0.23319887
-0.24754785 0.12121424 -0.18496639 0.09211953 0.073042 -0.110716864 -0.09539797 0.0010182672
0.02380184 0.23756191 0.3719481 0.010581219 0.0094434535 0.082267195 0.13706446 0.0607228
0.06484829 0.039325636 0.15957598 0.0465047 -0.124395594 0.16404064 0.10274888 0.13209556
-0.018015001 -0.055575654 0.19878826 -0.027020218 0.034875125 -0.20029148 0.058961954 0.2084724
00000000: b993 8c3d c79b cfbd 25e1 9d3c 62d6 aabe
00000010: 01fc 35bc 3fd0 eebd 17da 50ba bfef c93d
00000020: ef38 923e d17f 0b3d 81ab 04be 3b83 31be
00000030: 3f25 123e 6733 d5bd d142 4b3c 6102 6c3e
00000040: d849 233e 04a0 3e3e fc28 e13d 3478 a1bd
00000050: 7fb4 093e 585d 84bd 1746 28bc 7592 76bc
00000060: c4ca edbd 2dc0 73be 8f03 2cbe 85f9 a33d
00000070: c55e 8ebd a1d4 46be fc74 93bd 0f16 2e3e
00000080: 4588 833c 867a 7f3d 1223 35be 7919 3ebd
00000090: 5827 6bbe 0675 243d 71d6 c13d b971 d63d
000000a0: e066 bd3b 41e6 b7bd a38a 89be 5eef e0bd
000000b0: 91c9 83be d791 13be f5a1 b73d 35f5 233e
000000c0: cfbd 063e 5b91 083e 1087 b03d c6e8 2b3e
000000d0: 2695 773e e6c3 7ebe 82f0 6dbd 1f60 e53d
000000e0: d334 23be d1ac 14be f078 eb3d 6fb7 5f3c
000000f0: 3944 653e ec44 f13d cd06 153e c84a 4c3e
00000100: 9ac6 5cbe 2e4f 6ebb 66ca 673e 228d 23be
00000110: 13f7 fabd 315a 0cbe 76d2 aa3c a266 aa3c
00000120: 167b fc3d 4716 613d ebec 94be d669 1fbe
00000130: e4d8 9d3d ac4d debc e3fd 10bc 9baf 95bb
00000140: 2e1c 593e bb53 8fbd c000 643e 4d4f fb3d
00000150: 6a8a 8cbe 8b80 c63d cbc4 8abe b711 36be
00000160: 8094 233d 6ae3 703e 3340 38be 8c69 f1bd
00000170: 46df 503d ae36 86bd 6352 f7bc e593 44be
00000180: e444 9bbd e440 febd 0ed8 d23c aed4 c1bc
00000190: 769f 423d f012 863d 1647 a83d a23a 3bbe
000001a0: ce54 e0bd 4a75 11be 209d 563e 2370 dbbc
000001b0: 3694 753d d45e b2bd 87e8 8c3d 96d0 113e
000001c0: dca7 16be 6a7a c3bd 0b4d 483e 0818 84bd
000001d0: 51bb 693d fdca 5cbe 7dfa 38bd 9a9f 05bd
000001e0: 4e15 473e f5d2 31be 5521 20be 66d6 79be
000001f0: 3018 00be cd89 fd3d 477f f1ba 3f3c 8a3c
00000200: b2b5 043e 3077 233e 052b 1abe e634 97bd
00000210: 8bdb 953d 4409 43be 1b6c 593e 70f3 93be
00000220: b704 ac3d 67e7 b63d d550 393e 375f f13d
00000230: 06fe 38be 7a49 39be 729e ee3d 54b8 21be
00000240: f86b 023e 6d37 20be bce1 993d c52b 70be
00000250: b258 023e a90e 0bbe 9043 2abe 29ca 68be
00000260: 43f1 14be 1b63 343d b52f 1d3e cd3f 463d
00000270: 93fd ccbd 1e38 023d 01f8 803e 809b 113b
00000280: 5b85 84bd 1882 49be e35b 623d 7e70 ad3d
00000290: 15db 703e 4c39 e6bd 6939 2a3e 8b54 973e
000002a0: e1cf 5cbe 617e 543d c416 86ba a399 893e
000002b0: dcee e03c e8f8 943e 9e30 08be 6813 c33d
000002c0: 3783 62be 709e c5bd db7f 343e e97d 95be
000002d0: 3893 1dbe 1a32 2fbe 08b6 1cbe b09d 13be
000002e0: fe25 893d c00e 27be 4eb5 b7bd 8082 44be
000002f0: de81 d03d 458d 1fbd 2f8f b83d d8c6 d5bd
00000300: 6dc3 383d fd84 6c3e 96e2 e03d fa9c 58bc
00000310: 8a3d 603e 120e 733e 62d4 92be 7e1e 813e
00000320: e60a 993d e9b6 96bd 7f4a b13d 4fbc 523d
00000330: 7622 82be 84d4 93be 4c2b c83d 5718 0c3d
00000340: ba2b e2bd 96e4 553e 4b50 323e 2ae4 83be
00000350: 4a38 173e 999c 983c ff07 03bd c549 4fbe
00000360: 14fc eabc 072d 5dbc 1983 3d3e 07ad 47be
00000370: e9a9 01be 6451 bfbd 42ea a03e afcb 6e3e
00000380: 2f7d 7dbe 2c3f f83d d467 3dbe 2aa9 bc3d
00000390: 0b97 953d 86bf e2bd 0360 c3bd 6177 853a
000003a0: 14fc c23c 6e43 733e fb6f be3e d95c 2d3c
000003b0: b7b8 1a3c b47b a83d a05a 0c3e 79b8 783d
000003c0: 2ecf 843d eb13 213d e367 233e b67b 3e3d
000003d0: 1ec3 febd 45fa 273e 016e d23d 0f44 073e
000003e0: 3294 93bc 4ca3 63bd 268f 4b3e 8159 ddbc
000003f0: 38d9 0e3d 3619 4dbe 1782 713d ca79 553e

decoder.output_head.bias f4 [24]
0.115712814 0.048965752 0.01070164 -0.1783534 -0.13400225 0.05825052 -0.025288863 -0.13083336
-0.009972611 0.03629393 -0.13470963 -0.16861016 -0.13641292 -0.15908742 0.08876798 -0.13241008
-0.33261943 -0.34950882 -0.05397891 0.023920609 -0.12810552 0.14107893 0.14695986 -0.001167761
00000000: d7fa ec3d 5090 483d ee55 2f3c 46a2 36be
00000010: e337 09be 1998 6e3d 972a cfbc 2ef9 05be
00000020: 2a64 23bc f2a8 143d 52f1 09be 24a8 2cbe
00000030: d4af 0bbe d0e7 22be fdcb b53d 8296 07be
00000040: 184d aabe d2f2 b2be fd18 5dbd 27f5 c33c
00000050: 182e 03be ff76 103e a57c 163e 8f0f 99ba
