experiments/model_16_50_2026-01-18_1683/model.pt (torch, 45743 bytes, 18 tensors)

encoder.graph_embed.GCN_in.A f4 [9, 9]
-1.3810037 0.321433 -1.5814427 -1.9493343 -0.09573837 -2.4281845 1.3477446 2.0961921
0.3915508 0.43548858 1.3165005 -0.7915687 2.6228752 -1.6617831 0.6134824 0.5724093
1.8183439 0.25674343 0.28931436 -0.3994047 -0.30745363 0.7002188 1.7027967 -0.5544329
-2.3148577 1.2631494 -0.03904892 0.804264 -1.8846885 -0.63416064 -1.7782071 -0.7454226
-0.3504817 1.3622178 -2.114097 -0.19183755 1.8450118 0.56830114 -1.688423 -0.11201653
0.07389712 -0.1151577 -0.29608765 0.6294107 -2.3531213 -0.9351394 -1.6067286 0.1996151
-0.0855335 0.4259556 0.5224961 0.79050577 0.45159426 1.4398183 0.068560556 1.2253042
0.78728956 -0.030636514 0.49669 1.9112108 1.7879376 0.5600789 -0.05087229 -0.54353744
0.026278839 -0.09859481 0.111592636 -0.39511883 0.47505894 0.45338672 -0.9545097 0.90214485
-0.35084683 -1.9299259 0.69109505 0.44293875 -0.0544686 -1.4890361 -0.038355466 -0.903449
-0.7561873
00000000: bbc4 b0bf de92 a43e b76c cabf c983 f9bf
00000010: 7b12 c4bd 6067 1bc0 e582 ac3f 0328 0640
00000020: 5979 c83e 5cf8 de3e 1783 a83f 3fa4 4abf
00000030: 30dd 2740 4fb5 d4bf 2f0d 1d3f 6a89 123f
00000040: 7ebf e83f e073 833e 0321 943e c67e ccbe
00000050: 906a 9dbe 8a41 333f 3ef5 d93f 51ef 0dbf
00000060: a126 14c0 e1ae a13f c3f1 1fbd 3fe4 4d3f
00000070: 793d f1bf 5a58 22bf 4a9c e3bf 04d4 3ebf
00000080: 5672 b3be 275d ae3f 5e4d 07c0 1071 44be
00000090: 5929 ec3f 2f7c 113f 3f1e d8bf ec68 e5bd
000000a0: 6057 973d cdd7 ebbd cd98 97be 0f21 213f
000000b0: 8a99 16c0 4c65 6fbf 48a9 cdbf e767 4c3e
000000c0: 302c afbd da16 da3e 4ec2 053f 965e 4a3f
000000d0: 5d37 e73e f74b b83f 7a69 8c3d c5d6 9c3f
000000e0: cf8b 493f 6df9 fabc 274e fe3e 8ea2 f43f
000000f0: 24db e43f 5561 0f3f 765f 50bd 4525 0bbf
00000100: b846 d73c 13ec c9bd ae8a e43d 044d cabe
00000110: ed3a f33e 4e22 e83e bf5a 74bf f7f2 663f
00000120: 32a2 b3be d007 f7bf 9beb 303f dec8 e23e
00000130: 771a 5fbd bc98 bebf 9f1a 1dbd 6f48 67bf
00000140: 7e95 41bf

encoder.graph_embed.GCN_in.linear.weight f4 [16, 16]
0.06102154 0.227558 0.24163581 -0.29340017 0.019022444 0.06745059 -0.07315099 0.015515071
0.0903392 0.024522994 0.10561842 -0.19216822 -0.047173515 0.122122265 -0.048166126 -0.1695585
-0.19891822 0.20594761 -0.24857329 -0.014616629 0.080024876 0.2075548 -0.044825297 -0.24026488
-0.1358387 0.05340572 0.23165987 0.1083745 -0.034926634 0.021848012 -0.017341696 0.124948926
-0.04225398 0.07527682 -0.016276993 -0.0495446 0.38913876 0.115457706 -0.072732925 0.3838899
0.010599244 -0.06812527 -0.01762582 -0.23565403 0.05934645 -0.060650293 -0.17286335 -0.0004169205
-0.07267889 -0.00598354 0.034358416 -0.11833432 -0.15681767 -0.21558225 0.09598447 0.004598257
-0.07054217 -0.06115815 -0.2010353 -0.025603322 0.013924461 0.0038118677 0.14887762 0.13060191
0.04115275 0.13626225 0.026086584 -0.10719482 0.17005514 -0.29838878 -0.055509906 0.16821411
-0.052911475 0.113311864 -0.07262402 0.12386904 -0.042613354 0.023821268 0.09403017 0.16932842
0.16999975 0.22231764 -0.15380153 0.15459438 0.12466637 -0.27883026 -0.01128633 0.07434782
0.116513975 0.069095604 -0.22190109 0.042030264 0.17424957 0.080317855 -0.17966029 -0.15916981
0.17840245 0.22763291 -0.1688603 0.20563039 0.18459746 0.14686745 -0.011078728 -0.08649678
0.14894722 0.12229782 -0.02299814 -0.11072464 0.07759169 -0.11110182 0.10126091 -0.050780065
0.08417486 -0.27751777 0.05124243 -0.106273085 0.027926706 0.027191365 -0.10293954 0.14129327
-0.17885222 0.08159941 0.1343615 -0.29246715 -0.017727707 0.04396179 0.06095162 0.115495995
0.1008949 -0.07995334 0.08764496 0.17532264 -0.051896784 -0.09631434 -0.28234076 0.021391034
0.06637002 -0.15852307 0.09325753 -0.09867107 0.00090389006 -0.054572977 -0.003111433 -0.081857994
-0.07416186 0.075096026 0.08365405 0.11794671 0.12875435 -0.17484899 0.07570077 0.15314719
-0.1947189 0.055420842 0.11501342 -0.07354244 -0.04232843 -0.008725517 0.072262 0.13863276
0.197043 -0.21264249 -0.15173276 -0.18325414 0.07560482 0.108172484 -0.124409914 0.0030246074
-0.23885648 0.1545112 -0.021522922 0.0016898826 -0.052604526 0.036565136 0.0605844 0.14651515
-0.09914296 0.025057763 -0.0058594346 -0.067852676 0.13879742 0.118268244 -0.01792704 -0.004520044
-0.17865022 -0.22686501 -0.046392925 0.107929155 0.04619032 -0.062230036 0.11239273 0.005007415
-0.0037197527 -0.27223748 0.19379687 0.22230875 0.071929224 0.17596172 0.28523567 0.19188622
-0.03815622 0.008172628 -0.103195675 -0.1947787 0.0063992813 0.003930439 0.034319364 -0.046547804
-0.03041289 0.06579183 -0.18149017 -0.063018486 -0.21761034 -0.14870864 -0.0047741164 0.13173431
0.06496224 0.13428302 0.04745407 0.066592045 -0.01003597 0.033734813 -0.012280415 -0.09803691
-0.061521728 0.29940414 0.10507037 -0.017622666 -0.00087872666 0.032267574 0.20285533 0.24476886
-0.2666781 0.024926504 -0.01123736 0.016605763 -0.07467631 -0.03499862 0.11812754 -0.05207254
0.15142454 -0.10442 0.0962652 -0.26900908 -0.06843467 0.07173576 0.25383514 0.078407995
0.02821686 0.009093082 -0.09682159 -0.19971637 0.034983564 -0.010968217 0.08352038 0.07797508
00000000: b9f1 793d f704 693e 616f 773e 8c38 96be
00000010: f5d4 9b3c 8923 8a3d 30d0 95bd ed32 7e3c
00000020: c203 b93d 72e4 c83c 784e d83d bfc7 44be
00000030: 0439 41bd 3d1b fa3d d849 45bd bea0 2dbe
00000040: 38b1 4bbe eee3 523e ff89 7ebe 967a 6fbc
00000050: 15e4 a33d 3f89 543e bb9a 37bd ff07 76be
00000060: 4d19 0bbe f5bf 5a3d 3f38 6d3e 73f3 dd3d
00000070: 3b0f 0fbd 9afa b23c 2c10 8ebc 39e5 ff3d
00000080: 8212 2dbd bc2a 9a3d 5457 85bc 47ef 4abd
00000090: 323d c73e 1775 ec3d 00f5 94bd 388d c43e
000000a0: 74a8 2d3c 4385 8bbd 0664 90bc 4a4f 71be
000000b0: 4315 733d 716c 78bd 1703 31be 1f96 dab9
000000c0: abd8 94bd 9211 c4bb 69bb 0c3d 4459 f2bd
000000d0: d094 20be 98c1 5cbe 8193 c43d faac 963b
000000e0: 6a78 90bd f880 7abd 33dc 4dbe 0fbe d1bc
000000f0: 6c23 643c 87d0 793b 6073 183e 82bc 053e
00000100: c98f 283d 5588 0b3e 88b3 d53c f588 dbbd
00000110: ef22 2e3e 6ac6 98be 5b5e 63bd 5240 2c3e
00000120: b4b9 58bd 0d10 e83d e7bb 94bd 0daf fd3d
00000130: 578b 2ebd d224 c33c e492 c03d 6e64 2d3e
00000140: 6a14 2e3e 3ca7 633e 267e 1dbe fd4d 1e3e
00000150: 1551 ff3d d7c2 8ebe 4dea 38bc ab43 983d
00000160: e19e ee3d ff81 8d3d 0a3a 63be ed27 2c3d
00000170: 7b6e 323e b07d a43d def8 37be 69fd 22be
00000180: 22af 363e 9a18 693e b7e9 2cbe c690 523e
00000190: 1e07 3d3e 6c64 163e 8e83 35bc 3925 b1bd
000001a0: 9f85 183e 4877 fa3d 9866 bcbc 9ac3 e2bd
000001b0: 64e8 9e3d 5a89 e3bd e161 cf3d c2fe 4fbd
000001c0: de63 ac3d cf16 8ebe 95e3 513d b4a5 d9bd
000001d0: 8cc6 e43c 6dc0 de3c f7d1 d2bd 2faf 103e
000001e0: 0925 37be 971d a73d 1096 093e 41be 95be
000001f0: b239 91bc 4711 343d 68a8 793d 2a89 ec3d
00000200: fca1 ce3d 94be a3bd 337f b33d c787 333e
00000210: b991 54bd 7440 c5bd f88e 90be 403c af3c
00000220: 01ed 873d df53 22be cefd be3d 0f14 cabd
00000230: 09f3 6c3a ea87 5fbd 2fe9 4bbb 2aa5 a7bd
00000240: 2ce2 97bd f2cb 993d d152 ab3d 0b8e f13d
00000250: 2ed8 033e 9d0b 33be 0109 9b3d 9ed2 1c3e
00000260: 6464 47be f700 633d 288c eb3d 6b9d 96bd
00000270: 9360 2dbd 79f5 0ebc 19fe 933d bff5 0d3e
00000280: a4c5 493e f4be 59be d55f 1bbe f9a6 3bbe
00000290: b3d6 9a3d 8989 dd3d a0ca febd 7e38 463b
000002a0: cb96 74be 2f38 1e3e d750 b0bc 0d7f dd3a
000002b0: d877 57bd 53c5 153d 5927 783d 1108 163e
000002c0: 770b cbbd f045 cd3c 8000 c0bb 58f6 8abd
000002d0: e920 0e3e 9f36 f23d badb 92bc e11c 94bb
000002e0: 15f0 36be 4d4f 68be 8206 3ebd f609 dd3d
000002f0: 1032 3d3d ece4 7ebd 292e e63d 3e15 a43b
00000300: 18c7 73bb b662 8bbe b072 463e e8a4 633e
00000310: a14f 933d 4f2f 343e 690a 923e d27d 443e
00000320: b249 1cbd 7ce6 053c 4158 d3bd 1174 47be
00000330: 10b1 d13b e9ca 803b 7692 0c3d e9a8 3ebd
00000340: 7424 f9bc debd 863d 8fd8 39be d60f 81bd
00000350: 3fd5 5ebe 1447 18be 3170 9cbb 5ce5 063e
00000360: ec0a 853d 7d81 093e 335f 423d 6961 883d
00000370: e96d 24bc 842d 0a3d cb33 49bc 93c7 c8bd
00000380: 35fe 7bbd 804b 993e 222f d73d 695d 90bc
00000390: 595a 66ba 012b 043d 4fb9 4f3e b0a4 7a3e
000003a0: 088a 88be ab32 cc3c e71c 38bc cf08 883c
000003b0: e5ef 98bd b75a 0fbd daec f13d 044a 55bd
000003c0: 090f 1b3e 27da d5bd b026 c53d 8fbb 89be
000003d0: 7a27 8cbd 33ea 923d aef6 813e 5f94 a03d
000003e0: 0b27 e73c 26fb 143c 664a c6bd 7382 4cbe
000003f0: ed4a 0f3d 09b4 33bc bc0c ab3d 66b1 9f3d

encoder.graph_embed.GCN_in.linear.bias f4 [16]
0.047353514 -0.013624018 0.020381138 -0.09204854 -0.070124246 -0.28362688 0.07595289 -0.05793584
-0.031261593 -0.0028271056 0.18324062 -0.026141504 -0.053133033 0.0037990334 0.061357554 -0.015985895
00000000: c2f5 413d 4637 5fbc 58f6 a63c f283 bcbd
00000010: 4d9d 8fbd 8b37 91be 308d 9b3d 224e 6dbd
00000020: 280c 00bd f646 39bb 6ea3 3b3e b526 d6bc
00000030: 06a2 59bd 34f9 783b 0f52 7b3d daf4 82bc

encoder.graph_embed.bn.weight f4 [16]
0.9365291 0.98216414 1.0095091 1.000014 1.0132165 0.8649488 1.0263771 0.98376685
0.87880635 1.0090451 0.98285115 0.9763317 0.99821943 1.0473702 1.0044028 0.9324788
00000000: 5fc0 6f3f 1c6f 7b3f 9837 813f 7500 803f
00000010: 14b1 813f 496d 5d3f 5360 833f 25d8 7b3f
00000020: 74f9 603f 6428 813f 229c 7b3f e0f0 793f
00000030: 4f8b 7f3f 3a10 863f 4590 803f eeb6 6e3f

encoder.graph_embed.bn.bias f4 [16]
-0.046998896 -0.042367946 0.025356047 -0.067741685 0.0018635533 -0.12127853 -0.058505584 0.105255745
0.120119564 0.069225565 0.04362874 -0.028324205 -0.07418735 0.05807147 -0.018432794 0.054866094
00000000: ea81 40bd 038a 2dbd 7cb7 cf3c 27bc 8abd
00000010: 7942 f43a e160 f8bd 8da3 6fbd 5390 d73d
00000020: 3f01 f63d 22c6 8d3d 0db4 323d 2a08 e8bc
00000030: 8aef 97bd 5adc 6d3d 5f00 97bc 45bb 603d

encoder.graph_embed.bn.running_mean f4 [16]
0.09102802 -0.017150883 0.028768836 0.08535722 0.032396916 0.030132685 0.112447105 0.042440034
0.021504052 0.023407992 0.23755178 0.06848646 -0.0027378444 0.07962901 0.20700137 0.03380111
00000000: e66c ba3d 0280 8cbc 9fac eb3c c4cf ae3d
00000010: a1b2 043d d2d8 f63c ab4a e63d 9ad5 2d3d
00000020: 4429 b03c 1ec2 bf3c c640 733e a142 8c3d
00000030: 686d 33bb 8914 a33d 2bf8 533e 0873 0a3d

encoder.graph_embed.bn.running_var f4 [16]
0.053246584 0.020111179 0.06307471 0.067004904 0.01856093 0.09151041 0.07717387 0.03028869
0.01615303 0.01457225 0.07486521 0.017217694 0.032571256 0.013954503 0.06672816 0.04378241
00000000: 1719 5a3d 33c0 a43c 502d 813d de39 893d
00000010: 170d 983c cf69 bb3d 550d 9e3d fd1f f83c
00000020: 5c53 843c 72c0 6e3c ee52 993d 1f0c 8d3c
00000030: 7069 053d 6ea1 643c c6a8 883d 2f55 333d

encoder.pos_enc.pe f4 [500, 16]
0.0 1.0 0.0 1.0 0.0 1.0 0.0 1.0
0.0 1.0 0.0 1.0 0.0 1.0 0.0 1.0
0.84147096 0.54030234 0.3109836 0.9504153 0.099833414 0.9950042 0.031617504 0.99950004
0.009999833 0.99995 0.0031622713 0.999995 0.0009999998 0.9999995 0.00031622782 0.99999994
0.9092974 -0.41614684 0.5911271 0.8065784 0.19866931 0.9800666 0.063203394 0.9980007
0.019998666 0.9998 0.006324511 0.99998003 0.0019999985 0.99999803 0.0006324556 0.9999998
0.14112 -0.9899925 0.8126489 0.58275366 0.2955202 0.9553365 0.094726086 0.99550337
0.0299955 0.99955004 0.009486687 0.999955 0.0029999954 0.9999955 0.00094868336 0.9999996
-0.7568025 -0.6536436 0.95358074 0.30113748 0.38941833 0.921061 0.12615407 0.99201065
0.039989334 0.9992001 0.01264877 0.99992 0.003999989 0.999992 0.0012649109 0.9999992
-0.9589243 0.2836622 0.99994653 -0.010342338 0.47942552 0.87758255 0.15745588 0.987526
0.049979165 0.99875027 0.015810724 0.999875 0.004999979 0.9999875 0.0015811383 0.99999875
-0.2794155 0.96017027 0.9471482 -0.3207964 0.5646424 0.8253356 0.18860027 0.98205394
0.059964005 0.99820054 0.018972522 0.99982 0.0059999637 0.999982 0.0018973658 0.9999982
0.6569866 0.75390226 0.8004216 -0.5994375 0.6442176 0.7648422 0.2195561 0.9755999
0.06994285 0.997551 0.022134129 0.999755 0.006999942 0.9999755 0.0022135929 0.99999756
0.98935825 -0.14550003 0.5743178 -0.8186324 0.717356 0.6967067 0.25029233 0.9681703
0.07991469 0.9968017 0.025295515 0.99968004 0.007999914 0.999968 0.0025298197 0.9999968
0.4121185 -0.91113025 0.29125923 -0.9566442 0.78332686 0.62161 0.28077832 0.95977265
0.089878544 0.9959527 0.028456647 0.99959505 0.008999879 0.9999595 0.0028460464 0.99999595
-0.5440211 -0.8390715 -0.02068357 -0.9997861 0.84147096 0.54030234 0.31098357 0.9504153
0.099833414 0.9950042 0.031617496 0.99950004 0.009999833 0.99995 0.0031622727 0.999995
-0.9999902 0.004425698 -0.33057496 -0.94377977 0.89120734 0.4535962 0.34087786 0.9401076
0.1097783 0.9939561 0.03477803 0.9993951 0.010999777 0.9999395 0.003478499 0.999994
-0.53657293 0.84385395 -0.6076834 -0.7941793 0.9320391 0.36235783 0.3704313 0.9288599
0.119712204 0.99280864 0.03793821 0.9992801 0.011999711 0.999928 0.0037947248 0.9999928
0.42016703 0.9074468 -0.82452846 -0.5658205 0.9635582 0.26749888 0.3996143 0.9166834
0.12963414 0.9915619 0.041098017 0.9991551 0.012999633 0.9999155 0.00411095 0.99999154
0.9906074 0.13673721 -0.9596054 -0.28134948 0.98544973 0.16996728 0.42839777 0.90359026
0.13954312 0.990216 0.044257414 0.99902016 0.013999541 0.999902 0.004427175 0.9999902
0.65028787 -0.7596879 -0.9995187 0.031022351 0.997495 0.07073732 0.45675287 0.8895936
0.14943813 0.9887711 0.047416367 0.9988752 0.014999436 0.9998875 0.0047433996 0.99998873
00000000: 0000 0000 0000 803f 0000 0000 0000 803f
00000010: 0000 0000 0000 803f 0000 0000 0000 803f
00000020: 0000 0000 0000 803f 0000 0000 0000 803f
00000030: 0000 0000 0000 803f 0000 0000 0000 803f
00000040: a46a 573f 4151 0a3f 3e39 9f3e 6b4e 733f
00000050: 7675 cc3d 98b8 7e3f 5b81 013d 3cdf 7f3f
00000060: 57d6 233c b9fc 7f3f 1c3e 4f3b acff 7f3f
00000070: 6d12 833a f8ff 7f3f 61cb a539 ffff 7f3f
00000080: b7c7 683f 3311 d5be 1b54 173f ec7b 4e3f
00000090: f86f 4b3e a5e5 7a3f c870 813d f97c 7f3f
000000a0: 3ed4 a33c e5f2 7f3f d83d cf3b b1fe 7f3f
000000b0: 6812 033b dfff 7f3f 60cb 253a fdff 7f3f
000000c0: c381 103e 2670 7dbf c209 503f 582f 153f
000000d0: 6c4e 973e ef90 743f c0ff c13d 4fd9 7e3f
000000e0: 1fb9 f53c 83e2 7f3f 0d6e 1b3c 0dfd 7f3f
000000f0: 929b 443b b5ff 7f3f 10b1 783a f9ff 7f3f
00000100: cfbd 41bf 3055 27bf de1d 743f b12e 9a3e
00000110: d761 c73e a7ca 6b3f 882e 013e 69f4 7d3f
00000120: dbcb 233d 94cb 7f3f c93c 4f3c c2fa 7f3f
00000130: 5712 833b 7aff 7f3f 5ecb a53a f3ff 7f3f
00000140: 107c 75bf 2c3c 913e 7ffc 7f3f e972 29bc
00000150: 4377 f53e 40a9 603f 1d3c 213e 81ce 7c3f
00000160: f4b6 4c3d 19ae 7f3f 7e85 813c cff7 7f3f
00000170: ddd6 a33b 2eff 7f3f 333e cf3a ebff 7f3f
00000180: 8c0f 8fbe b8cd 753f 4e78 723f 6d3f a4be
00000190: 688c 103f 3249 533f 6e20 413e e367 7b3f
000001a0: d19c 753d 128a 7f3f 436c 9b3c 34f4 7f3f
000001b0: 589b c43b d2fe 7f3f 08b1 f83a e2ff 7f3f
000001c0: 4630 283f bdff 403f 6ee8 4c3f bc74 19bf
000001d0: 72eb 243f b3cc 433f 50d3 603e eac0 793f
000001e0: 323e 8f3d 815f 7f3f a252 b53c f2ef 7f3f
000001f0: c55f e53b 65fe 7f3f ed11 113b d7ff 7f3f
00000200: 9546 7d3f f6fd 14be 7e06 133f e591 51bf
00000210: a5a4 373f 5f5b 323f 5126 803e 02da 773f
00000220: 50aa a33d 652e 7f3f 8a38 cf3c 08eb 7f3f
00000230: 1212 033c e7fd 7f3f 55cb 253b caff 7f3f
00000240: 3201 d33e d53f 69bf ee1f 953e a2e6 74bf
00000250: 1c88 483f d521 1f3f 2dc2 8f3e a9b3 753f
00000260: 3e12 b83d c2f6 7e3f ea1d e93c 76e5 7f3f
00000270: 3a74 133c 59fd 7f3f bc84 3a3b bcff 7f3f
00000280: f844 0bbf 64cd 56bf 9770 a9bc fbf1 7fbf
00000290: a46a 573f 4151 0a3f 3d39 9f3e 6b4e 733f
000002a0: 7675 cc3d 98b8 7e3f 5981 013d 3cdf 7f3f
000002b0: 57d6 233c b9fc 7f3f 223e 4f3b acff 7f3f
000002c0: 5cff 7fbf 7205 913b 1f41 a9be 8d9b 71bf
000002d0: 2a26 643f c33d e83e 8b87 ae3e e4aa 703f
000002e0: 72d3 e03d e873 7e3f 6873 0e3d 5bd8 7f3f
000002f0: 6938 343c 09fc 7f3f 87f7 633b 9bff 7f3f
00000300: d85c 09bf d006 583f 2491 1bbf 564f 4bbf
00000310: 1d9a 6e3f f786 b93e 2ca9 bd3e c3c9 6d3f
00000320: ac2b f53d b528 7e3f 1965 1b3d d2d0 7f3f
00000330: 709a 443c 48fb 7f3f ebb0 783b 87ff 7f3f
00000340: 2220 d73e 6f4e 683f 4c14 53bf 9dd9 10bf
00000350: c0ab 763f 9df5 883e 3f9a cc3e c3ab 6a3f
00000360: d0be 043e 00d7 7d3f 6556 283d a1c8 7f3f
00000370: 6afc 543c 76fa 7f3f 26b5 863b 72ff 7f3f
00000380: 7298 7d3f d704 0c3e b3a8 75bf 0a0d 90be
00000390: 6f46 7c3f e70b 2e3e f456 db3e b151 673f
000003a0: 64e4 0e3e cc7e 7d3f 4347 353d c9bf 7f3f
000003b0: 555e 653c 94f9 7f3f d611 913b 5cff 7f3f
000003c0: 4479 263f e87a 42bf 75e0 7fbf 9622 fe3c
000003d0: d55b 7f3f bade 903d 83db e93e 68bc 633f
000003e0: 4f06 193e 1a20 7d3f aa37 423d 49b6 7f3f
000003f0: 32c0 753c a1f8 7f3f 856e 9b3b 43ff 7f3f

encoder.transformer.in_proj_weight f4 [48, 16]
-0.028826077 0.045809425 0.29096153 0.09324727 0.22743674 0.37375826 -0.20021972 -0.20578565
0.18893231 0.32095468 -0.25383493 -0.06590837 -0.04305149 -0.28786525 0.26836017 0.25590727
0.34153104 -0.14850731 -0.11347975 0.37632236 0.28150517 -0.21961543 -0.39784297 -0.04705351
-0.31423575 -0.32775873 0.11267588 -0.19076057 -0.15201984 -0.1688347 0.04671009 -0.34551683
-0.25817913 -0.14057106 -0.11493504 -0.052810777 -0.26784676 -0.3621609 0.055020668 0.098715656
-0.10629888 0.22846296 -0.3614124 0.19129989 0.42165524 0.21950267 0.2799651 0.2816195
-0.25159058 -0.12943375 0.29108608 -0.11993729 0.017034465 0.17939804 0.07966117 0.174653
-0.193548 -0.07874099 0.076210685 -0.19073574 0.19959511 -0.21202485 -0.17663032 -0.091970414
0.3332694 -0.21420142 0.16220377 0.1937992 0.13898915 -0.13424903 -0.1287612 0.120393775
-0.15087599 -0.023278128 -0.15174134 -0.029185228 0.36439985 0.06007332 -0.26361653 -0.40518254
0.23982696 -0.28148025 0.38160887 -0.33711356 -0.17768136 -0.29088756 0.32258686 0.012652716
0.16302498 0.12430276 0.02466795 0.13270326 0.19597179 0.110045426 0.04900266 -0.15090077
0.33797342 0.23472331 0.089700654 0.28236893 0.16349082 0.15053555 0.19637154 0.009131166
0.101386026 0.073710896 0.2352169 -0.25624907 0.013270687 -0.24984336 0.09860025 0.11317663
-0.11689163 -0.22659089 0.15559794 -0.1842449 -0.16713007 0.40169358 -0.24709293 -0.082123205
0.12412196 -0.1532503 0.37183556 0.16800015 0.08723431 0.1117865 0.32360303 -0.05203113
0.37912622 -0.12161859 -0.17771174 -0.15054654 -0.062724486 0.16578926 -0.320155 -0.04541025
-0.42115882 0.0151072685 -0.15477589 -0.067657515 0.2641627 -0.1677519 -0.09778605 -0.14006159
-0.15773343 0.045072522 0.26788884 -0.354106 -0.10870809 -0.18521878 0.12957446 0.034694746
-0.14565581 0.27416041 -0.5340112 0.18785481 -0.12775284 0.4139736 -0.17206772 0.108563885
-0.3192597 0.40287936 0.17001835 0.040224973 -0.35909724 0.12430967 0.0967262 0.30290392
0.5489585 0.0075384695 -0.17167911 -0.13487266 -0.1933393 -0.3439409 -0.013779453 0.15588178
0.3707583 0.08682724 0.06087529 0.24854943 -0.11896199 0.32776302 0.08885703 -0.114968404
-0.40240148 0.17220512 -0.27021226 -0.10797876 0.004173352 0.39145592 -0.083808556 -0.426422
0.21654677 0.3916238 -0.16133216 -0.24535424 -0.12861174 0.039151937 0.0061414414 0.0940571
-0.160481 0.2756773 -0.5414692 0.23264158 -0.29165196 0.08421387 -0.053927846 0.006155482
-0.24011147 0.29251853 -0.23841809 -0.15013145 -0.06302421 -0.050736863 0.2799469 -0.3306045
0.06531643 0.15433843 0.0064930874 -0.10562324 0.07809995 0.31405643 0.23599784 0.24810691
0.3139611 0.24081919 0.123316444 0.3497832 0.24894299 0.3041056 0.045168202 -0.22443777
-0.15386888 -0.29748207 -0.06662129 0.2065015 -0.003961268 -0.20542721 0.21302393 -0.08653145
-0.30390927 -0.29215544 0.08340401 -0.1160819 0.027464299 -0.17252049 0.14463039 0.089879304
0.07193898 0.27765974 -0.11185937 -0.00651767 -0.4512151 0.087956674 -0.26062146 0.10861897
00000000: aa24 ecbc aaa2 3b3d e9f8 943e 6df8 be3d
00000010: 2de5 683e 3e5d bf3e 6606 4dbe 79b9 52be
00000020: 7977 413e 2c54 a43e a7f6 81be f8fa 86bd
00000030: c256 30bd 1363 93be 8166 893e 4706 833e
00000040: 28dd ae3e 4d12 18be 1268 e8bd 53ad c03e
00000050: 7221 903e dee2 60be 13b2 cbbe 2ebb 40bd
00000060: 82e3 a0be fecf a7be 9dc2 e63d bd56 43be
00000070: 17ab 1bbe 01e3 2cbe 1453 3f3d 95e7 b0be
00000080: 0e30 84be dcf1 0fbe 1063 ebbd 1d50 58bd
00000090: 3623 89be 276d b9be 5a5d 613d 6f2b ca3d
000000a0: 3ab3 d9bd 32f2 693e 0c0b b9be 1ee4 433e
000000b0: 32e3 d73e 4fc5 603e 9657 8f3e 6e30 903e
000000c0: 7bd0 80be 488a 04be 3c09 953e afa1 f5bd
000000d0: dd8b 8b3c 1fb4 373e 6525 a33d 3cd8 323e
000000e0: 7231 46be f542 a1bd 5914 9c3d 3b50 43be
000000f0: a962 4c3e 0b1d 59be 94de 34be fc5a bcbd
00000100: 49a2 aa3e 9e57 5bbe bf18 263e 4c73 463e
00000110: 2c53 0e3e 9478 09be fad9 03be 0391 f63d
00000120: 3c7f 1abe c6b1 bebc 1562 1bbe dc15 efbc
00000130: 9e92 ba3e 710f 763d bff8 86be 1674 cfbe
00000140: 3395 753e 2e1e 90be 3d62 c33e 269a acbe
00000150: 1af2 35be 37ef 94be 1b2a a53e 564d 4f3c
00000160: 05f0 263e 7292 fe3d 7114 ca3c 5de3 073e
00000170: d4ac 483e 7f5f e13d 03b7 483d bb85 1abe
00000180: da0a ad3e 4f5b 703e fab4 b73d a992 903e
00000190: 236a 273e fe25 1a3e 9f15 493e e39a 153c
000001a0: 7aa3 cf3d bdf5 963d b3dc 703e 1433 83be
000001b0: 4c6d 593c f0d6 7fbe eeee c93d 26c9 e73d
000001c0: e164 efbd 7107 68be 1155 1f3e b2aa 3cbe
000001d0: 2524 2bbe c8aa cd3e ee05 7dbe 3630 a8bd
000001e0: a733 fe3d a6ed 1cbe 3b61 be3e 3b08 2c3e
000001f0: e7a7 b23d 52f0 e43d 4caf a53e 981e 55bd
00000200: d51c c23e 2b13 f9bd 11fa 35be df28 1abe
00000210: b275 80bd a9c4 293e 5beb a3be 1900 3abd
00000220: 21a2 d7be 7a84 773c 927d 1ebe 0690 8abd
00000230: 5540 873e 27c7 2bbe 0d44 c8bd 4e6c 0fbe
00000240: df84 21be f79d 383d ba28 893e 624d b5be
00000250: 59a2 debd fea9 3dbe 2baf 043e 141c 0e3d
00000260: cc26 15be c15e 8c3e f5b4 08bf 035d 403e
00000270: a4d1 02be 59f4 d33e 8532 30be be56 de3d
00000280: 0276 a3be 3446 ce3e 4a19 2e3e f1c2 243d
00000290: 98db b7be 1196 fe3d 6318 c63d 3916 9b3e
000002a0: 8b88 0c3f 4405 f73b a6cc 2fbe 0f1c 0abe
000002b0: bdfa 45be 0619 b0be 37c3 61bc 799f 1f3e
000002c0: 08d4 bd3e 7bd2 b13d 5e58 793d be83 7e3e
000002d0: 58a2 f3bd 8ed0 a73e adfa b53d 8e74 ebbd
000002e0: 9107 cebe 8a56 303e 4359 8abe f823 ddbd
000002f0: 9dc0 883b e96c c83e d2a3 abbd fc53 dabe
00000300: 70be 5d3e ea82 c83e 4234 25be 243e 7bbe
00000310: ccb2 03be c85d 203d 253e c93b 02a1 c03d
00000320: 2255 24be 9325 8d3e ba9d 0abf 9839 6e3e
00000330: 6853 95be 5278 ac3d 72e3 5cbd edb3 c93b
00000340: c8df 75be fdc4 953e df23 74be 0fbc 19be
00000350: d612 81bd 75d1 4fbd 3355 8f3e fe44 a9be
00000360: 9fc4 853d e50a 1e3e f7c3 d43b ff50 d8bd
00000370: def2 9f3d 01cc a03e 6ba9 713e bd0f 7e3e
00000380: 82bf a03e 4e99 763e 558d fc3d c916 b33e
00000390: e9ea 7e3e bbb3 9b3e 4b02 393d 04d3 65be
000003a0: ce8f 1dbe 924f 98be be70 88bd 2175 533e
000003b0: 86cd 81bb 835b 52be f222 5a3e 6737 b1bd
000003c0: ff99 9bbe 6695 95be b9cf aa3d 59bc edbd
000003d0: cffc e03c 36a9 30be fd19 143e a412 b83d
000003e0: be54 933d 6b29 8e3e 8616 e5bd 2e92 d5bb
000003f0: aa05 e7be a122 b43d 2d70 85be 9f73 de3d

encoder.transformer.in_proj_bias f4 [48]
0.025753565 -0.1211351 0.061890323 0.038418744 -0.05434378 0.03328362 -0.11515298 0.0023660704
-0.08267672 0.11494797 0.12849593 -0.10568498 0.10928151 0.08396202 -0.04006217 0.102261126
-4.3361746e-05 -0.000106376814 3.617621e-05 7.555041e-05 -0.0001272214 0.00018064713 -0.00013008945 0.00017864203
0.00012260018 -8.352148e-05 -3.1009564e-05 3.6142388e-05 4.51523e-05 -6.4988715e-05 0.00012264049 -0.00011797047
-0.05347718 -0.0763916 -0.09186947 0.042894114 -0.08818726 0.02510439 -0.074667126 -0.049441554
-0.09746927 -0.036504295 -0.034187578 0.05567606 -0.045470823 -0.018964838 -0.105248116 -0.02697638
00000000: 24f9 d23c ae15 f8bd b580 7d3d f95c 1d3d
00000010: 9597 5ebd 6854 083d 53d5 ebbd 1310 1b3b
00000020: 6a52 a9bd d769 eb3d 7094 033e 5e71 d8bd
00000030: fcce df3d 48f4 ab3d 3b18 24bd 486e d13d
00000040: 52df 35b8 9e16 dfb8 e9bb 1738 d170 9e38
00000050: bc66 05b9 186c 3d39 9f68 08b9 db51 3b39
00000060: 3c8e 0039 4128 afb8 4410 02b8 9897 1738
00000070: ea61 3d38 8d4a 88b8 0e99 0039 ea66 f7b8
00000080: e30a 5bbd 3373 9cbd 1026 bcbd bdb1 2f3d
00000090: 869b b4bd b9a7 cd3c 14eb 98bd 3a83 4abd
000000a0: f89d c7bd 8785 15bd 4608 0cbd 950c 643d
000000b0: 9d3f 3abd 265c 9bbc 538c d7bd 92fd dcbc

encoder.transformer.out_proj.weight f4 [16, 16]
0.20366326 -0.18892224 0.06623273 0.2780863 -0.05432331 0.14245343 -0.12156155 -0.06081261
-0.24523681 -0.03562447 0.24838406 0.16980995 0.14408182 0.153408 -0.02179714 -0.062681384
-0.008929348 0.23663813 0.06398105 -0.34078178 0.18734238 -0.18379968 -0.018249376 0.2804462
0.11067009 0.11578341 0.15236217 0.027220778 -0.017546186 -0.04960514 -0.21452567 -0.04013976
-0.1530375 0.0057757352 -0.16355647 0.4073416 0.02932299 -0.0004562615 -0.111487225 -0.06498145
-0.07392372 0.113560915 0.30344495 0.09471339 -0.20827883 0.15429139 -0.1114597 -0.011195099
-0.28869224 0.20605144 -0.1031136 -0.3290391 0.072930254 0.19356905 0.36271912 -0.123188145
0.16755265 0.07170829 -0.2716623 -0.2295835 -0.060044516 -0.18041418 -0.055432916 0.011815408
0.13211611 -0.16412242 -0.024487318 0.101031065 0.06107487 -0.103793085 -0.22107479 -0.0082229655
0.2803038 0.122299746 -0.006386043 -0.13914268 -0.3245624 0.1430361 -0.18901111 0.14233775
0.15120201 0.3018354 -0.13310282 -0.21352088 0.1702906 -0.35508057 0.26660383 0.40094206
0.25139824 -0.08265518 0.1472719 -0.083520465 0.16432294 0.110824145 0.26478693 0.3115012
-0.09787344 0.12132627 0.22840628 0.23190473 0.21707086 -0.09738139 0.20101508 -0.03607046
0.25710925 -0.16772127 0.062021423 0.08768449 -0.014151225 -0.16965222 0.1081619 -0.09529593
-0.11014837 -0.06928179 -0.036765203 -0.22869241 0.12478762 -0.25108033 -0.095360115 -0.10425047
-0.33941537 -0.13361178 0.24865133 0.13185906 0.053497326 -0.14430876 -0.26135206 -0.027706895
0.06643585 -0.1815136 -0.16316116 0.029523628 -0.0957669 -0.37025616 0.054428548 0.2518388
-0.1343636 -0.15772635 -0.08641692 0.1317013 -0.008135337 -0.08750965 -0.009879357 0.20536938
-0.0758053 0.090270415 0.11051334 0.1677369 -0.103652984 -0.14746933 0.08706405 0.26009935
0.17025054 0.122952275 -0.07406632 0.053755015 -0.0040789233 -0.12786457 -0.20210649 0.07335052
-0.23080331 0.14255618 -0.21266359 -0.025656529 -0.14744684 0.26580504 0.108866446 0.09730916
-0.1612149 -0.24611843 0.12886083 -0.051023673 0.1500195 -0.13165337 -0.064395234 -0.2652805
0.116590954 -0.035498913 0.28041714 -0.02908765 0.115923345 0.05182856 0.11466637 -0.18890886
0.24166812 0.04328475 0.24649537 -0.15836154 0.100232564 0.1094735 0.096369416 -0.1339686
0.28710482 -0.00868904 0.056318384 -0.009731396 0.2465026 0.09744391 -0.2132748 -0.18662971
0.013373497 -0.22514144 -0.060050827 0.19373272 0.17465146 0.1213183 -0.0739444 -0.19478936
0.16388439 -0.14601313 0.19233161 0.33982128 -0.0660582 -0.19924463 -0.04583112 -0.08717144
-0.14019248 -0.1277085 -0.0962935 0.13577786 -0.3399037 -0.0059873993 0.06497167 -0.14581329
-0.022232605 0.07996084 -0.20473439 0.20336473 -0.12538545 0.12287614 -0.3238 0.063397795
0.21835907 -0.1476803 -0.24354568 0.13086666 0.05044545 0.12886758 0.09528613 -0.0017212266
-0.14041297 -0.10850957 -0.009747905 0.024925325 -0.29682714 0.07173724 0.0486513 -0.013582938
0.10573863 -0.0822095 -0.17456612 -0.25180975 -0.18480332 0.088455625 -0.052510034 0.19391271
00000000: 1a8d 503e d574 41be 07a5 873d 5461 8e3e
00000010: 1e82 5ebd 50df 113e 43f5 f8bd a516 79bd
00000020: 5c1f 7bbe f7ea 11bd 6458 7e3e a9e2 2d3e
00000030: 2f8a 133e fd16 1d3e ea8f b2bc 195f 80bd
00000040: 664c 12bc 4451 723e 7f08 833d f37a aebe
00000050: aed6 3f3e fc35 3cbe b77f 95bc a596 8f3e
00000060: 00a7 e23d da1f ed3d d404 1c3e 1cfe de3c
00000070: 05bd 8fbc c22e 4bbd 9eac 5bbe 9769 24bd
00000080: ddb5 1cbe 6142 bd3b 597b 27be 148f d03e
00000090: c436 f03c 6236 efb9 6a53 e4bd ff14 85bd
000000a0: 5265 97bd a092 e83d 235d 9b3e 18f9 c13d
000000b0: 0c47 55be 90fe 1d3e fc44 e4bd a66b 37bc
000000c0: 78cf 93be 26ff 523e 392d d3bd d077 a8be
000000d0: 755c 953d f736 463e 52b6 b93e 114a fcbd
000000e0: ec92 2b3e ccdb 923d 5217 8bbe f017 6bbe
000000f0: 3df1 75bd 7fbe 38be a00d 63bd 6a95 413c
00000100: 7249 073e b50f 28be a199 c8bc 60e9 ce3d
00000110: a529 7a3d 7891 d4bd 6e61 62be 9eb9 06bc
00000120: fb83 8f3e 4a78 fa3d 0342 d1bb 6b7b 0ebe
00000130: 0b2d a6be 0e78 123e 218c 41be fdc0 113e
00000140: b3d4 1a3e 2b8a 9a3e 1b4c 08be 38a5 5abe
00000150: a960 2e3e 1fcd b5be 4c80 883e 4748 cd3e
00000160: 45b7 803e 1e47 a9bd 72ce 163e c70c abbd
00000170: 4644 283e c5f7 e23d 2792 873e 167d 9f3e
00000180: df71 c8bd e879 f83d 56e3 693e 6f78 6d3e
00000190: d347 5e3e e56f c7bd e6d6 4d3e 9ebe 13bd
000001a0: d3a3 833e 20bf 2bbe 2d0a 7e3d ed93 b33d
000001b0: 8ada 67bc 50b9 2dbe fc83 dd3d 832a c3bd
000001c0: 7895 e1bd 9ce3 8dbd 1c97 16bd 582e 6abe
000001d0: a790 ff3d 9a8d 80be 2a4c c3bd 4581 d5bd
000001e0: dac7 adbe 87d1 08be 749e 7e3e 1006 073e
000001f0: 0320 5b3d adc5 13be f0cf 85be 92f9 e2bc
00000200: 850f 883d b3de 39be b813 27be 89db f13c
00000210: 7021 c4bd 3792 bdbe 78f0 5e3d 04f1 803e
00000220: 9d96 09be 0483 21be 5bfb b0bd b5dc 063e
00000230: 144a 05bc 4238 b3bd 07dd 21bc 5a4c 523e
00000240: cf3f 9bbd b2df b83d d154 e23d 39c3 2b3e
00000250: 0448 d4bd 3302 17be a34e b23d be2b 853e
00000260: 2856 2e3e 67ce fb3d 15b0 97bd 382e 5c3d
00000270: 7da8 85bb eeee 02be 01f5 4ebe cc38 963d
00000280: b457 6cbe 3ffa 113e 7cc4 59be a42d d2bc
00000290: 4efc 16be 9917 883e 5ff5 de3d 064a c73d
000002a0: 8515 25be 7806 7cbe 18f4 033e 33fe 50bd
000002b0: b69e 193e 24d0 06be a6e1 83bd d8d2 87be
000002c0: 3dc7 ee3d 4f67 11bd d692 8f3e 3949 eebc
000002d0: 3869 ed3d 2f4a 543d 34d6 ea3d 5371 41be
000002e0: d977 773e 5a4b 313d 4869 7c3e 8729 22be
000002f0: bb46 cd3d a433 e03d 545d c53d 112f 09be
00000300: 67ff 923e 7a5c 0ebc 1bae 663d 6f70 1fbc
00000310: 2d6b 7c3e ac90 c73d b664 5abe dc1b 3fbe
00000320: 831c 5b3c 7a8b 66be dbf7 75bd df61 463e
00000330: d5d7 323e bb75 f83d 2970 97bd dd76 47be
00000340: 4fd1 273e 7784 15be 94f2 443e 0efd ad3e
00000350: 8649 87bd c906 4cbe 6ab9 3bbd f186 b2bd
00000360: 9e8e 0fbe 04c6 02be 8735 c5bd 5a09 0b3e
00000370: dc07 aebe f231 c4bb de0f 853d 1450 15be
00000380: 2721 b6bc 82c2 a33d e4a5 51be d83e 503e
00000390: 0b65 00be 7ca6 fb3d 1dc9 a5be b4d6 813d
000003a0: 8599 5f3e 8139 17be 0a64 79be e901 063e
000003b0: e39f 4e3d ddf5 033e 6025 c33d c89a e1ba
000003c0: 6bc8 0fbe 443a debd adb5 1fbc 3230 cc3c
000003d0: baf9 97be f9ea 923d 9646 473d f98a 5ebc
000003e0: 7f8d d83d 745d a8bd 76c1 32be 35ed 80be
000003f0: 153d 3dbe 3928 b53d c314 57bd 0e91 463e

encoder.transformer.out_proj.bias f4 [16]
0.005671724 -0.04348658 0.061772127 -0.01554818 0.028484425 -0.096849166 -0.047145393 0.069717765
0.047452588 -0.007888718 0.061199833 -0.052463897 -0.008727226 0.009564395 0.037951093 -0.022176826
00000000: dfd9 b93b fc1e 32bd c504 7d3d cbbd 7ebc
00000010: 2b58 e93c db58 c6bd 871b 41bd 30c8 8e3d
00000020: a55d 423d ae3f 01bc adac 7a3d 62e4 56bd
00000030: a4fc 0ebc fbb3 1c3c 9b72 1b3d 2dac b5bc

encoder.ln1.weight f4 [16]
0.95944095 1.0389084 0.9962666 1.0808023 1.0095776 0.9263334 0.96969813 1.0211216
0.94315195 1.099163 0.99468243 0.91855955 1.0310671 1.0980647 0.96423876 1.0652274
00000000: ec9d 753f f3fa 843f 540b 7f3f bb57 8a3f
00000010: d739 813f 3024 6d3f 233e 783f 1db4 823f
00000020: 6872 713f 60b1 8c3f 82a3 7e3f b826 6b3f
00000030: 02fa 833f 628d 8c3f 5ad8 763f 5f59 883f

encoder.ln1.bias f4 [16]
0.020895425 -0.052176945 0.024300266 -0.055739872 0.03723175 -0.13327903 -0.018369762 0.09184878
0.06383547 0.05966252 0.0394996 -0.027138842 -0.034112815 0.044260047 -0.0011999682 0.033109568
00000000: e22c ab3c 7eb7 55bd 5a11 c73c 7e4f 64bd
00000010: 5280 183d 4c7a 08be 2f7c 96bc 371b bc3d
00000020: 2cbc 823d b060 743d 55ca 213d 4752 debc
00000030: e1b9 0bbd 064a 353d 4048 9dba e69d 073d

encoder.ln2.weight f4 [16]
1.0541886 1.0897404 1.0885372 1.0634067 1.0647317 1.0414108 1.0800784 1.0836014
1.0326631 1.0321326 1.0673546 1.0447909 1.1090648 1.0927919 1.0693074 1.043551
00000000: a7ef 863f 9d7c 8b3f 3055 8b3f b61d 883f
00000010: 2149 883f f34c 853f 0240 8a3f 73b3 8a3f
00000020: 4e2e 843f ec1c 843f 139f 883f b5bb 853f
00000030: d6f5 8d3f 9be0 8b3f 11df 883f 1493 853f

encoder.ln2.bias f4 [16]
0.0027124658 -0.061607786 0.09543656 -0.032036677 -0.013896302 -0.13328566 -0.07512741 0.07154415
0.08789179 -0.024683543 0.08398246 -0.05237988 -0.019769736 0.048662763 0.018496938 0.0033560863
00000000: a0c3 313b 7258 7cbd 3e74 c33d e438 03bd
00000010: 51ad 63bc 097c 08be 66dc 99bd bd85 923d
00000020: 9c00 b43d 2435 cabc fffe ab3d 498c 56bd
00000030: 24f4 a1bc 9b52 473d e486 973c c9f1 5b3b

decoder.output_head.weight f4 [24, 16]
-0.053067416 -0.20871274 0.08271081 -0.19008783 0.13659176 -0.20239887 -0.005119044 -0.1771223
-0.10549003 -0.17050701 -0.007089421 0.07221885 0.1200112 0.03460393 0.14737637 -0.1388589
-0.0056721773 0.025358526 -0.004517836 -0.06168713 -0.020528773 0.16964968 0.05950072 -0.037404086
-0.055798262 0.11818659 -0.031907428 0.051042993 -0.06271643 0.09537017 0.113618985 0.070826896
0.25176522 -0.1609788 0.045867752 -0.033894744 -0.029094398 0.09612574 -0.22505997 0.091110304
0.18645199 0.2749163 -0.07410593 -0.10711645 0.30295393 -0.2573512 0.0545337 0.21257547
-0.32096723 0.017866371 -0.092496745 -0.21271862 0.030086175 0.03639203 0.2620969 0.0072426377
0.24506861 0.3122684 -0.14470701 -0.07144246 0.24185653 -0.09363715 0.09269461 -0.29081598
0.09982161 -0.097794466 0.23617244 -0.20932107 0.11259744 -0.21506774 0.07700361 0.050027523
-0.23202026 -0.06356407 -0.093092866 0.10738505 0.16794795 -0.030420579 -0.03217461 -0.2600692
0.026208047 0.31053662 0.102749154 -0.07068394 -0.20723586 -0.09151084 0.20736462 0.12122062
-0.15797903 -0.17218372 0.21929313 0.18282399 0.15410803 0.0005087949 -0.0042438335 0.017163537
-0.046025872 0.017442565 0.096124776 0.12085434 -0.012726828 0.08581515 0.09673114 -0.111575246
-0.12459929 0.24956363 -0.18384235 -0.1839891 0.33333603 -0.097894505 0.2703023 0.3909371
0.24240988 -0.11393014 0.2990999 -0.020972304 0.12860514 0.083165415 0.117953844 -0.10320437
0.07928451 0.07701651 -0.03374829 0.16781421 0.16878726 0.19442481 0.13824439 -0.15962736
-0.08623494 0.1805275 0.11171017 0.009718149 -0.114152245 0.031055965 0.19485728 -0.12870121
0.00011257618 -0.12399582 -0.2978255 -0.36012337 -0.0044197165 0.08895584 -0.28140238 0.14432895
-0.036394704 0.01539278 -0.13540576 0.026560431 0.17037725 -0.0045097712 0.22267616 0.013428221
-0.29008305 0.047281817 0.051702466 -0.37744275 0.058735028 0.21361533 0.0050793285 -0.06489658
0.083380416 0.2239469 -0.057982814 -0.24152093 0.13459244 0.05378063 -0.19608808 0.27594
0.053226206 0.37518138 -0.13086207 -0.102001354 -0.05966557 -0.08448434 0.16871211 -0.016131882
-0.08937998 -0.3094954 0.03072742 -0.21893501 0.15714966 -0.04349279 0.037912995 -0.2241588
-0.16961218 -0.09311181 0.10534909 0.13482359 0.12882036 0.0096006505 0.019699646 -0.044062585
0.19758172 0.24325456 -0.23709638 0.19679107 0.18551013 0.18123148 0.1167482 -0.16775261
-0.22569448 -0.043513212 -0.0856853 0.32528165 0.0678501 -0.15190183 -0.19146824 0.029308785
0.05644956 0.061799724 -0.17829795 -0.027404338 0.39507955 0.1340687 0.20101745 -0.51798785
-0.07833663 0.083549604 -0.4822695 0.05837627 -0.17862622 0.19594567 0.3880359 0.050723396
-0.14114591 0.13877167 -0.119203545 0.01176273 0.1070579 0.24231741 0.05870254 -0.25473633
-0.15854469 0.023538483 -0.26511186 0.16701292 -0.010276778 -0.15536322 0.037891153 0.046501677
0.06560842 0.17061393 -0.25202355 0.12619984 0.06885658 0.12017797 -0.045449566 -0.27105457
-0.23485795 -0.05740752 -0.14801095 -0.04709415 0.17322084 0.11970757 0.07462919 0.06247922
00000000: 385d 59bd cbb8 55be 4964 a93d 62a6 42be
00000010: b6de 0b3e a641 4fbe a7bd a7bb 8c5f 35be
00000020: 280b d8bd 6499 2ebe 604e e8bb 7ae7 933d
00000030: 6fc8 f53d dabc 0d3d d5e9 163e 0731 0ebe
00000040: acdd b9bb afbc cf3c 5b0a 94bb a5ab 7cbd
00000050: f52b a8bc a5b8 2d3e 07b7 733d 0735 19bd
00000060: b88c 64bd d00b f23d 5db1 02bd 7512 513d
00000070: 7971 80bd 7051 c33d 12b1 e83d b10d 913d
00000080: 5fe7 803e a0d7 24be d3df 3b3d 37d5 0abd
00000090: 6057 eebc 92dd c43d 1f76 66be 0a98 ba3d
000000a0: 45ed 3e3e d4c1 8c3e dac4 97bd df5f dbbd
000000b0: c71c 9b3e 89c3 83be bb5e 5f3d 62ad 593e
000000c0: d155 a4be 7f5c 923c ef6e bdbd e9d2 59be
000000d0: 4877 f63c cf0f 153d 9131 863e a653 ed3b
000000e0: 44f3 7a3e a5e1 9f3e 132e 14be 6d50 92bd
000000f0: 3da9 773e d6c4 bfbd acd6 bd3d d5e5 94be
00000100: 466f cc3d 7748 c8bd 30d7 713e 4358 56be
00000110: 7d99 e63d b83a 5cbe 12b4 9d3d a9e9 4c3d
00000120: b896 6dbe e12d 82bd 79a7 bebd b1ec db3d
00000130: 8cfa 2b3e 9434 f9bc 86c9 03bd ca27 85be
00000140: 42b2 d63c a8fe 9e3e 266e d23d bec2 90bd
00000150: a335 54be 096a bbbd 6457 543e 8442 f83d
00000160: 41c5 21be ee50 30be 618e 603e 3636 3b3e
00000170: 7fce 1d3e a660 053a db0f 8bbb 8c9a 8c3c
00000180: a085 3cbd b6e3 8e3c 11dd c43d 7b82 f73d
00000190: 3084 50bc dabf af3d fa1a c63d 9081 e4bd
000001a0: ea2d ffbd 9c8d 7f3e 2b41 3cbe a367 3cbe
000001b0: 05ab aa3e ea7c c8bd 1065 8a3e e828 c83e
000001c0: 4c3a 783e 3554 e9bd 9f23 993e 1cce abbc
000001d0: 11b1 033e a152 aa3d c991 f13d d05c d3bd
000001e0: eb5f a23d d5ba 9d3d a63b 0abd 7dd7 2b3e
000001f0: 91d6 2c3e 4c17 473e f08f 0d3e 5b75 23be
00000200: f29b b0bd 33dc 383e 4dc8 e43d df38 1f3c
00000210: a7c8 e9bd 1469 fe3c ab88 473e 40ca 03be
00000220: e016 ec38 85f1 fdbd 957c 98be 1762 b8be
00000230: 45d3 90bb 7b2e b63d f913 90be f8ca 133e
00000240: 9d12 15bd 0032 7c3c cfa7 0abe 4395 d93c
00000250: 6077 2e3e b4c6 93bb 3805 643e 0b02 5c3c
00000260: c485 94be 94aa 413d f7c5 533d 2d40 c1be
00000270: 2494 703d fabd 5a3e 7f70 a63b 80e8 84bd
00000280: 5ac3 aa3d 5652 653e 637f 6dbd 4351 77be
00000290: 9ad2 093e 1449 5c3d 50cb 48be 0248 8d3e
000002a0: b903 5a3d c617 c03e b500 06be 16e6 d0bd
000002b0: e263 74bd 2006 adbd dec2 2c3e 0227 84bc
000002c0: da0c b7bd 2e76 9ebe 12b8 fb3c 8030 60be
000002d0: d7eb 203e 7f25 32bd a84a 1b3d e289 65be
000002e0: d1ae 2dbe 68b1 bebd 44c1 d73d 320f 0a3e
000002f0: 7ce9 033e 0c4c 1d3c 2761 a13c f87a 34bd
00000300: dd52 4a3e b917 793e 65c9 72be 9983 493e
00000310: 5ef6 3d3e bf94 393e ae19 ef3d 57c7 2bbe
00000320: 741c 67be e93a 32bd c67b afbd 518b a63e
00000330: fef4 8a3d 278c 1bbe 4010 44be fa18 f03c
00000340: a737 673d b521 7d3d bd93 36be 107f e0bc
00000350: de47 ca3e 4e49 093e 85d7 4d3e da9a 04bf
00000360: f46e a0bd 0e1c ab3d 07ec f6be f51b 6f3d
00000370: cbe9 36be fba5 483e a4ac c63e 56c3 4f3d
00000380: 8e88 10be 291a 0e3e fd20 f4bd 77b8 403c
00000390: 2c41 db3d 0e22 783e 1372 703d cd6c 82be
000003a0: 8a59 22be c7d3 c03c bebc 87be 6f05 2b3e
000003b0: ee5f 28bc 8917 1fbe c133 1b3d 8b78 3e3d
000003c0: b55d 863d 6bb5 2e3e 3b09 81be 883a 013e
000003d0: ae04 8d3d de1f f63d 5329 3abd aac7 8abe
000003e0: 9a7e 70be 2624 6bbd 2f90 17be cce5 40bd
000003f0: ce60 313e 3e29 f53d 30d7 983d 36ea 7f3d

decoder.output_head.bias f4 [24]
-0.12208446 -0.09722532 -0.046569068 -0.13107157 -0.0156066185 0.08299701 0.18831025 0.16587564
-0.060025375 0.06456177 0.025549045 0.006361166 -0.22116801 -0.15930508 -0.00655958 -0.078893706
-0.23386714 -0.24061862 -0.22351557 -0.0029010666 0.07390626 -0.20563447 -0.07434372 -0.258274
00000000: 6b07 fabd 121e c7bd 35bf 3ebd a037 06be
00000010: e7b2 7fbc 56fa a93d 67d4 403e 4edb 293e
00000020: 2bdd 75bd f638 843d 3b4c d13c 5471 d03b
00000030: de79 62be df20 23be bff1 d6bb 0693 a1bd
00000040: de7a 6fbe ba64 76be 44e1 64be d21f 3ebb
00000050: 2a5c 973d d891 52be 8541 98bd 7d3c 84be
