experiments/model_16_40_2026-01-17_2132/model.pt (torch, 45743 bytes, 18 tensors)

encoder.graph_embed.GCN_in.A f4 [9, 9]
000000 23 3e 88 3f 3e 2b 3c bf 1d de 86 bf 9b bd a8 3f
       1.0643963 -0.7350348 -1.0536534 1.3182863
000010 ff 7b a3 3f f8 62 66 3f 68 f7 6b 3e 98 25 99 bf
       1.2772216 0.89994764 0.23043597 -1.1964598
000020 de 59 b5 3f ef 90 ce bf 3a 13 81 bf ad ec f1 be
       1.416805 -1.613798 -1.0083992 -0.47250882
000030 c6 95 6b 3f d8 a0 67 bf c3 b8 72 bc c8 d3 68 bf
       0.9202541 -0.90479803 -0.014814558 -0.9094815
000040 4f 3d 25 40 7d 24 c7 be ce a8 34 be 75 d8 a5 bf
       2.581867 -0.38895026 -0.17642519 -1.2956682
000050 ae 6b 0f bf 4e 4f 63 3f ec f1 e8 bf 66 35 8a bf
       -0.5602368 0.88792884 -1.8198829 -1.0797546
000060 c2 54 81 bf d4 10 9f bf 25 f7 3b bf 21 c0 26 3f
       -1.0103991 -1.242701 -0.7342399 0.65136915
000070 9f 48 ab bf 05 e9 d6 3e 72 fe ba be c5 79 59 be
       -1.3381537 0.41974655 -0.3652225 -0.21237858
000080 16 93 54 3e be 4b dd be 85 ec 5b 3e aa 3f e7 bf
       0.20759234 -0.4322185 0.21476944 -1.8066304
000090 76 0d 0c be 6e 2c 92 3e 06 4d bb bf 91 ca 18 3f
       -0.1367701 0.28549522 -1.4632881 0.5968409
0000a0 fc 5d e1 3f 53 1a 13 40 a1 cc e6 3e 6f 77 7e 3f
       1.7606807 2.2984817 0.45077994 0.9940099
0000b0 4c b1 11 3e 4a a7 82 3d d3 b6 23 bf d8 06 88 3e
       0.1422779 0.06379564 -0.6395084 0.2656772
0000c0 83 07 62 bf bc c2 5b 3e e0 87 34 3f ed 82 45 3f
       -0.8829271 0.21461004 0.7051983 0.771529
0000d0 43 b6 74 bf be 1d 86 bf 7a 93 ac 3f 3e 12 83 bf
       -0.9559061 -1.0477827 1.3482506 -1.0239942
0000e0 66 18 84 bf fa ef b2 bd e8 2e a3 bf 13 fe be be
       -1.0319946 -0.08737178 -1.274869 -0.37303218
0000f0 7c 39 17 bf eb 60 cd bd 07 50 7e 3f df 7a 74 3f
       -0.5907209 -0.10028251 0.9934086 0.95499986
000100 61 2b 95 bf 76 9c c4 be f7 fd 83 bf 45 f5 20 be
       -1.1653863 -0.3840062 -1.0311879 -0.15718563
000110 05 73 1d 40 6d 3d b9 3f 0f 7d 60 bd 34 7e 01 40
       2.4601452 1.4471871 -0.054806765 2.0233278
000120 41 06 0b c0 18 4d 84 3f 95 c4 5c bf 64 11 9e 3f
       -2.1722567 1.0336027 -0.8623746 1.2349057
000130 93 29 b0 3d 51 98 67 bf 78 4d d4 be c9 b4 36 be
       0.0860168 -0.9046679 -0.41465354 -0.17842402
000140 95 04 2d 3d
       0.042240698

encoder.graph_embed.GCN_in.linear.weight f4 [16, 16]
000000 61 3a 42 3e 74 ab ee bc 61 a2 a1 3d 4d 43 6c 3e
       0.18967582 -0.02913449 0.078922994 0.23072548
000010 20 d0 30 3d ba 17 0d be cc e3 16 bd 42 7d 26 be
       0.043167233 -0.13778582 -0.036838338 -0.1625872
000020 14 19 e9 ba 58 07 bf 3e 70 40 26 3e 8d a2 01 be
       -0.0017783963 0.3731029 0.16235518 -0.12659664
000030 2c ab ce 3c 9b a4 fc 3d 6b 05 ca bc 66 54 78 3c
       0.025228105 0.123360835 -0.024660787 0.015156841
000040 69 44 70 bd 15 e0 c9 3d 1d ae d7 bd a1 2d 62 be
       -0.05865899 0.098571934 -0.10531256 -0.22087719
000050 09 d6 c6 bc 4a 39 c6 3c 02 60 a3 bd db a3 25 bd
       -0.024271982 0.02419724 -0.079772964 -0.040439468
000060 5c 69 3e bd ee a6 e9 bc ac 2d c1 bc 29 0d e8 bd
       -0.046487197 -0.028521981 -0.023581348 -0.11330635
000070 59 b6 13 bd dc a5 af 3c 46 89 f0 bd 6a 26 11 be
       -0.036062572 0.021441393 -0.11744933 -0.1417481
000080 1d 50 62 3e 45 63 97 bd a2 7e 6f 3d a9 df 55 be
       0.22100873 -0.07391981 0.058470376 -0.20886101
000090 84 e7 f0 bb 22 6d b9 3d fd fd bb 3e 30 72 f7 bb
       -0.0073518176 0.090540186 0.36717215 -0.007551454
0000a0 32 ec 69 3d 8b b5 4a be ad 17 88 3d 9a 1b 37 be
       0.05711002 -0.19795816 0.06645141 -0.17881623
0000b0 c8 55 61 3d 34 5d 17 bd 0a 8e 74 bd e1 2e da bb
       0.055013448 -0.03695412 -0.05970577 -0.0066584204
0000c0 44 61 ff bd 06 44 22 3e aa 97 59 bd 28 f7 c1 3b
       -0.12469724 0.15846261 -0.053123154 0.005919356
0000d0 ea 46 20 be d4 3f 53 bb 4d 91 e3 3c be 72 9c be
       -0.15652052 -0.003223409 0.027779246 -0.3055629
0000e0 98 a5 52 be 5d 92 08 be a6 5b 78 3e 78 24 34 be
       -0.20570982 -0.13337083 0.24253711 -0.17592037
0000f0 b3 c4 8e 3d 2a 2f ac bd e6 01 9f bd fe b8 9f 3d
       0.06971111 -0.08407433 -0.07764034 0.07798956
000100 ce 12 a9 3e 46 a3 18 bd e6 41 ba 3c 1e b2 81 bd
       0.3302216 -0.037265085 0.022736501 -0.06332801
000110 1a 09 9e bd 73 5d 8e 3e 6e f5 8a bd 82 3d 80 bd
       -0.0771658 0.2780567 -0.06785093 -0.06261732
000120 8f d5 7b be 50 4b 5c bd 1b e0 19 be 5a 4c 47 3e
       -0.24593185 -0.05378276 -0.15026896 0.1946272
000130 13 f7 89 3d e7 99 a7 bd b8 8a 14 3a c9 8d 0e be
       0.06736579 -0.081836514 0.00056664227 -0.13921274
000140 23 59 1f 3e 6d b1 78 3e 9f 54 56 3e fb d7 52 bd
       0.15561347 0.24286433 0.20930718 -0.051475506
000150 95 0c 3a be 1e 91 a4 bc 69 c5 32 3e 10 4f 2b 3e
       -0.18168862 -0.020088729 0.17458118 0.16729379
000160 3d 43 c8 3d 9d 6b 64 3e fc 5f 52 be ef b5 db 3d
       0.0977845 0.22306676 -0.20544428 0.107280605
000170 dd 43 82 3d 9f 59 89 3d 1a 24 2a 3d ae 1f 0e 3e
       0.063606 0.06706547 0.041538335 0.13879272
000180 79 ae d8 3d c1 f9 3c be 90 45 e5 bd 83 c8 6a bc
       0.10580153 -0.18454649 -0.111949086 -0.014330032
000190 05 2a fe bc c4 a5 22 3e 47 55 56 bd b3 88 e6 3d
       -0.031025896 0.15883547 -0.05232742 0.11256542
0001a0 cb 5c b1 bd f9 e9 ec 3d 98 dc 33 3e 11 4e bb bd
       -0.08660277 0.11568064 0.17564619 -0.09145749
0001b0 5d fc 8f bd 24 4a a6 3d 4f 83 4d 3d a3 be c5 3c
       -0.07030556 0.0811961 0.050174054 0.024138754
0001c0 d5 0f 94 bd 3a 92 32 be e6 a9 39 3e a5 44 09 be
       -0.07229582 -0.17438594 0.18131217 -0.13405092
0001d0 ac d8 1b be 81 c2 b6 bd c2 93 e6 3d 8e c8 4f be
       -0.15219373 -0.089238174 0.11258651 -0.2029135
0001e0 ba a7 72 be 48 60 43 3c 46 ce f9 bd 75 3f f2 3d
       -0.23696795 0.011924811 -0.12197547 0.1182851
0001f0 36 bd 0f bd 90 03 15 3e ba a2 b7 3d e4 be 76 bc
       -0.035092555 0.1455214 0.089665845 -0.01506016
000200 78 0a 8f 3e 4e de 25 bc 69 c6 6e bd 10 a7 31 3e
       0.27937675 -0.010123802 -0.058294687 0.17348886
000210 a5 7a 0f 3e 2b 74 f1 3d 65 ae a9 3d db 32 2d 3e
       0.14011629 0.117897354 0.08285216 0.16913931
000220 13 80 2a 3c 86 70 98 3d cd 77 aa bd 7a 41 b4 3e
       0.010406512 0.07443337 -0.083236314 0.35206205
000230 6c 67 44 3d ff 7c 92 3d 8a 17 ab 3d ab 4a 01 3d
       0.047950193 0.07152747 0.08354099 0.03156535
000240 c5 2b 15 bd 93 ac 95 bd 66 4f 03 3e ad 98 f0 3d
       -0.036418695 -0.073083065 0.12823257 0.117478706
000250 de 08 a8 bd 8d 0e ae 3d c9 d5 f6 bc 0f 65 90 3d
       -0.08204816 0.08498869 -0.030131238 0.070505254
000260 87 c1 43 be ff 6a e7 bd ce 69 2e 3e 5c 43 05 3d
       -0.19116794 -0.11299705 0.17032549 0.032534942
000270 b7 87 b5 bd 68 24 54 bd 9d a7 1b be de 6b bc bd
       -0.08863776 -0.051792532 -0.15200658 -0.092002615
000280 ee ec 9e bd fa 22 94 bd f8 36 96 be 8d 14 fa bd
       -0.077600345 -0.07233234 -0.29338813 -0.12210951
000290 07 1a a6 be b2 99 0d bd ab 3f 47 be a5 23 0a be
       -0.32441732 -0.034570403 -0.19457881 -0.1349016
0002a0 31 ee 4a 3d ec 69 41 3e 9e 65 ec 3c 0f 51 7b be
       0.049543563 0.18888062 0.028857049 -0.2454264
0002b0 4e 96 0b bd d4 8e 35 bd d6 ec 53 bd 08 22 b4 3c
       -0.03407889 -0.044325665 -0.051739536 0.021988884
0002c0 b2 b1 07 be 3f b2 fd bd f7 e2 4f 3c ba b1 b6 bd
       -0.13251379 -0.12387513 0.01268839 -0.089206174
0002d0 2a 70 cc bd 75 d0 b0 bd a9 cb 41 bd b5 4a d4 3d
       -0.09982331 -0.0863351 -0.047313366 0.10365812
0002e0 56 d4 b4 3d 51 64 0f bc 73 b1 92 be 4e 19 4e 3c
       0.08829562 -0.008751945 -0.28651008 0.012579275
0002f0 90 58 8e 3d 2a 36 2f bd 88 3d 55 bc 6b 37 0a be
       0.06950486 -0.042776264 -0.0130151585 -0.13497703
000300 08 3a ec bd ca 11 58 be a6 1d 12 bd 83 3c f4 3c
       -0.11534506 -0.21100536 -0.035672806 0.02981401
000310 e6 0d 3c 3d 48 ab 96 3e 98 2e 1d be 8d 98 12 bd
       0.045911692 0.29427552 -0.15349805 -0.035790015
000320 fc a8 a5 bd c7 c4 28 be 56 43 d5 3d f0 7e 75 bd
       -0.08088872 -0.16481315 0.10413234 -0.05993551
000330 9c 7a 9f 3c dd d6 b7 bd 09 84 f9 3c 51 f7 85 3d
       0.019467644 -0.08976529 0.030458467 0.065413125
000340 c9 13 37 be 99 c2 b2 3d bf 44 30 be f3 f0 2d 3c
       -0.17878641 0.08728523 -0.17213725 0.010616529
000350 11 60 77 3d ba 03 01 3e e5 45 9c 3e a8 4a a3 3c
       0.06039435 0.12599078 0.30522075 0.01993306
000360 a0 5c 48 be 6e 51 97 3e d5 a1 91 bd 93 39 c9 bd
       -0.19566584 0.29554313 -0.07110945 -0.098254345
000370 5c 9f 72 bd bb eb 66 bd a8 11 94 bc b2 41 fe bd
       -0.05923401 -0.056377154 -0.018074825 -0.12414874
000380 b7 54 27 bd 02 cf 3e 3e 5a 6c dc 3d dd b8 0a 3d
       -0.040852275 0.18633655 0.10762854 0.033867706
000390 ae a4 99 3d 29 57 be bd 03 87 04 3d e2 c6 5a be
       0.07502113 -0.09293968 0.03235532 -0.2136493
0003a0 65 f6 df 3c ee 94 41 bd 19 33 2a 3e 38 65 34 3d
       0.02733917 -0.04726117 0.16621055 0.044041842
0003b0 99 9e 40 bd a4 f9 c5 3d 7a f1 ae 3c 84 f4 02 3d
       -0.04702625 0.09666756 0.02135538 0.03197147
0003c0 ad 85 28 be ab c3 25 3e 08 7d 4b bd 8a d7 2c 3e
       -0.16457243 0.16187923 -0.049679786 0.16879097
0003d0 c9 d3 40 3e f6 d1 18 3e 6c 6f b5 3d 21 9d bc bd
       0.1883079 0.14923844 0.08859143 -0.092096575
0003e0 26 86 c6 3e ed 35 87 3d 02 f3 44 3b 93 02 60 3b
       0.38774222 0.066020824 0.003005207 0.0034181222
0003f0 5e f3 ac 3c 2e 2c 13 be 2b cd 37 be 92 27 48 be
       0.02111214 -0.14372322 -0.17949359 -0.19546345

encoder.graph_embed.GCN_in.linear.bias f4 [16]
000000 11 71 3d 3d a5 ca 16 bd 0b 86 ee 3c a0 00 9f bd
       0.046250407 -0.03681435 0.029116651 -0.07763791
000010 b2 ce 8d be 06 c0 a0 bd 32 b1 a4 bd 41 2b 60 3d
       -0.27696759 -0.078491256 -0.0804161 0.05472875
000020 2e a2 dd bd 43 8d b9 3c cd 03 01 bd af aa 55 bd
       -0.10821949 0.022650367 -0.031497765 -0.05216473
000030 a2 bf 6c 3c fc f4 8f 3d db 59 ce bb 23 ba 49 3d
       0.014449986 0.07029149 -0.0062973327 0.04924978

encoder.graph_embed.bn.weight f4 [16]
000000 ee 7d 75 3f 43 7c 79 3f 52 dc 7d 3f 41 73 71 3f
       0.9589528 0.97455233 0.9916431 0.9431649
000010 8b 6a 6d 3f 79 64 68 3f 3e fc 52 3f db 45 70 3f
       0.92740697 0.9077831 0.8241614 0.9385659
000020 5f fa 83 3f dc ed 65 3f 1c 5c 7d 3f 8a e1 84 3f
       1.0310782 0.8981607 0.9896867 1.0381329
000030 a2 a7 73 3f 8b ad 80 3f af ec 7e 3f 1f 75 82 3f
       0.9517766 1.0052961 0.995799 1.0191993

encoder.graph_embed.bn.bias f4 [16]
000000 bc 91 2b bc f2 05 c9 bd a9 cb 3d 3d 7e 58 57 bb
       -0.0104717575 -0.09815587 0.046336804 -0.0032859142
000010 da c1 16 bd ee 7c 8c bd de 8d 83 3d e6 b6 7d 3d
       -0.036805965 -0.06859766 0.064235434 0.061942004
000020 02 05 19 bd 60 79 45 3d a3 cf 17 3d fc 0c 9a 3d
       -0.03735829 0.048211455 0.037063252 0.07522008
000030 00 c7 af bd 24 4e 46 bd 6d 1a 9e bd 40 79 9a 3d
       -0.08582878 -0.048414364 -0.07719884 0.07542658

encoder.graph_embed.bn.running_mean f4 [16]
000000 24 6d 28 bd ed 3d e8 3d b7 2c 0a 3e e5 fa 4a 3e
       -0.04111971 0.113399364 0.1349362 0.19822271
000010 d1 46 7e 3d 01 46 a8 3c 05 e4 69 b9 07 a3 38 3d
       0.062079255 0.020541193 -0.00022305555 0.04507735
000020 95 72 86 3e 84 02 46 3d 77 37 1d 3e 3a 9a cd 3b
       0.26259294 0.048342243 0.1535319 0.0062744888
000030 d3 9c a0 3d 4c 54 4f bc 32 8e 35 3b 10 47 18 3e
       0.07842412 -0.012654375 0.0027703163 0.14870858

encoder.graph_embed.bn.running_var f4 [16]
000000 bb a8 da 3c eb 20 83 3c d3 0d 43 3d ff cc 51 3e
       0.026691785 0.016006907 0.047620606 0.20488356
000010 66 61 e9 3d bf a4 2f 3d bc f6 a3 3c 4d 15 97 3d
       0.113955304 0.042881723 0.020015113 0.0737711
000020 77 87 a0 3e be 55 98 3c 03 01 3b 3e 64 f2 b7 3c
       0.3135335 0.018595573 0.18262105 0.022454448
000030 7d 1d 65 3d 32 76 96 3c 32 60 f6 3c 45 ec e0 3d
       0.055936325 0.018366907 0.030075166 0.10982565

encoder.pos_enc.pe f4 [500, 16]
000000 00 00 00 00 00 00 80 3f 00 00 00 00 00 00 80 3f
       0.0 1.0 0.0 1.0
000010 00 00 00 00 00 00 80 3f 00 00 00 00 00 00 80 3f
       0.0 1.0 0.0 1.0
000020 00 00 00 00 00 00 80 3f 00 00 00 00 00 00 80 3f
       0.0 1.0 0.0 1.0
000030 00 00 00 00 00 00 80 3f 00 00 00 00 00 00 80 3f
       0.0 1.0 0.0 1.0
000040 a4 6a 57 3f 41 51 0a 3f 3e 39 9f 3e 6b 4e 73 3f
       0.84147096 0.54030234 0.3109836 0.9504153
000050 76 75 cc 3d 98 b8 7e 3f 5b 81 01 3d 3c df 7f 3f
       0.099833414 0.9950042 0.031617504 0.99950004
000060 57 d6 23 3c b9 fc 7f 3f 1c 3e 4f 3b ac ff 7f 3f
       0.009999833 0.99995 0.0031622713 0.999995
000070 6d 12 83 3a f8 ff 7f 3f 61 cb a5 39 ff ff 7f 3f
       0.0009999998 0.9999995 0.00031622782 0.99999994
000080 b7 c7 68 3f 33 11 d5 be 1b 54 17 3f ec 7b 4e 3f
       0.9092974 -0.41614684 0.5911271 0.8065784
000090 f8 6f 4b 3e a5 e5 7a 3f c8 70 81 3d f9 7c 7f 3f
       0.19866931 0.9800666 0.063203394 0.9980007
0000a0 3e d4 a3 3c e5 f2 7f 3f d8 3d cf 3b b1 fe 7f 3f
       0.019998666 0.9998 0.006324511 0.99998003
0000b0 68 12 03 3b df ff 7f 3f 60 cb 25 3a fd ff 7f 3f
       0.0019999985 0.99999803 0.0006324556 0.9999998
0000c0 c3 81 10 3e 26 70 7d bf c2 09 50 3f 58 2f 15 3f
       0.14112 -0.9899925 0.8126489 0.58275366
0000d0 6c 4e 97 3e ef 90 74 3f c0 ff c1 3d 4f d9 7e 3f
       0.2955202 0.9553365 0.094726086 0.99550337
0000e0 1f b9 f5 3c 83 e2 7f 3f 0d 6e 1b 3c 0d fd 7f 3f
       0.0299955 0.99955004 0.009486687 0.999955
0000f0 92 9b 44 3b b5 ff 7f 3f 10 b1 78 3a f9 ff 7f 3f
       0.0029999954 0.9999955 0.00094868336 0.9999996
000100 cf bd 41 bf 30 55 27 bf de 1d 74 3f b1 2e 9a 3e
       -0.7568025 -0.6536436 0.95358074 0.30113748
000110 d7 61 c7 3e a7 ca 6b 3f 88 2e 01 3e 69 f4 7d 3f
       0.38941833 0.921061 0.12615407 0.99201065
000120 db cb 23 3d 94 cb 7f 3f c9 3c 4f 3c c2 fa 7f 3f
       0.039989334 0.9992001 0.01264877 0.99992
000130 57 12 83 3b 7a ff 7f 3f 5e cb a5 3a f3 ff 7f 3f
       0.003999989 0.999992 0.0012649109 0.9999992
000140 10 7c 75 bf 2c 3c 91 3e 7f fc 7f 3f e9 72 29 bc
       -0.9589243 0.2836622 0.99994653 -0.010342338
000150 43 77 f5 3e 40 a9 60 3f 1d 3c 21 3e 81 ce 7c 3f
       0.47942552 0.87758255 0.15745588 0.987526
000160 f4 b6 4c 3d 19 ae 7f 3f 7e 85 81 3c cf f7 7f 3f
       0.049979165 0.99875027 0.015810724 0.999875
000170 dd d6 a3 3b 2e ff 7f 3f 33 3e cf 3a eb ff 7f 3f
       0.004999979 0.9999875 0.0015811383 0.99999875
000180 8c 0f 8f be b8 cd 75 3f 4e 78 72 3f 6d 3f a4 be
       -0.2794155 0.96017027 0.9471482 -0.3207964
000190 68 8c 10 3f 32 49 53 3f 6e 20 41 3e e3 67 7b 3f
       0.5646424 0.8253356 0.18860027 0.98205394
0001a0 d1 9c 75 3d 12 8a 7f 3f 43 6c 9b 3c 34 f4 7f 3f
       0.059964005 0.99820054 0.018972522 0.99982
0001b0 58 9b c4 3b d2 fe 7f 3f 08 b1 f8 3a e2 ff 7f 3f
       0.0059999637 0.999982 0.0018973658 0.9999982
0001c0 46 30 28 3f bd ff 40 3f 6e e8 4c 3f bc 74 19 bf
       0.6569866 0.75390226 0.8004216 -0.5994375
0001d0 72 eb 24 3f b3 cc 43 3f 50 d3 60 3e ea c0 79 3f
       0.6442176 0.7648422 0.2195561 0.9755999
0001e0 32 3e 8f 3d 81 5f 7f 3f a2 52 b5 3c f2 ef 7f 3f
       0.06994285 0.997551 0.022134129 0.999755
0001f0 c5 5f e5 3b 65 fe 7f 3f ed 11 11 3b d7 ff 7f 3f
       0.006999942 0.9999755 0.0022135929 0.99999756
000200 95 46 7d 3f f6 fd 14 be 7e 06 13 3f e5 91 51 bf
       0.98935825 -0.14550003 0.5743178 -0.8186324
000210 a5 a4 37 3f 5f 5b 32 3f 51 26 80 3e 02 da 77 3f
       0.717356 0.6967067 0.25029233 0.9681703
000220 50 aa a3 3d 65 2e 7f 3f 8a 38 cf 3c 08 eb 7f 3f
       0.07991469 0.9968017 0.025295515 0.99968004
000230 12 12 03 3c e7 fd 7f 3f 55 cb 25 3b ca ff 7f 3f
       0.007999914 0.999968 0.0025298197 0.9999968
000240 32 01 d3 3e d5 3f 69 bf ee 1f 95 3e a2 e6 74 bf
       0.4121185 -0.91113025 0.29125923 -0.9566442
000250 1c 88 48 3f d5 21 1f 3f 2d c2 8f 3e a9 b3 75 3f
       0.78332686 0.62161 0.28077832 0.95977265
000260 3e 12 b8 3d c2 f6 7e 3f ea 1d e9 3c 76 e5 7f 3f
       0.089878544 0.9959527 0.028456647 0.99959505
000270 3a 74 13 3c 59 fd 7f 3f bc 84 3a 3b bc ff 7f 3f
       0.008999879 0.9999595 0.0028460464 0.99999595
000280 f8 44 0b bf 64 cd 56 bf 97 70 a9 bc fb f1 7f bf
       -0.5440211 -0.8390715 -0.02068357 -0.9997861
000290 a4 6a 57 3f 41 51 0a 3f 3d 39 9f 3e 6b 4e 73 3f
       0.84147096 0.54030234 0.31098357 0.9504153
0002a0 76 75 cc 3d 98 b8 7e 3f 59 81 01 3d 3c df 7f 3f
       0.099833414 0.9950042 0.031617496 0.99950004
0002b0 57 d6 23 3c b9 fc 7f 3f 22 3e 4f 3b ac ff 7f 3f
       0.009999833 0.99995 0.0031622727 0.999995
0002c0 5c ff 7f bf 72 05 91 3b 1f 41 a9 be 8d 9b 71 bf
       -0.9999902 0.004425698 -0.33057496 -0.94377977
0002d0 2a 26 64 3f c3 3d e8 3e 8b 87 ae 3e e4 aa 70 3f
       0.89120734 0.4535962 0.34087786 0.9401076
0002e0 72 d3 e0 3d e8 73 7e 3f 68 73 0e 3d 5b d8 7f 3f
       0.1097783 0.9939561 0.03477803 0.9993951
0002f0 69 38 34 3c 09 fc 7f 3f 87 f7 63 3b 9b ff 7f 3f
       0.010999777 0.9999395 0.003478499 0.999994
000300 d8 5c 09 bf d0 06 58 3f 24 91 1b bf 56 4f 4b bf
       -0.53657293 0.84385395 -0.6076834 -0.7941793
000310 1d 9a 6e 3f f7 86 b9 3e 2c a9 bd 3e c3 c9 6d 3f
       0.9320391 0.36235783 0.3704313 0.9288599
000320 ac 2b f5 3d b5 28 7e 3f 19 65 1b 3d d2 d0 7f 3f
       0.119712204 0.99280864 0.03793821 0.9992801
000330 70 9a 44 3c 48 fb 7f 3f eb b0 78 3b 87 ff 7f 3f
       0.011999711 0.999928 0.0037947248 0.9999928
000340 22 20 d7 3e 6f 4e 68 3f 4c 14 53 bf 9d d9 10 bf
       0.42016703 0.9074468 -0.82452846 -0.5658205
000350 c0 ab 76 3f 9d f5 88 3e 3f 9a cc 3e c3 ab 6a 3f
       0.9635582 0.26749888 0.3996143 0.9166834
000360 d0 be 04 3e 00 d7 7d 3f 65 56 28 3d a1 c8 7f 3f
       0.12963414 0.9915619 0.041098017 0.9991551
000370 6a fc 54 3c 76 fa 7f 3f 26 b5 86 3b 72 ff 7f 3f
       0.012999633 0.9999155 0.00411095 0.99999154
000380 72 98 7d 3f d7 04 0c 3e b3 a8 75 bf 0a 0d 90 be
       0.9906074 0.13673721 -0.9596054 -0.28134948
000390 6f 46 7c 3f e7 0b 2e 3e f4 56 db 3e b1 51 67 3f
       0.98544973 0.16996728 0.42839777 0.90359026
0003a0 64 e4 0e 3e cc 7e 7d 3f 43 47 35 3d c9 bf 7f 3f
       0.13954312 0.990216 0.044257414 0.99902016
0003b0 55 5e 65 3c 94 f9 7f 3f d6 11 91 3b 5c ff 7f 3f
       0.013999541 0.999902 0.004427175 0.9999902
0003c0 44 79 26 3f e8 7a 42 bf 75 e0 7f bf 96 22 fe 3c
       0.65028787 -0.7596879 -0.9995187 0.031022351
0003d0 d5 5b 7f 3f ba de 90 3d 83 db e9 3e 68 bc 63 3f
       0.997495 0.07073732 0.45675287 0.8895936
0003e0 4f 06 19 3e 1a 20 7d 3f aa 37 42 3d 49 b6 7f 3f
       0.14943813 0.9887711 0.047416367 0.9988752
0003f0 32 c0 75 3c a1 f8 7f 3f 85 6e 9b 3b 43 ff 7f 3f
       0.014999436 0.9998875 0.0047433996 0.99998873

encoder.transformer.in_proj_weight f4 [48, 16]
000000 93 4d 77 3e 26 66 6e bd 6c 53 90 3e c2 31 12 3e
       0.24150686 -0.058202885 0.28188646 0.14276794
000010 61 1b ae 3d e6 a4 44 3e 34 e2 b6 bd 74 d0 99 bd
       0.08501316 0.19203529 -0.089298636 -0.075104624
000020 ad f3 30 be 7c 92 b4 3e 7c 57 49 3e 30 6a bb be
       -0.17280455 0.3526801 0.19662279 -0.36604452
000030 1a af 74 be 66 0a ca be 0d f2 6b ba 1d 6f 87 3e
       -0.23894921 -0.39461058 -0.0009000607 0.2645196
000040 d5 8d f4 bd f0 13 70 3e 2f d4 ed 3d 7d 3e a9 b9
       -0.11941115 0.23445106 0.116127364 -0.0003228075
000050 bf 61 6a 3e b5 4e 1f 3e 9a d8 86 3e c4 14 99 3d
       0.2288885 0.15557368 0.2633713 0.07474664
000060 47 a4 6f bd 09 52 a9 be 39 43 24 be c0 32 20 be
       -0.058506276 -0.330704 -0.16041268 -0.1564436
000070 19 0e 82 3e 06 79 16 3e 88 ab 8b be 88 64 10 be
       0.2540138 0.14694604 -0.27279305 -0.1410085
000080 cb df 35 be 73 dc cc 3d 3c 1a 23 be ab 89 7d 3e
       -0.17761151 0.10002985 -0.15927976 0.24759547
000090 ea 3a 85 be 64 23 87 be d8 bf 91 3e 9a 9c bd bd
       -0.2602151 -0.26394188 0.28466678 -0.09258385
0000a0 b3 d3 da 3c 7a dc ac 3e a7 17 66 3e c0 a0 5a be
       0.026712274 0.3376196 0.2246996 -0.21350384
0000b0 26 d8 81 3c fe 04 df 3d 21 dd 30 3e 4a 72 2c be
       0.015850138 0.10889624 0.17271854 -0.16840473
0000c0 a6 49 5f 3d ae 22 a4 3c d4 1e 40 be 91 ef e2 3d
       0.054513596 0.020036068 -0.1876176 0.1108085
0000d0 da b3 33 be e3 62 26 bd 0b 58 ca bd 61 33 9b 3c
       -0.17549077 -0.04062165 -0.09880074 0.018945398
0000e0 e8 3e f1 bd 4c 20 f9 3c 8d f7 7d 3e a3 fc c3 be
       -0.117795765 0.030410908 0.24801464 -0.38278684
0000f0 a1 52 7e be db 2e ba be 6d 48 50 3e 83 ef c2 bd
       -0.24836208 -0.36363873 0.20340128 -0.095183395
000100 c8 3a 16 be ab 26 78 3e fa 6d 53 3c 0e 92 8b 3d
       -0.14670861 0.242335 0.012904638 0.06814967
000110 d0 a8 d3 3e 8e dc 66 3e 14 11 34 3e 50 9d 4e be
       0.4133973 0.22545072 0.1758464 -0.20177197
000120 e9 44 f4 bc 39 97 d4 bd eb 14 85 3b eb b6 33 be
       -0.029818015 -0.10380406 0.0040613315 -0.17550246
000130 9d e2 ae bd d4 38 1e be ca 94 46 be ac 84 31 3d
       -0.08539317 -0.15451366 -0.19392696 0.043339416
000140 bf 3c bd 3e e4 73 f2 3d bd 78 bc 3d fb 6e 4c bd
       0.36960408 0.11838511 0.092027165 -0.049910527
000150 e4 5a b1 be 5e e0 9a be 5d f0 a2 3e c3 63 b6 3e
       -0.34639657 -0.30249304 0.31824008 0.35622987
000160 9c 6d 15 3e 71 f2 8d be cf 6f b7 3e 79 59 b3 be
       0.14592594 -0.2772403 0.3582749 -0.350292
000170 60 a1 02 be ec 8f 26 be df 2e b1 3e 62 9d 13 3c
       -0.12756872 -0.1626584 0.34606072 0.009009691
000180 61 76 40 be d5 85 8a be 0b 0c 81 3e 4e 02 6e 3e
       -0.18795158 -0.2705523 0.252045 0.23243067
000190 9c d3 1f be 4d 67 f5 3d 30 c8 29 3e 5a 94 ba be
       -0.15608066 0.11982594 0.16580272 -0.36441308
0001a0 d6 11 0f bd ba de 8c bd 87 ff 74 3e 63 58 99 be
       -0.03492912 -0.06878419 0.23925601 -0.29950246
0001b0 f3 8a 9e 3d ad 6f 56 bd 81 13 f4 bb 7e 44 88 3e
       0.07741346 -0.052352596 -0.007448614 0.26614755
0001c0 51 a4 19 3e a7 41 3a 3d 52 a4 50 3e 59 a3 98 bd
       0.15004088 0.045472767 0.20375183 -0.07453031
0001d0 9e 97 50 be 92 f5 28 be d7 2e 05 be 64 85 88 3e
       -0.20370337 -0.16499928 -0.13006149 0.2666427
0001e0 8c 41 b2 bd 56 cc 45 3e 9d 2d 71 3e 74 48 05 3d
       -0.08703908 0.19316229 0.23552556 0.0325398
0001f0 8c 19 f2 bd f8 8b ed bd d7 29 a3 3e 02 f4 50 3e
       -0.11821279 -0.115989625 0.3186786 0.20405582
000200 78 5d 22 be 80 14 62 be b3 37 2e 3d da dd 06 be
       -0.15855968 -0.22078133 0.042533588 -0.13170567
000210 3f 72 18 3e 3a 51 9a bc ed 1d 11 be ca 90 e3 3c
       0.14887331 -0.01883756 -0.14171572 0.027779002
000220 66 bc 01 3c c1 e9 9a bd be e8 9a 3e 8d 47 1e be
       0.007918453 -0.07564116 0.30255693 -0.15456982
000230 8b 2a e9 3e 16 05 45 be ab 6c 80 3e 78 77 ab be
       0.4554027 -0.19240221 0.25082907 -0.33489585
000240 6a a5 17 3e 6e 0b b2 be a4 b7 8d 3e 08 36 4c 3e
       0.14809194 -0.34774345 0.2767917 0.19942486
000250 58 7d a7 bd 7f a7 64 bc 5f c9 05 bd c3 e3 12 be
       -0.08178204 -0.01395595 -0.032662746 -0.14344697
000260 6f d1 92 3e ac d4 79 bc a4 7e 11 bd 56 66 53 3d
       0.2867541 -0.015248459 -0.035521165 0.051611267
000270 cc cc 03 be 16 6d bd bd e4 e0 34 bd af 1a 25 bd
       -0.12871093 -0.09249322 -0.044159785 -0.04030865
000280 07 b8 55 bd 79 67 bb bd 21 f4 95 bc 6e a8 8b 3d
       -0.052177455 -0.09150595 -0.018304886 0.06819235
000290 1d fc 1e bd ba e0 ab 3c 82 5a 84 be 50 2b 34 bd
       -0.038814653 0.020981181 -0.25850302 -0.04398662
0002a0 81 5f fe 3b 1a d7 17 be f8 c4 1a bc bf 6c 44 3e
       0.00776285 -0.14828148 -0.009446375 0.19182108
0002b0 c9 64 b5 be 08 2a 8f 3e 5d 8d 05 bb f3 fc 29 3d
       -0.35428455 0.27961755 -0.0020378449 0.041500997
0002c0 1c 3d 9b 3e 7a cc 96 be 8c 53 92 3e 6c aa 5b bd
       0.3032006 -0.29452878 0.28579366 -0.053629324
0002d0 1e e5 7f 3e b7 74 75 3c ab 2b 2a be c8 15 ec 3d
       0.24989745 0.01498144 -0.1661822 0.11527592
0002e0 d4 d3 1b 3e 77 0a 96 be da c1 ac bd 48 0d 21 3e
       0.15217525 -0.2930486 -0.08435412 0.15727723
0002f0 26 30 8e 3e 3c 4f 67 be de 9e 84 be 1d 67 c2 3d
       0.2777111 -0.2258882 -0.25902456 0.094923235
000300 a0 37 94 bc bb e5 8e bd 19 5b 09 be b6 6d 5e be
       -0.01809293 -0.06977411 -0.13413657 -0.21721539
000310 37 24 71 be 68 87 96 3e 7a 73 1b 3d 8c b8 0f be
       -0.23548971 0.29400182 0.037951924 -0.14035243
000320 24 b0 23 be 2d 9f 85 be 66 07 3a be f2 e4 9f 3e
       -0.15985161 -0.26098004 -0.18166885 0.3122936
000330 52 ff 1a 3e d5 20 b1 bb fd c8 66 3c b7 91 81 3d
       0.1513646 -0.005405525 0.014086005 0.06326621
000340 e8 12 5d 3e de c3 9c 3e 38 99 a8 3d 90 3d 7d be
       0.21589243 0.30618185 0.08232349 -0.24730515
000350 ed 93 e9 bd df b4 d5 3c 6f a5 83 3e 27 03 4c 3e
       -0.11405168 0.026087223 0.25712153 0.19923078
000360 8a 3c e8 bd 1a e4 a4 3e 8f ea 41 be 4a ef 9b be
       -0.11339672 0.32205278 -0.18937133 -0.30456
000370 b4 43 f0 bc a2 61 cd be 3e 0f 9c bd 89 91 37 bc
       -0.029329158 -0.4011355 -0.07620095 -0.011204132
000380 36 f0 82 3d 48 ab 94 bd f9 6d aa 3e e6 96 2a be
       0.06393473 -0.07259232 0.33287027 -0.16659126
000390 f3 c9 02 3d ce 20 5b be e6 35 c3 bd 23 d9 4b 3e
       0.031930875 -0.21399233 -0.09531765 0.1990705
0003a0 9e 48 60 be 5e 20 52 be 38 22 17 be a8 44 a0 3d
       -0.21902701 -0.2052016 -0.14759147 0.07825595
0003b0 37 40 d0 3d 84 1a 06 be dd 45 a2 be 06 93 80 bc
       0.10168498 -0.13096052 -0.31693926 -0.015695106
0003c0 39 1f 0f 3d 40 a1 0c bc 3d 40 93 3e 67 64 fb 3d
       0.034941886 -0.008583367 0.28759947 0.122750096
0003d0 0d 44 05 be 21 1d b4 3b 60 34 a3 3e 68 c5 9d 3e
       -0.1301424 0.0054966365 0.31875896 0.30814672
0003e0 76 75 7c bd bc cb eb 3c 48 7f 9b 3e d8 bb f6 3d
       -0.061635457 0.028783672 0.30370545 0.12047547
0003f0 50 44 fb 3d 18 6c 01 3c 0e 35 f5 3d b9 35 e7 3d
       0.12268889 0.007899307 0.1197301 0.11289544

encoder.transformer.in_proj_bias f4 [48]
000000 1b 12 6c 3d f1 86 17 37 45 b6 4b 3d 6c 9e 25 bc
       0.057634454 9.03172e-06 0.049734373 -0.0101085715
000010 c2 28 b2 bd 86 c1 7e bc 16 56 38 ba a7 dc 8d 3d
       -0.0869918 -0.015549069 -0.0007031871 0.06926852
000020 57 b2 07 be c5 f4 8b bd c5 27 c8 3d 54 18 e7 bc
       -0.13251625 -0.068337955 0.097732104 -0.028209843
000030 91 a1 fb 3c ec 7a 22 3d 3d b9 94 bc 4a f2 4d 3c
       0.03071669 0.03966801 -0.018154735 0.012569973
000040 f9 98 1a b5 2a 10 93 35 80 b4 d2 b4 49 15 4b 33
       -5.7592075e-07 1.0957058e-06 -3.924688e-07 4.728398e-08
000050 0a 23 86 35 43 c2 bc b5 ee 14 14 b4 9a ce 49 b5
       9.993976e-07 -1.4063629e-06 -1.3791188e-07 -7.517898e-07
000060 f5 9d 8c 35 c8 0c e5 b4 1d 7d e0 34 3f d9 1e b4
       1.0476784e-06 -4.2663874e-07 4.1814283e-07 -1.479393e-07
000070 f2 e4 dd b4 12 b2 c5 b3 e0 39 99 34 68 30 bc b4
       -4.1331037e-07 -9.205918e-08 2.854058e-07 -3.505295e-07
000080 23 2c 68 bc 5c 20 cb 3c 21 67 81 3c d9 8e 87 bc
       -0.014170679 0.024795704 0.015796246 -0.016547607
000090 e8 56 91 bd 24 01 09 3d 09 17 ab bc 45 28 66 3d
       -0.07096654 0.033448353 -0.020885007 0.056190748
0000a0 9e 3e 3c 3d 71 81 22 3d fd 5e 7a bd e6 e9 4d 3d
       0.045958154 0.039674226 -0.061125744 0.05027189
0000b0 c1 8b ce 3c 92 d5 a6 3c fc 57 fd 3c f6 2b e9 bb
       0.025213124 0.02036551 0.030925743 -0.0071158363

encoder.transformer.out_proj.weight f4 [16, 16]
000000 ff 72 43 3d 76 78 1e 3a 73 ad 95 3e fd 10 1b 3d
       0.04771709 0.0006045172 0.29233894 0.037858
000010 c4 97 51 3e 9f c6 de bd d6 37 a9 3e 48 08 a6 bc
       0.2046805 -0.10877728 0.33050412 -0.02026762
000020 b3 d8 f4 bd 06 ef f1 39 40 fb 55 3e 2c 5e 6d 3e
       -0.119553946 0.00046145188 0.20896626 0.23180455
000030 0a e9 42 3d f3 10 be 3d 05 d9 27 3e 66 6f b7 bd
       0.047585525 0.092805766 0.1639138 -0.089567944
000040 f3 c4 8e be f9 b3 8c bd db 2f e7 3d e9 5a fd bd
       -0.27884635 -0.068702646 0.112884246 -0.12370855
000050 f7 26 4c 3e 60 89 58 3e a2 56 ee bd 12 80 56 3e
       0.19936739 0.21146154 -0.11637618 0.20947292
000060 dd aa cf 3d e0 dc 6a bd 17 94 3d be 87 b9 ea bc
       0.101400115 -0.05733955 -0.18513523 -0.02865292
000070 f8 2a 74 be fe ba 79 be a9 27 83 bd 6d c1 7c bd
       -0.23844516 -0.24387738 -0.06404049 -0.061707903
000080 4a 9c 8c bd 1f e8 34 3e 94 97 4d 3e 41 3a 74 3e
       -0.06865747 0.17666672 0.20077354 0.23850347
000090 31 87 1b bd 18 f6 79 3e 52 1d 60 bd dc 99 94 3e
       -0.037970725 0.24410284 -0.054715462 0.29023635
0000a0 23 42 3c 3e 42 41 dc 3b 00 15 8f be c9 86 ce 3b
       0.18384604 0.0067216465 -0.2794571 0.0063026887
0000b0 ae 5b 60 bd 06 99 47 3e 9c 96 70 3e cb 10 42 be
       -0.054774933 0.19491968 0.23494953 -0.18951719
0000c0 84 92 ed bd bc 6b 5e bd 76 49 26 3e f1 4b 50 3e
       -0.11600211 -0.054301962 0.1623896 0.2034147
0000d0 3d 4a d0 3d 88 a7 19 bd a4 6f 0d 3e a5 32 a6 3e
       0.1017041 -0.037513286 0.13812119 0.32460514
0000e0 03 4a 35 be 7e 3f ae 3d 83 9c 43 be 64 35 de bd
       -0.17704014 0.08508204 -0.19102673 -0.10850027
0000f0 67 c5 0f 3e 5e 5c 48 3e 07 bd b0 bc 09 ec 87 3d
       0.14040147 0.19566485 -0.02157451 0.06636817
000100 bc 04 3e bd f6 6c 13 3e df ae 4b be 4c 6b 8a bd
       -0.046391234 0.14397034 -0.19890927 -0.067587465
000110 5f 15 6e 3e 73 0c 71 3d 20 87 9d be 12 76 d1 3d
       0.2325034 0.058849763 -0.30767155 0.10227598
000120 62 84 a9 3e 2c 7b bf bc 5b 20 20 3e 27 99 83 be
       0.33108813 -0.023374163 0.15637343 -0.25702783
000130 6f 47 a7 3c b7 6f 80 3c fb 00 83 be 4c 3b da bd
       0.020419804 0.01567827 -0.25586686 -0.10655841
000140 c1 d5 37 be dd 95 96 bb e8 a6 24 3d 59 9a 97 3e
       -0.17952634 -0.004595502 0.040198237 0.29609945
000150 ab 96 98 3d 3b 7c c1 be 7c 24 d6 3c 10 ea 7c 3e
       0.07450613 -0.37790093 0.026140444 0.24698663
000160 f0 8a cf bd d9 58 9c be 12 5f f5 3c c1 66 e3 bd
       -0.10133922 -0.30536535 0.02995256 -0.11103583
000170 79 06 4f be 0c da 33 be 53 10 10 be d8 9e 47 be
       -0.20217313 -0.17563647 -0.14068727 -0.19494188
000180 ce 7b 4f 3e 50 8a 83 3e 73 30 db 3d 86 7b 92 bd
       0.20262071 0.25691462 0.107026 -0.071524665
000190 e1 93 a6 bd fb 82 85 3e 27 6e 6c 3e 51 d3 63 3e
       -0.081336744 0.26076493 0.23088895 0.2224858
0001a0 92 83 84 be 0f 82 b4 3e dc c6 4a 3e cc 52 31 3e
       -0.2588163 0.35255477 0.19802421 0.17316741
0001b0 41 85 a0 3e 49 36 2d be da 34 45 3e 05 83 07 bc
       0.31351665 -0.1691524 0.19258443 -0.008270984
0001c0 3d 9f de bd 49 15 85 be a8 b1 44 3e 07 bb dc 3d
       -0.10870216 -0.25992802 0.19208395 0.1077786
0001d0 fc 6d 89 be 6f be a9 3e d9 ad 8a be c8 a0 6f be
       -0.26841724 0.33153102 -0.2708576 -0.23401177
0001e0 45 22 72 3e 57 fb b4 3c 1b dd a3 be 0e f0 8e 3e
       0.23645885 0.022092504 -0.32004628 0.27917522
0001f0 8b 13 e0 3d 4b 9a 9e bd 14 7c 26 3e 43 92 2d 3d
       0.109412275 -0.07744273 0.1625827 0.042375814
000200 2a 88 35 3e c0 f5 8c 3e ce d5 66 be 5d 77 18 be
       0.17727724 0.27531242 -0.22542498 -0.14889283
000210 34 c4 1f be 64 e8 a4 3c 26 42 7e bd 1f 56 52 bd
       -0.1560219 0.020130344 -0.062074803 -0.051351663
000220 e0 d0 42 3e c5 ef 44 3e ac f9 bb 3d ff 7f 7b be
       0.19024992 0.1923209 0.091784805 -0.24560545
000230 66 18 e2 3d 54 fe 62 3e 32 11 5b bb 4f b3 06 bd
       0.1103981 0.22167331 -0.0033426997 -0.032885846
000240 6c 6c 98 3e c4 ec 9b 3d d8 f3 e2 3c 40 46 6d 3e
       0.2977022 0.07613519 0.027704164 0.2317133
000250 30 cd 24 be a2 68 14 be aa 78 35 3d 1d 2a 95 3e
       -0.16093898 -0.14493039 0.044304527 0.29133692
000260 d0 ea 19 be 84 f0 6f 3e 0f 36 1c 3e 20 cf 2e bd
       -0.1503098 0.23431593 0.15254997 -0.042678
000270 64 2e 11 3e c9 42 52 3d 01 5e 52 be ff f8 81 3e
       0.14177853 0.051333223 -0.20543672 0.2538528
000280 a2 61 70 be 82 d8 5d be 55 19 24 be ea 70 0a be
       -0.23474744 -0.21664622 -0.16025288 -0.13519636
000290 9b 65 ad bc 29 f1 fb 3d 74 11 f3 ba 71 61 25 be
       -0.021166613 0.12301857 -0.001854463 -0.16150452
0002a0 14 7e 69 3d 4a 04 3c 3e 0f 68 b0 be 4c b0 d8 3d
       0.057005003 0.18361011 -0.3445439 0.10580501
0002b0 1b 3f 71 3c c3 25 6f be b8 8d 50 3d b8 4f a9 be
       0.014724518 -0.23354249 0.050916404 -0.33068633
0002c0 d9 1d 4e 3e fb 46 d6 bd e9 5c b3 bd 32 e7 82 be
       0.20128573 -0.10462757 -0.087579556 -0.25567013
0002d0 1a 74 00 3e ec e2 3e be a5 2b 31 bd 9d b5 34 be
       0.12544289 -0.18641251 -0.043254513 -0.17647405
0002e0 c3 72 12 3e 5c ce 22 bd 32 0a ae bc 80 33 4a be
       0.1430159 -0.03974758 -0.021245096 -0.19746208
0002f0 b6 83 bd bd dd 3a 3e 3e d1 0d bb bd fb f4 6a 3e
       -0.092536375 0.18577142 -0.09133495 0.22945015
000300 c1 fa 09 3e 62 06 65 be b2 43 6b 3e f1 8a 7f bd
       0.13474561 -0.22365716 0.22975042 -0.062388364
000310 6d 77 1d 3e 51 2f 75 3e d4 06 aa bd 3e 95 4a be
       0.15377589 0.23943831 -0.083020836 -0.19783494
000320 5f 3a db 3d c5 65 b3 bd be e7 42 be 5b 05 74 3e
       0.10704493 -0.087596454 -0.19033715 0.23830168
000330 2e da 6f 3e 20 c4 b0 bc 63 70 64 3e cd e5 8d bd
       0.23423073 -0.021577895 0.22308497 -0.06928597
000340 32 d2 bd 3d 11 0e 8d 3d 4a 30 0d be 91 5f 27 3e
       0.09268607 0.068874486 -0.13787952 0.1634505
000350 e2 91 d6 3c c8 74 71 3d 7d 68 f1 bd 14 b1 96 be
       0.02619261 0.058949262 -0.11787508 -0.29431975
000360 a4 bd 80 bc 76 4a 1e 3d 61 64 a0 3e dc 25 75 3d
       -0.015715428 0.03864523 0.31326583 0.05985056
000370 2a 6f 9e bd 8c 50 69 3c b6 36 cb bc 54 26 5f 3e
       -0.077360466 0.014240395 -0.024806362 0.21791965
000380 a4 d7 d7 bd 62 f8 41 be 63 cf 86 3d 5e cf 76 bc
       -0.10539177 -0.18942407 0.065825246 -0.015064089
000390 0b d9 ac 3e 55 79 21 3e 07 5f 76 3e 2f 97 3a be
       0.3375934 0.15768941 0.24059688 -0.18221734
0003a0 fc 0d 2e 3e a1 c7 08 3e 29 95 b7 3e 96 f7 a1 be
       0.16997522 0.13357402 0.35855988 -0.31634206
0003b0 09 fe 66 3d a2 a0 60 be e3 a9 3f be c5 ca 44 bd
       0.05639461 -0.21936277 -0.1871715 -0.04804494
0003c0 d4 41 3a 3d 21 c4 a0 3d 95 86 b6 3d 1c cd 3e be
       0.045472935 0.078499086 0.08912388 -0.1863293
0003d0 69 3f cd 3d 22 bf 34 3e f0 1a 91 3e 1c a0 07 bd
       0.1002186 0.17651036 0.28340864 -0.033111677
0003e0 13 45 1b 3d b7 6f f4 bd 5e 41 9b bd 9d b2 cb 3d
       0.03790767 -0.119353704 -0.07580827 0.09946177
0003f0 97 f4 83 be 52 c1 04 be da 45 59 3c 43 b4 f2 bc
       -0.25772545 -0.12964371 0.013261283 -0.029626971

encoder.transformer.out_proj.bias f4 [16]
000000 ec 8e fd 3a 68 dd 88 bd 87 b2 88 3d 96 69 b7 3c
       0.0019344962 -0.06682855 0.066746764 0.022389214
000010 ca f2 69 3b c2 09 80 bd 7d 7c b5 b9 a6 ed 99 3d
       0.0035697692 -0.06251861 -0.0003461576 0.07516031
000020 29 ca f0 bc 4f 77 53 3c 09 f6 73 3d d2 8a 0b 3c
       -0.029393272 0.012906863 0.05956081 0.008516984
000030 72 0a bd ba b7 8b a0 bd 94 c2 9b bd 91 ad ad 3c
       -0.0014422669 -0.078391485 -0.07605472 0.021200927

encoder.ln1.weight f4 [16]
000000 49 bb 82 3f 43 06 89 3f c4 6b 7e 3f 11 22 6e 3f
       1.0213405 1.0705036 0.9938319 0.9302073
000010 ff d7 80 3f 23 40 8a 3f 84 01 81 3f e1 c6 6c 3f
       1.0065917 1.0800823 1.0078588 0.92490965
000020 7c e7 89 3f e6 ce 80 3f 55 6a 71 3f 12 60 88 3f
       1.0773768 1.006314 0.94302875 1.0654318
000030 d1 e5 81 3f 86 ff 6a 3f 4a 03 82 3f 49 db 89 3f
       1.0148259 0.9179615 1.0157254 1.0770046

encoder.ln1.bias f4 [16]
000000 95 3d f6 bc 4f 90 da bd ce 5e a8 3d 71 4d 15 bc
       -0.030058661 -0.10672056 0.082212076 -0.009112702
000010 93 28 1a bd 80 96 80 bd cd d8 47 3d 16 6d ad 3d
       -0.03763635 -0.062787056 0.04879074 0.08468072
000020 c6 cf 59 bd d4 a4 b3 3c 85 44 61 3d 52 ec 11 3c
       -0.053176664 0.021929182 0.054996986 0.008906441
000030 ef b9 4d bd 92 1b 9f bd 4e 7d 87 bd 69 9a 19 3d
       -0.05022615 -0.077689305 -0.06615697 0.037500773

encoder.ln2.weight f4 [16]
000000 2c 3a 81 3f 5a 18 82 3f a1 e4 7d 3f 6c 10 7d 3f
       1.0095878 1.0163682 0.99176985 0.9885318
000010 fa cc 77 3f 20 f9 87 3f b2 7f 77 3f 1c 65 87 3f
       0.96797144 1.0622902 0.9667922 1.0577731
000020 ae ab 8a 3f b0 3b 83 3f 6f 8f 81 3f 94 7f 8a 3f
       1.0833642 1.025259 1.0121897 1.0820184
000030 8b 66 84 3f f4 ac 7c 3f 3f b6 85 3f f7 a4 79 3f
       1.0343794 0.98701406 1.0446242 0.9751734

encoder.ln2.bias f4 [16]
000000 50 d8 8e bc aa 92 59 bd 9c 1f a0 3d 69 50 d5 3c
       -0.01743713 -0.053118385 0.07818529 0.02603932
000010 45 3b dd 3c eb 75 ba bd 90 9a a8 3d b7 64 d0 3d
       0.027005801 -0.09104522 0.082326055 0.1017546
000020 6c a5 bb bb 2a 69 14 3d cc 1e 71 3d d8 31 f3 3b
       -0.005726507 0.036233105 0.05886726 0.0074217133
000030 cc ec 1c 3c 25 30 91 bd e5 29 35 be 1d e6 b6 3b
       0.009577941 -0.07089261 -0.17691763 0.005581631

decoder.output_head.weight f4 [24, 16]
000000 85 61 c1 bd 29 cb 9b 3a 6f bf da 3d b5 e1 15 be
       -0.094424285 0.0011886108 0.10681044 -0.14636882
000010 ff 02 8d 3e 7d 10 f9 3d ca 6f 29 3e e3 2d cb bd
       0.27541348 0.12161348 0.1654655 -0.099208616
000020 06 98 8b 3e 6c 38 9b 3d 3c a6 fe bd 92 1a 94 3d
       0.27264422 0.07579121 -0.124340504 0.072316304
000030 63 97 2d bd 6a f2 e0 3d 37 9b a8 bd 93 a6 ca 3d
       -0.0423807 0.10983737 -0.0823273 0.09895053
000040 85 eb d9 3b 85 d4 c6 bb 40 e0 c2 3b c4 8b f8 3c
       0.0066503906 -0.006067815 0.005947143 0.030340083
000050 6a 4a 3d bd 2e 64 0f 3d a7 68 37 bd 06 fb f9 bc
       -0.046213545 0.03500765 -0.04477754 -0.030515205
000060 85 15 64 3d 5e 88 e6 bd 39 85 79 bb 66 04 e8 bd
       0.055684585 -0.11256479 -0.0038073792 -0.11328964
000070 7f e1 1b be 13 37 23 3d c7 f8 b7 bc 6e 77 e9 3d
       -0.15222739 0.039847445 -0.022457493 0.113997325
000080 60 de dc bc 23 66 d4 bd e5 8a 00 3e c0 21 49 3d
       -0.026961505 -0.103710435 0.12552984 0.049104452
000090 da 4c b2 bd 33 37 1f 3e 3d c4 b9 bd 05 80 18 3e
       -0.087060645 0.155484 -0.090706326 0.14892586
0000a0 df d4 bf b9 b2 08 6e 3e 00 c3 a3 be 85 32 72 3d
       -0.0003658896 0.23245504 -0.3198471 0.05913021
0000b0 93 09 9f 3d fe ce 1c be 1e fe d8 bb fc b8 9a bd
       0.07765498 -0.15313336 -0.00662209 -0.07554814
0000c0 27 8b 2a 3e 39 ea b8 be 99 14 62 be 76 b1 00 3d
       0.16654645 -0.36116198 -0.2207817 0.03141924
0000d0 98 9e 94 bc 06 9d f3 3d a3 cf 35 3a 6b 7a 11 be
       -0.01814203 0.11895184 0.00069355423 -0.14206855
0000e0 3d 58 d8 3d 7e cf c6 3d d7 8f b8 3d e3 3d c9 bd
       0.10563705 0.09707545 0.0901181 -0.09826257
0000f0 68 81 91 38 e0 ab 2a 3e 52 e9 7e 3d 8f 47 23 3e
       6.9382426e-05 0.16667128 0.06223423 0.15945266
000100 46 4a cd bb f7 20 0a be 35 f7 27 be 50 bf 62 be
       -0.0062649576 -0.13489138 -0.16402896 -0.22143292
000110 82 ad 4b 3d 80 c6 75 be ef 78 3e be cf f6 4e be
       0.049726017 -0.24001503 -0.1860082 -0.20211338
000120 bd 86 53 3e b8 97 96 3d 4a 60 81 be 51 08 c9 3b
       0.20656867 0.07353157 -0.25268775 0.0061350246
000130 71 4b 29 be 07 9d 00 3e fe 29 d6 3d 76 7b 55 3b
       -0.16532685 0.12559901 0.10457228 0.003257481
000140 2c 55 a1 bd f7 ab b8 bc cf a4 57 bd c7 a7 67 be
       -0.07877573 -0.022542937 -0.052647408 -0.22622596
000150 95 98 a7 3d da fa 8f be cc 6f 20 3e a8 93 93 3b
       0.081833996 -0.28121072 0.15667647 0.004503686
000160 da 4b 77 3d 21 ec 37 be 30 11 26 3e cc 28 ff bd
       0.060375072 -0.1796117 0.16217494 -0.12458953
000170 2a 77 87 3e d1 2e c2 bd 2d bc a2 bd a9 ec 58 bd
       0.26458102 -0.09481586 -0.07946048 -0.05296007
000180 f5 15 ae 3d 9f 90 1c be 9b a5 a2 3e 00 fb d6 3d
       0.08500282 -0.15289544 0.31766972 0.10497093
000190 7a 35 7a 39 80 ca a8 bc ba 5b 89 be ac b0 c8 3d
       0.0002386178 -0.020604372 -0.26827794 0.097993225
0001a0 cb a4 80 bd e4 93 c1 3c 45 a2 e2 bd d5 a6 30 3c
       -0.06281432 0.02363009 -0.11066107 0.010781963
0001b0 ae 71 11 be d3 d4 9c 3e 2e ed ca 3d 26 46 2b 3e
       -0.14203522 0.30631122 0.0990852 0.16725978
0001c0 18 6f b4 bc e7 a5 e8 3c c2 58 ec bd d0 18 8d 3d
       -0.02202563 0.02839942 -0.11540367 0.06889498
0001d0 fa 48 72 3e 9d 14 42 3d c5 03 26 3e c6 b1 6b be
       0.23660651 0.04738294 0.16212375 -0.23017034
0001e0 77 0f 16 3e 92 63 bd 3d a6 08 73 be ad 8e b1 3d
       0.14654337 0.09247507 -0.23733768 0.08669791
0001f0 cc 9a 89 be 02 20 36 3d a1 6f 82 bd a2 4a 0f 3e
       -0.26875913 0.04446412 -0.06368948 0.13993314
000200 98 ba 68 3e c6 42 27 3c b9 79 fd 3d c8 61 b8 bd
       0.2272743 0.010208791 0.123767324 -0.09003025
000210 99 2b 50 bc 42 aa 48 3e 3c 40 02 3e a4 9f 0a be
       -0.012705707 0.19596198 0.12719816 -0.1353746
000220 f3 a8 0f be 66 96 1c be f9 1e 0e 3e 9d 5f d6 3c
       -0.14029293 -0.15291747 0.13879003 0.026168639
000230 90 fd 83 3d 0b d6 4b be 16 3f ed bd 73 1e 9b 3e
       0.064448476 -0.1990587 -0.11584298 0.30296668
000240 59 29 6e 3e b9 3d 26 be 66 00 49 be df e7 20 be
       0.2325796 -0.16234483 -0.19629058 -0.15713452
000250 37 8a 6b bd ba ce 0b 3d 20 ea 00 bd f4 52 6f 3c
       -0.05750486 0.034132697 -0.03147328 0.01460718
000260 28 4b 3f bd 16 14 dd bd c4 e5 95 ba 74 26 ef bd
       -0.046702534 -0.10794847 -0.0011436273 -0.11677256
000270 2b 94 56 be 27 21 59 3e eb a1 d7 bd f0 b7 0e 3e
       -0.20954959 0.21204053 -0.1052893 0.13937354
000280 83 46 33 3e f2 ad c5 bd ee 48 6e 3d d8 b8 24 3e
       0.17507367 -0.09652318 0.05817502 0.16086137
000290 3f 21 25 3b 09 f9 e5 bd f5 36 47 3e bc 1e 0b be
       0.0025196818 -0.1122914 0.19454558 -0.13585943
0002a0 f4 37 17 be c5 40 f5 3d f0 98 6d be 88 b8 e9 be
       -0.14767438 0.119752444 -0.23202872 -0.456486
0002b0 be d6 d5 bc 8d e3 63 bc 53 14 6b 3d 06 3c 39 be
       -0.026103374 -0.013909233 0.05739243 -0.18089303
0002c0 7f da 54 be a0 78 4e be 98 19 5e bd 99 12 3e be
       -0.20786475 -0.20163202 -0.054223627 -0.18561782
0002d0 72 4a 3e 3e 43 5d f7 bd e5 42 0b be d8 ab 5b be
       0.18583086 -0.12078335 -0.13599737 -0.21452272
0002e0 65 6d 8e 3d 87 35 10 3e 08 0a b6 bd e0 d7 f8 3d
       0.06954459 0.14082919 -0.08888632 0.1215055
0002f0 ee 5d 83 be 00 bc e1 3d d9 93 c2 3c 8c 90 a1 3c
       -0.256576 0.11022186 0.02375214 0.019722246
000300 c0 2f dc bd b1 e7 8f 3e e6 9a 46 bd d4 f6 03 3d
       -0.10751295 0.28106454 -0.048487566 0.032217816
000310 21 41 76 3e dd 94 62 3e 29 dc 49 bd 32 25 8a be
       0.24048282 0.221271 -0.049282227 -0.26981503
000320 4b 27 c3 bc 5f e5 f8 bd c4 7b 0c 3e 85 64 c3 bc
       -0.023822447 -0.12153124 0.13719088 -0.023851642
000330 b1 dc 16 3e fa 74 87 3d 69 b3 b6 3e 08 bc b6 bd
       0.14732625 0.066141084 0.35683754 -0.08922583
000340 65 39 63 bd ab 55 3d bd 99 89 ab bd d2 58 a4 be
       -0.055474658 -0.046224277 -0.08375854 -0.32099015
000350 1f 9a 02 be dd 34 de 3c 71 54 a0 bd 6c ec 1a be
       -0.12754105 0.027124817 -0.07828606 -0.1512925
000360 2d 9b ed bd 74 85 0c be 8c a3 30 be 9e d5 41 bd
       -0.11601863 -0.13722783 -0.17249888 -0.04732286
000370 44 bf 34 be 29 51 a7 3d d7 a5 fa 3c f8 cf 7e bc
       -0.17651087 0.08169777 0.030596657 -0.015552513
000380 63 4d 11 3e bd b8 03 3e ba d1 37 3e 66 e9 e4 bd
       0.14189677 0.12863441 0.17951098 -0.1117733
000390 05 ae 8f 3c fc 16 66 3e 7e 7e 7f bd e5 28 04 be
       0.017539034 0.22469705 -0.06237649 -0.12906225
0003a0 46 89 65 bd 16 fe 09 be 28 12 db bd 4d 0e 13 3d
       -0.056039117 -0.13475832 -0.106968224 0.03590231
0003b0 8e 1d f6 3d bc 01 8c 3e 7d 72 4b 3e 27 ff e6 3d
       0.12017356 0.27345073 0.19867893 0.11279135
0003c0 63 4e fc bd 08 ed 8d bd c2 62 9e 3d 86 86 aa bd
       -0.123196386 -0.06929976 0.0773368 -0.083264396
0003d0 02 50 d2 bd a6 49 07 3e 3d 29 4b be e1 38 20 3d
       -0.102691665 0.13211688 -0.1983995 0.039116744
0003e0 c0 1b f1 bd 22 6a 1f be 1f 4e 96 bd 97 e7 8b bd
       -0.11772871 -0.1556783 -0.07339119 -0.06831282
0003f0 1c 21 43 be b8 81 71 3e 73 48 b7 3c 4a 9d d9 3c
       -0.19055599 0.2358464 0.022373414 0.02656426

decoder.output_head.bias f4 [24]
000000 2c c8 2c 3e 5e 35 1e bd 9f 26 a0 bd 0c af e9 bc
       0.16873235 -0.038625114 -0.078198664 -0.028525852
000010 5a 68 63 3d b1 91 a8 3d 2f 18 87 bd 59 63 1c 3d
       0.05551944 0.082309134 -0.065964095 0.038180683
000020 a2 61 2b 3d 0a 21 41 be ab 7a a6 bd d6 08 34 3e
       0.041841157 -0.1886026 -0.08128866 0.17581496
000030 91 1d 03 be d8 87 0b be 01 72 02 3e dc 63 98 be
       -0.12804247 -0.13626039 0.12738802 -0.29763687
000040 e2 fe 40 bc 5d 45 4e be 99 81 98 3d 92 3c 96 be
       -0.011779519 -0.20143647 0.07446594 -0.29343086
000050 07 da 7c 3c a6 8d b9 3d 7f 7f 0a bd 10 2a ab be
       0.015432841 0.090602204 -0.033812996 -0.3343053
