experiments/model_64_40_2026-01-17_9454/model.pt (torch, 213359 bytes, 18 tensors)

encoder.graph_embed.GCN_in.A f4 [9, 9]
00000000: 5493 f13e 9022 3d3f 7e2c 02bf ccce 3e3f
00000010: 9920 d53d c376 f83f 759e cd3f 6a30 5abf
00000020: 8282 2a3f 8ece f43e adf1 293f 2293 8dbf
00000030: 9d93 c83f 998d 14be 378b b03e 4697 6d3f
00000040: f1fe 08bf dbf8 02bf d965 e2be dedd 22bf
00000050: d8b9 d53f 0e6f 2a3f f85e 1c3f 0c7a 983f
00000060: 960b 26bf 90ff 363e 64c7 0c40 1ba7 513f
00000070: bacb e3be 257c bebe 1cd6 2ebf 6372 763e
00000080: 2936 36bf 94a0 c53d 3984 e2bf dc08 69bf
00000090: 40ea a6bd 9457 f73e c0f2 62bf c261 babf
000000a0: 8b66 b73e a75d 32bf 1a20 7f3f cc4d 2e3f
000000b0: 64d7 f9be 2cd6 553e 1360 143f 61b0 653e
000000c0: 9a34 7b3e 3403 cdbd aac1 233f fd46 fcbf
000000d0: 46fd b7bf ec7b 1440 ee52 62bf 1d6c 803f
000000e0: c588 2abf 1d87 e0bc 0148 b0be 0395 67be
000000f0: 6eca c2bf e784 803f 335e a23f 2408 1e3f
00000100: 2888 63bf f2c0 b83f 8bb3 abbf 5989 0540
00000110: 8cff 9e3f 59c3 c2bf ae0a 28bf 0dc4 ea3e
00000120: 82a0 a43f 19e1 1ebf 98d3 5fbf 0113 cb3c
00000130: 52ef f43e 7e12 b9be 90a8 fd3e b47d be3f
00000140: 8b3f 103f
0.47182715 0.73880863 -0.5084914 0.74534297 0.10406608 1.9411243 1.6063982 -0.85230124
0.6660539 0.4781384 0.6638439 -1.1060526 1.5670048 -0.1450714 0.34481212 0.9280895
-0.5351401 -0.51160973 -0.4421833 -0.6361979 1.669734 0.66575706 0.6108241 1.1912246
-0.6486143 0.17870927 2.1996698 0.8189561 -0.4449137 -0.3720409 -0.68295455 0.24067073
-0.7117639 0.096497685 -1.7696601 -0.91029143 -0.081501484 0.48309004 -0.8865166 -1.4561083
0.35820422 -0.6967415 0.9965836 0.6808746 -0.48797143 0.20882481 0.579591 0.22430564
0.24531785 -0.100103766 0.6396738 -1.9709164 -1.4374168 2.3200636 -0.8840779 1.0032994
-0.66614944 -0.027408177 -0.34429935 -0.22615437 -1.5218027 1.0040559 1.2684997 0.6173117
-0.8887963 1.4433882 -1.3414167 2.086508 1.2421737 -1.5215865 -0.65641296 0.458527
1.2861483 -0.6206222 -0.8743224 0.024789335 0.47838837 -0.3614692 0.49542665 1.4882112
0.5634696

encoder.graph_embed.GCN_in.linear.weight f4 [64, 16]
00000000: de7c 483b a44f 51be d6d2 443d 6029 0bbc
00000010: 2cf7 da3d 5ac4 26bd df6d fbbd 6a60 863b
00000020: 5860 303e 8151 413e eb9a 0bbc 96c3 6c3d
00000030: 0c68 10bd 6910 6cbe 2e5e 21be a781 1f3e
00000040: 81bc a7bd ff2c b23d 2ae2 83bd 3a30 f6bc
00000050: 981b 453e a0d5 4c3d 35b8 233d 46c7 aebd
00000060: 64f1 0bbe 7c38 8d3d 5a50 0dbe 1e33 f0bd
00000070: d21f ef3d 0a5b bebc dfd4 90bd 18cd afbc
00000080: 140d 1b3e e953 84be b35d 92bd 3d72 3f3e
00000090: 93a9 883e 2671 963d 3351 efbd b39b 5bbe
000000a0: 8fc1 8e3d 06f2 bcbd 9557 243e ac67 8ebd
000000b0: bffb d83c 7498 a5bd 3d1f 27be 9f94 62bd
000000c0: 9723 93be cf8d 0cbe e3e9 673e c8e4 b0b8
000000d0: 547a c43c 3ce5 08be 6e1b 07be d5ec 0dbe
000000e0: fa95 e93d 5ce8 0fbe 5b55 79bd aed3 48be
000000f0: a1c9 86be 19ca d03d f342 6e3c a42f f83d
00000100: f688 343e 2f7a a63d 8d66 72bb de3b 4abd
00000110: c689 923a 6d75 5a3e 0dad 57be cae5 5fbe
00000120: fc30 303e 9856 02be 95ab c8bd 4f78 f93d
00000130: 8997 81bd 2399 febd 7f4f d0bd d5e0 01be
00000140: 26bc c5bd adfc 7e3d d558 1abd 0e66 39be
00000150: 2f41 a5bd 95ec 0dbe fb3b ca3d bdb9 0ebe
00000160: 1818 12be e4fb 533e 5246 483e be4d 12bd
00000170: 3643 4f3d 082e 42be 2075 8ebd 7539 223e
00000180: 1165 10bd 6442 823e 3e91 f13d d2a8 7f3e
00000190: cf7e be3d 33da af3d af52 933e 9ae0 17be
000001a0: f7f9 aabb 49fc 06be 8cbe 0a3d 4f5c 5fbe
000001b0: 4c7c 02bd 24e9 21be d850 82bc dc74 4dbe
000001c0: 1b33 81be 3b74 233e 68f2 313e 9274 6ebe
000001d0: 59db 363e 90c3 c73d 2cd1 2ebe cf80 97be
000001e0: f223 a43b f1f9 02be 5a75 80be a5e0 8fbe
000001f0: ecc3 a7bd bd04 14be 7870 c23d 9613 13be
00000200: 0a19 9c3d 7f3e 14bd c8a6 443e 10c6 36be
00000210: cc72 4bbd 725c 803d d17b 0c3e c247 573e
00000220: cf06 013d 93dc 16be 9c56 313e d327 613e
00000230: 767f 223e f984 90bd ce62 bbbb b586 d03d
00000240: 863b 8dbd e82a 7bbd 2721 5e3d 63ff 3e3e
00000250: 14cc 833e d7c3 19be 371f db3c 2fd4 be3c
00000260: f019 323e 90ee 1c3e e38a cebc 9f01 6e3e
00000270: 907b 0e3e a9e6 273e 1326 30bc c09b a3bd
00000280: aace 1dbe f2cc ddbc 9574 3d3d 0dc5 52be
00000290: e6af cf3d 7f0d 4fbe d169 0abe a3af 87bd
000002a0: 986c 37be e532 b4bc 7c85 36be a0a1 5d3e
000002b0: 9ced 03be d637 623e e512 1abd ad1e b73d
000002c0: 95bc 1e3e c41c 57bd f235 5d3c 576c e6bd
000002d0: 176e 36bd 3c44 ea3d f77f 153e b76e 033e
000002e0: 78ad e53d 9b2a 5dbd bf42 76be f28e 31be
000002f0: 2dad 323e 2d80 19be 6879 003e 1a35 92be
00000300: c5c7 9ebd 067c 30be 59fa 5a3e bd69 85bc
00000310: 41e3 7a3e 40d0 68be f4a2 84be 22a3 353e
00000320: 3143 493e 01e7 97bd 2c4a 9c3d 9457 333e
00000330: b3c8 1c3e 80f5 203e 88d9 1dbe 08b3 7dbd
00000340: fa3a d13d 69a3 a63d e139 333d 8266 b4bd
00000350: a90c 353e 7db3 5b3e 182a 6e3e e5ba 783e
00000360: 4dc7 683e 35b1 65be 32a8 86bd e717 df3d
00000370: b43c 06bc e281 53bd 4180 3fbe f8cb 393c
00000380: 19f9 35be 01cb a03e 6ad3 46be 1037 523d
00000390: cf39 76bd 66a4 c1bd 2d6f 9a3c c13a 87be
000003a0: 868e bcbd 899c 333e 11a4 bbbd 6cf5 51be
000003b0: 357e ea3d 8166 4dbe bd86 04bd 95e8 4c3e
000003c0: 0fab 2fbe b244 dfba 1a58 6fbe c5c1 a7bd
000003d0: 7a1c 06be ddfb 27be 8ceb 013d d50b 003e
000003e0: 5647 6b3e cc3c b43c a03d 34bc 934f f13d
000003f0: 760c ddbd 6d2a c43d e95c efbc b599 173e
0.0030592005 -0.20440537 0.04805263 -0.008493751 0.106916755 -0.0407146 -0.122768156 0.004100849
0.17224252 0.18878748 -0.008520822 0.057803713 -0.035255477 -0.23053135 -0.15758583 0.15576802
-0.08190251 0.086999886 -0.06439622 -0.030052293 0.19248807 0.050008416 0.039970595 -0.08534102
-0.13666302 0.06895539 -0.13800183 -0.117285 0.11675991 -0.02323677 -0.07071852 -0.021460101
0.15141708 -0.25845268 -0.07146778 0.18695922 0.26691875 0.073458 -0.116854094 -0.21446113
0.06970512 -0.0922585 0.16049035 -0.069533676 0.02648723 -0.08085719 -0.1632051 -0.055317517
-0.2873809 -0.1372597 0.22647814 -8.434948e-05 0.023984112 -0.13368696 -0.13194057 -0.13859876
0.11405559 -0.14053482 -0.060872417 -0.19612 -0.26325706 0.10194797 0.014542329 0.12118462
0.17630371 0.081287734 -0.0036987395 -0.0493735 0.0011179976 0.21333857 -0.21062107 -0.21865001
0.17206186 -0.12728345 -0.09798352 0.1218115 -0.06327731 -0.12431552 -0.10171413 -0.12683423
-0.09655027 0.06225269 -0.037682373 -0.18105337 -0.080690734 -0.1385978 0.098747216 -0.13938041
-0.14267004 0.20701557 0.19558075 -0.035718672 0.050601207 -0.18962872 -0.069559336 0.1584223
-0.035252634 0.25441277 0.11795281 0.24966744 0.093015306 0.0858654 0.2877402 -0.14831772
-0.0052177864 -0.13182177 0.033873126 -0.21812557 -0.03185682 -0.15811592 -0.01590769 -0.2006411
-0.25234303 0.15962307 0.17377627 -0.23286656 0.17857112 0.097540975 -0.1707198 -0.2959046
0.005009168 -0.12790658 -0.25089532 -0.28101078 -0.08191666 -0.14454933 0.09494108 -0.1436294
0.07621963 -0.036192413 0.19204247 -0.17848992 -0.049670026 0.062676325 0.13719107 0.21023467
0.031500634 -0.1473258 0.17318195 0.21987848 0.15868935 -0.070566125 -0.0057185655 0.10181943
-0.06896119 -0.061320215 0.054230835 0.1865211 0.25741637 -0.15016113 0.026748283 0.023294536
0.17392707 0.1532538 -0.02521271 0.23242806 0.13914323 0.16396584 -0.010751265 -0.07988691
-0.15410867 -0.027075265 0.04625376 -0.20582981 0.10140972 -0.20219992 -0.13516928 -0.06625297
-0.17912519 -0.021996925 -0.17824358 0.21643686 -0.1288361 0.22091612 -0.037615675 0.08941398
0.15501626 -0.052517667 0.013501631 -0.11251133 -0.044538584 0.11438796 0.14599596 0.12835203
0.11214727 -0.05399571 -0.24048899 -0.17339686 0.17448874 -0.14990301 0.12546313 -0.28556138
-0.07752947 -0.17234811 0.21384563 -0.016285772 0.24500753 -0.22735691 -0.25905573 0.17738011
0.19654538 -0.074171074 0.07631335 0.17513877 0.15310936 0.15718651 -0.15415013 -0.061938316
0.10216327 0.08136637 0.04375637 -0.08808614 0.1768061 0.21455188 0.23258245 0.24290045
0.22732277 -0.2243088 -0.065750495 0.10893231 -0.008193184 -0.051637538 -0.18701269 0.011340134
-0.17770804 0.3140488 -0.19416586 0.051322043 -0.060113724 -0.09455185 0.01885184 -0.26412013
-0.09206872 0.17540182 -0.091621526 -0.20503777 0.11449853 -0.20058633 -0.03235506 0.20010598
-0.17155097 -0.0017034023 -0.23373452 -0.081912555 -0.130968 -0.16404672 0.031718776 0.12504514
0.22976431 0.022001646 -0.011001021 0.11782756 -0.10793392 0.095784046 -0.029219108 0.14804728

encoder.graph_embed.GCN_in.linear.bias f4 [64]
00000000: 28ac 19bb 1520 10bc fc43 b53d 7326 41bd
00000010: 750e 99bd 3fc6 653e b341 2e3d 3856 8b3b
00000020: b947 133e 477c 0fbe f3bc 0e3e 9bec 83be
00000030: feeb edbd 70b4 88bd aa6f b7bd 29c6 bd3d
00000040: 2408 ba3d 686a d43d dcc9 f13b 2bbc a7bb
00000050: 676d 82bd 52ee e83d 8460 213d 144d a1bd
00000060: 22a5 4e3e 0d91 f1bc b4cf 10be b393 9e3d
00000070: 5919 743e c160 863e 8427 583e cdae 073e
00000080: ffb4 2bbe b892 5a3a fc4c 80bd fffb bc3d
00000090: 85a4 803d 6e4e bf39 0d3b f13c 8a8d 303d
000000a0: ff5e 233e 9b89 ac3d 747d 803d cba9 203e
000000b0: ffdb b53d 6f4b 16be f413 5c3e f590 433e
000000c0: 79f5 42be 7f04 09be 573c 39bd d5e3 233e
000000d0: 9cd1 363e f91e f23b 3dd0 8b3e 5e30 a73d
000000e0: d6e4 43bd 2355 053d 30b3 54bd 47d9 a73a
000000f0: baa3 92bd cc67 d03d 522b 14be 92ef 6abd
-0.002344856 -0.008796711 0.088508576 -0.04715581 -0.074734606 0.22438906 0.042543124 0.0042522214
0.14382829 -0.14012252 0.13939266 -0.25766453 -0.116172776 -0.06675041 -0.08956845 0.09266312
0.09083584 0.10371858 0.0073788 -0.005118867 -0.06368523 0.11373581 0.039398685 -0.078760296
0.2018018 -0.02948811 -0.14141732 0.07743015 0.23837794 0.26245692 0.21108824 0.13250275
-0.16768263 0.0008337903 -0.062646836 0.09227752 0.062813796 0.00036488794 0.029447103 0.043103732
0.15954207 0.08424684 0.06273928 0.15689771 0.088798515 -0.14677213 0.21491987 0.19098265
-0.19038953 -0.13380621 -0.04522356 0.1600488 0.17853397 0.007388946 0.2730731 0.08163522
-0.047825657 0.032551896 -0.0519287 0.0012805843 -0.071601346 0.10176048 -0.1446965 -0.05735738

encoder.graph_embed.bn.weight f4 [64]
00000000: 405d 753f 5721 823f 9b4a 723f 87c1 6d3f
00000010: 6ea3 713f 831b 803f 111a 783f 6ca1 7f3f
00000020: 216f 7d3f ce64 7a3f eebd 723f 99a5 843f
00000030: 4f0f 763f 4f24 7f3f 8e03 793f 33bd 813f
00000040: b8aa 753f bcd7 6a3f f5f9 823f 63e7 783f
00000050: db6a 763f b199 813f f3f8 7f3f cd6b 793f
00000060: c5d4 7d3f 0d97 743f 2682 843f db38 843f
00000070: 1c47 7e3f 6885 763f d38e 793f 7fe5 733f
00000080: fc59 733f bd1c 723f d68e 7a3f 8c39 6e3f
00000090: 30b1 783f df6f 743f ce1f 6d3f ffad 7b3f
000000a0: 9db7 793f 6be9 7d3f 3852 833f 54d6 773f
000000b0: 8dea 803f e397 753f 4a25 7a3f 3e69 833f
000000c0: 949f 6e3f 5d59 7b3f faac 7c3f fe63 813f
000000d0: 7f68 783f e19e 723f 7190 7a3f a040 7e3f
000000e0: f81f 6f3f 645f 7d3f 5e8b 7b3f 01b0 803f
000000f0: c582 823f 3a15 753f 7591 7b3f f7ab 723f
0.95845413 1.0166425 0.9464509 0.92873424 0.9439 1.0008396 0.96914774 0.99855685
0.98997694 0.97810066 0.9482106 1.0363036 0.9611711 0.9966478 0.9727105 1.0135864
0.9596362 0.91735435 1.0232531 0.9722807 0.962568 1.0125028 0.9998924 0.97430116
0.99152786 0.95542985 1.0352218 1.0329851 0.99327254 0.9629731 0.9748356 0.9527206
0.9505918 0.945751 0.978742 0.9305656 0.97145367 0.954832 0.92626655 0.9831237
0.97545797 0.9918429 1.0259466 0.96811414 1.0071579 0.95934886 0.9771315 1.0266492
0.93212247 0.9818323 0.9870144 1.010864 0.9703445 0.9477368 0.9787665 0.9931736
0.93408155 0.9897368 0.9825953 1.0053712 1.0196158 0.95735514 0.98268825 0.9479365

encoder.graph_embed.bn.bias f4 [64]
00000000: 0fff 113d 14a6 6ebc 895d 6cbd 4ea2 fbbc
00000010: 5095 38bd e2fe 7cbc b899 26bc ec91 e5bc
00000020: 4f52 cebc 3c11 4cba 419d 1cbc 2d48 34bd
00000030: e7ef b73c e5cb 83bb d7a9 afbd 3681 3e3c
00000040: 7f0f 14bb d8da 4abd 4982 023d abf9 1fbc
00000050: a444 203d c622 cdbc e4c2 21bc 6d9a c3bb
00000060: fd1b 903c b3c6 15bc 06cf 2b3b e663 cc39
00000070: d245 4a3d 6a40 c03c 1963 5a3c 20d0 cf3b
00000080: 60f9 adbc 2288 4b3c b6e3 133c c07c fc3c
00000090: b350 173d b818 9b3c dd78 813c f555 cb3c
000000a0: 3a38 463c 4fb3 03bb 0cb9 8a3c 85b8 de3b
000000b0: 8ea3 29bd 7429 47bb a3ca 9a39 3110 223c
000000c0: 2a90 0ebd fd01 013c 3f32 723c 6c0d b53a
000000d0: 31cf 053c d768 0a3d 382a a83c 3158 c23b
000000e0: 04af 0f3c cb7a 433d fd31 abbc 25e9 7dbb
000000f0: 3a93 9e3b e6a0 d23c 25e2 35bd ec5c 32bd
0.035643633 -0.014565963 -0.05770639 -0.030717041 -0.04506427 -0.015441628 -0.010168485 -0.028023683
-0.025185732 -0.00077845505 -0.009558977 -0.044014145 0.022453262 -0.004022109 -0.08577316 0.011627486
-0.0022592244 -0.049525112 0.03186253 -0.009764115 0.03912796 -0.025040995 -0.009873126 -0.0059693367
0.01759147 -0.009141612 0.0026215925 0.00038984342 0.049382992 0.023468215 0.013329291 0.006341949
-0.021237075 0.012422593 0.0090264585 0.030821204 0.036942195 0.018932685 0.015804702 0.024821261
0.012098366 -0.002009589 0.01693394 0.006796899 -0.041415744 -0.0030389698 0.00029524145 0.009891556
-0.034805454 0.007874009 0.014782487 0.0013813204 0.008167074 0.03379139 0.020527944 0.0059309234
0.008769754 0.047724526 -0.02089786 -0.0038743701 0.004839328 0.025711488 -0.04440512 -0.04354565

encoder.graph_embed.bn.running_mean f4 [64]
00000000: 718e 923d 9cd6 a2bc 57e3 683d f8c2 7e3e
00000010: b06f 4c3c fef5 423e caf0 8a3c 453c 3f3e
00000020: 4427 3f3e 4475 81ba 869f 073e 045f 86bd
00000030: 762e da3d cde0 cd3d 7ad9 e13d 1ed3 5f3d
00000040: b366 cf3d 716c e13d 2bd1 113e 5362 d03d
00000050: c105 163c ced4 f73d 7526 263d cfa5 433d
00000060: d72c 393e deb0 953c 1798 6dbd f893 cd3d
00000070: aa1a 913e 2233 953e f5ad 253e c99a 343e
00000080: ee2a cf3c 2248 fd3d 7a10 623d 41a1 413e
00000090: 85b6 8e3c a650 1b3c 18f7 f73d 4024 683c
000000a0: c6c6 543e 3df1 2f3e 2d10 463e b1b1 883d
000000b0: 7edc d73d f310 8abd 98c0 383e efb4 653e
000000c0: 557d 82bd 5b63 2abc 75c4 873d 3836 5c3d
000000d0: c17b a43e 1038 c53c 2f1e 8b3e e8fd 0e3e
000000e0: a4c8 233d ae51 ac3d 91cf 923d 7b3a 3e3d
000000f0: e3e1 53bd 1bcf 3c3d ba44 d3bc db3f 7e3b
0.07156075 -0.019877724 0.056857433 0.24879062 0.0124778 0.19039151 0.01696052 0.18675335
0.18667322 -0.0009876867 0.13244447 -0.065610915 0.10653393 0.10052643 0.110278085 0.054644696
0.1012701 0.11007012 0.14239947 0.10175004 0.009156645 0.12101136 0.04056402 0.04776555
0.18083511 0.018272813 -0.058006372 0.100379884 0.28340656 0.29140574 0.1617964 0.17637171
0.025289025 0.12367274 0.055191495 0.1890917 0.017421016 0.009479677 0.12107676 0.014168799
0.20778951 0.17181869 0.19342108 0.06674517 0.105401024 -0.06741514 0.18042219 0.22432302
-0.063715614 -0.010399665 0.06629268 0.053762645 0.32125667 0.024074584 0.27171466 0.13964045
0.039986268 0.08414017 0.071684964 0.04644249 -0.051729094 0.04609595 -0.025789607 0.0038795385

encoder.graph_embed.bn.running_var f4 [64]
00000000: 932c d63c c91e 293c 0142 a93c 6b90 6c3e
00000010: 9d07 973c c0b5 a13d 13d9 d63c eee3 253e
00000020: c90c a23d 0b9f 183d d8ba 223d ce68 223d
00000030: 318d cb3d 1f24 f43d c6f0 043e d2a0 f63c
00000040: 0f84 923c 4e3a a83d 81e6 583d 11b1 f73d
00000050: dcf1 d83c 23c5 273d 0d3e 4c3c ae71 d33c
00000060: f0cd af3d 096c 083d 4046 c33b b760 703c
00000070: 1cf1 143e 7d66 fc3d 18a4 453d d9ac 433e
00000080: f681 003d 77c8 473e 5e2b 633d b855 b33d
00000090: 8e94 b83c 149a 7a3d a83d b13d 7886 bf3c
000000a0: bd7b 203e 89ba 533d 9aa7 223e 5424 9a3c
000000b0: ccaa ff3d 625e 303c b9ac d13d 83df c53d
000000c0: e5b3 a33b 30c6 e03c 4c78 c73c d70c ed3c
000000d0: bb92 a03e ebb8 a73c 0068 543d 849d 1c3d
000000e0: 0bf9 543c 52b1 733c 32ea 923d e8f4 423d
000000f0: f4e0 3f3c 2bdb 153d 0a24 8e3c 0a3f f23c
0.026144302 0.010322281 0.020661356 0.23101966 0.018436247 0.07895994 0.026226556 0.1620023
0.07912595 0.03726105 0.03972897 0.03965073 0.099390395 0.11920952 0.12982473 0.030105982
0.017885236 0.08214246 0.0529542 0.120943196 0.026482515 0.04095949 0.012465966 0.025811043
0.08584201 0.033306155 0.005959302 0.014671496 0.14545101 0.123242356 0.048252195 0.19108905
0.03137394 0.19510065 0.05546128 0.08756584 0.022531774 0.061182097 0.08654338 0.02337955
0.15672202 0.051691566 0.15884247 0.01881615 0.12483749 0.01076469 0.10238022 0.09661772
0.0049958103 0.027438253 0.024349354 0.028936787 0.31361946 0.020473918 0.051856995 0.038236156
0.01299883 0.014873819 0.071735755 0.047596842 0.011711348 0.036585968 0.01735117 0.029571075

encoder.pos_enc.pe f4 [500, 64]
00000000: 0000 0000 0000 803f 0000 0000 0000 803f
00000010: 0000 0000 0000 803f 0000 0000 0000 803f
00000020: 0000 0000 0000 803f 0000 0000 0000 803f
00000030: 0000 0000 0000 803f 0000 0000 0000 803f
00000040: 0000 0000 0000 803f 0000 0000 0000 803f
00000050: 0000 0000 0000 803f 0000 0000 0000 803f
00000060: 0000 0000 0000 803f 0000 0000 0000 803f
00000070: 0000 0000 0000 803f 0000 0000 0000 803f
00000080: 0000 0000 0000 803f 0000 0000 0000 803f
00000090: 0000 0000 0000 803f 0000 0000 0000 803f
000000a0: 0000 0000 0000 803f 0000 0000 0000 803f
000000b0: 0000 0000 0000 803f 0000 0000 0000 803f
000000c0: 0000 0000 0000 803f 0000 0000 0000 803f
000000d0: 0000 0000 0000 803f 0000 0000 0000 803f
000000e0: 0000 0000 0000 803f 0000 0000 0000 803f
000000f0: 0000 0000 0000 803f 0000 0000 0000 803f
00000100: a46a 573f 4151 0a3f ce7a 2e3f b054 3b3f
00000110: ba7d 083f 0d94 583f f090 d13e c792 693f
00000120: 3e39 9f3e 6b4e 733f 258f 703e f1d5 783f
00000130: 3a23 353e 83f6 7b3f f325 083e 28ba 7d3f
00000140: 7675 cc3d 98b8 7e3f 366f 993d d147 7f3f
00000150: ae36 663d 6898 7f3f faac 2c3d bdc5 7f3f
00000160: 5b81 013d 3cdf 7f3f a53e c23c 93ed 7f3f
00000170: 42ab 913c a3f5 7f3f 497a 5a3c 2cfa 7f3f
00000180: 57d6 233c b9fc 7f3f 16b9 f53b 28fe 7f3f
00000190: 5a44 b83b f7fe 7f3f 5a2e 8a3b 6bff 7f3f
000001a0: 1c3e 4f3b acff 7f3f 0369 1b3b d1ff 7f3f
000001b0: 2015 e93a e6ff 7f3f 8ac9 ae3a f1ff 7f3f
000001c0: 6d12 833a f8ff 7f3f 8994 443a fbff 7f3f
000001d0: 136a 133a fdff 7f3f 2117 dd39 ffff 7f3f
000001e0: 61cb a539 ffff 7f3f 0da8 7839 0000 803f
000001f0: 5377 3a39 0000 803f 6dd4 0b39 0000 803f
00000200: b7c7 683f 3311 d5be d95a 7f3f 534d 913d
00000210: 0af2 663f b2e8 dc3e 1135 3f3f 0339 2a3f
00000220: 1b54 173f ec7b 4e3f b5d3 e93e 69be 633f
00000230: f647 b23e a6fa 6f3f 82f0 863e f5f2 763f
00000240: f86f 4b3e a5e5 7a3f d300 193e 4f20 7d3f
00000250: 86d9 e53d f361 7e3f ae85 ac3d 0e17 7f3f
00000260: c870 813d f97c 7f3f aa30 423d 4eb6 7f3f
00000270: 5ca5 113d 8ed6 7f3f 5075 da3c b1e8 7f3f
00000280: 3ed4 a33c e5f2 7f3f 51b7 753c a1f8 7f3f
00000290: 9b43 383c dbfb 7f3f 0a2e 0a3c abfd 7f3f
000002a0: d83d cf3b b1fe 7f3f e768 9b3b 43ff 7f3f
000002b0: 0815 693b 96ff 7f3f 7fc9 2e3b c4ff 7f3f
000002c0: 6812 033b dfff 7f3f 8594 c43a edff 7f3f
000002d0: 126a 933a f5ff 7f3f 1f17 5d3a faff 7f3f
000002e0: 60cb 253a fdff 7f3f 0ca8 f839 feff 7f3f
000002f0: 5377 ba39 ffff 7f3f 6dd4 8b39 0000 803f
00000300: c381 103e 2670 7dbf de3c 473f cebf 20bf
00000310: d745 7e3f ab7f edbd 6321 743f 6318 9a3e
00000320: c209 503f 582f 153f b724 273f a2e7 413f
00000330: 6c2f 023f 296d 5c3f a768 c73e 37c9 6b3f
00000340: 6c4e 973e ef90 743f e26d 643e 928c 793f
00000350: d7ee 2b3e 9e5d 7c3f 2c33 013e 43f4 7d3f
00000360: c0ff c13d 4fd9 7e3f 0693 913d 3a5a 7f3f
00000370: 4e69 5a3d c3a2 7f3f c5d1 233d 90cb 7f3f
00000380: 1fb9 f53c 83e2 7f3f 4747 b83c 6bef 7f3f
00000390: c631 8a3c adf6 7f3f 4644 4f3c c1fa 7f3f
000003a0: 0d6e 1b3c 0dfd 7f3f 131d e93b 58fe 7f3f
000003b0: a8cf ae3b 11ff 7f3f 1317 833b 7aff 7f3f
000003c0: 929b 443b b5ff 7f3f 606f 133b d6ff 7f3f
000003d0: 171f dd3a e8ff 7f3f 56d1 a53a f3ff 7f3f
000003e0: 10b1 783a f9ff 7f3f 097e 3a3a fcff 7f3f
000003f0: 7ed9 0b3a feff 7f3f a4be d139 ffff 7f3f
0.0 1.0 0.0 1.0 0.0 1.0 0.0 1.0
0.0 1.0 0.0 1.0 0.0 1.0 0.0 1.0
0.0 1.0 0.0 1.0 0.0 1.0 0.0 1.0
0.0 1.0 0.0 1.0 0.0 1.0 0.0 1.0
0.0 1.0 0.0 1.0 0.0 1.0 0.0 1.0
0.0 1.0 0.0 1.0 0.0 1.0 0.0 1.0
0.0 1.0 0.0 1.0 0.0 1.0 0.0 1.0
0.0 1.0 0.0 1.0 0.0 1.0 0.0 1.0
0.84147096 0.54030234 0.68156135 0.731761 0.53316844 0.8460091 0.4093089 0.9123959
0.3109836 0.9504153 0.23492105 0.9720145 0.17689219 0.9842302 0.13295726 0.99112177
0.099833414 0.9950042 0.07491915 0.9971896 0.05620449 0.9984193 0.04215715 0.999111
0.031617504 0.99950004 0.023711512 0.99971884 0.017781857 0.99984187 0.013334819 0.99991107
0.009999833 0.99995 0.0074988706 0.99997187 0.0056233825 0.9999842 0.0042169513 0.9999911
0.0031622713 0.999995 0.0023713715 0.9999972 0.0017782785 0.99999845 0.001333521 0.9999991
0.0009999998 0.9999995 0.000749894 0.9999997 0.0005623411 0.9999998 0.00042169637 0.99999994
0.00031622782 0.99999994 0.00023713727 1.0 0.00017782794 1.0 0.00013335208 1.0
0.9092974 -0.41614684 0.99748 0.070948265 0.9021307 0.43146282 0.7469035 0.6649324
0.5911271 0.8065784 0.45669332 0.8896242 0.34820527 0.93741834 0.26355368 0.96464473
0.19866931 0.9800666 0.1494172 0.98877424 0.1122313 0.9936821 0.08423935 0.99644554
0.063203394 0.9980007 0.04740969 0.9988755 0.03555809 0.9993676 0.026667267 0.99964434
0.019998666 0.9998 0.014997319 0.9998875 0.011246587 0.99993676 0.008433828 0.9999644
0.006324511 0.99998003 0.00474273 0.99998873 0.0035565514 0.9999937 0.0026670394 0.9999964
0.0019999985 0.99999803 0.0014997876 0.99999887 0.0011246821 0.99999934 0.0008433926 0.99999964
0.0006324556 0.9999998 0.0004742745 0.9999999 0.00035565588 0.99999994 0.00026670416 1.0
0.14112 -0.9899925 0.7782725 -0.6279267 0.9932532 -0.11596616 0.95363444 0.3009673
0.8126489 0.58275366 0.652904 0.7574407 0.5085361 0.86104065 0.3894703 0.92103904
0.2955202 0.9553365 0.22307542 0.9748012 0.16790329 0.9858035 0.12617177 0.9920084
0.094726086 0.99550337 0.071081206 0.9974705 0.053323083 0.9985773 0.039994974 0.99919987
0.0299955 0.99955004 0.022494925 0.999747 0.016869437 0.9998577 0.012650555 0.99991995
0.009486687 0.999955 0.0071140616 0.9999747 0.005334813 0.99998575 0.0040005534 0.999992
0.0029999954 0.9999955 0.0022496805 0.9999975 0.0016870227 0.99999857 0.0012650888 0.9999992
0.00094868336 0.9999996 0.00071141176 0.99999976 0.0005334838 0.9999999 0.00040005625 0.99999994

encoder.transformer.in_proj_weight f4 [192, 64]
00000000: 2813 04be c15b 163e 8622 c33d 078c 2c3e
00000010: 7124 c7bd 4fcb 1f3e a801 89bd ab2b 313e
00000020: 609b 623d a4b4 a63d 442b bd3d d0b6 063d
00000030: af77 e63d 74f3 643b cf7f ac3d e307 203e
00000040: a3d8 e53c f642 83bc 8134 943d 19c4 c3bc
00000050: ab36 163e 9087 0d3e d7a0 37be 532e 683d
00000060: 590d 253d d3ae d33d 0215 bb3d 2d0b e0bd
00000070: a28e dfbd 0dc8 2a3d 82c6 c6bd 9e12 2cbe
00000080: 0bf6 fd3d 7602 dcbc cf8c d8bd 268a 2b3d
00000090: b409 1c3d ac96 6d3d b1f7 37bc 6d10 0b3d
000000a0: 43f7 39bd 4c26 e9bd 436a 453e 6d92 833d
000000b0: bc04 ec3c 0f6c b9bd 8fb9 0abe 07df 293d
000000c0: 2116 673d 5f09 11be 9757 173c 0f12 b9bd
000000d0: aae0 49bd 1a06 9fbd 9dd5 85bd d749 1cbe
000000e0: 9526 2b3e 4508 cdbd 22f2 17bc d27d b7bd
000000f0: 2af8 153c 5e58 663d 9fea 143e 22da 82bd
00000100: c9ad 953c a117 87bd 7653 f7bd 89c1 093d
00000110: 2f1b afbd df77 8ebd 96a1 9b3b b2e3 3cbd
00000120: 371e 903d 2945 063c 01a3 7cbd 1096 513a
00000130: 63d5 efbd 8aca 8fbd 7e0f 9dbd 37b4 c8bd
00000140: d9b9 ae3d 6779 033e 86f2 ac3d 5cf4 043e
00000150: 6240 b6bc 0402 bf3d 715b 5ebd 2110 34bc
00000160: babc 00be 9346 cfbb 0e11 673b 73ba f1bc
00000170: 04f1 05bd 69f1 3dbe cc38 1c3c 3ff4 5ebd
00000180: 8cf3 d83d cf74 773d 514f 93ba 9601 f93c
00000190: 666d 3a3e 47f7 a23c 9710 443d 542b 423c
000001a0: 5e6d 563d 4aab c93d 0df0 67bc 07d5 0bbe
000001b0: b8a1 f13d 3448 83bd a18b b63d afc1 7ebd
000001c0: 8772 6ebd 2a6a f43d 520e a9bd c4d1 05be
000001d0: a39d b73d 51d9 f93d dfff 363d 2f16 debc
000001e0: d036 c63c d1da b5bd 241b 18be 9ab4 ca3c
000001f0: 8b67 ba3c 81a1 dfbd 6718 6fbd 3b6e 34bd
00000200: ee34 f6bd 35cc 7dbb 412d bdbd afc7 3ebd
00000210: 55c9 04bd 98ab d9bd 5a56 ba3d 5b87 c4bd
00000220: 5c83 a2bd 39c8 c4bd 78c0 c5bd 33d3 0e3e
00000230: 188d ad3b 2c7f ba3d b8ee dbbd 6d6f 44be
00000240: f1a5 883c bc10 443d 1699 b93d bd96 b63d
00000250: 867f 0abe c1b4 07be 269f 31bc 2b70 abbd
00000260: 88c0 be3b 83f1 b0bd bf4d 01be 107a 79bd
00000270: bf92 603c 271d 36be 090a 68bc 7cb5 1bbe
00000280: 73a6 ae3c 4f59 bbbd 603a f93d 5bd2 d5bd
00000290: 315b 163e 49ea 8fbc 4274 3b3e e083 de3d
000002a0: a873 233e cef1 943d 209c 003e b90c 3dbd
000002b0: 010b 09be 75a1 113e 9d5f dcbc 554c 9a3d
000002c0: 1907 68bd 1ae2 29bc 19aa 1fbd 1518 58bd
000002d0: eacb b8bd bd79 13be 7293 0ebe 4349 b0bd
000002e0: b90f 8cbd 5106 0abe 9c50 0abe f0ce 61bc
000002f0: 3602 743d 2246 ba3b d2c5 b3bd a9a5 d33c
00000300: 4494 d83d 637c d6bc 2d99 3a3c 240c cb3d
00000310: 7b6a 99bc 393e c7bc b8bf f2bb dd8d f23c
00000320: 4abd d93c 8b27 0dbc c1ee d0bd da1c 41bd
00000330: bf4e c53d 37fb 133e 5b9e 173c 25c4 1dbe
00000340: d8d1 fdbd 36d1 1b3d d876 1cbe 7bcd c8bd
00000350: 7b51 74bd 4b60 c7bc 1bab fd3c 0675 f0bc
00000360: ac10 983c 67cf 03be dc2d ed3d a95b 91bc
00000370: 8ae9 c53a c95e edbd 3c4d 23be 3ec3 303e
00000380: ba44 1dbe c72c dd3b a1f5 17be 1ef8 0fbd
00000390: 274a f2bd 7a37 133e 0144 09be cc2b 19be
000003a0: f7b6 15be 61f3 d63d e11d a4bd a9fa 1a3d
000003b0: 3266 103e 7dc4 643d f4fb 44bd b67c f03c
000003c0: 072f 223d 11d3 13bc ab6f e3bc d638 003e
000003d0: 0e5e 0a3c d29e 923d da19 7dbd fcb5 c1bc
000003e0: d7d5 e1bc 1f1d 35bd 79f5 f8bd 0158 ce3c
000003f0: 4b34 753d 34f5 1bbe b532 bf3c fcb7 f93d
-0.12897933 0.14683439 0.09528069 0.16850291 -0.097237475 0.156049 -0.06689769 0.17301814
0.05532396 0.08139923 0.09236768 0.032889187 0.112532966 0.0034935148 0.08422815 0.15628009
0.028057402 -0.01602314 0.07236577 -0.023897218 0.14669292 0.13821244 -0.1793245 0.056684803
0.040295932 0.103360794 0.09134866 -0.109396316 -0.10915877 0.04169469 -0.09705831 -0.16803977
0.124004446 -0.026856642 -0.10573732 0.041879795 0.03809519 0.05800502 -0.011228488 0.03395121
-0.045401823 -0.11384258 0.19278817 0.06424413 0.028810851 -0.09053814 -0.13547347 0.04147246
0.05641759 -0.14163731 0.009237192 -0.090366475 -0.049286522 -0.07764836 -0.06534884 -0.15262543
0.16713937 -0.10011343 -0.009274038 -0.08959545 0.009153405 0.056236617 0.14542626 -0.06389262
0.018271344 -0.06596304 -0.12076466 0.033631835 -0.08550107 -0.06956457 0.004749487 -0.046115585
0.07037013 0.0081952 -0.06167889 0.00079950783 -0.11710622 -0.07021053 -0.076689705 -0.09799998
0.085315414 0.1283928 0.08444695 0.1298384 -0.022247497 0.09326556 -0.054286424 -0.010990174
-0.12571993 -0.006325552 0.0035257968 -0.029507851 -0.032700554 -0.18549122 0.009535026 -0.05443215
0.10593328 0.06041413 -0.0011238848 0.030396264 0.18205795 0.019893302 0.047867384 0.011851151
0.052350394 0.09847124 -0.014156354 -0.13655482 0.117984235 -0.06410256 0.08913351 -0.06219643
-0.05821469 0.11934312 -0.082546845 -0.130683 0.08965614 0.12199653 0.04467761 -0.027110187
0.024196059 -0.088796265 -0.14854103 0.02474432 0.022754451 -0.10919476 -0.05837288 -0.044050436
-0.12021814 -0.0038726453 -0.09237147 -0.046577152 -0.032418568 -0.10628432 0.090985015 -0.095961295
-0.07935211 -0.09608502 -0.09655851 0.13947754 0.0052963607 0.09106287 -0.10738891 -0.1918313
0.01668069 0.04786752 0.09062402 0.0891547 -0.13525209 -0.13252546 -0.010841167 -0.08371004
0.0058212914 -0.08639815 -0.12627314 -0.060907423 0.013706862 -0.17784558 -0.014162549 -0.1520595
0.021319604 -0.09147894 0.12169337 -0.10440513 0.14683224 -0.01756777 0.18306068 0.10864997
0.15962088 0.07272683 0.12559557 -0.04615471 -0.13383104 0.14221747 -0.02690106 0.075340904
-0.056647394 -0.010368848 -0.038980577 -0.05275734 -0.090232685 -0.14401908 -0.13923433 -0.086077236
-0.06838936 -0.13478972 -0.13507313 -0.013782248 0.05957242 0.00568463 -0.087779656 0.025835829
0.105751544 -0.02618236 0.011389059 0.09914425 -0.018727532 -0.024321662 -0.0074081086 0.029608661
0.026579518 -0.008615385 -0.10201789 -0.047146656 0.0963416 0.144513 0.0092540635 -0.15406854
-0.1239354 0.038041316 -0.1527971 -0.09804817 -0.05964802 -0.024337908 0.030965379 -0.029352676
0.018562637 -0.12872086 0.115810126 -0.017743902 0.0015099507 -0.115903445 -0.15947431 0.17261979
-0.15358248 0.0067497226 -0.14839794 -0.035148732 -0.1183055 0.14376631 -0.13404848 -0.14958113
-0.14620577 0.104956396 -0.080135114 0.037836704 0.14101484 0.05585145 -0.048091844 0.029356342
0.03959563 -0.00902249 -0.027763208 0.12521681 0.008445276 0.07159199 -0.061792232 -0.023646347
-0.027567787 -0.044217225 -0.12156195 0.025188448 0.059864324 -0.15230256 0.023339609 0.12193295

encoder.transformer.in_proj_bias f4 [192]
00000000: d627 57bd 3661 b1bc 2885 66bc 7d20 993c
00000010: 2650 81bc d2e4 a73c c2f8 24bd 9103 553b
00000020: 0205 0cbd e738 5ebc 8375 c3bb 3df4 36bd
00000030: 9250 aebc 6f94 02bc c2a0 debb e3a2 b33c
00000040: 6352 b03c 2fb0 f53c 7c8a a53c 84e1 ccbc
00000050: 25f5 953c db4e 2e3c 66b2 193d 813a 1f3d
00000060: 2d36 053d ed95 133c 0bb5 0dbc d8c7 ba3c
00000070: 6513 a1bc 0d44 73bd 7479 41bb 1a3a cfbc
00000080: c844 923b bcab 3d3d 8c25 493a f8e1 07bc
00000090: 571e 683c f7de 063b 9e48 82ba 9d57 f83c
000000a0: c484 e53c 1c1c 173b 7d7d 4a3d 83b6 30bc
000000b0: 2fc6 f2bc 3bba 25bd 985f c9bc e6f2 a1bd
000000c0: 1ad2 213d 810d b0bc 991d 90bc 75d0 203d
000000d0: 9446 c13c dad7 e4bc 79f3 703d a320 6b3c
000000e0: 733a a63c 7c37 77bd 4d8d 6d3b 7201 64bc
000000f0: d39b 7cbc 49df 2f3c 51df c1bb e081 f23c
00000100: 8a6a d637 e954 3db6 90d9 b636 01dd 66b7
00000110: f6df 0e37 07aa 5036 7a70 a5b4 d35b 6837
00000120: 459c 4c38 e19b 1837 da83 7fb7 c15d 3437
00000130: 8f42 9b36 1494 3237 2588 32b7 d54e 0fb8
00000140: a2ce 32b6 df87 c535 349d 95b7 3d18 5337
00000150: 001f 7f34 685f 92b7 09e3 8ab7 b095 80b6
00000160: 670f ef35 1e55 b4b6 dc55 f5b6 2aad b936
00000170: cf37 9e36 1297 a038 6f3e ecb6 3199 4637
00000180: 9910 1538 7a01 9538 66a8 8a38 8453 60b8
00000190: e3ad 1938 9b6f 9eb7 3aba 0638 a32f c338
000001a0: 4f07 4238 dc3a 2ab7 3cf7 8f38 cc85 3d36
000001b0: 0975 52b8 022d 67b8 7bc7 9db8 634c 93b8
000001c0: a04e df38 d483 b2b8 9cc7 93b5 0810 b338
000001d0: 8fd2 b538 b5a3 e7b7 f0b6 9138 2634 4038
000001e0: 8c20 6f37 5166 73b8 a1c9 0ab8 c644 6ab8
000001f0: 168d c5b8 5715 3338 ee06 89b8 704d 3437
00000200: aed9 4fbc 699a b7bb ddf4 413c 6730 243c
00000210: bf6e 27bd 1091 103c 8e45 033c 105d 83bc
00000220: e4b1 b8ba f18f ddbb c96d 07bd 53af ce3b
00000230: ec4e 65bc 3125 853c a174 613c 39dc c13b
00000240: b85a 5f3b b6af b7bc b92b 31bc ba83 e43c
00000250: a6da 943b 61e3 8c3c 0a48 c9bc 33fa 01bd
00000260: d56a be3c 4295 be3b e7de 5fbb 4cb2 e93b
00000270: a4d0 34bc 6cd6 943b 1f4d 963c 5f52 3c3c
00000280: 1dfa 033d 3be7 8a3c 5af9 d53c bbbe 31bc
00000290: 10f8 81bc 0bae fbba 3f05 13bc 4983 223c
000002a0: 96e9 ee3c dc41 81bb d04a 2d3c 9350 7d3a
000002b0: e012 33bc ce85 883c cb5b 883c c334 41bc
000002c0: d8ec b7bb f7c3 e43c 7227 55bb 11bf 323b
000002d0: 7828 13bc 50dc ffba 8627 97bb 5976 a0bc
000002e0: f22e 913b 892b 01bd 02f9 643b 7bd5 f33b
000002f0: 703a 0d3c 1be6 6f3c bc9c fcba 43f3 983b
-0.052528225 -0.0216528 -0.014069833 0.01869225 -0.015785288 0.020494852 -0.040276296 0.0032503346
-0.034184463 -0.013563371 -0.005964936 -0.044666518 -0.021278653 -0.00796996 -0.006794066 0.021928256
0.02152366 0.029991237 0.020207636 -0.025009878 0.01830537 0.010638918 0.03752365 0.038874153
0.03252237 0.009007913 -0.008649121 0.022800371 -0.019662568 -0.05939107 -0.0029521855 -0.02529626
0.004463766 0.046306357 0.00076731364 -0.008293621 0.01416739 0.0020579675 -0.0009939854 0.030315215
0.02801741 0.0023057526 0.04943608 -0.010785702 -0.029635517 -0.040460806 -0.024581715 -0.07907657
0.03950701 -0.021490814 -0.017592238 0.0392613 0.023593225 -0.027934957 0.058825944 0.014351043
0.020291543 -0.06035565 0.0036247552 -0.01391636 -0.015418011 0.010734388 -0.005916514 0.029602945
2.5560399e-05 -2.821262e-06 5.4493503e-06 -1.3760525e-05 8.5160045e-06 3.1093384e-06 -3.0815482e-07 1.3849657e-05
4.8782927e-05 9.096199e-06 -1.52298835e-05 1.0750665e-05 4.6271084e-06 1.0644104e-05 -1.0641325e-05 -3.4167275e-05
-2.6644343e-06 1.4717187e-06 -1.7835388e-05 1.25822235e-05 2.3760003e-07 -1.7448983e-05 -1.6556603e-05 -3.832123e-06
1.781137e-06 -5.374327e-06 -7.3115643e-06 5.5335886e-06 4.715264e-06 7.6575336e-05 -7.0406163e-06 1.1837387e-05
3.5539826e-05 7.105149e-05 6.6117194e-05 -5.348354e-05 3.6639987e-05 -1.8887038e-05 3.2121527e-05 9.3071976e-05
4.626001e-05 -1.0146494e-05 6.864822e-05 2.8241075e-06 -5.01769e-05 -5.511661e-05 -7.5234995e-05 -7.023734e-05
0.00010648114 -8.512256e-05 -1.1010447e-06 8.538371e-05 8.669972e-05 -2.7613578e-05 6.9482136e-05 4.5824934e-05
1.4253088e-05 -5.8031004e-05 -3.3089545e-05 -5.5853998e-05 -9.419971e-05 4.26968e-05 -6.53396e-05 1.0746866e-05
-0.012686176 -0.005603124 0.011838165 0.010021306 -0.0408771 0.008823648 0.008012189 -0.016035587
-0.0014091101 -0.006761544 -0.033063684 0.0063075214 -0.013995867 0.016253086 0.013760717 0.005916145
0.0034081172 -0.022422653 -0.010813647 0.027894843 0.0045426665 0.017198266 -0.024570484 -0.03173275
0.0232443 0.0058161328 -0.003415996 0.0071318503 -0.011036072 0.0045421626 0.018347321 0.011494248
0.03222095 0.016955962 0.026119877 -0.010848696 -0.015865356 -0.0019201649 -0.008973419 0.009918996
0.029164117 -0.0039446186 0.010576919 0.00096631906 -0.010929793 0.016665366 0.016645333 -0.0117923645
-0.005612951 0.027925475 -0.0032524732 0.002727453 -0.0089818165 -0.0019520614 -0.004612866 -0.019587683
0.004430645 -0.03153566 0.003493846 0.0074412203 0.00861989 0.014642264 -0.0019272785 0.004667671

encoder.transformer.out_proj.weight f4 [64, 64]
00000000: c692 033d a2ef a2bc fba1 1a3e 8521 8abd
00000010: 1813 31be a003 8abd 98c5 59bd e70b 87bc
00000020: d3e9 f63c 041a aebd ff0f cbbd 5154 bc3d
00000030: b95d a33d 3872 0d3e 0011 bb3d 66fe 94bd
00000040: 3417 083e 99bb c8bd 9fce 0a3e 0ddb cf3d
00000050: 763e cabc 3d17 a3bd b664 50bc 5266 9fbc
00000060: e005 8d3d 1a1c 793d 23b4 093e a12d fabc
00000070: 1e1d 8d3d d406 1ebd 83fe 863d 2b0f 9e3d
00000080: 4998 423d 23fa 9eba b3aa 0d3e d48e 26be
00000090: c61b dabd 82c5 ae3c 2c6e cc3d 5dd9 003e
000000a0: 0ba6 263e 276b 943d 3423 113e 0c7f 933c
000000b0: 9fef ae3c f89e 313e d2ad 883d 3bb9 eebb
000000c0: 15bc 35be a852 913d 7241 98bc 43c1 24bd
000000d0: 4d72 533d ef97 fc3d 9c1d c8bd c699 c8bd
000000e0: 1781 ddbd 4f99 00be 972b b83d 2b41 fabd
000000f0: ad49 9e3b 32e5 93bd 518c a9bb 815f 213d
00000100: fa65 13bd 0c81 bf3d 9bb3 463d 73b3 1abd
00000110: dcd2 4d3d bdd7 1abe 7d36 ea3c 9300 d83c
00000120: 5d71 99bd a0fd af3d a9db b0bd 3265 bc3d
00000130: 5c4f 12bd f333 42bc 965e 303d 7c1a 90ba
00000140: ddf3 f43d dc6c 09bd def0 55bd aa71 d63d
00000150: e1c9 d33c 543e 483b 1401 b13d 07ce 993d
00000160: 865c fdbd 5d69 adbd 756e c73d 9140 9abc
00000170: 7a05 053e 2af2 efbc 5b97 873d aa1b a43d
00000180: 6379 773c 4de1 9bba b8ca c93d ca54 d4bd
00000190: a3e4 b1bc d312 5cbd 1b4f ee3c 810b 013c
000001a0: 96ee f23d e3de 5e3d 7feb 703d 7984 ae3d
000001b0: 05ab 9fbd ab78 353d b685 5fbd ce23 203d
000001c0: 15ff e9bc 5187 27bd 1b42 ae3d ee3e c1bd
000001d0: c220 cd3d bb1a 8dbc 5db3 093d a37e 11be
000001e0: 9688 d2bd 4ef2 c13c 857c 963c 3281 61bc
000001f0: 20b0 f2bd 1797 473d bf49 b93c 5e62 a73d
00000200: 4d3c 38bd b8f1 093d 596f e13b de2e bd3c
00000210: afbd e73d 8ecd c73d 0af7 ccbd bac9 bebd
00000220: 7a9b 94bc 1b67 ad3c 66b5 823d e2d9 d0bb
00000230: 779f 86bd 69f5 a3bc 700d 13bd d3cf b5bd
00000240: 9fc0 6fbc eea6 dcbd 111a a93c d43b f63a
00000250: d73a aebd e33c d0bd 6830 423c 4200 4fbd
00000260: d1f8 96bb 812d 09be c676 a1bd 52de d4bc
00000270: da2b 463d 740c b83c 7572 f9bd d10a c1bc
00000280: 2b2c 6c3d 1cfe 9fbd 0f76 ffbd 4879 a6bd
00000290: 3b6f ba3d b165 703d b422 7f3d c0bb b4bc
000002a0: e1c5 23be cd3a b3bc 85df 99bd c5c4 86bd
000002b0: 63ec 27be 6fdc a73c eee6 3d3d 45e4 46bc
000002c0: cf4e c63c 640a 20be a1a2 ea3c 83fa 843d
000002d0: aba5 813b 4b2e d3bc c195 083e 1a1b 64bc
000002e0: 68ef 073e 1f79 c33c 24bd f7bd 8bcf 053d
000002f0: 15c5 693d f418 55bd 3535 1e3e 5a27 62bc
00000300: 740f d0bd 89e9 d6bd 5732 00be 3b32 013e
00000310: e4b5 a3bd 37e9 c3bc bea6 ab3c 6289 19bd
00000320: 35b6 34bc 4c50 6b3d a3ff aa3d 8fe2 45bd
00000330: 1827 4e3d 3b7b 86bc 2bfa 183d ebfe fabc
00000340: 210c 3a3d 8bdf bdbb 03f6 99bd ba95 10bd
00000350: 4ff9 0e3b b018 263d 7833 42bb 0ded 93bd
00000360: bf06 bfbd 36a1 a1bd dab7 acbc ddef 62bd
00000370: c4f2 d63d aca4 0abe c9a3 573d 1acd 033d
00000380: e3a8 17bd 5e17 e2bc f997 523d e8ae 083e
00000390: faf9 94bd cec4 10bd 2e9f 19bc d947 02be
000003a0: 4e6b f6bd cba6 f13c 3a12 7c3d cf62 c83d
000003b0: fee6 313e 8907 10be d4d0 fdbd 8d80 90bd
000003c0: ee11 c63d 3396 12bd 07cc 51bd c014 4e3d
000003d0: ede6 213c d8a6 eb3d af50 bb3d 8262 a5bd
000003e0: 6e7c 6cbd d00b cb3d db7c fb3d e320 7bbd
000003f0: c861 09bb cfaf c83d 6549 8bbd e9d0 023c
0.032122396 -0.019889656 0.15100853 -0.067446746 -0.1729244 -0.06738973 -0.053166956 -0.016485168
0.030140793 -0.08501056 -0.099151604 0.091957696 0.079768606 0.13813102 0.09134102 -0.07275085
0.13290101 -0.098014064 0.13555382 0.101492025 -0.024687987 -0.07963417 -0.012719324 -0.01945797
0.06885886 0.060817815 0.13447623 -0.030539336 0.06890319 -0.03858073 0.06591513 0.07717737
0.04750851 -0.001212899 0.13834648 -0.16265422 -0.106498286 0.021334413 0.09981951 0.12582918
0.16274278 0.07247 0.14173585 0.018004917 0.021354495 0.17345798 0.066737786 -0.007285265
-0.17747529 0.070958436 -0.018585894 -0.04022337 0.051622678 0.123336665 -0.097712725 -0.09794955
-0.108156376 -0.12558483 0.08992689 -0.12219461 0.00483056 -0.0722145 -0.0051741977 0.03939772
-0.035985924 0.093507856 0.04851113 -0.037768792 0.05024992 -0.1512136 0.028590435 0.026367461
-0.074923255 0.08593297 -0.08635647 0.09198989 -0.035720214 -0.011853206 0.043058954 -0.0010994221
0.11960576 -0.033551082 -0.052231662 0.104708984 0.0258531 0.0030554729 0.08642784 0.0751
-0.12371163 -0.08467362 0.09737865 -0.018829616 0.1299037 -0.029290278 0.06620666 0.08013089
0.015104624 -0.0011892706 0.09853119 -0.10367735 -0.021715468 -0.05372889 0.029090455 0.007876278
0.11861913 0.05441178 0.058818337 0.08521361 -0.07796291 0.04430453 -0.054570876 0.039096646
-0.028564015 -0.040900532 0.08508702 -0.09435831 0.10016014 -0.01722466 0.03361832 -0.14208464
-0.10279958 0.02367511 0.018369922 -0.013763713 -0.118499994 0.048728075 0.022618173 0.08173059
-0.044979382 0.033677787 0.0068797288 0.023093637 0.11315476 0.09756003 -0.100080565 -0.0931582
-0.018140543 0.021167329 0.06382255 -0.00637363 -0.06573384 -0.020014482 -0.035901487 -0.0887753
-0.014633327 -0.10774027 0.020642312 0.0018786141 -0.085073166 -0.10167863 0.011852361 -0.050537355
-0.004607298 -0.13396265 -0.07883982 -0.025984917 0.048381664 0.022466876 -0.12180034 -0.023564728
0.05765931 -0.078121394 -0.1247369 -0.08128601 0.09103247 0.05869073 0.062288955 -0.022062182
-0.15993454 -0.021878624 -0.07513336 -0.065804996 -0.16398768 0.020490853 0.04636281 -0.012139385
0.0242075 -0.15628964 0.028642 0.06493094 0.0039565167 -0.02577891 0.13338377 -0.013922477
0.1327492 0.023861466 -0.120966226 0.03266863 0.057072718 -0.05202575 0.15449984 -0.013803327
-0.101591974 -0.10493762 -0.12519203 0.12616818 -0.07993677 -0.023914916 0.020953532 -0.037484534
-0.01102977 0.057449624 0.0834954 -0.048311766 0.05033025 -0.016416183 0.037347954 -0.030639132
0.045421723 -0.0057944707 -0.07517626 -0.03529904 0.002181608 0.040550888 -0.0029632729 -0.07222948
-0.093274586 -0.07892077 -0.021083761 -0.055404533 0.104955226 -0.1353938 0.052646432 0.032178022
-0.037026297 -0.027599033 0.051414464 0.13347971 -0.07274242 -0.035343938 -0.00937633 -0.1272272
-0.120321855 0.029498478 0.06154082 0.09784471 0.17373273 -0.14065374 -0.123933464 -0.07055769
0.096713886 -0.035787772 -0.051219966 0.050312757 0.009881717 0.11506432 0.091462485 -0.080754295
-0.057735853 0.099143624 0.12279674 -0.06131066 -0.0020962823 0.09799158 -0.06801108 0.007984378

encoder.transformer.out_proj.bias f4 [64]
00000000: 01bd 963c dd32 0b3b 666f e7bc 5782 55bc
00000010: ca18 dabc 09c0 85bc 7c73 46bc 58f1 d2bc
00000020: de5d 98bc 3a50 c23b a5d8 a23b d44a a1bc
00000030: 8790 233c 1c43 19bb cd81 4cbd 92d5 fc3b
00000040: 487d 0fbc 30ee 9ebc e2d3 643c 8a34 7abc
00000050: 1d8c b63c a6b6 41bc 0bc2 5dba fcb2 be3b
00000060: 1156 853c fc88 50bc 4ff7 11bb 2e17 0f3c
00000070: 40ae 823c 0e3f 263c 7652 173c d338 f1ba
00000080: d6aa ba3b 2c59 2c3c 6c3b d73c e2aa cc3b
00000090: 293f 803c c6fc 33bb b15b 423b 9938 aaba
000000a0: 33d4 56bc 465e 26bc 13e5 913c 95b7 803b
000000b0: 643a 06bd 154e 0fbb 9925 373b 2bc5 a03a
000000c0: 3592 9dbc 0c5a 88bb 9d0f 143c 45f3 683c
000000d0: 9279 9b3a b9c7 af3c 7e57 f13a 8077 7cbc
000000e0: a80c 193c 9fc3 be3c 9148 11bc 6fda 93bb
000000f0: a294 06bc fe0d c83b cc8f d3bc 8e77 fbbc
0.018400671 0.0021240034 -0.028251361 -0.013031564 -0.026623148 -0.016326921 -0.012112495 -0.025749847
-0.018599447 0.005929974 0.0049696737 -0.019689001 0.0099831885 -0.0023385948 -0.049928475 0.0077158893
-0.008757897 -0.019400686 0.013966532 -0.015271315 0.022283608 -0.011823332 -0.00084593956 0.0058196764
0.016276391 -0.012727972 -0.0022272652 0.008733554 0.01595223 0.010146869 0.009235969 -0.0018403776
0.0056966348 0.010519307 0.026273452 0.0062459568 0.015655117 -0.0027463897 0.0029656703 -0.0012986838
-0.013112116 -0.0101543125 0.017809426 0.0039281347 -0.03277053 -0.002186661 0.0027945994 0.0012265792
-0.019234756 -0.004161125 0.009036926 0.014218156 0.0011861792 0.02145754 0.0018412916 -0.01540935
0.009341396 0.023286639 -0.008867399 -0.0045121233 -0.008214148 0.0061051836 -0.025825404 -0.030696657

encoder.ln1.weight f4 [64]
00000000: 8faf 813f cf41 813f ca9a 823f 5061 783f
00000010: 8a3c 7a3f 665b 843f bd2d 7f3f 77ac 833f
00000020: e46a 823f e9af 813f e9b2 763f 5098 873f
00000030: dc0a 7c3f 471b 813f d87b 883f 48c1 833f
00000040: 6a70 7a3f 2020 7e3f 2ce5 843f 3968 803f
00000050: 5613 813f ab68 833f 8108 7e3f e9a8 793f
00000060: 2bb9 813f 4850 7d3f c196 853f fd58 843f
00000070: 065b 823f c4f9 7b3f 5abe 7d3f 625d 7e3f
00000080: a6b5 733f b44f 7f3f 4fef 783f e12a 7e3f
00000090: 09ef 7d3f ff99 7f3f ac0b 733f 3397 833f
000000a0: 4f0a 7c3f b791 803f 6136 823f 0f6e 803f
000000b0: 441e 833f f94b 7a3f 1d57 7c3f 39ca 833f
000000c0: 1e71 723f 84c8 7d3f 4a8f 7e3f 7364 813f
000000d0: 262a 7a3f d9df 803f 777d 7d3f 8746 7c3f
000000e0: eae2 703f fe2e 863f 0f82 7f3f cee8 803f
000000f0: 3f7d 823f 57df 813f 01c9 813f 90f0 6f3f
1.0131701 1.0098208 1.0203488 0.9702349 0.97748625 1.0340393 0.99679166 1.0287007
1.018887 1.0131809 0.96366745 1.0593357 0.9845407 1.0086449 1.0662794 1.029336
0.9782778 0.9926777 1.0382438 1.0031806 1.0084026 1.0266317 0.99231726 0.9752336
1.0134634 0.98950624 1.0436631 1.0339657 1.0184028 0.9842799 0.9911858 0.9936124
0.9519905 0.9973099 0.97240156 0.9928418 0.99192864 0.99844354 0.94939685 1.0280517
0.9845323 1.0044469 1.0172845 1.0033587 1.0243611 0.97772175 0.98570424 1.0296088
0.94703853 0.9913409 0.9943739 1.010878 0.97720563 1.0068313 0.9901957 0.98545116
0.94096243 1.0483091 0.9980783 1.0071046 1.0194472 1.0146283 1.0139467 0.93726444

encoder.ln1.bias f4 [64]
00000000: 0f55 443c 014e 8abb dd12 3bbd cfdc f2bc
00000010: a743 31bd a7b7 53bc 9028 f838 6113 e1bc
00000020: 6ec3 79bc 42dc 81b9 3003 7dbc c9bb 06bd
00000030: 0319 7d3c 21cd 9e3a cca1 9fbd 1b85 de3b
00000040: e9e9 1fba efbb 37bd 16ac 083d 4e46 6cbc
00000050: 2014 0a3d 214b a0bc cfa4 9eba 602a b9bb
00000060: cfa4 933c 1038 acbc f0e5 9ebb 9ab2 bf3b
00000070: fddf 473d 730d ec3c 54f9 ae3b 4371 333c
00000080: b1d3 4ebc 4a84 453c 03f9 8c3c d90f e53c
00000090: 9ec8 bd3c d87c 793c 5ee1 5b3c eb42 873c
000000a0: d392 6f3c ec63 153a 2842 863c fecd fc3b
000000b0: cee6 10bd aba6 d33a 4514 8339 7c17 033c
000000c0: 51bd 10bd 31a9 5f3b 2b96 133c ef19 3e3c
000000d0: 81b9 e83b 1509 053d 1f30 2b3c 35cc b03b
000000e0: 23ce 393c 3b1f 493d 36dc 76bc f7a7 2fbb
000000f0: 6eaa eebb 1757 9b3c 404e 2ebd 7189 29bd
0.01198317 -0.0042207246 -0.045672286 -0.029646305 -0.04327741 -0.012922204 0.00011833117 -0.02747506
-0.015244348 -0.00024768902 -0.0154426545 -0.03289393 0.015447858 0.0012115577 -0.07794532 0.0067907698
-0.0006100224 -0.04485696 0.03336724 -0.014421059 0.0337106 -0.019567074 -0.001210356 -0.0056508034
0.018022923 -0.021022826 -0.004849188 0.0058501484 0.048797596 0.028815007 0.005339781 0.010952297
-0.012623713 0.012055466 0.017208582 0.027961658 0.02316695 0.015227519 0.013420431 0.016511401
0.014622408 0.00056987884 0.016388968 0.007714986 -0.035376363 0.0016147693 0.0002500137 0.008001205
-0.035336796 0.0034127946 0.009007971 0.011602863 0.007102192 0.032479364 0.010448485 0.005395437
0.011340651 0.04910205 -0.015067151 -0.0026802996 -0.0072835004 0.018962426 -0.042555094 -0.04139084

encoder.ln2.weight f4 [64]
00000000: 193a 803f 0afc 813f 20f0 803f 0a0c 793f
00000010: 30ed 7d3f 65c6 813f 7d28 7b3f c761 813f
00000020: 79ef 7e3f f0ea 7c3f 4bee 793f fa59 853f
00000030: c6b6 7c3f 94f4 813f 71c2 833f 7c36 853f
00000040: f754 783f cb7d 783f 2413 823f 7d59 793f
00000050: 3755 7d3f 08a8 813f cf26 803f eec9 763f
00000060: 78b0 823f 291b 793f 8c9a 853f 1896 853f
00000070: 135e 803f dbbb 753f dd45 803f 7198 803f
00000080: 017f 763f b5df 7d3f 62ec 7d3f 1621 803f
00000090: bb29 793f 2410 7a3f b8ed 733f 0afa 803f
000000a0: f7a1 793f 9aa7 793f 03b6 7e3f 6f59 813f
000000b0: 0b55 7d3f ef93 7c3f 008a 813f cfd0 843f
000000c0: 0884 763f 3229 803f d850 763f 106c 833f
000000d0: 6ebb 7b3f 659a 7a3f 7463 7c3f f580 7d3f
000000e0: 3443 7a3f 6798 803f 834e 7d3f e22c 7f3f
000000f0: c6c5 7f3f 3b16 7d3f 8bcf 813f 49c6 6b3f
1.001773 1.0155041 1.007328 0.97283995 0.99190044 1.013867 0.98108655 1.0107964
0.99584156 0.98795986 0.9762923 1.0418084 0.9871639 1.0152764 1.0293714 1.0407252
0.97004646 0.97066945 1.0162091 0.97402173 0.9895815 1.0129404 1.0011843 0.9640187
1.0210104 0.9730707 1.0437789 1.043643 1.0028709 0.9598977 1.002132 1.0046521
0.9628754 0.99169475 0.99188817 1.0010097 0.973293 0.9768088 0.95284605 1.0076306
0.97512764 0.97521365 0.9949648 1.0105418 0.9895789 0.9866323 1.0120239 1.0376223
0.96295214 1.0012572 0.9621711 1.0267353 0.9833287 0.9789184 0.98589253 0.990249
0.97758794 1.004651 0.98947924 0.9967786 0.99911153 0.98862046 1.0141462 0.92099434

encoder.ln2.bias f4 [64]
00000000: b95c b73c 65c9 883c 8538 01bd 8a65 6dbb
00000010: e406 18bd 9c6a 89bc 5517 ad3a 0547 4bbc
00000020: 794f 5bbc 2396 4b3c 46e3 f33b 79a6 b7bc
00000030: 7eb6 393c 4e2b e4bb fee6 34bd 5135 5a3c
00000040: 148c 5a3c 6915 d3bc 9e6d eb3c 83d6 c5bb
00000050: e720 3e3d 5968 f5bb cb0d 0cbc 8d2e b73a
00000060: 0122 8a3c 131b 65bc f716 6ebb 7962 8dbb
00000070: 44b9 643d 3cef aa3c 0920 8e3c dfb7 e63b
00000080: fee1 093c 94d7 c33c 7ceb 1a3d 4d02 5f3c
00000090: 618e f03c 64ae 753c 3c8d a53c df0c 4e3c
000000a0: 5766 cbba 2626 7cbc 2c86 fb3c e92b 9d3b
000000b0: 4756 1ebd c295 95ba 8720 4f3b e8a0 a53b
000000c0: 139d 0fbd 2164 2cbb b10a 033d 4b45 663c
000000d0: 68a6 963c 87bd 063d ecee 213b 8a2b 0ebc
000000e0: d63e 0c3c 86b1 353d 8c97 9bbb fc4a 2d3a
000000f0: 6b43 d6bb 310f 753c 324f f8bc 0771 eebc
0.02238308 0.016697595 -0.03154804 -0.0036223852 -0.037115946 -0.016774468 0.0013205806 -0.012407069
-0.013385647 0.012425932 0.0074428646 -0.022418248 0.011335013 -0.00696317 -0.044165604 0.013318376
0.013339061 -0.025767045 0.028738793 -0.0060375347 0.046418097 -0.007489246 -0.00854821 0.0013975665
0.016861917 -0.013983506 -0.0036329606 -0.0043147174 0.055840746 0.020866029 0.01734926 0.007040962
0.008415697 0.023906507 0.03782223 0.013611388 0.029364767 0.014995191 0.020208947 0.012576311
-0.001551817 -0.015389955 0.030703627 0.0047964943 -0.0386565 -0.0011412429 0.0031605081 0.005054582
-0.035061907 -0.0026304799 0.031992618 0.014054607 0.018389896 0.03289559 0.002470906 -0.008677373
0.008559903 0.044358753 -0.0047482904 0.00066106 -0.0065387986 0.014957235 -0.0303112 -0.02910663
