experiments/model_128_60_2026-01-17_3871/model.pt (torch, 551535 bytes, 18 tensors)

encoder.graph_embed.GCN_in.A f4 [9, 9]
0	0x3c606bf1	0.01369761
1	0xc02b6ef4	-2.678647
2	0xbfe49311	-1.7857381
3	0xbcb8b3a1	-0.022546591
4	0x3dc76373	0.09735765
5	0xbe6d6c7d	-0.23185916
6	0x3d5aa15b	0.053376537
7	0xbf13a016	-0.57666147
8	0xbf0ddbcd	-0.55413514
9	0x3f8aa20c	1.0830703
10	0x3f9a6153	1.2060951
11	0xbf77d66b	-0.9681155
12	0x3f9ce448	1.2257166
13	0x3f9247d1	1.1428167
14	0xbdca8477	-0.09888547
15	0xbe89e794	-0.26934493
16	0xbd0ca76a	-0.034339346
17	0x3f880191	1.0625478
18	0x3e812a7a	0.2522772
19	0x3fbcd049	1.4751064
20	0xbe306548	-0.17226136
21	0x3f8ece80	1.1156769
22	0x3fafa496	1.3722103
23	0xbf1e1ed4	-0.6176579
24	0xbf6a3c57	-0.9149832
25	0xbecdac50	-0.40170527
26	0x3ecc542f	0.39907977
27	0xbfa41d27	-1.2821397
28	0xbf84a9eb	-1.0364355
29	0xbe08cfe5	-0.13360555
30	0xbe7a9d2c	-0.24474019
31	0x3ea5fe07	0.3242037
32	0x3f8610ef	1.0473918
33	0x4003503d	2.0517724
34	0xbf20a7a2	-0.6275579
35	0x3e89757b	0.26847443
36	0xbf338310	-0.7012186
37	0xc01aceca	-2.4188714
38	0x3f8a4804	1.0803227
39	0xc01e626e	-2.4747577
40	0x3f4b0dae	0.7931775
41	0x3f6086b0	0.87705517
42	0xbefc13d4	-0.49233878
43	0x3f9d1102	1.2270815
44	0xbf66f606	-0.9021915
45	0x3f233311	0.63749796
46	0xbf2346f5	-0.63780147
47	0x3fa5a375	1.2940508
48	0xbf5777f5	-0.84167415
49	0x3f1edfa1	0.6205998
50	0x3f1d34eb	0.6140887
51	0x3ef2e294	0.4743849
52	0x3ed34e27	0.41270563
53	0xbfc849b5	-1.5647494
54	0xbebc63cf	-0.36794898
55	0x3c1888e4	0.009309981
56	0x3fc2201a	1.5166047
57	0xbe284e1b	-0.16436045
58	0xbb8c663a	-0.0042846473
59	0x3fe08171	1.7539502
60	0x3ff6c627	1.9279221
61	0x3ed24bdc	0.410735
62	0x3fc70461	1.5548211
63	0x3f5a6caa	0.8532206
64	0xbe866b5f	-0.26253793
65	0xbe9280e7	-0.2861397
66	0xc019c946	-2.4029098
67	0x3e03e572	0.12880495
68	0x3f1256ba	0.57163584
69	0xbf6df37c	-0.9294965
70	0xbfc79caa	-1.5594685
71	0x3f2dc039	0.67871433
72	0xbf192d2a	-0.5983454
73	0xbfb910d2	-1.4458258
74	0xbf001b59	-0.5004173
75	0x3f83f4ae	1.0309045
76	0x3eb89c3b	0.36056694
77	0x3ff24b8b	1.8929304
78	0xbefde0ad	-0.49585477
79	0xbe9db228	-0.30799985
80	0x3f77101f	0.96508974

encoder.graph_embed.GCN_in.linear.weight f4 [128, 16]
0	0xbe108d67	-0.1411644
1	0xbc283e97	-0.010268829
2	0x3e08e98b	0.1337034
3	0x3daf01ea	0.08545287
4	0x3e64f86c	0.2236039
5	0x3bcd812a	0.006271501
6	0xbcaaa1a9	-0.020829039
7	0x3d53f7aa	0.051749863
8	0xbce25948	-0.027630463
9	0xbe10a098	-0.14123762
10	0x3dbbb47f	0.09165286
11	0xbe2210cd	-0.15826721
12	0x3c3d1d32	0.011542605
13	0x3cb8bd56	0.02255122
14	0x3d2d8548	0.042363435
15	0xbdca021b	-0.09863683
16	0x3e42d8dc	0.19028038
17	0x3e7e4c23	0.24833731
18	0xbd8caf2c	-0.06869349
19	0x3e1b1992	0.15146473
20	0x3cbfeca3	0.023428267
21	0x3cf5cf81	0.030006172
22	0x3e65fde2	0.2246013
23	0xbe1cbcaa	-0.15306345
24	0x3e5bda56	0.21470007
25	0xbde1bd55	-0.1102244
26	0x3c7ddbd0	0.015494302
27	0x3de4cffa	0.11172481
28	0x3de87301	0.1135006
29	0xbdcfad0a	-0.101404265
30	0xbde159ca	-0.11003454
31	0xbdc01bb6	-0.093802854
32	0x3e65f459	0.22456492
33	0xbc382378	-0.011238925
34	0xbd3c6b69	-0.04600087
35	0x3cb2595d	0.021771127
36	0xbd848e32	-0.06472434
37	0x3d9a4895	0.07533375
38	0x3e175c6e	0.14781353
39	0xbdb6ff19	-0.08935375
40	0x3e0a44bf	0.13502787
41	0x3dfabaaa	0.122426346
42	0xbd8b6a57	-0.06807392
43	0xbc15a7b7	-0.009134225
44	0xbc562459	-0.013070189
45	0xbdf04008	-0.11730963
46	0x3e6c149c	0.23054737
47	0xbce88c73	-0.028387284
48	0x3db27606	0.087139174
49	0x3def15d9	0.11674089
50	0xbe5fbc62	-0.21849206
51	0x3dc63d81	0.096797
52	0x3839412e	4.416814e-05
53	0xbdae0716	-0.08497445
54	0x3e6ef2c4	0.23334795
55	0xbd621a3e	-0.055200808
56	0x3d8bff36	0.06835787
57	0x3dc646de	0.096814856
58	0x3de8c792	0.1136619
59	0xbe1b9429	-0.15193237
60	0x3caf0a91	0.021367343
61	0x3dc9f5b5	0.09861318
62	0x3e30abc2	0.1725302
63	0xbe05c6ee	-0.13064167
64	0x3c6bcd75	0.0143922465
65	0xbe1dbb6e	-0.1540353
66	0xbd462607	-0.04837611
67	0x3e282599	0.16420592
68	0xba5b383f	-0.00083625683
69	0x3d79d06c	0.060989782
70	0xbdc41cae	-0.09575783
71	0x3e46414d	0.19360848
72	0xbd9aaee1	-0.07552887
73	0x3d106be7	0.035259154
74	0x3e84764a	0.25871497
75	0xbe54998c	-0.20761698
76	0x3d469784	0.04848434
77	0xbe3d94b8	-0.18513763
78	0xbe594876	-0.21219048
79	0x3d9daed4	0.076993614
80	0x3e23c3ec	0.15992707
81	0xbddf01f7	-0.10889047
82	0xbd606903	-0.054787647
83	0x3e490560	0.19630957
84	0x3c840799	0.016116904
85	0x3e29263b	0.1651849
86	0x3d8888dc	0.06666729
87	0xbe4b91a3	-0.19879775
88	0xbd47177b	-0.048606377
89	0xbe5efda9	-0.21776451
90	0x3e0ed304	0.13947684
91	0xbc85c100	-0.016327381
92	0x3e04f714	0.12984878
93	0xbdccca21	-0.099994905
94	0xbe13fe8b	-0.14452569
95	0x3e7b60a1	0.2454858
96	0x3e65071a	0.2236599
97	0xbdbd5a5f	-0.092457525
98	0xbd97670c	-0.073927015
99	0x3e147db3	0.14501075
100	0xbe3240a7	-0.17407475
101	0x3d6c5614	0.057699278
102	0x3d76e00c	0.06027226
103	0x3d3d386c	0.046196386
104	0x3e2c76e5	0.1684223
105	0xbd03c429	-0.032169495
106	0x3df9ab72	0.12190904
107	0x3e4aeb8a	0.19816414
108	0xbd8ad72d	-0.06779323
109	0x3ca6b99d	0.02035218
110	0xbe2b6658	-0.1673826
111	0x3bd8a237	0.0066111344
112	0xbc4a4b59	-0.012347066
113	0x3e7e9d2a	0.24864641
114	0xbe3e8ec8	-0.18609154
115	0xbd5d9797	-0.054099645
116	0x3e08be52	0.13353851
117	0xbc3700bf	-0.0111696115
118	0xbcc061b5	-0.02348409
119	0x3dd38f2c	0.10330042
120	0xbd88d820	-0.066818476
121	0x3db46631	0.08808554
122	0xbd9fa0cc	-0.077943414
123	0x3d022c2d	0.03178041
124	0x3dfd160e	0.12357722
125	0x3da0c07a	0.07849212
126	0x3e0a6854	0.1351636
127	0xbe68061a	-0.22658578
128	0x3da5c2f1	0.08093823
129	0xbe720c8e	-0.23637602
130	0xbe5307d9	-0.20608462
131	0x3c6dc35b	0.014511908
132	0xbe732b93	-0.23747091
133	0xbe3f8412	-0.18702725
134	0xbe4b766e	-0.19869396
135	0x3d1c1c65	0.038113017
136	0x3cef8fcf	0.029243378
137	0x3dce3246	0.10068183
138	0xbe6ae79a	-0.22939911
139	0x3df75d95	0.12078396
140	0xbe7315b8	-0.23738754
141	0xbd737936	-0.059441768
142	0x3ccf5a0d	0.025311494
143	0x3e235bde	0.15953013
144	0xbd012d93	-0.031537604
145	0x3de6fb71	0.112784274
146	0xbe7038d6	-0.23459181
147	0x3e1e7ef3	0.15478115
148	0xbc9cb736	-0.01913033
149	0xbdc833fd	-0.09775541
150	0x3d32d46f	0.043659624
151	0xbe398a62	-0.18119195
152	0x3d543e68	0.051817328
153	0xbdd4b194	-0.10385433
154	0xbe216d59	-0.15764369
155	0x3e59551c	0.21223873
156	0x3c34f1cd	0.011043978
157	0xbc1f9249	-0.009739467
158	0x3e1f6b36	0.15568241
159	0xbd8617bd	-0.065474965
160	0xbd454101	-0.048157696
161	0x3c5e96cf	0.01358576
162	0xbe826949	-0.2547095
163	0x3e794669	0.24343266
164	0xbdf7612f	-0.12079083
165	0xbcdba7d7	-0.02681343
166	0x3d84b9ba	0.06480737
167	0xbde9a134	-0.114077
168	0x3e05f438	0.13081443
169	0xbd8dd495	-0.069253124
170	0xbc8ec19d	-0.017426306
171	0x3db41bad	0.08794341
172	0x3d341387	0.043963935
173	0xbd853c47	-0.065056376
174	0x3e063f6f	0.13110135
175	0xbe2a1503	-0.16609578
176	0x3e12a5b1	0.14321019
177	0x3e523b49	0.20530428
178	0xbdfce42d	-0.123482086
179	0x3e1efece	0.15526888
180	0x3d9771c1	0.07394744
181	0xbe143641	-0.14473821
182	0x3e27895a	0.16360989
183	0x3d915d4c	0.07097873
184	0x3e46fc58	0.19432199
185	0x3cb570da	0.022148538
186	0x3e2a5ff9	0.16638173
187	0x3d19452f	0.037419494
188	0x3e224cb9	0.1584958
189	0x3e703b8d	0.23460217
190	0x3bbdac97	0.0057883966
191	0xbe297be1	-0.16551162
192	0x3e02dede	0.1278033
193	0xbdac3189	-0.084078856
194	0xbdb6457f	-0.08899974
195	0x3cdfb7da	0.027309347
196	0xbd336e3b	-0.043806296
197	0xbd20b359	-0.03923354
198	0xbe57e799	-0.21084441
199	0xbe29024f	-0.16504787
200	0x3e241519	0.16023673
201	0xbe26e14b	-0.1629688
202	0x3e099994	0.13437492
203	0xbe1a4745	-0.1506625
204	0xbd30d75a	-0.043174125
205	0x3c037050	0.008022383
206	0x3e037aeb	0.12839858
207	0xbdb94167	-0.09045678
208	0xbe3832cd	-0.17988129
209	0x3ce89345	0.028390536
210	0xbe05dbd0	-0.13072133
211	0x3e07bdfd	0.13256069
212	0x3e021a99	0.12705459
213	0x3e3b1ebb	0.18273441
214	0xbc8f11e3	-0.017464584
215	0xbe03106b	-0.12799232
216	0xbdaed5bd	-0.08536861
217	0x3e69345b	0.22773878
218	0x3e35a338	0.17738044
219	0x3e330d33	0.17485504
220	0xbe1bf3c1	-0.15229703
221	0x3e639161	0.22223426
222	0x3d815646	0.063152835
223	0xbe2a473c	-0.16628736
224	0xbdb123d4	-0.08649412
225	0xbcfc0c05	-0.03076745
226	0x3e25d66c	0.16195077
227	0xbe726b57	-0.2367376
228	0x3d5bca66	0.05365982
229	0x3e4494f2	0.19197443
230	0xbe04167f	-0.12899207
231	0xbd47952e	-0.048726253
232	0x3d9b51f9	0.075839944
233	0xbc784938	-0.015154175
234	0xbe59d54b	-0.21272771
235	0xbd80a7c3	-0.06281998
236	0xbe71d528	-0.23616469
237	0x3e447bf9	0.19187917
238	0x3dbc2c50	0.091881394
239	0xbdae89a7	-0.08522349
240	0xbe717502	-0.23579791
241	0x3e2655f4	0.16243726
242	0x3e6c3f72	0.23071077
243	0xbdec6eba	-0.11544557
244	0xbdf0f5ff	-0.1176567
245	0xbe46fc3c	-0.19432157
246	0x3e462235	0.19348986
247	0xbe6663ca	-0.22499004
248	0xbe7dd19d	-0.24786992
249	0x3dba772e	0.09104763
250	0xbda57611	-0.0807916
251	0xbe43c398	-0.19117582
252	0x3e4cad2d	0.19987936
253	0xbe1ea9db	-0.15494482
254	0x3d36e38e	0.044650607
255	0x3db3e4c9	0.08783872

encoder.graph_embed.GCN_in.linear.bias f4 [128]
0	0xbe4618bb	-0.19345371
1	0xbdf68cf0	-0.120386004
2	0xbdc84d0e	-0.09780322
3	0xbe69e91b	-0.22842829
4	0xbb7f462c	-0.0038951738
5	0xbdc18bde	-0.09450506
6	0xbbdb802b	-0.0066986284
7	0x3d9b8a4e	0.07594739
8	0xbdecf82e	-0.11570774
9	0x3dd244c2	0.10267021
10	0xbd5e3b02	-0.054255493
11	0xbe1c6e54	-0.15276462
12	0x3e209123	0.15680365
13	0x3c9ba7a4	0.019000836
14	0xbda8d31b	-0.0824339
15	0x3cb4fedc	0.022094183
16	0x3e607cae	0.21922562
17	0x3da7e39e	0.081977114
18	0x3e01ee22	0.12688497
19	0x3d0a52ab	0.033770245
20	0x3e090ee9	0.13384594
21	0xbc862eb4	-0.016379692
22	0xbe65621d	-0.22400708
23	0x3df1f9e4	0.11815241
24	0x3e3e2079	0.18567075
25	0x3dd550fb	0.104158364
26	0xbdd1c0ef	-0.10241877
27	0x3b885cca	0.004161452
28	0xbe507984	-0.20358855
29	0x3e381114	0.17975265
30	0xbd20c780	-0.039252758
31	0xbb158bc6	-0.0022818907
32	0x3c0aa31e	0.008461742
33	0xbd72056b	-0.0590872
34	0x3e0ee96c	0.13956231
35	0x3dc05f3e	0.09393166
36	0x3c9fb714	0.019496478
37	0x3e0785c0	0.13234615
38	0xbcb1ee30	-0.021720022
39	0xbd0b4167	-0.03399792
40	0xbe340059	-0.17578258
41	0x3d1c85b5	0.03821345
42	0x3e486939	0.1957139
43	0xbd1c04dd	-0.038090575
44	0xbe0f652c	-0.14003438
45	0x3e36eab9	0.17862977
46	0x3daf7b92	0.08568491
47	0x3e6b21f8	0.22962177
48	0xbe69565e	-0.22786853
49	0x3e70119e	0.2344422
50	0x3e1d2568	0.153463
51	0x3e5602c3	0.20899491
52	0x3e048997	0.12943111
53	0xbdb3629c	-0.087590426
54	0x3e55baa3	0.20871978
55	0xbdc2d259	-0.09512777
56	0xbd68b94c	-0.056817338
57	0xbdfdbfc4	-0.12390092
58	0x3d8a6bff	0.0675888
59	0x3ac9eddf	0.0015405974
60	0xbe408f3c	-0.1880464
61	0x3e1be8dc	0.15225548
62	0x3ddc7a59	0.107655235
63	0xbe4d4239	-0.20044793
64	0xbdafa793	-0.08576884
65	0xbdaf0a5a	-0.08546896
66	0x3d5e4fff	0.05427551
67	0xbe202cf5	-0.1564215
68	0xbd1b77d2	-0.037956066
69	0xbe15003e	-0.14550874
70	0xbc1bea94	-0.009516377
71	0xbe24ca3e	-0.16092774
72	0x3c70927d	0.014683363
73	0x3d4c2992	0.049844332
74	0x3e5f9877	0.21835504
75	0x3c4fb6d5	0.012677868
76	0xbe0384a0	-0.12843561
77	0xbdbe12e3	-0.09280946
78	0x3d9f08f6	0.07765381
79	0x3e01fcdf	0.12694119
80	0xbe36a5fd	-0.17836757
81	0x3de864c2	0.11347343
82	0x3e582c0a	0.2111055
83	0x3e6af4fa	0.22945014
84	0xbd9ab9a8	-0.07554942
85	0x3e196da9	0.14983238
86	0xbdbb7ccd	-0.09154663
87	0xbe462b0b	-0.19352357
88	0x3e60ac26	0.2194067
89	0xbd9e27d6	-0.07722442
90	0x3e2a052f	0.1660354
91	0x3dc9d83f	0.09855699
92	0xbd961d9c	-0.07329866
93	0xbe256fb8	-0.16155899
94	0x3d57d732	0.05269546
95	0x3bf14692	0.007363149
96	0xbe647020	-0.22308397
97	0xbe466bdf	-0.19377087
98	0xbe0848a4	-0.1330896
99	0xbdf5fcbb	-0.12011095
100	0xbe23c892	-0.1599448
101	0x3e4fbc4e	0.20286676
102	0xbdc202fa	-0.09473224
103	0xbe67db97	-0.2264236
104	0xbe627b5c	-0.2211737
105	0xbe26630e	-0.16248724
106	0xbdcff77a	-0.10154624
107	0x3e5809aa	0.21097437
108	0xbe41cb8f	-0.18925308
109	0xbc4effa7	-0.012634194
110	0xbc7f2758	-0.015573345
111	0x3dfcb6be	0.12339543
112	0x3d912a57	0.07088154
113	0x3e708aaa	0.23490396
114	0xbe249354	-0.16071826
115	0xbc31debd	-0.010856328
116	0x3db8ccf7	0.09023469
117	0x3e2a25c5	0.1661597
118	0xbe57108e	-0.21002409
119	0x3e43fbfa	0.1913909
120	0x3c63410f	0.013870492
121	0x3e398cf5	0.18120177
122	0xbe22ed72	-0.1591089
123	0x3dddf60f	0.108379476
124	0xbcc6f517	-0.02428679
125	0xbdb5c694	-0.088757664
126	0xbc4a25c8	-0.012338109
127	0x3e71a496	0.23597941

encoder.graph_embed.bn.weight f4 [128]
0	0x3f7cccbc	0.987499
1	0x3f7ba3ce	0.9829682
2	0x3f7c02d7	0.98441833
3	0x3f827997	1.0193356
4	0x3f81e208	1.0147104
5	0x3f7b8963	0.9825651
6	0x3f7fad16	0.99873483
7	0x3f7aa29d	0.9790438
8	0x3f7d3196	0.9890379
9	0x3f7c6e36	0.9860567
10	0x3f7c1fc5	0.98485976
11	0x3f7aa4b6	0.9790758
12	0x3f803c7e	1.0018461
13	0x3f806b5d	1.0032765
14	0x3f7d0608	0.9883733
15	0x3f7ff98b	0.9999015
16	0x3f7f7a4f	0.99796003
17	0x3f7cbc25	0.98724586
18	0x3f7c0ad9	0.9845405
19	0x3f7ee35d	0.9956568
20	0x3f7b137c	0.98076606
21	0x3f814e53	1.0102028
22	0x3f80cd45	1.0062643
23	0x3f7c4d6c	0.98555636
24	0x3f7cb5e2	0.9871503
25	0x3f7df609	0.99203545
26	0x3f807e22	1.0038493
27	0x3f7f90ad	0.9983013
28	0x3f7c145f	0.98468584
29	0x3f7c680d	0.9859627
30	0x3f7bc4f2	0.9834739
31	0x3f7b9d62	0.9828702
32	0x3f801d40	1.0008926
33	0x3f80011b	1.0000337
34	0x3f808869	1.0041629
35	0x3f811c6e	1.0086801
36	0x3f7a35fc	0.97738624
37	0x3f7da8bd	0.990856
38	0x3f7fabf0	0.9987173
39	0x3f7c2081	0.984871
40	0x3f7e6002	0.99365246
41	0x3f79cbf4	0.9757683
42	0x3f7baa4e	0.9830674
43	0x3f81368d	1.0094773
44	0x3f7df887	0.9920735
45	0x3f824ebc	1.0180278
46	0x3f7afb9c	0.98040175
47	0x3f819abe	1.0125349
48	0x3f8221bb	1.0166544
49	0x3f7e2d3b	0.99287766
50	0x3f7d57b4	0.9896195
51	0x3f7be19b	0.9839112
52	0x3f81a3c5	1.0128103
53	0x3f7d3ffe	0.9892577
54	0x3f7ce767	0.9879059
55	0x3f8266de	1.0187643
56	0x3f7df64d	0.9920395
57	0x3f7a6da7	0.97823566
58	0x3f7cc5ca	0.987393
59	0x3f801988	1.0007792
60	0x3f8168ad	1.011007
61	0x3f7c6e4e	0.9860581
62	0x3f8050d0	1.0024662
63	0x3f7d3c1d	0.9891985
64	0x3f7e9235	0.99441844
65	0x3f7df874	0.99207234
66	0x3f7c804b	0.9863326
67	0x3f80b4af	1.005514
68	0x3f81c718	1.0138884
69	0x3f817f5d	1.0116993
70	0x3f7a91c3	0.97878665
71	0x3f7c00f1	0.98438936
72	0x3f803a4c	1.0017791
73	0x3f80e0da	1.0068619
74	0x3f7a3c28	0.9774804
75	0x3f7c363c	0.98520255
76	0x3f82669c	1.0187564
77	0x3f80654b	1.0030912
78	0x3f807008	1.0034189
79	0x3f818932	1.0119994
80	0x3f7a7303	0.97831744
81	0x3f7b659d	0.98201925
82	0x3f80ce82	1.0063021
83	0x3f810fd6	1.0082958
84	0x3f81379c	1.0095096
85	0x3f81362e	1.0094659
86	0x3f7d673d	0.98985654
87	0x3f7e2cf0	0.9928732
88	0x3f7d58d7	0.98963684
89	0x3f7cf739	0.9881473
90	0x3f7c3727	0.98521656
91	0x3f7be0c5	0.98389846
92	0x3f7ccdb9	0.9875141
93	0x3f7ceff0	0.98803616
94	0x3f81a12c	1.0127311
95	0x3f8368c6	1.0266349
96	0x3f80a736	1.0051029
97	0x3f81ef19	1.0151092
98	0x3f7ea408	0.9946904
99	0x3f7e20cb	0.9926879
100	0x3f7c10ce	0.9846314
101	0x3f80a8a8	1.005147
102	0x3f81afc7	1.0131768
103	0x3f7b9569	0.98274857
104	0x3f7b97a5	0.98278266
105	0x3f8002e5	1.0000883
106	0x3f8120b1	1.0088102
107	0x3f81f207	1.0151986
108	0x3f7a8fbe	0.97875583
109	0x3f814f8b	1.01024
110	0x3f80d93d	1.0066296
111	0x3f7afabe	0.9803885
112	0x3f7c0f7f	0.98461145
113	0x3f7a2d88	0.97725725
114	0x3f7c205c	0.98486876
115	0x3f80c222	1.0059245
116	0x3f7d156b	0.98860806
117	0x3f7e665c	0.9937494
118	0x3f7f64b2	0.99763024
119	0x3f7ec37f	0.99517053
120	0x3f80a256	1.0049541
121	0x3f7fbdde	0.9989909
122	0x3f7ce7a8	0.9879098
123	0x3f7d6fd1	0.98998743
124	0x3f7ecf90	0.99535465
125	0x3f821de2	1.016537
126	0x3f80ecaf	1.007223
127	0x3f808d11	1.004305

encoder.graph_embed.bn.bias f4 [128]
0	0xbc03b7de	-0.008039443
1	0xbc542962	-0.01294932
2	0xbacb4bda	-0.0015510276
3	0x3c0589f6	0.008150568
4	0x3b854208	0.0040667094
5	0x3c8f470c	0.017489932
6	0xbbb779cc	-0.005599236
7	0xbbb025e8	-0.0053756125
8	0xba059c9c	-0.0005096884
9	0xbbebee85	-0.0072000646
10	0xb99c9979	-0.00029868985
11	0x3a960d51	0.001144806
12	0x3bb8ec68	0.005643416
13	0x3c84e2cc	0.016221426
14	0xbc199d1a	-0.009375835
15	0xbc0b9a67	-0.008520699
16	0xbc41832a	-0.011811057
17	0x3b8306c2	0.0039986083
18	0xbbaf9f81	-0.0053595905
19	0xbbfaf6f6	-0.0076588346
20	0x3c21b4ab	0.009869735
21	0xbaaa1b50	-0.001297811
22	0xbbb79873	-0.00560289
23	0x3bb7a4c1	0.005604357
24	0xbc02df38	-0.00798779
25	0xbc865b36	-0.016400915
26	0xbc5c8045	-0.013458316
27	0xbc5d457d	-0.013505337
28	0x3b093d51	0.0020941088
29	0xba666e39	-0.0008790228
30	0x3c34e64a	0.011041233
31	0x3bdc10aa	0.0067158537
32	0xbbd3ad35	-0.006459857
33	0xbbfe94c5	-0.0077691996
34	0xbc091a32	-0.008368062
35	0xbbf3af8c	-0.0074366983
36	0xbc3fab84	-0.011698607
37	0xbc586c5c	-0.013209429
38	0xbada5d52	-0.0016659892
39	0xbb3458ae	-0.0027518678
40	0xba7aff74	-0.00095748086
41	0xbbb17313	-0.0054153292
42	0x3994309d	0.0002826498
43	0xbb46e045	-0.0030346077
44	0x3beaad2f	0.0071617584
45	0x3be41722	0.0069607655
46	0x3c5a48c4	0.013323013
47	0x3bb3d73b	0.005488304
48	0x3af10773	0.0018389061
49	0x3b9f09c7	0.0048534605
50	0xbbd27115	-0.006422172
51	0x3c63298f	0.013864889
52	0x3c7835bd	0.015149531
53	0x3bfee774	0.007779056
54	0x3c2a2164	0.0103839375
55	0x3bb63470	0.0055604503
56	0xbb45f1ed	-0.0030204013
57	0xbb4e9f7f	-0.0031528173
58	0xbb28af8c	-0.00257394
59	0x3bd9583c	0.006632833
60	0xbc1a384f	-0.009412839
61	0xbbbdaa19	-0.0057880995
62	0x3acd8f69	0.0015682998
63	0x3c94b388	0.018152013
64	0xbba5fe0c	-0.005065685
65	0xbaa53a2d	-0.0012605839
66	0xbb7a0f95	-0.003815626
67	0x3bc583f7	0.0060276943
68	0x3c2666a7	0.01015631
69	0xbb6d42b2	-0.0036203084
70	0xbc270c42	-0.010195794
71	0xb97e1c66	-0.00024233907
72	0xbc1383b3	-0.0090035675
73	0x3bb90a00	0.005646944
74	0xbad00542	-0.0015870708
75	0x3c467081	0.012111784
76	0x3b0b5dee	0.0021265703
77	0x3b943f03	0.004524113
78	0xbb56d0bd	-0.0032778226
79	0x3b71205c	0.003679297
80	0xbc019995	-0.007910152
81	0x3c73c96e	0.014879568
82	0x3b02cb19	0.0019957481
83	0x3c2aea42	0.010431828
84	0x3af9afd4	0.0019049593
85	0xba033d0d	-0.00050063507
86	0xbc8149ec	-0.015782319
87	0x3b1f5a14	0.0024315165
88	0x3b2686d9	0.0025409965
89	0x3c57b9cc	0.013166856
90	0xbc6269a3	-0.013819131
91	0x3c77ee70	0.0151325315
92	0xbb9f8fd3	-0.00486944
93	0x3bf7ec09	0.0075659794
94	0x3b10fa38	0.0022121798
95	0x3b1e4842	0.0024151956
96	0xbc60e6de	-0.013726918
97	0x3c3522b0	0.011055633
98	0xbb8e20ab	-0.0043373904
99	0x3bc1e914	0.0059176777
100	0xbba944c9	-0.0051656705
101	0x3c239c55	0.009986003
102	0x3c0507af	0.008119508
103	0x3c25d227	0.010120905
104	0xbb212660	-0.0024589524
105	0x3c90d4a9	0.01767953
106	0x3b3ae477	0.0028517523
107	0x3b9626ac	0.0045822468
108	0x3c2df0d2	0.010616498
109	0xbbcf87d4	-0.0063333306
110	0xbb186cf2	-0.0023258296
111	0x3c61700c	0.013759624
112	0xbb9ab5f5	-0.004721398
113	0xbaff948a	-0.0019499224
114	0xbc0a2a79	-0.008432978
115	0xbbaa1852	-0.0051908875
116	0x3b7df09d	0.0038748153
117	0x3b2f3b74	0.0026738318
118	0xbc0ddd9a	-0.008658791
119	0x3bee5970	0.0072738454
120	0x3981ca18	0.0002475537
121	0x3a57c380	0.0008230731
122	0xbca88f46	-0.02057613
123	0xbc032547	-0.008004493
124	0xbc1a5f36	-0.009422114
125	0x3a7cd3ed	0.00096446165
126	0xbb360c90	-0.0027778484
127	0x3bcc15da	0.006228191

encoder.graph_embed.bn.running_mean f4 [128]
0	0xbc9b1730	-0.018931955
1	0x3dbe0721	0.092787035
2	0xbdb9e2f0	-0.09076488
3	0xbdd180ee	-0.102296695
4	0x3e8a4b19	0.2701042
5	0x3ebdadf3	0.37046775
6	0x3e339eb4	0.17541009
7	0xbde0bc20	-0.10973382
8	0xbde8f870	-0.11375511
9	0xbddc1b47	-0.1074739
10	0xbdfc148c	-0.123086065
11	0x3d23c9c4	0.03998734
12	0xbd95c8b7	-0.07313674
13	0xbd3fcc86	-0.046825908
14	0xbdf851f9	-0.1212501
15	0x3f0c851f	0.54890627
16	0x3ef10fa7	0.47082254
17	0x3d6c19dc	0.05764185
18	0xbd8494ed	-0.06473718
19	0x3cf6ed7c	0.030142538
20	0x3e2aaefd	0.16668315
21	0xbd90dea5	-0.07073716
22	0xbe0caa9f	-0.13736962
23	0x3f11b8a6	0.56922376
24	0x3df6446b	0.120247684
25	0x3dd1b5b7	0.102397375
26	0x3e7c37b7	0.24630629
27	0xbda9bbe3	-0.0828779
28	0xbdd692f1	-0.104772456
29	0xbdbda753	-0.0926043
30	0xbc5cda89	-0.013479837
31	0xbd8faf63	-0.07015874
32	0xbdda2a96	-0.10652654
33	0x3df08b55	0.117453255
34	0x3d9ff019	0.07809467
35	0x3e0977ee	0.13424656
36	0xbc70b20a	-0.014690885
37	0x3dd10b1f	0.10207199
38	0x3ea939f1	0.33052018
39	0xbca96d0c	-0.02068188
40	0x3e2236d4	0.15841228
41	0x3e91c4c7	0.28470442
42	0x3e27609e	0.1634545
43	0x3e53b79c	0.2067551
44	0xbdf33425	-0.1187518
45	0x3e95f534	0.29288638
46	0xbd203528	-0.039113194
47	0x3f4ce714	0.800401
48	0xbda337e7	-0.07969647
49	0x3e8aded1	0.2712312
50	0x3e637432	0.22212294
51	0x3e9b96ab	0.30388388
52	0xbc814509	-0.015779989
53	0x3dafee17	0.08590334
54	0xbd19320d	-0.037401248
55	0x3e35091d	0.17679258
56	0x3e771a1c	0.24131054
57	0x3c3a57bc	0.011373457
58	0x3f596339	0.84917027
59	0xbdc3617c	-0.09540078
60	0x3e93192f	0.2873015
61	0x3e31f6a9	0.1737925
62	0x3d088611	0.03333098
63	0xbdc74728	-0.09730369
64	0x3dd446c3	0.10365059
65	0x3e2863c7	0.16444312
66	0x3e6594b0	0.22420001
67	0xbd4b1349	-0.04957894
68	0xbdcf20b5	-0.1011366
69	0x3db45d79	0.08806891
70	0x3d5524ae	0.052036934
71	0xbdecccaa	-0.11562474
72	0xbd5c6e19	-0.053815935
73	0x3d1f1744	0.038840547
74	0x3f4c635a	0.798391
75	0x3d771a9e	0.06032812
76	0xbdbba548	-0.09162384
77	0xbd8b6721	-0.0680678
78	0x3ed29d33	0.41135558
79	0xbdc2e39a	-0.09516068
80	0x3eda7777	0.4266927
81	0x3d986ae8	0.07442266
82	0x3e47dc67	0.1951767
83	0x3ec9819c	0.39356697
84	0xbd45c92f	-0.048287567
85	0x3de72998	0.1128723
86	0x3dfeec26	0.124473855
87	0xbe08b255	-0.13349278
88	0x3f24bcd4	0.6435063
89	0xbce1380e	-0.02749255
90	0x3c88fac8	0.016721144
91	0xbcbb9516	-0.022898238
92	0xbd647c13	-0.05578239
93	0xbdc8f980	-0.09813213
94	0x3f08f511	0.5349894
95	0x3e0dff3d	0.13866897
96	0xbd35e213	-0.044405054
97	0xbdcb0ca5	-0.09914521
98	0xbd8bbf5a	-0.06823607
99	0x3c4f54f7	0.012654535
100	0xbce8d155	-0.02842013
101	0x3ba95e0a	0.005168681
102	0x3e07d775	0.13265784
103	0xbcc10e4b	-0.023566386
104	0x3efbc52b	0.49173865
105	0x3de834e8	0.11338216
106	0xbd35f7b6	-0.04442569
107	0x3ebbe0cd	0.36694947
108	0xbe09679d	-0.13418432
109	0xbdc21d05	-0.09478191
110	0xbda5c1d3	-0.0809361
111	0x3d74be65	0.059751887
112	0x3eb4bd86	0.35300845
113	0x3e0aed25	0.13567026
114	0x3da9823d	0.08276794
115	0xbdb7b160	-0.089693785
116	0x3f29548d	0.6614464
117	0x3c203d2f	0.009780212
118	0x3e921b4b	0.28536448
119	0x3b9a5760	0.004710123
120	0x3e4e009c	0.2011742
121	0x3d8023c1	0.062568195
122	0xbdc9c83f	-0.09852647
123	0x3f0d2f0d	0.5514992
124	0xbd9a1f68	-0.075255215
125	0xbdf943a2	-0.12171103
126	0x3e24f91e	0.16110656
127	0xbdbe808a	-0.09301861

encoder.graph_embed.bn.running_var f4 [128]
0	0x3b949ac4	0.004535051
1	0x3d23dc08	0.04000476
2	0x3c05109a	0.008121634
3	0x3c01a306	0.007912403
4	0x3d788849	0.060676847
5	0x3dac7676	0.08421032
6	0x3d019469	0.031635676
7	0x3d093d55	0.033505756
8	0x3c27b820	0.01023677
9	0x3c79e29b	0.015251781
10	0x3c43507b	0.0119210435
11	0x3d78f1aa	0.060777344
12	0x3c6484e6	0.013947701
13	0x3cc28452	0.023744736
14	0x3c31103e	0.010807095
15	0x3e9d3e73	0.30711707
16	0x3e2e919c	0.17047733
17	0x3d3432ce	0.043993764
18	0x3c40fe74	0.011779416
19	0x3ce4d1c9	0.027932065
20	0x3d6b717e	0.05748128
21	0x3cc09341	0.023507716
22	0x3ca52701	0.0201602
23	0x3e813ab0	0.25240088
24	0x3dc02018	0.093811214
25	0x3d1709a4	0.03687443
26	0x3d8d4284	0.068974525
27	0x3c987d09	0.018614309
28	0x3c27f45c	0.010251131
29	0x3cba1b45	0.022718081
30	0x3d261397	0.040546026
31	0x3c73183d	0.014837322
32	0x3c81c62c	0.015841566
33	0x3d8737fa	0.066024736
34	0x3d612913	0.054970812
35	0x3d31e04b	0.043426793
36	0x3c690187	0.014221556
37	0x3d0b71e4	0.03404416
38	0x3e29ee81	0.16594888
39	0x3beb7c12	0.007186421
40	0x3d8b46e6	0.06800632
41	0x3d718a45	0.058969755
42	0x3daf60a1	0.085633524
43	0x3d2ec8f1	0.0426721
44	0x3c85565e	0.016276535
45	0x3d929e5e	0.071591124
46	0x3cab5326	0.020913672
47	0x3eadaff1	0.33923295
48	0x3c576532	0.013146685
49	0x3dcc1449	0.099648066
50	0x3d86fd30	0.065912604
51	0x3d6f2d20	0.058392644
52	0x3d259a05	0.040430088
53	0x3c598ff3	0.013278949
54	0x3d65b8cc	0.05608444
55	0x3d5c08c8	0.053719312
56	0x3d9f949f	0.07792019
57	0x3d193362	0.037402518
58	0x3ecf9c00	0.40548706
59	0x3c69918e	0.014255894
60	0x3df29aaf	0.1184591
61	0x3d33c64d	0.043890286
62	0x3cc721b7	0.024308069
63	0x3c802d8a	0.015646715
64	0x3d32bc25	0.04363646
65	0x3d366b0d	0.044535685
66	0x3d85c083	0.06530859
67	0x3c6a98c9	0.014318653
68	0x3c199a2f	0.009375139
69	0x3d20d126	0.03926196
70	0x3d0de406	0.03464129
71	0x3c504241	0.012711109
72	0x3cec8336	0.02887116
73	0x3d67a857	0.056557026
74	0x3e955a26	0.2917034
75	0x3d6bbfa0	0.057555795
76	0x3c21c97a	0.009874696
77	0x3cd486fe	0.025943276
78	0x3dfc832c	0.123297065
79	0x3c96568c	0.018351816
80	0x3dccc4ef	0.099984996
81	0x3cbca308	0.023026958
82	0x3db7485f	0.089493506
83	0x3e0cfd52	0.13768509
84	0x3ce004cf	0.027346043
85	0x3cb09619	0.021555947
86	0x3d6bee45	0.05760028
87	0x3c85fdca	0.016356368
88	0x3e5f9f6e	0.21838161
89	0x3be6b57f	0.007040679
90	0x3d5b6976	0.053567372
91	0x3cbbdcc9	0.022932427
92	0x3cb09649	0.021556037
93	0x3be9990d	0.007128841
94	0x3e5da401	0.21644594
95	0x3d494277	0.04913565
96	0x3c579bdc	0.013159718
97	0x3c3ed236	0.011646798
98	0x3c87bf80	0.016570807
99	0x3c849dc4	0.01618851
100	0x3d3e8200	0.046510696
101	0x3c995b09	0.018720167
102	0x3ca908e8	0.02063413
103	0x3c3dff53	0.011596519
104	0x3e077a01	0.13230135
105	0x3d0e8a76	0.034800015
106	0x3cae9240	0.021309972
107	0x3dd9bba2	0.10631491
108	0x3c63de93	0.013908046
109	0x3c2ce3f5	0.010552396
110	0x3c9503bf	0.018190263
111	0x3ce1f757	0.027583761
112	0x3dfe253a	0.12409444
113	0x3cfd228b	0.03090026
114	0x3d3d31ed	0.04619019
115	0x3d61a9b6	0.05509349
116	0x3e54d9de	0.20786235
117	0x3cca1bd7	0.024671478
118	0x3e3a12d0	0.18171239
119	0x3d16e877	0.03684279
120	0x3d40ceb0	0.047072113
121	0x3d30ec10	0.043193877
122	0x3c1a1051	0.009403304
123	0x3e39122e	0.18073341
124	0x3c8fbd98	0.01754646
125	0x3ca93582	0.020655397
126	0x3d89d27f	0.06729602
127	0x3cc52bd6	0.024068754

encoder.pos_enc.pe f4 [500, 128]
0	0x00000000	0.0
1	0x3f800000	1.0
2	0x00000000	0.0
3	0x3f800000	1.0
4	0x00000000	0.0
5	0x3f800000	1.0
6	0x00000000	0.0
7	0x3f800000	1.0
8	0x00000000	0.0
9	0x3f800000	1.0
10	0x00000000	0.0
11	0x3f800000	1.0
12	0x00000000	0.0
13	0x3f800000	1.0
14	0x00000000	0.0
15	0x3f800000	1.0
16	0x00000000	0.0
17	0x3f800000	1.0
18	0x00000000	0.0
19	0x3f800000	1.0
20	0x00000000	0.0
21	0x3f800000	1.0
22	0x00000000	0.0
23	0x3f800000	1.0
24	0x00000000	0.0
25	0x3f800000	1.0
26	0x00000000	0.0
27	0x3f800000	1.0
28	0x00000000	0.0
29	0x3f800000	1.0
30	0x00000000	0.0
31	0x3f800000	1.0
32	0x00000000	0.0
33	0x3f800000	1.0
34	0x00000000	0.0
35	0x3f800000	1.0
36	0x00000000	0.0
37	0x3f800000	1.0
38	0x00000000	0.0
39	0x3f800000	1.0
40	0x00000000	0.0
41	0x3f800000	1.0
42	0x00000000	0.0
43	0x3f800000	1.0
44	0x00000000	0.0
45	0x3f800000	1.0
46	0x00000000	0.0
47	0x3f800000	1.0
48	0x00000000	0.0
49	0x3f800000	1.0
50	0x00000000	0.0
51	0x3f800000	1.0
52	0x00000000	0.0
53	0x3f800000	1.0
54	0x00000000	0.0
55	0x3f800000	1.0
56	0x00000000	0.0
57	0x3f800000	1.0
58	0x00000000	0.0
59	0x3f800000	1.0
60	0x00000000	0.0
61	0x3f800000	1.0
62	0x00000000	0.0
63	0x3f800000	1.0
64	0x00000000	0.0
65	0x3f800000	1.0
66	0x00000000	0.0
67	0x3f800000	1.0
68	0x00000000	0.0
69	0x3f800000	1.0
70	0x00000000	0.0
71	0x3f800000	1.0
72	0x00000000	0.0
73	0x3f800000	1.0
74	0x00000000	0.0
75	0x3f800000	1.0
76	0x00000000	0.0
77	0x3f800000	1.0
78	0x00000000	0.0
79	0x3f800000	1.0
80	0x00000000	0.0
81	0x3f800000	1.0
82	0x00000000	0.0
83	0x3f800000	1.0
84	0x00000000	0.0
85	0x3f800000	1.0
86	0x00000000	0.0
87	0x3f800000	1.0
88	0x00000000	0.0
89	0x3f800000	1.0
90	0x00000000	0.0
91	0x3f800000	1.0
92	0x00000000	0.0
93	0x3f800000	1.0
94	0x00000000	0.0
95	0x3f800000	1.0
96	0x00000000	0.0
97	0x3f800000	1.0
98	0x00000000	0.0
99	0x3f800000	1.0
100	0x00000000	0.0
101	0x3f800000	1.0
102	0x00000000	0.0
103	0x3f800000	1.0
104	0x00000000	0.0
105	0x3f800000	1.0
106	0x00000000	0.0
107	0x3f800000	1.0
108	0x00000000	0.0
109	0x3f800000	1.0
110	0x00000000	0.0
111	0x3f800000	1.0
112	0x00000000	0.0
113	0x3f800000	1.0
114	0x00000000	0.0
115	0x3f800000	1.0
116	0x00000000	0.0
117	0x3f800000	1.0
118	0x00000000	0.0
119	0x3f800000	1.0
120	0x00000000	0.0
121	0x3f800000	1.0
122	0x00000000	0.0
123	0x3f800000	1.0
124	0x00000000	0.0
125	0x3f800000	1.0
126	0x00000000	0.0
127	0x3f800000	1.0
128	0x3f576aa4	0.84147096
129	0x3f0a5141	0.54030234
130	0x3f43001c	0.7617204
131	0x3f25dd28	0.6479058
132	0x3f2e7ace	0.68156135
133	0x3f3b54b0	0.731761
134	0x3f1acd3a	0.604694
135	0x3f4be4aa	0.7964579
136	0x3f087dba	0.53316844
137	0x3f58940d	0.8460091
138	0x3eef96e3	0.46794805
139	0x3f623dd5	0.883756
140	0x3ed190f0	0.4093089
141	0x3f6992c7	0.9123959
142	0x3eb6d761	0.35711196
143	0x3f6f1ea9	0.9340616
144	0x3e9f393e	0.3109836
145	0x3f734e6b	0.9504153
146	0x3e8a7617	0.2704322
147	0x3f767611	0.96273905
148	0x3e708f25	0.23492105
149	0x3f78d5f1	0.9720145
150	0x3e50ce61	0.20391227
151	0x3f7a9f09	0.9789892
152	0x3e35233a	0.17689219
153	0x3f7bf683	0.9842302
154	0x3e1d10e3	0.15338473
155	0x3f7cf87c	0.9881666
156	0x3e0825f3	0.13295726
157	0x3f7dba28	0.99112177
158	0x3debf95c	0.11522171
159	0x3f7e4b84	0.9933398
160	0x3dcc7576	0.099833414
161	0x3f7eb898	0.9950042
162	0x3db120bf	0.08648824
163	0x3f7f0a6e	0.9962529
164	0x3d996f36	0.07491915
165	0x3f7f47d1	0.9971896
166	0x3d84e660	0.06489253
167	0x3f7f75de	0.99789226
168	0x3d6636ae	0.05620449
169	0x3f7f9868	0.9984193
170	0x3d476212	0.04867751
171	0x3f7fb24f	0.9988145
172	0x3d2cacfa	0.04215715
173	0x3f7fc5bd	0.999111
174	0x3d158ac5	0.036509294
175	0x3f7fd44f	0.9993333
176	0x3d01815b	0.031617504
177	0x3f7fdf3c	0.99950004
178	0x3ce04da4	0.027380772
179	0x3f7fe76e	0.9996251
180	0x3cc23ea5	0.023711512
181	0x3f7fed93	0.99971884
182	0x3ca83682	0.020533804
183	0x3f7ff22f	0.9997892
184	0x3c91ab42	0.017781857
185	0x3f7ff5a3	0.99984187
186	0x3c7c4aa3	0.015398654
187	0x3f7ff83b	0.99988145
188	0x3c5a7a49	0.013334819
189	0x3f7ffa2c	0.99991107
190	0x3c3d31fa	0.01154756
191	0x3f7ffba1	0.9999333
192	0x3c23d657	0.009999833
193	0x3f7ffcb9	0.99995
194	0x3c0de0ba	0.008659536
195	0x3f7ffd8b	0.9999625
196	0x3bf5b916	0.0074988706
197	0x3f7ffe28	0.99997187
198	0x3bd4c9b3	0.006493771
199	0x3f7ffe9e	0.9999789
200	0x3bb8445a	0.0056233825
201	0x3f7ffef7	0.9999842
202	0x3b9f91a3	0.004869656
203	0x3f7fff39	0.99998814
204	0x3b8a2e5a	0.0042169513
205	0x3f7fff6b	0.9999911
206	0x3b6f51e9	0.0036517328
207	0x3f7fff90	0.9999933
208	0x3b4f3e1c	0.0031622713
209	0x3f7fffac	0.999995
210	0x3b3376fe	0.0027384157
211	0x3f7fffc1	0.99999624
212	0x3b1b6903	0.0023713715
213	0x3f7fffd1	0.9999972
214	0x3b069467	0.0020535232
215	0x3f7fffdd	0.9999979
216	0x3ae91520	0.0017782785
217	0x3f7fffe6	0.99999845
218	0x3ac9d754	0.0015399256
219	0x3f7fffec	0.9999988
220	0x3aaec98a	0.001333521
221	0x3f7ffff1	0.9999991
222	0x3a975c09	0.0011547814
223	0x3f7ffff5	0.99999934
224	0x3a83126d	0.0009999998
225	0x3f7ffff8	0.9999995
226	0x3a6301e2	0.00086596434
227	0x3f7ffffa	0.99999964
228	0x3a449489	0.000749894
229	0x3f7ffffb	0.9999997
230	0x3a2a3b43	0.0006493816
231	0x3f7ffffd	0.9999998
232	0x3a136a13	0.0005623411
233	0x3f7ffffd	0.9999998
234	0x39ff4fab	0.00048696747
235	0x3f7ffffe	0.9999999
236	0x39dd1721	0.00042169637
237	0x3f7fffff	0.99999994
238	0x39bf74d7	0.0003651741
239	0x3f7fffff	0.99999994
240	0x39a5cb61	0.00031622782
241	0x3f7fffff	0.99999994
242	0x398f9275	0.00027384204
243	0x3f7fffff	0.99999994
244	0x3978a80d	0.00023713727
245	0x3f800000	1.0
246	0x395753e2	0.00020535247
247	0x3f800000	1.0
248	0x393a7753	0.00017782794
249	0x3f800000	1.0
250	0x39217919	0.00015399269
251	0x3f800000	1.0
252	0x390bd46d	0.00013335208
253	0x3f800000	1.0
254	0x38f22cdd	0.00011547816
255	0x3f800000	1.0

encoder.transformer.in_proj_weight f4 [384, 128]
0	0x3d8ef5ec	0.069804996
1	0xbd274cfb	-0.0408449
2	0x3c2ac347	0.010422534
3	0xbd2d7925	-0.04235186
4	0xbc82fdb1	-0.01599011
5	0x3be3e664	0.006954955
6	0xbb22b43f	-0.0024826673
7	0x3d7ab430	0.061206996
8	0x3ad3c492	0.0016156605
9	0x3af88a9f	0.0018962211
10	0x3dcda752	0.100416794
11	0x3d66dd3c	0.05636333
12	0xbd7563b3	-0.059909534
13	0x3db15b4a	0.0865999
14	0x3d9c13f1	0.07620991
15	0x3cb3ffc2	0.02197254
16	0x3dc5eed8	0.096646965
17	0x3d3a18d9	0.045433853
18	0xbda93b75	-0.08263294
19	0x3d79cc1f	0.06098568
20	0x3da4e851	0.08052123
21	0xbdbda28e	-0.092595205
22	0xbba31c99	-0.0049777743
23	0xbdc747d4	-0.09730497
24	0x3c8d9664	0.017283626
25	0xbc40692a	-0.011743823
26	0x3dad47ae	0.084609374
27	0x3de9d46c	0.114174694
28	0x3d2b5bc1	0.04183555
29	0xbd64aef3	-0.055830907
30	0xbc685682	-0.014180781
31	0xbd4eb3df	-0.050464507
32	0x3d038497	0.03210887
33	0xbdbb19c8	-0.09135777
34	0x3db5a9e0	0.08870292
35	0xbd1b141b	-0.03786097
36	0x3d3b59bd	0.045739878
37	0x3d9602d8	0.07324761
38	0x3c86f7f8	0.016475663
39	0xbd961bc9	-0.07329518
40	0x3dede336	0.11615603
41	0xbd2b05bd	-0.04175352
42	0xbd93309a	-0.071870044
43	0x3dbab022	0.09115626
44	0x3ceac207	0.028656973
45	0x3cd8067d	0.026370281
46	0xbdb9c624	-0.090709955
47	0xbcecb37e	-0.028894182
48	0xbdc3f9dc	-0.09569141
49	0xbc509892	-0.012731688
50	0xbbea9cda	-0.0071598114
51	0x3c125a37	0.008932642
52	0xbdecdf14	-0.11565986
53	0xbd889bee	-0.06670366
54	0x3ccb9df2	0.024855588
55	0xbda896b7	-0.082318716
56	0x3d1bf853	0.038078617
57	0x3da1d278	0.07901472
58	0xbdc6e02b	-0.097107254
59	0xbdadfcde	-0.08495496
60	0xbd6f66a6	-0.058447503
61	0x3d8117aa	0.06303342
62	0xbd946fe0	-0.07247901
63	0x3c730c22	0.014834436
64	0xbd3664c8	-0.044529706
65	0xbdeefa5b	-0.11668845
66	0xbc896cf2	-0.016775582
67	0x3d769927	0.06020465
68	0x3da21697	0.07914465
69	0xbdaa2407	-0.08307653
70	0xbcb4a633	-0.022051906
71	0x3c3d9508	0.011571176
72	0xbcfbf641	-0.030757071
73	0xbc6a6107	-0.01430536
74	0xbd398575	-0.04529329
75	0xbdd4ce15	-0.103908695
76	0x3d810afc	0.06300923
77	0xbc4be26f	-0.012444123
78	0x3dce8bc9	0.10085256
79	0x3ccb1745	0.02479137
80	0x3d003315	0.031298716
81	0xbd3f4aa1	-0.04670203
82	0x3d90c5f6	0.07069008
83	0x3d4c43e4	0.049869433
84	0x3d835c92	0.06414141
85	0xbcb5c116	-0.022186797
86	0x3db6cb75	0.08925525
87	0x3cc2a4b6	0.02376018
88	0x3db53248	0.08847481
89	0xbd9b1108	-0.07571608
90	0xbd3944cf	-0.045231637
91	0x3cc3408d	0.023834491
92	0x3d566825	0.052345414
93	0x3bd3bf6c	0.0064620283
94	0x3ddd83ac	0.1081613
95	0xbdcaabb7	-0.09896033
96	0xbd3c9240	-0.046037912
97	0xbcca541e	-0.024698313
98	0x3d00ef5d	0.031478275
99	0xbb98cad3	-0.0046628504
100	0xbcd15db2	-0.025557373
101	0x3daf4a20	0.0855906
102	0x3d1a0618	0.037603468
103	0xbd567e5a	-0.052366592
104	0xbcd3f338	-0.025872812
105	0xbd6066ca	-0.054785527
106	0x3d94d03e	0.072662815
107	0xbd5fb261	-0.054613475
108	0x3d3ba07c	0.045807347
109	0xbd9647a5	-0.07337884
110	0xbd037a59	-0.0320991
111	0x3db41453	0.08792939
112	0x3d89a4a3	0.06720855
113	0xbcbe6e1f	-0.02324587
114	0x3dca07b1	0.09864748
115	0x3ba9c096	0.0051804287
116	0xbd7e083a	-0.062019564
117	0x3cb44d33	0.022009468
118	0x3d96b784	0.073592216
119	0xbd0dec29	-0.034649048
120	0xbbb62f03	-0.0055598035
121	0x3c4a07d0	0.012330964
122	0x3b509bb0	0.0031831078
123	0xbdbca879	-0.09211821
124	0x3dccf642	0.100079075
125	0xbc3c6b88	-0.011500247
126	0xbd44f401	-0.048084263
127	0x3cb90a0c	0.022587799
128	0xbd14d230	-0.036333263
129	0x3dfb8ddc	0.12282917
130	0xbde5e44e	-0.11225186
131	0x3dc8d95a	0.098070815
132	0xbd1179a8	-0.03551641
133	0x3d64718a	0.05577234
134	0xbda29a8c	-0.07939634
135	0x3d90b667	0.070660405
136	0xbdb34a54	-0.08754411
137	0xbd991ddd	-0.07476399
138	0x3dd4b48c	0.10385999
139	0x3d9e27c0	0.077224255
140	0x3d2e546d	0.042560983
141	0x3d72a81c	0.059242353
142	0xbc13a8a6	-0.009012377
143	0x3d9c30ca	0.07626493
144	0x3ddc7c31	0.10765875
145	0xbd6c722c	-0.05772607
146	0x3daf9cd1	0.08574832
147	0xbc938f49	-0.01801266
148	0x3ca0ff90	0.019653112
149	0x3c01cbea	0.007922152
150	0x3d8f8630	0.07008016
151	0xbde068ce	-0.1095749
152	0xbc76f92f	-0.015074058
153	0x3de32af9	0.11092181
154	0xbc0b6795	-0.008508583
155	0xbd576ba6	-0.052592896
156	0x3d286df0	0.04112047
157	0x3c917bfb	0.017759314
158	0x3d72349f	0.059132215
159	0xbd86c722	-0.0658095
160	0x3a91c508	0.0011121342
161	0xbdadcc9e	-0.08486293
162	0xbccc77fb	-0.024959555
163	0x3d9d1862	0.07670666
164	0x3d94d70c	0.072675794
165	0x3c98003a	0.018554796
166	0x3df57f65	0.11987189
167	0x3e01ac70	0.12663436
168	0xbbb2bc62	-0.005454586
169	0xbc83ccbd	-0.016088838
170	0x3b10be80	0.0022086203
171	0x3dd5ac34	0.10433236
172	0xbd3ae227	-0.045625832
173	0xbcbce7b2	-0.0230597
174	0xbddfce8e	-0.10928069
175	0x3da00c52	0.0781485
176	0xbd8c8367	-0.068610005
177	0xbd558751	-0.052131
178	0x3d9dfa41	0.07713748
179	0xbdc5fd3b	-0.096674405
180	0xbd4a28f9	-0.04935548
181	0x3d1e742c	0.03868501
182	0xbdbf1681	-0.09330464
183	0xbd96de4c	-0.073666185
184	0xbd37b438	-0.044849604
185	0x3d29f8dd	0.0414971
186	0xbdc48814	-0.09596267
187	0x3d7a51c3	0.06111313
188	0xbdfb2215	-0.1226236
189	0xbd70084d	-0.058601666
190	0x3d975d7a	0.07390876
191	0x3c455c3d	0.012045917
192	0xbc01479d	-0.007890609
193	0xbcd55458	-0.026041195
194	0xbdfba131	-0.12286604
195	0x3c0237da	0.007947886
196	0xbc801e2f	-0.015639393
197	0xbdcba321	-0.09943224
198	0x3d3d45b4	0.046209052
199	0x3b1d0a8b	0.0023962583
200	0x3dd19752	0.1023394
201	0xbda467c0	-0.08027601
202	0xbda3d954	-0.080004364
203	0x3b9ad392	0.004724928
204	0x3ddaa045	0.106751
205	0x3d40e74a	0.047095574
206	0x3cfcebf2	0.030874226
207	0xbc27b283	-0.010235432
208	0x3ddcdbf1	0.10784138
209	0xbd2bc0c1	-0.04193187
210	0x3d97e51f	0.07416748
211	0xbd85e8a2	-0.06538512
212	0x3d12b242	0.03581453
213	0x3d2883fd	0.0411415
214	0x3d5b996a	0.053613104
215	0xbdf9dfb1	-0.12200869
216	0x3c8d3013	0.017234838
217	0xbd16dfac	-0.036834404
218	0xbc8cf04e	-0.01720443
219	0xbd14e3f3	-0.0363502
220	0xbd222c46	-0.039593004
221	0x3d1c18cf	0.038109597
222	0xbdcd3f06	-0.100217864
223	0xbc019849	-0.007909843
224	0xbb80d864	-0.003932046
225	0xbcde50bf	-0.027138112
226	0xbd694311	-0.056948725
227	0xbd0f3ee3	-0.034972083
228	0xbd47b9c2	-0.048761137
229	0xbdc03a02	-0.09386064
230	0x3ba9b5d0	0.0051791444
231	0xbd4c5fee	-0.049896173
232	0xbce965cd	-0.028490925
233	0xbd1a8474	-0.037723973
234	0x3dcd6738	0.10029453
235	0xbdfcf220	-0.12350869
236	0x3c3c954a	0.011510203
237	0xbc3fef28	-0.011714734
238	0x3d0c650f	0.034276064
239	0xbdb652b4	-0.08902493
240	0x3b1a58ff	0.002355158
241	0x3d688950	0.056771576
242	0x3d123537	0.03569528
243	0xbdfc02d3	-0.12305226
244	0x3cd42e79	0.025901066
245	0x3d58f73a	0.05297015
246	0x3dab0707	0.0835095
247	0x3c503a47	0.012709207
248	0x3dc85be2	0.0978315
249	0x3d810dbe	0.06301449
250	0x3cba676b	0.022754392
251	0x3da617cd	0.081100084
252	0x3d00c3d7	0.031436767
253	0xbcfa8bd7	-0.030584259
254	0x3dae558a	0.08512409
255	0xbbef2e21	-0.0072992

encoder.transformer.in_proj_bias f4 [384]
0	0xbc8a45c8	-0.016878977
1	0xbccda97f	-0.025105236
2	0x3c18a254	0.009316046
3	0xbc31bce2	-0.010848256
4	0xbc86a75d	-0.016437227
5	0xbc2f119a	-0.010685349
6	0x3a83b906	0.0010049648
7	0x3bcbc353	0.006218353
8	0xbb643455	-0.0034821231
9	0x3c16d82d	0.009206814
10	0xb9f8919d	-0.00047410736
11	0xba7d3f0f	-0.00096605805
12	0xba66c7e9	-0.00088035926
13	0xbc329a19	-0.010900998
14	0x3c2ceb1f	0.010554104
15	0x3c5032f1	0.012707458
16	0x3bf79bff	0.007556438
17	0x3c092fd6	0.008373221
18	0x3c004d56	0.007830938
19	0x3c3b6d30	0.011439607
20	0xbcbe8f43	-0.023261672
21	0xbb11f8c7	-0.0022273527
22	0x3b53c7c8	0.0032315124
23	0xbbb587ff	-0.0055398936
24	0x3c1ee13a	0.009697253
25	0x3c2a2fa4	0.010387335
26	0x3bdc0aa8	0.0067151375
27	0xbb79ba57	-0.0038105452
28	0xba8eed01	-0.0010904373
29	0x3b202ba3	0.0024440072
30	0x3bd459a1	0.006480411
31	0xba9d1243	-0.0011983592
32	0xbc8db922	-0.017300192
33	0x3c5767d8	0.013147317
34	0x3c05770e	0.008146061
35	0xbb6d3b49	-0.0036198667
36	0x3bd8afeb	0.006612768
37	0xbc942bf2	-0.018087361
38	0xbc648527	-0.013947762
39	0x3b0dc39b	0.0021631483
40	0x3bf2d6b5	0.007410849
41	0x3c018af0	0.00790666
42	0x3b2f671e	0.0026764343
43	0xbc219c3e	-0.009863911
44	0xbbb8e727	-0.00564279
45	0x3c17b328	0.009259023
46	0xbbc05487	-0.0058694514
47	0x3aaaadd0	0.0013021771
48	0x3ca3df8a	0.020004053
49	0xbb66b04b	-0.0035200294
50	0x3c9c220f	0.01905921
51	0x3b79fe17	0.0038145834
52	0x3cb2980a	0.021801013
53	0x3bce6b90	0.0062994435
54	0xbc35cd2a	-0.011096278
55	0xbc69e65e	-0.014276115
56	0xba225020	-0.0006191749
57	0x3c5a6592	0.01332988
58	0xbc38c6c0	-0.011277854
59	0xbbfd8a39	-0.0077374247
60	0x3ab3c84c	0.0013716309
61	0x3c9f609c	0.019455247
62	0xbc191659	-0.009343707
63	0xba3b09e9	-0.00071349606
64	0xbc040a7b	-0.008059139
65	0x3a8f2319	0.0010920494
66	0xbc503e35	-0.012710144
67	0xbc30e290	-0.010796204
68	0x3ca84050	0.02053848
69	0xbcccc090	-0.024994165
70	0x3b0fab3d	0.0021922134
71	0x3c617ad4	0.013762195
72	0xbc2dcc35	-0.010607769
73	0xbc9b2b65	-0.01894159
74	0xbc1163e1	-0.008873911
75	0xbb16f78c	-0.0023035733
76	0x3c148af0	0.009066328
77	0xba2a9e06	-0.00065085327
78	0xba78f79e	-0.0009497347
79	0x3bc22439	0.0059247282
80	0xbb8aa913	-0.004231581
81	0xbc76af53	-0.015056449
82	0xbc317187	-0.01083029
83	0xbbfd5f81	-0.007732332
84	0xbc3d4ba7	-0.011553681
85	0xbc1917f5	-0.009344091
86	0x3c180539	0.009278589
87	0xbc51d264	-0.012806509
88	0xbc19f6a4	-0.009397183
89	0x3c1bed20	0.009516984
90	0x3c8dc084	0.017303713
91	0xbb995544	-0.004679354
92	0x3b8eaf1e	0.0043543717
93	0xbbfea836	-0.007771517
94	0xbcda8040	-0.026672482
95	0xb9f9f01f	-0.00047671885
96	0xbcb26890	-0.021778375
97	0x3c53e756	0.012933573
98	0x3c7a5104	0.015278105
99	0x3c129985	0.008947735
100	0x3c9f5b35	0.01945267
101	0x3c739cb7	0.014868907
102	0x3ce03bc4	0.027372248
103	0x3a74168a	0.000931122
104	0x3be76bc9	0.0070624095
105	0xbc5db143	-0.013531032
106	0x3be2d692	0.0069225514
107	0xbca61583	-0.02027393
108	0x3c16d36f	0.009205683
109	0xbbe33780	-0.0069341063
110	0x3c3e45fb	0.011613364
111	0xbb52a3e9	-0.0032141155
112	0x3a61e2b2	0.0008616849
113	0xbca446b4	-0.020053245
114	0xbb1f3181	-0.0024290981
115	0xbc932b5d	-0.017965013
116	0xbbf4f509	-0.0074754995
117	0x3b83cfec	0.004022589
118	0xbc9333b1	-0.017968984
119	0xbb2bc219	-0.002620822
120	0xbb9a032e	-0.004700086
121	0x3b076ce0	0.002066426
122	0xbc4adfa9	-0.012382426
123	0xbc132da3	-0.008983049
124	0xba5e0c64	-0.0008470474
125	0x3a9f30db	0.0012145297
126	0x3c57c6d7	0.013169966
127	0xbbea6a81	-0.0071538095
128	0xb41aa931	-1.4403919e-07
129	0xb4bb97b9	-3.4941857e-07
130	0xb382d5ff	-6.0925224e-08
131	0x341c8297	1.457614e-07
132	0xb339c187	-4.324968e-08
133	0x34b8a651	3.4393682e-07
134	0xb44d35f1	-1.9111737e-07
135	0xb3cabf24	-9.441126e-08
136	0x33e300d3	1.0570661e-07
137	0x345fed13	2.085474e-07
138	0xb40d5926	-1.316408e-07
139	0xb446e1ab	-1.8522285e-07
140	0x342fbb92	1.6366383e-07
141	0xb3af7127	-8.169655e-08
142	0x34362b6b	1.6965866e-07
143	0x34111753	1.3512663e-07
144	0x3381d521	6.0457985e-08
145	0x340d72b6	1.317338e-07
146	0xb3858ac7	-6.2185386e-08
147	0xb3cfbe9b	-9.6738596e-08
148	0xb45b620f	-2.0431638e-07
149	0x32693b5a	1.357588e-08
150	0xb2359e19	-1.0571534e-08
151	0xb4a48a44	-3.0647982e-07
152	0x34be9a9f	3.550276e-07
153	0xb4b13acc	-3.30116e-07
154	0xb35efeb9	-5.1920072e-08
155	0x31502588	3.0289318e-09
156	0x33a0f876	7.4957754e-08
157	0xb418376a	-1.4176263e-07
158	0x34119786	1.3559301e-07
159	0x345cee14	2.0575709e-07
160	0xb4378397	-1.7091075e-07
161	0xb385e72a	-6.2353436e-08
162	0xb41d696a	-1.4660114e-07
163	0x33370442	4.261188e-08
164	0x34783202	2.3114993e-07
165	0xb32b0d11	-3.9825924e-08
166	0xb4311bfa	-1.6494587e-07
167	0x33abd109	8.000831e-08
168	0x342b64b5	1.5962253e-07
169	0x3200c191	7.4945925e-09
170	0x342804d3	1.5647974e-07
171	0xb2c479ed	-2.2872849e-08
172	0xb4102c90	-1.3427257e-07
173	0x3392b45a	6.8314606e-08
174	0xb2f3d855	-2.83873e-08
175	0x34162bd7	1.3985787e-07
176	0x33ddba8f	1.0325049e-07
177	0xb3cc2a30	-9.507164e-08
178	0x3327f594	3.910607e-08
179	0xb3964291	-6.997028e-08
180	0x341361f2	1.3726074e-07
181	0x32d6b26d	2.4994018e-08
182	0x32f9fe2f	2.9103004e-08
183	0x2ef2f361	1.1048119e-10
184	0xb35ee7a5	-5.1899082e-08
185	0xb42e1c33	-1.6215272e-07
186	0xb3ded85c	-1.0377036e-07
187	0x3415eef4	1.3963637e-07
188	0x33c4bb6f	9.161055e-08
189	0x344a8126	1.88597e-07
190	0xb39e4800	-7.370545e-08
191	0xb1d28e7f	-6.1280043e-09
192	0xb256bc29	-1.2499222e-08
193	0x33897fda	6.402816e-08
194	0xb2c5074d	-2.2937138e-08
195	0xb2c75265	-2.3204118e-08
196	0x31b64ad7	5.3054054e-09
197	0x34206b5b	1.4940217e-07
198	0xb42c2a93	-1.6034237e-07
199	0x34d30b76	3.9310152e-07
200	0x346391b1	2.1194025e-07
201	0x33c7470a	9.2795815e-08
202	0x33eebceb	1.11171026e-07
203	0x3206f79c	7.856126e-09
204	0x33f52e7f	1.1417159e-07
205	0x32a2a4d8	1.8934244e-08
206	0x345e6735	2.0712908e-07
207	0xb1e80b17	-6.7533494e-09
208	0xb47ff4af	-2.3837741e-07
209	0x3446b70d	1.850678e-07
210	0x34e60575	4.284481e-07
211	0xb4095c68	-1.2792736e-07
212	0x3496218c	2.7964086e-07
213	0x344a42e0	1.8837045e-07
214	0x330a32dc	3.2176885e-08
215	0x3331a92c	4.1364885e-08
216	0x335fb117	5.2082296e-08
217	0x33a9ee9a	7.913077e-08
218	0x3412dbf2	1.3677325e-07
219	0x3265f66e	1.3385586e-08
220	0xb412119e	-1.3603719e-07
221	0xb4ad8c8f	-3.232603e-07
222	0xb41a5507	-1.43733e-07
223	0xb418b7e8	-1.4223008e-07
224	0x35454604	7.3490105e-07
225	0xb47032c0	-2.2370205e-07
226	0xb32f13b4	-4.0763283e-08
227	0x3229aac2	9.8759205e-09
228	0xb4fe982d	-4.742191e-07
229	0xb4a4ad8e	-3.0673658e-07
230	0xb52d3cef	-6.453619e-07
231	0x335f1ef0	5.194937e-08
232	0xb40b9daf	-1.3002749e-07
233	0xb45e9e5c	-2.0732972e-07
234	0xb3cdff55	-9.592501e-08
235	0x33d24675	9.791703e-08
236	0x3345ded0	4.6070284e-08
237	0xb37959ff	-5.805668e-08
238	0xb2ed68c2	-2.763807e-08
239	0xb335d061	-4.2331866e-08
240	0xb386ea70	-6.282505e-08
241	0x34110e3c	1.3509356e-07
242	0xb0815117	-9.409032e-10
243	0xb3427972	-4.52796e-08
244	0x32af19ab	2.0384354e-08
245	0xb03cec88	-6.873013e-10
246	0xb276b95f	-1.4361233e-08
247	0x328583f8	1.554325e-08
248	0xb334bca2	-4.2081076e-08
249	0x343e9dad	1.7752491e-07
250	0x3347b4f4	4.6497874e-08
251	0xb438692d	-1.7174598e-07
252	0xb184dc48	-3.8667487e-09
253	0x3406de7f	1.2560666e-07
254	0x3343bc5e	4.5573294e-08
255	0xb41921d5	-1.4261543e-07
