experiments/model_16_40_2026-01-17_1497/model.pt (torch, 45743 bytes, 18 tensors)

encoder.graph_embed.GCN_in.A f4 [9, 9]
1.1089568 -0.79419506 1.5143974 -1.1512973 -1.2749892 -0.01964866 -0.2037797 -2.3762727
1.4038444 -1.5613126 -0.037189078 -1.077172 -1.3050946 1.4087193 0.78022736 1.4203845
2.2829628 0.49822715 -0.60394 0.46228662 -0.8909492 0.7130089 -0.72065157 -1.171966
2.455086 -0.23863925 0.72914 -0.4331009 1.1009011 -0.9713132 0.38819084 0.85466427
-2.3614833 0.2420592 0.24923581 0.50051975 -0.56322324 0.3123434 2.8294258 -0.85723764
0.1245392 1.7302899 0.017171806 1.0471784 -1.8929688 -0.4384275 -0.41884547 -0.35893235
0.19041465 -1.9418194 1.9009283 -0.90003693 0.14413983 0.7327448 1.3617604 -0.8708389
-0.740704 -2.4203699 1.0841817 -1.8881545 -1.8848306 0.27018425 -1.3082979 -1.0882297
0.58492976 0.26574835 -0.4689641 -1.2436267 -0.5794383 1.7288867 1.1467992 0.50861454
-0.029666672 -0.37292987 0.22949958 0.20183137 0.76590085 1.0731373 0.37277088 0.84164053
-0.3092553
00000000: 4cf2 8d3f 5e50 4bbf c6d7 c13f b65d 93bf
00000010: d932 a3bf 3af6 a0bc a0ab 50be da14 18c0
00000020: 2cb1 b33f 17d9 c7bf 9353 18bd c6e0 89bf
00000030: 570d a7bf ea50 b43f fbbc 473f 29cf b53f
00000040: 101c 1240 a117 ff3e d09b 1abf d5b0 ec3e
00000050: 3f15 64bf c087 363f 9f7c 38bf fb02 96bf
00000060: 2120 1d40 d95d 74be eba8 3a3f 67bf ddbe
00000070: 54ea 8c3f fba7 78bf f3c0 c63e 47cb 5a3f
00000080: 8b22 17c0 5ede 773e ac37 7f3e 1022 003f
00000090: 662f 10bf 79eb 9f3e 5015 3540 ed73 5bbf
000000a0: 680e ff3d 247a dd3f e3ab 8c3c f109 863f
000000b0: cd4c f2bf 9279 e0be ea72 d6be fbc5 b7be
000000c0: 0ffc 423e 8a8d f8bf 9e51 f33f d268 66bf
000000d0: 6499 133e 2a95 3b3f 2a4e ae3f 4cef 5ebf
000000e0: c79e 3dbf 57e7 1ac0 77c6 8a3f 0caf f1bf
000000f0: 2142 f1bf 9755 8a3e 4e76 a7bf 1c4b 8bbf
00000100: f5bd 153f 2b10 883e 101c f0be 292f 9fbf
00000110: 1256 14bf 294c dd3f 51ca 923f 9034 023f
00000120: 8507 f3bc aaf0 bebe f001 6b3e e2ac 4e3e
00000130: 1412 443f 905c 893f d3db be3e c175 573f
00000140: b656 9ebe

encoder.graph_embed.GCN_in.linear.weight f4 [16, 16]
0.24122502 0.09124079 0.12088115 0.032191545 -0.13838907 -0.053330544 -0.1945438 0.00051484106
-0.12849626 -0.057123296 -0.2701304 0.047308553 0.09043278 -0.035772942 0.058394134 0.10261421
-0.040824648 -0.051947106 -0.01911472 -0.057499904 -0.09079814 0.031107454 -0.048943758 -0.007902479
-0.3509566 -0.051300887 0.20858447 0.12799603 -0.050999794 -0.04764955 -0.025630143 -0.072043404
-0.20799407 -0.01783308 -0.021355703 -0.15247132 0.13325898 -0.0028625869 0.17458202 -0.13462171
-0.16600308 -0.008926523 0.06317397 0.17688067 0.014417067 0.02898046 0.020470317 0.018631821
0.14895062 -0.23979646 0.18623391 -0.1881192 -0.061026163 0.25252253 -0.21389142 -0.17797053
0.002734893 0.10905866 0.06805984 0.042116493 0.021918539 0.060063895 0.022399785 0.14454098
0.19870251 0.13903254 0.14685385 0.22434135 -0.11262113 -0.119500294 0.031172654 -0.04993017
-0.0546814 -0.09196058 -0.10209751 -0.08169224 -0.00488857 0.00794631 0.016603613 0.028125208
-0.08420468 0.17278183 0.0762859 -0.1358625 -0.24591865 0.18259296 0.04286789 -0.4551046
-0.019849727 -0.11902227 0.17796168 -0.22057502 -0.04029716 0.036770098 -0.027092144 0.06243357
-0.11762586 -0.21367522 0.03917583 -0.03474895 -0.29756957 -0.13360035 -0.027605044 0.16132684
-0.024511324 -0.15130289 0.054718696 0.20655917 0.01995231 0.036667023 0.010128475 0.03371966
0.07416214 0.217014 -0.14491944 -0.12209082 -0.19573589 -0.06271944 -0.080330424 0.2359734
0.020441517 -0.0073369355 0.044529606 -0.08970321 -0.009460809 -0.020800756 -0.009966562 0.0097486805
0.14679357 0.06624335 -0.09871121 0.14026526 0.06904517 0.08972921 0.18104343 0.22331506
0.076773986 0.20046473 0.034494013 -0.032091707 0.037933804 0.012181061 0.060179226 0.16166991
-0.27495936 0.14773387 0.123205006 -0.048720546 0.003487492 -0.10829826 0.054079022 0.10362249
-0.021837724 0.31674153 -0.005528154 0.20002593 -0.058145054 0.0088052135 -0.0032663269 0.039161336
0.10619724 -0.11438651 0.10193847 -0.1180114 -0.037343573 0.14031452 -0.02705878 0.112864584
0.23043339 -0.10919081 0.0757423 0.044568226 0.013630306 0.0007321466 -0.01168069 -0.050688364
-0.11932409 -0.051289484 -0.14146185 0.14117475 -0.031353798 0.03758846 -0.1457911 0.0217576
-0.041576512 -0.008126225 0.022810765 0.1132656 -0.01259616 0.008942623 0.011349226 0.064032495
-0.1334595 -0.16669501 -0.14096162 0.08572637 0.17262444 -0.26522028 -0.094679564 0.28092602
-0.18375508 0.039056595 0.2407277 0.17780022 -0.0074769733 -0.07188259 -0.062793955 -0.17165506
-0.0774582 0.11328689 0.07101195 0.06219785 -0.06661086 0.06928169 0.053630363 0.03095608
0.09120501 -0.06438061 0.28822753 0.21516101 -0.001031155 -0.010713838 -0.008991881 -0.04516931
-0.10323438 0.12772737 -0.05509775 -0.055477623 0.0781996 -0.16567613 -0.009810453 -0.11340733
0.17176782 0.06260078 0.013938522 0.03766408 0.022605127 0.023845153 -0.002016835 -0.08360105
0.06284745 0.09240195 -0.08568319 -0.00669645 -0.17699794 0.14330277 0.20724483 -0.018633272
0.028859418 -0.04126651 -0.054465014 0.08591129 0.013371117 -0.0058203437 -0.0019398129 -0.059507336
00000000: b103 773e 74dc ba3d 8990 f73d 48db 033d
00000010: ddb5 0dbe 2171 5abd 7d36 47be 66f6 063a
00000020: 8694 03be 1efa 69bd 884e 8abe 9dc6 413d
00000030: d234 b93d a686 12bd b02e 6f3d 6627 d23d
00000040: bf37 27bd 7dc6 54bd 7996 9cbc 0585 6bbd
00000050: 60f4 b9bd 0fd5 fe3c 4079 48bd 6679 01bc
00000060: 95b0 b3be e120 52bd 2b97 553e 6411 033e
00000070: 29e5 50bd 2d2c 43bd 4ef6 d1bc 7e8b 93bd
00000080: 66fc 54be ae16 92bc 28f2 aebc 7121 1cbe
00000090: 0b75 083e 3d9a 3bbb a1c5 323e 46da 09be
000000a0: b6fc 29be 8d40 12bc 5b61 813d 3520 353e
000000b0: 9035 6c3c 6e68 ed3c 5eb1 a73c c3a1 983c
000000c0: 8386 183e 348d 75be 1ab4 3e3e 52a2 40be
000000d0: 92f6 79bd a24a 813e 5a06 5bbe e83d 36be
000000e0: e43b 333b 265a df3d f562 8b3d 5882 2c3d
000000f0: 828e b33c 8f05 763d c17f b73c 8d02 143e
00000100: ac78 4b3e 8c5e 0e3e db60 163e bdb9 653e
00000110: e8a5 e6bd 92bc f4bd cb5d ff3c 9483 4cbd
00000120: 9bf9 5fbd d455 bcbd 8018 d1bd 434e a7bd
00000130: 4c30 a0bb 3d31 023c 4d04 883c d666 e63c
00000140: 8173 acbd b8ed 303e c83b 9c3d 8a1f 0bbe
00000150: 19d2 7bbe a6f9 3a3e 3e96 2f3d 7803 e9be
00000160: e59b a2bc f3c1 f3bd 963b 363e 6bde 61be
00000170: a30e 25bd 3e9c 163d 58f0 ddbc 58ba 7f3d
00000180: d4e5 f0bd adcd 5abe d676 203d ea54 0ebd
00000190: 0a5b 98be 88ce 08be f923 e2bc dd32 253e
000001a0: f9cb c8bc 25ef 1abe b620 603d 3f84 533e
000001b0: 0773 a33c 2930 163d e7f1 253c a01d 0a3d
000001c0: 52e2 973d eb38 5e3e c365 14be c00a fabd
000001d0: fd6e 48be 0d73 80bd 4784 a4bd 03a3 713e
000001e0: f874 a73c ad6a f0bb ad64 363d 51b6 b7bd
000001f0: 8201 1bbc 5966 aabc ca4a 23bc eeb8 1f3c
00000200: 0e51 163e 98aa 873d 1a29 cabd b2a1 0f3e
00000210: 8e67 8d3d f3c3 b73d 7363 393e b4ac 643e
00000220: ae3b 9d3d a046 4d3e 9849 0d3d 9872 03bd
00000230: 7a60 1b3d 1393 473c 7e7e 763d cc8c 253e
00000240: 79c7 8cbe 8c47 173e e852 fc3d 328f 47bd
00000250: 688e 643b 7acb ddbd f781 5d3d 0738 d43d
00000260: 07e5 b2bc f22b a23e 8425 b5bb 99d3 4c3e
00000270: 8229 6ebd be43 103c df0f 56bb a367 203d
00000280: f07d d93d 7943 eabd 1ec5 d03d f6af f1bd
00000290: 93f5 18bd 9cae 0f3e 60aa ddbc 8c25 e73d
000002a0: bbf6 6b3e 6e9f dfbd c71e 9b3d 2c8d 363d
000002b0: a651 5f3c 87ed 3f3a 5d60 3fbc 9a9e 4fbd
000002c0: 3060 f4bd ec14 52bd 60db 10be 1d90 103e
000002d0: d76c 00bd 5bf6 193d 434a 15be ff3c b23c
000002e0: 224c 2abd dc23 05bc a4dd ba3c cbf7 e73d
000002f0: 2060 4ebc 1484 123c 1bf2 393c 7823 833d
00000300: 9ba9 08be 19b2 2abe 3e58 10be 4f91 af3d
00000310: 76c4 303e f4ca 87be 5ce7 c1bd 89d5 8f3e
00000320: 4b2a 3cbe cff9 1f3d 5281 763e 4311 363e
00000330: 6601 f5bb 2e37 93bd 1e9a 80bd 58c6 2fbe
00000340: 68a2 9ebd f502 e83d b76e 913d 2cc3 7e3d
00000350: 466b 88bd 8fe3 8d3d 83ab 5b3d 9b97 fd3c
00000360: b1c9 ba3d fbd9 83bd 8f92 933e 2b53 5c3e
00000370: d227 87ba 1889 2fbc af52 13bc 7403 39bd
00000380: 8c6c d3bd f7ca 023e 2eae 61bd 813c 63bd
00000390: 1d27 a03d 01a7 29be 06bc 20bc 1a42 e8bd
000003a0: e7e3 2f3e d634 803d 665e 643c a645 1a3d
000003b0: 632e b93c e956 c33c e02c 04bb 0737 abbd
000003c0: 2ab6 803d 3c3d bd3d ab7a afbd e56d dbbb
000003d0: f33e 35be f6bd 123e fd37 543e cea4 98bc
000003e0: 966a ec3c 1207 29bd b516 5fbd 42f2 af3d
000003f0: 8812 5b3c 95b8 bebb 5241 feba f7bd 73bd

encoder.graph_embed.GCN_in.linear.bias f4 [16]
-0.016435977 -0.015302165 -0.026074803 -0.07339454 0.024882639 -0.12781087 0.0024136093 0.01239294
0.0016174813 0.07372128 -0.051189646 -0.033000294 -0.034252938 -0.024159018 0.036234565 -0.051536452
00000000: bea4 86bc efb5 7abc d39a d5bc e04f 96bd
00000010: add6 cb3c dae0 02be a52d 1e3b c20b 4b3c
00000020: ab01 d43a 2ffb 963d 3cac 51bd 512b 07bd
00000030: cf4c 0cbd 22e9 c5bc b26a 143d e317 53bd

encoder.graph_embed.bn.weight f4 [16]
0.84371984 0.95658386 0.89068586 0.85969573 0.72126573 0.6089401 0.87657964 1.0803223
0.9098802 0.9882509 0.8429882 0.8358835 0.8844732 0.9680915 0.93659025 1.0751412
00000000: 06fe 573f aee2 743f fd03 643f 0515 5c3f
00000010: dfa4 383f 80e3 1b3f 8667 603f 0048 8a3f
00000020: e9ed 683f 03fe 7c3f 13ce 573f 76fc 553f
00000030: d66c 623f d8d4 773f 61c4 6f3f 3a9e 893f

encoder.graph_embed.bn.bias f4 [16]
0.023710066 0.070139356 -0.015184257 0.06102153 -0.10992716 -0.08300222 0.14543186 -0.015885701
-0.071524136 0.09386125 -0.032809667 0.06269469 -0.1063742 0.07336462 0.024238693 -0.11294671
00000000: 9d3b c23c 39a5 8f3d 64c7 78bc b6f1 793d
00000010: 7e21 e1bd 11fd a9bd 17ec 143e bb22 82bc
00000020: 3f7b 92bd 543a c03d 6e63 06bd 1366 803d
00000030: b7da d9bd 3140 963d 3990 c63c 9b50 e7bd

encoder.graph_embed.bn.running_mean f4 [16]
-0.00015913174 0.02078402 -0.03214497 0.041076694 0.037606176 0.1725704 -0.0029744785 -0.019006483
0.08876284 0.094664514 -0.044074323 0.06084709 0.12862837 -0.020311618 0.0028040153 -0.08956385
00000000: 9adc 26b9 4043 aa3c 72aa 03bd 0940 283d
00000010: ef08 1a3d 4cb6 303e 78ef 42bb 7cb3 9bbc
00000020: 4bc9 b53d 78df c13d 4787 34bd cc3a 793d
00000030: 28b7 033e 8d64 a6bc 92c3 373b 406d b7bd

encoder.graph_embed.bn.running_var f4 [16]
0.016731277 0.018524552 0.006081729 0.019577602 0.01679536 0.24519277 0.011920581 0.008547879
0.03999253 0.023445996 0.014278052 0.0047134003 0.0866533 0.005483685 0.009393223 0.007037177
00000000: 0810 893c cdc0 973c 3e49 c73b 3561 a03c
00000010: 6c96 893c d013 7b3e 8a4e 433c 670c 0c3c
00000020: 35cf 233d d111 c03c 7eee 693c de72 9a3b
00000030: 4977 b13d 7cb0 b33b 08e6 193c 1f98 e63b

encoder.pos_enc.pe f4 [500, 16]
0.0 1.0 0.0 1.0 0.0 1.0 0.0 1.0
0.0 1.0 0.0 1.0 0.0 1.0 0.0 1.0
0.84147096 0.54030234 0.3109836 0.9504153 0.099833414 0.9950042 0.031617504 0.99950004
0.009999833 0.99995 0.0031622713 0.999995 0.0009999998 0.9999995 0.00031622782 0.99999994
0.9092974 -0.41614684 0.5911271 0.8065784 0.19866931 0.9800666 0.063203394 0.9980007
0.019998666 0.9998 0.006324511 0.99998003 0.0019999985 0.99999803 0.0006324556 0.9999998
0.14112 -0.9899925 0.8126489 0.58275366 0.2955202 0.9553365 0.094726086 0.99550337
0.0299955 0.99955004 0.009486687 0.999955 0.0029999954 0.9999955 0.00094868336 0.9999996
-0.7568025 -0.6536436 0.95358074 0.30113748 0.38941833 0.921061 0.12615407 0.99201065
0.039989334 0.9992001 0.01264877 0.99992 0.003999989 0.999992 0.0012649109 0.9999992
-0.9589243 0.2836622 0.99994653 -0.010342338 0.47942552 0.87758255 0.15745588 0.987526
0.049979165 0.99875027 0.015810724 0.999875 0.004999979 0.9999875 0.0015811383 0.99999875
-0.2794155 0.96017027 0.9471482 -0.3207964 0.5646424 0.8253356 0.18860027 0.98205394
0.059964005 0.99820054 0.018972522 0.99982 0.0059999637 0.999982 0.0018973658 0.9999982
0.6569866 0.75390226 0.8004216 -0.5994375 0.6442176 0.7648422 0.2195561 0.9755999
0.06994285 0.997551 0.022134129 0.999755 0.006999942 0.9999755 0.0022135929 0.99999756
0.98935825 -0.14550003 0.5743178 -0.8186324 0.717356 0.6967067 0.25029233 0.9681703
0.07991469 0.9968017 0.025295515 0.99968004 0.007999914 0.999968 0.0025298197 0.9999968
0.4121185 -0.91113025 0.29125923 -0.9566442 0.78332686 0.62161 0.28077832 0.95977265
0.089878544 0.9959527 0.028456647 0.99959505 0.008999879 0.9999595 0.0028460464 0.99999595
-0.5440211 -0.8390715 -0.02068357 -0.9997861 0.84147096 0.54030234 0.31098357 0.9504153
0.099833414 0.9950042 0.031617496 0.99950004 0.009999833 0.99995 0.0031622727 0.999995
-0.9999902 0.004425698 -0.33057496 -0.94377977 0.89120734 0.4535962 0.34087786 0.9401076
0.1097783 0.9939561 0.03477803 0.9993951 0.010999777 0.9999395 0.003478499 0.999994
-0.53657293 0.84385395 -0.6076834 -0.7941793 0.9320391 0.36235783 0.3704313 0.9288599
0.119712204 0.99280864 0.03793821 0.9992801 0.011999711 0.999928 0.0037947248 0.9999928
0.42016703 0.9074468 -0.82452846 -0.5658205 0.9635582 0.26749888 0.3996143 0.9166834
0.12963414 0.9915619 0.041098017 0.9991551 0.012999633 0.9999155 0.00411095 0.99999154
0.9906074 0.13673721 -0.9596054 -0.28134948 0.98544973 0.16996728 0.42839777 0.90359026
0.13954312 0.990216 0.044257414 0.99902016 0.013999541 0.999902 0.004427175 0.9999902
0.65028787 -0.7596879 -0.9995187 0.031022351 0.997495 0.07073732 0.45675287 0.8895936
0.14943813 0.9887711 0.047416367 0.9988752 0.014999436 0.9998875 0.0047433996 0.99998873
00000000: 0000 0000 0000 803f 0000 0000 0000 803f
00000010: 0000 0000 0000 803f 0000 0000 0000 803f
00000020: 0000 0000 0000 803f 0000 0000 0000 803f
00000030: 0000 0000 0000 803f 0000 0000 0000 803f
00000040: a46a 573f 4151 0a3f 3e39 9f3e 6b4e 733f
00000050: 7675 cc3d 98b8 7e3f 5b81 013d 3cdf 7f3f
00000060: 57d6 233c b9fc 7f3f 1c3e 4f3b acff 7f3f
00000070: 6d12 833a f8ff 7f3f 61cb a539 ffff 7f3f
00000080: b7c7 683f 3311 d5be 1b54 173f ec7b 4e3f
00000090: f86f 4b3e a5e5 7a3f c870 813d f97c 7f3f
000000a0: 3ed4 a33c e5f2 7f3f d83d cf3b b1fe 7f3f
000000b0: 6812 033b dfff 7f3f 60cb 253a fdff 7f3f
000000c0: c381 103e 2670 7dbf c209 503f 582f 153f
000000d0: 6c4e 973e ef90 743f c0ff c13d 4fd9 7e3f
000000e0: 1fb9 f53c 83e2 7f3f 0d6e 1b3c 0dfd 7f3f
000000f0: 929b 443b b5ff 7f3f 10b1 783a f9ff 7f3f
00000100: cfbd 41bf 3055 27bf de1d 743f b12e 9a3e
00000110: d761 c73e a7ca 6b3f 882e 013e 69f4 7d3f
00000120: dbcb 233d 94cb 7f3f c93c 4f3c c2fa 7f3f
00000130: 5712 833b 7aff 7f3f 5ecb a53a f3ff 7f3f
00000140: 107c 75bf 2c3c 913e 7ffc 7f3f e972 29bc
00000150: 4377 f53e 40a9 603f 1d3c 213e 81ce 7c3f
00000160: f4b6 4c3d 19ae 7f3f 7e85 813c cff7 7f3f
00000170: ddd6 a33b 2eff 7f3f 333e cf3a ebff 7f3f
00000180: 8c0f 8fbe b8cd 753f 4e78 723f 6d3f a4be
00000190: 688c 103f 3249 533f 6e20 413e e367 7b3f
000001a0: d19c 753d 128a 7f3f 436c 9b3c 34f4 7f3f
000001b0: 589b c43b d2fe 7f3f 08b1 f83a e2ff 7f3f
000001c0: 4630 283f bdff 403f 6ee8 4c3f bc74 19bf
000001d0: 72eb 243f b3cc 433f 50d3 603e eac0 793f
000001e0: 323e 8f3d 815f 7f3f a252 b53c f2ef 7f3f
000001f0: c55f e53b 65fe 7f3f ed11 113b d7ff 7f3f
00000200: 9546 7d3f f6fd 14be 7e06 133f e591 51bf
00000210: a5a4 373f 5f5b 323f 5126 803e 02da 773f
00000220: 50aa a33d 652e 7f3f 8a38 cf3c 08eb 7f3f
00000230: 1212 033c e7fd 7f3f 55cb 253b caff 7f3f
00000240: 3201 d33e d53f 69bf ee1f 953e a2e6 74bf
00000250: 1c88 483f d521 1f3f 2dc2 8f3e a9b3 753f
00000260: 3e12 b83d c2f6 7e3f ea1d e93c 76e5 7f3f
00000270: 3a74 133c 59fd 7f3f bc84 3a3b bcff 7f3f
00000280: f844 0bbf 64cd 56bf 9770 a9bc fbf1 7fbf
00000290: a46a 573f 4151 0a3f 3d39 9f3e 6b4e 733f
000002a0: 7675 cc3d 98b8 7e3f 5981 013d 3cdf 7f3f
000002b0: 57d6 233c b9fc 7f3f 223e 4f3b acff 7f3f
000002c0: 5cff 7fbf 7205 913b 1f41 a9be 8d9b 71bf
000002d0: 2a26 643f c33d e83e 8b87 ae3e e4aa 703f
000002e0: 72d3 e03d e873 7e3f 6873 0e3d 5bd8 7f3f
000002f0: 6938 343c 09fc 7f3f 87f7 633b 9bff 7f3f
00000300: d85c 09bf d006 583f 2491 1bbf 564f 4bbf
00000310: 1d9a 6e3f f786 b93e 2ca9 bd3e c3c9 6d3f
00000320: ac2b f53d b528 7e3f 1965 1b3d d2d0 7f3f
00000330: 709a 443c 48fb 7f3f ebb0 783b 87ff 7f3f
00000340: 2220 d73e 6f4e 683f 4c14 53bf 9dd9 10bf
00000350: c0ab 763f 9df5 883e 3f9a cc3e c3ab 6a3f
00000360: d0be 043e 00d7 7d3f 6556 283d a1c8 7f3f
00000370: 6afc 543c 76fa 7f3f 26b5 863b 72ff 7f3f
00000380: 7298 7d3f d704 0c3e b3a8 75bf 0a0d 90be
00000390: 6f46 7c3f e70b 2e3e f456 db3e b151 673f
000003a0: 64e4 0e3e cc7e 7d3f 4347 353d c9bf 7f3f
000003b0: 555e 653c 94f9 7f3f d611 913b 5cff 7f3f
000003c0: 4479 263f e87a 42bf 75e0 7fbf 9622 fe3c
000003d0: d55b 7f3f bade 903d 83db e93e 68bc 633f
000003e0: 4f06 193e 1a20 7d3f aa37 423d 49b6 7f3f
000003f0: 32c0 753c a1f8 7f3f 856e 9b3b 43ff 7f3f

encoder.transformer.in_proj_weight f4 [48, 16]
0.22797312 0.030506792 0.008693722 0.46760958 -0.19111039 -0.27772182 0.08063407 0.18222238
-0.32661924 0.29659078 -0.123259105 -0.00999102 -0.097844824 0.2764379 0.016298426 0.45386463
0.31463328 0.6596963 -0.15789872 0.05646317 0.05544956 0.081926994 -0.24017169 -0.046210494
0.3596074 0.12920043 0.47195557 0.12995727 -0.18275471 0.1885772 -0.23576604 0.20910238
0.31884065 -0.13359842 -0.19053149 0.09059831 -0.05690457 0.10970212 0.49067605 0.009939187
-0.24270149 0.081180446 -0.039322596 0.33106115 -0.20314461 0.2738903 0.1941299 -0.09525315
-0.071961895 -0.049679242 0.054131288 -0.24813013 0.13612083 0.07828067 -0.1878522 0.22272554
-0.043286253 0.17747541 -0.4960965 -0.41385466 -0.46170747 0.05071947 -0.015560406 -0.06930406
0.056137614 0.45491412 -0.1389889 0.062389914 0.07088517 -0.18737768 -0.2426402 0.10286552
-0.015783189 -0.13776486 0.32273877 -0.05973549 0.010967568 -0.5074406 0.24567097 0.06905871
0.18846756 0.3211215 -0.114356585 0.3747453 -0.2556626 -0.443446 -0.032536317 -0.09783272
0.11167895 -0.15307409 0.2632232 0.34000134 -0.28429523 -0.099284306 -0.2727497 -0.2616843
0.09358036 0.13045564 0.1550856 0.34426856 0.17942478 0.1731097 -0.019761067 -0.14373632
-0.5408617 0.11636855 -0.47050563 0.22220887 0.18402986 0.030739415 -0.29454875 0.17761464
-0.18592508 0.27238148 -0.006318267 0.051449787 0.03810784 -0.32476115 -0.066202186 -0.025898833
0.2198622 0.31867737 -0.50299466 -0.29872683 -0.31151116 -0.3136027 -0.03774543 -0.009199489
-0.060498536 -0.2809668 0.30380985 0.21606465 0.046582166 -0.19117853 0.15419881 -0.26472726
0.23885906 0.11403466 -0.15774436 -0.18584073 -0.062893584 -0.048749775 -0.013201647 0.09007612
-0.010310557 0.066804856 -0.19863509 0.3206978 0.109053776 -0.23664965 0.39255807 -0.03379874
-0.121477924 0.41437966 -0.3274477 0.1548573 -0.06636984 0.031422276 -0.062131744 0.0396366
-0.18009132 0.18827148 -0.1399171 0.08220718 0.11617616 -0.1644091 -0.081064634 -0.010895548
0.16244958 -0.3870173 0.33229497 -0.059807073 0.13757539 -0.00562492 -0.15032777 -0.21243414
-0.17475508 0.12688307 0.23155779 -0.4949146 0.3356876 0.019687766 -0.31807664 0.03779674
0.11449088 -0.30703634 0.1388636 0.10777333 0.013154119 -0.12611243 0.013251764 -0.08101652
0.2719707 0.10913605 -0.18150032 -0.39989683 0.102305084 0.3933451 -0.09371228 0.2910352
0.1931894 -0.29506207 0.19499175 -0.31413716 0.1309904 -0.2338914 -0.16112705 -0.15565151
0.13500649 -0.20292933 -0.17468718 0.10529715 0.0889669 0.22903235 0.23869534 -0.046479266
-0.011673759 0.27274454 -0.28683546 0.1427191 -0.45945755 0.12613343 0.124797165 0.24448918
-0.2994999 -0.3366446 -0.3334933 0.07161432 -0.03467198 0.22952229 -0.034716953 0.22509529
0.3086386 -0.21316591 0.06062711 -0.037846528 -0.18803446 0.42209533 -0.057741687 -0.052855708
-0.13230693 -0.02698816 -0.35003507 0.21640001 0.014715547 0.2649469 -0.34924057 0.1996989
0.16958912 -0.21459675 0.53959733 0.24713702 0.1183271 0.10935797 -0.12023756 0.06046137
00000000: c971 693e 61e9 f93c 1d70 0e3c 866a ef3e
00000010: 71b2 43be 8e31 8ebe 7a23 a53d 8198 3a3e
00000020: a33a a7be bfda 973e 456f fcbd 60b1 23bc
00000030: de62 c8bd 4589 8d3e 4784 853c f260 e83e
00000040: 9d17 a13e dbe1 283f 34b0 21be ed45 673d
00000050: 141f 633d 57c9 a73d 91ef 75be 3747 3dbd
00000060: 761e b83e 1e4d 043e 29a4 f13e 8513 053e
00000070: 0d24 3bbe 621a 413e a76c 71be ef1e 563e
00000080: 153f a33e 06ce 08be b01a 43be 9b8b b93d
00000090: c414 69bd 81ab e03d e439 fb3e f9d7 223c
000000a0: bd86 78be ef41 a63d bb10 21bd d980 a93e
000000b0: 2405 50be 593b 8c3e fdc9 463e 1514 c3bd
000000c0: c260 93bd 767c 4bbd c5b8 5d3d d315 7ebe
000000d0: 4263 0b3e 9e51 a03d 545c 40be 2a12 643e
000000e0: ed4c 31bd 1dbc 353e 5c00 febe c2e4 d3be
000000f0: ec64 ecbe 38bf 4f3d 13f1 7ebc 49ef 8dbd
00000100: 8ef0 653d 81ea e83e 1b53 0ebe 918c 7f3d
00000110: 3e2c 913d efdf 3fbe ac76 78be 28ab d23d
00000120: bf4b 81bc 3b12 0dbe 043e a53e 33ad 74bd
00000130: 50b1 333c a1e7 01bf 2c91 7b3e a76e 8d3d
00000140: a4fd 403e 0a6a a43e c933 eabd 9ede bf3e
00000150: 35e6 82be 5b0b e3be cd44 05bd 855c c8bd
00000160: efb7 e43d 74bf 1cbe 31c5 863e a814 ae3e
00000170: 258f 91be 9255 cbbd d9a5 8bbe 7cfb 85be
00000180: 0fa7 bf3d 2a96 053e c2ce 1e3e f843 b03e
00000190: 21bb 373e ab43 313e f6e1 a1bc 9d2f 13be
000001a0: ea75 0abf a252 ee3d 1de6 f0be b98a 633e
000001b0: 5372 3c3e 3ad1 fb3c 18cf 96be 9de0 353e
000001c0: 2563 3ebe 9675 8b3e 7709 cfbb 03bd 523d
000001d0: f716 1c3d 1847 a6be 0395 87bd ca29 d4bc
000001e0: 8e23 613e ae29 a33e 42c4 00bf b9f2 98be
000001f0: 647e 9fbe 8890 a0be f49a 1abd 74b9 16bc
00000200: 50cd 77bd e1da 8fbe f78c 9b3e 0d40 5d3e
00000210: f1cc 3e3d 4ec4 43be 4be6 1d3e 558a 87be
00000220: 7897 743e 018b e93d bd87 21be 084d 3ebe
00000230: 5ace 80bd d8ad 47bd b94b 58bc d479 b83d
00000240: 9ced 28bc fcd0 883d ff66 4bbe 8132 a43e
00000250: 9657 df3d 4954 72be 5ffd c83e 8c70 0abd
00000260: 6bc9 f8bd 9229 d43e 3aa7 a7be e992 1e3e
00000270: e9ec 87bd a5b4 003d db7d 7ebd fd59 223d
00000280: dc69 38be 3dca 403e 6e46 0fbe 3d5c a83d
00000290: c4ed ed3d dc5a 28be 3705 a6bd 3e83 32bc
000002a0: 2f59 263e 2227 c6be 9122 aa3e 43f8 74bd
000002b0: 90e0 0c3e 4051 b8bb 86ef 19be 5688 59be
000002c0: fff2 32be a3ed 013e 7c1d 6d3e 7265 fdbe
000002d0: 3fdf ab3e 3d48 a13c f1da a2be c1d0 1a3d
000002e0: 327a ea3d de33 9dbe 4232 0e3e 43b8 dc3d
000002f0: 6084 573c 9e23 01be ed1d 593c fdeb a5bd
00000300: be3f 8b3e b982 df3d 38db 39be 47bf ccbe
00000310: 5485 d13d 8764 c93e 39ec bfbd 9102 953e
00000320: 71d3 453e 6012 97be ebab 473e 96d6 a0be
00000330: 5922 063e 3a81 6fbe 7dfe 24be 1c63 1fbe
00000340: 243f 0a3e b5cc 4fbe 32e1 32be 08a6 d73d
00000350: 4734 b63d 7587 6a3e 8d6c 743e 0b61 3ebd
00000360: 4b43 3fbc 2ca5 8b3e 19dc 92be f524 123e
00000370: 053e ebbe 1f29 013e a895 ff3d 5f5b 7a3e
00000380: 0d58 99be ae5c acbe a2bf aabe 87aa 923d
00000390: 3504 0ebd e407 6b3e 5d33 0ebd 617f 663e
000003a0: e105 9e3e 2a48 5abe 2254 783d f604 1bbd
000003b0: 1b8c 40be e11c d83e 8c82 6cbd 3a7f 58bd
000003c0: 787b 07be 4616 ddbc cc37 b3be f797 5d3e
000003d0: 7a19 713c 1fa7 873e a9cf b2be de7d 4c3e
000003e0: c5a8 2d3e 40bf 5bbe 0d23 0a3f 7d11 7d3e
000003f0: 7b55 f23d 12f7 df3d 1c3f f6bd 57a6 773d

encoder.transformer.in_proj_bias f4 [48]
0.1768053 0.05753115 0.09591459 -0.07170789 -0.09054803 0.16988781 0.018836632 0.038595594
0.06375701 0.1427833 -0.035199314 -0.080766805 -0.16798812 0.14053276 0.05280399 0.026151435
-0.00030580003 -0.00013030898 0.00036589667 -0.00027360005 8.254703e-05 0.00022949821 -3.1953474e-05 -5.4609027e-06
-0.00037993642 -0.00060062564 2.7878057e-05 -0.0006243365 0.00043192648 -0.00018069401 0.00081980426 0.00016535068
0.04735679 0.06368106 0.03616511 -0.065458044 0.021585064 0.012917335 -0.06516349 -0.021453645
-0.031990144 0.041181806 0.047646493 0.079093374 -0.0023655042 -0.09405063 0.0844438 -0.051339343
00000000: 730c 353e c8a5 6b3d de6e c43d 96db 92bd
00000010: 3f71 b9bd 12f7 2d3e 484f 9a3c 6a16 1e3d
00000020: 0993 823d c935 123e 282d 10bd 1169 a5bd
00000030: 1405 2cbe d2e7 0f3e ff48 583d 893b d63c
00000040: c953 a0b9 8da3 08b9 d2d5 bf39 fa71 8fb9
00000050: 191d ad38 75a5 7039 c805 06b8 cc3c b7b6
00000060: 3432 c7b9 4e73 1dba acdb e937 83aa 23ba
00000070: 3174 e239 ae78 3db9 22e8 563a fc61 2d39
00000080: 32f9 413d 376b 823d de21 143d de0e 86bd
00000090: 29d3 b03c 3ba3 533c 7074 85bd 8ebf afbc
000000a0: 1908 03bd 41ae 283d f828 433d b5fb a13d
000000b0: 9306 1bbb 9e9d c0bd dff0 ac3d 3449 52bd

encoder.transformer.out_proj.weight f4 [16, 16]
-0.06327198 0.11743151 0.19294025 -0.123831384 -0.094815955 -0.05564994 -0.0433344 0.18097715
0.114122 0.20546472 -0.110130936 -0.04726087 0.083923884 0.04407912 0.0018859173 0.04360621
-0.07942936 0.28918472 -0.06749028 -0.26859456 0.2708815 0.09859814 -0.08572438 0.16790761
-0.018912315 0.13155027 0.10558427 0.13826907 0.22184233 0.033394855 0.07705207 0.02508924
0.36199662 -0.1320192 0.07015145 -0.20109053 0.13681008 0.20333998 0.134041 -0.082392186
0.113547 -0.26801115 0.11483427 0.15805031 0.09167464 0.14743288 -0.022333737 -0.15035614
0.25846452 -0.14448512 -0.02390417 -0.1941302 -0.21424302 0.22909427 0.08978158 -0.28878182
0.21048754 0.04066505 -0.1261731 0.22559461 -0.19075193 0.042294763 -0.24161339 0.0048392597
0.044272434 0.05615778 0.1691251 0.18450461 0.14780813 0.21134822 -0.21745555 -0.068426214
-0.0949477 0.046519473 0.18188472 0.0046993042 -0.0780276 0.2535299 -0.17602628 -0.11950561
0.07790511 -0.14509141 -0.015441454 0.047207844 -0.23753683 0.06758813 0.04772632 0.10134812
-0.042098805 -0.33823454 0.2742122 0.118093766 0.23871127 -0.092802696 0.02025946 -0.27144167
0.19039269 0.096794814 0.1526055 -0.23926035 0.029122092 0.15878944 -0.2536059 -0.13960326
0.0009996241 0.09007664 0.3239796 0.3230439 0.001671415 -0.25939944 0.21582587 -0.21142109
0.12752132 0.22227669 0.16290228 -0.015471323 0.027912235 -0.18874706 -0.12544414 -0.14583132
0.26690102 -0.11603464 -0.10865276 -0.15146472 -0.13193521 -0.20547055 0.09472607 0.34182698
-0.32016897 0.057065185 -0.11914891 -0.13445707 0.1733731 -0.055717032 -0.116033524 0.03179178
-0.022041937 -0.1253868 -0.17167728 -0.09888211 0.037522882 -0.09464419 -0.14870231 0.23949184
0.38234487 0.026637793 0.014137337 -0.06817347 0.06953091 0.04812221 0.099621646 -0.028814804
0.021768024 0.2196395 0.112914816 -0.0630575 -0.14180148 0.24352458 0.1925907 -0.26292232
-0.22257231 0.19028623 -0.13008367 0.15931214 0.062344216 -0.039682157 0.23421872 0.14871994
0.082910255 0.15992592 0.015719684 -0.2601072 0.18472898 0.28936392 0.053614613 0.10256463
0.19971138 -0.002825064 -0.03467772 0.14906715 -0.01924545 0.30111003 0.20118733 0.07073186
0.09981744 -0.20180564 0.04793268 0.19370775 -0.23501906 -0.22904167 -0.015801607 -0.08148379
-0.32713434 -0.0013908934 0.2327648 0.12647335 0.14203691 -0.108843744 0.1510219 0.46046445
0.17017718 0.037048124 0.06411316 -0.17167534 0.17830653 0.113384366 0.092259616 0.22753647
0.0065417616 0.11683645 0.0876653 -0.17366739 -0.19536549 0.0146049475 0.12273987 -0.13209619
-0.24606122 0.15072493 -0.17017747 0.033321608 0.103607826 -0.119717136 0.11439248 -0.13092795
0.11192842 0.14203526 0.31742924 -0.05764082 0.1724136 0.05683647 0.031013448 -0.22863206
0.24308532 0.10648777 -0.00015525626 -0.19351697 0.13706 -0.059817765 0.15953383 -0.30620128
0.03751481 -0.24242944 0.08227809 0.17106166 0.32648483 -0.1858478 0.11312017 -0.023026424
-0.021943627 0.12496142 0.037278518 -0.054451413 0.112670414 0.08593249 0.048263807 0.14387861
00000000: bd94 81bd ee7f f03d 2192 453e 4f9b fdbd
00000010: de2e c2bd 31f1 63bd 697f 31bd 1352 393e
00000020: ccb8 e93d 5865 523e 548c e1bd 9d94 41bd
00000030: 49e0 ab3d 4f8c 343d e230 f73a 6d9c 323d
00000040: dcab a2bd 0510 943e 5838 8abd 3a85 89be
00000050: fbb0 8a3e d2ed c93d 4490 afbd f9ef 2b3e
00000060: 00ee 9abc 1db5 063e 913c d83d 6896 0d3e
00000070: a32a 633e 0bc9 083d 7acd 9d3d f387 cd3c
00000080: 9f57 b93e 0b30 07be 90ab 8f3d adea 4dbe
00000090: f117 0c3e 5b38 503e 0b42 093e 3cbd a8bd
000000a0: 548b e83d c238 89be 3b2e eb3d f1d7 213e
000000b0: eabf bb3d a5f8 163e 3ef5 b6bc f6f6 19be
000000c0: 7655 843e e8f3 13be aed2 c3bc 11ca 46be
000000d0: 8662 5bbe b097 6a3e 68df b73d 36db 93be
000000e0: 0c8a 573e 6590 263d 8533 01be 4602 673e
000000f0: 7954 43be 463d 2d3d 8069 77be a792 9e3b
00000100: 0357 353d b305 663d 212f 2d3e c7ee 3c3e
00000110: 045b 173e ab6b 583e abac 5ebe 0b23 8cbd
00000120: f173 c2bd 348b 3e3d fd3f 3a3e 9ffc 993b
00000130: efcc 9fbd acce 813e 3c40 34be 5bbf f4bd
00000140: b78c 9f3d d892 14be 27fe 7cbc 035d 413d
00000150: db3c 73be a56b 8a3d ac7c 433d 9a8f cf3d
00000160: cc6f 2cbd 142d adbe 8b65 8c3e 25db f13d
00000170: ba70 743e 570f bebd 2bf7 a53c 67fa 8abe
00000180: 4df6 423e 5c3c c63d 9e44 1c3e aa00 75be
00000190: 7491 ee3c b399 223e a2d8 81be 28f4 0ebe
000001a0: d205 833a 1a7a b83d a7e0 a53e 0366 a53e
000001b0: 6213 db3a 01d0 84be 7501 5d3e c57e 58be
000001c0: f394 023e 809c 633e dbcf 263e 6f7b 7dbc
000001d0: 33a8 e43c e946 41be 6e74 00be ce54 15be
000001e0: 40a7 883e 92a3 edbd 5785 debd 9119 1bbe
000001f0: 061a 07be df66 52be beff c13d f203 af3e
00000200: 30ed a3be 2fbd 693d 5804 f4bd 1daf 09be
00000210: b888 313e 8b37 64bd fca2 edbd 1938 023d
00000220: 4b91 b4bc 6665 00be 2bcc 2fbe b482 cabd
00000230: 98b1 193d d0d4 c1bd 6b45 18be 593d 753e
00000240: b5c2 c33e 8037 da3c 4aa0 673c 889e 8bbd
00000250: 3966 8e3d cb1b 453d 6f06 cc3d 060d ecbc
00000260: db52 b23c 2de9 603e e23f e73d 4a24 81bd
00000270: 6834 11be 825e 793e 7f36 453e c19d 86be
00000280: ffe9 63be 65da 423e a734 05be b922 233e
00000290: a65c 7f3d c289 22bd 08d7 6f3e 0a4a 183e
000002a0: dacc a93d 9fc3 233e 91c6 803c c52c 85be
000002b0: 9829 3d3e 8227 943e ff9a 5b3d 680d d23d
000002c0: 2481 4c3e b524 39bb 3a0a 0ebd 0fa5 183e
000002d0: a2a8 9dbc 182b 9a3e 0d04 4e3e dedb 903d
000002e0: 166d cc3d 23a6 4ebe 0f55 443d 535b 463e
000002f0: d6a8 70be e689 6abe 5f72 81bc f9e0 a6bd
00000300: 277e a7be a34e b6ba e559 6e3e 3b82 013e
00000310: 2072 113e 78e9 debd 7ca5 1a3e ffc1 eb3e
00000320: ed42 2e3e c6bf 173d c34d 833d a9cb 2fbe
00000330: fd95 363e 1036 e83d 9cf2 bc3d 52ff 683e
00000340: 465c d63b f347 ef3d dd89 b33d ddd5 31be
00000350: e40d 48be 9749 6f3c 0a5f fb3d 3944 07be
00000360: 79f7 7bbe a357 1a3e 0143 2ebe 3d7c 083d
00000370: 5730 d43d 422e f5bd 9b46 ea3d fa11 06be
00000380: ba3a e53d b171 113e 1686 a23e c818 6cbd
00000390: 318d 303e 5ccd 683d ea0f fe3c 861e 6abe
000003a0: 5ceb 783e 4316 da3d 49cc 22b9 5029 46be
000003b0: 7559 0c3e 7903 75bd d65c 233e 6ac6 9cbe
000003c0: 21a9 193d 6c3f 78be 6a81 a83d ca2a 2f3e
000003d0: 0529 a73e e34e 3ebe 8cab e73d e9a1 bcbc
000003e0: 1fc3 b3bc c6eb ff3d 5cb1 183d 7208 5fbd
000003f0: bfbf e63d 60fd af3d 45b0 453d ea54 133e

encoder.transformer.out_proj.bias f4 [16]
-0.012928442 0.11957857 -0.017002625 0.016160132 -0.03634648 -0.04821011 0.082286775 -0.06223378
-0.056199905 -0.013081771 -0.017137518 0.07868009 -0.042785093 0.061080758 -0.02520553 -0.026199698
00000000: d1d1 53bc 9ce5 f43d 1749 8bbc 4162 843c
00000010: 0ce0 14bd f777 45bd f885 a83d d9e8 7ebd
00000020: df31 66bd ed54 56bc fb63 8cbc 0723 a13d
00000030: 6c3f 2fbd d12f 7a3d d47b cebc c0a0 d6bc

encoder.ln1.weight f4 [16]
1.0156009 0.9770246 0.99140406 1.0639563 1.082707 1.0391539 1.055023 1.1095425
0.98474693 1.0528615 0.9343763 0.9982263 1.0234783 1.0734333 0.9559337 1.0010312
00000000: 36ff 813f 491e 7a3f a8cc 7d3f b82f 883f
00000010: 2596 8a3f ff02 853f fe0a 873f 7d05 8e3f
00000020: 6018 7c3f 2ac4 863f 4933 6f3f c28b 7f3f
00000030: 5601 833f 4366 893f 12b8 743f ca21 803f

encoder.ln1.bias f4 [16]
-0.018099127 0.08470258 -0.013822776 0.020649374 -0.08194663 -0.09451155 0.14670789 -0.020940935
-0.06535962 0.077539526 -0.010830523 0.07029986 -0.08729974 0.11570789 0.0022112494 -0.11755338
00000000: 9f44 94bc 8c78 ad3d ed78 62bc e028 a93c
00000010: a2d3 a7bd 468f c1bd 983a 163e 538c abbc
00000020: 44db 85bd 0bcd 9e3d 8272 31bc 5ff9 8f3d
00000030: 35ca b2bd 42f8 ec3d 9cea 103b d4bf f0bd

encoder.ln2.weight f4 [16]
1.0937824 1.019441 1.0645704 1.137351 1.0535501 1.0496985 1.1283741 1.2383162
1.0549849 1.0591998 1.0548143 1.1778122 0.993425 0.99665725 1.0816745 1.2605437
00000000: 1001 8c3f 0b7d 823f d843 883f b894 913f
00000010: bbda 863f 855c 863f 906e 903f 2581 9e3f
00000020: bf09 873f dc93 873f 2804 873f 8dc2 963f
00000030: 1a51 7e3f ee24 7f3f 4f74 8a3f 7f59 a13f

encoder.ln2.bias f4 [16]
0.0021825733 0.3052322 -0.07155158 0.038670387 -0.20967583 -0.18436065 0.08846088 -0.1095545
-0.0281207 0.027660066 0.020200303 0.1518948 -0.05285488 0.1151378 -0.07098213 -0.11047149
00000000: 8109 0f3b 6547 9c3e a389 92bd d764 1e3d
00000010: 43b5 56be 0ac9 3cbe fa2a b53d 1c5e e0bd
00000020: 625d e6bc 5d97 e23c 1b7b a53c 4f8a 1b3e
00000030: 5c7e 58bd 5ecd eb3d 145f 91bd e03e e2bd

decoder.output_head.weight f4 [24, 16]
0.09581682 0.11447779 -0.23180695 -0.119737014 0.054904193 -0.22643667 -0.22410977 0.006466302
0.108950146 -0.1282719 0.24775667 -0.11505278 0.05347061 0.0055944063 -0.17918809 0.030879173
0.040397722 0.04069041 0.052611683 0.030151192 0.11415285 0.07106298 0.017509056 0.093874805
0.08312206 0.06765953 0.05799591 0.03306165 0.051337756 0.07056128 0.0997211 0.061412625
0.1184019 -0.03575257 0.048320584 0.018947702 0.20270962 0.04043808 0.03592148 -0.32678849
-0.17607106 0.126387 0.087952375 -0.34959278 -0.10338524 0.1842857 -0.15527181 -0.22783029
-0.03497521 -0.081273206 -0.383793 -0.17069659 0.2549094 -0.09645551 -0.047215708 -0.34341037
0.25052246 -0.0042044 -0.3398181 0.26908165 0.06626883 0.1843033 -0.1648465 -0.057601795
0.10871031 0.09418566 -0.0076980377 -0.06416297 -0.1036847 -0.024193076 -0.23039198 -0.066442065
0.2563234 -0.081709854 0.30724046 0.012970685 0.289895 0.13007802 -0.006999642 -0.09502854
-0.06754444 -0.09088207 0.049607933 0.23627765 -0.16039376 0.08799307 -0.2447405 -0.051521912
-0.016463695 -0.23927514 0.10028294 0.18672754 -0.06518897 0.0026085898 -0.22357507 0.10545173
-0.04621564 0.007235383 0.33197185 -0.10429191 0.17422295 -0.023377825 0.08865149 -0.14574182
0.27721572 0.19571136 -0.03605075 -0.1875165 -0.05666865 0.2766362 0.044931185 0.4153798
0.03767559 0.043034714 -0.13288744 -0.07871205 0.065317914 -0.14930114 -0.12286219 0.14388323
0.23435175 -0.06348268 0.3332699 -0.035295628 0.17041235 0.17089336 -0.07817575 -0.080467515
-0.20828912 -0.39058933 -0.20250833 0.00881683 0.06833632 0.09358215 0.040632445 0.06788044
0.067034975 0.0658003 0.24076866 0.08191758 -0.21490252 0.16709921 0.37167495 0.07751695
-0.038064487 0.011287552 -0.012449738 0.15562648 -0.10404813 -0.07863436 -0.2323665 0.024196537
0.38254717 0.52549154 -0.1732646 0.073506735 0.1562132 -0.111651346 0.30540803 -0.06592338
-0.6543796 0.1705845 0.16319089 -0.037056107 -0.009037626 0.024652801 0.056210816 -0.014241753
0.014523102 0.12695989 -0.17800292 -0.0177668 -0.0061968467 0.42094392 -0.08789093 -0.21963198
0.1882603 0.04881212 -0.18038246 -0.20987058 -0.09673184 0.012866222 -0.1847469 0.00492355
0.13128412 -0.08173591 0.27022606 -0.151133 0.10877423 -0.03922031 -0.21026695 0.037238546
0.064909965 -0.23697114 0.366158 -0.04713438 0.19493939 0.15339865 -0.18248749 -0.0053892406
-0.14546038 -0.2377422 0.04276203 -0.0839774 0.30448526 -0.17185016 0.17240593 -0.08783221
-0.17541385 -0.37854162 -0.20974055 -0.6151182 0.267971 0.064914085 -0.45392102 0.565233
0.38554192 0.33706826 -0.007167505 -0.35597372 0.021178346 0.270074 0.42501348 0.25737885
-0.11885751 -0.25458586 0.092023894 -0.18004316 0.095756955 -0.019381812 -0.2665987 0.045885604
0.057933554 -0.16263224 -0.19573613 -0.18882012 -0.035618212 -0.025487702 0.08391209 0.08336653
-0.2302697 -0.15902689 0.13506518 -0.17444876 0.19685647 0.06005823 -0.10249587 0.058574904
-0.050944313 -0.04018056 -0.0040187603 -0.22476825 0.047324996 -0.050304513 0.04480361 0.16589998
00000000: 9c3b c43d 5573 ea3d cd5e 6dbe ae38 f5bd
00000010: 38e3 603d 04df 67be 087d 65be 46e3 d33b
00000020: 4121 df3d b559 03be edb3 7d3e cba0 ebbd
00000030: 0004 5b3d 4851 b73b 157d 37be 52f6 fc3c
00000040: 1578 253d fdaa 263d 597f 573d a2ff f63c
00000050: f8c8 e93d 7889 913d 276f 8f3c 6f41 c03d
00000060: e63b aa3d 1491 8a3d 1f8d 6d3d a76b 073d
00000070: 8a47 523d 6f82 903d 933a cc3d ce8b 7b3d
00000080: b27c f23d 4971 12bd ceeb 453d 3638 9b3c
00000090: 1c93 4f3e 66a2 253d 6722 133d d250 a7be
000000a0: f94b 34be 986b 013e 6020 b43d d3fd b2be
000000b0: a4bb d3bd 64b5 3c3e 93ff 1ebe 584c 69be
000000c0: 2a42 0fbd 9172 a6bd 8480 c4be 16cb 2ebe
000000d0: 7c83 823e 778a c5bd 4265 41bd 7cd3 afbe
000000e0: 7b44 803e 10c5 89bb a3fc adbe 12c5 893e
000000f0: f4b7 873d 01ba 3c3e 85cd 28be dcef 6bbd
00000100: 83a3 de3d 69e4 c03d d23f fcbb e067 83bd
00000110: a558 d4bd 8f30 c6bc e0eb 6bbe c712 88bd
00000120: d23c 833e 7f57 a7bd 9f4e 9d3e ff82 543c
00000130: 1e6d 943e 2c33 053e 415d e5bb 539e c2bd
00000140: bd54 8abd 6120 babd b031 4b3d c5f2 713e
00000150: 433e 24be b635 b43d 419d 7abe a408 53bd
00000160: dfde 86bc 8b04 75be 2461 cd3d 8135 3f3e
00000170: cb81 85bd e0f4 2a3b ddf0 64be 14f7 d73d
00000180: 9c4c 3dbd cb16 ed3b 37f8 a93e ff96 d5bd
00000190: 8067 323e da82 bfbc ea8e b53d 583d 15be
000001a0: 38ef 8d3e 8f68 483e f4a9 13bd 5304 40be
000001b0: 631d 68bd 43a3 8d3e c309 383d a9ac d43e
000001c0: b851 1a3d 2b45 303d a513 08be c933 a1bd
000001d0: 66c5 853d 66e2 18be 2c9f fbbd 2056 133e
000001e0: e8f9 6f3e 3503 82bd 5aa2 aa3e 2692 10bd
000001f0: 9380 2e3e abfe 2e3e 9c1a a0bd 27cc a4bd
00000200: be49 55be 53fb c7be 585e 4fbe 7774 103c
00000210: eaf3 8b3d 00a8 bf3d 356e 263d e604 8b3d
00000220: a249 893d 4fc2 863d 0f8c 763e 67c4 a73d
00000230: 680f 5cbe 0e1c 2b3e 2e4c be3e 35c1 9e3d
00000240: 82e9 1bbd 6def 383c fcf9 4bbc 8c5c 1f3e
00000250: 3017 d5bd 0d0b a1bd 7cf1 6dbe d137 c63c
00000260: 39dd c33e 9d86 063f 466c 31be b38a 963d
00000270: 5af6 1f3e 76a9 e4bd 715e 9c3e d602 87bd
00000280: 6c85 27bf b4ad 2e3e 831b 273e 25c8 17bd
00000290: 8d12 14bc acf4 c93c 503d 663d 3e56 69bc
000002a0: 4ef2 6d3c c601 023e 6646 36be ae8b 91bc
000002b0: eb0e cbbb f685 d73e 2900 b4bd 35e7 60be
000002c0: 4fc7 403e 38ef 473d 2eb6 38be 50e8 56be
000002d0: 581b c6bd d9cc 523c 4b2e 3dbe bb55 a13b
000002e0: 586f 063e 2865 a7bd 125b 8a3e 9cc2 1abe
000002f0: 06c5 de3d 7aa5 20bd 3850 57be 7287 183d
00000300: 84ef 843d 90a8 72be 1079 bb3e fb0f 41bd
00000310: 319e 473e 8914 1d3e 00de 3abe 3a98 b0bb
00000320: 91f3 14be b172 73be 3d27 2f3d 58fc abbd
00000330: 7ee5 9b3e 7df9 2fbe 2e8b 303e 60e1 b3bd
00000340: b09f 33be 35d0 c1be 3ac6 56be 6378 1dbf
00000350: 7f33 893e adf1 843d 5668 e8be 1cb3 103f
00000360: c065 c53e 3694 ac3e 64dd eabb 3042 b6be
00000370: 367e ad3c 2447 8a3e 5e9b d93e 29c7 833e
00000380: 916b f3bd 1459 82be 0677 bc3d 3c5d 38be
00000390: 391c c43d 9bc6 9ebc a07f 88be 8bf2 3b3d
000003a0: bc4b 6d3d 1189 26be 0d6f 48be 105a 41be
000003b0: 67e4 11bd 96cb d0bc 1ada ab3d 12bc aa3d
000003c0: d2cb 6bbe f2d7 22be 874e 0a3e b2a2 32be
000003d0: be94 493e 9eff 753d 5be9 d1bd 3dec 6f3d
000003e0: fcaa 50bd 5f94 24bd ceaf 83bb a629 66be
000003f0: dbd7 413d 1b0c 4ebd fd83 373d afe1 293e

decoder.output_head.bias f4 [24]
-0.19199379 0.008151249 0.15995008 -0.3659391 0.057744805 0.23915632 0.091928475 -0.0389801
0.23996635 -0.1626218 -0.06998927 0.15581258 -0.25412762 -0.31238288 -0.30807012 -0.070976354
-0.32536831 -0.20543814 -0.3172086 -0.24224618 -0.29213297 -0.1208226 -0.009973326 -0.2040814
00000000: 059a 44be d18c 053c f4c9 233e 5f5c bbbe
00000010: d185 6c3d 65e5 743e ff44 bc3d 99a9 1fbd
00000020: bdb9 753e 5486 26be 8956 8fbd 558d 1f3e
00000030: 041d 82be a6f0 9fbe 5ebb 9dbe 0d5c 91bd
00000040: ad96 a6be 605e 52be 2a69 a2be 620f 78be
00000050: 7492 95be d771 f7bd 2967 23bc b7fa 50be
