experiments/model_16_60_2026-01-17_3152/model.pt (torch, 45743 bytes, 18 tensors)

encoder.graph_embed.GCN_in.A f4 [9, 9]
0.6277446 -0.5141729 -0.56668496 0.11404156 -0.6538705 -1.402471 0.3522417 0.9801933
-0.6340646 -1.5182214 0.8180567 0.016034735 -0.30584678 -1.1967481 0.97454214 1.7499745
-0.3491854 -0.77586234 -0.82781345 0.52350366 -0.4008394 1.6074764 -0.9674551 1.629065
-1.1682068 0.38114494 -0.13846482 -0.42309988 2.1349142 0.36506245 1.5093613 -0.87490374
0.32867265 -0.39322072 0.7132922 -0.93303597 1.6045052 0.42520115 0.0032868397 -1.0600991
-0.8665514 0.31726444 -2.214362 -0.21288083 0.36121377 -0.9553756 -1.0230167 1.8787024
0.017705789 -0.52410525 -0.58424985 -0.50751853 0.6779953 -1.7082453 1.046035 -0.334363
1.1605517 0.31110984 1.4471265 1.0210136 -0.16120863 -0.06823216 0.3616327 -1.1375879
0.68619406 -0.1444327 -1.3591175 0.40845466 -0.9588663 -0.24936482 -0.55294836 -0.93584543
-0.8050644 0.8714902 -0.8101842 -0.7796872 0.9686852 -0.051961996 -0.6140659 -0.08719122
-1.1689706
00000000: dfb3 203f d6a0 03bf 4412 11bf 9f8e e93d
00000010: 0f64 27bf 2b84 b3bf 0659 b43e f3ed 7a3f
00000020: 0f52 22bf 1455 c2bf 2a6c 513f 475b 833c
00000030: f397 9cbe 0b2f 99bf 987b 793f 2aff df3f
00000040: 6ec8 b2be ea9e 46bf 95eb 53bf 5604 063f
00000050: d23a cdbe c9c1 cd3f 23ab 77bf 3485 d03f
00000060: cd87 95bf 6e25 c33e b9c9 0dbe 8ca0 d8be
00000070: 6fa2 0840 77e9 ba3e c032 c13f b1f9 5fbf
00000080: c847 a83e 3a54 c9be 519a 363f 72db 6ebf
00000090: 6d60 cd3f f7b3 d93e 0568 573b 54b1 87bf
000000a0: 50d6 5dbf 7c70 a23e 1bb8 0dc0 6ffd 59be
000000b0: 03f1 b83e 7f93 74bf 36f2 82bf 5279 f03f
000000c0: bb0b 913c c32b 06bf 6691 15bf bcec 01bf
000000d0: 1a91 2d3f c8a7 dabf 7ae4 853f a131 abbe
000000e0: f58c 943f ca49 9f3e 713b b93f 93b0 823f
000000f0: e013 25be 4dbd 8bbd ec27 b93e 7b9c 91bf
00000100: 6aaa 2f3f 2ae6 13be 90f7 adbf f820 d13e
00000110: 4378 75bf 7e59 7fbe 068e 0dbf 9193 6fbf
00000120: b318 4ebf fb19 5f3f 3b68 4fbf 9599 47bf
00000130: c1fb 773f 1ad6 54bd 6c33 1dbf 4f91 b2bd
00000140: d4a0 95bf

encoder.graph_embed.GCN_in.linear.weight f4 [16, 16]
-0.23013307 0.037304524 0.085752726 0.25258225 0.11876929 -0.11794003 -0.0645842 0.24073297
0.18122756 0.08457509 0.27303782 0.19553505 -0.090811945 -0.113799796 -0.06431619 -0.031903904
-0.08929578 -0.13133441 -0.2368074 -0.18239334 0.070953295 0.008411015 -0.2659445 -0.13276602
0.09427143 -0.2800103 0.21834852 -0.023042288 -0.17955619 0.07734924 0.17876628 0.033493783
0.21773207 0.07028993 -0.18764374 -0.02876094 0.054350093 0.003240021 -0.1509381 0.27339453
0.044834163 0.038436927 -0.200792 0.21243593 -0.051458795 -0.2307575 -0.16979133 0.12973599
0.27898002 0.20943563 -0.15232317 0.052294422 -0.06396111 0.18666896 -0.108261906 0.00065869465
-0.023711804 0.27327248 -0.07319208 -0.0349967 -0.0033798765 0.018924987 -0.055451073 0.068137854
-0.3047276 -0.19772162 -0.25828648 0.059950333 0.11106578 -0.19005898 -0.0498299 0.06818201
-0.044816162 -0.17470053 0.03146488 -0.27508393 -0.0980463 -0.16835882 0.123386934 0.112641945
0.04407548 -0.110703506 -0.07139778 0.039638232 0.05242635 0.16371359 -0.09474701 0.21591799
0.13147388 0.1388991 0.24913688 0.05824021 -0.10435132 0.23895435 0.054274835 -0.124877274
-0.29310778 0.03366688 -0.16573215 -0.08101993 0.07420842 0.121558465 -0.11238351 -0.27626744
0.009540214 0.15754306 0.059729956 0.1317404 0.0625629 -0.17392637 0.13740101 0.11142464
0.03597833 -0.1578943 0.15218076 0.025190836 -0.113645196 0.2717752 -0.015609641 -0.032382995
0.1997219 -0.054154947 0.22551371 0.042267077 -0.012453387 0.07653885 -0.17885458 0.010817735
0.15924352 -0.030908497 0.041029762 -0.10506462 0.25418836 0.0019264641 0.017126624 -0.02831405
0.052483495 -0.1252322 -0.009933879 -0.2062248 0.04776668 -0.01628678 -0.25957692 -0.21985431
-0.025217678 -0.21063527 -0.1627727 0.034160547 0.31037343 0.007873647 -0.02148739 -0.05283589
-0.0036055355 -0.02160854 0.026715167 0.32791424 -0.073087916 -0.07208993 -0.17698637 0.09521223
0.010108835 -0.1481111 -0.14570965 0.049041513 0.057785857 0.17150128 0.008623048 0.004690975
-0.10984669 0.01951285 0.16451468 0.11576129 -0.049802188 0.16876657 -0.15390362 -0.23070854
-0.16098061 0.06603466 0.03512241 -0.053809866 0.098098315 -0.12406333 0.09661892 -0.1745858
-0.15754536 -0.017557533 -0.27111962 0.027800096 0.16319576 -0.11444777 -0.07186929 -0.18892902
-0.049904462 -0.13107835 -0.11488704 -0.044472378 0.12385349 0.14765547 -0.0983615 0.2515796
0.1801331 0.0046175024 -0.33161548 0.0031604439 0.03175625 -0.06589863 0.009844766 -0.16529775
0.04679391 -0.12153903 -0.09321701 -0.072402716 -0.06948534 -0.2587772 0.2507384 0.1741265
-0.08906947 -0.095020495 0.14966366 -0.13106053 -0.00028236443 0.033963818 -0.044504356 0.24264911
0.15095507 -0.13306049 -0.016388103 -0.24618852 -0.12148051 0.19203839 0.10712487 -0.1131703
-0.22861594 0.12606768 -0.124370806 0.22752379 -0.0599487 -0.064365454 -0.113069765 0.12558818
-0.18112849 0.12299013 -0.12704921 -0.3181357 -0.01491042 -0.13619652 0.14607696 -0.14672485
0.011027775 0.11233765 -0.15799195 -0.24765421 0.12597723 0.13241293 -0.1926782 0.13901691
00000000: 01a8 6bbe a1cc 183d 209f af3d 7652 813e
00000010: 503d f33d 8b8a f1bd b944 84bd b482 763e
00000020: b893 393e b435 ad3d 9dcb 8b3e 573a 483e
00000030: 9dfb b9bd de0f e9bd 35b8 83bd abad 02bd
00000040: b5e0 b6bd 877c 06be a47d 72be 52c5 3abe
00000050: f64f 913d 5bce 093c e129 88be d1f3 07be
00000060: 6111 c13d 835d 8fbe c196 5f3e 2ec3 bcbc
00000070: 94dd 37be 4769 9e3d 820e 373e c730 093d
00000080: 28f5 5e3e 2bf4 8f3d ae25 40be 109c ebbc
00000090: 349e 5e3d 8856 543b 848f 1abe 5efa 8b3e
000000a0: 07a4 373d 0a70 1d3d 6b9c 4dbe ce88 593e
000000b0: 75c6 52bd b24b 6cbe c7dd 2dbe 83d9 043e
000000c0: 78d6 8e3e 4b76 563e 9bfa 1bbe ad32 563d
000000d0: 0bfe 82bd 2626 3f3e 6bb8 ddbd 40ac 2c3a
000000e0: 423f c2bc 5fea 8b3e bbe5 95bd b358 0fbd
000000f0: eb80 5dbb 9308 9b3c aa20 63bd dc8b 8b3d
00000100: 4205 9cbe 8977 4abe 203e 84be 7b8e 753d
00000110: 7576 e33d d29e 42be 701a 4cbd 02a3 8b3d
00000120: 2791 37bd b2e4 32be 51e1 003d cdd7 8cbe
00000130: 80cc c8bd 4166 2cbe 4ab2 fc3d d2b0 e63d
00000140: 7e88 343d 85b8 e2bd 0039 92bd b35b 223d
00000150: 03bd 563d 89a4 273e b80a c2bd 9b19 5d3e
00000160: 17a1 063e 913b 0e3e bd1d 7f3e 498d 6e3d
00000170: 25b6 d5bd 73b0 743e 4a4f 5e3d a8bf ffbd
00000180: 3912 96be 48e6 093d b0b5 29be c7ed a5bd
00000190: 96fa 973d a5f3 f83d 5329 e6bd ed72 8dbe
000001a0: 8f4e 1c3c f852 213e 66a7 743d f5e6 063e
000001b0: fa20 803d c119 32be dab2 0c3e 9a32 e43d
000001c0: 035e 133d 0baf 21be 46d5 1b3e 035d ce3c
000001d0: d0be e8bd 1e26 8b3e 94bf 7fbc 08a4 04bd
000001e0: e683 4c3e 94d1 5dbd 11ed 663e 3e20 2d3d
000001f0: 4a09 4cbc 67c0 9c3d a825 37be df3c 313c
00000200: bc10 233e d133 fdbc d30e 283d 1f2c d7bd
00000210: fa24 823e 6981 fc3a 224d 8c3c def2 e7bc
00000220: eff8 563d df3c 00be b5c1 22bc 982c 53be
00000230: ffa6 433d da6b 85bc 44e7 84be 7d21 61be
00000240: 4e95 cebc c6b0 57be e3ad 26be eeeb 0b3d
00000250: 44e9 9e3e 7800 013c 5306 b0bc 726a 58bd
00000260: d94a 6cbb 6504 b1bc c4d9 da3c 60e4 a73e
00000270: 1eaf 95bd e3a3 93bd ea3b 35be a1fe c23d
00000280: 879f 253c 70aa 17be e934 15be c1df 483d
00000290: ddb0 6c3d 089e 2f3e af47 0d3c c0b6 993b
000002a0: 4df7 e0bd 6ad9 9f3c 8976 283e 4114 ed3d
000002b0: 61fd 4bbd 25d1 2c3e e998 1dbe dc3e 6cbe
000002c0: 1ad8 24be 2e3d 873d 84dc 0f3d bc67 5cbd
000002d0: c5e7 c83d ea14 febd 24e0 c53d 9fc6 32be
000002e0: 9253 21be d1d4 8fbc 31d0 8abe 07bd e33c
000002f0: ca1c 273e 9863 eabd 3530 93bd 9c76 41be
00000300: 9f68 4cbd 6739 06be e549 ebbd ab28 36bd
00000310: e6a6 fd3d ff32 173e c171 c9bd 0bcf 803e
00000320: d074 383e 6b4e 973b 81c9 a9be 731f 4f3b
00000330: d712 023d dcf5 86bd f14b 213c d043 29be
00000340: f9aa 3f3d 74e9 f8bd 8fe8 bebd e047 94bd
00000350: 544e 8ebd 727e 84be c960 803e 384e 323e
00000360: 0e6a b6bd 1b9a c2bd 6e41 193e bb34 06be
00000370: 500a 94b9 a51d 0b3d 334a 36bd 0279 783e
00000380: f793 1a3e 0241 08be 5840 86bc d818 7cbe
00000390: c6ca f8bd b6a5 443e 4964 db3d d5c5 e7bd
000003a0: 4c1a 6abe e317 013e 1fb6 febd fffb 683e
000003b0: c58c 75bd 09d2 83bd 1f91 e7bd 309a 003e
000003c0: bf79 39be 40e2 fb3d 3019 02be afe2 a2be
000003d0: d64a 74bc 1a77 0bbe 3395 153e 0a3f 16be
000003e0: d7ad 343c 4811 e63d a4c8 21be 1199 7dbe
000003f0: 2d00 013e 4197 073e 6f4d 45be 735a 0e3e

encoder.graph_embed.GCN_in.linear.bias f4 [16]
0.024183882 -0.184384 -0.057207868 0.16361491 0.13341558 -0.12479848 -0.11549224 -0.15415446
0.13697632 -0.13158904 0.12548044 -0.21097562 -0.13179782 -0.033715453 0.0073628766 -0.16809626
00000000: 471d c63c 29cf 3cbe cc52 6abd ab8a 273e
00000010: 189e 083e 5896 ffbd 3287 ecbd abda 1dbe
00000020: 8543 0c3e 47bf 06be f27d 003e fe09 58be
00000030: 02f6 06be 3719 0abd 4944 f13b 6d21 2cbe

encoder.graph_embed.bn.weight f4 [16]
1.0446831 0.9492154 0.91722786 1.0564667 0.95917535 0.9581784 1.028591 0.9076685
1.0112568 1.0237132 1.0342721 0.9922899 1.0018319 0.93149984 0.91135865 0.9298929
00000000: 2db8 853f c8ff 723f 72cf 6a3f 4d3a 873f
00000010: 848c 753f 2e4b 753f dfa8 833f f65c 683f
00000020: dd70 813f 0909 833f 0763 843f b606 7e3f
00000030: 073c 803f c676 6e3f cd4e 693f 760d 6e3f

encoder.graph_embed.bn.bias f4 [16]
0.017902393 -0.02560658 -0.08690047 0.024053473 -0.033588484 0.09828002 0.030100573 0.03132385
0.004678814 0.07644889 0.06046393 -0.03789543 -0.093135044 -0.017028922 -0.065197036 -0.013653407
00000000: 0aa8 923c e4c4 d1bc e0f8 b1bd ca0b c53c
00000010: 1494 09bd 0947 c93d 7a95 f63c 704d 003d
00000020: bd50 993b 3c91 9c3d 07a9 773d 3d38 1bbd
00000030: 96bd bebd 3d80 8bbc 0686 85bd 8ab2 5fbc

encoder.graph_embed.bn.running_mean f4 [16]
-0.060313955 0.025337936 0.019231029 0.07351422 -0.021514844 0.090103716 -0.051859096 -0.06996136
0.054950245 -0.11141822 0.15963262 0.037185337 0.16222899 -0.12993765 0.10760765 -0.12907916
00000000: c40b 77bd 8191 cf3c 648a 9d3c a08e 963d
00000010: e63f b0bc 4c88 b83d 346a 54bd e747 8fbd
00000020: 8213 613d 3c2f e4bd bc76 233e a74f 183d
00000030: 5b1f 263e 600e 05be 6661 dc3d 542d 04be

encoder.graph_embed.bn.running_var f4 [16]
0.018008808 0.057268206 0.091298334 0.017216804 0.033204306 0.08303637 0.01968283 0.01359099
0.021231527 0.021280272 0.0891667 0.08035547 0.14948334 0.013917204 0.07710207 0.018844133
00000000: 3587 933c 1192 6a3d 9ffa ba3d 410a 8d3c
00000010: 3d01 083d f90e aa3d e33d a13c beac 5e3c
00000020: bded ad3c f753 ae3c 089d b63d 6991 a43d
00000030: 2912 193e fc04 643c b1e7 9d3d 035f 9a3c

encoder.pos_enc.pe f4 [500, 16]
0.0 1.0 0.0 1.0 0.0 1.0 0.0 1.0
0.0 1.0 0.0 1.0 0.0 1.0 0.0 1.0
0.84147096 0.54030234 0.3109836 0.9504153 0.099833414 0.9950042 0.031617504 0.99950004
0.009999833 0.99995 0.0031622713 0.999995 0.0009999998 0.9999995 0.00031622782 0.99999994
0.9092974 -0.41614684 0.5911271 0.8065784 0.19866931 0.9800666 0.063203394 0.9980007
0.019998666 0.9998 0.006324511 0.99998003 0.0019999985 0.99999803 0.0006324556 0.9999998
0.14112 -0.9899925 0.8126489 0.58275366 0.2955202 0.9553365 0.094726086 0.99550337
0.0299955 0.99955004 0.009486687 0.999955 0.0029999954 0.9999955 0.00094868336 0.9999996
-0.7568025 -0.6536436 0.95358074 0.30113748 0.38941833 0.921061 0.12615407 0.99201065
0.039989334 0.9992001 0.01264877 0.99992 0.003999989 0.999992 0.0012649109 0.9999992
-0.9589243 0.2836622 0.99994653 -0.010342338 0.47942552 0.87758255 0.15745588 0.987526
0.049979165 0.99875027 0.015810724 0.999875 0.004999979 0.9999875 0.0015811383 0.99999875
-0.2794155 0.96017027 0.9471482 -0.3207964 0.5646424 0.8253356 0.18860027 0.98205394
0.059964005 0.99820054 0.018972522 0.99982 0.0059999637 0.999982 0.0018973658 0.9999982
0.6569866 0.75390226 0.8004216 -0.5994375 0.6442176 0.7648422 0.2195561 0.9755999
0.06994285 0.997551 0.022134129 0.999755 0.006999942 0.9999755 0.0022135929 0.99999756
0.98935825 -0.14550003 0.5743178 -0.8186324 0.717356 0.6967067 0.25029233 0.9681703
0.07991469 0.9968017 0.025295515 0.99968004 0.007999914 0.999968 0.0025298197 0.9999968
0.4121185 -0.91113025 0.29125923 -0.9566442 0.78332686 0.62161 0.28077832 0.95977265
0.089878544 0.9959527 0.028456647 0.99959505 0.008999879 0.9999595 0.0028460464 0.99999595
-0.5440211 -0.8390715 -0.02068357 -0.9997861 0.84147096 0.54030234 0.31098357 0.9504153
0.099833414 0.9950042 0.031617496 0.99950004 0.009999833 0.99995 0.0031622727 0.999995
-0.9999902 0.004425698 -0.33057496 -0.94377977 0.89120734 0.4535962 0.34087786 0.9401076
0.1097783 0.9939561 0.03477803 0.9993951 0.010999777 0.9999395 0.003478499 0.999994
-0.53657293 0.84385395 -0.6076834 -0.7941793 0.9320391 0.36235783 0.3704313 0.9288599
0.119712204 0.99280864 0.03793821 0.9992801 0.011999711 0.999928 0.0037947248 0.9999928
0.42016703 0.9074468 -0.82452846 -0.5658205 0.9635582 0.26749888 0.3996143 0.9166834
0.12963414 0.9915619 0.041098017 0.9991551 0.012999633 0.9999155 0.00411095 0.99999154
0.9906074 0.13673721 -0.9596054 -0.28134948 0.98544973 0.16996728 0.42839777 0.90359026
0.13954312 0.990216 0.044257414 0.99902016 0.013999541 0.999902 0.004427175 0.9999902
0.65028787 -0.7596879 -0.9995187 0.031022351 0.997495 0.07073732 0.45675287 0.8895936
0.14943813 0.9887711 0.047416367 0.9988752 0.014999436 0.9998875 0.0047433996 0.99998873
00000000: 0000 0000 0000 803f 0000 0000 0000 803f
00000010: 0000 0000 0000 803f 0000 0000 0000 803f
00000020: 0000 0000 0000 803f 0000 0000 0000 803f
00000030: 0000 0000 0000 803f 0000 0000 0000 803f
00000040: a46a 573f 4151 0a3f 3e39 9f3e 6b4e 733f
00000050: 7675 cc3d 98b8 7e3f 5b81 013d 3cdf 7f3f
00000060: 57d6 233c b9fc 7f3f 1c3e 4f3b acff 7f3f
00000070: 6d12 833a f8ff 7f3f 61cb a539 ffff 7f3f
00000080: b7c7 683f 3311 d5be 1b54 173f ec7b 4e3f
00000090: f86f 4b3e a5e5 7a3f c870 813d f97c 7f3f
000000a0: 3ed4 a33c e5f2 7f3f d83d cf3b b1fe 7f3f
000000b0: 6812 033b dfff 7f3f 60cb 253a fdff 7f3f
000000c0: c381 103e 2670 7dbf c209 503f 582f 153f
000000d0: 6c4e 973e ef90 743f c0ff c13d 4fd9 7e3f
000000e0: 1fb9 f53c 83e2 7f3f 0d6e 1b3c 0dfd 7f3f
000000f0: 929b 443b b5ff 7f3f 10b1 783a f9ff 7f3f
00000100: cfbd 41bf 3055 27bf de1d 743f b12e 9a3e
00000110: d761 c73e a7ca 6b3f 882e 013e 69f4 7d3f
00000120: dbcb 233d 94cb 7f3f c93c 4f3c c2fa 7f3f
00000130: 5712 833b 7aff 7f3f 5ecb a53a f3ff 7f3f
00000140: 107c 75bf 2c3c 913e 7ffc 7f3f e972 29bc
00000150: 4377 f53e 40a9 603f 1d3c 213e 81ce 7c3f
00000160: f4b6 4c3d 19ae 7f3f 7e85 813c cff7 7f3f
00000170: ddd6 a33b 2eff 7f3f 333e cf3a ebff 7f3f
00000180: 8c0f 8fbe b8cd 753f 4e78 723f 6d3f a4be
00000190: 688c 103f 3249 533f 6e20 413e e367 7b3f
000001a0: d19c 753d 128a 7f3f 436c 9b3c 34f4 7f3f
000001b0: 589b c43b d2fe 7f3f 08b1 f83a e2ff 7f3f
000001c0: 4630 283f bdff 403f 6ee8 4c3f bc74 19bf
000001d0: 72eb 243f b3cc 433f 50d3 603e eac0 793f
000001e0: 323e 8f3d 815f 7f3f a252 b53c f2ef 7f3f
000001f0: c55f e53b 65fe 7f3f ed11 113b d7ff 7f3f
00000200: 9546 7d3f f6fd 14be 7e06 133f e591 51bf
00000210: a5a4 373f 5f5b 323f 5126 803e 02da 773f
00000220: 50aa a33d 652e 7f3f 8a38 cf3c 08eb 7f3f
00000230: 1212 033c e7fd 7f3f 55cb 253b caff 7f3f
00000240: 3201 d33e d53f 69bf ee1f 953e a2e6 74bf
00000250: 1c88 483f d521 1f3f 2dc2 8f3e a9b3 753f
00000260: 3e12 b83d c2f6 7e3f ea1d e93c 76e5 7f3f
00000270: 3a74 133c 59fd 7f3f bc84 3a3b bcff 7f3f
00000280: f844 0bbf 64cd 56bf 9770 a9bc fbf1 7fbf
00000290: a46a 573f 4151 0a3f 3d39 9f3e 6b4e 733f
000002a0: 7675 cc3d 98b8 7e3f 5981 013d 3cdf 7f3f
000002b0: 57d6 233c b9fc 7f3f 223e 4f3b acff 7f3f
000002c0: 5cff 7fbf 7205 913b 1f41 a9be 8d9b 71bf
000002d0: 2a26 643f c33d e83e 8b87 ae3e e4aa 703f
000002e0: 72d3 e03d e873 7e3f 6873 0e3d 5bd8 7f3f
000002f0: 6938 343c 09fc 7f3f 87f7 633b 9bff 7f3f
00000300: d85c 09bf d006 583f 2491 1bbf 564f 4bbf
00000310: 1d9a 6e3f f786 b93e 2ca9 bd3e c3c9 6d3f
00000320: ac2b f53d b528 7e3f 1965 1b3d d2d0 7f3f
00000330: 709a 443c 48fb 7f3f ebb0 783b 87ff 7f3f
00000340: 2220 d73e 6f4e 683f 4c14 53bf 9dd9 10bf
00000350: c0ab 763f 9df5 883e 3f9a cc3e c3ab 6a3f
00000360: d0be 043e 00d7 7d3f 6556 283d a1c8 7f3f
00000370: 6afc 543c 76fa 7f3f 26b5 863b 72ff 7f3f
00000380: 7298 7d3f d704 0c3e b3a8 75bf 0a0d 90be
00000390: 6f46 7c3f e70b 2e3e f456 db3e b151 673f
000003a0: 64e4 0e3e cc7e 7d3f 4347 353d c9bf 7f3f
000003b0: 555e 653c 94f9 7f3f d611 913b 5cff 7f3f
000003c0: 4479 263f e87a 42bf 75e0 7fbf 9622 fe3c
000003d0: d55b 7f3f bade 903d 83db e93e 68bc 633f
000003e0: 4f06 193e 1a20 7d3f aa37 423d 49b6 7f3f
000003f0: 32c0 753c a1f8 7f3f 856e 9b3b 43ff 7f3f

encoder.transformer.in_proj_weight f4 [48, 16]
-0.27133548 -0.13757075 -0.123130605 -0.25633043 0.23291795 0.21445286 0.29215488 -0.10984924
-0.18722093 -0.032630954 0.0052615376 0.041933674 -0.2705764 0.2752784 0.13010415 -0.07280347
-0.18655334 -0.31736714 -0.14276646 0.29792085 0.20986809 0.30776876 -0.20394202 -0.24299927
-0.06334144 0.04489658 0.25809494 0.20634317 -0.17395265 0.19409569 0.16140246 -0.21925305
0.32638818 0.0016490569 -0.11960941 -0.19705531 0.07116225 0.028542971 -0.13550727 0.27537563
0.18425743 -0.23984958 -0.048366535 0.10777426 -0.30338556 0.12688036 -0.08287751 0.007890597
0.17656116 0.21862349 -0.19288956 -0.28405893 -0.108863994 -0.37228203 0.15676935 0.31300226
-0.04594544 -0.07165593 0.29332104 -0.17360848 -0.05949173 -0.20601097 -0.27127165 -0.13258886
0.21962889 -0.33586624 -0.04241634 0.106331766 -0.24158762 0.32098225 0.30797127 0.14461409
0.2536312 0.3699969 0.10726491 0.33642253 -0.009458066 -0.1451934 -0.26004174 0.14803737
0.03524849 -0.2984536 -0.06756225 -0.23404646 0.2839441 0.26161394 0.14035064 0.023442782
-0.19390298 -0.13909842 0.28535688 -0.056760762 -0.2660314 -0.04870492 0.23886733 -0.15654024
-0.20487857 0.3262717 -0.05728099 -0.1320218 0.21185717 -0.22427884 -0.074401684 0.31689683
-0.084082924 0.06263392 0.15009561 0.11025873 0.037299547 -0.11375087 -0.27812132 -0.25574934
0.043174136 -0.13798194 -0.34479746 -0.17317368 0.13832152 0.32681996 0.08953359 0.14108992
0.043614436 -0.13059375 0.13007393 -0.053668678 0.032218024 0.08907802 -0.18085635 -0.32444715
-0.04726873 -0.09429203 0.21781962 0.2966308 -0.24194305 -0.05637711 -0.17373757 -0.038397793
0.09426107 0.3113895 -0.28252873 -0.2651365 -0.11928743 0.2653703 -0.050595712 -0.119334735
-0.00702727 -0.3572296 -0.10550319 -0.025492318 -0.15445672 0.28289112 0.28877926 0.060103815
0.18153217 0.28474343 0.13569058 0.1833844 0.029776996 -0.2438936 0.066744454 -0.23793499
-0.077902146 0.32233182 0.059151657 0.22057265 0.013247659 0.11937255 0.27975965 -0.13040571
-0.19796637 0.21454318 -0.015289261 -0.01088893 -0.121137865 0.003908637 0.18743831 0.27104327
-0.10621307 -0.29717952 -0.31236872 0.046224184 -0.2744797 0.025144955 0.066952236 -0.33804914
-0.040775754 0.29596376 0.108461134 -0.11540341 -0.023498077 0.25694925 -0.08652071 0.3005501
0.13112628 -0.29237226 -0.25259236 0.054688018 0.050786436 0.115355074 -0.22292826 -0.15746781
0.0674551 0.19764076 -0.23731965 0.109059446 -0.29020524 -0.10471427 -0.001492973 -0.16950123
0.0037350764 0.09765366 -0.12710719 -0.042380724 -0.1833595 -0.042169034 0.24235111 0.14916891
0.0962364 0.08925001 -0.0067524104 0.07004201 0.09236558 -0.28432003 -0.33546942 0.3102666
-0.031484954 0.26901284 -0.23004748 0.1680916 -0.11146211 -0.16889332 -0.11754764 0.04018311
0.11567458 0.12228002 0.0060460255 -0.33077905 -0.30641863 -0.06257541 0.19930685 0.13734537
-0.25849786 -0.01799215 -0.21292455 0.11904876 -0.35502023 -0.13465738 0.23791492 0.19988915
0.21671516 -0.06269876 -0.15682168 0.064642586 -0.21944775 0.15799662 0.27325422 -0.075936586
00000000: 7cec 8abe 59df 0cbe e62b fcbd be3d 83be
00000010: 0b82 6e3e 8899 5b3e 5395 953e a3f8 e0bd
00000020: d8b6 3fbe 09a8 05bd fa68 ac3b a5c2 2b3d
00000030: fd88 8abe 4af1 8c3e 063a 053e fc19 95bd
00000040: d707 3fbe f27d a2be 5f31 12be 1589 983e
00000050: a9e7 563e de93 9d3e 2dd6 50be cdd4 78be
00000060: 28b9 81bd 7ae5 373d 0525 843e a04b 533e
00000070: a520 32be 05c1 463e b046 253e df83 60be
00000080: 5a1c a73e 2b25 d83a c7f5 f4bd dec8 49be
00000090: 84bd 913d f3d2 e93c 6bc2 0abe 09fe 8c3e
000000a0: fbad 3c3e 219b 75be fd1b 46bd c0b8 dc3d
000000b0: 5a55 9bbe edec 013e afbb a9bd 9047 013c
000000c0: 73cc 343e d6de 5f3e d784 45be 2c70 91be
000000d0: 16f4 debd c09b bebe 2588 203e d541 a03e
000000e0: 4931 3cbd 58c0 92bd 2d2e 963e 6cc6 31be
000000f0: 9aad 73bd 8af4 52be 1ee4 8abe 60c5 07be
00000100: 65e6 603e a9f6 abbe c2bc 2dbd 78c4 d93d
00000110: bf62 77be c957 a43e 69ae 9d3e b715 143e
00000120: f3db 813e 3c70 bd3e b5ad db3d 933f ac3e
00000130: 01f6 1abc 94ad 14be 3124 85be 1c97 173e
00000140: b860 103d e9ce 98be 145e 8abd e0a9 6fbe
00000150: 1f61 913e 43f2 853e 14b8 0f3e 140b c03c
00000160: 818e 46be d16f 0ebe 4c1a 923e f97d 68bd
00000170: 4535 88be cf7e 47bd a399 743e 164c 20be
00000180: b0cb 51be 160d a73e 799f 6abd b930 07be
00000190: 16f1 583e 5aa9 65be e95f 98bd 4d40 a23e
000001a0: ab33 acbd 3646 803d aab2 193e 54cf e13d
000001b0: 69c7 183d 37f6 e8bd eb65 8ebe 94f1 82be
000001c0: 5dd7 303d 234b 0dbe 4b89 b0be 7154 31be
000001d0: 28a4 0d3e f254 a73e 635d b73d e079 103e
000001e0: 0da5 323d 5eba 05be 1a32 053e b0d3 5bbd
000001f0: 0cf7 033d 896e b63d 6832 39be f01d a6be
00000200: db9c 41bd 2e1c c1bd 1b0c 5f3e fedf 973e
00000210: ebbf 77be afeb 66bd 43e8 31be 0147 1dbd
00000220: f30b c13d 726e 9f3e 9ba7 90be f9bf 87be
00000230: f84c f4bd 9ede 873e 733d 4fbd c565 f4bd
00000240: 0345 e6bb cce6 b6be 0e12 d8bd 44d5 d0bc
00000250: e729 1ebe 1bd7 903e e0da 933e 6b2f 763d
00000260: 92e3 393e e4c9 913e 79f2 0a3e 1fc9 3b3e
00000270: e3ee f33c 3ebf 79be 51b1 883d 3ba5 73be
00000280: 298b 9fbd ad08 a53e 0249 723d ccdd 613e
00000290: b60c 593c 9879 f43d a83c 8f3e 1389 05be
000002a0: b2b7 4abe 35b1 5b3e cf7f 7abc 7c67 32bc
000002b0: 2117 f8bd 0614 803b d4ef 3f3e 2fc6 8a3e
000002c0: 3d86 d9bd ea27 98be cbee 9fbe 9255 3d3d
000002d0: 9a88 8cbe cbfc cd3c 411e 893d c714 adbe
000002e0: 7a04 27bd 9088 973e df20 de3d 9f58 ecbd
000002f0: 0a7f c0bc da8e 833e c531 b1bd b4e1 993e
00000300: f845 063e d1b1 95be c953 81be 8b00 603d
00000310: 7005 503d 483f ec3d 4e47 64be 3e3f 21be
00000320: e625 8a3d 5762 4a3e ec03 73be 8f5a df3d
00000330: c895 94be 6f74 d6bd dcaf c3ba bb91 2dbe
00000340: 2fc8 743b a4fe c73d 6328 02be 6997 2dbd
00000350: 98c2 3bbe 70b9 2cbd e42a 783e bcbf 183e
00000360: 9717 c53d b6c8 b63d 5343 ddbb 2f72 8f3d
00000370: 2a2a bd3d 6592 91be a6c2 abbe 44db 9e3e
00000380: 5ef6 00bd 0dbc 893e 9191 6bbe 3420 2c3e
00000390: 3f46 e4bd 5ff2 2cbe d1bc f0bd 0b97 243d
000003a0: cbe6 ec3d f26d fa3d bd1d c63b df5b a9be
000003b0: e7e2 9cbe 8927 80bd 1817 4c3e 44a4 0c3e
000003c0: d559 84be 4664 93bc e508 5abe d6cf f33d
000003d0: 36c5 b5be a0e3 09be f89f 733e beaf 4c3e
000003e0: 94ea 5d3e 3568 80bd dd95 20be 5563 843d
000003f0: e9b6 60be dec9 213e fae7 8b3e a484 9bbd

encoder.transformer.in_proj_bias f4 [48]
-0.024552466 0.06491434 -0.0148701435 -0.08976724 0.0887685 -0.020354716 -0.07038482 0.065058306
0.055116948 0.067446455 -0.07225017 0.0858724 0.04799757 -0.013993444 -0.07073263 0.020849295
1.5674674e-08 -2.3532841e-07 -1.5402678e-07 -1.8095088e-08 -3.638108e-07 6.256324e-09 4.5971944e-08 -2.6415944e-07
-3.5460307e-08 -1.7650666e-07 1.5695784e-07 -1.7564382e-07 -1.235522e-07 -4.9347758e-08 2.3581316e-08 -9.13775e-08
-0.027329268 -0.011358224 -0.024710927 -0.027115641 -0.036321715 0.014760988 -0.010143391 -0.06735191
-0.033507895 -0.006998629 0.013544961 0.012697407 0.07103639 -0.07367562 -0.035597395 0.03821366
00000000: 4122 c9bc cff1 843d e7a1 73bc e3d7 b7bd
00000010: 42cc b53d efbe a6bc eb25 90bd 4a3d 853d
00000020: 4fc2 613d 5e21 8a3d e6f7 93bd dedd af3d
00000030: 1a99 443d c244 65bc 45dc 90bd 24cc aa3c
00000040: f9a4 8632 95ae 7cb4 8f62 25b4 856f 9bb2
00000050: c751 c3b4 35f7 d631 b072 4533 ccd1 8db4
00000060: 054d 18b3 c885 3db4 3e88 2834 9b98 3cb4
00000070: c5a9 04b4 6ff2 53b3 dd8f ca32 503b c4b3
00000080: a1e1 dfbc d817 3abc 926e cabc 9f21 debc
00000090: 14c6 14bd 12d8 713c 7730 26bc ccef 89bd
000000a0: 933f 09bd c154 e5bb afeb 5d3c c908 503c
000000b0: 877b 913d 3ee3 96bd 93ce 11bd ed85 1c3d

encoder.transformer.out_proj.weight f4 [16, 16]
0.034460343 -0.029915879 0.2136816 0.17617495 0.12937798 0.23923999 -0.009095233 -0.100869805
0.028774869 -0.0468163 0.061733704 0.047968026 0.1908742 0.02057127 0.050755113 0.10745409
-0.046214383 0.12710902 -0.034449838 -0.03786622 -0.084489666 0.10404727 -0.19081618 -0.14599995
0.02413858 0.026820017 0.17357914 -0.11097073 0.1580558 -0.20652305 -0.020241182 0.08782229
0.14640453 0.21243249 0.22458132 0.1492304 0.2098901 -0.22232106 -0.11131791 0.22220428
-0.17192483 0.24917847 0.04026012 -0.189479 0.14831357 0.09332069 -0.16556244 0.175335
0.063126676 0.09147569 0.033707667 0.1448547 0.07534096 0.046087895 0.066067256 -0.106482655
-0.023994176 0.06804815 0.15914394 -0.2654431 0.11930868 0.20217471 -0.2852834 0.2374925
0.18772535 -0.10109042 0.12749895 0.11511463 0.16572283 0.19045874 -0.10766948 0.23524281
-0.1723079 -0.050539624 -0.09724678 0.17733239 -0.3391158 0.073953636 0.08907215 -0.20618145
-0.26459008 -0.259442 -0.16560835 -0.070292145 0.16574484 -0.15091816 0.16093497 -0.26330107
0.026818078 -0.029457059 -0.20662041 -0.036201023 -0.07551961 -0.26011953 -0.10510205 -0.09038734
-0.18773055 -0.19642606 -0.0031646052 -0.0738875 -0.1483509 0.2067321 -0.077475496 -0.17289257
-0.24152376 -0.24275742 0.14816898 0.1712457 -0.10888101 -0.017983822 -0.04923911 -0.1835076
-0.19132297 -0.083064504 -0.26144135 -0.049895927 -0.07833989 0.20339124 0.1062773 0.02533733
-0.16515456 0.00032392467 0.25894326 0.043021776 0.17867664 0.20243746 0.24255256 0.15925045
0.055044174 0.29423332 -0.12890883 0.060405735 -0.069312334 -0.11978294 -0.08808423 0.19924235
0.13137424 0.069636606 -0.14174129 -0.15086319 -0.20854141 0.12110766 0.038847078 0.008363709
0.053799655 0.25982103 0.29031664 0.05129947 -0.25248036 0.10603343 -0.15762456 -0.15692994
-0.08875069 0.028759396 0.011015581 -0.09443879 0.3362577 -0.28334543 -0.20103712 0.23777758
-0.18153127 -0.17549387 -0.2687007 -0.022587975 0.08556065 0.19036931 1.054867e-05 -0.26973534
-0.2891805 -0.007907898 -0.034035187 0.05391144 -0.05812682 -0.20347661 0.22699437 0.15306322
0.19748005 -0.066769384 0.07417594 0.148007 0.19469646 -0.06443836 -0.14584333 0.101049334
0.002912726 0.024054682 0.15952997 -0.15632258 -0.15391995 0.17347752 0.045354433 -0.26837185
0.18265037 0.035361588 0.3127322 0.14580096 -0.007823452 0.20086886 -0.12434344 -0.15415661
-0.015672725 0.31097907 -0.13217676 0.013520822 -0.15415946 0.17555912 0.1076325 0.12599947
-0.27319357 0.019077037 0.16667922 0.28257328 -0.082930796 -0.23189929 0.24894899 0.23170644
-0.06069089 -0.19491819 0.12104561 -0.1554733 -0.2961731 -0.052630827 0.059802674 -0.20188206
-0.023347773 -0.15972614 0.11602714 0.11371408 0.26444125 -0.25892177 0.26212344 -0.14714217
0.2267595 -0.16545913 -0.15044257 -0.20037657 -0.20112644 -0.09057629 0.069508314 -0.24505414
0.13466355 0.027709987 -0.23537847 -0.14869191 0.03770321 -0.098446734 0.14094557 0.03762931
-0.10340137 0.19383484 -0.24633689 -0.09518414 -0.24666287 0.0923882 -0.08952276 0.10039533
00000000: 4a26 0d3d 2512 f5bc 59cf 5a3e 3567 343e
00000010: a97b 043e 54fb 743e 2c04 15bc d494 cebd
00000020: 46b9 eb3c 73c2 3fbd 7bdc 7c3d 1f7a 443d
00000030: 8774 433e 1485 a83c 98e4 4f3d e410 dc3d
00000040: 4b4b 3dbd de28 023e 461b 0dbd 9c19 1bbd
00000050: eb08 adbd bc16 d53d 5165 43be 0381 15be
00000060: 45be c53c a7b5 db3c bbbe 313e 9f44 e3bd
00000070: 61d9 213e c77a 53be d6d0 a5bc 2cdc b33d
00000080: 12eb 153e e787 593e a5f8 653e dbcf 183e
00000090: 6eed 563e 22a8 63be a5fa e3bd 8589 633e
000000a0: 100d 30be a428 7f3e cce7 243d c806 42be
000000b0: 83df 173e eb1e bf3d 3389 29be 058b 333e
000000c0: 8f48 813d 9b57 bb3d 0d11 0a3d ca54 143e
000000d0: 5c4c 9a3d a9c6 3c3d 454e 873d 9413 dabd
000000e0: 6f8f c4bc d45c 8b3d a1f6 223e 28e8 87be
000000f0: 1c58 f43d e306 4f3e aa10 92be 3c31 733e
00000100: 133b 403e 7e08 cfbd 168f 023e 38c1 eb3d
00000110: 3fb3 293e 9e07 433e d181 dcbd 7ee3 703e
00000120: 7b71 30be a302 4fbd 5229 c7bd 9f96 353e
00000130: 96a0 adbe 0175 973d 766b b63d 3b21 53be
00000140: 5a78 87be 95d5 84be 3c95 29be 54f5 8fbd
00000150: 04b9 293e 4a8a 1abe 23cc 243e 66cf 86be
00000160: 96b1 db3c ee4f f1bc 4d94 53be 8647 14bd
00000170: 06aa 9abd 632e 85be be3f d7bd ff1c b9bd
00000180: 703c 40be ea23 49be 4465 4fbb 5452 97bd
00000190: 4ce9 17be 94b1 533e 79ab 9ebd c00a 31be
000001a0: 0152 77be 6795 78be 9cb9 173e 085b 2f3e
000001b0: 02fd debd cf52 93bc f3ae 49bd 6be9 3bbe
000001c0: 2bea 43be b91d aabd a4db 85be ac5f 4cbd
000001d0: aa70 a0bd cb45 503e eaa7 d93d 3b90 cf3c
000001e0: 471e 29be 6fd4 a939 3694 843e 9a37 303d
000001f0: 02f7 363e c44b 4f3e b35f 783e 8d12 233e
00000200: 0076 613d c0a5 963e ad00 04be 016c 773d
00000210: a0f3 8dbd c250 f5bd 8165 b4bd 3006 4c3e
00000220: f886 063e a39d 8e3d a124 11be e17b 1abe
00000230: e18b 55be 4b07 f83d 1d1e 1f3d f007 093c
00000240: 075d 5c3d 4307 853e 62a4 943e 651f 523d
00000250: 1b45 81be 0e28 d93d 5568 21be 3eb2 20be
00000260: ecc2 b5bd d398 eb3c b27a 343c 2069 c1bd
00000270: f829 ac3e a712 91be addc 4dbe f77b 733e
00000280: 55e3 39be aab4 33be 2393 89be 6b0a b9bc
00000290: 6c3a af3d 2cf0 423e 31fa 3037 c01a 8abe
000002a0: 770f 94be 2190 01bc 7b68 0bbd 3ed2 5c3d
000002b0: 6316 6ebd 2c5c 50be 3671 683e 9bbc 1c3e
000002c0: 3638 4a3e 63be 88bd 8ee9 973d 268f 173e
000002d0: 825e 473e 42f8 83bd f457 15be f4f2 ce3d
000002e0: 6fe3 3e3b 530e c53c d35b 233e 0713 20be
000002f0: 319d 1dbe 17a4 313e 92c5 393d 0968 89be
00000300: b308 3b3e 50d7 103d 6f1e a03e d94c 153e
00000310: f02d 00bc 91b0 4d3e c6a7 febd 3bdb 1dbe
00000320: 1664 80bc a638 9f3e 5859 07be 7086 5d3c
00000330: fadb 1dbe c5c5 333e 6e6e dc3d 0106 013e
00000340: 07e0 8bbe 7247 9c3c f5ad 2a3e 72ad 903e
00000350: 9fd7 a9bd 0277 6dbe 7cec 7e3e 7444 6d3e
00000360: 0397 78bd a298 47be c3e6 f73d 6534 1fbe
00000370: 00a4 97be 6c93 57bd a6f3 743d 2cba 4ebe
00000380: d443 bfbc 408f 23be a39f ed3d ede2 e83d
00000390: d864 873e 6591 84be 0b35 863e 70ac 16be
000003a0: a433 683e 1e6e 29be 9e0d 1abe 842f 4dbe
000003b0: 17f4 4dbe 1080 b9bd 605a 8e3d 79ef 7abe
000003c0: 3ee5 093e 0e00 e33c 0e07 71be b142 18be
000003d0: ae6e 1a3d 719e c9bd 0954 103e 3121 1a3d
000003e0: 19c4 d3bd a47c 463e bd3f 7cbe e7ef c2bd
000003f0: 3195 7cbe 0636 bd3d b557 b7bd 119c cd3d

encoder.transformer.out_proj.bias f4 [16]
0.03535481 -0.0051094657 -0.028300691 0.0019434239 -0.0106663825 0.049438983 0.004677698 0.0063679586
-0.019516693 0.06188318 0.046997707 -0.03214224 -0.044415906 -0.033043552 -0.037196137 -0.012653058
00000000: 35d0 103d 4e6d a7bb dad6 e7bc 7cba fe3a
00000010: 0dc2 2ebc 8880 4a3d 6047 993b 4faa d03b
00000020: 79e1 9fbc 3879 7d3d ab80 403d 95a7 03bd
00000030: 74ed 35bd ad58 07bd fa5a 18bd c64e 4fbc

encoder.ln1.weight f4 [16]
1.0800705 0.97597337 1.0149709 1.0198622 1.0102682 1.0628444 1.0548124 0.94191086
0.9814273 1.04466 1.0149424 0.99497944 1.0552423 0.9556474 0.9598055 0.986986
00000000: c03f 8a3f 64d9 793f 91ea 813f d88a 823f
00000010: 7850 813f 490b 883f 1804 873f 1221 713f
00000020: d23e 7b3f 6bb7 853f a2e9 813f f9b6 7e3f
00000030: 2e12 873f 4fa5 743f d0b5 753f 1dab 7c3f

encoder.ln1.bias f4 [16]
0.006207021 -0.014109473 -0.08329094 0.006021756 -0.04645574 0.067847766 0.014502217 0.016450893
0.009963564 0.09112266 0.0602291 -0.04193967 -0.086181715 -0.036280185 -0.062056217 -0.02732367
00000000: 4464 cb3b 6b2b 67bc 7194 aabd 2752 c53b
00000010: 6048 3ebd c5f3 8a3d b59a 6d3c 06c4 863c
00000020: 373e 233c 849e ba3d cab2 763d eec8 2bbd
00000030: 0a80 b0bd 889a 14bd a92e 7ebd e4d5 dfbc

encoder.ln2.weight f4 [16]
0.99520797 0.94392556 0.95462936 0.98192376 0.93914825 0.9916831 0.97542006 0.91783184
0.9323114 1.0727284 0.91108006 0.97955376 1.0216317 0.9761176 0.9419643 0.92684203
00000000: f3c5 7e3f 1ba5 713f 9762 743f 5b5f 7b3f
00000010: 056c 703f f2de 7d3f 21b5 793f 07f7 6a3f
00000020: f6ab 6e3f 2a4f 893f 8b3c 693f 09c4 7a3f
00000030: d4c4 823f d8e2 793f 9324 713f 8545 6d3f

encoder.ln2.bias f4 [16]
0.02728856 0.03741126 -0.003153128 -0.008031978 0.031990644 0.056536015 0.0036806718 0.046902448
-0.028341804 0.041437507 0.082529895 -0.054280054 -0.044733714 -0.03873888 -0.042452462 -0.036609188
00000000: 428c df3c 8d3c 193d b6a4 4ebb 8f98 03bc
00000010: 9f08 033d 4f92 673d 6d37 713b c81c 403d
00000020: 122d e8bc 60ba 293d 6f05 a93d c354 5ebd
00000030: b33a 37bd a9ac 1ebd a2e2 2dbd 84f3 15bd

decoder.output_head.weight f4 [24, 16]
0.023371564 0.020472383 0.18088901 0.029695302 0.007822296 0.17221071 -0.07518549 -0.0087046195
0.11848507 0.26969844 -0.045009967 0.011016684 0.06719481 -0.107623175 -0.12629592 -0.26769286
0.024585556 0.024442004 -0.15563232 -0.013626744 -0.080518916 0.052563295 -0.17792314 -0.109210595
-0.07983674 -0.10209954 -0.091618724 -0.030307293 0.15887511 0.08865878 0.013088205 -0.08985767
-0.068127066 -0.06569733 -0.18651003 -0.1888468 -0.28628147 -0.13638473 -0.056146406 0.05042502
-0.08303261 0.04044407 -0.100402914 -0.1497493 -0.09490125 0.13075745 0.044780616 0.024603795
-0.03586044 0.07047601 0.20056064 0.18365875 0.18295982 0.11596704 0.033011965 -0.11158363
0.02722951 0.11363363 -0.09029469 0.020332104 -0.15192644 0.09238951 -0.0041311914 -0.17601198
0.17448126 0.10737193 0.045389764 0.102209195 0.12468165 -0.1530314 -0.0033113202 -0.18517686
0.22408943 0.20862794 0.20059064 -0.11180103 0.19197135 -0.1801459 -0.16176167 -0.023822365
-0.22674833 0.14587002 -0.22176144 0.024437407 0.017509257 -0.10062378 0.19303398 0.06592436
-0.06900261 0.16821902 0.028107408 -0.11017783 -0.08922659 -0.18545397 0.12209754 -0.15305124
0.18041234 -0.15418534 -0.049325425 0.019856213 0.174447 -0.031333417 -0.02443713 0.08384553
0.11553972 0.12576059 0.10479818 0.059243817 0.021076031 0.21097837 0.19249018 -0.105687805
0.30326635 0.15444389 -0.052813277 0.2713989 0.027681243 0.1067484 -0.12091944 0.039414927
0.28796333 0.25248513 -0.09688114 0.111342035 0.18003957 0.09733774 -0.18957843 -0.11418089
0.17556435 -0.17780691 -0.12817301 0.074451804 0.2059483 -0.09275856 0.186691 -0.0038821863
0.09269826 -0.20104186 -0.19882496 -0.017176807 0.095948584 -0.052019708 -0.14116892 -0.13394155
-0.042032104 -0.16388415 0.07916587 0.17538716 -0.1334965 -0.063322656 -0.07114695 0.10146062
-0.15700433 0.00028489073 -0.1833711 0.10509604 -0.04715777 0.17118125 -0.22760549 -0.20400208
0.253904 0.14522521 0.14190185 -0.14004527 -0.05430525 0.15909725 -0.11322342 0.1488308
-0.061336674 -0.13877837 0.12036688 -0.24365173 -0.2763588 0.11732694 -0.10149073 0.08432299
0.033052575 -0.033460617 0.046522155 -0.040960044 -0.2771862 -0.15000705 -0.046185873 -0.27195653
-0.017908875 0.14099869 -0.13305774 -0.13849743 0.17010418 -0.2114206 0.072393574 0.03593398
-0.21966091 -0.11278256 0.19399458 -0.041395485 0.018936258 -0.28490776 0.07673114 -0.10889114
0.101178 -0.10934269 -0.23992197 0.08344521 0.19879046 0.051139656 -0.021015527 -0.21399236
0.10052053 0.06444725 0.18249677 0.2032464 0.04475688 -0.16019648 -0.12785615 0.19784361
0.15598889 0.10427387 0.13953494 0.16084114 0.014378318 0.17726657 -0.13366738 0.13505049
0.051915407 0.20836657 -0.15170819 0.06628032 -0.06899886 -0.25022107 0.09646579 0.16569869
0.0943293 -0.01219176 -0.007659907 -0.10469357 0.19322772 -0.011464331 -0.057541072 0.2101933
0.00037012252 0.1229627 -0.14170256 -0.13773552 -0.1816035 0.13036352 0.058662903 -0.076826975
-0.18872593 -0.074375555 -0.17919028 0.07243905 0.07084212 -0.115597725 -0.03025484 -0.014180733
00000000: b975 bf3c b3b5 a73c f83a 393e 9043 f33c
00000010: 1629 003c 0158 303e dafa 99bd d29d 0ebc
00000020: 4da8 f23d ea15 8a3e 5f5c 38bd 527f 343c
00000030: 6f9d 893d 8a69 dcbd b853 01be 0a0f 89be
00000040: a667 c93c 993a c83c 145e 1fbe b542 5fbc
00000050: 1ae7 a4bd 9c4c 573d 7c31 36be cea9 dfbd
00000060: 7281 a3bd 9019 d1bd 99a2 bbbd 0047 f8bc
00000070: 28b0 223e bc92 b53d e96f 563c 4c07 b8bd
00000080: 3486 8bbd 528c 86bd 7cfc 3ebe 0e61 41be
00000090: 7c93 92be 70a8 0bbe c6f9 65bd 778a 4e3d
000000a0: 000d aabd aea8 253d 0ba0 cdbd e157 19be
000000b0: 965b c2bd 48e5 053e e16b 373d e68d c93c
000000c0: 66e2 12bd ba55 903d c55f 4d3e 0a11 3c3e
000000d0: d259 3b3e 2180 ed3d 8e37 073d f585 e4bd
000000e0: 6c10 df3c c0b8 e83d 6cec b8bd 838f a63c
000000f0: 9b92 1bbe b636 bd3d f25e 87bb 7c3c 34be
00000100: 37ab 323e d0e5 db3d 9eea 393d 0e53 d13d
00000110: 1859 ff3d 43b4 1cbe bc02 59bb 019f 3dbe
00000120: b377 653e 90a2 553e a267 4d3e f0f7 e4bd
00000130: 2394 443e 2b78 38be daa4 25be 1f27 c3bc
00000140: b730 68be f35e 153e 6e15 63be f530 c83c
00000150: 936f 8f3c d713 cebd b3aa 453e 5a03 873d
00000160: 3e51 8dbd 9b41 2c3e 8241 e63c eaa4 e1bd
00000170: 6ebc b6bd a5e7 3dbe 460e fa3d 77b9 1cbe
00000180: 03be 383e c3e2 1dbe 7509 4abd 7fa9 a23c
00000190: 3ca2 323e 7857 00bd 6030 c8bc 35b7 ab3d
000001a0: 17a0 ec3d 62c7 003e 6ea0 d63d a5a9 723d
000001b0: a4a7 ac3c b70a 583e 251c 453e d972 d8bd
000001c0: ba45 9b3e 8a26 1e3e bc52 58bd ccf4 8a3e
000001d0: c6c3 e23c e89e da3d 9da4 f7bd 8c71 213d
000001e0: ee6f 933e bb45 813e 9e69 c6bd 4b07 e43d
000001f0: 4b5c 383e 0259 c73d d920 42be acd7 e9bd
00000200: 24c7 333e 0413 36be c93f 03be 307a 983d
00000210: 1ce4 523e 33f8 bdbd ed2b 3f3e 476c 7ebb
00000220: 96d8 bd3d ebdd 4dbe c598 4bbe 60b6 8cbc
00000230: b180 c43d 9e12 55bd 968e 10be f927 09be
00000240: db29 2cbd 3fd1 27be b721 a23d b198 333e
00000250: 4eb3 08be 4faf 81bd 7eb5 91bd 96ca cf3d
00000260: bec5 20be 635d 9539 a2c5 3bbe 983c d73d
00000270: 8128 41bd 234a 2f3e 6a11 69be ece5 50be
00000280: b5ff 813e ebb5 143e b84e 113e 0768 0fbe
00000290: 2f6f 5ebd 64ea 223e aee1 e7bd 1a67 183e
000002a0: 2a3c 7bbd eb1b 0ebe e982 f63d d77f 79be
000002b0: e77e 8dbe 1b49 f03d 5fda cfbd 88b1 ac3d
000002c0: 2362 073d 000e 09bd 048e 3e3d b8c5 27bd
000002d0: 59eb 8dbe 739b 19be 662d 3dbd e33d 8bbe
000002e0: a2b5 92bc f661 103e 4a40 08be 45d2 0dbe
000002f0: ca2f 2e3e a47e 58be 1543 943d 822f 133d
00000300: caee 60be 8bfa e6bd 84a6 463e 508e 29bd
00000310: 3620 9b3c 6edf 91be 3725 9d3d 5102 dfbd
00000320: 6936 cf3d 0fef dfbd 1bae 75be 52e5 aa3d
00000330: ba8f 4b3e d177 513d c128 acbc d020 5bbe
00000340: b5dd cd3d ebfc 833d 6fe0 3a3e d31f 503e
00000350: fd52 373d 8c0a 24be b9ec 02be 8497 4a3e
00000360: 8dbb 1f3e 8a8d d53d 3fe2 0e3e 8ab3 243e
00000370: 0993 6b3c 5e85 353e 1ae0 08be ad4a 0a3e
00000380: 40a5 543d 0c5e 553e 6459 1bbe fabd 873d
00000390: 464f 8dbd fa1c 80be db8f c53d ebac 293e
000003a0: b82f c13d f3bf 47bc f5ff fabb 9569 d6bd
000003b0: 7ddd 453e e4d4 3bbc 30b0 6bbd ea3c 573e
000003c0: 010d c239 ded3 fb3d 7a1a 11be 8a0a 0dbe
000003d0: 45f6 39be 047e 053e 8348 703d 7657 9dbd
000003e0: 5f41 41be 3652 98bd a87d 37be ed5a 943d
000003f0: ac15 913d 80be ecbd 00d9 f7bc 4e56 68bc

decoder.output_head.bias f4 [24]
-0.15819336 0.100850806 -0.24240595 -0.0117325345 0.033307053 -0.006792809 -0.018790338 -0.1713262
0.15933648 -0.08219471 -0.1181034 0.21440822 -0.17369461 -0.013874871 -0.05405588 -0.18456015
-0.24167396 -0.053636834 -0.17461793 0.11232777 -0.16445574 -0.09675326 0.1557017 -0.14258882
00000000: 71fd 21be de8a ce3d 4439 78be d139 40bc
00000010: fa6c 083d 3696 debb 32ee 99bc 2370 2fbe
00000020: 1a29 233e b355 a8bd 32e0 f1bd d48d 5b3e
00000030: 00dd 31be 6d53 63bc b369 5dbd 56fd 3cbe
00000040: 6179 77be 4cb2 5bbd 0bcf 32be 1a0c e63d
00000050: 1667 28be 9326 c6bd 4470 1f3e ce02 12be
