experiments/model_32_40_2026-01-18_3649/model.pt (torch, 93423 bytes, 18 tensors)

encoder.graph_embed.GCN_in.A f4 [9, 9]
1.114071 0.11388712 0.01551706 -0.38214737 0.03660034 -1.221068 0.53359115 1.0600687
-1.3714026 -0.95237696 -0.25188056 -0.3611197 0.2826444 -2.7782733 -0.5996098 -0.5668753
1.5448902 -0.42447558 0.09288553 0.615809 -0.3302846 -1.0058893 0.73447615 0.5791229
-1.2396435 -0.5346962 -1.0663282 0.96952915 -0.50632656 -0.32206118 -0.5769407 -0.54236937
1.6155996 -0.59578025 -1.320502 -1.0522407 0.71577203 -1.6648923 0.84872234 -0.877991
0.53796035 -0.13812879 -0.36798725 0.1776248 1.1072427 -0.7353738 -0.21971306 -0.1159588
0.08077558 -0.06322812 0.9941267 0.2851639 -0.19648637 0.21578948 -2.0170448 0.00848723
1.3796551 0.26175246 -0.4226942 0.44425845 0.5694405 0.038148437 -1.0450157 -1.4886043
1.0242586 -0.78794533 -0.34094372 1.7775778 -2.7428439 -2.8514266 -1.9523562 -0.40657467
0.22469474 -0.22273512 0.56270945 -1.8524425 -0.7830096 -1.8832728 0.83044213 -1.165849
-0.33993956
00000000: e199 8e3f a63d e93d 443b 7e3c d2a8 c3be
00000010: 3dea 153d f54b 9cbf 6e99 083f 55b0 873f
00000020: 1f8a afbf face 73bf 7df6 80be aee4 b8be
00000030: c4b6 903e 3bcf 31c0 0780 19bf bd1e 11bf
00000040: f6be c53f dd54 d9be c53a be3d a9a5 1d3f
00000050: 101b a9be fbc0 80bf a106 3c3f 6641 143f
00000060: a3ac 9ebf dae1 08bf 717d 88bf 1033 783f
00000070: 9e9e 01bf 34e5 a4be 63b2 13bf b8d8 0abf
00000080: f8cb ce3f 0e85 18bf 3606 a9bf d3af 86bf
00000090: d63c 373f 311b d5bf de45 593f 05c4 60bf
000000a0: c5b7 093f a271 0dbe d368 bcbe 47e3 353e
000000b0: 21ba 8d3f 7541 3cbf 76fc 60be cf7b edbd
000000c0: ab6d a53d bf7d 81bd 167f 7e3f 0101 923e
000000d0: b933 49be ebf7 5c3e 4317 01c0 060e 0b3c
000000e0: 8a98 b03f 6b04 863e 606b d8be d875 e33e
000000f0: dac6 113f 8941 1c3d 13c3 85bf 968a bebf
00000100: e81a 833f c9b6 49bf 2d90 aebe ab87 e33f
00000110: c18a 2fc0 c67d 36c0 cfe6 f9bf 8e2a d0be
00000120: 6116 663e ad14 64be ba0d 103f d61c edbf
00000130: 5173 48bf 150f f1bf db97 543f 8a3a 95bf
00000140: 8f0c aebe

encoder.graph_embed.GCN_in.linear.weight f4 [32, 16]
0.15033598 0.092873186 -0.14754584 0.17084756 -0.203999 0.21312055 0.13062093 -0.055182658
-0.22990215 0.041625742 -0.19203353 0.007085027 0.041548833 -0.109678164 -0.09546061 -0.021534612
-0.2285999 -0.18316413 -0.08534368 -0.11026021 0.13875067 0.0933613 0.00041655567 0.103262246
0.14309749 -0.017246068 0.22958513 0.06189079 0.0014809784 0.05924292 0.11354767 -0.06400577
-0.21460798 -0.23482369 -0.17299637 0.11747926 0.031699624 -0.13164067 -0.12220149 0.2050517
0.042346016 0.1718238 0.0037344617 0.13123667 -0.050159156 0.026088782 0.032347243 0.066429086
0.10018156 0.32355264 -0.018989507 0.083677955 -0.28453892 0.16282575 0.14450325 0.044726413
0.07256829 -0.28557527 -0.054028153 -0.049375918 -0.07535607 0.1164781 0.027860546 -0.016538609
0.08033894 -0.06656449 -0.057156425 -0.11915513 0.13578884 -0.14383093 -0.061284855 -0.19045892
-0.0058855 0.047444686 -0.10005619 0.03852491 -0.0063560344 0.01507274 0.031092089 -0.0071365605
-0.074020006 0.11648878 0.17320085 0.17292553 -0.1289419 -0.24140246 -0.12629844 0.20904228
0.2837549 -0.13701458 -0.27106443 0.0068565807 -0.046748687 0.12979032 0.12467859 0.15955235
0.27787134 -0.050458238 0.08364327 -0.2274052 -0.10396791 0.16315484 0.23337212 0.2581198
-0.010430275 0.21843626 0.15842384 0.0891837 0.0960844 0.03538118 -0.049726818 -0.14656083
0.043987114 -0.16708913 0.13401514 0.23528658 -0.03302309 -0.08540472 0.21967825 -0.19278131
-0.23850045 0.033619635 -0.17715459 0.079481885 -0.06177663 0.0905538 0.13563044 0.17086005
-0.18408895 0.28195947 0.0875956 0.032940064 -0.08488197 -0.026846625 -0.09247221 -0.012591933
0.20187424 0.060123973 0.25144997 0.23945779 0.0030045684 -0.0881278 -0.04030235 -0.12212607
-0.11537633 -0.029481335 0.1326598 0.0035435217 0.08359262 -0.23794319 0.1388461 -0.18973206
-0.28746095 0.19486354 -0.15967555 -0.15138401 0.17935395 -0.10966941 0.101194784 0.14116935
0.11202249 -0.107652 0.17690526 -0.31404752 -0.01558702 -0.21736664 0.35243958 -0.18981011
-0.11361755 0.07512448 -0.101394996 -0.114056796 0.0053116926 0.069820605 -0.09573392 0.036652796
0.23736738 -0.10197833 -0.027864046 0.24905473 0.1987793 -0.06755544 0.10824561 -0.039377864
-0.24265607 0.09969036 -0.14958754 -0.031403452 0.004699968 -0.053583678 0.027932072 -0.08470423
0.06549389 -0.19988352 -0.0017759704 0.12271475 -0.18866006 -0.13047262 -0.09612345 0.019009449
0.07527863 -0.23107328 0.23867914 0.06488099 -0.083655566 -0.06312411 0.02519608 -0.08310768
0.045075264 0.22978948 -0.2709214 -0.19357865 0.06531767 0.14480434 -0.032732822 -0.16471225
-0.07359198 -0.23666105 -0.3053013 -0.09652383 0.12625466 -0.07284543 0.13075688 -0.157253
0.15306568 -0.16029528 0.13368137 -0.17508827 -0.24286805 0.17000426 0.12524812 -0.09140049
0.064658746 -0.07520525 -0.076043166 0.1072729 0.18386655 0.03517522 0.20135598 0.290033
0.040445894 0.011639688 0.03790788 0.23704137 0.04489325 0.08691269 -0.27044833 -0.19029696
-0.03280632 -0.1381895 -0.2915437 0.14089876 0.08686819 0.0011483019 0.06229986 -0.005846241
00000000: adf1 193e 4c34 be3d 4216 17be aaf2 2e3e
00000010: 1de5 50be 463c 5a3e 7ec1 053e 3607 62bd
00000020: 786b 6bbe c17f 2a3d 70a4 44be 8429 e83b
00000030: 1c2f 2a3d f29e e0bd da80 c3bd 5b69 b0bc
00000040: 1816 6abe 618f 3bbe abc8 aebd 1bd0 e1bd
00000050: a814 0e3e 3634 bf3d 2865 da39 287b d33d
00000060: 2688 123e a047 8dbc 5d18 6b3e 3281 7d3d
00000070: 641d c23a b4a8 723d ae8b e83d 7515 83bd
00000080: 32c2 5bbe 9f75 70be f625 31be f798 f03d
00000090: 77d7 013d d0cc 06be c644 fabd 13f9 513e
000000a0: 0473 2d3d 94f2 2f3e dfbd 743b e862 063e
000000b0: b073 4dbd 24b8 d53c 8b7e 043d f90b 883d
000000c0: fd2b cd3d b1a8 a53e e28f 9bbc 595f ab3d
000000d0: 16af 91be cbbb 263e a9f8 133e 0b33 373d
000000e0: af9e 943d ec36 92be a04c 5dbd 673e 4abd
000000f0: 4954 9abd 128c ee3d cd3b e43c fa7b 87bc
00000100: be88 a43d f752 88bd db1c 6abd 9b07 f4bd
00000110: 3b0c 0b3e 6a48 13be d405 7bbd aa07 43be
00000120: 27db c0bb 5c55 423d 42ea ccbd 4ccc 1d3d
00000130: 4846 d0bb a7f3 763c d6b4 fe3c cfd9 e9bb
00000140: cd97 97bd ab91 ee3d 905b 313e 6413 313e
00000150: 5809 04be 3532 77be 6154 01be 2e0f 563e
00000160: 5248 913e 8d4d 0cbe f5c8 8abe 2bad e03b
00000170: 8d7b 3fbd c1e7 043e 7d57 ff3d b161 233e
00000180: 2745 8e3e 4cad 4ebd 2a4d ab3d e9dc 68be
00000190: 21ed d4bd 1012 273e 1af9 6e3e 4728 843e
000001a0: bfe3 2abc c1ad 5f3e dc39 223e f2a5 b63d
000001b0: e6c7 c43d dbeb 103d 59ae 4bbd 0b14 16be
000001c0: d52b 343d 6a19 2bbe 443b 093e f7ee 703e
000001d0: 3843 07bd abe8 aebd 56f3 603e 7768 45be
000001e0: 7639 74be beb4 093d 0368 35be 66c7 a23d
000001f0: 7e09 7dbd 4574 b93d b5e2 0a3e f0f5 2e3e
00000200: d081 3cbe fe5c 903e 5265 b33d 29ec 063d
00000210: 99d6 adbd 74ed dbbc 1262 bdbd 654e 4ebc
00000220: 1fb8 4e3e 8e44 763d 0dbe 803e 6c34 753e
00000230: 4be8 443b 597c b4bd 1414 25bd 3c1d fabd
00000240: 6d4a ecbd d782 f1bc f8d7 073e 6e3a 683b
00000250: 9c32 ab3d 61a7 73be ac2d 0e3e 1f49 42be
00000260: 152e 93be 4f8a 473e fd81 23be 6904 1bbe
00000270: 90a8 373e 5b9a e0bd 363f cf3d b38e 103e
00000280: 0c6c e53d a778 dcbd a726 353e d6ca a0be
00000290: b360 7fbc 5c95 5ebe f672 b43e 955d 42be
000002a0: 51b0 e8bd ddda 993d 2ea8 cfbd 9c96 e9bd
000002b0: b50d ae3b 1bfe 8e3d 2510 c4bd 3e21 163d
000002c0: 6f10 733e 04da d0bd 2443 e4bc 3408 7f3e
000002d0: cd8c 4b3e 825a 8abd e0af dd3d af4a 21bd
000002e0: d57a 78be 762a cc3d 7a2d 19be e8a0 00bd
000002f0: 3002 9a3b 8f7a 5bbd cdd1 e43c 6979 adbd
00000300: a921 863d 44ae 4cbe aec7 e8ba df51 fb3d
00000310: 1a30 41be 9d9a 05be 5fdc c4bd b4b9 9b3c
00000320: af2b 9a3d 799e 6cbe 4e68 743e 53e0 843d
00000330: 9c53 abbd 3747 81bd 0268 ce3c 5c34 aabd
00000340: d7a0 383d ef4d 6b3e 36b6 8abe 7b39 46be
00000350: 45c5 853d 9747 143e da12 06bd 54aa 28be
00000360: 64b7 96bd 4657 72be 7450 9cbe 49ae c5bd
00000370: e748 013e fc2f 95bd 22e5 053e ee06 21be
00000380: 40bd 1c3e 7224 24be c5e3 083e 574a 33be
00000390: 67b2 78be 9915 2e3e 0b41 003e 2e30 bbbd
000003a0: ce6b 843d 3605 9abd 85bc 9bbd e5b1 db3d
000003b0: 8347 3c3e e413 103d 4330 4e3e 357f 943e
000003c0: 98aa 253d 64b4 3e3c 4b45 1b3d f9ba 723e
000003d0: fce1 373d 48ff b13d 3478 8abe 35dd 42be
000003e0: eb5f 06bd 8c81 0dbe 3745 95be c447 103e
000003f0: f3e7 b13d 9e82 963a 232e 7f3d d391 bfbb

encoder.graph_embed.GCN_in.linear.bias f4 [32]
0.07261688 -0.006276744 0.091464415 -0.089774355 0.013155329 0.19041538 -0.04986108 0.08214314
-0.034795396 0.13768531 0.16400479 -0.15291694 0.065613866 0.04762593 -0.14708896 0.01798148
0.01233407 -0.05604663 -0.05394073 -0.035906993 0.05191327 -0.0074972585 0.019912189 0.03260713
-0.12621588 0.16246088 -0.10753813 -0.05835999 0.06750949 -0.073638335 -0.03165355 0.051846966
00000000: 29b8 943d 25ad cdbb b251 bb3d 9edb b7bd
00000010: 7389 573c 40fc 423e 223b 4cbd aa3a a83d
00000020: 9e85 0ebd 61fd 0c3e dff0 273e 4296 1cbe
00000030: 9060 863d 6813 433d 7d9e 16be e64d 933c
00000040: d714 4a3c 2791 65bd f4f0 5cbd 3613 13bd
00000050: 02a3 543d 90ab f5bb e31e a33c 0e8f 053d
00000060: bc3e 01be 255c 263e f33c dcbd e30a 6fbd
00000070: 6a42 8a3d b2cf 96bd 27a7 01bd 7c5d 543d

encoder.graph_embed.bn.weight f4 [32]
1.06171 0.89411885 1.0168257 1.0077538 1.0174698 0.9382227 0.9641788 1.0076407
0.9888854 0.9598717 0.9562756 0.8986883 0.9135356 0.901805 0.84856486 1.0728935
1.0060774 0.9706304 0.99261725 0.94921803 0.99640256 0.94682884 1.0209299 1.0331931
0.9710419 0.99549294 1.0561931 0.95115566 0.99800646 0.94565725 1.0046663 1.0308746
00000000: 1de6 873f f9e4 643f 5827 823f 14fe 803f
00000010: 733c 823f 5d2f 703f 6cd4 763f 5ffa 803f
00000020: 9827 7d3f 27ba 753f 7ace 743f 7010 663f
00000030: 78dd 693f b1dc 663f 8c3b 593f 9354 893f
00000040: 25c7 803f 3c7b 783f 2a1c 7e3f f4ff 723f
00000050: 3d14 7f3f 6063 723f d5ad 823f ac3f 843f
00000060: 3496 783f a0d8 7e3f 5631 873f f07e 733f
00000070: 5a7d 7f3f 9816 723f e898 803f b3f3 833f

encoder.graph_embed.bn.bias f4 [32]
-0.010441196 -0.042265262 0.022908833 -0.03473885 -0.021479191 0.00543566 -0.059596747 -0.00865243
-0.02609724 -0.0103071 0.04207692 0.0016533188 0.06652457 0.04570641 0.06255051 -0.025678188
-0.02736129 0.02594195 -0.07380269 0.037082255 0.00041997514 0.07513585 0.019595688 -0.024926472
-0.04506123 0.023210296 -0.047328282 0.018086027 -0.017509429 0.046977878 0.0077654626 -0.017426629
00000000: 8d11 2bbc 571e 2dbd 4eab bb3c 534a 0ebd
00000010: 21f5 afbc 9f1d b23b b81b 74bd ecc2 0dbc
00000020: e1c9 d5bc 1cdf 28bc d958 2c3d 2cb4 d83a
00000030: 093e 883d a536 3b3d 7b1a 803d 105b d2bc
00000040: c924 e0bc 3684 d43c dd25 97bd 90e3 173d
00000050: 1c30 dc39 d3e0 993d 2387 a03c 9a32 ccbc
00000060: 2092 38bd 8523 be3c 4ddb 41bd 2629 943c
00000070: ef6f 8fbc e06b 403d 6c75 fe3b 4ac2 8ebc

encoder.graph_embed.bn.running_mean f4 [32]
0.054627933 0.09766923 0.12932879 0.054619167 0.0232285 0.2326587 0.10784348 -0.0037932275
0.018983247 -0.005402462 -0.04794541 0.0110784145 0.16393316 0.22314656 0.039540503 0.14312235
0.046166427 -0.053762507 0.014572579 0.07186325 0.008913693 0.00059083133 0.05201932 0.044286605
-0.039909758 0.18788674 0.081968665 0.06516597 0.021067165 -0.07351993 0.05040385 0.11588465
00000000: 8ac1 5f3d ce06 c83d c46e 043e 59b8 5f3d
00000010: b249 be3c 153e 6e3e 0bdd dc3d cc97 78bb
00000020: c182 9b3c 2307 b1bb 6862 44bd 3d82 353c
00000030: 18de 273e 8880 643e 39f5 213d aa8e 123e
00000040: 0219 3d3d 1336 5cbd d4c1 6e3c 0a2d 933d
00000050: bd0a 123c 05e2 1a3a 3612 553d df65 353d
00000060: 6a78 23bd 6265 403e 30df a73d bc75 853d
00000070: 0c95 ac3c 9e91 96bd 4474 4e3d ee54 ed3d

encoder.graph_embed.bn.running_var f4 [32]
0.033869974 0.022399481 0.017596493 0.03583248 0.009202258 0.055377837 0.094536856 0.027143924
0.008501839 0.042172883 0.017453413 0.05289176 0.030251894 0.11275874 0.052226953 0.03715683
0.05459196 0.006996752 0.025094485 0.023212645 0.017721651 0.010429218 0.018800281 0.0469943
0.009296542 0.13272472 0.1338984 0.055101585 0.019879548 0.019194402 0.01887796 0.043266978
00000000: 3ebb 0a3d 1e7f b73c 8526 903c 14c5 123d
00000010: 11c5 163c dfd3 623d 8a9c c13d ef5c de3c
00000020: 4c4b 0b3c 79bd 2c3d 76fa 8e3c 08a5 583d
00000030: d2d2 f73c 0eee e63d eeeb 553d c331 183d
00000040: d29b 5f3d 0345 e53b f392 cd3c 7228 be3c
00000050: ff2c 913c 50df 2a3c 0c03 9a3c 187d 403d
00000060: 8650 183c fde8 073e aa1c 093e 33b2 613d
00000070: 6fda a23c 943d 9d3c f4a5 9a3c b738 313d

encoder.pos_enc.pe f4 [500, 32]
0.0 1.0 0.0 1.0 0.0 1.0 0.0 1.0
0.0 1.0 0.0 1.0 0.0 1.0 0.0 1.0
0.0 1.0 0.0 1.0 0.0 1.0 0.0 1.0
0.0 1.0 0.0 1.0 0.0 1.0 0.0 1.0
0.84147096 0.54030234 0.53316844 0.8460091 0.3109836 0.9504153 0.17689219 0.9842302
0.099833414 0.9950042 0.05620449 0.9984193 0.031617504 0.99950004 0.017781857 0.99984187
0.009999833 0.99995 0.0056233825 0.9999842 0.0031622713 0.999995 0.0017782785 0.99999845
0.0009999998 0.9999995 0.0005623411 0.9999998 0.00031622782 0.99999994 0.00017782794 1.0
0.9092974 -0.41614684 0.9021307 0.43146282 0.5911271 0.8065784 0.34820527 0.93741834
0.19866931 0.9800666 0.1122313 0.9936821 0.063203394 0.9980007 0.03555809 0.9993676
0.019998666 0.9998 0.011246587 0.99993676 0.006324511 0.99998003 0.0035565514 0.9999937
0.0019999985 0.99999803 0.0011246821 0.99999934 0.0006324556 0.9999998 0.00035565588 0.99999994
0.14112 -0.9899925 0.9932532 -0.11596616 0.8126489 0.58275366 0.5085361 0.86104065
0.2955202 0.9553365 0.16790329 0.9858035 0.094726086 0.99550337 0.053323083 0.9985773
0.0299955 0.99955004 0.016869437 0.9998577 0.009486687 0.999955 0.005334813 0.99998575
0.0029999954 0.9999955 0.0016870227 0.99999857 0.00094868336 0.9999996 0.0005334838 0.9999999
-0.7568025 -0.6536436 0.7784717 -0.6276797 0.95358074 0.30113748 0.652828 0.7575062
0.38941833 0.921061 0.22304447 0.9748083 0.12615407 0.99201065 0.07107121 0.9974712
0.039989334 0.9992001 0.022491753 0.99974704 0.01264877 0.99992 0.0071130577 0.9999747
0.003999989 0.999992 0.0022493629 0.9999975 0.0012649109 0.9999992 0.0007113117 0.99999976
-0.9589243 0.2836622 0.32393527 -0.94607925 0.99994653 -0.010342338 0.77652997 0.6300803
0.47942552 0.87758255 0.2774805 0.96073127 0.15745588 0.987526 0.08879686 0.99604976
0.049979165 0.99875027 0.028113356 0.99960476 0.015810724 0.999875 0.00889128 0.9999605
0.004999979 0.9999875 0.0028117022 0.99999607 0.0015811383 0.99999875 0.0008891396 0.9999996
-0.2794155 0.96017027 -0.23036751 -0.9731037 0.9471482 -0.3207964 0.8757405 0.48278204
0.5646424 0.8253356 0.3310393 0.943617 0.18860027 0.98205394 0.10649444 0.9943133
0.059964005 0.99820054 0.033734076 0.99943084 0.018972522 0.99982 0.0106694745 0.9999431
0.0059999637 0.999982 0.0033740408 0.99999434 0.0018973658 0.9999982 0.0010669674 0.99999946
0.6569866 0.75390226 -0.7137213 -0.7004298 0.8004216 -0.5994375 0.9473307 0.320257
0.6442176 0.7648422 0.38355154 0.9235195 0.2195561 0.9755999 0.12415834 0.9922624
0.06994285 0.997551 0.03935372 0.9992253 0.022134129 0.999755 0.012447635 0.9999225
0.006999942 0.9999755 0.0039363783 0.99999225 0.0022135929 0.99999756 0.0012447953 0.9999992
00000000: 0000 0000 0000 803f 0000 0000 0000 803f
00000010: 0000 0000 0000 803f 0000 0000 0000 803f
00000020: 0000 0000 0000 803f 0000 0000 0000 803f
00000030: 0000 0000 0000 803f 0000 0000 0000 803f
00000040: 0000 0000 0000 803f 0000 0000 0000 803f
00000050: 0000 0000 0000 803f 0000 0000 0000 803f
00000060: 0000 0000 0000 803f 0000 0000 0000 803f
00000070: 0000 0000 0000 803f 0000 0000 0000 803f
00000080: a46a 573f 4151 0a3f ba7d 083f 0d94 583f
00000090: 3e39 9f3e 6b4e 733f 3a23 353e 83f6 7b3f
000000a0: 7675 cc3d 98b8 7e3f ae36 663d 6898 7f3f
000000b0: 5b81 013d 3cdf 7f3f 42ab 913c a3f5 7f3f
000000c0: 57d6 233c b9fc 7f3f 5a44 b83b f7fe 7f3f
000000d0: 1c3e 4f3b acff 7f3f 2015 e93a e6ff 7f3f
000000e0: 6d12 833a f8ff 7f3f 136a 133a fdff 7f3f
000000f0: 61cb a539 ffff 7f3f 5377 3a39 0000 803f
00000100: b7c7 683f 3311 d5be 0af2 663f b2e8 dc3e
00000110: 1b54 173f ec7b 4e3f f647 b23e a6fa 6f3f
00000120: f86f 4b3e a5e5 7a3f 86d9 e53d f361 7e3f
00000130: c870 813d f97c 7f3f 5ca5 113d 8ed6 7f3f
00000140: 3ed4 a33c e5f2 7f3f 9b43 383c dbfb 7f3f
00000150: d83d cf3b b1fe 7f3f 0815 693b 96ff 7f3f
00000160: 6812 033b dfff 7f3f 126a 933a f5ff 7f3f
00000170: 60cb 253a fdff 7f3f 5377 ba39 ffff 7f3f
00000180: c381 103e 2670 7dbf d745 7e3f ab7f edbd
00000190: c209 503f 582f 153f 6c2f 023f 296d 5c3f
000001a0: 6c4e 973e ef90 743f d7ee 2b3e 9e5d 7c3f
000001b0: c0ff c13d 4fd9 7e3f 4e69 5a3d c3a2 7f3f
000001c0: 1fb9 f53c 83e2 7f3f c631 8a3c adf6 7f3f
000001d0: 0d6e 1b3c 0dfd 7f3f a8cf ae3b 11ff 7f3f
000001e0: 929b 443b b5ff 7f3f 171f dd3a e8ff 7f3f
000001f0: 10b1 783a f9ff 7f3f 7ed9 0b3a feff 7f3f
00000200: cfbd 41bf 3055 27bf ec49 473f 9eaf 20bf
00000210: de1d 743f b12e 9a3e bc1f 273f edeb 413f
00000220: d761 c73e a7ca 6b3f c565 643e 098d 793f
00000230: 882e 013e 69f4 7d3f c88d 913d 465a 7f3f
00000240: dbcb 233d 94cb 7f3f a040 b83c 6cef 7f3f
00000250: c93c 4f3c c2fa 7f3f a714 e93b 58fe 7f3f
00000260: 5712 833b 7aff 7f3f 0c6a 133b d6ff 7f3f
00000270: 5ecb a53a f3ff 7f3f 5277 3a3a fcff 7f3f
00000280: 107c 75bf 2c3c 913e d8da a53e 4032 72bf
00000290: 7ffc 7f3f e972 29bc abca 463f f14c 213f
000002a0: 4377 f53e 40a9 603f ed11 8e3e 7cf2 753f
000002b0: 1d3c 213e 81ce 7c3f 21db b53d 1efd 7e3f
000002c0: f4b6 4c3d 19ae 7f3f fb4d e63c 19e6 7f3f
000002d0: 7e85 813c cff7 7f3f bbac 113c 69fd 7f3f
000002e0: ddd6 a33b 2eff 7f3f 8944 383b beff 7f3f
000002f0: 333e cf3a ebff 7f3f 2615 693a f9ff 7f3f
00000300: 8c0f 8fbe b8cd 753f 76e5 6bbe 531d 79bf
00000310: 4e78 723f 6d3f a4be 8830 603f 352f f73e
00000320: 688c 103f 3249 533f fc7d a93e e290 713f
00000330: 6e20 413e e367 7b3f c219 da3d 518b 7e3f
00000340: d19c 753d 128a 7f3f be2c 0a3d b3da 7f3f
00000350: 436c 9b3c 34f4 7f3f 05cf 2e3c 45fc 7f3f
00000360: 589b c43b d2fe 7f3f 031f 5d3b a1ff 7f3f
00000370: 08b1 f83a e2ff 7f3f 7cd9 8b3a f7ff 7f3f
00000380: 4630 283f bdff 403f 70b6 36bf 5e4f 33bf
00000390: 6ee8 4c3f bc74 19bf 4484 723f baf8 a33e
000003a0: 72eb 243f b3cc 433f de60 c43e c66b 6c3f
000003b0: 50d3 603e eac0 793f ba46 fe3d e904 7e3f
000003c0: 323e 8f3d 815f 7f3f 5e31 213d 3bcd 7f3f
000003d0: a252 b53c f2ef 7f3f 2af1 4b3c ecfa 7f3f
000003e0: c55f e53b 65fe 7f3f bcfc 803b 7eff 7f3f
000003f0: ed11 113b d7ff 7f3f 6628 a33a f3ff 7f3f

encoder.transformer.in_proj_weight f4 [96, 32]
0.17125873 -0.063840635 -0.02132927 -0.09964867 -0.17679532 -0.012155254 -0.13630249 0.1183771
-0.24465594 0.089262046 -0.1099751 -0.031490404 -0.017656012 0.057221368 0.002700883 0.19687761
-0.1115392 -0.11684666 -0.024671996 -0.017008008 0.15667507 0.13323355 -0.103222325 0.07937238
0.023464272 0.22343741 0.2197011 -0.09119049 -0.10961319 -0.17259048 -0.058584217 0.14091733
-0.0888979 -0.2311594 -0.1112917 -0.21454914 -0.078728646 0.11467779 -0.24827228 0.20890622
0.13914002 0.07995657 -0.050104726 -0.21167752 0.24241136 0.14697093 -0.010457528 -0.11125432
-0.29147276 0.1313703 -0.03542611 -0.08584713 0.118182585 -0.14947146 0.04115694 -0.11002749
0.07383749 0.17758417 0.12493645 -0.063831195 -0.08046023 -0.000120526616 0.019757109 0.025220625
-0.00797387 -0.06016687 0.089257725 -0.049416307 -0.2758622 0.16288799 0.14677733 0.09824284
-0.1639857 0.12881416 0.15632062 0.021380974 -0.015460112 0.044479035 0.16383025 0.08954047
0.08859041 -0.0064293053 -0.24797735 -0.039894555 -0.08756375 -0.20750108 -0.010567339 -0.069773465
0.06435053 0.07188007 -0.028698595 -0.014769217 0.027833488 0.014625807 0.18319096 0.02284646
0.0132989045 0.04506367 -0.032066274 -0.16676408 0.13754232 -0.06676227 0.19863826 0.15901561
-0.114808775 -0.09506907 0.22111931 -0.14724205 0.14241792 0.1710984 -0.0005349075 -0.18245773
0.031401273 -0.07571122 0.045767777 0.0013927207 0.2077076 -0.21440493 -0.20742093 -0.16014178
-0.017309867 -0.014773098 -0.16605838 0.12132192 -0.17729653 0.091060586 0.17834906 0.100056104
0.20501684 -0.0007202759 -0.17704406 0.11362795 -0.2502166 0.13275342 -0.0035354837 0.13553868
-0.15788063 -0.08583364 0.18138602 0.06361927 0.015014932 0.1374554 -0.007958868 0.10640699
-0.17731266 0.17849618 -0.1575876 0.13171932 0.00930269 0.08890971 -0.060900282 0.18173225
-0.14337352 -0.20244576 -0.12194323 0.07503079 0.11260068 0.13062216 0.1510698 0.091004305
-0.103508376 -0.046524502 -0.21545523 0.0955884 -0.06961836 0.047791954 0.12554415 0.15007903
-0.08563416 -0.12627949 0.21381474 -0.03605787 0.13716778 -0.09406691 -0.062238514 0.00815748
-0.021293806 -0.028153293 -0.15339501 -0.11705709 0.043589033 0.09409351 -0.17290477 -0.17610121
0.21541615 -0.07025192 -0.12607183 0.21018532 0.18862729 0.02389844 0.17136319 -0.11848929
-0.059378788 0.23511407 0.17793922 0.20202848 -0.18407924 -0.12250851 -0.17657472 -0.055706613
0.0046449318 0.026206918 -0.17284434 -0.20583037 0.28140652 -0.2095706 0.061246376 -0.09483686
0.078330405 0.10256839 -0.28454033 -0.016887022 -0.21014915 0.182852 -0.19668084 -0.19705923
0.21643125 0.021212019 0.12459444 0.12809817 0.12835866 0.046089306 0.042849444 0.05620224
0.09720501 -0.0082125 0.072470106 -0.15584837 -0.2000344 0.09025407 -0.075780675 0.09319089
-0.03571019 0.12116228 0.114493564 -0.16789106 -0.08917162 0.003452528 0.21881652 0.055619244
0.18206856 -0.024383906 -0.19567208 0.19580509 0.13739076 -0.10029857 -0.28219563 0.13289501
0.17055812 -0.18837209 -0.110502444 0.22285146 -0.19515322 0.030422093 -0.10014501 0.23404895
00000000: 735e 2f3e e1be 82bd b9ba aebc 9a14 ccbd
00000010: d509 35be d526 47bc e192 0bbe b16f f23d
00000020: 1687 7abe 05cf b63d a03a e1bd 15fc 00bd
00000030: 57a3 90bc f460 6a3d 4c01 313b 499a 493e
00000040: aa6e e4bd 4d4d efbd ed1c cabc 6154 8bbc
00000050: 6e6f 203e 606e 083e 3a66 d3bd fd8d a23d
00000060: 2538 c03c c7cc 643e 53f9 603e 14c2 babd
00000070: e17c e0bd 8fbb 30be 01f6 6fbd a24c 103e
00000080: 1a10 b6bd 0db5 6cbe e7ec e3bd c5b2 5bbe
00000090: 7c3c a1bd 30dc ea3d 173b 7ebe 83eb 553e
000000a0: b97a 0e3e 45c0 a33d 9d3a 4dbd fec1 58be
000000b0: af3a 783e 8c7f 163e 0d56 2bbc 4ed9 e3bd
000000c0: eb3b 95be f085 063e f81a 11bd 9fd0 afbd
000000d0: b609 f23d 0c0f 19be 2e94 283d 1856 e1bd
000000e0: 1c38 973d a0d8 353e aede ff3d eeb9 82bd
000000f0: 55c8 a4bd 3cc3 fcb8 a9d9 a13c 7c9b ce3c
00000100: d6a4 02bc 8971 76bd c1cc b63d c168 4abd
00000110: cf3d 8dbe 1ccc 263e cc4c 163e 8b33 c93d
00000120: deeb 27be dce7 033e 8312 203e 2727 af3c
00000130: 694c 7dbc a62f 363d 1ec3 273e fe60 b73d
00000140: e46e b53d ecac d2bb c6ed 7dbe 7968 23bd
00000150: a054 b3bd 2a7b 54be a222 2dbc 64e5 8ebd
00000160: 36ca 833d dc35 933d 5119 ebbc 96fa 71bc
00000170: 0e03 e43c 15a1 6f3c 6996 3b3e 8028 bb3c
00000180: a6e3 593c af94 383d ed57 03bd 34c4 2abe
00000190: e5d7 0c3e a8ba 88bd d467 4b3e fdd4 223e
000001a0: dd20 ebbd 93b3 c2bd 1a6d 623e 9fc6 16be
000001b0: 01d6 113e 6b34 2f3e 0939 0cba 33d6 3abe
000001c0: 9f9e 003d 7c0e 9bbd fe76 3b3d f48b b63a
000001d0: 4db1 543e f78c 5bbe 2766 54be 35fc 23be
000001e0: 6ccd 8dbc dd0a 72bc 350b 2abe a077 f83d
000001f0: 398d 35be f97d ba3d 23a1 363e 37ea cc3d
00000200: efef 513e e6d0 3cba 0a4b 35be c5b5 e83d
00000210: 641c 80be 83f0 073e 93b3 67bb a7ca 0a3e
00000220: 76ab 21be 8cc9 afbd 42bd 393e d24a 823d
00000230: 3001 763c 1cc1 0c3e e965 02bc e8eb d93d
00000240: 7391 35be b4c7 363e a55e 21be 6ee1 063e
00000250: 4f6a 183c 4b16 b63d 9372 79bd 0518 3a3e
00000260: 82d0 12be f14d 4fbe 5fbd f9bd bea9 993d
00000270: 2f9b e63d d1c1 053e 0bb2 1a3e 7760 ba3d
00000280: 33fc d3bd 7a90 3ebd 4ca0 5cbe dac3 c33d
00000290: 1294 8ebd 7fc1 433d a58e 003e 51ae 193e
000002a0: f660 afbd 694f 01be 40f2 5a3e 6bb1 13bd
000002b0: b675 0c3e 27a6 c0bd d0ed 7ebd f3a6 053c
000002c0: 5970 aebc bca1 e6bc 9513 1dbe a1bb efbd
000002d0: 6a8a 323d 19b4 c03d f30d 31be e053 34be
000002e0: 0d96 5c3e 3de0 8fbd f918 01be d23a 573e
000002f0: 8327 413e a9c6 c33c d579 2f3e 83aa f2bd
00000300: 2c37 73bd bec1 703e b335 363e 8ee0 4e3e
00000310: 457f 3cbe bee5 fabd 01d0 34be 9e2c 64bd
00000320: 8334 983b e4af d63c 1bfe 30be 32c5 52be
00000330: 8414 903e ad99 56be 7bdd 7a3d d439 c2bd
00000340: b16b a03d 600f d23d 45af 91be a756 8abc
00000350: 5731 57be 8e3d 3b3e b466 49be e5c9 49be
00000360: 27a0 5d3e d4c4 ad3c 5f2b ff3d 2b2c 033e
00000370: 7470 033e 24c8 3c3d e682 2f3d 5234 663d
00000380: 6c13 c73d b98d 06bc 356b 943d b796 1fbe
00000390: d1d5 4cbe 20d7 b83d e632 9bbd deda be3d
000003a0: d944 12bd ee23 f83d 9a7b ea3d a2eb 2bbe
000003b0: 9c9f b6bd cf43 623b 7011 603e 01d1 633d
000003c0: 2e70 3a3e c2c0 c7bc 435e 48be 2181 483e
000003d0: 2ab0 0c3e 5669 cdbd f27b 90be a115 083e
000003e0: caa6 2e3e 9de4 40be 1b4f e2bd 2c33 643e
000003f0: 3fd6 47be c137 f93c d418 cdbd 87aa 6f3e

encoder.transformer.in_proj_bias f4 [96]
0.015706943 0.060886644 0.0329873 0.026452487 0.0865018 0.05237417 -0.015612994 0.073186025
-0.070943445 0.013635481 -0.061240174 0.03584143 -0.059396785 0.083415546 -0.012319177 -0.019838016
-0.06449028 -0.1563987 0.0047491225 -0.07141588 0.07438451 0.025861142 -0.0806175 -0.032876927
-0.07510405 0.10527953 0.003948786 0.014387411 0.08126291 -0.027535463 0.06365415 0.13387966
-5.7756137e-07 -5.619881e-07 -7.3951185e-07 -7.4940675e-07 -4.902779e-07 -6.995373e-07 -1.9760282e-07 -8.363185e-07
-4.7557567e-08 4.0483496e-07 4.392657e-07 -2.3092265e-07 -3.9620758e-07 -1.3713711e-06 2.8050633e-07 -1.0021541e-07
5.8728074e-07 1.4737e-06 9.0482854e-07 1.4185259e-06 -2.0065656e-06 -5.6331555e-07 2.1825731e-07 1.467222e-07
1.1276387e-06 -1.4753898e-07 1.05043775e-07 4.2763727e-08 -3.0279377e-06 1.0667795e-06 -1.1206384e-06 -9.629532e-07
-0.015953586 0.06623178 -0.030780815 0.011430198 -0.053233646 0.0016314794 0.006368667 0.03314884
-0.050092008 -0.025693523 0.016829394 0.023961995 -0.019428702 -0.030500375 0.0002699419 -0.0021521577
0.014865955 0.012853653 -0.03248463 0.0113756005 -0.047084358 0.0062811933 0.02264794 0.016114986
0.04621867 0.0028066924 -0.030253375 -0.042614173 -0.017785098 -0.05186508 0.02028347 0.03346788
00000000: d9ab 803c 4664 793d b11d 073d e3b2 d83c
00000010: db27 b13d 4c86 563d a5cd 7fbc 8ee2 953d
00000020: cc4a 91bd 5a67 5f3c fad6 7abd 77ce 123d
00000030: 0b4a 73bd c5d5 aa3d 60d6 49bc 5683 a2bc
00000040: 7b13 84bd fb26 20be 879e 9b3b 7d42 92bd
00000050: e856 983d bfda d33c ca1a a5bd f5a9 06bd
00000060: 27d0 99bd cb9c d73d d164 813b 2db9 6b3c
00000070: 2b6d a63d 0d92 e1bc 1b5d 823d c017 093e
00000080: b709 1bb5 87db 16b5 de82 46b5 d72a 49b5
00000090: a49b 03b5 d6c7 3bb5 a62c 54b4 5f7f 60b5
000000a0: 1942 4cb3 1858 d934 38d4 eb34 89f3 77b4
000000b0: 5bb6 d4b4 f40f b8b5 7f98 9634 0136 d7b3
000000c0: a0a5 1d35 f2cb c535 58e3 7235 2e64 be35
000000d0: 89a8 06b6 c036 17b5 1d5a 6a34 b18a 1d34
000000e0: 5f59 9735 356b 1eb4 6d94 e133 37ab 3733
000000f0: 9333 4bb6 442e 8f35 d868 96b5 d23e 81b5
00000100: 18b1 82bc 87a4 873d 0c28 fcbc ba45 3b3c
00000110: 860b 5abd 5dd7 d53a 40b0 d03b 14c7 073d
00000120: 472d 4dbd 397b d2bc ccdd 893c f24b c43c
00000130: f128 9fbc ecdb f9bc fd86 8d39 370b 0dbb
00000140: 5690 733c 2198 523c 9a0e 05bd ba60 3a3c
00000150: 87db 40bd 78d2 cd3b 2c88 b93c 9303 843c
00000160: ca4f 3d3d 7cf0 373b edd5 f7bc 338c 2ebd
00000170: 0eb2 91bc 7a70 54bd 8529 a63c 9e15 093d

encoder.transformer.out_proj.weight f4 [32, 32]
-0.053750474 -0.19669804 0.0762252 -0.09555367 -0.13558488 0.076212555 0.04129032 -0.15217066
-0.08988644 0.011873121 -0.17683679 0.08553306 0.20591125 0.09749475 0.03494124 0.003942799
0.11756033 0.16986303 -0.041067444 -0.0485812 -0.11221488 0.10121132 -0.11327974 -0.08527919
0.033520427 0.07344727 0.1289528 -0.20429996 0.10664767 0.0188568 0.07631828 -0.104622565
0.16666824 -0.12573996 -0.09826262 -0.044355497 0.12819506 0.043572634 0.10950611 -0.22099827
0.22302191 0.08549165 -0.18151021 -0.038917486 0.08083669 0.14211434 -0.041127875 0.12091163
-0.0013476874 0.0046313293 0.013706349 -0.1575706 -0.17163128 -0.10886095 -0.06420021 -0.20788479
-0.12415599 0.07576408 0.11274995 0.20730186 -0.08153735 -0.088693686 -0.13672568 -0.010367263
-0.080893606 0.06406189 0.16866508 0.099860005 -0.15626171 -0.03637179 -0.021750372 -0.058469184
0.017104851 0.045179337 0.10413053 0.0014769271 -0.048187256 0.13801777 0.12751289 0.023347767
0.013984093 -0.17093675 0.11092945 -0.119503595 -0.09173958 -0.1194367 -0.103645265 0.23134516
0.070854075 0.11980917 0.144861 -0.20393473 0.07141925 -0.038423046 0.22814924 -0.21434118
0.07549765 0.14040524 0.08022865 -0.13806002 0.09257474 0.17557757 -0.03978992 0.10641282
0.0741997 -0.113144584 -0.13798167 0.12102031 -0.17197907 0.011880911 -0.1583861 0.13928452
-0.12304433 -0.20923704 0.15903035 -0.20648079 0.14872599 0.17907226 -0.15256853 -0.041963276
-0.009996679 0.14145829 -0.057346888 0.11363432 0.04380814 0.08841226 -0.09618188 0.124947004
0.15884236 0.060419034 0.029097266 -0.015095821 -0.04427731 0.23657706 -0.09440179 -0.02475521
-0.023196034 0.05542857 -0.18844323 0.12970366 0.092585884 0.0012767431 0.10245052 0.22523184
-0.012888421 0.03612509 -0.17463496 0.0066142674 0.13334203 0.09467705 -0.07402416 -0.12758459
0.033305753 -0.08917977 -0.1374887 0.098414294 0.108277254 -0.11259489 -0.037083242 -0.112701505
-0.12207186 -0.16479552 0.09856169 0.026954139 0.10039069 0.074109234 0.14640944 -0.087953255
-0.07759485 0.10250308 0.029235808 -0.12371898 -0.06126061 -0.009420883 -0.13337074 -0.10512068
-0.11608538 -0.17211778 0.11227261 -0.06441789 -0.040953785 -0.08156669 0.008055621 -0.10191182
-0.11817665 -0.07686949 0.14648648 0.029876279 0.11416091 -0.17712265 0.0037619912 -0.034804184
0.24451722 -0.034561213 0.17025238 -0.20545536 0.1359834 0.03393654 0.09015618 -0.15074085
0.15355988 0.05635431 0.21068567 0.03867705 -0.044972323 0.16068341 -0.05501169 0.0033609297
-0.028002262 -0.092039056 0.1901337 0.0024700584 0.18606289 0.048172683 -0.019203348 -0.0003945418
-0.13983771 -0.078467496 0.14108247 0.18594107 -0.039011642 -0.08645652 -0.16707392 -0.19974186
-0.12309707 0.093652174 -0.016776385 0.13017099 -0.07224891 -0.12383355 0.08501849 -0.17078616
0.06642267 0.15426117 0.021834949 -0.04877784 -0.008969094 0.029932704 0.05730744 -0.1155063
-0.04241971 -0.17133585 -0.0079400195 -0.10721808 -0.04464798 -0.17173518 -0.1367226 -0.023607591
0.12611504 -0.05646433 0.0064639635 0.09118094 -0.06578807 0.053315297 0.017678317 0.12602489
00000000: 7529 5cbd 366b 49be f51b 9c3d a4b1 c3bd
00000010: c3d6 0abe 5415 9c3d 0a20 293d a0d2 1bbe
00000020: 6216 b8bd 7b87 423c b414 35be f52b af3d
00000030: 66da 523e 54ab c73d 8c1e 0f3d 9832 813b
00000040: 78c3 f03d 93f0 2d3e 5636 28bd 15fd 46bd
00000050: ead0 e5bd e147 cf3d 35ff e7bd dba6 aebd
00000060: b74c 093d 866b 963d 340c 043e 0234 51be
00000070: 186a da3d 9379 9a3c c24c 9c3d 5b44 d6bd
00000080: 14ab 2a3e fac1 00be ea3d c9bd 1cae 35bd
00000090: 9145 033e 3879 323d bd44 e03d 5f4d 62be
000000a0: db5f 643e 3f16 af3d d0dd 39be f167 1fbd
000000b0: b58d a53d 6c86 113e b475 28bd 84a0 f73d
000000c0: e3a4 b0ba 68c2 973b 9890 603c 305a 21be
000000d0: 1cc0 2fbe 7df2 debd 667b 83bd c0df 54be
000000e0: 7f45 febd 332a 9b3d 72e9 e63d f046 543e
000000f0: 0efd a6bd 09a5 b5bd d101 0cbe 74db 29bc
00000100: 8cab a5bd e132 833d 8ab6 2c3e 6783 cc3d
00000110: 1203 20be 96fa 14bd d62d b2bc 627d 6fbd
00000120: 791f 8c3c f80d 393d 6342 d53d 7395 c13a
00000130: 0060 45bd 8854 0d3e bd92 023e d143 bf3c
00000140: 8a1d 653c 0b0a 2fbe fb2e e33d 4dbe f4bd
00000150: f6e1 bbbd 3b9b f4bd f843 d4bd bfe5 6c3e
00000160: f11b 913d 835e f53d 7156 143e 44d4 50be
00000170: 4144 923d 7c61 1dbd f49f 693e 417c 5bbe
00000180: 839e 9a3d 64c6 0f3e eb4e a43d 9b5f 0dbe
00000190: d397 bd3d 9bca 333e c1fa 22bd f7ee d93d
000001a0: 03f6 973d 59b8 e7bd 114b 0dbe 7fd9 f73d
000001b0: 481b 30be 27a8 423c f72f 22be 9aa0 0e3e
000001c0: aafe fbbd 3c42 56be dad8 223e b36f 53be
000001d0: a04b 183e b85e 373e ed3a 1cbe afe1 2bbd
000001e0: 1cc9 23bc 71da 103e 92e4 6abd 1cb9 e83d
000001f0: 2a70 333d 7d11 b53d 01fb c4bd 37e4 ff3d
00000200: 92a7 223e f379 773d 645d ee3c 7654 77bc
00000210: 205c 35bd 4241 723e ba55 c1bd 70cb cabc
00000220: 9c05 bebc 1109 633d 43f7 40be 09d1 043e
00000230: ab9d bd3d 6458 a73a 94d1 d13d 2da3 663e
00000240: f529 53bc e7f7 133d 82d3 32be 7fbc d83b
00000250: d08a 083e 0be6 c13d fb99 97bd 89a5 02be
00000260: 9d6b 083d e2a3 b6bd d6c9 0cbe 6f8d c93d
00000270: 77c0 dd3d 2698 e6bd 99e4 17bd 0cd0 e6bd
00000280: d000 fabd 28c0 28be b6da c93d edce dc3c
00000290: a299 cd3d 95c6 973d 5bec 153e d620 b4bd
000002a0: 0cea 9ebd 23ed d13d ef7f ef3c 6060 fdbd
000002b0: 68ec 7abd 0c5a 1abc 5792 08be 8349 d7bd
000002c0: 2cbe edbd a53f 30be 2fef e53d 87ed 83bd
000002d0: 28bf 27bd 700c a7bd b9fb 033c 25b7 d0bd
000002e0: 9906 f2bd c06d 9dbd 8d00 163e 19bf f43c
000002f0: 32cd e93d a45f 35be bd8b 763b d58e 0ebd
00000300: b962 7a3e 0f90 0dbd a456 2e3e e462 52be
00000310: 3b3f 0b3e 0b01 0b3d cea3 b83d cf5b 1abe
00000320: cd3e 1d3e c7d3 663d fcbd 573e d46b 1e3d
00000330: e634 38bd 318a 243e f053 61bd 0b43 5c3b
00000340: 0065 e5bc f97e bcbd 69b2 423e b4e0 213b
00000350: 4587 3e3e b850 453d 5750 9dbc 81da ceb9
00000360: 9e31 0fbe 91b3 a0bd ec77 103e 5667 3e3e
00000370: acca 1fbd 1e10 b1bd 6d15 2bbe 2189 4cbe
00000380: 511a fcbd b6cc bf3d a16e 89bc 8b4b 053e
00000390: 3df7 93bd 729c fdbd 2d1e ae3d 91e2 2ebe
000003a0: 9c08 883d a4f6 1d3e 35df b23c 46cb 47bd
000003b0: 1bf3 12bc 6e35 f53c 35bb 6a3d 918e ecbd
000003c0: 4ac0 2dbd aa72 2fbe db16 02bc 2795 dbbd
000003d0: cde0 36bd 59db 2fbe 0201 0cbe b564 c1bc
000003e0: 4d24 013e 2447 67bd a8cf d33b 13bd ba3d
000003f0: e5bb 86bd 2461 5a3d 1ed2 903c ab0c 013e

encoder.transformer.out_proj.bias f4 [32]
-0.0049543027 -0.03467136 -0.00532512 -0.00082787836 -0.011662065 -0.007896013 -0.068597995 -0.0044716164
-0.019007888 0.020201113 0.030695748 -0.0023306136 0.051427953 0.042215027 0.034063295 -0.03481353
-0.03330781 0.01302407 -0.055583782 0.012300728 -0.011566706 0.042277247 0.03331872 -0.0136281885
-0.027414825 0.030124376 -0.023712203 -0.015737215 -0.007628146 0.031792473 0.002958001 -0.0049044024
00000000: b457 a2bb 8e03 0ebd 587e aebb fa05 59ba
00000010: 3f12 3fbc 475e 01bc 1b7d 8cbd a386 92bb
00000020: 6eb6 9bbc ce7c a53c a675 fb3c 35bd 18bb
00000030: 1ea6 523d aae9 2c3d f485 0b3d a298 0ebd
00000040: c56d 08bd e962 553c d2ab 63bd fe88 493c
00000050: 4882 3dbc e82a 2d3d 3679 083d c448 5fbc
00000060: 0e95 e0bc 65c7 f63c 1840 c2bc 55eb 80bc
00000070: 87f5 f9bb d338 023d 06db 413b 1cb5 a0bb

encoder.ln1.weight f4 [32]
1.055486 0.9184316 1.0259526 1.0195737 1.0515345 0.96102333 0.9687202 1.0099401
1.0344756 0.99770874 1.046611 0.96441346 1.0276169 0.9236121 0.88588625 1.0411983
1.0213796 0.9870096 1.0097708 1.0035877 1.0084473 1.0504506 1.0139511 0.99344224
0.978498 1.0322381 1.0599154 1.0091608 1.0200006 1.007068 1.0215952 1.0307186
00000000: 2a1a 873f 551e 6b3f 6a52 833f 6481 823f
00000010: af98 863f a005 763f 0cfe 773f b845 813f
00000020: b269 843f d769 7f3f 59f7 853f cde3 763f
00000030: f388 833f d871 6c3f 71c9 623f fc45 853f
00000040: 91bc 823f a9ac 7c3f 2b40 813f 9075 803f
00000050: cd14 813f 2a75 863f 26c9 813f 3b52 7e3f
00000060: d87e 7a3f 6120 843f 4fab 873f 2e2c 813f
00000070: 618f 823f 9be7 803f a2c3 823f 96ee 833f

encoder.ln1.bias f4 [32]
-0.016421705 -0.03244543 0.013193944 -0.012663765 -0.02375264 -0.015058953 -0.060197186 0.003473069
-0.013478736 0.0020946634 0.045052994 -0.0028128717 0.059115246 0.0459428 0.046766635 -0.015920956
-0.031301744 0.024999622 -0.070295855 0.026595661 0.0043585533 0.05409286 0.014538754 -0.014123044
-0.036685545 0.02485012 -0.035513557 0.016524738 -0.02063413 0.050215743 -0.0043692766 -0.014823185
00000000: d086 86bc 80e5 04bd 692b 583c ae7b 4fbc
00000010: e594 c2bc d4b9 76bc 5391 76bd 6e9c 633b
00000020: ebd5 5cbc 9f46 093b 7d89 383d 2858 38bb
00000030: d422 723d 842e 3c3d 5f8e 3f3d aa6c 82bc
00000040: 4236 00bd 02cc cc3c 46f7 8fbd 25df d93c
00000050: 32d2 8e3b 7a90 5d3d f433 6e3c 5764 67bc
00000060: 9543 16bd 7b92 cb3c aa76 11bd e35e 873c
00000070: e808 a9bc 06af 4d3d 262c 8fbb f2dc 72bc

encoder.ln2.weight f4 [32]
1.0632776 0.99179864 1.063747 1.0227463 1.0640726 1.0013835 1.0158362 0.99639153
1.0288445 0.96691453 1.0518967 0.96356356 1.0952924 1.0292861 1.0083951 1.1126562
1.0518762 1.055411 0.9832659 1.0678388 1.0183365 1.075906 1.0056984 1.0237949
0.9939288 1.071575 1.0483179 1.0415694 1.0586234 1.0136938 1.0484959 1.0317366
00000000: 7b19 883f 84e6 7d3f dd28 883f 5ae9 823f
00000010: 8833 883f 562d 803f ec06 823f 8413 7f3f
00000020: 2db1 833f b687 773f 8da4 863f 1aac 763f
00000030: 8b32 8c3f a6bf 833f 1713 813f 856b 8e3f
00000040: e1a3 863f b517 873f 50b7 7b3f f1ae 883f
00000050: da58 823f 4ab7 893f baba 803f b60b 833f
00000060: 1e72 7e3f 5f29 893f 482f 863f 2552 853f
00000070: f980 873f b8c0 813f 1d35 863f f20f 843f

encoder.ln2.bias f4 [32]
0.022621613 -0.059943363 4.5960904e-05 -0.009516728 -0.010621276 -0.017573304 -0.08820726 0.00039614915
-0.036923684 0.03096513 0.09380856 0.011493717 0.105665654 0.08054789 0.08439309 -0.009502445
-0.03178417 0.023188801 -0.049381766 0.014635222 -0.0047618174 0.07061491 0.041265853 -0.028227521
-0.03573106 0.04000472 -0.023925418 0.00055761234 0.003098788 0.06475959 0.008899451 0.0017012857
00000000: f650 b93c 2c87 75bd 25c6 4038 0dec 1bbc
00000010: dc04 2ebc e4f5 8fbc 02a6 b4bd 3db2 cf39
00000020: 4a3d 17bd 96aa fd3c b41e c03d 2550 3c3c
00000030: 3c67 d83d 4bf6 a43d 49d6 ac3d 25b0 1bbc
00000040: 1e30 02bd 71f6 bd3c 8944 4abd 92c8 6f3c
00000050: 0509 9cbb 8d9e 903d 6206 293d 673d e7bc
00000060: bb5a 12bd fddb 233d 3dff c3bc bb2c 123a
00000070: 0915 4b3b ada0 843d 01cf 113c adfd de3a

decoder.output_head.weight f4 [24, 32]
0.040074717 -0.08266106 -0.0019846857 -0.08193695 0.016526017 -0.0028121038 -0.032343492 -0.16878444
-0.120731644 -0.048084475 -0.016961582 0.08500084 0.09788139 -0.060190972 -0.07301809 0.013748246
0.051907867 -0.16656005 0.06003578 -0.18380299 -0.011741936 -0.0474568 0.16314085 -0.054849636
0.036010094 0.17082293 0.1045647 -0.23729138 -0.13604073 0.061277486 -0.034586392 -0.11896723
-0.008699476 -0.035008654 -0.004793654 0.110160604 -0.046884183 -0.08245968 0.09785625 0.028199911
0.041024514 -0.12300735 -0.04255994 0.040595654 -0.059432257 -0.00869312 -0.09959305 0.0014868615
-0.045097597 0.09641595 0.018787717 0.10912319 -0.04901122 0.10719383 0.124522835 -0.0012743406
0.029230827 -0.032526255 -0.04895065 -0.048372835 0.0094574345 0.050450485 -0.056981955 0.063719615
-0.18920076 -0.093903475 -0.18292677 -0.11149483 -0.11230281 0.07997349 0.040426243 0.1763916
0.038133226 0.115864724 0.08146218 0.100055404 0.08127155 -0.12625168 -0.028775005 0.10864669
0.13794823 0.20371702 0.08009086 -0.17343247 0.15454122 0.10975336 -0.2024987 0.0026709358
0.003810068 0.032646436 0.030666485 -0.066574015 -0.023739282 0.0018068946 -0.0037089714 0.033142895
0.1272115 -0.14685953 0.21909156 -0.13323522 -0.21942295 0.19820997 -0.0043572625 0.19687831
-0.110782936 -0.02684883 -0.116191104 0.19345187 0.0062722364 -0.11039604 0.040429804 0.10087775
0.12603399 0.037997965 0.06758333 0.02420526 -0.009774663 0.016256172 -0.054074995 0.061055973
0.21102919 -0.16297059 0.041923143 -0.084696844 -0.17822643 -0.030203985 0.1378936 -0.10850169
-0.050670773 0.11388774 -0.050091304 -0.18751617 0.16075733 -0.14770311 -0.101062134 0.08071842
0.061532598 0.016658086 -0.028331243 0.17539401 -0.03162737 -0.104678005 0.09590944 0.044475976
0.09773015 -0.11593034 0.0074180863 -0.049273137 0.06173705 0.17431006 0.12169545 0.048569966
-0.038250923 -0.05759655 0.11175747 -0.09684497 -0.21699232 -0.022358604 -0.058032718 -0.20137371
0.17875098 0.11038919 -0.05753445 -0.060039494 -0.10992414 -0.16516234 -0.08650576 0.046617717
-0.034494404 -0.09342409 -0.14384837 0.055332888 -0.058918923 0.07432013 0.046924215 0.0355314
-0.03674552 0.027458472 0.12337854 -0.2020908 0.040322565 0.09884606 0.0010179037 -0.22045638
-0.15091485 -0.17901544 0.04641655 0.17002445 -0.029798849 -0.11043057 0.12982973 0.073504575
-0.014580559 0.033882465 -0.18000068 0.05318429 -0.12566152 -0.07726461 -0.09426583 0.28044054
0.018568251 0.1164261 0.05779575 0.07419697 -0.0198414 -0.03222925 -0.09793251 -0.17476012
-0.030046556 -0.06348724 -0.10234383 -0.13008432 0.050897483 -0.14219797 0.106869176 0.011545367
-0.03882746 0.013297156 0.05622506 -0.23431759 -0.044567812 0.110780746 -0.1189465 0.15371045
-0.024402963 0.019070895 0.09113557 -0.03155468 -0.04617168 -0.102191746 0.16618748 -0.0988414
0.1456634 -0.121424325 -0.09565315 0.09973081 -0.08590514 0.089530215 0.06894562 0.05726987
0.11228967 -0.069188274 -0.14601341 0.028998373 0.10796612 0.05773337 0.07172799 -0.029912775
0.04378591 0.114446774 0.09750584 0.024788644 -0.21403986 0.060138762 -0.12934375 -0.011442304
00000000: 6325 243d 344a a9bd 8011 02bb 8fce a7bd
00000010: 9261 873c 464b 38bb 9c7a 04bd d4d5 2cbe
00000020: 2742 f7bd 3af4 44bd 04f3 8abc ec14 ae3d
00000030: 0a76 c83d cf8a 76bd 828a 95bd 5340 613c
00000040: 589d 543d b88e 2abe 14e8 753d da36 3cbe
00000050: 4061 40bc 1062 42bd 650e 273e 03aa 60bd
00000060: 527f 133d 35ec 2e3e 0426 d63d 83fc 72be
00000070: 434e 0bbe 1afe 7a3d 76aa 0dbd 17a5 f3bd
00000080: 3f88 0ebc 3c65 0fbd 1614 9dbb e29b e13d
00000090: a109 40bd 9fe0 a8bd dc68 c83d 8003 e73c
000000a0: 5209 283d 47eb fbbd 5553 2ebd a147 263d
000000b0: 3d6f 73bd 976d 0ebc 71f7 cbbd cbe2 c23a
000000c0: 42b8 38bd ba75 c53d b3e8 993c fb7b df3d
000000d0: fdbf 48bd 7088 db3d d405 ff3d c607 a7ba
000000e0: 7d75 ef3c 403a 05bd 7a80 48bd 9822 46bd
000000f0: 5bf3 1a3c 2ba5 4e3d e965 69bd 6e7f 823d
00000100: d8bd 41be 7750 c0bd 2851 3bbe 6757 e4bd
00000110: 04ff e5bd 24c9 a33d fd95 253d 00a0 343e
00000120: 9631 1c3d 7c4a ed3d a5d5 a63d d9e9 cc3d
00000130: b371 a63d 1f48 01be 8fb9 ebbc 2882 de3d
00000140: 4d42 0d3e 329b 503e ad06 a43d 4898 31be
00000150: 0e40 1e3e 5fc6 e03d d25b 4fbe de0a 2f3b
00000160: 55b2 793b 45b8 053d 4838 fb3c f557 88bd
00000170: e278 c2bc 52d5 ec3a 3712 73bb d8c0 073d
00000180: bb43 023e 5862 16be 8a59 603e d06e 08be
00000190: 69b0 60be 8ef7 4a3e 5ec7 8ebb 789a 493e
000001a0: 2ae2 e2bd 14f2 dbbc 9af5 edbd 3f18 463e
000001b0: 5587 cd3b 5217 e2bd b999 253d fe98 ce3d
000001c0: 0e0f 013e c1a3 1b3d 2169 8a3d 1c4a c63c
000001d0: e825 20bc aa2b 853c be7d 5dbd d415 7a3d
000001e0: 0918 583e c3e1 26be 9ab7 2b3d 8a75 adbd
000001f0: fd80 36be 596e f7bc fb33 0d3e 2236 debd
00000200: 288c 4fbd fa3d e93d 8a2c 4dbd 3d04 40be
00000210: 929d 243e 7c3f 17be aaf9 cebd b34f a53d
00000220: 9b09 7c3d 8a76 883c ec16 e8bc 7d9a 333e
00000230: b38b 01bd 6c61 d6bd 2b6c c43d 712c 363d
00000240: bf26 c83d e36c edbd 6b13 f33b a1d2 49bd
00000250: fddf 7c3d 567e 323e 773b f93d 4df1 463d
00000260: 00ad 1cbd 5cea 6bbd 1ae1 e43d a856 c6bd
00000270: 3c33 5ebe 6429 b7bc b7b3 6dbd e934 4ebe
00000280: 7f0a 373e ba13 e23d 3ea9 6bbd f9eb 75bd
00000290: e81f e1bd 5120 29be ef29 b1bd 38f2 3e3d
000002a0: 014a 0dbd 2155 bfbd fd4c 13be bda4 623d
000002b0: f854 71bd 2735 983d 9b33 403d 6089 113d
000002c0: 7882 16bd 97f0 e03c e3ad fc3d e4f0 4ebe
000002d0: 4629 253d ce6f ca3d 2e6b 853a 51bf 61be
000002e0: 6c89 1abe d34f 37be 481f 3e3d e41a 2e3e
000002f0: b71c f4bc 6c29 e2bd 16f2 043e 9189 963d
00000300: 4ce3 6ebc 57c8 0a3d 1952 38be c5d7 593d
00000310: 6aad 00be e83c 9ebd 720e c1bd e795 8f3e
00000320: 721c 983c cf70 ee3d 3dbb 6c3d 95f4 973d
00000330: 6f8a a2bc d102 04bd d790 c8bd 51f4 32be
00000340: 3224 f6bc 9905 82bd a499 d1bd d334 05be
00000350: e179 503d 589c 11be 3ade da3d c728 3d3c
00000360: 8b09 1fbd 51dc 593c 404c 663d f3f0 6fbe
00000370: bd8c 36bd 04e1 e23d 399a f3bd 4666 1d3e
00000380: b9e8 c7bc 913a 9c3c 49a5 ba3d 7b3f 01bd
00000390: 841e 3dbd e849 d1bd 0d2d 2a3e 5c6d cabd
000003a0: c928 153e 51ad f8bd cce5 c3bd ab3f cc3d
000003b0: 09ef afbd 9e5b b73d 5c33 8d3d d093 6a3d
000003c0: 20f8 e53d 95b2 8dbd 8a84 15be ff8d ed3c
000003d0: 571d dd3d d479 6c3d 20e6 923d a30b f5bc
000003e0: db58 333d 1263 ea3d 24b1 c73d 8e11 cb3c
000003f0: 442d 5bbe 1054 763d b072 04be 8078 3bbc

decoder.output_head.bias f4 [24]
0.0017773916 -0.051863667 -0.15173608 -0.14130703 0.096879736 0.036629017 0.08825027 0.031413276
-0.135809 0.1308809 -0.057162225 -0.040717024 -0.18192801 -0.04333113 -0.051577266 -0.17018318
-0.042236425 -0.084628895 -0.128686 -0.1947513 -0.11870602 -0.21746118 -0.14475316 -0.17444244
00000000: 5ef7 e83a ff6e 54bd b460 1bbe cab2 10be
00000010: e268 c63d 4f08 163d 8fbc b43d 35ab 003d
00000020: 8411 0bbe a505 063e f022 6abd e5c6 26bd
00000030: 564b 3abe fc7b 31bd af42 53bd 8044 2ebe
00000040: 1a00 2dbd ea51 adbd 43c6 03be e36c 47be
00000050: 241c f3bd 25ae 5ebe 2c3a 14be 0aa1 32be
