experiments/model_128_40_2026-01-17_8484/model.pt (torch, 618784 bytes, 21 tensors)

encoder.graph_embed.GCN_in.A f4 [9, 9]
00000000: 5046 babe 9971 da3e 140a fc3d 5978 61be
00000010: ff0c 54bf fe53 3ebf 2161 1a3f 4aba ccbf
00000020: 8ae7 89bf 94fd 103f 5dce d13d d80e 02bf
00000030: bd75 953f b55c a83e 3a11 353e 5ddb c4bf
00000040: 0794 da3f 7482 70bf 0972 433f 1d8b 9bbf
00000050: 8a46 a43e 6beb 3bbe e9e4 963f 4ba8 06be
00000060: 1984 15bf 36e4 673f d370 82bf 4274 cfbe
00000070: 1685 5abf d59f 0340 00f5 27be 8511 c33e
00000080: 2599 9b3e 0d9a 58bf d0e1 443f 10a4 8e3f
00000090: 9a2a 2e3f aa33 c4bf 5647 adbf c0bf 08bf
000000a0: 0f8b 74bf bc06 3240 79da e6be c70f 02bf
000000b0: be52 ffbe f7f0 6abf ca9e cf3f f8e9 b5be
000000c0: 80b4 25c0 af8f 583e 970b 5abe aae7 41be
000000d0: e408 adbf 3bf4 36be 7cd3 2dbd 1863 70be
000000e0: de14 e4be 567c 11bd 971c 9a3f 0040 f73f
000000f0: f2d1 823f 5efa e5bf ba80 9b3d 64f1 b33f
00000100: 7e0d 193e 2a2c 09c0 eb4a 91bd 6f24 363e
00000110: 04ba b2be 1b87 333f 4c16 89bf 7d14 45be
00000120: aa89 9ebf efda a9bf 3a46 19c0 c420 ea3d
00000130: 573d dabf 8825 6dbf 82fe a33d a740 90be
00000140: 4566 8f3f
-0.3638177 0.42664793 0.1230661 -0.22018565 -0.8283233 -0.7434691 0.60304457 -1.5994351
-1.0773785 0.5663693 0.10244439 -0.508039 1.1676556 0.3288323 0.17682353 -1.5379444
1.7076424 -0.93949056 0.7634588 -1.2151829 0.32085067 -0.18351524 1.1788608 -0.13150136
-0.5840469 0.905826 -1.0190681 -0.40518385 -0.85359323 2.0566304 -0.16402054 0.38099304
0.30390278 -0.8461006 0.7690706 1.1143818 0.68033755 -1.5328267 -1.3537395 -0.5341759
-0.95524687 2.781661 -0.45088556 -0.50805324 -0.49867815 -0.91773933 1.6220334 -0.35530066
-2.5891418 0.21148561 -0.21293484 -0.18936029 -1.3518338 -0.17866604 -0.042438015 -0.23475301
-0.4454717 -0.035518967 1.2039975 1.9316406 1.022032 -1.7967031 0.07592912 1.4058042
0.14946553 -2.1433206 -0.070943676 0.17787336 -0.34907544 0.7012803 -1.070993 -0.19246097
-1.2385762 -1.3269938 -2.3949113 0.11432031 -1.704997 -0.92635393 0.08007528 -0.28174326
1.1203085

encoder.graph_embed.GCN_in.linear.weight f4 [128, 16]
00000000: 9bdc 293e c5f1 4bbd cc11 06bd 0348 20be
00000010: d0f9 67be c382 fb3d 0ecd 9d3c 18bc 593e
00000020: d688 42be e0b5 e33d d03d 5abe 7d3c 2b3e
00000030: 4fcc 023e 95b2 40be 3c67 1bbe 0d62 f4bd
00000040: 5103 73bd 1f6c 943d 91f1 6e3e 0ecf 9a3d
00000050: 79da 3f3e 0fe1 013e fa96 df3d bc8e 5a3e
00000060: ce6d 873e f9e4 73bd fcaa 58be c5be 31be
00000070: f332 573d 67f2 1bbe 5fe6 3a3c f0b1 37be
00000080: 7152 933d 852d 2a3e 72d0 803d f84a 5fbe
00000090: 5342 11be 1cd2 4ebe 089a 673e fec9 783c
000000a0: 36ef e5bd 85a8 673c bd4b ecbd 91b4 aabb
000000b0: bbcb e4bd ff28 08be 014e 6c3d 90ee 163e
000000c0: 72b7 e13c 2fc6 993c ff9b 643d 66c9 a0bd
000000d0: 4ba3 bbbd 1aca 29be 33a4 f23d a940 083e
000000e0: 36f9 54be 7290 be3c 77a9 39be ed32 15be
000000f0: 0ba8 c83d d690 29be b5b9 21bc ac05 6fbe
00000100: 9fc8 623e 7e08 90be 88c4 973c 103a f7bd
00000110: 3447 3fbe a701 4c3c 0f9c 183e 3439 36be
00000120: e4af 36bd c131 14be 60cd c93c 5fb1 d63d
00000130: d78a d83d 140b c83d 1477 66be 9ef8 5b3d
00000140: c891 463e c05a 7b3c 601e 223e b0a7 8cbd
00000150: 21b6 163e de32 193e d8ec ff3d 1fb5 a4ba
00000160: 8865 e23d ecd2 833e c91b 2f3d c6f1 d7bd
00000170: 4d2a 953c 678a 65be 87fb 40bd 5bb7 733d
00000180: 4080 643d 1d6f afbd 7391 dc3d d328 52be
00000190: 9ebb ff3c cbe3 85be 80eb 32bd b273 143e
000001a0: 63b9 81bc 627d 253e 807a 43be 8018 bc3d
000001b0: 14a6 963d d65d 19bd 7a69 693e 9ec3 31bd
000001c0: e07c a2bb 7c6f 393e 5153 5dbe d686 4dbe
000001d0: 0c03 d1bd bff1 6abe fd9d 80be 933c b9bd
000001e0: 79a0 5cbe 58f7 c43c 322e 5ebe 17b2 0bbc
000001f0: 0ac7 283e c200 28bd 30a2 113e 88bb 34bd
00000200: 275d bebd 3194 47be 8a61 203e 88d1 043e
00000210: 1f1e 713e 1b46 14be f3f5 98bd faa1 af3d
00000220: e67d 543e ee0e da3d a4d4 3dbe 10b2 513e
00000230: 1c0d 2ebe d7c7 00be 74bc 5dbe 7a4c 383e
00000240: f596 01be dd8f 6b3e 6249 99bd f5c0 0abb
00000250: 9af8 4d3e 84b2 6a3e 34d5 c2bd d2c2 44be
00000260: 5f1a c93d 7bcb f9bc ab09 083e 84ea 85bd
00000270: 2eec acbd f138 863d 584f a8bc c77f e1bb
00000280: 4713 fabd 0f63 f53d 16e4 563d 5332 843d
00000290: 4e9b 2abe 2369 023d 4230 353e 7574 c6bd
000002a0: ef8f d63d c767 6dbd c5ca cfbc 8c13 463e
000002b0: cb34 3fbe 9dd1 6ebe bb0b 1abe 959c 7cbe
000002c0: c39c 7b3e 6121 53be 0643 91bd 8b3f a3bd
000002d0: 4aa3 8f3d ae8e f2bd fa6e 5bbe f8b4 84be
000002e0: 101f 053d ffeb 9dbd 3379 c1bd 677b 7c3e
000002f0: e558 10be 75ba 1fbd aff9 fdbb 88b5 02bd
00000300: dab3 a33c 9cee 62be a35f 2cbe 7a86 6c3e
00000310: 4ad2 0fbe 944c 9a3e 6bd1 86bd e4dc 47be
00000320: 8158 383e da39 563e 5926 65bc 38b9 373e
00000330: 346d 4dbe 90df 1f3d 8274 40be 4bb6 573d
00000340: 09a7 133e 1d63 68be 726d 143e 8544 15be
00000350: 17e1 cdbc 646f 6a3b 3fa4 083e 7365 303d
00000360: 519b 8d3d 6c2a 5f3e e53d 423c c990 4e3c
00000370: 2819 593d 5fb8 3fbe aded 853e 5f6d 55be
00000380: 4a80 c3bd 204a 04bc fbc9 1cbe 93da 18bc
00000390: dda2 703e c6b0 f9bd 2499 9c3d 0b25 25bd
000003a0: 89d7 32be 906e 823e 996a 163b 373f 33be
000003b0: adc2 d2bd 47eb 5cbe dbf5 0e3e e803 66be
000003c0: de5c 79bc be18 cdbd ddd8 63bd 9edf 043e
000003d0: 0b44 e43d 7ccc 6dbd b904 2c3e 8dc5 93bd
000003e0: 4508 673c 7220 4dbe 27db 7a3e 86ba 21be
000003f0: 3e75 f3bd aea6 46be 36fc 1bbe 9df3 1f3d
0.1658806 -0.049791116 -0.032731816 -0.1565247 -0.2265389 0.122808 0.019262817 0.21263158
-0.18997511 0.11118674 -0.21312642 0.16722293 0.1277325 -0.18818124 -0.151761 -0.11932764
-0.059329335 0.07247185 0.23334338 0.07559024 0.18735684 0.1268351 0.10917468 0.21343511
0.26450962 -0.059544537 -0.21158975 -0.17357929 0.052538823 -0.15229188 0.011407464 -0.17938972
0.07193459 0.16618927 0.06289758 -0.21805942 -0.14185457 -0.20197338 0.22617352 0.015184877
-0.112272665 0.014139299 -0.115378834 -0.0052095135 -0.11171671 -0.13296889 0.057691578 0.14739442
0.027553294 0.01877126 0.055812832 -0.07850914 -0.09162005 -0.16581002 0.11847725 0.13305916
-0.20798191 0.023262236 -0.18131052 -0.14570208 0.09797677 -0.16559157 -0.009870936 -0.23342007
0.22146843 -0.2813148 0.01852633 -0.120716214 -0.18679506 0.012451566 0.14903282 -0.17795259
-0.044601336 -0.14472105 0.024634063 0.104830496 0.105733566 0.09767738 -0.22506362 0.053703897
0.19391549 0.015341461 0.158319 -0.06867921 0.14717914 0.1496081 0.12496346 -0.0012566185
0.11054522 0.25746858 0.042751107 -0.105441615 0.018208647 -0.22416078 -0.047114875 0.059501033
0.05578637 -0.08566115 0.1076993 -0.20523386 0.031217393 -0.26150355 -0.04368162 0.1449726
-0.01583547 0.16161111 -0.19089699 0.091843605 0.07355896 -0.037443005 0.22794142 -0.043399446
-0.004958734 0.18108934 -0.21613814 -0.20070967 -0.10205659 -0.22943781 -0.25120535 -0.09044757
-0.2154559 0.024043724 -0.2169731 -0.008526347 0.16482177 -0.041016348 0.14222026 -0.044124156
-0.09295111 -0.19490124 0.15662208 0.12970555 0.23546647 -0.14479868 -0.07468786 0.085758165
0.20751151 0.10647379 -0.18538147 0.20478082 -0.16997188 -0.12576233 -0.2165392 0.17997923
-0.12655242 0.23004098 -0.074847 -0.002117214 0.20114365 0.22919661 -0.095133215 -0.19214943
0.09819483 -0.030492535 0.13284938 -0.06538871 -0.08443485 0.065538295 -0.020545647 -0.0068816873
-0.12210708 0.119817846 0.052463613 0.06454911 -0.16660807 0.031838547 0.1769419 -0.09690181
0.10476672 -0.057960298 -0.025365243 0.19343394 -0.18672483 -0.23322149 -0.15043537 -0.24669106
0.24571519 -0.20618202 -0.07092862 -0.07971104 0.07013567 -0.1184362 -0.21429053 -0.25919318
0.032500327 -0.07711028 -0.09446945 0.2465645 -0.1409641 -0.03899618 -0.007750712 -0.031911403
0.01998322 -0.22161335 -0.16833358 0.23098174 -0.14045063 0.3013655 -0.06582912 -0.19517857
0.18002512 0.20920506 -0.013986194 0.17941749 -0.20061189 0.039031565 -0.18794444 0.052664082
0.14419188 -0.22694059 0.14494875 -0.1457692 -0.025131745 0.003577196 0.13343905 0.0430655
0.0691439 0.21793526 0.011855577 0.012607762 0.053002506 -0.18722676 0.26157895 -0.20842503
-0.095459536 -0.008074313 -0.15311424 -0.009329456 0.23499627 -0.1219192 0.07646397 -0.04031853
-0.17465033 0.25474977 0.002295172 -0.17504583 -0.10291038 -0.21574126 0.13960974 -0.22462428
-0.015219895 -0.10014485 -0.05562674 0.12975928 0.11145791 -0.05805634 0.16798677 -0.07215414
0.014101093 -0.20031908 0.24497662 -0.1579381 -0.118875965 -0.19399521 -0.1523293 0.039050687

encoder.graph_embed.GCN_in.linear.bias f4 [128]
00000000: db09 153d c048 1f3e 2af6 413e bd24 493e
00000010: 25ae fb3d e1b4 6fba 1e3e 2a3e 891f 603e
00000020: 2146 00be 6e15 cb3d fea2 8e3d 3c4a 3bbe
00000030: 00e2 e5bc ca86 18be a4ad 19be f229 2e3e
00000040: 4440 483d 0447 7a3e 194b 4e3c 7683 76be
00000050: 1b15 1c3e 7f4d cbbd a2dd 303e 0745 123e
00000060: cd0d 3fbe 0d51 a1bd d225 f0bb c2bb 363e
00000070: 9962 673e 39cf 7bbd 357f 93bd 11c8 5cbe
00000080: c2c8 53bd cf8d 3a3e 1e81 50be bd38 693e
00000090: f98b 38be c42e cbbc d1db 753c e2bb f7bd
000000a0: 9717 49be 3c58 2cbe 1662 62bd bba8 56bd
000000b0: db1b 433e d695 49bd 3061 913c b8f7 113e
000000c0: 4cfe 223e 5c67 953d f5e8 feba 6266 d9bd
000000d0: a9c2 623c a1a6 aa3d 90d8 853d 83f6 273e
000000e0: 1660 80b6 5ba8 713c e2e3 fbbc 8236 b13d
000000f0: f9d5 0a3e 1698 ccbd 6e18 2c3e c284 53be
00000100: 60e0 5b3d 0e54 b63c 0518 413e 0730 5b3d
00000110: 53da 49bc fe85 57bd b31d 523e 5b95 85be
00000120: f741 043e 79c6 60bd a925 033e af93 3f3d
00000130: c189 72bd 2972 403d 2ffa e9bd dc17 9a3d
00000140: 7cc2 283e 07f3 ff3d 0351 3dbe c7f8 453e
00000150: 1da7 a73d 4a06 edbb c521 be3d 86da 073e
00000160: b5a6 7e3e 4ae9 c63d 9d35 053e fe6c 3bbe
00000170: 4d4d 4c3e 1f81 e23c ac87 413e 4bd0 b23d
00000180: 830d 3b3e bb36 78be 0323 433e 655b f53d
00000190: e6bc 55be 1531 e0bd 040a 583e 2b4e 30bc
000001a0: 7ebc a53d a506 5bbc d74a 233e f5a3 333e
000001b0: 21b2 013e a0b2 20be 38d6 563e cad5 593e
000001c0: b3d4 5dbe 35e8 4ebe b3dd 57be f35d 00be
000001d0: 0230 0cbe ba87 6abd 22fe a1bd 70fc 68be
000001e0: bf11 023e 4a60 c13d b0ae 0b3d a117 543e
000001f0: b0d1 4dbd 555d ed3d 10e3 3d3e bd63 7bbe
0.036386352 0.15555096 0.1894156 0.19642921 0.12289075 -0.00091440795 0.16625258 0.2188703
-0.12526752 0.09916197 0.06964682 -0.18290037 -0.028061867 -0.14895168 -0.15007645 0.17008188
0.048889413 0.24441153 0.012591147 -0.24073586 0.15242426 -0.099268906 0.17272046 0.14284144
-0.18657608 -0.07876787 -0.0073287273 0.17845061 0.22596206 -0.06147692 -0.07201997 -0.21560694
-0.05170513 0.18218158 -0.20361754 0.2277555 -0.18022145 -0.024802573 0.015006022 -0.12096383
-0.19637905 -0.16830534 -0.055269323 -0.052407008 0.19053595 -0.04921516 0.017746538 0.14254653
0.15917319 0.07295105 -0.0019448089 -0.10615231 0.013840356 0.08332563 0.06535447 0.1640263
-3.825883e-06 0.014749612 -0.030748311 0.08652975 0.13558187 -0.099899456 0.16806194 -0.20656112
0.053680778 0.022256877 0.18856819 0.0535126 -0.012320119 -0.05261802 0.20519142 -0.26090512
0.12915789 -0.05487678 0.12807335 0.0467717 -0.059213404 0.04698387 -0.11424672 0.07524082
0.1648044 0.12497526 -0.18487935 0.19333182 0.08186171 -0.0072334157 0.09283785 0.13266954
0.24868281 0.09712465 0.13008733 -0.18303296 0.19951363 0.02764946 0.18899411 0.08731135
0.18266873 -0.24239628 0.19056325 0.11980323 -0.2087284 -0.10946862 0.2109757 -0.010760824
0.08092593 -0.013368283 0.15946518 0.17543013 0.12665607 -0.1569314 0.20980155 0.2127296
-0.2166317 -0.20205767 -0.21080665 -0.12535839 -0.13690189 -0.057258345 -0.079098 -0.22752547
0.12702082 0.09442194 0.03410214 0.20712139 -0.0502488 0.11590067 0.18543649 -0.24549766

encoder.graph_embed.bn.weight f4 [128]
00000000: 0970 743f 1477 7b3f 7f79 753f af87 7b3f
00000010: cd5f 723f 59c9 723f 7fad 7c3f 999b 813f
00000020: 1c2b 783f a461 783f ac72 7e3f 3c68 7a3f
00000030: b72b 763f 9995 723f a67d 7b3f bebf 773f
00000040: 3c3f 793f 6559 743f 151c 6f3f 374d 773f
00000050: 006d 7e3f 4949 7c3f 6fe7 773f 0b85 753f
00000060: 3722 773f efbf 6f3f 9305 7d3f 32e7 773f
00000070: b75f 6f3f b1df 773f 704e 6d3f b900 703f
00000080: 3e60 7c3f dcf2 653f dbae 7c3f c9d8 723f
00000090: 4ccb 813f 167e 733f 2e30 7f3f 7371 813f
000000a0: 7c2a 823f fb6e 763f 8ef7 7d3f 5fb6 803f
000000b0: 0cb7 763f 4e09 713f 536d 7a3f 857c 793f
000000c0: 393d 7e3f 8e26 763f d9a8 803f a188 763f
000000d0: 5461 7a3f 6dab 7b3f b133 763f eb66 813f
000000e0: 5288 743f b671 753f 4ee1 7b3f cbcb 783f
000000f0: ee88 783f d9db 7a3f be8c 7c3f 19bb 793f
00000100: faf7 7d3f 87cb 773f 7e4a 803f 3e65 713f
00000110: cb50 703f f9ff 743f 5d4f 7c3f ecac 6d3f
00000120: e7e8 813f d0f4 743f 99b3 7b3f 8aac 753f
00000130: 0057 7e3f d408 783f 4902 7d3f 3586 7e3f
00000140: 748f 803f 46c8 793f 5870 7e3f 53e5 763f
00000150: def2 783f 41a9 753f a67c 773f 5b49 753f
00000160: 1633 7b3f 5224 803f 18bf 753f 6b97 773f
00000170: e51e 7c3f 5e14 753f 4450 793f 4742 753f
00000180: ba81 723f 52e3 723f 35df 723f 928d 703f
00000190: b48b 7b3f 1ac4 703f b767 783f db92 773f
000001a0: 8155 743f 63c0 7b3f 3a87 7e3f ebb0 7f3f
000001b0: d6dc 723f 0874 7b3f f80c 7e3f d5f0 7e3f
000001c0: d78c 723f 2fd7 813f 0c21 793f 8c8e 7a3f
000001d0: 140c 733f b8b4 7b3f e967 723f 51da 773f
000001e0: 0d7c 7c3f ab97 6d3f fa17 773f c0a2 723f
000001f0: b57d 753f c2d7 783f 60fc 7a3f 9a64 7a3f
0.9548345 0.98228574 0.95888513 0.9825391 0.9467743 0.9483848 0.98702234 1.012561
0.9694078 0.9702399 0.99393725 0.978153 0.96160454 0.9475952 0.982386 0.9677695
0.97362113 0.95448905 0.93402225 0.96602196 0.9938507 0.98549324 0.96837515 0.9590613
0.9653658 0.9365224 0.9883663 0.9683715 0.93505424 0.968257 0.9269781 0.937511
0.98584354 0.898237 0.9870431 0.9486204 1.0140166 0.95114267 0.9968289 1.0112747
1.0169215 0.9626309 0.99205863 1.0055655 0.9637306 0.9415482 0.97823066 0.97455627
0.9931217 0.9615258 1.0051528 0.9630223 0.9780476 0.9830845 0.96172625 1.0109533
0.9552051 0.95876634 0.9839066 0.97185963 0.9708394 0.9799171 0.98652256 0.97551113
0.9920651 0.96794933 1.0022733 0.9429511 0.9387328 0.95703083 0.985586 0.9284198
1.0149201 0.95686054 0.9832092 0.959664 0.993515 0.9688847 0.9883161 0.99423534
1.0043778 0.9757122 0.9939017 0.9644367 0.97245586 0.95961386 0.96674573 0.95815057
0.98124826 1.0011084 0.9599471 0.9671542 0.9848464 0.957342 0.973881 0.95804256
0.947292 0.94878113 0.94871837 0.9396602 0.98260045 0.9404923 0.97033256 0.9670846
0.9544297 0.98340434 0.9942509 0.9987933 0.9486822 0.98223925 0.9923854 0.9958623
0.94746155 1.0143794 0.9731605 0.9787376 0.94940305 0.9832263 0.94689804 0.968175
0.98626786 0.9280955 0.9652096 0.94779587 0.9589494 0.9720422 0.98041344 0.97809756

encoder.graph_embed.bn.bias f4 [128]
00000000: bdd4 a33b d212 ca3b 741a af3c e575 a6bc
00000010: 8a5b dbbc a1bb 99bc 800c 0e3d ff92 cb3c
00000020: d5a9 bbbb 5c89 0fbc c89b 6dbc de28 123d
00000030: 9788 9abc bb96 16bd 1c2f 533c eb00 62bc
00000040: 1a6a cabc 07b4 b0ba 8a23 29bd ed04 97bb
00000050: 18da 4bbb 3ac1 a2bc bc5a ad38 5b38 123c
00000060: bfbb 283d 7b31 f13c 41a2 193c 69f3 163d
00000070: 716f c6bb 2ef5 aa3b eaed 20bd 8f08 a2bc
00000080: 8bd7 7cbd 5a4c 0bbd 1e66 97bc b9f4 b2bc
00000090: 9a41 533c 516f 13bd 554f 673b 1c84 d1bc
000000a0: 49c6 cd3c ffba 22bb bf9e 503c fc35 c5bb
000000b0: 690a 463c 1b6e 5fbc bdc5 043d 9ae8 7bbc
000000c0: 105f abb9 9b2f 13bc 8e41 803c c65e 63bc
000000d0: c67a d03c 0788 ccbc 47c6 f23b 9d4d d5bc
000000e0: 36c8 323d 986e 353d a53d 9c3c 0f9f c43c
000000f0: c154 2dbb 2755 c53b 79d6 22bc bdea e93b
00000100: d600 18bc ac54 e93c e9e6 5c3c 63a6 573d
00000110: 0272 12bd e8a6 a53c 46e4 0f3d 9420 213d
00000120: 1c06 883c e390 4a3d d754 503c 725f 723c
00000130: c4c5 8ebc 19ba 3e3c 142a 04bd 351f 9c3a
00000140: ff1c 17bc f14d 113c 021b ea3c 00ac 09bc
00000150: 2a8e d23b 69ad ac3c 0878 dd3c c100 d53c
00000160: 5774 1f3b a943 83bc 6891 07bd d2a1 a83c
00000170: 6eb3 d1bc ec19 c63c fb99 21bd 0bb1 b63b
00000180: e47d a3bc c6f8 003d 02fd 9cbc 80a8 a33c
00000190: f506 933b 57da bc3b ac2e 2cbc e25c e23c
000001a0: b250 a1bc 73df ca38 6b5b 14ba d0a5 03bc
000001b0: dcfe 4abc 4c99 8a3a fbc4 0fbd bab8 7c3c
000001c0: 2d30 2d3c 2d5c acbc 1d3a 07bc d3bc 333c
000001d0: b385 90bb 4fc8 5dbc 98be debc f8ff 0d3d
000001e0: a608 c7bc 4396 2c3d 32a6 bbbc f6aa f33b
000001f0: 24b9 28bc d767 d43c 40bf 81bb 7895 0d3c
0.0049997256 0.0061667943 0.021374919 -0.020319888 -0.026777048 -0.018766226 0.03467989 0.024850367
-0.0057270327 -0.008760776 -0.014502473 0.035683505 -0.01886396 -0.03676484 0.01288965 -0.013794164
-0.024708796 -0.0013481387 -0.04129366 -0.0046087415 -0.0031105336 -0.019867528 8.2661834e-05 0.008924569
0.041194674 0.02944254 0.009377063 0.036853228 -0.0060557653 0.005217216 -0.039289393 -0.019779472
-0.061728995 -0.03400836 -0.01848131 -0.021845208 0.012894059 -0.03599483 0.0035295088 -0.02557569
0.025118964 -0.0024830697 0.0127331605 -0.0060183983 0.012087443 -0.013637091 0.03241514 -0.015375281
-0.0003268649 -0.008983518 0.015656259 -0.013877576 0.025449168 -0.024967207 0.0074088904 -0.026037985
0.043647967 0.044294924 0.019072363 0.024001626 -0.0026448222 0.006022114 -0.00993883 0.0071385787
-0.009277543 0.028482758 0.013482788 0.052648913 -0.035753258 0.020221189 0.035129808 0.03933771
0.016604476 0.04945458 0.01271554 0.014793264 -0.017428286 0.011641049 -0.03226669 0.0011911156
-0.009223222 0.00886868 0.028577331 -0.008402824 0.0064256387 0.021078782 0.027034774 0.026001336
0.0024330819 -0.016023474 -0.033097655 0.020584974 -0.025598254 0.024182282 -0.039453488 0.0055753044
-0.01995749 0.03148725 -0.019163612 0.019977808 0.0044869133 0.005763333 -0.010509174 0.02763218
-0.019691799 9.673731e-05 -0.00056593743 -0.008035138 -0.012389865 0.001057425 -0.035099965 0.015424902
0.010570568 -0.021040047 -0.008253601 0.010970312 -0.0044104694 -0.013536527 -0.027190492 0.03466794
-0.024296116 0.04213549 -0.022906397 0.0074361516 -0.010298047 0.025928421 -0.0039595664 0.008641593

encoder.graph_embed.bn.running_mean f4 [128]
00000000: 9b79 3cbc 86bb 7dbd 865b 493d 9c8f 3b3d
00000010: aa29 ca3c 5633 c43c e26d 2b3e 8cca c23b
00000020: e633 b8bc c429 8b3d 9b96 77bb 0462 55bc
00000030: 9399 31ba dc5c 603d 1300 823b 754d c7bd
00000040: da1b e23d 6d89 923c d194 15bd b028 1ebd
00000050: 67ad f4ba 8d22 74bc 1dbb 583d 32d5 14bc
00000060: c819 b13d d405 243d be1e db3c ae1b 5dbd
00000070: 1b27 253b 6a12 86bc 2a8b 78bd cee3 c1bc
00000080: a221 0dbd 1141 6c3d 0101 b43b 3652 b03d
00000090: ed5b ac3c 8728 773d 0306 5bbd 87b8 6cbd
000000a0: 64dc efbc b189 5c3d ba2c 11bd 0920 5b3d
000000b0: 5a43 7b3d 5bbf c2bc c740 103d 062a f8ba
000000c0: 5cf4 153d 6e24 c83c ea6c aebc 24ac 60bc
000000d0: 6206 393e 3c9e 843c 5bbf 6d3d fdd6 393c
000000e0: 449d eb3d 607c 833b d38f e33c 929e fdbc
000000f0: e3fb 0c3c ad9f 493d 0397 523e 90b6 963c
00000100: 6c45 33bd c162 39bd fed8 db3d 5e6f 433d
00000110: 9722 3ebd c051 0abd 1f01 2bbc ec8c ac3c
00000120: 455f 4e3b 40f4 bcbc f2d3 e63d 3f39 2dbb
00000130: 39f5 4a38 fe53 dcba 7eb6 f9bc a389 ce3c
00000140: 5d77 2cbc f66e a1bc be17 9f3d e491 573c
00000150: aefd 633c f95e 36bd 53d3 8cbd 17e9 68ba
00000160: bd43 cebc 96b5 43bc c24b e3bd 5f68 06bd
00000170: eb38 ec3d bb60 10bd e932 c83c bd05 36bd
00000180: 2098 9fbd 090e d3bc 06d6 04bd 94e3 693e
00000190: 2942 b2bc dc8b 33bd 1ce3 943d f6f5 90bc
000001a0: fa13 9f3d 6380 0639 477e f93c 036d 2e3d
000001b0: cffb d4bc bc80 4ebc 8662 e03c 57ee fa3c
000001c0: 25a7 8dba e638 65bc 0d72 4b3d 9c03 1f3d
000001d0: 6a3a 91bb 4b50 13bd 9707 113b 1004 29ba
000001e0: 42c0 233c ffef 27bd 92ff dbbd 8036 9cbc
000001f0: de27 a73c a649 ca3c a055 963d c693 273d
-0.011503602 -0.061946414 0.04915955 0.045791253 0.02467807 0.02395026 0.16741136 0.0059445556
-0.022485685 0.067950755 -0.0037778977 -0.013023857 -0.00067748985 0.054776058 0.003967294 -0.09731571
0.110404685 0.017887795 -0.036518876 -0.03861302 -0.00186674 -0.014900816 0.05291282 -0.009084033
0.086474955 0.04004462 0.026748057 -0.053981476 0.002520031 -0.016366202 -0.060679592 -0.023668196
-0.034455903 0.05767924 0.0054932837 0.086094305 0.021039927 0.060341384 -0.05347253 -0.057793166
-0.029279895 0.05384225 -0.035443045 0.053497348 0.06134353 -0.023772886 0.035218026 -0.0018933422
0.036609992 0.024431434 -0.021292169 -0.0137129165 0.18068841 0.016188733 0.05804382 0.011342761
0.115046054 0.0040126294 0.027778542 -0.030959401 0.008604976 0.049224544 0.20565419 0.0183976
-0.043767378 -0.045260195 0.10734747 0.04771363 -0.046419706 -0.03376937 -0.010437279 0.02106329
0.003148989 -0.023065686 0.11270894 -0.0026431826 4.8388934e-05 -0.00168097 -0.030482527 0.025212115
-0.010526505 -0.01970623 0.077682 0.013157342 0.013915462 -0.044524167 -0.068762444 -0.0008884831
-0.025178785 -0.011945149 -0.11098434 -0.03281438 0.11534294 -0.0352485 0.024438338 -0.044439066
-0.077926874 -0.025763528 -0.03243067 0.2284072 -0.021760063 -0.043834552 0.0726988 -0.017695408
0.07767482 0.00012827064 0.030455722 0.04258443 -0.025998978 -0.012603935 0.02739073 0.030631227
-0.0010807259 -0.013990616 0.049669314 0.0388218 -0.0044320123 -0.035965245 0.0022129768 -0.0006447444
0.009994568 -0.041000362 -0.107421055 -0.019068956 0.020404752 0.024693321 0.073405504 0.040912412

encoder.graph_embed.bn.running_var f4 [128]
00000000: 0242 ec3b 81a4 373b 1313 2b3c 3321 c23b
00000010: aa78 073c 71f3 743b 0b5c 4f3c 9b0f 5b3b
00000020: 8b4e 783b 7d5a 073c 59cf ac3b 2446 bc3b
00000030: 9ebb 563b a962 853c 5e18 943b 7e69 593b
00000040: cadb 093d 50f5 583b 2375 4b3b e601 9e3b
00000050: a7f1 b43a 2b01 133b 2b64 163c 87f2 3d3b
00000060: a554 fe3b dc15 f43b 315b bf3b c847 d83b
00000070: 0ba1 973a eda9 093b 7804 ab3b 8359 013c
00000080: b7d0 383b 7bbf 5c3c dd63 773b 5c93 c13b
00000090: 2792 9f3b 00e5 283c 4ea7 7b3b 0fe6 a03b
000000a0: a5d6 063b 461e e63b 3d82 043b 037b 083c
000000b0: e489 fd3b 0f98 463b 0765 3b3c 7a10 833b
000000c0: 2bea fb3b 5f24 023c 9659 033c 67a9 b03a
000000d0: 7cd3 0d3d 3235 b03b c1d2 343b e566 363c
000000e0: 35a7 e03b 3709 0e3b 03a2 903b 3839 b23a
000000f0: 29ee 043c 4e12 ea3c a438 833d 6839 2a3b
00000100: 2b82 3f3b ab75 2c3b 76db ee3b 424b 093c
00000110: 4b76 703b 6bfe 023c a21d 963b efcf 053c
00000120: ced5 393b 8c35 be3b 075a 2a3c 8fed 353b
00000130: fe25 8c3b 63b4 eb3b 373e 8f3b 3e49 693b
00000140: 7a6a 7a3b 0945 ef3b c670 5d3c 2d72 ca3a
00000150: 517e 293c ffcd 543b 4fcc 463b 0da6 4b3b
00000160: b727 cc3a c3b5 3a3b 1ac0 743b 2aa5 a73a
00000170: 9cb9 cb3c e4b8 d03b 62ef 0c3c 72a6 5d3b
00000180: 1e5b 783b 9c18 3a3b 3576 a03b db69 da3c
00000190: 1b12 583b 6851 463c 1745 d33b b6ec f03b
000001a0: 17d5 793b 2f05 e23a 58c5 5b3b bbee c13b
000001b0: 21d0 143b 41ff a83b 7c66 153c 99b0 183b
000001c0: 0ed8 253b e849 093b 90e4 953b 2a14 783b
000001d0: eeaf 023b c77d af3b bc96 d33b d6b3 3c3b
000001e0: f76b 1e3b 5ffc 883b 77a9 aa3b 8a31 593b
000001f0: 0660 853b 6ac8 943b cff7 323c 76c2 663b
0.007210017 0.0028021636 0.010441559 0.005924368 0.008268515 0.0037376548 0.012656222 0.003342605
0.0037888612 0.00826132 0.005273741 0.005745666 0.0032765637 0.016282396 0.0045195064 0.003317445
0.033656873 0.0033105202 0.003104516 0.0048220037 0.0013804928 0.0022431116 0.009179155 0.002898367
0.0077615553 0.007448895 0.0058397283 0.006600354 0.001156838 0.0021005825 0.0052190386 0.007894876
0.0028200576 0.013473387 0.0037748732 0.005907459 0.0048697176 0.010308504 0.0038399282 0.0049102376
0.0020574715 0.007022652 0.002021923 0.0083301095 0.007737385 0.0030303036 0.011437661 0.003999767
0.007687827 0.007943242 0.008016964 0.001347822 0.034625515 0.005377435 0.002759144 0.01113293
0.00685587 0.0021672973 0.0044138446 0.0013597375 0.008113422 0.028573181 0.06407288 0.0025974158
0.0029221873 0.0026315253 0.0072893454 0.008379759 0.0036691602 0.007995228 0.004581169 0.008167251
0.0028356197 0.005804723 0.010397441 0.0027760004 0.00427699 0.0071931346 0.0043714303 0.0035596634
0.0038210438 0.007301931 0.013515657 0.0015445404 0.010345058 0.0032471416 0.003033418 0.0031074316
0.0015575801 0.0028489686 0.0037345947 0.0012790312 0.024868779 0.006369697 0.008601995 0.0033821133
0.0037896107 0.0028396016 0.004896904 0.026661804 0.0032969776 0.01210437 0.006447445 0.007352437
0.0038121396 0.0017243976 0.0033534374 0.0059183515 0.0022707062 0.0051573818 0.009118672 0.002329862
0.002530578 0.0020948593 0.004574366 0.0037853816 0.0019941288 0.00535557 0.006457178 0.0028793714
0.0024173239 0.0041804756 0.00520819 0.00331411 0.004070285 0.004540493 0.01092334 0.0035211123

encoder.graph_embed.GCN_layers.0.A f4 [9, 9]
00000000: 41e7 0d3f 8225 983e c176 8e3e 3767 873d
00000010: 2ac8 b63f b577 383d 0ca1 00be eb89 323f
00000020: 65ab 5a3f fbf3 b8bd b61a 0140 fbc2 07bf
00000030: 1956 483f 1f76 1140 091b c73e 2fb2 9c3e
00000040: 0228 673e 466b 60bf 5cb1 e43e 2f13 4e3e
00000050: d048 edbe 64c7 3bbf f1a5 07bf 2b0a ba3c
00000060: 876e 8ebe 1a01 c73f a007 19bf f0a2 893e
00000070: c97e 353f 59e7 a7be 5d60 793c b017 8dbf
00000080: 4f58 cdbf fcf6 27bf 67f1 82bf f2bf f0be
00000090: 481e 723e 9a88 99be 6a46 bbbe 5b37 9ebe
000000a0: cde7 eebf 3a0e 923d 1642 d6bb 9a82 703f
000000b0: 433b c93f 7af0 c8bf df35 1cbf bf10 26be
000000c0: 3201 54bc 5ec3 bd3f b28d db3f 9c97 613f
000000d0: c820 0940 af0e 4e3f b4f5 083e e820 74be
000000e0: bf8f 5f3f aefb 7ebd ff91 93be 1081 a1bf
000000f0: 0881 47bf 51bc 4abe e940 03be b080 c2bf
00000100: bba7 ecbf 2743 9b3f 3478 2940 5029 0fc0
00000110: 2b1e de3b e2f4 5a3e c0cb 5abe 9125 e2bf
00000120: 69ad 503f d575 723f 4dd4 b43e ce80 9c3d
00000130: c83c f1be cb9d eb3f 5b6e c4bf 3d9d dcbe
00000140: 6364 4e3f
0.5543099 0.29716116 0.27824977 0.066114835 1.4279835 0.045036037 -0.12561435 0.69741696
0.8541778 -0.090309106 2.0172553 -0.5303189 0.78256375 2.2728345 0.38887814 0.30604693
0.22573856 -0.87663686 0.44666564 0.20124505 -0.46344614 -0.7335112 -0.5298758 0.022709927
-0.278187 1.5547211 -0.5977726 0.26882124 0.70896584 -0.32793692 0.015220729 -1.1022854
-1.6042575 -0.65611243 -1.022992 -0.47021443 0.23644364 -0.2998703 -0.3657716 -0.30901608
-1.866449 0.0713162 -0.00653864 0.9394928 1.572121 -1.5698388 -0.610197 -0.16217326
-0.012939738 1.4825246 1.7152617 0.8812196 2.1426258 0.80491155 0.13374978 -0.23840678
0.87328714 -0.06225174 -0.28822324 -1.2617512 -0.7793126 -0.197984 -0.1281773 -1.5195522
-1.8488687 1.2129868 2.6479616 -2.2368965 0.0067784986 0.21382478 -0.21366787 -1.7667714
0.815146 0.9471105 0.35318223 0.07641755 -0.47116685 1.840753 -1.5346178 -0.43088713
0.8062193

encoder.graph_embed.GCN_layers.0.linear.weight f4 [128, 128]
00000000: dfdd 8b3c f7e0 3fbd 4e30 a43d b46f 6e3d
00000010: 8cad ad3c 4d38 0abd 196a aa3c 163e e03d
00000020: 9daa 7e3c 8c4e edbc bc15 c4bc cf9d 50bd
00000030: 5488 c4bd b7e1 6f3d e5c3 813b 1236 a63d
00000040: d334 8ebc fe0f 69bd 63b2 1a3d 5257 933c
00000050: 7ea5 83bd 24f7 8f3c c1f1 87bd 42ea 213d
00000060: 681c 69bd d425 09bd 3d48 ae3d 7358 0cbd
00000070: 6937 5abc 367d 1abd 0e7a 7cbd 9eff 82bc
00000080: ee56 833c 7a8e a2bc 52e2 183d bd41 b9bc
00000090: 4ad1 d6bb fb8f 1f3c 109e fcbb 8078 8f3c
000000a0: 93ad 60bd 9eb7 083c 8af9 91bd ba06 a3bd
000000b0: cd19 bfbd d700 9ebc a396 ba3d 7b37 883d
000000c0: eb8b 94bc cdd6 b5bd 2c63 ea3c 2131 43bd
000000d0: 2d50 8d3d cbfe 403c 4741 f8bc 6b13 9f3d
000000e0: 15d2 5fbd 535d ab3d 2919 293d 585f 35bd
000000f0: c54d a73d c24d 96bd 251d e3bc a04b 5dba
00000100: d97c 87bd c619 623c c915 5abd be97 45bd
00000110: 05db 0bbd 3e7b dabc 0552 2f3d 8322 5ebd
00000120: 6ab2 f03c 0512 d8bd a0dd 93bd b84b 2d3d
00000130: 650f 23bd 3e22 04bb e9e1 bb3c e2e9 403d
00000140: 9314 91bd ed7b 6e3d e761 9f3d 9e7d 0bbd
00000150: 98dd b5b8 9375 9bbd 6a04 89bd f932 99bd
00000160: a4ea a53d dfb8 c73c c4a3 e23c 815b 883a
00000170: 4d2e 11bd 26ca 95bd 2989 87bb 52ef 883d
00000180: 2adc 09bc d87a 32bd 50b2 ebbc a867 523d
00000190: 3821 a73c 1eca 1cbd 2c8a d2bb 5c16 203d
000001a0: d8a3 fe3c f005 103d 376a 853b 81e2 9ebd
000001b0: 679f b0bd 3485 9bbd 54ed dc3b 0f7a 933c
000001c0: dfb4 8e3d 52b6 12bd f708 7f3d e0d9 993d
000001d0: d857 2e3d 623f 16bd 6c4c b9bc a9c5 aabd
000001e0: cc00 9fbd c0bb 853d 5ab4 1b3a 4463 d8bb
000001f0: 37ee cf3c 25b7 1f3d 4741 94bd 6849 fb3c
00000200: 4b0a 423d fcdb 8cbd be25 5b3d 5f2a 8cbd
00000210: 29c9 c73c ec53 a5bd 10ae 383c 9f04 383c
00000220: 92bd 0abc 40d2 d33c 828b 37bd 0cfb a8bd
00000230: 4d18 f2bc a910 8e3c 90c2 bbbb 4de9 15bc
00000240: 8719 e13c bd37 9c3d cf93 07bd ac25 473d
00000250: a378 883c ec01 8dbd 5064 3bbd de33 cfbd
00000260: d03f 2c3d 1304 68bd d323 51bd 350f 6f3c
00000270: e613 a5bb 2e37 af3d 16b1 283d c573 20bd
00000280: a4a1 88bd 2814 96bd 500e 3838 72c8 5dbc
00000290: 4e3c 553d 6e3d aabd 04a2 68bd 4a1b 0f3b
000002a0: 6de4 9ebd 5b0e a4bd ea7a c6bb 2d72 97bd
000002b0: 4965 88bd 516f a23b ea4d 81bc 409a 86bb
000002c0: e927 4d36 b299 e2bd 6455 dc3c 8c8c e83c
000002d0: fab7 9e3d 072e 41bd 16bf 19bd f32c adbd
000002e0: 6c5d f2bb b234 10bb f70a 19bd f859 42bc
000002f0: a659 eabc b05e b1bb 6b2c 793d bd1b 6c3d
00000300: d90a 8abc d51d 433d 0a66 003b 49eb 683d
00000310: dcc3 0dbd cde1 2ebd 22db aa3d b19e 4ebd
00000320: c8b0 813d 5279 a0bd 1137 c43b 3043 9cbd
00000330: a749 303d 972f 4cbd f2e5 32bd dfb5 35bd
00000340: c095 743c c4df b0bc 2293 313d 68db 823c
00000350: 18e7 86bc 96a5 03bd 0dc9 3b3d eb77 be3d
00000360: 1c5a 0abc e9df 84bb 216a 403d 27d3 b3bd
00000370: 15fe 5f3c 8262 ccbc ff97 03bd 28ac ab3d
00000380: 5a4c 10bd b79e 00bd 7b58 953d 6d8d 41bd
00000390: bbfc 3e3d 87dd f1ba adbd 6bbd d9ec bc3c
000003a0: 05a5 8fbd ae13 463d f5d5 6dbc 1608 7e3d
000003b0: 39ab 913c 7c83 c2bd 6fb5 b53d f7d8 6abd
000003c0: b184 ac3c 71f6 963d 9022 c1bd daf3 71bc
000003d0: ed90 833d b1a8 a5bc fff7 b73c b679 65bc
000003e0: d6e3 0d3c d3c6 2c3d 24af ecbc 8912 4f3d
000003f0: e851 ff3c 34f3 673b 54b2 8c3d 8342 8f3c
0.01707357 -0.046845403 0.08017026 0.058211997 0.021200918 -0.0337451 0.020802544 0.10949342
0.015543607 -0.028968118 -0.023936145 -0.050931748 -0.09596315 0.058564868 0.00396012 0.08115782
-0.017359173 -0.056900017 0.03776778 0.017985974 -0.064280495 0.0175739 -0.06637908 0.039530046
-0.056911856 -0.03348334 0.08509872 -0.03426404 -0.013318875 -0.037717067 -0.061639838 -0.015991028
0.016032662 -0.019843329 0.03732521 -0.022614354 -0.006555711 0.009738917 -0.007709272 0.017513514
-0.054853033 0.008344559 -0.07127674 -0.07960267 -0.09331093 -0.01928751 0.09110763 0.06651207
-0.018133124 -0.088788606 0.028611742 -0.047654275 0.06900058 0.011779497 -0.030304564 0.077673756
-0.05464371 0.083674096 0.04128376 -0.04428038 0.0816913 -0.0733905 -0.027723858 -0.000844175
-0.0661561 0.01380009 -0.053243432 -0.048240416 -0.03414442 -0.026670095 0.04280283 -0.05423213
0.02938195 -0.10550312 -0.07220006 0.04230854 -0.039809603 -0.0020162011 0.02293487 0.047098048
-0.07084002 0.058223654 0.07782345 -0.034055345 -8.6720276e-05 -0.07590785 -0.06690295 -0.074804254
0.08101395 0.024380146 0.02766598 0.0010403247 -0.035444546 -0.073139474 -0.004136224 0.06686272
-0.008414308 -0.043574184 -0.02877155 0.051368386 0.020401582 -0.03827869 -0.006425163 0.039083824
0.031083986 0.035161912 0.0040714997 -0.07758046 -0.086241536 -0.07593766 0.006742159 0.018002538
0.06968092 -0.035818405 0.06226441 0.075122595 0.042564243 -0.03668154 -0.022619449 -0.08338482
-0.07763824 0.06529951 0.0005939655 -0.0066036303 0.025382144 0.03899302 -0.07239013 0.030674651
0.047373097 -0.06877896 0.05350279 -0.06844019 0.024387913 -0.080726475 0.0112719685 0.0112315705
-0.008468049 0.025857091 -0.04481078 -0.082510084 -0.029552603 0.017341929 -0.0057299808 -0.0091498615
0.027477993 0.07627819 -0.033099946 0.04861991 0.016659087 -0.06885132 -0.045749962 -0.10117315
0.042053044 -0.05664451 -0.051059555 0.014591028 -0.0050377725 0.085554466 0.041184507 -0.039172906
-0.066714555 -0.07328063 4.3882348e-05 -0.013536559 0.052059464 -0.08312498 -0.056795135 0.0021836334
-0.077584125 -0.080105506 -0.006057133 -0.07394824 -0.066599436 0.0049571176 -0.015784223 -0.0041077435
3.0570611e-06 -0.11064471 0.026896186 0.02838733 0.077499345 -0.047163036 -0.03753575 -0.08455839
-0.0073963907 -0.0022004065 -0.037363973 -0.0118622705 -0.0286072 -0.005412899 0.060833376 0.05764364
-0.016850876 0.047635872 0.001959207 0.05686501 -0.034610614 -0.04269581 0.083425775 -0.05044431
0.063325465 -0.0783564 0.0059880097 -0.076300025 0.04303899 -0.049850073 -0.043676324 -0.0443629
0.014928281 -0.021591075 0.043353207 0.015973762 -0.016467616 -0.032140337 0.045846034 0.09300216
-0.008444335 -0.0040550125 0.046976212 -0.087805085 0.013671418 -0.024949316 -0.032127377 0.083824456
-0.035229065 -0.031401362 0.07292267 -0.047254015 0.04662774 -0.0018452861 -0.057553936 0.023062157
-0.07013897 0.04835861 -0.014516343 0.06201943 0.01778184 -0.09497735 0.08872496 -0.05733582
0.021059366 0.07371224 -0.094304204 -0.014767611 0.06424127 -0.02022204 0.022457121 -0.014006069
0.008660277 0.0421818 -0.028892107 0.050554786 0.031166986 0.0035392763 0.06869951 0.01748777

encoder.graph_embed.GCN_layers.0.linear.bias f4 [128]
00000000: b4fd 163d 9cc3 803b 7e56 58bd 8a3b fc3c
00000010: 4747 6b3a 76f4 ea3c c302 38bd 43ed b23c
00000020: 55b1 003c 24ec b8bc e9c4 97bd 7eeb cb3c
00000030: d1ae dd3c b9dc 153d 5591 7cbc f3af 52bd
00000040: 56b0 d7bc 569a 9b3c 8034 2bbd 01db 803a
00000050: b9f8 9b3c b5e0 ddbb e544 2ebd 2507 30bd
00000060: 823e 943d 1e51 053d e53b 03bd d049 353d
00000070: a0f6 583d 3983 373d 2280 c0bd 5839 8fbc
00000080: 9a1b dabc 73cf ef3c 7372 b63c 6e13 90bd
00000090: b1d8 84bd 6545 85bd c63a 713d 1d38 83bd
000000a0: 5718 123d 720d 93bc a59e 733b 4124 323d
000000b0: d5a9 a23c d156 b1bc 8c27 81bc ce86 b23c
000000c0: 8794 0f3d e49c 153d 3cb3 5d3d 4a6f c8ba
000000d0: 3202 52bc 59ab 87bd eb4f 9cbc c298 7bbc
000000e0: f649 ddbc f7c1 193c e33b dbbc 40c6 623d
000000f0: 6156 d8bc a0bc a0bd f964 d2bc 0ac0 a7bc
00000100: 6f67 27bd 0c3d 733c 4b87 b5bc fa73 07bd
00000110: 59f2 db3b 03e5 e43c eafa ebbc 8b25 0e3d
00000120: c16b 77bd 04f2 c03c 66d3 90bd 5761 c1bc
00000130: dc71 333c 7869 32bd 5d29 f23c 7d25 b93a
00000140: 8feb 37ba 5124 793d b646 b73d 6ac6 3c3c
00000150: 09a3 a13c 4b08 2b3b 7faa dc3d ccc3 093e
00000160: 9321 f4bc e6c5 4bbd 8e3f 95bc ed3b 4cbd
00000170: d2a7 6fbb 790a cb3d 734f 5fbb fa02 fdbc
00000180: 5afa 8b3c 6b42 6d3d eee3 c7bc 5a7c 74bc
00000190: f24c 11bd 900e 0bbd be1e 553c fbc2 243d
000001a0: bb21 a1bd 958e 783d c752 b3bc c64a 0fbd
000001b0: 9324 f53b e5c5 ddbb 9dfb a23c 5b2a 0e3d
000001c0: c816 95bc 1a24 44bd 9cb4 f63a f4c9 dbbc
000001d0: 0c38 743c 08b2 b03d fca6 8a3c 86d3 003d
000001e0: cc02 75bc 9e5e ba3d 5df5 2f3d 7470 8e3c
000001f0: 6d34 f7bc efba ae3d faf5 bebc 424d cebc
0.036863044 0.0039295685 -0.05281686 0.03079011 0.000897516 0.028681021 -0.04492451 0.02184165
0.007854779 -0.022573538 -0.074106045 0.024892565 0.027060898 0.03658745 -0.015415509 -0.05143733
-0.0263292 0.018994492 -0.041798115 0.0009830893 0.019039499 -0.006771172 -0.04254617 -0.042975564
0.07238485 0.032548063 -0.03203954 0.044259846 0.052969575 0.044802878 -0.093994394 -0.017483398
-0.02662449 0.029273724 0.02227137 -0.07034956 -0.06486643 -0.065073766 0.05889394 -0.06407187
0.035667744 -0.017950747 0.0037173417 0.043491606 0.019856373 -0.021647843 -0.015765928 0.021792796
0.035053756 0.036526576 0.05412601 -0.0015291956 -0.012817906 -0.06624479 -0.019081077 -0.0153562445
-0.027012806 0.009384624 -0.026761955 0.055364847 -0.026408376 -0.07848477 -0.025682913 -0.020477314
-0.040870126 0.014846098 -0.02215924 -0.03306959 0.0067122397 0.027941233 -0.028806169 0.034703773
-0.060405497 0.023552902 -0.07071571 -0.023605986 0.010952439 -0.043557614 0.02956074 0.0014125552
-0.0007015997 0.06082565 0.08949034 0.011521915 0.019731062 0.0026097472 0.10774707 0.13453597
-0.029801166 -0.049749278 -0.018218782 -0.049861837 -0.0036568535 0.09914107 -0.0034074455 -0.030885208
0.01708715 0.05792467 -0.024400678 -0.014922226 -0.03547377 -0.033949435 0.013007818 0.04022501
-0.07867762 0.06068285 -0.021890057 -0.03498342 0.0074811666 -0.0067679756 0.01989537 0.034708362
-0.01819934 -0.04788599 0.0018822136 -0.026829697 0.014905941 0.08627707 0.016925327 0.031451724
-0.01495428 0.09100078 0.042958606 0.017387606 -0.030176366 0.085317485 -0.02331065 -0.025183324

encoder.pos_enc.pe f4 [500, 128]
00000000: 0000 0000 0000 803f 0000 0000 0000 803f
00000010: 0000 0000 0000 803f 0000 0000 0000 803f
00000020: 0000 0000 0000 803f 0000 0000 0000 803f
00000030: 0000 0000 0000 803f 0000 0000 0000 803f
00000040: 0000 0000 0000 803f 0000 0000 0000 803f
00000050: 0000 0000 0000 803f 0000 0000 0000 803f
00000060: 0000 0000 0000 803f 0000 0000 0000 803f
00000070: 0000 0000 0000 803f 0000 0000 0000 803f
00000080: 0000 0000 0000 803f 0000 0000 0000 803f
00000090: 0000 0000 0000 803f 0000 0000 0000 803f
000000a0: 0000 0000 0000 803f 0000 0000 0000 803f
000000b0: 0000 0000 0000 803f 0000 0000 0000 803f
000000c0: 0000 0000 0000 803f 0000 0000 0000 803f
000000d0: 0000 0000 0000 803f 0000 0000 0000 803f
000000e0: 0000 0000 0000 803f 0000 0000 0000 803f
000000f0: 0000 0000 0000 803f 0000 0000 0000 803f
00000100: 0000 0000 0000 803f 0000 0000 0000 803f
00000110: 0000 0000 0000 803f 0000 0000 0000 803f
00000120: 0000 0000 0000 803f 0000 0000 0000 803f
00000130: 0000 0000 0000 803f 0000 0000 0000 803f
00000140: 0000 0000 0000 803f 0000 0000 0000 803f
00000150: 0000 0000 0000 803f 0000 0000 0000 803f
00000160: 0000 0000 0000 803f 0000 0000 0000 803f
00000170: 0000 0000 0000 803f 0000 0000 0000 803f
00000180: 0000 0000 0000 803f 0000 0000 0000 803f
00000190: 0000 0000 0000 803f 0000 0000 0000 803f
000001a0: 0000 0000 0000 803f 0000 0000 0000 803f
000001b0: 0000 0000 0000 803f 0000 0000 0000 803f
000001c0: 0000 0000 0000 803f 0000 0000 0000 803f
000001d0: 0000 0000 0000 803f 0000 0000 0000 803f
000001e0: 0000 0000 0000 803f 0000 0000 0000 803f
000001f0: 0000 0000 0000 803f 0000 0000 0000 803f
00000200: a46a 573f 4151 0a3f 1c00 433f 28dd 253f
00000210: ce7a 2e3f b054 3b3f 3acd 1a3f aae4 4b3f
00000220: ba7d 083f 0d94 583f e396 ef3e d53d 623f
00000230: f090 d13e c792 693f 61d7 b63e a91e 6f3f
00000240: 3e39 9f3e 6b4e 733f 1776 8a3e 1176 763f
00000250: 258f 703e f1d5 783f 61ce 503e 099f 7a3f
00000260: 3a23 353e 83f6 7b3f e310 1d3e 7cf8 7c3f
00000270: f325 083e 28ba 7d3f 5cf9 eb3d 844b 7e3f
00000280: 7675 cc3d 98b8 7e3f bf20 b13d 6e0a 7f3f
00000290: 366f 993d d147 7f3f 60e6 843d de75 7f3f
000002a0: ae36 663d 6898 7f3f 1262 473d 4fb2 7f3f
000002b0: faac 2c3d bdc5 7f3f c58a 153d 4fd4 7f3f
000002c0: 5b81 013d 3cdf 7f3f a44d e03c 6ee7 7f3f
000002d0: a53e c23c 93ed 7f3f 8236 a83c 2ff2 7f3f
000002e0: 42ab 913c a3f5 7f3f a34a 7c3c 3bf8 7f3f
000002f0: 497a 5a3c 2cfa 7f3f fa31 3d3c a1fb 7f3f
00000300: 57d6 233c b9fc 7f3f bae0 0d3c 8bfd 7f3f
00000310: 16b9 f53b 28fe 7f3f b3c9 d43b 9efe 7f3f
00000320: 5a44 b83b f7fe 7f3f a391 9f3b 39ff 7f3f
00000330: 5a2e 8a3b 6bff 7f3f e951 6f3b 90ff 7f3f
00000340: 1c3e 4f3b acff 7f3f fe76 333b c1ff 7f3f
00000350: 0369 1b3b d1ff 7f3f 6794 063b ddff 7f3f
00000360: 2015 e93a e6ff 7f3f 54d7 c93a ecff 7f3f
00000370: 8ac9 ae3a f1ff 7f3f 095c 973a f5ff 7f3f
00000380: 6d12 833a f8ff 7f3f e201 633a faff 7f3f
00000390: 8994 443a fbff 7f3f 433b 2a3a fdff 7f3f
000003a0: 136a 133a fdff 7f3f ab4f ff39 feff 7f3f
000003b0: 2117 dd39 ffff 7f3f d774 bf39 ffff 7f3f
000003c0: 61cb a539 ffff 7f3f 7592 8f39 ffff 7f3f
000003d0: 0da8 7839 0000 803f e253 5739 0000 803f
000003e0: 5377 3a39 0000 803f 1979 2139 0000 803f
000003f0: 6dd4 0b39 0000 803f dd2c f238 0000 803f
0.0 1.0 0.0 1.0 0.0 1.0 0.0 1.0
0.0 1.0 0.0 1.0 0.0 1.0 0.0 1.0
0.0 1.0 0.0 1.0 0.0 1.0 0.0 1.0
0.0 1.0 0.0 1.0 0.0 1.0 0.0 1.0
0.0 1.0 0.0 1.0 0.0 1.0 0.0 1.0
0.0 1.0 0.0 1.0 0.0 1.0 0.0 1.0
0.0 1.0 0.0 1.0 0.0 1.0 0.0 1.0
0.0 1.0 0.0 1.0 0.0 1.0 0.0 1.0
0.0 1.0 0.0 1.0 0.0 1.0 0.0 1.0
0.0 1.0 0.0 1.0 0.0 1.0 0.0 1.0
0.0 1.0 0.0 1.0 0.0 1.0 0.0 1.0
0.0 1.0 0.0 1.0 0.0 1.0 0.0 1.0
0.0 1.0 0.0 1.0 0.0 1.0 0.0 1.0
0.0 1.0 0.0 1.0 0.0 1.0 0.0 1.0
0.0 1.0 0.0 1.0 0.0 1.0 0.0 1.0
0.0 1.0 0.0 1.0 0.0 1.0 0.0 1.0
0.84147096 0.54030234 0.7617204 0.6479058 0.68156135 0.731761 0.604694 0.7964579
0.53316844 0.8460091 0.46794805 0.883756 0.4093089 0.9123959 0.35711196 0.9340616
0.3109836 0.9504153 0.2704322 0.96273905 0.23492105 0.9720145 0.20391227 0.9789892
0.17689219 0.9842302 0.15338473 0.9881666 0.13295726 0.99112177 0.11522171 0.9933398
0.099833414 0.9950042 0.08648824 0.9962529 0.07491915 0.9971896 0.06489253 0.99789226
0.05620449 0.9984193 0.04867751 0.9988145 0.04215715 0.999111 0.036509294 0.9993333
0.031617504 0.99950004 0.027380772 0.9996251 0.023711512 0.99971884 0.020533804 0.9997892
0.017781857 0.99984187 0.015398654 0.99988145 0.013334819 0.99991107 0.01154756 0.9999333
0.009999833 0.99995 0.008659536 0.9999625 0.0074988706 0.99997187 0.006493771 0.9999789
0.0056233825 0.9999842 0.004869656 0.99998814 0.0042169513 0.9999911 0.0036517328 0.9999933
0.0031622713 0.999995 0.0027384157 0.99999624 0.0023713715 0.9999972 0.0020535232 0.9999979
0.0017782785 0.99999845 0.0015399256 0.9999988 0.001333521 0.9999991 0.0011547814 0.99999934
0.0009999998 0.9999995 0.00086596434 0.99999964 0.000749894 0.9999997 0.0006493816 0.9999998
0.0005623411 0.9999998 0.00048696747 0.9999999 0.00042169637 0.99999994 0.0003651741 0.99999994
0.00031622782 0.99999994 0.00027384204 0.99999994 0.00023713727 1.0 0.00020535247 1.0
0.00017782794 1.0 0.00015399269 1.0 0.00013335208 1.0 0.00011547816 1.0

encoder.transformer.in_proj_weight f4 [384, 128]
00000000: 703c 19bd 747c 963d 1be5 cabd bd93 dcbb
00000010: c6aa a53c 23ab 053d 8532 503d c8cf bf3d
00000020: 3cf9 01bd 2f96 be3d ca8b ae3d 5537 703c
00000030: 52d1 10bd 9bf0 1d3d f5e5 ae3d d477 19bd
00000040: ced9 5fbc eee7 69bd a95c 003d 98d0 3cbd
00000050: 9a35 cc3c 70d6 a03d 6c77 093d 9880 30bd
00000060: efe5 d03d 71ac 003e 63bb c43d 6f1e c63d
00000070: d4f8 91bd af9c bd3d 3d39 613d 3c86 653d
00000080: 30b4 4cbd e65b d1bd b4be 72bd ea61 8cbc
00000090: 483f b1bd c773 d83d 9e5d b53d 0594 873d
000000a0: cac5 a43d e087 bb3c 3e09 35bd 7c2b a33d
000000b0: 0006 a5bd 7a71 763c 125d 6abc 43a1 0ebc
000000c0: e06f b53c 018a 1abe 8950 7e3d c75c 5c3c
000000d0: 53f3 90bd 8618 9c3c ac68 163d 45f2 f1bd
000000e0: a46c a5bc e5e6 d33d 1f59 be3d 6baa 89bd
000000f0: 16f9 273c a497 a7bd 1ebc 08be 9367 ab3d
00000100: 8d95 e43d 6285 853d fdfc be3b 581f d4bd
00000110: 6d3b 183c 5edd e2bc ff73 083d ad08 0d3c
00000120: 8105 2f3d 30cd debd 4898 e2bb 9ef8 033d
00000130: a9cf c1bc d585 fcbc d3a0 283d dae3 a43c
00000140: 16e2 75bd 0bda 223d 61c1 a33c f0e3 cbbc
00000150: 5e5e 06bd 3608 b93d c2d0 eebd 28e8 5f3c
00000160: a2e0 ac3d 4cd6 cbbd dd73 953d a954 123d
00000170: 1b1e 2dbd b6bc 5cbc cfe9 3abd be26 94bd
00000180: 846b 62bd ea8c e63d b46a 5e3d 38e8 ca3d
00000190: 338e fe3c 9eaa 95bd 83a9 febd 7da0 cc3c
000001a0: c15a 033d 64cb 73bd 700e 8dbd 681f a1bd
000001b0: 4437 c93d 7269 833d 60c5 5fbc bfdb 523d
000001c0: 1a91 9f3c 4bea d83d 80cd 823c 90ae c5bd
000001d0: 6746 54bc 29c6 0f39 76ff aebd 7fca dc3d
000001e0: 0702 07bc 37f7 2ebd 5b8e f13c 7140 94bd
000001f0: 79eb 3a3c ba33 41bd a3ba 1d3c 7e92 b33d
00000200: d163 fe3c 5224 abbc 3d4e 4a3d 58d9 fc3d
00000210: d15d f8ba fc55 283d e38e e1bc 0810 bfbd
00000220: e941 92bd 25bb 213d 2d2d ddbb c941 02be
00000230: 0867 ec3d d9b2 eebc 5ec8 91bd 0e61 5ebd
00000240: dcbc ff3d 740e 51bd 61bc 813d c1b1 f8bb
00000250: 1f92 203e 1176 bb3c 0e96 9cbd 3b19 833d
00000260: 0504 9cbd b75a db3d 37aa ab3d 5ec3 aebd
00000270: 2a25 c83d 66d1 61bd 464d 053d 9b28 8abb
00000280: a1f2 3fbd c623 c13d f3ea 283d 451b 6e3d
00000290: ef9d 123d c77a b83d c0f6 a53d 2105 46bd
000002a0: 9d69 e8bd fa94 c73d 932f 863d e21a 673d
000002b0: 6062 89bc f4ab 84bd 9585 bfbc f56f cdbb
000002c0: 575e dabc 8b76 fabd 21b9 6bba 7d27 44bd
000002d0: e012 66bd da56 83bc 9d48 933d 029a 59bd
000002e0: aa75 b93d 8626 21bd a047 893d 7a3a debc
000002f0: e309 cfbc 215a 21bd 576e 98bd f693 a23c
00000300: 61ae bc3b 0f17 aebd 8478 c93d 7920 8bbc
00000310: 48e2 5abd 449d cfbd 48cf 30bd 45d2 dd3b
00000320: 8d81 04bd 71b4 babc 4dc5 bdbd df19 01be
00000330: 6215 523c a641 61bc 7816 90bc abe7 14bd
00000340: 1f2a a1bc afe0 8abd 2746 653d 22e3 a23b
00000350: db8b 00bd a47c c13c 559e 8abb b831 83bd
00000360: 9351 c53d 01d6 36bd dd1d 133d 586a 9ebd
00000370: 3705 df3d 6898 4ebd 4bab 88bc c63c 09be
00000380: edc2 cf3c 3e4f bc3b 9fc7 b53d c076 c7bd
00000390: e8c9 a4bd 2b76 de3c 3368 0bbc 8a7d 813d
000003a0: 80ee da3d bb68 533d 93f6 e5bc 5af6 16bc
000003b0: a90f 09bc d551 373d aaf9 52bd 2d6b a13d
000003c0: 83ed f9bc dedc 09bc c232 13bd a701 ca3b
000003d0: 7461 c6bc 58e2 273d c143 803d 3dd5 853d
000003e0: 0238 d0bb ea36 9f3d b275 9c3d 6f37 5c3d
000003f0: dd07 133d 3f68 e53b 6bb3 dc3d 0afe 04bb
-0.037411153 0.07347956 -0.0990698 -0.006731479 0.020223033 0.03263391 0.05082943 0.09365803
-0.03173183 0.09305989 0.085227564 0.01466163 -0.035355873 0.038559537 0.085399546 -0.037467793
-0.0136627685 -0.05710595 0.031338368 -0.046097368 0.024927903 0.07853401 0.033561155 -0.043091387
0.10200106 0.12565781 0.09606054 0.096737735 -0.07127538 0.09258401 0.054986227 0.05603622
-0.049976528 -0.10222606 -0.0592639 -0.017136533 -0.08654648 0.10568958 0.08855747 0.06620029
0.08045538 0.022891939 -0.044198267 0.07967278 -0.08057785 0.015041703 -0.014304416 -0.00870544
0.022148073 -0.15091707 0.062088523 0.013449854 -0.070776604 0.019054662 0.036720917 -0.11813787
-0.020193405 0.10346774 0.09294342 -0.06721958 0.010252258 -0.0818322 -0.13353011 0.083693646
0.11161337 0.065195814 0.0058284984 -0.10357541 0.009291512 -0.027693447 0.033313747 0.0086080255
0.04272986 -0.1087898 -0.006915126 0.03221952 -0.02365859 -0.030825535 0.041169 0.02012818
-0.060030065 0.039758723 0.019989671 -0.024888963 -0.03280484 0.09034769 -0.11660911 0.01366619
0.08441283 -0.09952983 0.0729749 0.03572527 -0.04226504 -0.013472727 -0.045633134 -0.07233952
-0.055278316 0.11257346 0.05430098 0.099075735 0.031073665 -0.07307933 -0.124346755 0.02497887
0.03206897 -0.05952014 -0.06887519 -0.078673184 0.09824994 0.064165965 -0.013657898 0.051479097
0.01947837 0.10591563 0.01596713 -0.09652436 -0.012956238 0.00013711363 -0.08544819 0.107808106
-0.008240229 -0.04271623 0.029486826 -0.07238854 0.01140868 -0.04716847 0.009627017 0.087681755
0.031053456 -0.020891342 0.04939102 0.123461425 -0.0018948858 0.041097626 -0.027533954 -0.093292296
-0.071414776 0.039485116 -0.00674977 -0.12720408 0.11543089 -0.029138016 -0.07118295 -0.054291777
0.12487194 -0.051039174 0.063347585 -0.0075895493 0.15680741 0.022883447 -0.07645808 0.06401297
-0.07617954 0.10710662 0.08382075 -0.08533357 0.097727135 -0.05513134 0.032544397 -0.0042162663
-0.04686225 0.09430651 0.04123969 0.058131475 0.03579515 0.09007793 0.081037045 -0.048344735
-0.11348269 0.09745212 0.06552043 0.05642212 -0.016770542 -0.0647811 -0.023379127 -0.00626945
-0.026656313 -0.122296415 -0.0008992125 -0.04788922 -0.056170344 -0.016032625 0.07191584 -0.05312539
0.09055646 -0.03934338 0.067031145 -0.027127493 -0.025273269 -0.039392594 -0.07442921 0.019845944
0.0057580923 -0.08500492 0.0983744 -0.016983258 -0.053438455 -0.10137418 -0.04316643 0.006769451
-0.03235011 -0.02279112 -0.09266148 -0.12607525 0.012822481 -0.013748562 -0.017588839 -0.03635375
-0.019673405 -0.06781136 0.055975106 0.004970924 -0.031383377 0.023619004 -0.0042303004 -0.064059675
0.096347 -0.044637684 0.03591715 -0.07735127 0.108896665 -0.050438315 -0.016683241 -0.1340209
0.025361503 0.005746751 0.08875965 -0.09739447 -0.08046323 0.027155956 -0.00850873 0.06322773
0.106900215 0.05161355 -0.028071677 -0.009214008 -0.00836555 0.044755775 -0.05150763 0.0788177
-0.030508762 -0.008414475 -0.03593708 0.0061647478 -0.024216391 0.040987343 0.06262923 0.065348126
-0.006354333 0.07774146 0.07639636 0.053763803 0.03589617 0.0070009525 0.10776409 -0.002029302
