experiments/model_16_40_2026-01-18_1824/model.pt (torch, 48032 bytes, 21 tensors)

encoder.graph_embed.GCN_in.A f4 [9, 9]
-1.2808932 0.26215148 0.35988298 0.35074356 -0.27738053 1.4636976 -1.5527403 -1.085903
-0.7575494 0.91089875 -1.0264683 -0.2859587 -1.4140441 -0.62918615 0.9175317 0.7010743
0.21465738 0.35521182 -0.006667774 0.09691086 0.46459404 0.45150757 0.8779409 0.90525305
-0.3704094 -0.58945954 -0.12181724 -0.6517541 1.2115878 -1.3676147 -0.4420048 -1.0578146
-0.09563349 1.497154 1.7548665 2.286674 -0.4100812 -0.21441506 -0.42679584 -0.73829633
-0.5710459 0.6156774 -1.3117727 0.41492745 0.49857023 -1.5544989 0.63891345 -0.2947004
0.00764067 -0.5486864 0.433164 0.17211275 0.3773592 -1.8683654 1.365507 1.7597891
-0.4700083 -1.1091734 -0.21131685 1.1337686 0.542015 -0.6055519 -0.0457077 -1.7395767
0.42422977 -2.5601404 -2.0007489 -0.80080736 0.07362138 1.5315006 -0.7590049 0.31175706
2.4562755 0.7906518 -1.5289611 0.19575143 0.88529223 0.5075576 -2.16041 -0.36496073
0.93127877
00000000: 4ff4 a3bf b838 863e 9542 b83e a994 b33e
00000010: d204 8ebe 715a bb3f 32c0 c6bf dffe 8abf
00000020: c2ee 41bf a930 693f 5063 83bf 2e69 92be
00000030: 66ff b4bf 5812 21bf 5ce3 6a3f 9b79 333f
00000040: 25cf 5b3e 53de b53e 587d dabb 3379 c63d
00000050: 45df ed3e 002c e73e bcc0 603f aabe 673f
00000060: 4da6 bdbe d2e6 16bf 517b f9bd 5bd9 26bf
00000070: 4f15 9b3f 000e afbf 744e e2be 7866 87bf
00000080: 7edb c3bd bea2 bf3f 779f e03f de58 1240
00000090: 2af6 d1be 9f8f 5bbe fc84 dabe fd00 3dbf
000000a0: 1030 12bf 099d 1d3f 2be8 a7bf 5f71 d43e
000000b0: 9944 ff3e d2f9 c6bf d58f 233f f9e2 96be
000000c0: 965e fa3b b676 0cbf acc7 dd3e 533e 303e
000000d0: 3a35 c13e 9926 efbf efc8 ae3f c540 e13f
000000e0: eea4 f0be 65f9 8dbf 7263 58be 541f 913f
000000f0: 7fc1 0a3f 7305 1bbf ff37 3bbd 73aa debf
00000100: a534 d93e 57d9 23c0 450c 00c0 b601 4dbf
00000110: cec6 963d 3608 c43f 254e 42bf 9f9e 9f3e
00000120: 9e33 1d40 2868 4a3f ffb4 c3bf 1073 483e
00000130: 83a2 623f 4bef 013f 2844 0ac0 22dc babe
00000140: 4968 6e3f

encoder.graph_embed.GCN_in.linear.weight f4 [16, 16]
0.04701851 0.06496804 -0.28873363 0.08410526 -0.071761735 0.09742954 0.118317194 -0.08290052
0.1784309 -0.06147268 0.14180829 0.10670976 0.113984056 -0.17849322 0.04268153 0.011482549
0.13116992 -0.066704676 0.033208393 -0.1676431 -0.010046835 -0.010367492 0.0015379214 -0.06776327
0.16105475 0.008998034 -0.23580663 0.011274433 0.030969243 -0.09204204 -0.08427525 -0.0809293
-0.17692319 -0.14403005 -0.10901561 -0.19949514 0.31163073 -0.13726279 0.03920399 -0.09464989
-0.25213242 -0.08018393 -0.11724342 0.058651738 0.026019882 0.040491696 -0.10116069 -0.12762769
-0.14149955 -0.008779584 -0.17876948 -0.17435467 0.008908116 0.09400644 0.059173968 -0.049370237
0.027917767 -0.107442595 -0.015294333 -0.23843229 -0.055638865 -0.029013027 -0.018461792 -0.0046319533
0.12283861 -0.22446479 -0.05055997 -0.18263113 -0.18900397 0.12240874 -0.11882607 -0.05855317
-0.1337413 0.16101734 -0.21238379 -0.2395267 0.13761793 -0.047267493 0.19540878 -0.11791649
-0.2169521 -0.053471804 -0.0801876 -0.17946264 -0.17448243 0.0581473 -0.10475576 -0.10863655
-0.003473826 0.020715898 -0.120262824 -0.24902427 -0.11789274 -0.07495081 -0.18295808 -0.05750209
0.14972617 0.016906714 -0.30684972 0.14165466 -0.15792155 -0.0123486845 0.07873283 0.20771782
-0.06297268 -0.09914781 0.19136101 -0.19468254 0.17746937 -0.10478766 -0.14517751 0.1587585
-0.23066202 0.117368445 -0.2547462 -0.094359055 -0.24920471 0.05044525 0.23793203 -0.11341094
-0.026037864 -0.063696 -0.1533003 -0.09351868 -0.07013261 -0.06547609 -0.02898185 -0.22702192
-0.10610949 -0.12256093 -0.1754849 -0.07843685 -0.030029349 0.21716514 0.11012302 -0.15954685
-0.11926311 0.07111376 -0.1412822 -0.17739378 -0.12303611 -0.17936179 -0.060647804 -0.032777317
0.045506224 -0.17724206 -0.20188291 0.097441815 0.066385016 -0.26392403 -0.09102237 0.21849549
0.19011885 0.2904103 0.05779141 0.012581498 -0.14486161 -0.1285644 0.02517505 0.11689698
0.022996856 0.19847791 -0.011195104 -0.117899135 -0.09927944 -0.06681872 -0.17993972 0.15048714
0.042250913 -0.17573537 0.039460305 -0.038675714 0.10427587 -0.23026657 -0.15800995 0.16584083
-0.11366167 0.14854619 0.18714996 0.07667813 -0.20368576 0.052839555 -0.08694642 -0.09506296
0.016146803 -0.011814085 0.056467004 0.17323811 -0.10443749 0.105251506 0.25061807 0.16155311
0.12605338 0.1471369 0.05041457 -0.018060608 -0.17322919 0.115080565 0.18687211 0.21641207
-0.1386529 0.06702962 -0.27347583 -0.16108498 -0.05621845 -0.18040748 0.02922906 -0.2980021
-0.22264586 -0.100944094 0.24652939 -0.23915167 0.06790766 -0.046479557 0.16143179 -0.19829656
-0.23985185 -0.064532876 0.1849178 -0.21311405 0.10680219 -0.10495513 -0.0024629438 0.018614948
0.071709 0.039043415 -0.065091886 0.05950914 -0.23960306 -0.2926759 0.15869354 -0.062161665
0.07749954 0.01534144 0.16350126 -0.19911318 0.10291964 -0.11154068 -0.14914252 -0.20617479
-0.19104572 -0.06273358 0.20580158 -0.22595884 -0.016432486 0.08773715 0.13533698 -0.1719234
0.13707991 0.14150746 -0.21889773 -0.10781662 -0.17026182 -0.099976905 -0.0795176 0.13836835
00000000: 7b96 403d f70d 853d e5d4 93be 613f ac3d
00000010: d1f7 92bd 2389 c73d 4950 f23d bfc7 a9bd
00000020: 97b6 363e c7ca 7bbd 3136 113e a68a da3d
00000030: 7970 e93d edc6 36be d4d2 2e3d 4d21 3c3c
00000040: 6851 063e 769c 88bd 8605 083d a2aa 2bbe
00000050: 7b9b 24bc 6adc 29bc 1494 c93a 78c7 8abd
00000060: 89eb 243e 7d6c 133c 4b77 71be 66b8 383c
00000070: 36b3 fd3c 8980 bcbd 8198 acbd 43be a5bd
00000080: 5a2b 35be 9d7c 13be 9343 dfbd 7448 4cbe
00000090: 108e 9f3e 9e8e 0cbe 5d94 203d cdd7 c1bd
000000a0: 8017 81be 7937 a4bd 511d f0bd ce3c 703d
000000b0: a627 d53c 9fda 253d 562d cfbd d5b0 02be
000000c0: 42e5 10be 3fd8 0fbc 590f 37be 088a 32be
000000d0: 59f3 113c 7386 c03d 6760 723d 7238 4abd
000000e0: cdb3 e43c dd0a dcbd 1595 7abc 9827 74be
000000f0: 94e5 63bd baac edbc 2f3d 97bc a4c7 97bb
00000100: cf92 fb3d 19da 65be f917 4fbd a803 3bbe
00000110: 428a 41be 6fb1 fa3d 155b f3bd 73d5 6fbd
00000120: 7bf3 08be bbe1 243e 237b 59be 7d46 75be
00000130: b7eb 0c3e 8f9b 41bd 3d19 483e 337e f1bd
00000140: b128 5ebe 4005 5bbd 6539 a4bd 0ec5 37be
00000150: 86ab 32be dd2b 6e3d 308a d6bd d77c debd
00000160: 21a9 63bb 63b4 a93c 5b4c f6bd 3800 7fbe
00000170: c071 f1bd cf7f 99bd 5d59 3bbe 5087 6bbd
00000180: d151 193e f37f 8a3c 681b 9dbe eb0d 113e
00000190: 30b6 21be 2352 4abc ae3e a13d fbb3 543e
000001a0: d2f7 80bd 020e cbbd 24f4 433e dc5a 47be
000001b0: 88ba 353e ea9a d6bd 6aa9 14be 9791 223e
000001c0: aa32 6cbe de5e f03d 186e 82be 523f c1bd
000001d0: 852f 7fbe ae9f 4e3d 74a4 733e ff43 e8bd
000001e0: 5c4d d5bc 0c73 82bd c1fa 1cbe b986 bfbd
000001f0: b0a1 8fbd 5418 86bd 586b edbc 6f78 68be
00000200: ef4f d9bd 3a01 fbbd 50b2 33be 80a3 a0bd
00000210: 1c00 f6bc 8a60 5e3e 2e88 e13d 4060 23be
00000220: 3840 f4bd 17a4 913d 48ac 10be b7a6 35be
00000230: 5bfa fbbd 9eaa 37be d569 78bd 8241 06bd
00000240: bc64 3a3d f17e 35be 65ba 4ebe 938f c73d
00000250: def4 873d 0d21 87be f069 babd 48bd 5f3e
00000260: 84ae 423e a9b0 943e afb6 6c3d a122 4e3c
00000270: 9a56 14be 63a6 03be e83b ce3c af67 ef3d
00000280: e763 bc3c cb3d 4b3e ab6b 37bc 1a75 f1bd
00000290: 0553 cbbd 41d8 88bd 1e42 38be 4d19 1a3e
000002a0: 4b0f 2d3d f9f3 33be 21a1 213d 6d6a 1ebd
000002b0: 968e d53d 00cb 6bbe 5ccd 21be 2ed2 293e
000002c0: 73c7 e8bd 7e1c 183e 3da4 3f3e 6c09 9d3d
000002d0: 0093 50be 4a6e 583d f710 b2bd 5fb0 c2bd
000002e0: 4d46 843c dd8f 41bc f249 673d 5565 313e
000002f0: 53e3 d5bd 1a8e d73d 0351 803e 2e6e 253e
00000300: 2314 013e 0eab 163e 827f 4e3d d7f3 93bc
00000310: fe62 31be 5caf eb3d 675b 3f3e 209b 5d3e
00000320: 07fb 0dbe d346 893d 0605 8cbe 76f3 24be
00000330: 5145 66bd bdbc 38be c871 ef3c bb93 98be
00000340: 47fd 63be c7bb cebd 3372 7c3e 2de4 74be
00000350: 2c13 8b3d 5961 3ebd 604e 253e 410e 4bbe
00000360: b99b 75be d029 84bd 175b 3d3e 923a 5abe
00000370: 1bbb da3d b7f2 d6bd 5769 21bb 607e 983c
00000380: 2bdc 923d fdeb 1f3d e54e 85bd dbbf 733d
00000390: 815a 75be 9ed9 95be 8f80 223e 3b9d 7ebd
000003a0: 14b8 9e3d aa5a 7b3c e06c 273e 53e4 4bbe
000003b0: 88c7 d23d 716f e4bd d1b8 18be 7c1f 53be
000003c0: 7da1 43be 777a 80bd a6bd 523e c161 67be
000003d0: 6c9d 86bc 89af b33d c795 0a3e b00c 30be
000003e0: ad5e 0c3e 55e7 103e ba26 60be f6ce dcbd
000003f0: 1d59 2ebe b1c0 ccbd 20da a2bd 6fb0 0d3e

encoder.graph_embed.GCN_in.linear.bias f4 [16]
-0.20669994 0.17155862 -0.08475234 0.07357408 0.10304498 0.2986105 -0.19700116 0.019176193
0.13920628 -0.12410728 -0.2308807 -0.1712415 0.21121521 0.073666744 0.21722968 0.16390362
00000000: 26a9 53be 10ad 2f3e a392 adbd 02ae 963d
00000010: 3f09 d33d 7ae3 983e acba 49be 6417 9d3c
00000020: 178c 0e3e f52b febd fd6b 6cbe ef59 2fbe
00000030: cd48 583e 97de 963d 7571 5e3e 5ad6 273e

encoder.graph_embed.bn.weight f4 [16]
0.98002917 0.9365764 1.0103308 1.0214287 0.96393055 0.9903066 1.0150677 0.98098314
0.92944634 1.0040705 0.945645 0.88194406 1.02817 0.97407687 0.95122546 0.9837694
00000000: 31e3 7a3f 79c3 6f3f 8552 813f 2dbe 823f
00000010: 27c4 763f bc84 7d3f bded 813f b621 7b3f
00000020: 32f0 6d3f 6285 803f ca15 723f 16c7 613f
00000030: 139b 833f 1a5d 793f 8383 733f 50d8 7b3f

encoder.graph_embed.bn.bias f4 [16]
-0.032996915 0.023642298 -0.018681282 0.018237425 -0.04572651 -0.030871538 0.03595846 0.006720395
0.008131822 0.07081116 -0.07483647 -0.006568778 -0.022197329 0.029190348 0.00456657 0.0348345
00000000: c627 07bd 7ead c13c 7d09 99bc a766 953c
00000010: b94b 3bbd 4fe6 fcbc 2e49 133d c236 dc3b
00000020: 553b 053c 7105 913d dd43 99bd e73e d7bb
00000030: 2cd7 b5bc 9920 ef3c 2aa3 953b 9fae 0e3d

encoder.graph_embed.bn.running_mean f4 [16]
0.001086118 0.050226647 0.014549526 0.019824779 0.060040973 0.04486441 -0.003205112 0.0019133949
0.14462595 -0.021750053 0.02478515 0.03993143 -0.029873876 0.052853063 -0.037461255 -0.025002658
00000000: 135c 8e3a 75ba 4d3d 2361 6e3c 9367 a23c
00000010: 86ed 753d bec3 373d db0c 52bb e1ca fa3a
00000020: d318 143e 2b2d b2bc 3a0a cb3c 248f 233d
00000030: 0fba f4bc 747c 583d f970 19bd 60d2 ccbc

encoder.graph_embed.bn.running_var f4 [16]
0.017062573 0.008752646 0.009036392 0.0023119582 0.0065593505 0.026899824 0.001996259 0.01588725
0.025906654 0.0027134148 0.012180275 0.0037232372 0.0047290875 0.012893678 0.008278223 0.0032449928
00000000: cfc6 8b3c 4267 0f3c 600d 143c 3984 173b
00000010: d2ef d63b 055d dc3c abd3 023b fa25 823c
00000020: 313a d43c 8cd3 313b c78f 473c 8e01 743b
00000030: 76f6 9a3b 0140 533c 62a1 073c f2a9 543b

encoder.graph_embed.GCN_layers.0.A f4 [9, 9]
-0.92886263 0.30872953 0.85061723 0.46426445 0.25380123 0.51886696 0.4324534 -1.6747904
0.49737933 1.6100727 0.43251142 -1.3368458 0.81036323 -0.79114276 -0.9748556 1.9488046
0.28176415 -0.47542566 -1.1750007 -0.37196112 0.21320355 -0.89032215 0.19268934 -1.262172
0.44580197 0.437361 -0.85020745 0.16234034 -0.2015997 0.21511927 -0.55329216 -0.33623886
-0.17891295 1.5570666 1.4654747 1.4113559 1.2231997 0.8612976 -0.44074732 -0.020632235
-0.07952102 -1.2354269 0.031021815 -1.247778 -1.2338926 0.2937222 0.4089847 -0.19356346
0.4478117 -1.8155857 0.1259966 -1.4124119 -0.82180834 0.8066548 2.2564342 -0.51619977
0.48281813 -0.23447834 -1.514109 -0.5658649 -0.14033513 0.71877134 -1.4328362 1.8205462
-1.7524954 -1.2937505 -0.588443 -0.86644685 -0.34064284 -0.030223213 -0.106563546 -0.25676087
0.32781082 1.8039262 1.0632889 1.4180309 -0.0804753 -1.7345607 0.14895757 -2.4647474
-0.22979148
00000000: f1c9 6dbf cc11 9e3e 0dc2 593f 12b4 ed3e
00000010: 3cf2 813e 77d4 043f 886a dd3e 885f d6bf
00000020: 81a8 fe3e dd16 ce3f 2372 dd3e c31d abbf
00000030: f773 4f3f 5588 4abf 2390 79bf 6e72 f93f
00000040: 6443 903e fe6a f3be 6c66 96bf b071 bebe
00000050: 0852 5a3e 27ec 63bf 5b50 453e da8e a1bf
00000060: 2840 e43e c8ed df3e 32a7 59bf 8c3c 263e
00000070: 2770 4ebe 3a48 5c3e 8ea4 0dbf 8027 acbe
00000080: f534 37be f54d c73f ad94 bb3f 4fa7 b43f
00000090: cf91 9c3f 007e 5c3f a2a9 e1be ef04 a9bc
000000a0: ebdb a2bd 7822 9ebf 7621 fe3c 31b7 9fbf
000000b0: 31f0 9dbf c262 963e 7166 d13e 8035 46be
000000c0: 9347 e53e 1d65 e8bf 4105 013e eac9 b4bf
000000d0: 0862 52bf ee80 4e3f 6b69 1040 ab25 04bf
000000e0: f033 f73e 171b 70be 53ce c1bf 86dc 10bf
000000f0: 03b4 0fbe 6601 383f 2d67 b7bf a807 e93f
00000100: c551 e0bf 9e99 a5bf 33a4 16bf 76cf 5dbf
00000110: bd68 aebe ac96 f7bc fd3d dabd 2976 83be
00000120: d2d6 a73e 0ee7 e63f da19 883f 0982 b53f
00000130: 3cd0 a4bd 1606 debf 5588 183e 6cbe 1dc0
00000140: 754e 6bbe

encoder.graph_embed.GCN_layers.0.linear.weight f4 [16, 16]
-0.05438484 -0.133543 -0.14669144 -0.2806392 -0.22152504 -0.0019531264 0.33520505 -0.15785943
-0.05995518 0.26231068 -0.16394754 -0.21240601 0.16016693 -0.21650916 -0.14930528 0.053909756
-0.01255611 -0.09970822 -0.07699617 -0.18794039 0.071996726 -0.23179096 -0.086519875 0.07392614
-0.049614538 -0.19030458 0.07150582 -0.14721201 0.08489939 0.25184813 0.02179706 0.16598219
-0.14808588 0.0637184 -0.055233713 0.11389102 0.19795053 0.14652747 0.12919796 -0.11464453
0.00092430087 -0.13858007 -0.1148147 0.21120238 -0.07216392 0.14541225 0.1574087 -0.13199095
0.042095035 -0.16318715 -0.03453189 -0.24624129 -0.20136058 -0.06492609 -0.14720504 0.058539696
-0.06144755 -0.14599833 0.16947828 -0.03884249 0.05168192 -0.029537166 0.2588693 0.042410415
-0.06173739 0.08700313 0.13486518 0.16079563 -0.270611 0.04431044 0.2934483 -0.18564187
-0.13113774 0.20018582 -0.10662484 -0.18635605 -0.19692303 0.18646826 -0.12401072 0.035547175
-0.13707604 -0.14399612 0.07528818 -0.13662386 -0.18695797 -0.12127488 -0.23093092 -0.23011099
-0.071751565 -0.059904303 -0.1359245 -0.002869404 0.1430237 -0.21211934 -0.20750076 -0.07511676
0.023830159 -0.021270862 0.1356083 -0.0023854678 0.039828293 0.002563554 0.03790205 -0.024712952
-0.03613905 -0.17168204 0.13534787 0.028353944 -0.12048041 -0.08379089 -0.21262044 -0.055146527
0.24624804 0.13095795 -0.16224328 -0.013790732 0.14618282 0.19460505 0.16539723 0.0030817566
-0.045369025 -0.084813304 -0.2126534 -0.012292561 -0.30841577 0.21405685 0.18044789 -0.05714154
0.17023966 0.070256524 -0.09841568 0.32527086 0.039478745 0.09344367 0.05680416 0.25205857
-0.04207059 -0.11685238 -0.0074999593 -0.09006584 0.10189508 0.1752393 -0.11961384 -0.046665065
-0.16191047 -0.23467517 -0.22576144 0.16969433 -0.0047312276 0.07699367 -0.030469872 -0.020538913
-0.028449334 0.06503878 -0.017470213 0.08738613 -0.0013683266 -0.09567256 0.08512863 -0.17692749
0.25811255 0.1938561 0.085637204 0.14307348 0.22152878 -0.19254747 0.2734644 -0.15443261
0.00870003 0.08805512 -0.07068889 -0.039443195 0.18502031 -0.051658433 -0.21620028 -0.000121897974
-0.15783875 0.012932326 0.0106120175 0.088985175 0.013248017 -0.13850418 0.1339855 -0.26267335
0.03989881 -0.16216648 0.2145907 -0.006304343 -0.21881875 -0.10014604 0.16518371 -0.05751759
0.08147685 -0.07092882 -0.28646806 0.1796096 -0.16955826 0.17112297 -0.16655682 -0.060573734
-0.22354795 0.03256616 -0.2360971 0.10165348 -0.098674305 -0.09641014 0.24237956 0.14132597
-0.02143505 0.08115374 -0.11483989 -0.16982359 0.012600538 0.1611557 0.018220574 0.067746006
-0.18965797 -0.031040838 -0.1383412 -0.22110154 -0.040642373 0.29621577 -0.28024366 0.16803242
0.113737315 0.10294807 -0.13461128 -0.17663404 0.09579381 -0.17775084 -0.05279913 0.07791718
-0.03362653 -0.11851011 0.0035021245 0.1940728 0.09075442 -0.17791511 0.20811133 -0.19078065
0.09984849 0.018807715 0.033770353 -0.14034235 0.0021636938 0.16002062 -0.0238545 0.26213968
0.2125844 0.13145435 0.192122 -0.16726162 0.02936871 -0.2132201 0.10008872 -0.19723912
00000000: a3c2 5ebd 7fbf 08be 4836 16be f1af 8fbe
00000010: 76d7 62be 0600 00bb ff9f ab3e e7a5 21be
00000020: 9093 75bd 964d 863e dde1 27be f680 59be
00000030: cd02 243e 94b4 5dbe 7ce3 18be 7ad0 5c3d
00000040: 24b8 4dbc d333 ccbd 2bb0 9dbd 7273 40be
00000050: 0573 933d 9c5a 6dbe 5531 b1bd 9766 973d
00000060: 9d38 4bbd 34df 42be a571 923d bfbe 16be
00000070: bbdf ad3d 3df2 803e bf8f b23c 3cf7 293e
00000080: d3a3 17be cb7e 823d bf3c 62bd b23f e93d
00000090: 8bb3 4a3e 4c0b 163e 784c 043e c0ca eabd
000000a0: c84c 723a efe7 0dbe f823 ebbd 7045 583e
000000b0: adca 93bd f3e6 143e bf2f 213e a328 07be
000000c0: d86b 2c3d 881a 27be 5071 0dbd ad26 7cbe
000000d0: 7831 4ebe f8f7 84bd ebbc 16be 52c7 6f3d
000000e0: 6db0 7bbd 9680 15be b78b 2d3e 4e19 1fbd
000000f0: 6cb0 533d edf7 f1bc 848a 843e 8bb6 2d3d
00000100: 58e0 7cbd b22e b23d 191a 0a3e 9ca7 243e
00000110: 868d 8abe dd7e 353d db3e 963e e718 3ebe
00000120: f948 06be 83fd 4c3e 205e dabd 1fd4 3ebe
00000130: 31a6 49be 89f1 3e3e 55f9 fdbd ea99 113d
00000140: a95d 0cbe b873 13be b030 9a3d 20e7 0bbe
00000150: e971 3fbe f75e f8bd 2879 6cbe 37a2 6bbe
00000160: 7cf2 92bd 375e 75bd cb2f 0bbe 9c0c 3cbb
00000170: ce74 123e d035 59be 147b 54be d1d6 99bd
00000180: 7737 c33c 3b40 aebc e7dc 0a3e 8255 1cbb
00000190: fe22 233d 4d01 283b 2e3f 1b3d d172 cabc
000001a0: 8a06 14bd 6bcd 2fbe a298 0a3e 8846 e83c
000001b0: 6fbe f6bd 8f9a abbd 2cb9 59be 53e1 61bd
000001c0: 7228 7c3e d719 063e 1a23 26be 86f2 61bc
000001d0: f3b0 153e 8c46 473e e45d 293e 4cf7 493b
000001e0: dfd4 39bd 99b2 adbd d0c1 59be bd66 49bc
000001f0: ace8 9dbe b831 5b3e 55c7 383e 3f0d 6abd
00000200: 4e53 2e3e a7e2 8f3d 298e c9bd e789 a63e
00000210: 77b4 213d 655f bf3d 7bab 683d d20d 813e
00000220: 3652 2cbd 4d50 efbd 38c2 f5bb 7074 b8bd
00000230: 5eae d03d ee71 333e 1af8 f4bd de23 3fbd
00000240: dccb 25be b04e 70be 022e 67be 5ac4 2d3e
00000250: 6a08 9bbb dbae 9d3d f49b f9bc 3941 a8bc
00000260: 940e e9bc 0d33 853d b11d 8fbc 80f7 b23d
00000270: 6c59 b3ba faef c3bd eb57 ae3d 7b2c 35be
00000280: 5427 843e 3782 463e 8f62 af3d db81 123e
00000290: 71d8 623e 2a2b 45be 8703 8c3e 9523 1ebe
000002a0: 928a 0e3c 3e56 b43d 56c5 90bd 308f 21bd
000002b0: f775 3d3e cb97 53bd 9b63 5dbe 7aa3 ffb8
000002c0: 7ba0 21be 1be2 533c 07de 2d3c dc3d b63d
000002d0: 360e 593c 0ad4 0dbe 7f33 093e 1f7d 86be
000002e0: ef6c 233d f80e 26be aabd 5b3e aa94 cebb
000002f0: 0612 60be 5e19 cdbd eb25 293e 9097 6bbd
00000300: 56dd a63d 2143 91bd f1ab 92be 94eb 373e
00000310: aea0 2dbe dc3a 2f3e df8d 2abe 2a1c 78bd
00000320: c1e9 64be 1864 053d 70c3 71be b32f d03d
00000330: c115 cabd ae72 c5bd 5932 783e c1b7 103e
00000340: 8f98 afbc ef33 a63d 2d31 ebbd 3ce6 2dbe
00000350: 7d72 4e3c 0006 253e 5043 953c 6bbe 8a3d
00000360: b335 42be 5b49 febc 51a9 0dbe 7168 62be
00000370: 9e78 26bd 98a9 973e 197c 8fbe b110 2c3e
00000380: 1cef e83d 70d6 d23d 8ad7 09be 8edf 34be
00000390: 8c2f c43d 5104 36be e743 58bd 0b93 9f3d
000003a0: f9bb 09bd 6eb5 f2bd e683 653b 05bb 463e
000003b0: 74dd b93d 612f 36be 231b 553e 015c 43be
000003c0: 5d7d cc3d a312 9a3c c852 0a3d e8b5 0fbe
000003d0: c2cc 0d3b 72dc 233e 836a c3bc 2c37 863e
000003e0: baaf 593e f89b 063e a1bb 443e a146 2bbe
000003f0: a696 f03c 5f56 5abe 51fb cc3d 0df9 49be

encoder.graph_embed.GCN_layers.0.linear.bias f4 [16]
0.016016888 0.023038648 -0.06697381 0.058353942 0.06212278 0.13153398 0.07143426 -0.08175403
0.1438076 0.022688108 0.06444635 0.14286837 -0.0635269 -0.05456387 0.027733745 -0.04351316
00000000: d935 833c 8cbb bc3c 9129 89bd 8b04 6f3d
00000010: 7574 7e3d d8b0 063e 204c 923d a86e a7bd
00000020: 4d42 133e 69dc b93c 73fc 833d 164c 123e
00000030: 641a 82bd 5d7e 5fbd e131 e33c db3a 32bd

encoder.pos_enc.pe f4 [500, 16]
0.0 1.0 0.0 1.0 0.0 1.0 0.0 1.0
0.0 1.0 0.0 1.0 0.0 1.0 0.0 1.0
0.84147096 0.54030234 0.3109836 0.9504153 0.099833414 0.9950042 0.031617504 0.99950004
0.009999833 0.99995 0.0031622713 0.999995 0.0009999998 0.9999995 0.00031622782 0.99999994
0.9092974 -0.41614684 0.5911271 0.8065784 0.19866931 0.9800666 0.063203394 0.9980007
0.019998666 0.9998 0.006324511 0.99998003 0.0019999985 0.99999803 0.0006324556 0.9999998
0.14112 -0.9899925 0.8126489 0.58275366 0.2955202 0.9553365 0.094726086 0.99550337
0.0299955 0.99955004 0.009486687 0.999955 0.0029999954 0.9999955 0.00094868336 0.9999996
-0.7568025 -0.6536436 0.95358074 0.30113748 0.38941833 0.921061 0.12615407 0.99201065
0.039989334 0.9992001 0.01264877 0.99992 0.003999989 0.999992 0.0012649109 0.9999992
-0.9589243 0.2836622 0.99994653 -0.010342338 0.47942552 0.87758255 0.15745588 0.987526
0.049979165 0.99875027 0.015810724 0.999875 0.004999979 0.9999875 0.0015811383 0.99999875
-0.2794155 0.96017027 0.9471482 -0.3207964 0.5646424 0.8253356 0.18860027 0.98205394
0.059964005 0.99820054 0.018972522 0.99982 0.0059999637 0.999982 0.0018973658 0.9999982
0.6569866 0.75390226 0.8004216 -0.5994375 0.6442176 0.7648422 0.2195561 0.9755999
0.06994285 0.997551 0.022134129 0.999755 0.006999942 0.9999755 0.0022135929 0.99999756
0.98935825 -0.14550003 0.5743178 -0.8186324 0.717356 0.6967067 0.25029233 0.9681703
0.07991469 0.9968017 0.025295515 0.99968004 0.007999914 0.999968 0.0025298197 0.9999968
0.4121185 -0.91113025 0.29125923 -0.9566442 0.78332686 0.62161 0.28077832 0.95977265
0.089878544 0.9959527 0.028456647 0.99959505 0.008999879 0.9999595 0.0028460464 0.99999595
-0.5440211 -0.8390715 -0.02068357 -0.9997861 0.84147096 0.54030234 0.31098357 0.9504153
0.099833414 0.9950042 0.031617496 0.99950004 0.009999833 0.99995 0.0031622727 0.999995
-0.9999902 0.004425698 -0.33057496 -0.94377977 0.89120734 0.4535962 0.34087786 0.9401076
0.1097783 0.9939561 0.03477803 0.9993951 0.010999777 0.9999395 0.003478499 0.999994
-0.53657293 0.84385395 -0.6076834 -0.7941793 0.9320391 0.36235783 0.3704313 0.9288599
0.119712204 0.99280864 0.03793821 0.9992801 0.011999711 0.999928 0.0037947248 0.9999928
0.42016703 0.9074468 -0.82452846 -0.5658205 0.9635582 0.26749888 0.3996143 0.9166834
0.12963414 0.9915619 0.041098017 0.9991551 0.012999633 0.9999155 0.00411095 0.99999154
0.9906074 0.13673721 -0.9596054 -0.28134948 0.98544973 0.16996728 0.42839777 0.90359026
0.13954312 0.990216 0.044257414 0.99902016 0.013999541 0.999902 0.004427175 0.9999902
0.65028787 -0.7596879 -0.9995187 0.031022351 0.997495 0.07073732 0.45675287 0.8895936
0.14943813 0.9887711 0.047416367 0.9988752 0.014999436 0.9998875 0.0047433996 0.99998873
00000000: 0000 0000 0000 803f 0000 0000 0000 803f
00000010: 0000 0000 0000 803f 0000 0000 0000 803f
00000020: 0000 0000 0000 803f 0000 0000 0000 803f
00000030: 0000 0000 0000 803f 0000 0000 0000 803f
00000040: a46a 573f 4151 0a3f 3e39 9f3e 6b4e 733f
00000050: 7675 cc3d 98b8 7e3f 5b81 013d 3cdf 7f3f
00000060: 57d6 233c b9fc 7f3f 1c3e 4f3b acff 7f3f
00000070: 6d12 833a f8ff 7f3f 61cb a539 ffff 7f3f
00000080: b7c7 683f 3311 d5be 1b54 173f ec7b 4e3f
00000090: f86f 4b3e a5e5 7a3f c870 813d f97c 7f3f
000000a0: 3ed4 a33c e5f2 7f3f d83d cf3b b1fe 7f3f
000000b0: 6812 033b dfff 7f3f 60cb 253a fdff 7f3f
000000c0: c381 103e 2670 7dbf c209 503f 582f 153f
000000d0: 6c4e 973e ef90 743f c0ff c13d 4fd9 7e3f
000000e0: 1fb9 f53c 83e2 7f3f 0d6e 1b3c 0dfd 7f3f
000000f0: 929b 443b b5ff 7f3f 10b1 783a f9ff 7f3f
00000100: cfbd 41bf 3055 27bf de1d 743f b12e 9a3e
00000110: d761 c73e a7ca 6b3f 882e 013e 69f4 7d3f
00000120: dbcb 233d 94cb 7f3f c93c 4f3c c2fa 7f3f
00000130: 5712 833b 7aff 7f3f 5ecb a53a f3ff 7f3f
00000140: 107c 75bf 2c3c 913e 7ffc 7f3f e972 29bc
00000150: 4377 f53e 40a9 603f 1d3c 213e 81ce 7c3f
00000160: f4b6 4c3d 19ae 7f3f 7e85 813c cff7 7f3f
00000170: ddd6 a33b 2eff 7f3f 333e cf3a ebff 7f3f
00000180: 8c0f 8fbe b8cd 753f 4e78 723f 6d3f a4be
00000190: 688c 103f 3249 533f 6e20 413e e367 7b3f
000001a0: d19c 753d 128a 7f3f 436c 9b3c 34f4 7f3f
000001b0: 589b c43b d2fe 7f3f 08b1 f83a e2ff 7f3f
000001c0: 4630 283f bdff 403f 6ee8 4c3f bc74 19bf
000001d0: 72eb 243f b3cc 433f 50d3 603e eac0 793f
000001e0: 323e 8f3d 815f 7f3f a252 b53c f2ef 7f3f
000001f0: c55f e53b 65fe 7f3f ed11 113b d7ff 7f3f
00000200: 9546 7d3f f6fd 14be 7e06 133f e591 51bf
00000210: a5a4 373f 5f5b 323f 5126 803e 02da 773f
00000220: 50aa a33d 652e 7f3f 8a38 cf3c 08eb 7f3f
00000230: 1212 033c e7fd 7f3f 55cb 253b caff 7f3f
00000240: 3201 d33e d53f 69bf ee1f 953e a2e6 74bf
00000250: 1c88 483f d521 1f3f 2dc2 8f3e a9b3 753f
00000260: 3e12 b83d c2f6 7e3f ea1d e93c 76e5 7f3f
00000270: 3a74 133c 59fd 7f3f bc84 3a3b bcff 7f3f
00000280: f844 0bbf 64cd 56bf 9770 a9bc fbf1 7fbf
00000290: a46a 573f 4151 0a3f 3d39 9f3e 6b4e 733f
000002a0: 7675 cc3d 98b8 7e3f 5981 013d 3cdf 7f3f
000002b0: 57d6 233c b9fc 7f3f 223e 4f3b acff 7f3f
000002c0: 5cff 7fbf 7205 913b 1f41 a9be 8d9b 71bf
000002d0: 2a26 643f c33d e83e 8b87 ae3e e4aa 703f
000002e0: 72d3 e03d e873 7e3f 6873 0e3d 5bd8 7f3f
000002f0: 6938 343c 09fc 7f3f 87f7 633b 9bff 7f3f
00000300: d85c 09bf d006 583f 2491 1bbf 564f 4bbf
00000310: 1d9a 6e3f f786 b93e 2ca9 bd3e c3c9 6d3f
00000320: ac2b f53d b528 7e3f 1965 1b3d d2d0 7f3f
00000330: 709a 443c 48fb 7f3f ebb0 783b 87ff 7f3f
00000340: 2220 d73e 6f4e 683f 4c14 53bf 9dd9 10bf
00000350: c0ab 763f 9df5 883e 3f9a cc3e c3ab 6a3f
00000360: d0be 043e 00d7 7d3f 6556 283d a1c8 7f3f
00000370: 6afc 543c 76fa 7f3f 26b5 863b 72ff 7f3f
00000380: 7298 7d3f d704 0c3e b3a8 75bf 0a0d 90be
00000390: 6f46 7c3f e70b 2e3e f456 db3e b151 673f
000003a0: 64e4 0e3e cc7e 7d3f 4347 353d c9bf 7f3f
000003b0: 555e 653c 94f9 7f3f d611 913b 5cff 7f3f
000003c0: 4479 263f e87a 42bf 75e0 7fbf 9622 fe3c
000003d0: d55b 7f3f bade 903d 83db e93e 68bc 633f
000003e0: 4f06 193e 1a20 7d3f aa37 423d 49b6 7f3f
000003f0: 32c0 753c a1f8 7f3f 856e 9b3b 43ff 7f3f

encoder.transformer.in_proj_weight f4 [48, 16]
0.09820039 0.0018794296 -0.010568372 0.024983114 0.23215337 0.26723194 -0.20832786 0.2482543
0.30472454 -0.072252296 -0.15362701 -0.21317509 0.31268007 -0.12399407 0.2319059 0.23608933
-0.22575593 0.2102679 -0.085500464 0.31990486 0.15312214 0.14052145 -0.11838428 0.25468233
0.08480395 -0.28136814 0.12620215 -0.33047348 -0.13022603 -0.107550494 -0.24763142 0.24962008
-0.18009974 -0.24238229 0.2735754 -0.26744616 0.12091691 -0.121504754 0.0956627 -0.17574553
0.13614827 -0.035495806 0.24280733 -0.087537 0.2720904 0.085784964 0.15660304 0.13947147
0.041833714 -0.061314754 0.09151054 -0.078369066 0.13938059 -0.0035677787 0.10326556 0.044574615
0.1926101 0.13237861 -0.18678202 -0.16110054 0.01903041 -0.24133915 0.17048465 0.23161724
-0.1594158 0.087833434 0.1688721 -0.06301873 0.077974156 -0.0838677 -0.014922564 -0.1313876
-0.12895745 0.1542411 -0.1254901 0.21207333 -0.07411747 -0.09098933 -0.020424342 0.16164234
0.22768845 0.07645916 -0.0046510915 -0.3343696 0.039482318 -0.04149695 0.17229523 0.25574023
0.28187126 -0.32699296 0.01011665 0.13716939 -0.12357041 -0.17464715 0.30617604 -0.23255707
-0.17114717 0.03688148 -0.15044622 -0.111564554 0.22239907 -0.12462197 -0.0026495904 -0.13235846
-0.19042803 0.10368773 0.30910403 0.116633624 -0.11435858 0.27977765 0.30094585 -0.18385673
0.08345404 -0.23650455 0.0018748329 -0.19231416 -0.0014511443 -0.28108472 0.0067366473 0.29412246
0.032758623 -0.16886726 -0.12994531 -0.25484556 0.19455647 0.3497192 -0.07823215 -0.13719052
0.20535186 0.024742715 0.14537348 0.27207592 0.016901623 -0.18831657 0.14658998 -0.30332482
0.31196538 -0.1984857 -0.09078568 0.123344146 0.11142546 -0.0407636 0.036517024 0.090203956
-0.12884618 -0.026123995 0.1469612 -0.1798865 0.118868575 -0.25679228 0.034003578 -0.05215108
0.13634345 0.21564129 -0.2526457 -0.24593425 -0.03890121 -0.19237056 0.2782917 -0.04140938
-0.16952361 0.32498434 -0.22353125 0.19906412 -0.12644324 -0.27743223 -0.27249125 0.09326848
-0.15895723 0.06394008 0.20018415 0.15017237 -0.2758957 0.2494591 -0.21710055 -0.06549938
0.111489005 -0.28011808 0.25726515 -0.05897226 0.0028023152 0.31112158 -0.28864482 0.22597453
0.32372174 -0.009659664 -0.036752693 -0.26585653 -0.14307101 -0.24959758 0.17287897 0.11078024
0.11450096 0.14081348 0.10265626 0.06441008 -0.26665652 0.18417834 0.07953857 0.025641572
0.06945918 0.038102284 -0.07909581 -0.023245227 0.17274939 -0.17700614 0.17066318 -0.2731266
0.19495241 -0.2177817 -0.029562892 0.20704313 -0.1780823 0.05865457 0.044466555 -0.08564526
-0.08483628 0.09774281 0.16511355 0.11490273 -0.020834547 0.10109858 -0.2766812 -0.021668369
-0.02386685 -0.03998076 -0.3539007 0.28704047 0.0328607 0.14574803 0.1915683 0.31071264
-0.12960176 -0.1255388 -0.3281268 0.289625 0.13012356 -0.1555438 -0.14716983 -0.090328805
-0.34891835 0.17763416 0.27477953 0.2526505 -0.26686352 -0.02317951 -0.20704392 -0.16653253
0.17269841 -0.26241207 0.052760847 -0.115882024 -0.032143634 0.07120313 -0.15872566 -0.17938739
00000000: 491d c93d 3157 f63a f726 2dbc 63a9 cc3c
00000010: 9db9 6d3e a0d2 883e e653 55be 6036 7e3e
00000020: db04 9c3e 03f9 93bd 6650 1dbe 924a 5abe
00000030: 9a17 a03e 9af0 fdbd be78 6d3e 67c1 713e
00000040: 902c 67be 7850 573e de1a afbd 92ca a33e
00000050: 0dcc 1c3e dbe4 0f3e 7573 f2bd b965 823e
00000060: b1ad ad3d 7c0f 90be 233b 013e d233 a9be
00000070: f959 05be 6f43 dcbd 1793 7dbe 689c 7f3e
00000080: 116c 38be 1033 78be 1312 8c3e b4ee 88be
00000090: 49a3 f73d 7cd7 f8bd ceea c33d a3f6 33be
000000a0: 746a 0b3e 0d64 11bd 7ca2 783e 9946 b3bd
000000b0: 6f4f 8b3e 07b0 af3d 8c5c 203e 9cd1 0e3e
000000c0: d459 2b3d 2e25 7bbd e169 bb3d f67f a0bd
000000d0: c9b9 0e3e 65d1 69bb e57c d33d df93 363d
000000e0: 953b 453e 428e 073e c943 3fbe 8af7 24be
000000f0: aae5 9b3c 9c21 77be 8793 2e3e 122d 6d3e
00000100: e53d 23be 04e2 b33d cfec 2c3e f70f 81bd
00000110: eab0 9f3d d4c2 abbd c57d 74bc 798a 06be
00000120: 6c0d 04be 61f1 1d3e 7a80 00be c029 593e
00000130: e6ca 97bd 9d58 babd f350 a7bc 9285 253e
00000140: 2927 693e 9f96 9c3d 2f68 98bb 7e32 abbe
00000150: 36b8 213d b5f8 29bd 296e 303e 62f0 823e
00000160: 6e51 903e 9f6b a7be 4ec0 253c 2276 0c3e
00000170: 7c12 fdbd b4d6 32be 1bc3 9c3e 7123 6ebe
00000180: 3441 2fbe 0911 173d 930e 1abe f57b e4bd
00000190: 95bc 633e ce39 ffbd c0a4 2dbb fa88 07be
000001a0: 91ff 42be 3c5a d43d e242 9e3e 9cdd ee3d
000001b0: d534 eabd 043f 8f3e 9315 9a3e f044 3cbe
000001c0: f4e9 aa3d 402e 72be f4bc f53a 01ee 44be
000001d0: 5334 beba 56ea 8fbe 18bf dc3b 3897 963e
000001e0: e82d 063d 8aeb 2cbe 6210 05be 1e7b 82be
000001f0: d039 473e 650e b33e 2d38 a0bd ac7b 0cbe
00000200: c247 523e 3cb1 ca3c c9dc 143e 894d 8b3e
00000210: 4675 8a3c 0fd6 40be af1b 163e 644d 9bbe
00000220: edb9 9f3e d63f 4bbe d8ed b9bd db9b fc3d
00000230: 0833 e43d bcf7 26bd e092 153d dabc b83d
00000240: 41f0 03be fd01 d6bc ff7c 163e 2b34 38be
00000250: 5e71 f33d 477a 83be 5647 0b3d 5f9c 55bd
00000260: 9e9d 0b3e 12d1 5c3e c75a 81be 30d6 7bbe
00000270: e056 1fbd cafc 44be 407c 8e3e e29c 29bd
00000280: 9997 2dbe 5964 a63e 60e5 64be 77d7 4b3e
00000290: 567a 01be 990b 8ebe f983 8bbe 8b03 bf3d
000002a0: afc5 22be 04f3 823d 13fd 4c3e c9c6 193e
000002b0: 3442 8dbe 3572 7f3e 9b4f 5ebe 8a24 86bd
000002c0: 5954 e43d a36b 8fbe 42b8 833e e68c 71bd
000002d0: 0ca7 373b 544b 9f3e 41c9 93be de65 673e
000002e0: dbbe a53e 9143 1ebc fe89 16bd 591e 88be
000002f0: 3581 12be 8296 7fbe 2f07 313e c0e0 e23d
00000300: 7b7f ea3d 6931 103e 723d d23d 6fe9 833d
00000310: 3487 88be 3f99 3c3e 1ee5 a23d 460e d23c
00000320: 9d40 8e3d 2411 1c3d fcfc a1bd c66c bebc
00000330: 37e5 303e 1941 35be 54c2 2e3e 40d7 8bbe
00000340: 9ba1 473e 2a02 5fbe e12d f2bc 1d03 543e
00000350: 355b 36be c63f 703d 9022 363d c866 afbd
00000360: a5be adbd 622d c83d 8713 293e 1f52 eb3d
00000370: 36ad aabc c60c cf3d 29a9 8dbe dd81 b1bc
00000380: 6a84 c3bc dec2 23bd 7932 b5be f8f6 923e
00000390: f198 063d f93e 153e 7b2a 443e ba15 9f3e
000003a0: 53b6 04be 3e8d 00be 3c00 a8be ba49 943e
000003b0: 1c3f 053e e046 1fbe b0b3 16be 4ffe b8bd
000003c0: 6da5 b2be bbe5 353e e7af 8c3e 685b 813e
000003d0: 56a2 88be f5e2 bdbc 5203 54be 8187 2abe
000003e0: dad7 303e e05a 86be c21b 583d 8e53 edbd
000003f0: 0ba9 03bd f2d2 913d fb88 22be 54b1 37be

encoder.transformer.in_proj_bias f4 [48]
0.034701258 0.0412882 -0.045790233 -0.048245434 0.016596636 -0.04790094 0.0040293904 0.012779794
0.05173689 -0.030981656 -0.007174484 -0.008398384 0.025756372 -0.025390953 0.05499416 0.011155585
-6.664767e-07 -4.5134487e-07 -4.4485452e-07 -1.4967479e-07 4.7789523e-08 -2.90156e-07 1.9219075e-07 -1.0220249e-07
-5.2193272e-08 -1.6419145e-07 5.0573584e-07 -6.0340864e-07 2.3664164e-08 4.1982085e-07 3.6533729e-07 -4.6149708e-07
-0.014882477 0.022060387 0.050798647 -0.046555337 0.012248925 -0.027276482 -0.0019436365 -0.04707283
0.05452085 -0.032433257 0.012557712 -0.052032147 0.001968222 0.015539204 -0.01874788 -0.0013382788
00000000: e822 0e3d d11d 293d 8a8e 3bbd 019d 45bd
00000010: abf5 873c c733 44bd fa08 843b 5762 513c
00000020: 10ea 533d 3ecd fdbc ef17 ebbb 6099 09bc
00000030: 07ff d23c b000 d0bc 8e41 613d eac5 363c
00000040: eee7 32b5 5e50 f2b4 57d4 eeb4 4bb6 20b4
00000050: 2341 4d33 bdc6 9bb4 fe5c 4e34 6a7a dbb3
00000060: 1c2b 60b3 9a4c 30b4 e7c1 0735 edf9 21b5
00000070: 0c46 cb32 bd63 e134 9323 c434 adc3 f7b4
00000080: a2d5 73bc fcb7 b43c 3e12 503d cfb0 3ebd
00000090: b7af 483c ee72 dfbc 9ec1 feba 71cf 40bd
000000a0: 4151 5f3d bcd8 04bd ddbe 4d3c a91f 55bd
000000b0: 49fd 003b 2598 7e3c 2795 99bc 2f69 afba

encoder.transformer.out_proj.weight f4 [16, 16]
0.0019417998 0.10581888 -0.14207953 0.23247522 0.2644261 0.09896161 -0.12357484 0.22823863
0.29329664 0.17583773 0.12323722 0.16884106 0.050577506 -0.0585824 0.1572011 0.03668041
-0.044991627 0.109391145 -0.2320949 -0.17511855 -0.15993601 0.0052350727 0.10594902 -0.024736427
0.1955552 -0.22975305 -0.12245804 0.15439034 -0.010599297 0.2241265 -0.1441206 0.20700812
-0.161764 0.03180054 -0.2636914 0.118355945 -0.2745927 0.22175738 -0.03708401 0.22426395
-0.084790826 0.044131108 -0.024975223 -0.09643189 -0.01804709 -0.1432334 0.1646455 -0.014454262
0.051802065 -0.11787342 0.108678244 -0.15276383 0.0663927 -0.08931781 -0.081057474 0.15312189
-0.055446718 -0.084131174 -0.10979579 0.27822167 0.08104552 0.21664539 -0.16845623 -0.17756487
-0.25710967 -0.09247052 -0.11618441 -0.16672178 0.23908325 -0.07941416 0.2704459 -0.1325032
-0.07497705 -0.13827825 -0.04659096 -0.11628532 -0.2074794 0.084010884 0.18167752 0.1960724
-0.23305324 -0.07358956 -0.21472569 0.10397203 -0.07385774 0.1340266 0.13808781 -0.22021219
-0.0746671 -0.013938947 -0.0056785126 0.1757623 0.058274683 0.23760362 -0.12890176 0.12635493
-0.0046180305 -0.13945195 0.022154586 0.0070300885 -0.2900514 -0.24120085 0.076660395 0.08489376
-0.02692611 -0.27551526 0.05685564 0.057772383 -0.19588666 0.07649686 -0.19897197 -0.04120392
-0.085501134 -0.008528754 0.2911889 0.050122105 0.10985169 -0.08389863 -0.026485628 -0.13081115
-0.23642077 -0.059992153 0.12077218 -0.27521148 0.04897352 -0.20667985 0.19278325 -0.22643413
-0.04391626 -0.16554752 -0.016526444 0.18254231 0.21413755 0.045661658 0.15172714 0.0007313252
-0.0931759 -0.18040311 -0.07413806 0.06501363 -0.17483275 -0.13879786 0.049569394 0.17497233
-0.080842145 0.058340244 0.30529276 -0.12647024 0.12671721 -0.09517369 -0.18306492 -0.109255135
0.13629775 0.18536378 -0.05845883 -0.24067636 -0.21513742 -0.03005456 0.12877889 -0.065890186
0.17981863 0.015878877 0.08912296 -0.15348351 -0.22508188 -0.11268615 -0.1001977 0.068915166
-0.082996264 0.22564381 -0.090620436 -0.12811369 -0.20384468 -0.2356635 -0.07090852 0.06784973
0.08887769 0.18569762 -0.20416167 -0.13074823 0.14382358 -0.17898604 -0.20109868 -0.05571755
-0.01996904 -0.1987988 -0.16858895 0.06649642 0.013108629 -0.23838119 -0.039251134 0.15836482
0.12736095 0.06684022 0.14006913 -0.074153475 0.115433164 0.18260196 0.11457632 0.20150523
-0.17142183 0.2568709 -0.058601577 0.12066387 -0.13495964 -0.08338773 0.19500272 -0.14395426
-0.032067172 0.1070623 -0.1615619 -0.21889271 -0.020903844 -0.022815572 0.2573169 -0.049378056
-0.15997562 -0.05982673 -0.08454442 -0.03958118 0.08077145 0.07928164 0.19777669 -0.16223243
0.0418039 0.116001986 0.14200087 -0.1992859 0.26118323 0.16296114 0.020476043 -0.21104825
0.045423042 -0.22680838 0.10493008 -0.11643707 0.06327639 -0.16902275 -0.17735165 0.1820915
0.06573417 -0.1344466 -0.001289392 0.032070845 -0.19341545 -0.058437977 0.05256372 0.12848827
0.10731032 0.113134585 -0.09859718 0.1872363 -0.062337115 0.2554838 -0.096725866 0.05544179
00000000: fd83 fe3a 92b7 d83d 4c7d 11be fc0d 6e3e
00000010: dc62 873e 62ac ca3d ce14 fdbd 63b7 693e
00000020: fa2a 963e ce0e 343e cc63 fc3d ace4 2c3e
00000030: 5c2a 4f3d 19f4 6fbd 53f9 203e 333e 163d
00000040: 2449 38bd 7708 e03d 49aa 6dbe 4752 33be
00000050: 44c6 23be f98a ab3b cdfb d83d 0ca4 cabc
00000060: 9f3f 483e 6244 6bbe 48cb fabd 8018 1e3e
00000070: aca8 2dbc 6b81 653e 5a94 13be f0f9 533e
00000080: 76a5 25be 4841 023d 8f02 87be 9a64 f23d
00000090: 6a97 8cbe 5e14 633e 67e5 17bd 73a5 653e
000000a0: d0a6 adbd d2c2 343d d798 ccbc 157e c5bd
000000b0: 7ed7 93bc c7ab 12be d498 283e 92d1 6cbc
000000c0: 672e 543d 9f67 f1bd b392 de3d 1f6e 1cbe
000000d0: e5f8 873d 42ec b6bd 7601 a6bd fccb 1c3e
000000e0: 191c 63bd f74c acbd 9ddc e0bd 1273 8e3e
000000f0: 32fb a53d 4ad8 5d3e ca7f 2cbe 91d3 35be
00000100: e1a3 83be 2f61 bdbd 18f2 edbd 1db9 2abe
00000110: 3dd2 743e e4a3 a2bd e377 8a3e ebae 07be
00000120: 918d 99bd d098 0dbe 2ad6 3ebd ff26 eebd
00000130: 7b75 54be e60d ac3d ac09 3a3e 34c7 483e
00000140: 82a5 6ebe 20b6 96bd 0de1 5bbe 4aef d43d
00000150: ba42 97bd 453e 093e e466 0d3e 4e7f 61be
00000160: 11eb 98bd 2e60 64bc d112 babb 08fb 333e
00000170: 6fb1 6e3d 5d4e 733e d3fe 03be 3063 013e
00000180: d952 97bb 7ecc 0ebe 897d b53c a85c e63b
00000190: 9e81 94be 5bfd 76be 2000 9d3d c8dc ad3d
000001a0: 2594 dcbc 5610 8dbe 76e1 683d bca2 6c3d
000001b0: 8396 48be 63aa 9c3d 4fbf 4bbe 71c5 28bd
000001c0: 381b afbd 30bc 0bbc b616 953e d64c 4d3d
000001d0: ecf9 e03d 0cd3 abbd 63f8 d8bc 5cf3 05be
000001e0: 4918 72be 55ba 75bd 6857 f73d 85e8 8cbe
000001f0: 7598 483d e2a3 53be f968 453e 59de 67be
00000200: 89e1 33bd 4a85 29be 7762 87bc 5fec 3a3e
00000210: e046 5b3e b807 3b3d 5c5e 1b3e 67b6 3f3a
00000220: 02d3 bebd 98bb 38be b2d5 97bd de25 853d
00000230: 5b07 33be 0721 0ebe 4709 4b3d f22b 333e
00000240: 9190 a5bd 2ef6 6e3d 554f 9c3e 6a81 01be
00000250: 28c2 013e 6cea c2bd 5f75 3bbe 28c1 dfbd
00000260: a391 0b3e 01d0 3d3e 8772 6fbd dd73 76be
00000270: fc4c 5cbe fb34 f6bc 9dde 033e 6ff1 86bd
00000280: 6022 383e 6b14 823c 1986 b63d c82a 1dbe
00000290: dd7b 66be ffc7 e6bd 7434 cdbd 6523 8d3d
000002a0: f2f9 a9bd 2c0f 673e 3597 b9bd 3c30 03be
000002b0: a9bc 50be c651 71be 7c38 91bd cdf4 8a3d
000002c0: 8205 b63d 8427 3e3e c20f 51be dde2 05be
000002d0: 7d46 133e 1e48 37be d0ec 4dbe 1638 64bd
000002e0: 1d96 a3bc ea91 4bbe 95a2 2cbe 462f 883d
000002f0: 93c5 563c 331a 74be ccc5 20bd 632a 223e
00000300: e96a 023e 86e3 883d 486e 0f3e c7dd 97bd
00000310: 3968 ec3d 02fc 3a3e fda6 ea3d 6357 4e3e
00000320: 3489 2fbe 9584 833e 3508 70bd 9e1e f73d
00000330: dc32 0abe 30c7 aabd cbae 473e bf68 13be
00000340: de58 03bd 7b43 db3d 7c70 25be 6925 60be
00000350: 8a3e abbc b9e7 babc 0abf 833e a540 4abd
00000360: a6d0 23be e00c 75bd a025 adbd e01f 22bd
00000370: 816b a53d 6a5e a23d f985 4a3e 4220 26be
00000380: 913a 2b3d 7392 ed3d ad68 113e 9a11 4cbe
00000390: cfb9 853e 49df 263e 60bd a73c 081d 58be
000003a0: 830d 3a3d 7540 68be 95e5 d63d 8f76 eebd
000003b0: 0d97 813d 4d14 2dbe ac9b 35be 3276 3a3e
000003c0: a39f 863d 5fac 09be d100 a9ba b85c 033d
000003d0: b30e 46be a95c 6fbd 0e4d 573d 6e92 033e
000003e0: 83c5 db3d 1bb3 e73d 51ed c9bd dfba 3f3e
000003f0: 3455 7fbd c6ce 823e 3618 c6bd ee16 633d

encoder.transformer.out_proj.bias f4 [16]
-0.05760401 0.02915961 -0.022789478 0.0028728913 -0.02063442 -0.05351078 0.027914206 0.016873406
0.0019192501 0.08746062 -0.06291499 -0.012115905 -0.041128453 0.028714215 0.03608692 0.032734126
00000000: 2ff2 6bbd 22e0 ee3c 00b1 babc 1e47 3c3b
00000010: 8409 a9bc 1f2e 5bbd 55ac e43c 193a 8a3c
00000020: 598f fb3a 8e1e b33d 93d9 80bd ca81 46bc
00000030: 4f76 28bd 133a eb3c e1cf 133d 3814 063d

encoder.ln1.weight f4 [16]
0.9237342 0.9478374 1.0254582 1.0154502 0.9945719 1.0449035 1.0471163 0.9574759
0.9396511 1.0471976 1.0087241 0.91324395 1.0397809 0.9999089 0.9448998 1.0157032
00000000: d879 6c3f 79a5 723f 3742 833f 46fa 813f
00000010: 449c 7e3f 66bf 853f e807 863f 241d 753f
00000020: f98c 703f 920a 863f df1d 813f 5bca 693f
00000030: 8a17 853f 08fa 7f3f f4e4 713f 9002 823f

encoder.ln1.bias f4 [16]
-0.040633682 0.021145483 -0.020042108 0.007981557 -0.027022034 -0.030523509 0.030206935 0.005505015
0.0023963533 0.072054476 -0.070288174 -0.018800527 -0.022453051 0.01845079 0.0037996408 0.026903676
00000000: 816f 26bd 4b39 ad3c 592f a4bc 14c5 023c
00000010: 505d ddbc 700c fabc 8974 f73c 6a63 b43b
00000020: 230c 1d3b 4c91 933d 3ff3 8fbd 9003 9abc
00000030: 76ef b7bc 1c26 973c 6503 793b 1965 dc3c

encoder.ln2.weight f4 [16]
0.9513316 0.9328849 1.0422351 1.0056261 0.995715 1.0376987 1.0187747 1.070971
0.94866323 1.053989 0.9965458 0.9445944 1.056002 1.0162119 0.9516086 1.0110433
00000000: 788a 733f 8bd1 6e3f f667 853f 5bb8 803f
00000010: 2ee7 7e3f 50d3 843f 3667 823f 9415 893f
00000020: 98db 723f 1de9 863f a01d 7f3f f0d0 713f
00000030: 132b 873f 3b13 823f 9f9c 733f de69 813f

encoder.ln2.bias f4 [16]
-0.06287584 0.052927665 -0.0150845265 0.018249922 -0.01975671 -0.028957909 0.032370098 0.027922807
0.024124289 0.07564746 -0.035645593 0.008528547 -0.024915826 0.029010667 0.06907962 0.03180912
00000000: 0cc5 80bd aeca 583d 1725 77bc dc80 953c
00000010: d3d8 a1bc 2339 edbc 8296 043d 5fbe e43c
00000020: 4da0 c53c 0eed 9a3d 1d01 12bd 52bb 0b3c
00000030: 461c ccbc c7a7 ed3c 9e79 8d3d 484a 023d

decoder.output_head.weight f4 [24, 16]
-0.00253765 -0.03715125 -0.26112244 -0.040529005 -0.06324146 0.08516841 -0.0016316772 -0.16455984
-0.20428693 -0.15733261 -0.08081683 -0.13565329 -0.2350506 0.04896931 0.2833016 0.012498981
0.017732361 -0.026300574 -0.005720567 0.035639428 -0.10958765 0.121584885 -0.21868517 0.09892974
0.08471902 0.0374111 -0.11403535 0.17284554 -0.04889054 0.10249262 0.15223494 0.14540763
-0.0014894737 0.15109572 0.039197363 0.04533054 -0.08355434 -0.12744783 -0.069414 -0.13580003
-0.14352308 -0.17518906 -0.18682037 0.12353582 0.064338855 0.15964517 0.054714575 -0.27149513
0.2665859 -0.02196947 0.06293935 0.098441064 -0.011681077 -0.057654142 -0.11883089 -0.06554909
0.09709014 0.16769265 -0.051000513 0.18047932 0.033683468 -0.22602355 0.2524368 -0.010618382
0.2723404 -0.13440543 -0.02057393 0.13297863 0.09110063 0.21071462 0.11368206 -0.23017722
0.093812704 -0.14580306 -0.116534956 -0.075438544 -0.20410188 0.025467426 -0.07377908 -0.03757763
-0.17318633 0.010975139 -0.14115791 -0.21377301 0.09593553 -0.0031879514 0.29272026 0.07039993
-0.041625544 -0.080289006 0.096049264 -0.098747656 -0.08515844 0.023567628 -0.17663279 0.14393161
-0.07705905 0.19973037 -0.13453673 0.15402722 0.028900385 -0.2729005 -0.12079629 -0.121774085
-0.12967332 -0.021400748 0.16533528 -0.22354084 0.008194197 0.041175578 0.008165656 -0.014822465
0.096952066 0.17577402 -0.30889887 -0.14219171 -0.018033253 0.13736628 -0.09351403 -0.10891507
-0.16428983 -0.14873634 -0.15625823 -0.005928751 -0.13467133 -0.2159948 0.0014230482 -0.08481831
0.051507585 -0.2636246 -0.04064531 0.1421998 0.041548003 -0.012480196 0.11217515 0.24594985
-0.0021184648 0.07587955 0.13474359 0.18297295 0.17171855 0.1199825 0.19593059 0.115745544
0.20705219 0.0964942 0.051771503 -0.05084578 0.092542216 -0.14765626 0.0326417 -0.19493258
-0.25664735 0.08399413 0.0689445 0.04670382 0.11463894 0.12971647 0.07895362 0.023180269
-0.054900467 -0.19004613 -0.16326155 -0.08529939 0.13873766 -0.021504296 -0.113295875 0.039116897
-0.1582796 0.19450834 -0.30456564 -0.04227783 -0.052916717 -0.13695262 -0.124711476 -0.26255983
-0.14642549 0.04717696 -0.13942525 0.02695573 0.030237582 0.030043947 -0.10150167 -0.30624232
-0.20088314 -0.19743827 0.22387356 0.1575964 -0.1442557 -0.24386579 -0.04839112 0.055124126
0.19252509 -0.13116454 0.26129052 -0.054603133 0.029001424 0.07781161 0.049134534 -0.024025192
-0.20997344 -0.14030847 0.36460248 -0.33907375 0.2661311 0.09544773 -0.12720986 -0.05158993
-0.027754115 0.062825814 -0.040818512 0.2449336 -0.03035459 0.03495872 -0.0416021 -0.048110906
0.21158865 -0.058151446 -0.0802605 -0.12595962 0.13855512 -0.27423537 0.12013352 -0.20434046
0.0124462 0.09577281 -0.027727425 -0.103653304 0.060583156 0.046359204 -0.083857976 -0.0028240506
-0.091474555 -0.15604353 0.14168599 0.05632406 0.08894561 -0.15046972 -0.12825625 -0.08354274
-0.056325477 0.18490629 0.019479234 -0.0874151 0.021208262 -0.03192223 -0.11830096 0.148729
0.19672343 -0.12649477 -0.119096056 0.00055707525 -0.092419274 -0.28144157 -0.09678302 -0.041350525
00000000: b44e 26bb e92b 18bd d7b1 85be be01 26bd
00000010: bd84 81bd c66c ae3d 00de d5ba 6082 28be
00000020: 9830 51be cd1b 21be 4b83 a5bd b2e8 0abe
00000030: 1bb1 70be 0b94 483d e80c 913e 87c8 4c3c
00000040: 7543 913c 4d74 d7bc 9873 bbbb a6fa 113d
00000050: 7d6f e0bd 7f01 f93d 01ef 5fbe ad9b ca3d
00000060: 2a81 ad3d 623c 193d 5e8b e9bd 6cfe 303e
00000070: 7241 48bd a7e7 d13d 7ae3 1b3e bde5 143e
00000080: 723a c3ba d6b8 1a3e 6a8d 203d 84ac 393d
00000090: 8a1e abbd af81 02be ed28 8ebd 2a0f 0bbe
000000a0: b7f7 12be c364 33be d74d 3fbe 5900 fd3d
000000b0: 17c4 833d 067a 233e 641c 603d 6901 8bbe
000000c0: f27d 883e 51f9 b3bc 59e6 803d 789b c93d
000000d0: fd61 3fbc c026 6cbd 9c5d f3bd 9a3e 86bd
000000e0: 32d7 c63d 9fb7 2b3e eae5 50bd 92cf 383e
000000f0: adf7 093d b872 67be 653f 813e b9f8 2dbc
00000100: 3370 8b3e 94a1 09be a98a a8bc 8d2b 083e
00000110: f892 ba3d 93c5 573e 24d2 e83d 94b3 6bbe
00000120: e020 c03d 664d 15be e1a9 eebd 867f 9abd
00000130: 1500 51be 10a1 d03c 7c19 97bd 00eb 19bd
00000140: c257 31be 12d1 333c b38b 10be 50e7 5abe
00000150: d979 c43d f3ec 50bb 6edf 953e d72d 903d
00000160: 8c7f 2abd 906e a4bd 7ab5 c43d 363c cabd
00000170: 8c67 aebd e610 c13c 3adf 34be cf62 133e
00000180: 23d1 9dbd 1e86 4c3e ffc3 09be 50b9 1d3e
00000190: 80c0 ec3c 9db9 8bbe 0c64 f7bd b164 f9bd
000001a0: 15c9 04be 9f50 afbc a74d 293e e4e7 64be
000001b0: f440 063c b9a7 283d 3ec9 053c edd9 72bc
000001c0: ce8e c63d 1bfe 333e fe27 9ebe b49a 11be
000001d0: 79ba 93bc bfa9 0c3e 4984 bfbd dd0e dfbd
000001e0: 983b 28be 574e 18be 2802 20be f845 c2bb
000001f0: 48e7 09be be2d 5dbe 9385 ba3a 39b5 adbd
00000200: 9ef9 523d cef9 86be b27b 26bd d39c 113e
00000210: 3d2e 2a3d bc79 4cbc 16bc e53d 47da 7b3e
00000220: f1d5 0abb bd66 9b3d 39fa 093e 435d 3b3e
00000230: fdd6 2f3e 63b9 f53d 07a2 483e 000c ed3d
00000240: 7d05 543e c09e c53d 5b0e 543d aa43 50bd
00000250: c686 bd3d 3433 17be 4eb3 053d 689c 47be
00000260: 4867 83be 1d05 ac3d c632 8d3d 814c 3f3d
00000270: d2c7 ea3d 65d4 043e 6fb2 a13d 8ce4 bd3c
00000280: 50df 60bd 749b 42be 092e 27be 72b1 aebd
00000290: 3f11 0e3e c729 b0bc ab07 e8bd 0a39 203d
000002a0: 0c14 22be 322d 473e 07f0 9bbe 852b 2dbd
000002b0: 33bf 58bd 4f3d 0cbe bb68 ffbd 3e6e 86be
000002c0: 90f0 15be a13c 413d 7ec5 0ebe 43d2 dc3c
000002d0: ceb4 f73c b91e f63c 1ce0 cfbd cbcb 9cbe
000002e0: 4fb4 4dbe 422d 4abe 1c3f 653e f360 213e
000002f0: c4b7 13be f4b7 79be c435 46bd d6c9 613d
00000300: 4c25 453e ff4f 06be dfc7 853e 89a7 5fbd
00000310: 6594 ed3c b25b 9f3d 4b41 493d 7bd0 c4bc
00000320: 4703 57be 06ad 0fbe 2dad ba3e 139b adbe
00000330: 5642 883e 197a c33d 4d43 02be f64f 53bd
00000340: 995c e3bc d2aa 803d 5031 27bd e0cf 7a3e
00000350: 30aa f8bc e030 0f3d f766 2abd f10f 45bd
00000360: b2aa 583e 3630 6ebd 9e5f a4bd 8ffb 00be
00000370: 65e1 0d3e 9468 8cbe 9008 f63d a03e 51be
00000380: 25eb 4b3c 8924 c43d a024 e3bc 2f48 d4bd
00000390: 0b26 783d 26e3 3d3d bbbd abbd b513 39bb
000003a0: 0357 bbbd e0c9 1fbe 2216 113e 0fb4 663d
000003b0: 1e29 b63d bc14 1abe 9b55 03be 7518 abbd
000003c0: 8bb5 66bd 1358 3d3e ea92 9f3c b006 b3bd
000003d0: f3bc ad3c e2c0 02bd c647 f2bd 6a4c 183e
000003e0: de71 493e d887 01be a2e8 f3bd b008 123a
000003f0: 5146 bdbd 1c19 90be 2d36 c6bd 2b5f 29bd

decoder.output_head.bias f4 [24]
-0.19079462 -0.19584739 -0.0010566512 0.041497916 0.12004882 0.09991378 -0.21008703 0.16528168
-0.28000772 -0.07685222 0.08929879 0.113987274 -0.22291063 0.028678898 -0.15533823 0.08101722
-0.098549336 -0.069114774 -0.22573254 0.06973161 -0.15026817 0.06181046 -0.271678 -0.27594876
00000000: aa5f 43be 388c 48be 557f 8aba b8f9 293d
00000010: 28dc f53d 999f cc3d 0e21 57be 9a3f 293e
00000020: 2c5d 8fbe b264 9dbd 49e2 b63d 2972 e93d
00000030: af42 64be 02f0 ea3c fc10 1fbe 5bec a53d
00000040: 3cd4 c9bd 0c8c 8dbd 6e26 67be 72cf 8e3d
00000050: e6df 19be f72c 7d3d 6119 8bbe 2849 8dbe
