experiments/model_32_40_2026-01-17_6447/model.pt (torch, 98848 bytes, 21 tensors)

encoder.graph_embed.GCN_in.A f4 [9, 9]
0	0xbf05f618	-0.52328634
1	0x3ee3efe3	0.44518957
2	0xbf38790c	-0.720597
3	0x3e989d4a	0.29807502
4	0xc00a2f9e	-2.1591563
5	0x3e534756	0.20632681
6	0x3f3614c9	0.71125466
7	0x3f9542ae	1.1660974
8	0x3f814b39	1.0101081
9	0x3fc7f006	1.5620124
10	0xbdb32544	-0.08747342
11	0xbf043932	-0.51649773
12	0x3d6585e5	0.056035895
13	0xbd3e9f42	-0.0465386
14	0x3e31ac2b	0.17350833
15	0x3f8db8c6	1.1072013
16	0xbedf6ae2	-0.43636233
17	0xbfd3bffd	-1.6542965
18	0xbfa0b55c	-1.2555346
19	0x3f2c1787	0.672234
20	0x40062af2	2.0963712
21	0x3f9bd751	1.2175084
22	0xbf1f3224	-0.62185884
23	0x3ee08cdd	0.4385747
24	0x3f31c35f	0.6943874
25	0x3fb34b73	1.40074
26	0xbf169328	-0.5881829
27	0xc00e0752	-2.2191968
28	0xbe57e106	-0.21081933
29	0xbfd8bfcf	-1.6933535
30	0x3f9fdea5	1.2489821
31	0x3d929608	0.071575224
32	0xbfa1b58b	-1.2633528
33	0x3f1ffabb	0.6249196
34	0xbf91d30a	-1.1392529
35	0xc030ee26	-2.7645354
36	0xbf8ed67c	-1.1159205
37	0xbf0b9699	-0.5452667
38	0xbf7b36ca	-0.98130476
39	0xbf00dc48	-0.5033612
40	0xbe845cf6	-0.25852174
41	0x3f0cf4a7	0.5506081
42	0xbfb736d2	-1.4313605
43	0xbf313a6d	-0.69229776
44	0xbd97e65f	-0.07416987
45	0xbfa80ee9	-1.312955
46	0xbf859527	-1.0436143
47	0xbf33516c	-0.70046115
48	0xbee074da	-0.4383915
49	0xbef00bf1	-0.4688411
50	0x3f7c3bf7	0.98529
51	0x3ecfd84f	0.40594718
52	0x3da12d15	0.07869927
53	0x3efb014d	0.4902443
54	0xbf964073	-1.1738418
55	0x3f363bb6	0.7118486
56	0xbfcdb8b3	-1.6071991
57	0xbf8cafaa	-1.0991108
58	0x3f89e5c6	1.0773246
59	0xbf8f433d	-1.1192394
60	0x3f0d9d94	0.5531857
61	0x3f5aa273	0.8540413
62	0xc006b2b9	-2.1046584
63	0xbf09f5ed	-0.5389088
64	0x3f046cf5	0.51728755
65	0xbf1a6441	-0.60309225
66	0x3fc2d296	1.5220516
67	0xbecdd996	-0.40205067
68	0x3ec192ef	0.37807414
69	0x3ec56947	0.38556883
70	0x3fd3f7fb	1.6560053
71	0xbf240660	-0.6407223
72	0xbf82cedb	-1.0219377
73	0x3e6d41ce	0.23169634
74	0x3fa327f0	1.2746563
75	0xbec63e61	-0.38719466
76	0x3f3d87c8	0.7403531
77	0xbfe4cd6e	-1.7875192
78	0x3f98c4d5	1.1935068
79	0xbef5ce44	-0.4800893
80	0xbfb8caa0	-1.4436836

encoder.graph_embed.GCN_in.linear.weight f4 [32, 16]
0	0x3dccd035	0.1000065
1	0x3e5a33a2	0.21308759
2	0xbdee297f	-0.116290085
3	0x3dbd6090	0.092469335
4	0x3e4601e4	0.19336659
5	0xbc3abf1e	-0.011398105
6	0xbd91efcc	-0.07125816
7	0x3dc844a5	0.09778718
8	0x3d93a9bf	0.07210111
9	0xbd292169	-0.041291628
10	0x3e62d884	0.22152907
11	0xbe0401f6	-0.12891373
12	0x3dfff282	0.124974266
13	0x3e41dad5	0.18931134
14	0x3e10e90e	0.14151403
15	0xbe4be9aa	-0.19913355
16	0xbddeb14e	-0.10873662
17	0xbe272ea2	-0.16326383
18	0x3e01914a	0.1265308
19	0xbe4c1123	-0.19928412
20	0x3dc012f6	0.093786165
21	0xbe7a31e1	-0.2443309
22	0xbe2f6f23	-0.17132239
23	0x3df168ad	0.117875434
24	0xbc1fb763	-0.009748313
25	0xbcadfc0b	-0.021238348
26	0xbea72ed9	-0.3265293
27	0x3dca20d4	0.09869543
28	0x3e672cc2	0.22575668
29	0xbe317838	-0.17331016
30	0x3e36e1cd	0.17859574
31	0x3c3faba1	0.011698634
32	0xbe439a98	-0.19101942
33	0x3e19dc42	0.15025428
34	0xbe4196d1	-0.18905188
35	0x3d7d09c9	0.06177691
36	0xbe6e6581	-0.23280908
37	0x3e776101	0.24158098
38	0xbd70236b	-0.058627527
39	0x3c1617c1	0.009160937
40	0x3dcecf3b	0.1009812
41	0xbe8ba2e6	-0.2727272
42	0xbc8f462c	-0.017489515
43	0x3ddb217e	0.106997475
44	0xbdf08b70	-0.117453456
45	0x3dc3621b	0.095401965
46	0x3b664aca	0.0035139793
47	0xbe4c3f8c	-0.19946116
48	0xbd4cdfb9	-0.050018046
49	0xbd3a4b33	-0.04548187
50	0xbd255c52	-0.040371247
51	0x3e1044bc	0.1408872
52	0xbd32a908	-0.043618232
53	0xbe10dd9f	-0.14147042
54	0xbe45fe67	-0.19335328
55	0xbcf1386b	-0.029445847
56	0x3de0220c	0.10943994
57	0xbe218287	-0.15772448
58	0x3e091d3c	0.13390058
59	0xbe1d1ad9	-0.15342273
60	0x3e11c170	0.14233947
61	0x3e41fc9d	0.1894402
62	0xbd38c23e	-0.04510712
63	0x3e2f1715	0.17098649
64	0xbe282917	-0.16421925
65	0xbdaa293c	-0.08308646
66	0xbe1e7935	-0.15475924
67	0xbe970853	-0.29498538
68	0x3e4c9868	0.19980013
69	0xbc9768cf	-0.018482594
70	0xbddcdb11	-0.10783971
71	0xbe24a4f0	-0.16078544
72	0x3e3fd525	0.18733652
73	0x3c8c27cb	0.017108819
74	0xbda8ce25	-0.08242444
75	0x3d9b767f	0.07590961
76	0x3c03c32a	0.008042136
77	0xbdb1c005	-0.08679203
78	0xbe48f585	-0.19624908
79	0x3e1b047d	0.15138431
80	0xbdd5c2ba	-0.10437532
81	0x3e20b95d	0.1569571
82	0xbe8f942b	-0.2804273
83	0xbe7752ae	-0.24152634
84	0x3e21102b	0.15728824
85	0x3e77affc	0.24188226
86	0xbdc2de12	-0.09515013
87	0x3d29aa74	0.041422322
88	0x3dd72d9b	0.105067454
89	0x3df91b9e	0.12163471
90	0xbd71b561	-0.059010867
91	0xbdc04d7a	-0.093897775
92	0xbe0a98ef	-0.13534902
93	0xbe0bb70d	-0.13644047
94	0xbe199f27	-0.15002118
95	0xbd72b2f0	-0.05925268
96	0xbe49a992	-0.19693592
97	0x3dc892f8	0.09793657
98	0xbdb9cd8c	-0.09072408
99	0xbe1d45b4	-0.15358621
100	0x3e2d2979	0.16910352
101	0x3d5ba3d2	0.053623028
102	0xbdd6831f	-0.10474228
103	0xbe88be7b	-0.26707825
104	0x3d74715e	0.059678428
105	0xbe18b32d	-0.149121
106	0xbe2a68cf	-0.16641544
107	0x3dce22a8	0.10065204
108	0xbd891454	-0.066933304
109	0x3dc9c6a6	0.09852342
110	0xbe1a7fee	-0.15087864
111	0xbe21ea0b	-0.15811937
112	0xbaac094b	-0.0013125328
113	0xbe3005c5	-0.17189701
114	0xbe892ad8	-0.267905
115	0xbe136d35	-0.14397128
116	0x3c77f986	0.015135175
117	0xbbd4874a	-0.0064858543
118	0xbe081b2f	-0.1329162
119	0x3df0cd9c	0.11757967
120	0xbe277234	-0.16352159
121	0x3dbebccc	0.09313354
122	0xbdfe4718	-0.12415904
123	0x3dd1fd3d	0.102533795
124	0xbe703855	-0.23458989
125	0x3d1cff72	0.03832955
126	0x3e66ba73	0.22532062
127	0xbd2a6f9e	-0.041610353
128	0x3e564c90	0.20927644
129	0x3c975a56	0.018475693
130	0xbd22fb6f	-0.039790567
131	0xbdca87a2	-0.09889151
132	0xbda065ff	-0.07831954
133	0x3e200acd	0.1562912
134	0xbe3267e3	-0.17422442
135	0x3e70045c	0.23439163
136	0x3e1d51b5	0.153632
137	0xbe57571d	-0.21029325
138	0xbd343a0c	-0.04400067
139	0xbe5e6b25	-0.2172056
140	0x3e2336ed	0.15938921
141	0x3e02f869	0.12790073
142	0xbc9f4386	-0.019441377
143	0x3e15473b	0.14577954
144	0x3dd64ee9	0.1046427
145	0x3cf2b023	0.029625004
146	0xbe3dcdb4	-0.18535501
147	0xbe59b472	-0.2126024
148	0xbdaa7702	-0.0832348
149	0xbde1c06d	-0.110230304
150	0xbd2208d0	-0.039559186
151	0xbd8ac41b	-0.067756854
152	0x3da9ba41	0.08287478
153	0x3de5510d	0.111971
154	0x3d2c7900	0.042107582
155	0xbe361030	-0.17779613
156	0xbced3e7a	-0.028960455
157	0x3e66eec0	0.22552013
158	0xbccd6a23	-0.025075024
159	0x3e0e11ac	0.13873929
160	0x3dd0b89b	0.10191461
161	0xbcc63e60	-0.024199665
162	0xbc607304	-0.013699297
163	0x3e5d5c78	0.21617305
164	0x3c6e8cdc	0.014559951
165	0x3dd5a2f3	0.10431471
166	0x3a85c03d	0.0010204386
167	0xbce9481d	-0.02847677
168	0xbe76fec1	-0.24120618
169	0x3e2a1e1a	0.16613045
170	0xbd8226bb	-0.063550435
171	0xbe0d41e5	-0.13794668
172	0xbdd9ca2a	-0.10634263
173	0x3e28d764	0.16488415
174	0x3e0d596d	0.13803644
175	0xbcdc7690	-0.026912004
176	0x3d987e5b	0.074459754
177	0xbe275625	-0.16341455
178	0x3d68f8a7	0.05687776
179	0x3dd9f28d	0.10641966
180	0x3e28a349	0.16468538
181	0xbe180f5e	-0.14849612
182	0xbe240068	-0.1601578
183	0xbd3623a8	-0.0444676
184	0xbc8aae3d	-0.016928786
185	0x3bb9ef85	0.005674305
186	0x3e1dc805	0.15408333
187	0x3d041540	0.032246828
188	0xbdc93924	-0.09825352
189	0xbe190a2e	-0.1494529
190	0x3db8e722	0.0902846
191	0xbdaf0cca	-0.08547361
192	0x3e531e02	0.20616916
193	0xbdacc002	-0.0843506
194	0x3e16b4c8	0.147174
195	0x3e59c3fb	0.21266167
196	0x3e31053b	0.17287152
197	0xbde859f1	-0.1134528
198	0xbdbdc12b	-0.092653595
199	0xbde7d0d8	-0.11319131
200	0x3d09dc1e	0.033657186
201	0xbd739022	-0.059463628
202	0xbe6e8482	-0.23292735
203	0xbe425779	-0.1897868
204	0xbd755819	-0.05989847
205	0xbd2057f3	-0.039146375
206	0x3e466e65	0.1937805
207	0x3d12e248	0.03586033
208	0x3dfb784a	0.12278803
209	0x3e8b47f7	0.27203342
210	0xbd94b074	-0.07260218
211	0xbe4ee912	-0.20206097
212	0x3c656a33	0.014002371
213	0xbe63b77e	-0.22237965
214	0xbe627c23	-0.22117667
215	0x3e024a51	0.12723662
216	0x39f31e5c	0.0004637119
217	0x3e26fe9c	0.16308063
218	0xbe01f2fd	-0.12690349
219	0xbdd3b00b	-0.10336312
220	0xbd7aa959	-0.06119666
221	0x3e50b183	0.20380215
222	0xbe455ebc	-0.1927442
223	0x3d71be6f	0.059019502
224	0xbd875a0c	-0.06608972
225	0xbe90e001	-0.282959
226	0xbcf007f5	-0.02930067
227	0xbe43057a	-0.19045058
228	0xbe50e84a	-0.20401111
229	0x3e2cf60b	0.16890733
230	0x3e2744ff	0.16334914
231	0x3e2283af	0.15870546
232	0xbe37d4ca	-0.17952266
233	0xbe89cb59	-0.26912954
234	0xbe19678c	-0.14980906
235	0xbe06732b	-0.1312987
236	0x3e18fb93	0.14939718
237	0xbe450b8e	-0.19242689
238	0x3def62e6	0.11688785
239	0xbe08cf69	-0.1336037
240	0xbd917923	-0.07103183
241	0xbe19f2e9	-0.15034069
242	0xbe1c7c56	-0.15281805
243	0x3de2ced9	0.11074609
244	0xbd7ff6e5	-0.062491316
245	0xbd8ebcb2	-0.069695845
246	0x3e9e9446	0.309725
247	0x3e1efc1f	0.15525864
248	0x3df641c5	0.12024263
249	0xbda5581d	-0.08073447
250	0x3e6f1d9d	0.2335114
251	0x3dc920e2	0.09820725
252	0xbe475ca2	-0.1946893
253	0x3e103083	0.14081006
254	0xbd78d00a	-0.060745277
255	0xbe393a8b	-0.18088739

encoder.graph_embed.GCN_in.linear.bias f4 [32]
0	0xbc56766b	-0.0130897565
1	0x3e1378b8	0.1440152
2	0xbdf5ea36	-0.12007563
3	0x3ca8ce6d	0.020606244
4	0xbe253838	-0.16134727
5	0x3debe6b4	0.115186125
6	0xbe463e3a	-0.19359675
7	0x3b889f47	0.004169378
8	0x3dca60f7	0.09881776
9	0xbe708b33	-0.234906
10	0xbddcf99a	-0.10789795
11	0x3e0d0e90	0.13775086
12	0x3ce3a130	0.027786821
13	0xbe52d885	-0.20590408
14	0x3e852dfd	0.2601165
15	0xbe121f16	-0.14269671
16	0x3e03cf3f	0.12872027
17	0x3ddb285d	0.10701058
18	0x3dd2048f	0.10254776
19	0x3ded321c	0.11581823
20	0xbd0f9494	-0.035053805
21	0xbdd1b628	-0.10239822
22	0x3e86a8e8	0.2630074
23	0x3e8867c3	0.26641664
24	0x3df61dd9	0.12017412
25	0x3da3cca9	0.0799802
26	0x3dc681af	0.09692704
27	0xbce980e4	-0.028503843
28	0x3d292e57	0.04130396
29	0x3c368487	0.011139995
30	0x3d4062f7	0.04696938
31	0x3afb277d	0.0019161549

encoder.graph_embed.bn.weight f4 [32]
0	0x3f78f4fa	0.97248805
1	0x3f82f9c3	1.0232471
2	0x3f80fe83	1.0077671
3	0x3f817622	1.0114176
4	0x3f79a3fd	0.9751585
5	0x3f7c2fe6	0.9851059
6	0x3f6b8401	0.91998297
7	0x3f7b1e21	0.9809285
8	0x3f74b975	0.95595485
9	0x3f888609	1.0665904
10	0x3f802969	1.0012637
11	0x3f76626e	0.9624394
12	0x3f71349d	0.94220906
13	0x3f7a963c	0.9788549
14	0x3f6e7bd7	0.93157715
15	0x3f80d053	1.0063576
16	0x3f6e7c85	0.9315875
17	0x3f81e43b	1.0147775
18	0x3f78694d	0.97035676
19	0x3f85e77f	1.0461272
20	0x3f79db8f	0.97600645
21	0x3f7d3bb0	0.989192
22	0x3f82e84c	1.0227141
23	0x3f8199b3	1.012503
24	0x3f6e4424	0.93072724
25	0x3f77bd49	0.967732
26	0x3f79b1bb	0.9753682
27	0x3f78299a	0.9693848
28	0x3f771bf1	0.9652701
29	0x3f774b50	0.9659929
30	0x3f83f729	1.0309802
31	0x3f78d822	0.9720479

encoder.graph_embed.bn.bias f4 [32]
0	0x3c0ba74f	0.008523776
1	0xbcf7a16f	-0.030228345
2	0xbc648a4b	-0.013948987
3	0xbc1aa29c	-0.009438183
4	0x3b7ffc0c	0.0039060144
5	0xbcb1598b	-0.021649143
6	0x3cbdc55b	0.023165395
7	0x3d0902b0	0.03344983
8	0xbc5b8471	-0.013398276
9	0xbda283e5	-0.07935313
10	0x3baa45e8	0.0051963218
11	0xbc1d6bb7	-0.009608201
12	0x3cfe00dc	0.03100627
13	0x3c1f97ee	0.009740813
14	0x3d0d5d88	0.034513026
15	0x3c713798	0.014722727
16	0x3c3cb7cb	0.011518429
17	0x3cbed189	0.023293274
18	0xbbd851e8	-0.006601561
19	0xbd246c62	-0.040142424
20	0x3d29b695	0.04143389
21	0xbb6a225f	-0.0035726053
22	0xbd24ff6f	-0.040282663
23	0x3cc3a28c	0.02388122
24	0xbd0ae25c	-0.03390728
25	0xbb8c166f	-0.004275135
26	0x3c3d642b	0.011559526
27	0x3d843cb0	0.06456888
28	0x3d09baac	0.03362529
29	0x3c9d3de1	0.019194545
30	0x3cbbdaa9	0.022931414
31	0xbd348171	-0.044068757

encoder.graph_embed.bn.running_mean f4 [32]
0	0x3b8da7d9	0.0043229875
1	0xbc7f1067	-0.0155678755
2	0xbca10467	-0.01965542
3	0xbc537550	-0.012906387
4	0x3d7a1889	0.061058555
5	0x3ce12d2b	0.027487358
6	0x3ce6965e	0.028147873
7	0x3c97a8ac	0.018513046
8	0x3ab1c560	0.0013562851
9	0x3b873709	0.0041264337
10	0x3cb6a191	0.022293838
11	0xbbd3d073	-0.006464058
12	0x3c89f57a	0.016840685
13	0xbd1367ca	-0.035987653
14	0xbb91a225	-0.004444378
15	0x3c8a2a6a	0.016865928
16	0x3cd4e63a	0.025988687
17	0xbc5b0d22	-0.01336983
18	0x3db981aa	0.090579346
19	0xbbbf522d	-0.0058386535
20	0x3cadccd2	0.02121583
21	0x3d07f020	0.033187985
22	0x3c2d2142	0.010567011
23	0x3bca9d13	0.0061832755
24	0x3d036891	0.032082144
25	0x3d2fee4f	0.04295188
26	0x3cd8cfc0	0.02646625
27	0xbc8fd3e9	-0.017557101
28	0x3de55943	0.11198666
29	0x3d52cc6b	0.05146448
30	0xbcb833fa	-0.022485722
31	0x3b94c0ff	0.0045396085

encoder.graph_embed.bn.running_var f4 [32]
0	0x3bfe8bdb	0.007768137
1	0x3c29df96	0.010368248
2	0x3c1c41d7	0.009537182
3	0x3bc402d6	0.0059817834
4	0x3d30b481	0.043140892
5	0x3ba73c03	0.0051035895
6	0x3c030adb	0.007998194
7	0x3b8cde9a	0.004298997
8	0x3bd1e32d	0.0064052553
9	0x3c28406e	0.0102692675
10	0x3b280999	0.0025640486
11	0x3bc48f2a	0.005998512
12	0x3bc674dc	0.006056411
13	0x3b8e871c	0.0043496024
14	0x3cc1bfb0	0.023650974
15	0x3bc6f1e0	0.006071314
16	0x3be42a87	0.0069630775
17	0x3b3c0a32	0.00286926
18	0x3ca6e72e	0.020373907
19	0x3bfe07a6	0.0077523766
20	0x3baed562	0.005335496
21	0x3ca191b9	0.019722806
22	0x3bdff390	0.006834455
23	0x3b847a6b	0.0040429137
24	0x3c51f426	0.012814557
25	0x3c33af9b	0.010967161
26	0x3c8f1cb9	0.01746975
27	0x3c1fad3d	0.009745893
28	0x3cb96de0	0.0226354
29	0x3c521909	0.012823352
30	0x3b8bd17c	0.004266916
31	0x3ba1c501	0.004936815

encoder.graph_embed.GCN_layers.0.A f4 [9, 9]
0	0x3e9a5e90	0.3015027
1	0x3f50de3a	0.8158909
2	0xbf959eb6	-1.168906
3	0x3d2d5062	0.042312987
4	0x3eadbe9d	0.3393449
5	0xbef48000	-0.47753906
6	0x3ecb2cb1	0.39682534
7	0x3e654a15	0.22391541
8	0x3f825d33	1.0184692
9	0xbf4ac1c5	-0.7920192
10	0x3fb85203	1.4400028
11	0x3f6a8db0	0.9162245
12	0xbe6d0644	-0.23146921
13	0xbe0209eb	-0.12699096
14	0xbf9f3e9e	-1.2440984
15	0xbf61bcf0	-0.8817892
16	0x3edb5893	0.42841014
17	0xbfb29148	-1.3950586
18	0xbe9e881a	-0.30963212
19	0x401ce6e3	2.4515922
20	0xbed6d9fd	-0.41963187
21	0x3ef140d7	0.4711978
22	0xbf1274c3	-0.57209414
23	0xbda60799	-0.08106918
24	0x3eb04917	0.34430763
25	0x3f0b3fd9	0.543943
26	0x3e88badf	0.2670507
27	0x3eb17a70	0.34663725
28	0xbfcb4176	-1.5879352
29	0x3df1ddfb	0.118099175
30	0x3f105062	0.56372654
31	0x3d8dcc09	0.06923682
32	0xbea28980	-0.3174553
33	0xbf3c4ecd	-0.7355774
34	0xbfbbc0a5	-1.4668165
35	0xbd5064ab	-0.050877254
36	0x3f03d0dc	0.5149057
37	0x3f2d6ea4	0.6774695
38	0x3f2fe851	0.6871386
39	0xbfc857e1	-1.5651819
40	0x3fb4f1c0	1.4136276
41	0xbfe88d6c	-1.8168159
42	0x3f1bfdff	0.6093444
43	0x3f282973	0.65688246
44	0xbee89916	-0.45429295
45	0xbe42a3d0	-0.19007802
46	0x3f1f1c14	0.6215222
47	0xbcef3910	-0.029202014
48	0x3f1d9dd9	0.6156898
49	0x3f113e1a	0.56735384
50	0xc00492c9	-2.071459
51	0xbd7b5518	-0.06136045
52	0x3db208fd	0.08693121
53	0xbeffcb63	-0.4995986
54	0xbed03347	-0.40664122
55	0xbdfe597a	-0.1241941
56	0x3f9f21a2	1.2432139
57	0x3f8f92d3	1.1216682
58	0x3e73ca9e	0.23807761
59	0x3feea880	1.8645172
60	0x3eaa7609	0.3329318
61	0xbf233291	-0.63749033
62	0x3f80bb0e	1.0057085
63	0xbf2b4d28	-0.66914606
64	0xbe5932e1	-0.21210815
65	0x3e87684d	0.26446763
66	0x3f82276b	1.016828
67	0xbfd3f5ba	-1.6559365
68	0x3f9335c1	1.1500779
69	0x3e6a5742	0.22884849
70	0x3f425254	0.7590687
71	0xbf91555f	-1.1354178
72	0x3f144c0e	0.5792855
73	0xc026cf63	-2.6064079
74	0xbf8b88f7	-1.0901173
75	0x3de239d8	0.11046189
76	0xbe32476f	-0.17410062
77	0x3f48a7ad	0.7838085
78	0x3fc7a775	1.5597979
79	0x3c9ad3bc	0.018899791
80	0xbf633fa4	-0.8876898

encoder.graph_embed.GCN_layers.0.linear.weight f4 [32, 32]
0	0xbd8f19d8	-0.06987351
1	0xbd71d7c6	-0.05904367
2	0xbd70c95f	-0.058785792
3	0x3d9a4e84	0.07534507
4	0xbe34f906	-0.1767312
5	0x3d65c4f7	0.056096043
6	0x3b9ead42	0.0048424313
7	0x3dc212b0	0.094762206
8	0x3d9607d1	0.073257096
9	0xbdca22f3	-0.09869947
10	0x3d8f339a	0.06992264
11	0x3e318662	0.17336419
12	0xbdd2a3a6	-0.1028512
13	0xbd85ef33	-0.06539764
14	0x3e26bce5	0.16282995
15	0xbde07853	-0.1096045
16	0x3dc2f6cd	0.0951973
17	0xbe0c6301	-0.13709642
18	0xbd59fae3	-0.05321778
19	0xbdba23e9	-0.090888806
20	0xbdff596f	-0.1246823
21	0x3db58af1	0.088643916
22	0xbe38e476	-0.18055901
23	0xbe2bd38c	-0.16779917
24	0xbdac48b9	-0.08412308
25	0xbdab660e	-0.08369075
26	0x3dbb60ec	0.09149346
27	0x3e138649	0.14406694
28	0xbcb5efcd	-0.022209072
29	0x3e0da8c1	0.13833906
30	0x3e20adce	0.15691301
31	0xbe497fe0	-0.19677687
32	0x3d83b2da	0.064305976
33	0xbe45e333	-0.19324951
34	0xbda6c442	-0.08142902
35	0x3d7e660a	0.06210903
36	0xbdaeb8f5	-0.085313715
37	0xbd8e38ad	-0.06944404
38	0x3c4e3c72	0.0125876535
39	0x3d17a0e1	0.03701866
40	0x3d435882	0.04769183
41	0xbccf0e4d	-0.025275374
42	0xbe06d6b6	-0.13167843
43	0x3d832b3f	0.06404733
44	0x3e4217a4	0.1895433
45	0xbda14b7a	-0.07875724
46	0xbdfb7268	-0.12277681
47	0x3e4ce8d6	0.20010695
48	0x3dfb5e86	0.12273888
49	0x3d75abcf	0.059978303
50	0x3e05d899	0.13070907
51	0xbc305c1a	-0.010764146
52	0x3e23deeb	0.16003005
53	0x3e1c3501	0.15254594
54	0x3db4bfff	0.08825683
55	0x3d7c0e1b	0.06153689
56	0xbdf4e24b	-0.119572245
57	0xbe07c99e	-0.13260505
58	0x3def6c5a	0.11690588
59	0xbe0aba0b	-0.13547532
60	0xbe141c17	-0.1446384
61	0xbe1fd87c	-0.15609926
62	0xbe0b9eb9	-0.13634767
63	0xbe0109f3	-0.12601452
64	0x3d117b27	0.035517838
65	0xbe08be2f	-0.133538
66	0x3e0ac386	0.13551149
67	0xbdb140af	-0.086549155
68	0x3d564f04	0.05232145
69	0x3e099790	0.13436723
70	0x3d97c54d	0.07410679
71	0x3cb045d8	0.02151768
72	0x3c5c0954	0.013429958
73	0x3dba9898	0.09111136
74	0x3d578a73	0.05262227
75	0xbd18160f	-0.03713041
76	0xbdb9b2f9	-0.090673395
77	0xbe2a3221	-0.16620685
78	0x3e0098a0	0.12558222
79	0x3d8138b3	0.06309643
80	0x3d6c71f5	0.057725865
81	0xbdda7596	-0.10666959
82	0xbe485bc0	-0.1956625
83	0xbddb152d	-0.10697398
84	0x3d34de45	0.044157285
85	0xbd5f6b7a	-0.054545857
86	0x3d900502	0.07032205
87	0xbe10ab01	-0.14127733
88	0xbdfe7407	-0.12424474
89	0x3df0aa24	0.11751202
90	0xbdbf23b5	-0.093329825
91	0x3e2e626d	0.17029734
92	0xbe212324	-0.15736061
93	0xbdec468c	-0.11536893
94	0x3d6ba544	0.057530656
95	0x3dc12165	0.094301976
96	0x3d345837	0.04402944
97	0xbc52a0b1	-0.012855695
98	0x3db72750	0.08943045
99	0xbdb6add5	-0.089198746
100	0xbe1ec356	-0.15504202
101	0xbdcce027	-0.10003691
102	0xbd9d0a1e	-0.07667945
103	0xbd8f738b	-0.0700446
104	0x3db2a3c6	0.087226436
105	0xbdf08f2a	-0.117460564
106	0x3dcfa12d	0.10138164
107	0x3d5727f3	0.052528333
108	0xbde1d5d7	-0.11027115
109	0x3d1ff33a	0.03905032
110	0xbd279b77	-0.040919747
111	0x3d2ec990	0.042672694
112	0xbe1c6403	-0.15272526
113	0x3d00d284	0.031450763
114	0x3d514bce	0.051097684
115	0xbd91face	-0.07127915
116	0x3e02dbd7	0.12779175
117	0xbd9a8bb2	-0.07546176
118	0x3de8a9a9	0.11360485
119	0xbc8504eb	-0.016237697
120	0xbdd7c3cd	-0.10535393
121	0x3db99401	0.09061433
122	0x3d450770	0.048102796
123	0x3d93e281	0.072209366
124	0x3c959dfb	0.018263808
125	0x3d078ce3	0.033093344
126	0x3dd6e680	0.10493183
127	0xbda1afc1	-0.078948505
128	0x3d171a77	0.036890473
129	0x3b6828a2	0.003542461
130	0xbe625556	-0.22102866
131	0x3da487bf	0.08033704
132	0xbd321146	-0.043473504
133	0xbdce9338	-0.100866735
134	0xbd8bf73e	-0.06834267
135	0xbe421b56	-0.1895574
136	0x3e2ed4ce	0.17073366
137	0x3cc8cd9a	0.024512101
138	0x3d8ea5d7	0.06965225
139	0xbe088810	-0.13333154
140	0x3dcbb453	0.099465035
141	0xbdbe2581	-0.09284497
142	0x3e2dbf6c	0.16967553
143	0x3c2a8bcf	0.0104093095
144	0x3dd41679	0.10355849
145	0x3d8dce4e	0.06924115
146	0x3d0e41c5	0.03473069
147	0x3d0d724e	0.034532838
148	0x3e29d813	0.16586332
149	0x3e4d4dff	0.20049284
150	0x3db2a998	0.08723754
151	0x3e121147	0.14264403
152	0x3e2532f5	0.1613272
153	0xbe3576fb	-0.17721169
154	0x3e2c0c54	0.16801578
155	0x3e0ec0b3	0.13940696
156	0x3d68239b	0.05667458
157	0xbd0b7391	-0.03404576
158	0xbe38a3eb	-0.1803128
159	0xbbb4db52	-0.005519309
160	0xbda7b08c	-0.081879705
161	0x3e1c6fbc	0.15276998
162	0x3d5c83ac	0.05383651
163	0xbdbde188	-0.09271532
164	0xbca38b71	-0.019963952
165	0xbd35dfcb	-0.04440288
166	0xbd687887	-0.05675557
167	0xbd94c528	-0.07264167
168	0xbc10946f	-0.008824452
169	0x3db9cc9c	0.09072229
170	0xbde8eae0	-0.11372924
171	0x3d25503b	0.040359717
172	0x3dc6a25b	0.096989356
173	0x3cd4105b	0.025886705
174	0xbd538b4c	-0.051646516
175	0x3d5dc10b	0.05413918
176	0xbd735c37	-0.059414115
177	0x3e1473ee	0.14497349
178	0x3dd6e9c3	0.10493805
179	0xbe59ded5	-0.2127641
180	0xbd07d81d	-0.033165086
181	0x3c893338	0.016748056
182	0x3c9da822	0.019245211
183	0xbd8da8a4	-0.06916931
184	0x386b563f	5.610869e-05
185	0x3da553b9	0.080726095
186	0xbdf44b6d	-0.11928449
187	0xbcb2df26	-0.021834921
188	0x3d7e992c	0.062157795
189	0x3d851ab0	0.06499231
190	0x3d3372ad	0.043810535
191	0xba9c82d0	-0.0011940841
192	0xbd937baa	-0.072013214
193	0xbca31d8b	-0.019911548
194	0x3d4888b3	0.04895849
195	0x3e25096e	0.16116878
196	0x3c5abdec	0.013350945
197	0x3d8134af	0.06308877
198	0x3d8c7def	0.068599574
199	0xbdee7e0d	-0.11645136
200	0x3da38d9f	0.079859965
201	0x3d60e753	0.054908108
202	0x3c5f9fa5	0.013648902
203	0xbd665c49	-0.056240354
204	0xbd85386f	-0.065049045
205	0x3de0f938	0.10985035
206	0xbe428f6a	-0.1900002
207	0xbdd918f5	-0.10600463
208	0xbcb41423	-0.021982258
209	0x3db86791	0.09004129
210	0xbdddae27	-0.108242325
211	0x3df1d36c	0.11807904
212	0x3e1b18d6	0.15146193
213	0xbe5fe97c	-0.21866411
214	0x3d57b575	0.052663285
215	0xbd7633a8	-0.060107857
216	0xbe2833f6	-0.16426072
217	0x3e0064d1	0.12538458
218	0xbcc234db	-0.023706844
219	0x3e0863bb	0.13319294
220	0x3ce45f3c	0.027877443
221	0xbdb9ccc1	-0.09072257
222	0x3da59478	0.08084959
223	0xbcd1ca7c	-0.025609247
224	0x3dc2b7d7	0.09507721
225	0x3cde4334	0.027131654
226	0x3dcb34d6	0.09922187
227	0xbd3399e3	-0.04384793
228	0x3dc12525	0.09430913
229	0xbe01c141	-0.12671377
230	0xbdf2a53a	-0.11847921
231	0x3c11747b	0.008877869
232	0xbdd1fe3c	-0.102535695
233	0x3de5739b	0.112036906
234	0xbcf4039a	-0.029786874
235	0x3d5e4f28	0.054274708
236	0x3e20a81c	0.15689129
237	0xbc3a1531	-0.0113575915
238	0x3e2f236d	0.17103358
239	0xbdfa7875	-0.122300066
240	0xbd5e6ea2	-0.054304726
241	0x3dcb1a01	0.09917069
242	0x3c85c9de	0.01633161
243	0xbdb85095	-0.08999745
244	0xbb9c2036	-0.004764582
245	0x3d8ebd9f	0.06969761
246	0xbe35d454	-0.17756778
247	0xbcacd832	-0.021099184
248	0xbce5f2c4	-0.028069861
249	0xbd05afdb	-0.032638412
250	0x3e451a37	0.19248281
251	0x3dd62e4d	0.1045805
252	0x3de14ae8	0.11000615
253	0x3dcefc77	0.101067476
254	0x3d2c928f	0.042131957
255	0xbe49cb51	-0.19706465

encoder.graph_embed.GCN_layers.0.linear.bias f4 [32]
0	0x39cedd68	0.00039456342
1	0x3c2ee945	0.010675733
2	0xbce67787	-0.028133167
3	0xbd83a0c6	-0.064271495
4	0xbd40de5f	-0.04708707
5	0x3c64801e	0.013946561
6	0x3c04f427	0.008114851
7	0xbca2f1af	-0.019890634
8	0xbdad03dd	-0.084480025
9	0xbc0108f7	-0.007875673
10	0x3ad2e9b3	0.0016091376
11	0x3ddb1aeb	0.106984936
12	0x3e2639fc	0.16233057
13	0xbda00d1e	-0.07815002
14	0xbde5499d	-0.11195681
15	0x3bfac696	0.007653068
16	0x3d4fe269	0.05075303
17	0xbd493302	-0.04912091
18	0x3c491872	0.012273895
19	0xbdaee9cb	-0.08540686
20	0x3d480479	0.04883239
21	0xbdb15bac	-0.08660063
22	0xbbf066d6	-0.0073364777
23	0xbdc969f0	-0.09834659
24	0x3d17fad0	0.037104428
25	0xbd3b4835	-0.04572316
26	0x3dd526f3	0.104078196
27	0xbb42c4d7	-0.0029719376
28	0x3d4e6814	0.050392225
29	0x3d81bc36	0.063347265
30	0x3d8b2663	0.06794431
31	0xbdd489e8	-0.10377866

encoder.pos_enc.pe f4 [500, 32]
0	0x00000000	0.0
1	0x3f800000	1.0
2	0x00000000	0.0
3	0x3f800000	1.0
4	0x00000000	0.0
5	0x3f800000	1.0
6	0x00000000	0.0
7	0x3f800000	1.0
8	0x00000000	0.0
9	0x3f800000	1.0
10	0x00000000	0.0
11	0x3f800000	1.0
12	0x00000000	0.0
13	0x3f800000	1.0
14	0x00000000	0.0
15	0x3f800000	1.0
16	0x00000000	0.0
17	0x3f800000	1.0
18	0x00000000	0.0
19	0x3f800000	1.0
20	0x00000000	0.0
21	0x3f800000	1.0
22	0x00000000	0.0
23	0x3f800000	1.0
24	0x00000000	0.0
25	0x3f800000	1.0
26	0x00000000	0.0
27	0x3f800000	1.0
28	0x00000000	0.0
29	0x3f800000	1.0
30	0x00000000	0.0
31	0x3f800000	1.0
32	0x3f576aa4	0.84147096
33	0x3f0a5141	0.54030234
34	0x3f087dba	0.53316844
35	0x3f58940d	0.8460091
36	0x3e9f393e	0.3109836
37	0x3f734e6b	0.9504153
38	0x3e35233a	0.17689219
39	0x3f7bf683	0.9842302
40	0x3dcc7576	0.099833414
41	0x3f7eb898	0.9950042
42	0x3d6636ae	0.05620449
43	0x3f7f9868	0.9984193
44	0x3d01815b	0.031617504
45	0x3f7fdf3c	0.99950004
46	0x3c91ab42	0.017781857
47	0x3f7ff5a3	0.99984187
48	0x3c23d657	0.009999833
49	0x3f7ffcb9	0.99995
50	0x3bb8445a	0.0056233825
51	0x3f7ffef7	0.9999842
52	0x3b4f3e1c	0.0031622713
53	0x3f7fffac	0.999995
54	0x3ae91520	0.0017782785
55	0x3f7fffe6	0.99999845
56	0x3a83126d	0.0009999998
57	0x3f7ffff8	0.9999995
58	0x3a136a13	0.0005623411
59	0x3f7ffffd	0.9999998
60	0x39a5cb61	0.00031622782
61	0x3f7fffff	0.99999994
62	0x393a7753	0.00017782794
63	0x3f800000	1.0
64	0x3f68c7b7	0.9092974
65	0xbed51133	-0.41614684
66	0x3f66f20a	0.9021307
67	0x3edce8b2	0.43146282
68	0x3f17541b	0.5911271
69	0x3f4e7bec	0.8065784
70	0x3eb247f6	0.34820527
71	0x3f6ffaa6	0.93741834
72	0x3e4b6ff8	0.19866931
73	0x3f7ae5a5	0.9800666
74	0x3de5d986	0.1122313
75	0x3f7e61f3	0.9936821
76	0x3d8170c8	0.063203394
77	0x3f7f7cf9	0.9980007
78	0x3d11a55c	0.03555809
79	0x3f7fd68e	0.9993676
80	0x3ca3d43e	0.019998666
81	0x3f7ff2e5	0.9998
82	0x3c38439b	0.011246587
83	0x3f7ffbdb	0.99993676
84	0x3bcf3dd8	0.006324511
85	0x3f7ffeb1	0.99998003
86	0x3b691508	0.0035565514
87	0x3f7fff96	0.9999937
88	0x3b031268	0.0019999985
89	0x3f7fffdf	0.99999803
90	0x3a936a12	0.0011246821
91	0x3f7ffff5	0.99999934
92	0x3a25cb60	0.0006324556
93	0x3f7ffffd	0.9999998
94	0x39ba7753	0.00035565588
95	0x3f7fffff	0.99999994
96	0x3e1081c3	0.14112
97	0xbf7d7026	-0.9899925
98	0x3f7e45d7	0.9932532
99	0xbded7fab	-0.11596616
100	0x3f5009c2	0.8126489
101	0x3f152f58	0.58275366
102	0x3f022f6c	0.5085361
103	0x3f5c6d29	0.86104065
104	0x3e974e6c	0.2955202
105	0x3f7490ef	0.9553365
106	0x3e2beed7	0.16790329
107	0x3f7c5d9e	0.9858035
108	0x3dc1ffc0	0.094726086
109	0x3f7ed94f	0.99550337
110	0x3d5a694e	0.053323083
111	0x3f7fa2c3	0.9985773
112	0x3cf5b91f	0.0299955
113	0x3f7fe283	0.99955004
114	0x3c8a31c6	0.016869437
115	0x3f7ff6ad	0.9998577
116	0x3c1b6e0d	0.009486687
117	0x3f7ffd0d	0.999955
118	0x3baecfa8	0.005334813
119	0x3f7fff11	0.99998575
120	0x3b449b92	0.0029999954
121	0x3f7fffb5	0.9999955
122	0x3add1f17	0.0016870227
123	0x3f7fffe8	0.99999857
124	0x3a78b110	0.00094868336
125	0x3f7ffff9	0.9999996
126	0x3a0bd97e	0.0005334838
127	0x3f7ffffe	0.9999999
128	0xbf41bdcf	-0.7568025
129	0xbf275530	-0.6536436
130	0x3f4749ec	0.7784717
131	0xbf20af9e	-0.6276797
132	0x3f741dde	0.95358074
133	0x3e9a2eb1	0.30113748
134	0x3f271fbc	0.652828
135	0x3f41ebed	0.7575062
136	0x3ec761d7	0.38941833
137	0x3f6bcaa7	0.921061
138	0x3e6465c5	0.22304447
139	0x3f798d09	0.9748083
140	0x3e012e88	0.12615407
141	0x3f7df469	0.99201065
142	0x3d918dc8	0.07107121
143	0x3f7f5a46	0.9974712
144	0x3d23cbdb	0.039989334
145	0x3f7fcb94	0.9992001
146	0x3cb840a0	0.022491753
147	0x3f7fef6c	0.99974704
148	0x3c4f3cc9	0.01264877
149	0x3f7ffac2	0.99992
150	0x3be914a7	0.0071130577
151	0x3f7ffe58	0.9999747
152	0x3b831257	0.003999989
153	0x3f7fff7a	0.999992
154	0x3b136a0c	0.0022493629
155	0x3f7fffd6	0.9999975
156	0x3aa5cb5e	0.0012649109
157	0x3f7ffff3	0.9999992
158	0x3a3a7752	0.0007113117
159	0x3f7ffffc	0.99999976
160	0xbf757c10	-0.9589243
161	0x3e913c2c	0.2836622
162	0x3ea5dad8	0.32393527
163	0xbf723240	-0.94607925
164	0x3f7ffc7f	0.99994653
165	0xbc2972e9	-0.010342338
166	0x3f46caab	0.77652997
167	0x3f214cf1	0.6300803
168	0x3ef57743	0.47942552
169	0x3f60a940	0.87758255
170	0x3e8e11ed	0.2774805
171	0x3f75f27c	0.96073127
172	0x3e213c1d	0.15745588
173	0x3f7cce81	0.987526
174	0x3db5db21	0.08879686
175	0x3f7efd1e	0.99604976
176	0x3d4cb6f4	0.049979165
177	0x3f7fae19	0.99875027
178	0x3ce64dfb	0.028113356
179	0x3f7fe619	0.99960476
180	0x3c81857e	0.015810724
181	0x3f7ff7cf	0.999875
182	0x3c11acbb	0.00889128
183	0x3f7ffd69	0.9999605
184	0x3ba3d6dd	0.004999979
185	0x3f7fff2e	0.9999875
186	0x3b384489	0.0028117022
187	0x3f7fffbe	0.99999607
188	0x3acf3e33	0.0015811383
189	0x3f7fffeb	0.99999875
190	0x3a691526	0.0008891396
191	0x3f7ffff9	0.9999996
192	0xbe8f0f8c	-0.2794155
193	0x3f75cdb8	0.96017027
194	0xbe6be576	-0.23036751
195	0xbf791d53	-0.9731037
196	0x3f72784e	0.9471482
197	0xbea43f6d	-0.3207964
198	0x3f603088	0.8757405
199	0x3ef72f35	0.48278204
200	0x3f108c68	0.5646424
201	0x3f534932	0.8253356
202	0x3ea97dfc	0.3310393
203	0x3f7190e2	0.943617
204	0x3e41206e	0.18860027
205	0x3f7b67e3	0.98205394
206	0x3dda19c2	0.10649444
207	0x3f7e8b51	0.9943133
208	0x3d759cd1	0.059964005
209	0x3f7f8a12	0.99820054
210	0x3d0a2cbe	0.033734076
211	0x3f7fdab3	0.99943084
212	0x3c9b6c43	0.018972522
213	0x3f7ff434	0.99982
214	0x3c2ecf05	0.0106694745
215	0x3f7ffc45	0.9999431
216	0x3bc49b58	0.0059999637
217	0x3f7ffed2	0.999982
218	0x3b5d1f03	0.0033740408
219	0x3f7fffa1	0.99999434
220	0x3af8b108	0.0018973658
221	0x3f7fffe2	0.9999982
222	0x3a8bd97c	0.0010669674
223	0x3f7ffff7	0.99999946
224	0x3f283046	0.6569866
225	0x3f40ffbd	0.75390226
226	0xbf36b670	-0.7137213
227	0xbf334f5e	-0.7004298
228	0x3f4ce86e	0.8004216
229	0xbf1974bc	-0.5994375
230	0x3f728444	0.9473307
231	0x3ea3f8ba	0.320257
232	0x3f24eb72	0.6442176
233	0x3f43ccb3	0.7648422
234	0x3ec460de	0.38355154
235	0x3f6c6bc6	0.9235195
236	0x3e60d350	0.2195561
237	0x3f79c0ea	0.9755999
238	0x3dfe46ba	0.12415834
239	0x3f7e04e9	0.9922624
240	0x3d8f3e32	0.06994285
241	0x3f7f5f81	0.997551
242	0x3d21315e	0.03935372
243	0x3f7fcd3b	0.9992253
244	0x3cb552a2	0.022134129
245	0x3f7feff2	0.999755
246	0x3c4bf12a	0.012447635
247	0x3f7ffaec	0.9999225
248	0x3be55fc5	0.006999942
249	0x3f7ffe65	0.9999755
250	0x3b80fcbc	0.0039363783
251	0x3f7fff7e	0.99999225
252	0x3b1111ed	0.0022135929
253	0x3f7fffd7	0.99999756
254	0x3aa32866	0.0012447953
255	0x3f7ffff3	0.9999992

encoder.transformer.in_proj_weight f4 [96, 32]
0	0xbe4d32f8	-0.20038974
1	0x3d11f9e8	0.03563872
2	0x3de879f9	0.113513894
3	0x3e479eee	0.1949422
4	0xbd5e7417	-0.05430993
5	0xbdf96668	-0.121777356
6	0xbde947e0	-0.11390662
7	0x3e3bb9e5	0.18332632
8	0x3d541e7d	0.05178689
9	0xbcd329cf	-0.025776772
10	0x3dcfe47f	0.10151004
11	0xbd4f6aed	-0.05063908
12	0xbcd0697a	-0.02544092
13	0xbe0417bd	-0.1289968
14	0xbe4178db	-0.18893759
15	0xbe2932d6	-0.16523299
16	0x3e6afab6	0.22947201
17	0xbe085dec	-0.13317078
18	0xb8db2eaf	-0.00010451429
19	0xbe816764	-0.25274193
20	0xbd45b96b	-0.04827253
21	0xbe51e732	-0.2049835
22	0x3c627411	0.013821618
23	0x3e1cba29	0.1530539
24	0xbe255679	-0.16146268
25	0x3dd52a63	0.10408475
26	0xbdbbd80a	-0.091720656
27	0xbdaa58dc	-0.0831773
28	0xbdbbf08b	-0.09176739
29	0xbe7eb7b7	-0.24874769
30	0x3e64e26e	0.22352001
31	0xbe085bfe	-0.13316342
32	0xbe1c64e0	-0.15272856
33	0x3d453bbc	0.04815267
34	0x3dbd1b01	0.09233666
35	0x3d8cdf95	0.068785824
36	0x3dafa968	0.085772336
37	0x3e15d429	0.14631714
38	0x3d4a268f	0.04935318
39	0xbd671597	-0.056417074
40	0xbe321cf3	-0.17393856
41	0xbd5b6013	-0.05355842
42	0xbe4623f3	-0.19349651
43	0xbe14f906	-0.1454812
44	0x3dc5d809	0.09660346
45	0x3e3d4005	0.18481453
46	0xbd92f43c	-0.0717549
47	0xbe2c551d	-0.16829343
48	0xbca24a64	-0.019810863
49	0x3e0bcd6f	0.13652585
50	0xbc11018b	-0.0088504655
51	0xbe732d93	-0.23747854
52	0x3db1a86f	0.08674704
53	0x3be1aa73	0.006886774
54	0xbdf50b0e	-0.11964999
55	0xbdbfe422	-0.09369685
56	0x3e6d139c	0.23152012
57	0x3d5a7f97	0.053344335
58	0xbe06d382	-0.13166621
59	0x3e32b500	0.17451859
60	0xbe00d8c2	-0.12582687
61	0xbc89dcff	-0.016829012
62	0x3ddd7da4	0.1081498
63	0x3e1b0c3c	0.15141386
64	0xbe030e55	-0.12798436
65	0x3c5aae41	0.013347209
66	0x3e3231a4	0.17401749
67	0x3e21c32a	0.15797105
68	0x3e20e528	0.15712416
69	0xbdb1bf94	-0.08679119
70	0xbe62835a	-0.22120419
71	0x3e00b323	0.12568335
72	0xbe4acf10	-0.1980555
73	0xbe07adaf	-0.13249849
74	0x3e1919c0	0.14951229
75	0xbd8f8168	-0.07007104
76	0x3e4d447f	0.2004566
77	0x3e4f1cb0	0.20225787
78	0x3e07f78e	0.13278028
79	0xbddc71af	-0.10763871
80	0x3d9ed915	0.07756249
81	0x3d031346	0.032000802
82	0xbd8d38fa	-0.06895633
83	0x3e5a1914	0.21298629
84	0x3ceed8c6	0.0291561
85	0xbdf4ee91	-0.119595654
86	0xbe55163a	-0.2080926
87	0xbe1ce5ad	-0.1532199
88	0xbb94e02a	-0.004543324
89	0xbdd0f896	-0.10203664
90	0x3e445b65	0.19175489
91	0x3e60b15c	0.21942657
92	0xbd95dfc7	-0.07318073
93	0xbdd29148	-0.102816164
94	0xbe2a3437	-0.16621481
95	0xbe3de8bb	-0.18545811
96	0x3e5796d0	0.21053624
97	0x3c00ca9f	0.007860809
98	0x3de59c2f	0.1121143
99	0xbdcdcd6c	-0.10048947
100	0xbe0e81e2	-0.13916734
101	0x3e8ea871	0.27862886
102	0x3b94ec07	0.004544738
103	0x3c951de2	0.018202726
104	0xbe0fc581	-0.14040186
105	0xbc878942	-0.016544942
106	0x3e647b89	0.2231275
107	0xbc2624bc	-0.010140594
108	0xbc98f524	-0.01867158
109	0x3dc8d1ac	0.09805617
110	0x3e2cf10e	0.1688883
111	0x3e2ef0b5	0.1708401
112	0x3dd5436f	0.104132526
113	0x3e2deb59	0.1698431
114	0xbe28c6b6	-0.16482052
115	0x3c6d72ba	0.014492685
116	0x3d972830	0.07380712
117	0x3db76431	0.08954657
118	0x3d8f173b	0.06986853
119	0x3e2db4b8	0.1696347
120	0xbe48240e	-0.19545004
121	0xbc4a0fab	-0.012332837
122	0xbd69f8f7	-0.057122197
123	0x3e522a41	0.20523931
124	0xbe86a968	-0.26301122
125	0x3d24265f	0.040075656
126	0xbd8f0fed	-0.069854595
127	0xbdf02aa7	-0.11726885
128	0xbe59ad15	-0.21257432
129	0xbd06c106	-0.032898925
130	0xbdf3dfaf	-0.11907899
131	0xbd90ae9f	-0.07064556
132	0xbdacf9b3	-0.08446064
133	0x3ca82bc3	0.02052868
134	0x3debf1df	0.115207426
135	0x3df31082	0.11868383
136	0x3e4839bc	0.19553274
137	0xbd8a926a	-0.067662075
138	0x3d5b72c6	0.053576253
139	0xbd0c63ed	-0.034274984
140	0x3d8baaec	0.0681971
141	0x3e6515be	0.22371575
142	0xbe3e03c4	-0.18556124
143	0x3d8f27e3	0.0699003
144	0x3e25a04c	0.1617443
145	0xbdc8c8b2	-0.098039046
146	0x3d65b16f	0.056077417
147	0xbdb39791	-0.087691434
148	0x3e05e423	0.13075309
149	0xbdca7954	-0.09886423
150	0xbe208264	-0.1567474
151	0xbdd30181	-0.10303021
152	0xbe1ad428	-0.15119994
153	0xbc4c23c3	-0.012459698
154	0xbdb22e44	-0.08700231
155	0x3e5305e6	0.20607719
156	0xbd91bdb9	-0.07116265
157	0xbc8d2150	-0.017227799
158	0x3e050a95	0.12992318
159	0xbd907e7b	-0.07055374
160	0x3e3d5b7f	0.18491934
161	0xbdb4ca79	-0.08827681
162	0x3dd7e1ed	0.10541139
163	0xbe5bca01	-0.21463777
164	0xbba190e0	-0.0049306005
165	0x3e444c9b	0.19169848
166	0x3d94822b	0.0725139
167	0xbe14fa7a	-0.14548674
168	0xbdf96e31	-0.121792205
169	0xbcb61b5e	-0.022229847
170	0x3e13e073	0.1444109
171	0xbe491539	-0.19637002
172	0x3a019adc	0.00049440353
173	0xbd0ffdcd	-0.035154153
174	0xbd5b3237	-0.053514685
175	0xbe040913	-0.12894087
176	0x3e0311e8	0.127998
177	0xbe63e057	-0.22253548
178	0xbe71f1c9	-0.2362739
179	0x3e8104cf	0.2519898
180	0xbe144d4b	-0.1448261
181	0xbe0572d9	-0.13032092
182	0xbd2d1bc7	-0.04226282
183	0xbdde2f42	-0.108488575
184	0xbe1f2e74	-0.15545064
185	0x3e3aeff5	0.18255599
186	0x3e183fdb	0.14868109
187	0x3e35f44d	0.17768975
188	0xbe6d5bf3	-0.23179607
189	0x3e09b903	0.13449483
190	0xbe35292d	-0.17691489
191	0xbe320b0c	-0.17387027
192	0x3e15ad29	0.14616837
193	0xbdd35f33	-0.10320892
194	0x3d1f8292	0.03894288
195	0x3de75450	0.11295378
196	0x3cbef8a0	0.023311913
197	0x3e342b33	0.17594604
198	0xbe0a950d	-0.13533421
199	0x3db14a67	0.08656769
200	0x3ca8341f	0.020532666
201	0xbe240b76	-0.16019997
202	0x3d63e4c2	0.055638082
203	0xbe3c8f68	-0.1841408
204	0x3e14353a	0.1447343
205	0x3e416ca6	0.18889102
206	0xbdaa3c87	-0.08312326
207	0x3d6845b5	0.056707103
208	0x3e63a9e6	0.2223278
209	0xbe27bcfd	-0.16380687
210	0xbdfe3031	-0.124115355
211	0x3e168c91	0.1470206
212	0x3d94582b	0.07243379
213	0xbddfe0ac	-0.10931525
214	0xbe17cfa8	-0.14825308
215	0xbddc7b42	-0.10765697
216	0xbcc64570	-0.024203032
217	0x3e2b6bc5	0.1674033
218	0xbc5d6c6f	-0.013514622
219	0xbe3b2b55	-0.18278249
220	0x3e2f24fd	0.17103954
221	0x3c6353bc	0.013874944
222	0x3e158ce1	0.14604522
223	0x3e2db93b	0.16965191
224	0x3de168c6	0.11006312
225	0xbe072acd	-0.13199921
226	0x3e72b4cf	0.23701786
227	0xbcdc969a	-0.026927281
228	0x3c22ab3f	0.009928524
229	0xbe5e650c	-0.21718234
230	0x3d87fbf6	0.066398546
231	0xbd68d77b	-0.056846123
232	0x3e2f90ae	0.17145035
233	0x3e2f1678	0.17098415
234	0xbe26b218	-0.16278875
235	0xbd40d5c6	-0.04707887
236	0x3e0ab868	0.13546908
237	0x3e36b966	0.17844161
238	0xbe2e0034	-0.16992265
239	0xbe3e05fe	-0.18556973
240	0x3d78fb9f	0.06078684
241	0xbe780ab6	-0.24222836
242	0xbe019f2a	-0.12658373
243	0xbe2ee991	-0.17081286
244	0x3d5d0448	0.05395916
245	0xbe551b8b	-0.20811288
246	0xbd8c0115	-0.06836144
247	0xbe54474a	-0.2073032
248	0x3d9e3ba4	0.07726219
249	0xbc62545a	-0.013814056
250	0x3dd3a72c	0.1033462
251	0xbc916844	-0.017749913
252	0x3c3ebffa	0.0116424505
253	0xbe3fc55c	-0.1872763
254	0x3e19718e	0.14984724
255	0x3de1206a	0.109925106

encoder.transformer.in_proj_bias f4 [96]
0	0xbd10d67d	-0.035360802
1	0xbcb3f740	-0.021968484
2	0x3c455a27	0.01204542
3	0x3d8156bc	0.063153714
4	0x385d40b7	5.2750776e-05
5	0x3d12ce8c	0.03584151
6	0xbc1fd00e	-0.009754194
7	0xbd42d827	-0.04756942
8	0xbcf85e57	-0.030318422
9	0xbd444177	-0.047913995
10	0xbca83966	-0.020535182
11	0x3d36bbad	0.044612575
12	0x3c0eddaf	0.008719846
13	0x3d74ac27	0.05973449
14	0x3c9a6ce0	0.018850744
15	0x3cf08140	0.029358506
16	0xbc04ee66	-0.008113479
17	0xbd29a72e	-0.0414192
18	0xbc908ea1	-0.017646136
19	0x3d1dbcd7	0.03851017
20	0x3ce70bf1	0.028203936
21	0xbcac9e1b	-0.021071484
22	0x3d1334fc	0.0359392
23	0x3c97803c	0.018493764
24	0x3d46ed5d	0.04856621
25	0x3d2a61c7	0.041597154
26	0xbc67c2b9	-0.014145547
27	0x3b2096ce	0.002450395
28	0x3ce08521	0.02740723
29	0xbd3cfcbd	-0.046139468
30	0x3d1a1fde	0.037628047
31	0x3b61f966	0.0034480928
32	0x3424c2ac	1.5344511e-07
33	0x31f625c8	7.1638375e-09
34	0xb424d766	-1.5352052e-07
35	0xb40670ad	-1.2520714e-07
36	0xb47e24cb	-2.3668979e-07
37	0xb2e8b235	-2.7089394e-08
38	0x32e2804d	2.6368207e-08
39	0x3497f722	2.8305755e-07
40	0x33d4dbbc	9.911989e-08
41	0x340d9b7f	1.3188217e-07
42	0x344d37c1	1.9112396e-07
43	0xb46cc8fe	-2.2052333e-07
44	0x348cba0b	2.6212396e-07
45	0xb3b90359	-8.615343e-08
46	0x3373d9ab	5.6775814e-08
47	0x32fe1a1b	2.9581363e-08
48	0xb390af8e	-6.737456e-08
49	0x3415d041	1.3952469e-07
50	0xb387f09e	-6.3301954e-08
51	0x34250238	1.536763e-07
52	0xb4c701b6	-3.7067883e-07
53	0xb40229be	-1.2122379e-07
54	0x3321a01b	3.763135e-08
55	0x321b189d	9.027784e-09
56	0x34ae18c8	3.2428056e-07
57	0xb4044ff3	-1.2322543e-07
58	0x339c4c25	7.278167e-08
59	0x33ba0fe7	8.6641926e-08
60	0xb412196c	-1.3606558e-07
61	0x33924447	6.8110744e-08
62	0xb4a3b38c	-3.0491753e-07
63	0x32417a8c	1.12619425e-08
64	0xbc4b1991	-0.012396232
65	0xbbeaad7b	-0.0071617938
66	0xbc7b8f4d	-0.01535399
67	0xbceb8c8d	-0.028753543
68	0xbc818591	-0.01581076
69	0xbce778cb	-0.02825584
70	0xbccd7227	-0.025078846
71	0x3cb20d71	0.021734925
72	0xbc22932a	-0.009922782
73	0xbbd7ebae	-0.0065893745
74	0x3c75e34a	0.015007803
75	0x3c6e80a2	0.014557036
76	0xbc2f4f64	-0.010700081
77	0x3d1e56d8	0.03865704
78	0xbd441ce1	-0.047879104
79	0x3c164866	0.009172535
80	0xbc56dc13	-0.013113993
81	0xbb3b4892	-0.002857719
82	0x3d68b68a	0.056814708
83	0xbc130665	-0.008973693
84	0x3d2449c0	0.040109396
85	0xbd22c817	-0.0397416
86	0xbb2fa3ca	-0.0026800507
87	0x3c05ec0f	0.008173957
88	0xbcf2a22d	-0.029618347
89	0x3c53e371	0.012932644
90	0xbcfe4def	-0.031043021
91	0x3cc53fa0	0.02407819
92	0xbc95f245	-0.018304
93	0xbc4b520d	-0.012409699
94	0xbc8926a5	-0.01674206
95	0xbc87d494	-0.016580857

encoder.transformer.out_proj.weight f4 [32, 32]
0	0xbda31734	-0.0796341
1	0xbc9ee00f	-0.019393949
2	0xbcb8d249	-0.02256121
3	0xbe06f4c4	-0.13179308
4	0x3e4c381a	0.19943276
5	0x3e1c2cb0	0.15251422
6	0xbb337145	-0.0027380746
7	0xbe305c95	-0.17222817
8	0xbcf107c3	-0.029422646
9	0xbd3ba00b	-0.045806926
10	0xbc498221	-0.012299092
11	0x3e3bd560	0.18343115
12	0xbdb01493	-0.08597674
13	0xbe0a9b39	-0.13535775
14	0x3db22edc	0.08700344
15	0x3d154b92	0.036449023
16	0x3d6abbfb	0.05730818
17	0xbaa0c397	-0.0012265322
18	0x3e06bedb	0.13158743
19	0xbdc223f8	-0.09479517
20	0xbe06fd3e	-0.13182542
21	0xbd14b577	-0.03630587
22	0x3dd0c256	0.10193317
23	0x3e39d25b	0.1814665
24	0xbe2617a1	-0.16219951
25	0xbe1aded0	-0.15124059
26	0x3d856285	0.06512932
27	0x3e0eb8fa	0.1393775
28	0xbd7ddfe0	-0.061981082
29	0x3ddfb133	0.1092247
30	0x3e3a28a2	0.18179563
31	0xbe1e901b	-0.1548466
32	0x3d203968	0.039117247
33	0xbe22aee7	-0.15887032
34	0x3e0f3cba	0.13988009
35	0x3ce4b3aa	0.027917702
36	0x3c5bd2bb	0.013416941
37	0x3e2183eb	0.15772979
38	0x399977bd	0.00029271646
39	0x3e06212f	0.13098596
40	0xbd1b4bb8	-0.037914008
41	0x3d990fe6	0.074737355
42	0x3d6f61c7	0.058442857
43	0xbe0617e9	-0.13095059
44	0xbd477b32	-0.048701473
45	0xbdb7fb4b	-0.08983477
46	0xbd373ff5	-0.04473873
47	0xbce12866	-0.027485084
48	0x3ddbd69c	0.10734293
49	0xbdbb3a9b	-0.091420375
50	0xbd04ffc1	-0.03247047
51	0xbd9c425c	-0.076298445
52	0xbd9f3fe9	-0.07775862
53	0x3d345f17	0.044035997
54	0xbb914a87	-0.004433933
55	0x3d7cd562	0.061726935
56	0x3dadc93e	0.084856495
57	0xbe58a367	-0.21156083
58	0xbdfb8185	-0.12280563
59	0x3c85c61e	0.016329821
60	0x3e3f991b	0.18710749
61	0xbe2abdce	-0.16673967
62	0xbe027512	-0.12739971
63	0xbe1f42dc	-0.15552849
64	0xbc000473	-0.007813561
65	0xbdcfd7fb	-0.10148617
66	0xbd51e3fa	-0.051242806
67	0x3bc20ae0	0.0059217066
68	0x3dad044d	0.08448086
69	0x3d35140f	0.044208582
70	0xbd65ba33	-0.056085777
71	0xbe0be5e6	-0.13661918
72	0xbc00bedb	-0.0078580035
73	0x3e00c60e	0.12575552
74	0x3b8b4603	0.0042502894
75	0xbb4bdac2	-0.0031105732
76	0xbdb7349a	-0.0894558
77	0xbe0a0666	-0.13479003
78	0x3dd188d1	0.10231174
79	0x3dbbb3f2	0.09165181
80	0xbd1bad44	-0.038007036
81	0xbd2c1197	-0.042008962
82	0x3cfb5c23	0.030683583
83	0x3dc259cc	0.09489784
84	0x3cb245fd	0.021761889
85	0x3c903044	0.01760114
86	0x3e31143c	0.17292875
87	0xbd5e4e70	-0.054274023
88	0x3d9674a4	0.07346466
89	0x3d340e1f	0.04395878
90	0x3d72a626	0.059240483
91	0xbe018c52	-0.12651184
92	0xbd8d883e	-0.06910752
93	0xbc835cce	-0.016035464
94	0xbdc09e81	-0.09405232
95	0xbdbe2bdf	-0.092857115
96	0x3d8e9c82	0.06963445
97	0x3d78d996	0.06075438
98	0xbe004747	-0.1252719
99	0x3dea0ed3	0.11428609
100	0x3dc85ce6	0.09783344
101	0x3d359234	0.044328883
102	0x3b285fa9	0.0025691784
103	0xbd07464a	-0.033026017
104	0x3dd9b77a	0.106306985
105	0xbe51661f	-0.20449112
106	0x3d4fb774	0.050712064
107	0xbe197fcb	-0.14990155
108	0x3dc9e239	0.09857602
109	0x3d96f022	0.073700204
110	0x3e0b530a	0.13605896
111	0xbe2f9e6a	-0.17150274
112	0xbe1e2799	-0.15444793
113	0xbd6c9aeb	-0.05776493
114	0x3e133108	0.14374173
115	0xbdf42599	-0.11921234
116	0xbccc9c75	-0.024976948
117	0x3888b889	6.519358e-05
118	0x3d322e0e	0.043500952
119	0xbbc187dd	-0.0059060887
120	0xbd85818a	-0.06518848
121	0x3d081281	0.03322077
122	0x3dde3187	0.1084929
123	0x3d1987d6	0.03748306
124	0x3e4bd3d4	0.19905025
125	0x3d4e8aad	0.05042522
126	0xbda42f74	-0.080168635
127	0xbe1ee0f4	-0.155155
128	0x3d13d860	0.036095023
129	0x3df34e75	0.11880199
130	0x3dc3aeff	0.09554862
131	0xbd3c4b43	-0.045970213
132	0xbddb0abf	-0.10695409
133	0xbde6519b	-0.11246034
134	0x3db12123	0.086488985
135	0x3db03d12	0.08605398
136	0xbe1c3897	-0.15255962
137	0x3df5a4f8	0.11994356
138	0xbbb92647	-0.005650315
139	0xbe07420b	-0.13208787
140	0x3e3b7321	0.18305637
141	0x3d4bf41a	0.04979334
142	0x3d3bcf7c	0.04585217
143	0x3d472800	0.04862213
144	0xbdf75a31	-0.120777495
145	0x3d318e7e	0.04334878
146	0x3ddec8c6	0.10878138
147	0xbd8bc6a0	-0.06824994
148	0xbe2e594f	-0.17026256
149	0x3cf225c9	0.029559033
150	0xbcda027a	-0.026612509
151	0x3d5dfdb8	0.054197043
152	0xbdeb8324	-0.114996225
153	0xbdfe1896	-0.12407033
154	0x3e19c09a	0.15014878
155	0xbd6aea45	-0.057352323
156	0x3dadb036	0.08480875
157	0xbdf8e48d	-0.121529676
158	0xbd9fc463	-0.0780113
159	0xbe27cb42	-0.1638613
160	0x3dd234db	0.10263988
161	0xbe20ddc8	-0.15709603
162	0xbde3dad7	-0.11125725
163	0xbd3c9bc4	-0.046046987
164	0x3e02a61b	0.12758677
165	0xbd860614	-0.06544128
166	0xbdc913ff	-0.09818267
167	0xbe2014d3	-0.15632944
168	0xbd9c0af3	-0.07619276
169	0xbc339d02	-0.010962727
170	0x3dc86ab1	0.09785975
171	0xbd8725e0	-0.06599021
172	0x3d3f5325	0.046710152
173	0xbdc7d774	-0.09757891
174	0x3cf09cee	0.029371705
175	0xbcb96820	-0.022632658
176	0xbdc752a3	-0.097325586
177	0x3d110a75	0.035410363
178	0xbe484fdc	-0.19561714
179	0x3e123ae0	0.14280272
180	0xbd8472f0	-0.06467235
181	0xbd9f8472	-0.07788934
182	0x3d3c014e	0.04589968
183	0x3e141c51	0.14463927
184	0x3d01fe58	0.0317367
185	0x3dde93c1	0.108680256
186	0xbd5f340d	-0.054493
187	0x3d9efa10	0.077625394
188	0xbe05a58d	-0.13051434
189	0x3dc9d9dd	0.09856007
190	0x3e097d73	0.13426761
191	0x3d45ead8	0.048319668
192	0xbe124f80	-0.1428814
193	0xbd6f4e65	-0.058424372
194	0xbbc05958	-0.0058700256
195	0x3d3a4c54	0.04548295
196	0x3d4ef8a2	0.050530083
197	0x3e1f6880	0.15567207
198	0x3d802080	0.06256199
199	0x3c33a229	0.010963955
200	0xbd91d125	-0.07119969
201	0x3d92ddde	0.07171224
202	0xbdc26e02	-0.094936386
203	0x3e071b49	0.13194002
204	0xbdf55af4	-0.119802386
205	0xbdcf87f6	-0.10133354
206	0xbd86bd63	-0.065790914
207	0x3df645bc	0.120250195
208	0xbe2e7d14	-0.17039901
209	0xbdfc0dc4	-0.12307313
210	0xbd126d30	-0.03574866
211	0xbe30c494	-0.17262489
212	0xbe19e7a5	-0.15029772
213	0xbd10df3e	-0.03536915
214	0xbe605657	-0.21907936
215	0xbc2e13b9	-0.010624819
216	0xbde66702	-0.11250116
217	0x3c2c4f46	0.010516947
218	0xbc456f2f	-0.012050434
219	0x3dd163a6	0.102240846
220	0x3d060938	0.032723635
221	0xbe04ef14	-0.12981826
222	0xbe55bb02	-0.20872119
223	0xbdda98e0	-0.1067369
224	0xbe1ffa4f	-0.15622829
225	0xbdccde8b	-0.10003384
226	0xbd24c847	-0.04023006
227	0xbd15d060	-0.036575675
228	0x3dd8524e	0.105625734
229	0xbdfefaf6	-0.12450211
230	0xbe0e03cb	-0.13868634
231	0x3d356395	0.044284422
232	0x3d3f1ff9	0.04666135
233	0xbbd788b4	-0.0065775756
234	0x3da3c6ef	0.07996928
235	0xbd383f2c	-0.04498212
236	0xbe2ef47a	-0.17085448
237	0x3dc10eb6	0.09426634
238	0xbe40775b	-0.1879553
239	0x3e256dfc	0.16155237
240	0xbd8f4eef	-0.06997477
241	0x3e0147a2	0.12624982
242	0x3deddef7	0.11614793
243	0xbe8117f4	-0.25213587
244	0xbc8f024b	-0.017457148
245	0xbdd9865f	-0.106213324
246	0xbe1d74c3	-0.15376572
247	0x3b258a6f	0.0025259515
248	0xbe103f1f	-0.14086579
249	0x3dde1778	0.1084432
250	0xbdafc54f	-0.085825555
251	0x3db5a290	0.08868897
252	0xbdba908e	-0.09109603
253	0xbe00b2ab	-0.12568156
254	0xbd9350f6	-0.071931764
255	0x3d9e77a8	0.07737666

encoder.transformer.out_proj.bias f4 [32]
0	0xbbaf360f	-0.0053470205
1	0xbcec3291	-0.028832706
2	0xbc1a1f6b	-0.009406905
3	0x3c6d3039	0.014476829
4	0x39a9b225	0.0003236692
5	0xbcac4ace	-0.021031763
6	0x3cda6cd6	0.026663225
7	0x3c8ab2f1	0.016931029
8	0xbc94ff97	-0.018188281
9	0xbd68b202	-0.056810386
10	0xbb8d79f4	-0.0043175165
11	0xbb9a610c	-0.004711276
12	0x3ca17bb6	0.01971231
13	0xbc8f7df1	-0.017516108
14	0x3ca021f6	0.019547444
15	0xbb48abe6	-0.0030620038
16	0xbcb0a8d6	-0.021564882
17	0x3c35e22e	0.011101289
18	0xbb0f3945	-0.0021854204
19	0xbcb6b7c6	-0.022304427
20	0x3d2a92c1	0.04164386
21	0xbbf5b019	-0.007497799
22	0xbc703469	-0.014660933
23	0x3c9b855c	0.01898449
24	0xbcaa0cd6	-0.020758074
25	0xbbae059e	-0.005310728
26	0x3ce67679	0.028132664
27	0x3d2cfb44	0.042231813
28	0x3d0bb041	0.034103636
29	0x3c0d2c15	0.008616467
30	0x3d21041b	0.039310556
31	0xbd4ecff4	-0.05049129

encoder.ln1.weight f4 [32]
0	0x3f7abd47	0.97945064
1	0x3f851cca	1.0399411
2	0x3f83328a	1.0249798
3	0x3f80cd9a	1.0062745
4	0x3f7f0ba8	0.9962716
5	0x3f7451f9	0.9543758
6	0x3f7db1bc	0.99099326
7	0x3f824ced	1.0179726
8	0x3f834060	1.0254021
9	0x3f8b5ca7	1.088765
10	0x3f7d4243	0.9892923
11	0x3f7c1f3e	0.9848517
12	0x3f7a367d	0.9773939
13	0x3f7ef242	0.99588406
14	0x3f72d209	0.9485174
15	0x3f82c56b	1.0216497
16	0x3f6f8578	0.9356303
17	0x3f8475b8	1.0348425
18	0x3f79ca71	0.97574526
19	0x3f7ea347	0.9946789
20	0x3f780efa	0.9689785
21	0x3f7d95f6	0.9905695
22	0x3f8371b5	1.0269076
23	0x3f83aa43	1.0286335
24	0x3f7d0c6d	0.98847085
25	0x3f759f14	0.9594586
26	0x3f77a865	0.96741325
27	0x3f85abb5	1.0443026
28	0x3f736bc1	0.95086294
29	0x3f820594	1.0157952
30	0x3f81c463	1.0138057
31	0x3f71cfd0	0.9445772

encoder.ln1.bias f4 [32]
0	0x3b1e5f8b	0.0024165835
1	0xbcef8e2e	-0.029242601
2	0xbc52442e	-0.012833638
3	0xbbdf686a	-0.006817867
4	0x3bc2821b	0.00593592
5	0xbd0471d7	-0.03233513
6	0x3ab9e54a	0.0014182713
7	0x3cdd2fd0	0.027000338
8	0x3ba490ff	0.0050221677
9	0xbd8ff0f0	-0.07028377
10	0x3b443352	0.0029937816
11	0x39c83ad7	0.00038190812
12	0x3ccd0a48	0.025029317
13	0xbab6b94a	-0.0013940718
14	0x3cd3ff63	0.025878614
15	0x3c729f74	0.014808524
16	0xb9d63530	-0.00040856889
17	0x3ca8f4aa	0.020624477
18	0xbb972702	-0.0046128044
19	0xbd0ad6c6	-0.03389623
20	0x3d0ee37a	0.034884907
21	0xbbae1d0c	-0.0053135213
22	0xbd1ff439	-0.03905127
23	0x3cbefcb9	0.023313867
24	0xbd06d9fd	-0.032922734
25	0x3bcacc12	0.006188878
26	0x3c8f1759	0.017467188
27	0x3d7950fe	0.060868256
28	0x3d07bcc9	0.033139024
29	0x3c508382	0.012726666
30	0x3c9bbb5d	0.01901024
31	0xbd3a39bc	-0.045465216

encoder.ln2.weight f4 [32]
0	0x3f80481b	1.0022005
1	0x3f83743e	1.0269849
2	0x3f845fff	1.0341796
3	0x3f7fd542	0.9993478
4	0x3f7af4cd	0.98029786
5	0x3f77a298	0.96732473
6	0x3f7cca8b	0.98746556
7	0x3f82e316	1.0225551
8	0x3f80cd0d	1.0062577
9	0x3f8865e0	1.065609
10	0x3f80f16e	1.0073678
11	0x3f7bf320	0.98417854
12	0x3f7b2ec7	0.9811825
13	0x3f7c5846	0.98572195
14	0x3f7f5931	0.9974547
15	0x3f8408a9	1.0315143
16	0x3f796f02	0.9743501
17	0x3f8407a5	1.0314833
18	0x3f7bfd5d	0.98433477
19	0x3f879019	1.059085
20	0x3f7e3a79	0.9930797
21	0x3f7e6e39	0.99386936
22	0x3f7f11b2	0.99636376
23	0x3f848ff0	1.0356426
24	0x3f7a8742	0.9786264
25	0x3f7a40be	0.9775504
26	0x3f829087	1.0200356
27	0x3f82f1c1	1.0230027
28	0x3f853eda	1.0409806
29	0x3f7dedf7	0.9919123
30	0x3f81e2eb	1.0147375
31	0x3f6f4f11	0.9348002

encoder.ln2.bias f4 [32]
0	0xbc012e11	-0.007884518
1	0xbce2cf11	-0.027686628
2	0xbc6c11f6	-0.014408579
3	0x3c671a70	0.014105424
4	0x3bff54b4	0.00779208
5	0xbd0d7c67	-0.034542467
6	0x3d468617	0.04846772
7	0x3d4a31f5	0.04936405
8	0xbcc0efe3	-0.023551887
9	0xbd83b405	-0.064308204
10	0xbc25563c	-0.010091361
11	0xbc36a0d9	-0.0111467475
12	0x3cb2a585	0.021807441
13	0xbc980cf3	-0.018560862
14	0x3d0c0f27	0.034194138
15	0xbb955621	-0.0045573865
16	0xbc8392a6	-0.016061138
17	0x3d0aa756	0.03385099
18	0xbc1bd675	-0.00951158
19	0xbcd0c0ff	-0.025482653
20	0x3d98073b	0.07423254
21	0xbb87782b	-0.004134198
22	0xbcffbbf6	-0.031217556
23	0x3d06fb3e	0.032954447
24	0xbcf28f15	-0.029609242
25	0xbc1084b5	-0.008820702
26	0x3cee1e26	0.02906711
27	0x3d2d9db9	0.042386744
28	0x3d8825c8	0.06647831
29	0x3ca442a8	0.020051315
30	0x3d5b5021	0.053543214
31	0xbd5840b6	-0.05279609
