experiments/model_64_60_2026-01-17_7077/model.pt (torch, 213359 bytes, 18 tensors)

encoder.graph_embed.GCN_in.A f4 [9, 9]
000000 34 7d 28 be 23 f7 81 3f b1 0e fd be 5e 97 bd bc
       -0.16454011 1.0153545 -0.4942527 -0.023143467
000010 e8 90 52 3f 84 56 37 be 6f 82 0c bf 8c 2b be be
       0.8225236 -0.17904097 -0.54886526 -0.371426
000020 b6 05 8a 3f e3 cb b8 3f 0a ec 97 be ef 7a 64 3e
       1.0782993 1.4437221 -0.2967227 0.2231252
000030 a7 94 c0 3e fc 6f 37 3f dc 5f f2 3e 09 ae a6 bf
       0.37613413 0.7165525 0.4733876 -1.3021861
000040 2c d6 ad 3f 89 78 8d bf 49 f4 40 3f aa ff 67 bf
       1.3580985 -1.105241 0.7537275 -0.9062449
000050 5e 14 c8 bf d9 79 ae bd fb d8 a2 3f b1 65 9f bf
       -1.5631216 -0.08519334 1.2722467 -1.2452909
000060 dc ca 0d 40 85 76 45 3f 8a 9b 47 3f 59 83 72 3d
       2.2155066 0.7713397 0.7797171 0.059207294
000070 90 32 a8 3e a5 cf 09 bf 90 f9 a8 3f e4 06 15 be
       0.32851076 -0.53832465 1.320116 -0.1455341
000080 8d 2e 71 bf 59 07 8b bf 74 ec 4a 3d 67 2b 56 be
       -0.94211656 -1.0861617 0.049541906 -0.20914994
000090 a2 0d 82 bf 1f af 53 be 4a 51 12 40 3d 60 2f be
       -1.016041 -0.20672272 2.2862115 -0.17126556
0000a0 58 aa 7d 3f b3 92 69 40 b4 e3 5a 3f a9 79 97 bf
       0.9908805 3.6495788 0.855037 -1.1834003
0000b0 98 b1 39 be cf d4 2a 3f d8 69 a0 bd 64 10 86 bf
       -0.18134153 0.6673097 -0.07832688 -1.0473752
0000c0 b6 3f 13 3f ce d1 9f be a4 30 5c 3f 66 d9 a6 3e
       0.5751909 -0.31214756 0.8601172 0.32587737
0000d0 24 c3 bc be 38 82 c1 bf e9 7e d0 bf 5e cc 0b bf
       -0.3686763 -1.5117865 -1.628873 -0.54608715
0000e0 50 24 cf 3f 6b b1 0a 3e 5a d1 e8 3e 3b 1c 9d 3f
       1.6182957 0.13544242 0.45472223 1.227424
0000f0 98 bb 82 bf 78 5e 2d be d3 55 45 bf 87 88 63 bf
       -1.0213499 -0.16930568 -0.7708408 -0.888802
000100 d8 42 cd 3f e6 64 fc be b7 25 80 bf 94 c7 1a bf
       1.6036024 -0.4929573 -1.001151 -0.6046078
000110 cd ca 18 3f 70 e1 92 3d d2 d1 9c 3f f8 2f 9b 3e
       0.5968445 0.07171905 1.2251532 0.30310035
000120 3f 03 3e 3f 33 25 a3 3e bf 7d 7c bf 6f 2b 9c bf
       0.74223703 0.31864318 -0.98629373 -1.2200755
000130 21 34 b3 3e 2a 00 04 c0 d4 d5 cc be 02 ed 15 bf
       0.3500071 -2.06251 -0.40006888 -0.5856477
000140 08 0b 65 3f
       0.8946996

encoder.graph_embed.GCN_in.linear.weight f4 [64, 16]
000000 c4 42 31 3e e9 e8 97 bd 9d b6 25 bb 9c 5c 41 be
       0.17310625 -0.07417471 -0.0025285848 -0.18882984
000010 7f 8f 3a 3e 5e 7a f3 bd a5 67 46 3d b2 ce 3d 3e
       0.18218802 -0.11888574 0.048438687 0.18535879
000020 5f 55 87 bd c7 b2 8b 3c 14 d7 8f bc d0 6f 66 bd
       -0.0660808 0.017053021 -0.017558612 -0.056258976
000030 92 f0 e9 bd dc 8c 0c bd 40 b2 3b 3e 47 78 3d be
       -0.11422838 -0.03431402 0.18329716 -0.18502913
000040 99 46 34 be 8b 91 40 3e c9 de 1c bb 16 d3 ae bd
       -0.17605056 0.1880552 -0.0023936501 -0.08536355
000050 56 74 ec bc 17 1b 70 3d 5a d7 0b be 72 5c 5e 3e
       -0.028864067 0.058619585 -0.13656369 0.21714953
000060 4e 4e 17 be c7 dc c3 bd 4a ae 54 be 8f d4 cc bd
       -0.14775965 -0.09563594 -0.20769611 -0.1000148
000070 3a 8c ab 3d 03 61 82 3b e9 c5 e1 bd 33 49 98 bd
       0.083763555 0.00397885 -0.110240765 -0.07435837
000080 04 53 84 be 32 7a 3a be 34 c6 45 3e 6e 7f 07 be
       -0.25844586 -0.18210676 0.1931389 -0.13232204
000090 03 9d f1 3c 9a 93 46 3e 1e dc 79 3d d9 59 5f 3e
       0.029493814 0.19392243 0.061000936 0.21811618
0000a0 2d 84 ad bd b6 8e 5f 3d 81 b1 8d 3e 05 fe 3b 3e
       -0.08472476 0.05457946 0.27674487 0.1835862
0000b0 56 ec 99 bd b5 b7 c0 bc aa bd 8f bd 06 4a 4b 3d
       -0.07515781 -0.023525098 -0.070185974 0.04963114
0000c0 94 1e 09 bc 33 e2 8a be 4f 52 6e be 00 de 40 3e
       -0.008369107 -0.271257 -0.23273586 0.18834686
0000d0 6b d2 31 be 60 da 87 bd f1 5b 35 3e 0f 51 d7 3a
       -0.17365424 -0.066334486 0.17710854 0.0016427356
0000e0 11 80 6d 3d d8 72 a4 3c 83 e9 8a 3e fe 24 bb bd
       0.05798346 0.020074293 0.2713128 -0.09137915
0000f0 90 0e 6d 3e cf c1 37 be ef 35 86 3e 1f 90 d6 bc
       0.23150086 -0.17945026 0.26213023 -0.02619177
000100 4f 5e 7e be 95 f8 97 bd cd 9a 0a 3e 23 77 44 3e
       -0.24840663 -0.0742046 0.13535614 0.19186072
000110 47 3b 21 3d 20 57 7e 3e 81 d5 88 bd f6 e4 d8 bd
       0.039363172 0.24837923 -0.06681348 -0.10590546
000120 9c 78 bd 3c 90 44 6c be c2 3b 5e be 8d f3 0f be
       0.0231288 -0.2307303 -0.21702483 -0.14057751
000130 6d f8 c4 bd d9 51 62 3e 36 5c 67 be 58 1a 2b 3e
       -0.09617696 0.22101535 -0.2259377 0.16709268
000140 02 c9 44 3d f5 c1 56 3e c2 ad 37 3e 57 eb 90 3e
       0.04804326 0.20972426 0.17937377 0.2830455
000150 fa 1f d5 bd e9 b1 7c 3d ba ff e7 3d 35 bd 51 3e
       -0.1040649 0.061693106 0.11328073 0.20482333
000160 3d e2 04 be 25 0c 19 3e fc 8d 4b 3e 88 df 67 be
       -0.12976928 0.14946039 0.19878381 -0.22643864
000170 56 f3 bb bc a2 62 3f be 28 8e ed 3d 5a 5e 66 be
       -0.02294318 -0.18689969 0.1159938 -0.2249693
000180 fe 53 b5 bd 33 c2 4f bb 3e 3d 8d 3c 96 b0 8b be
       -0.08853911 -0.0031701445 0.017241117 -0.27283162
000190 24 44 81 3c e7 e7 ab bd 76 99 02 3e f8 b5 d8 bd
       0.015779562 -0.08393841 0.12753853 -0.10581583
0001a0 22 ce aa bd af 46 b6 bd d1 15 4e be bf be 22 bc
       -0.08340098 -0.089002006 -0.2012551 -0.009933173
0001b0 cf cd 8a 3c a6 a9 2b be 82 83 2d 3e a9 c1 a1 3d
       0.01694384 -0.16763934 0.16944697 0.07898266
0001c0 fb 95 14 3d df 22 08 be 3f a6 8e be 7e c1 1e be
       0.036275845 -0.13294552 -0.2786121 -0.15503499
0001d0 33 31 4a 3e c1 1e e8 bb ea ba d6 3c 2b 4b aa bd
       0.1974533 -0.0070837443 0.026212174 -0.083151184
0001e0 c4 6b a9 bd 80 bf a9 bd df f1 46 3e c9 16 43 3e
       -0.08272508 -0.08288479 0.19428204 0.1905166
0001f0 0d 00 04 be 7f b9 58 3d 32 4a 46 ba f5 3e 3e 3e
       -0.12890644 0.052911278 -0.00075641565 0.18578704
000200 2d 76 39 be 6b 27 b2 3c 72 54 0c be f1 d4 67 3e
       -0.18111487 0.021747312 -0.13704088 0.22639824
000210 ca 44 4c bd 12 83 1d be 66 ea 14 3e e8 0b 19 be
       -0.04987029 -0.1538203 0.14542541 -0.14945948
000220 ad 93 1a bd 29 62 30 be 34 ff 45 be d6 9d e3 3c
       -0.03773849 -0.17224945 -0.19335634 0.027785223
000230 f8 c1 1f bd 14 08 ab 3b 11 e4 ad 3d 69 2d ba 3d
       -0.039003342 0.005219469 0.08490766 0.090906925
000240 77 9c 40 3e 3e ca 36 3e 6c 86 04 be 00 7a 10 3e
       0.18809687 0.17850587 -0.12941903 0.1410904
000250 4d a6 bc 3d ab e1 26 be 1e 25 e7 bc a1 73 11 3d
       0.09211407 -0.16297023 -0.028215941 0.035510663
000260 9f e1 06 3e 6d b3 9a 3d 56 97 25 3e 5d d7 80 3d
       0.13172005 0.07553754 0.16171011 0.06291077
000270 41 6b a8 bd 48 7e 1f 3d a6 c1 0e 3e 5a 9f 5e 3e
       -0.08223582 0.03893879 0.13941059 0.21740475
000280 2b 00 96 3d 80 9e 2f bc ac 17 f2 bd b3 6a 64 3e
       0.07324251 -0.010718942 -0.11820921 0.22306328
000290 a0 ce 73 be c5 53 13 3e 4a a0 80 3c 03 eb 49 3e
       -0.2380929 0.14387424 0.015701432 0.19718556
0002a0 92 b9 58 3e 03 99 3f be 1c e2 62 be 14 60 6e be
       0.2116454 -0.18710713 -0.22156566 -0.23278838
0002b0 c9 f3 51 3e e3 7c 5e bd b7 db 00 be f4 43 59 3e
       0.20503153 -0.05431832 -0.12583815 0.21217328
0002c0 a9 a0 37 bd 28 3d 89 3e c4 ef 90 bd 13 4b 47 bb
       -0.04483095 0.2680447 -0.07076982 -0.0030409738
0002d0 34 d5 75 bd 09 74 03 bd 1a 1c 3a bd 9f cd 4a 3d
       -0.06001778 -0.03209308 -0.045436956 0.0495125
0002e0 62 ba ae bd 84 f7 81 bc b5 99 4c be 28 cd b7 bb
       -0.085316435 -0.015865095 -0.1998051 -0.0056091733
0002f0 1e d3 3f be b4 8f cb bb ed e3 d2 bc 4b bc 58 be
       -0.18732879 -0.006212199 -0.02574345 -0.21165578
000300 d4 50 e9 3d e8 c0 6a 3e 74 d3 40 be 59 03 3f 3e
       0.1139237 0.2292515 -0.18830663 0.18653621
000310 9a 28 2a be 6d 46 4a 3e 94 53 75 3e 9a 21 94 3d
       -0.16617051 0.19753428 0.23957664 0.072329715
000320 ac 65 55 3e c9 a2 3f 3e 9a 70 60 3e 4e ff b5 3d
       0.20839566 0.18714441 0.21917954 0.08886586
000330 4f 06 39 3e ef 4c 0f be a8 d3 b4 3d 43 ba 6e 3e
       0.18068813 -0.13994192 0.08829433 0.2331324
000340 1c d8 10 bd 62 d8 8e 3e 56 69 6f bd cf f1 c0 3d
       -0.035362348 0.27899462 -0.058450066 0.09421121
000350 bb 0c b3 bc 4b 47 0f 3d a6 2a 9d 3c 82 27 01 bc
       -0.021856656 0.0349801 0.019185375 -0.007882955
000360 5f 0b e7 3d 14 9e b9 bd 0c 4e 5a be 77 9c 9b 3c
       0.11281466 -0.09063354 -0.21318835 0.018995507
000370 7b e5 4c 3d 7b ff b9 bd cb f1 34 3e 57 5f 5d 3c
       0.050023537 -0.09081932 0.17670362 0.0135115
000380 87 df c4 3c a8 9b 56 be c8 b0 a8 3c 6e 9b 73 3e
       0.024032367 -0.20957816 0.020592108 0.2378976
000390 da 8d a5 3d 99 f4 e9 3c 1a c3 22 3d f4 28 71 3d
       0.08083697 0.028559016 0.039736845 0.058876947
0003a0 f1 71 6e 3d 14 85 db 3d 66 e9 42 bc e3 a6 b7 bd
       0.05821413 0.10718742 -0.011896467 -0.08967378
0003b0 d1 55 dd bd fd 2e 00 be 7c c0 25 3c 9a db 41 be
       -0.10807384 -0.12517925 0.010116693 -0.18931428
0003c0 be 2a f8 3c 14 ec 3e be 8d 4a 16 3e df 56 55 be
       0.030293819 -0.18644744 0.14676876 -0.2083392
0003d0 40 85 f8 3d eb 8e dc bc 87 15 56 3e b2 c8 d6 3d
       0.121347904 -0.026923617 0.2090665 0.10487498
0003e0 40 e1 95 3d 9b 79 0b 3e 7b 26 c9 3d de 07 4d be
       0.07318354 0.13620608 0.09821793 -0.20022532
0003f0 5e 4a 6b 3e 15 89 6a 3e 5a d4 01 bd 01 26 56 be
       0.22977588 0.22903855 -0.031696655 -0.20912935

encoder.graph_embed.GCN_in.linear.bias f4 [64]
000000 33 7c de 3c 26 e8 81 3d 32 87 14 3c 6c 58 0b bd
       0.027158832 0.06343107 0.009065436 -0.034019873
000010 ad 96 c9 bd 83 11 9b 3d aa 3b f2 3d d9 dc be 3c
       -0.09843192 0.075716995 0.11827786 0.023298668
000020 52 d3 5a bd 1b d9 54 bd 4d a5 52 3e 71 7c 53 be
       -0.053424187 -0.05196486 0.2057087 -0.2065294
000030 e6 bc ef bd 84 a1 2e be 34 0c 7f 3d ae c8 55 3d
       -0.117059514 -0.17053801 0.062267497 0.052193336
000040 ad 9c 8c 3d db b8 85 3d 41 be 44 3e 09 28 f1 bd
       0.06865821 0.06529399 0.19213201 -0.11775214
000050 be c2 2c be 9f 8a 4c be a1 2e c6 bd aa dd 29 bd
       -0.16871163 -0.19974755 -0.096768625 -0.04147116
000060 b0 21 fe bc 68 2c ee bd d8 55 4f 3b 80 6e 8a 3e
       -0.031021923 -0.116295636 0.003163686 0.2703743
000070 04 26 40 be ca e2 94 3d 1e 10 56 be e6 3f 61 bd
       -0.18764502 0.07269819 -0.20904586 -0.05499258
000080 da 5a 1b bd 35 26 72 bd ef 1d e2 bc 27 f9 2b bd
       -0.03792844 -0.05911847 -0.027602164 -0.041985657
000090 0f 3c b0 3c a3 8e fb bd c9 14 32 3c 10 e4 ea 3c
       0.021513013 -0.12283065 0.010869213 0.028673202
0000a0 6b 1b e1 3d 4a 8e c3 bd 38 70 f7 3c b8 45 eb 3d
       0.10991558 -0.09548624 0.030204877 0.11487907
0000b0 16 8f fe bd 25 65 66 3e c1 9d b2 3d 65 43 66 3e
       -0.12429635 0.22499521 0.087214954 0.22486646
0000c0 48 20 0c be 7d 88 92 3d 22 c4 d3 3c 4d 0d ae 3d
       -0.1368419 0.07154939 0.02585036 0.08498631
0000d0 94 73 c3 bd a3 78 b5 3d 49 a3 04 3e 86 0f 20 3e
       -0.09543529 0.088609 0.12952913 0.15630922
0000e0 a9 b5 67 bc a1 f6 58 bd 0c 3d f0 3d 42 12 6c bd
       -0.014142432 -0.05296958 0.11730394 -0.0576346
0000f0 2e 3b a6 3d db f6 1b 3e 96 ba ab bd 33 ad d3 3d
       0.081167564 0.15230887 -0.08385198 0.103357695

encoder.graph_embed.bn.weight f4 [64]
000000 15 2c 78 3f 66 ed 81 3f 19 8a 7b 3f f2 fa 72 3f
       0.96942264 1.0150573 0.98257595 0.9491416
000010 ed 7b 74 3f 87 01 80 3f bd 22 83 3f 18 76 83 3f
       0.95501596 1.0000466 1.0244976 1.0270414
000020 4e d3 81 3f 69 ca 80 3f e5 67 73 3f e5 af 7c 3f
       1.014261 1.0061771 0.95080405 0.98705894
000030 d0 a6 78 3f ba 13 7a 3f 21 bf 7d 3f d0 0a 79 3f
       0.97129536 0.9768635 0.99119765 0.97282124
000040 e2 3b 7c 3f fb 68 81 3f b3 88 76 3f 67 de 78 3f
       0.98528874 1.0110162 0.96302336 0.9721436
000050 05 11 76 3f be fa 72 3f e3 71 82 3f bc 42 7c 3f
       0.9611972 0.9491385 1.0191005 0.9853933
000060 75 62 7a 3f 91 ae 73 3f a9 91 84 3f 7e 95 7a 3f
       0.97806484 0.9518824 1.0356952 0.97884357
000070 95 63 75 3f 15 b5 81 3f bf 13 77 3f 92 c2 77 3f
       0.95855075 1.0133387 0.96514505 0.96781266
000080 b6 ef 80 3f be bf 80 3f 49 f3 7b 3f ae fd 77 3f
       1.0073154 1.0058515 0.984181 0.9687146
000090 91 4e 7b 3f 02 33 7e 3f 99 74 83 3f 94 04 80 3f
       0.9816676 0.9929658 1.0269958 1.0001397
0000a0 c4 6c 80 3f cc 51 7d 3f c2 1f 77 3f 86 0d 81 3f
       1.0033193 0.9895294 0.96532834 1.0082252
0000b0 f3 e2 82 3f d3 33 80 3f bf 6c 80 3f 81 5f 82 3f
       1.022551 1.0015815 1.0033187 1.0185395
0000c0 e2 f5 83 3f b7 f1 80 3f 3b dc 82 3f 36 7b 7a 3f
       1.0309412 1.0073766 1.0223459 0.97844255
0000d0 25 ac 84 3f e5 52 75 3f b7 c8 7a 3f f4 f8 77 3f
       1.0365034 0.9582961 0.97962517 0.9686425
0000e0 8c d2 78 3f d3 03 74 3f 8a 0d 79 3f 25 95 83 3f
       0.9719627 0.95318335 0.97286284 1.027989
0000f0 72 9e 76 3f 6c 07 7d 3f 4e e8 81 3f 64 d7 7b 3f
       0.9633552 0.9883945 1.0149019 0.98375535

encoder.graph_embed.bn.bias f4 [64]
000000 01 ae 8b bc 2d 2f f4 bc d7 a0 86 ba 12 3e 1e 3c
       -0.017050745 -0.029807651 -0.0010271323 0.009658353
000010 56 59 86 3b 0f 04 d9 bc 59 20 fb bb a9 5c 53 3c
       0.004100005 -0.026491193 -0.0076637683 0.01290051
000020 74 56 f8 bc 98 c1 94 3c c0 4b 1c 3d 38 ff 2b bd
       -0.030314662 0.018158719 0.03815818 -0.041991442
000030 97 bf 2a 3c 0a 19 c2 bc 1c bb 22 3c c9 39 2e bd
       0.010421655 -0.02369358 0.009932306 -0.042535577
000040 4c bc 00 bc 73 a5 0e 3c b3 3c 61 bc 23 49 e7 bb
       -0.0078573935 0.008706438 -0.013747382 -0.007058279
000050 36 3b d6 3b 5c 8a 7f 3c 37 c2 20 bb 57 32 21 bc
       0.00653782 0.015596952 -0.0024529824 -0.009838662
000060 11 d3 1b 3c d1 ac c0 bc 9c b3 85 3b eb d9 0f bb
       0.009510771 -0.023519905 0.004080249 -0.0021949958
000070 b5 f3 91 3c 8e ba 9d ba 98 3e a4 3c c3 6a 9f 3c
       0.017816404 -0.0012033747 0.020049378 0.019460088
000080 5c cc a3 3b 08 22 fa 3c 11 97 a1 bc a1 0e 59 3c
       0.004998727 0.030533805 -0.019725354 0.013248117
000090 a9 77 b7 3b 37 02 2e 3c ef 1f 0b bc b7 46 99 3c
       0.0055989814 0.010620645 -0.0084915 0.018710477
0000a0 81 4d 28 3c 46 7c e7 3b 38 43 05 3b d6 46 c2 3c
       0.010272385 0.007064375 0.0020334255 0.023715418
0000b0 b3 2f 86 bc 43 3c c5 3c 15 44 e2 3a df 69 13 3b
       -0.016380167 0.024076587 0.0017262722 0.0022493524
0000c0 a3 07 67 3c 6a 65 2d bc 8f f3 fa bb 3f ab 3b 3c
       0.014100942 -0.010583261 -0.007658429 0.0114544025
0000d0 b5 1a a3 bc 87 11 be 39 71 c7 eb bc fa 33 b4 ba
       -0.019910196 0.00036252683 -0.028781625 -0.00137484
0000e0 9f 47 67 bc 32 79 96 3c c3 d7 a4 3c a3 c8 01 3d
       -0.014116197 0.018368337 0.020122414 0.031685483
0000f0 44 59 3c 3c c8 2c 54 3a 7f 82 11 bd e8 b1 86 3a
       0.011495892 0.0008093831 -0.03552484 0.0010276409

encoder.graph_embed.bn.running_mean f4 [64]
000000 66 be 09 3d c8 07 46 3c 89 03 d4 bd 83 52 d5 3e
       0.033628844 0.012086816 -0.10352237 0.41664514
000010 4d 33 8c bd 1a ec 15 3d f2 65 8a 3e ac c7 79 bc
       -0.06845722 0.036602117 0.27030903 -0.015245359
000020 f5 ce 1f 3e bb 09 56 3d c4 bb 97 3e e5 e3 51 bd
       0.15606292 0.052255373 0.2963544 -0.051242728
000030 94 b5 80 3d db f7 02 3e 0f 99 ea 3c 48 80 dd 3a
       0.06284633 0.12789862 0.028637437 0.0016899193
000040 d5 9e 63 3e 02 76 5e bc cc 40 aa 3e 1d 72 f0 bd
       0.22228558 -0.01357794 0.3325256 -0.117405154
000050 79 eb a3 bd e1 6b bc 3c d8 18 9b 3e 8f 5e a7 bd
       -0.08003897 0.02300066 0.30292392 -0.081723325
000060 60 ef f2 3c e0 22 17 3e 4e d8 57 3d ae c7 28 3e
       0.029655159 0.14759398 0.05269652 0.16482422
000070 f7 d0 e3 bd fe 98 28 3e fa 01 72 3d 41 91 aa 3e
       -0.11123841 0.16464612 0.059083916 0.33313945
000080 d8 da 09 3e ad 52 c6 3d ba 71 21 3e 84 fe f1 bc
       0.13462389 0.09683738 0.1576604 -0.029540308
000090 0b 99 8b bb 7a 9a 40 3e ed 92 eb 3d 28 ad 87 3e
       -0.0042601875 0.18808928 0.11502633 0.26499295
0000a0 d5 0f 66 3d f3 f9 cc 3d d7 06 a9 3d e9 ba 0a 3e
       0.056167442 0.100086115 0.08253258 0.13547863
0000b0 e2 1b 97 3d ed 1c 05 3f 40 41 d6 3d a6 74 d2 3e
       0.07378365 0.5199726 0.10461664 0.4110462
0000c0 1a a6 76 3c c6 84 b6 3d 55 db 80 bd 27 66 9c 3c
       0.01505425 0.08912043 -0.06291834 0.019091679
0000d0 a1 f8 37 bc 80 75 89 3e db 7b 7d 3e 53 a2 87 3c
       -0.011228711 0.26847458 0.24754278 0.016556894
0000e0 8c 5b fc 3d 38 9d 65 bd 9d a5 20 3e b7 d7 0f bd
       0.12322149 -0.05605814 0.15688176 -0.03511783
0000f0 2a 97 2e 3e 6f 49 d7 3c cd 40 fb 3c 99 86 6d 3e
       0.17049852 0.026280133 0.030670548 0.23195876

encoder.graph_embed.bn.running_var f4 [64]
000000 df fc 02 3d 54 7d 6e 3c 00 1b 68 3c 9b 93 36 3e
       0.031979438 0.014556248 0.014166594 0.17829745
000010 bd cb 06 3d e6 48 e9 3c b8 63 f1 3d d3 97 ac 3c
       0.032909144 0.028477143 0.11786598 0.02106849
000020 5d 48 2a 3d 4f d5 e1 3c 05 b7 1a 3e fe 93 3e 3c
       0.041572917 0.027567534 0.15108879 0.011631964
000030 0c 66 66 3d 78 d9 4b 3d c8 38 b3 3c 63 4f 35 3d
       0.056249663 0.04976794 0.021877661 0.044265162
000040 65 49 73 3d 09 2b 86 3c 22 43 9d 3d 1e f9 9a 3c
       0.059396166 0.016377943 0.0767882 0.018917616
000050 d1 da 55 3c c2 ed 87 3c 13 5a eb 3d da 40 20 3d
       0.013052658 0.016592864 0.1149179 0.039124347
000060 50 63 0a 3d 47 85 52 3d d3 82 e3 3c 6c ff e1 3d
       0.033786118 0.051396634 0.027772343 0.11035046
000070 88 f9 8b 3c 95 e3 b0 3d 50 e8 32 3d f4 52 fd 3d
       0.01708676 0.08637158 0.04367858 0.12369338
000080 27 c2 ad 3c e2 9a ea 3c d6 f4 83 3d ae 00 1d 3d
       0.021210743 0.028638307 0.06443183 0.038330726
000090 b0 65 91 3c b3 fb 9a 3d 82 e2 69 3d 76 ac 6c 3d
       0.017748684 0.07567539 0.05710078 0.05778166
0000a0 66 c9 c6 3c d9 3f 7c 3d 78 63 67 3d 9b 23 0e 3d
       0.024265956 0.061584327 0.056491345 0.034701925
0000b0 fb 6f 81 3d b7 30 a4 3e 81 9b 1a 3d 34 ce dd 3d
       0.06320187 0.32068416 0.037745956 0.10830346
0000c0 a5 e7 6b 3c 18 63 d2 3c 98 42 87 3c a6 95 74 3d
       0.01439849 0.025682017 0.016511247 0.05971303
0000d0 a4 be 86 3c 6b 60 63 3e 72 4d de 3d 9a fc 96 3c
       0.016448326 0.2220475 0.10854615 0.018430997
0000e0 27 52 26 3d 4c ba 6f 3d 06 33 4a 3d bd 5a 81 3c
       0.04060569 0.058527276 0.049365066 0.015790338
0000f0 e5 f2 a5 3d 16 98 10 3d 61 42 97 3c 42 0f ed 3d
       0.08102969 0.03530129 0.01846427 0.11575176

encoder.pos_enc.pe f4 [500, 64]
000000 00 00 00 00 00 00 80 3f 00 00 00 00 00 00 80 3f
       0.0 1.0 0.0 1.0
000010 00 00 00 00 00 00 80 3f 00 00 00 00 00 00 80 3f
       0.0 1.0 0.0 1.0
000020 00 00 00 00 00 00 80 3f 00 00 00 00 00 00 80 3f
       0.0 1.0 0.0 1.0
000030 00 00 00 00 00 00 80 3f 00 00 00 00 00 00 80 3f
       0.0 1.0 0.0 1.0
000040 00 00 00 00 00 00 80 3f 00 00 00 00 00 00 80 3f
       0.0 1.0 0.0 1.0
000050 00 00 00 00 00 00 80 3f 00 00 00 00 00 00 80 3f
       0.0 1.0 0.0 1.0
000060 00 00 00 00 00 00 80 3f 00 00 00 00 00 00 80 3f
       0.0 1.0 0.0 1.0
000070 00 00 00 00 00 00 80 3f 00 00 00 00 00 00 80 3f
       0.0 1.0 0.0 1.0
000080 00 00 00 00 00 00 80 3f 00 00 00 00 00 00 80 3f
       0.0 1.0 0.0 1.0
000090 00 00 00 00 00 00 80 3f 00 00 00 00 00 00 80 3f
       0.0 1.0 0.0 1.0
0000a0 00 00 00 00 00 00 80 3f 00 00 00 00 00 00 80 3f
       0.0 1.0 0.0 1.0
0000b0 00 00 00 00 00 00 80 3f 00 00 00 00 00 00 80 3f
       0.0 1.0 0.0 1.0
0000c0 00 00 00 00 00 00 80 3f 00 00 00 00 00 00 80 3f
       0.0 1.0 0.0 1.0
0000d0 00 00 00 00 00 00 80 3f 00 00 00 00 00 00 80 3f
       0.0 1.0 0.0 1.0
0000e0 00 00 00 00 00 00 80 3f 00 00 00 00 00 00 80 3f
       0.0 1.0 0.0 1.0
0000f0 00 00 00 00 00 00 80 3f 00 00 00 00 00 00 80 3f
       0.0 1.0 0.0 1.0
000100 a4 6a 57 3f 41 51 0a 3f ce 7a 2e 3f b0 54 3b 3f
       0.84147096 0.54030234 0.68156135 0.731761
000110 ba 7d 08 3f 0d 94 58 3f f0 90 d1 3e c7 92 69 3f
       0.53316844 0.8460091 0.4093089 0.9123959
000120 3e 39 9f 3e 6b 4e 73 3f 25 8f 70 3e f1 d5 78 3f
       0.3109836 0.9504153 0.23492105 0.9720145
000130 3a 23 35 3e 83 f6 7b 3f f3 25 08 3e 28 ba 7d 3f
       0.17689219 0.9842302 0.13295726 0.99112177
000140 76 75 cc 3d 98 b8 7e 3f 36 6f 99 3d d1 47 7f 3f
       0.099833414 0.9950042 0.07491915 0.9971896
000150 ae 36 66 3d 68 98 7f 3f fa ac 2c 3d bd c5 7f 3f
       0.05620449 0.9984193 0.04215715 0.999111
000160 5b 81 01 3d 3c df 7f 3f a5 3e c2 3c 93 ed 7f 3f
       0.031617504 0.99950004 0.023711512 0.99971884
000170 42 ab 91 3c a3 f5 7f 3f 49 7a 5a 3c 2c fa 7f 3f
       0.017781857 0.99984187 0.013334819 0.99991107
000180 57 d6 23 3c b9 fc 7f 3f 16 b9 f5 3b 28 fe 7f 3f
       0.009999833 0.99995 0.0074988706 0.99997187
000190 5a 44 b8 3b f7 fe 7f 3f 5a 2e 8a 3b 6b ff 7f 3f
       0.0056233825 0.9999842 0.0042169513 0.9999911
0001a0 1c 3e 4f 3b ac ff 7f 3f 03 69 1b 3b d1 ff 7f 3f
       0.0031622713 0.999995 0.0023713715 0.9999972
0001b0 20 15 e9 3a e6 ff 7f 3f 8a c9 ae 3a f1 ff 7f 3f
       0.0017782785 0.99999845 0.001333521 0.9999991
0001c0 6d 12 83 3a f8 ff 7f 3f 89 94 44 3a fb ff 7f 3f
       0.0009999998 0.9999995 0.000749894 0.9999997
0001d0 13 6a 13 3a fd ff 7f 3f 21 17 dd 39 ff ff 7f 3f
       0.0005623411 0.9999998 0.00042169637 0.99999994
0001e0 61 cb a5 39 ff ff 7f 3f 0d a8 78 39 00 00 80 3f
       0.00031622782 0.99999994 0.00023713727 1.0
0001f0 53 77 3a 39 00 00 80 3f 6d d4 0b 39 00 00 80 3f
       0.00017782794 1.0 0.00013335208 1.0
000200 b7 c7 68 3f 33 11 d5 be d9 5a 7f 3f 53 4d 91 3d
       0.9092974 -0.41614684 0.99748 0.070948265
000210 0a f2 66 3f b2 e8 dc 3e 11 35 3f 3f 03 39 2a 3f
       0.9021307 0.43146282 0.7469035 0.6649324
000220 1b 54 17 3f ec 7b 4e 3f b5 d3 e9 3e 69 be 63 3f
       0.5911271 0.8065784 0.45669332 0.8896242
000230 f6 47 b2 3e a6 fa 6f 3f 82 f0 86 3e f5 f2 76 3f
       0.34820527 0.93741834 0.26355368 0.96464473
000240 f8 6f 4b 3e a5 e5 7a 3f d3 00 19 3e 4f 20 7d 3f
       0.19866931 0.9800666 0.1494172 0.98877424
000250 86 d9 e5 3d f3 61 7e 3f ae 85 ac 3d 0e 17 7f 3f
       0.1122313 0.9936821 0.08423935 0.99644554
000260 c8 70 81 3d f9 7c 7f 3f aa 30 42 3d 4e b6 7f 3f
       0.063203394 0.9980007 0.04740969 0.9988755
000270 5c a5 11 3d 8e d6 7f 3f 50 75 da 3c b1 e8 7f 3f
       0.03555809 0.9993676 0.026667267 0.99964434
000280 3e d4 a3 3c e5 f2 7f 3f 51 b7 75 3c a1 f8 7f 3f
       0.019998666 0.9998 0.014997319 0.9998875
000290 9b 43 38 3c db fb 7f 3f 0a 2e 0a 3c ab fd 7f 3f
       0.011246587 0.99993676 0.008433828 0.9999644
0002a0 d8 3d cf 3b b1 fe 7f 3f e7 68 9b 3b 43 ff 7f 3f
       0.006324511 0.99998003 0.00474273 0.99998873
0002b0 08 15 69 3b 96 ff 7f 3f 7f c9 2e 3b c4 ff 7f 3f
       0.0035565514 0.9999937 0.0026670394 0.9999964
0002c0 68 12 03 3b df ff 7f 3f 85 94 c4 3a ed ff 7f 3f
       0.0019999985 0.99999803 0.0014997876 0.99999887
0002d0 12 6a 93 3a f5 ff 7f 3f 1f 17 5d 3a fa ff 7f 3f
       0.0011246821 0.99999934 0.0008433926 0.99999964
0002e0 60 cb 25 3a fd ff 7f 3f 0c a8 f8 39 fe ff 7f 3f
       0.0006324556 0.9999998 0.0004742745 0.9999999
0002f0 53 77 ba 39 ff ff 7f 3f 6d d4 8b 39 00 00 80 3f
       0.00035565588 0.99999994 0.00026670416 1.0
000300 c3 81 10 3e 26 70 7d bf de 3c 47 3f ce bf 20 bf
       0.14112 -0.9899925 0.7782725 -0.6279267
000310 d7 45 7e 3f ab 7f ed bd 63 21 74 3f 63 18 9a 3e
       0.9932532 -0.11596616 0.95363444 0.3009673
000320 c2 09 50 3f 58 2f 15 3f b7 24 27 3f a2 e7 41 3f
       0.8126489 0.58275366 0.652904 0.7574407
000330 6c 2f 02 3f 29 6d 5c 3f a7 68 c7 3e 37 c9 6b 3f
       0.5085361 0.86104065 0.3894703 0.92103904
000340 6c 4e 97 3e ef 90 74 3f e2 6d 64 3e 92 8c 79 3f
       0.2955202 0.9553365 0.22307542 0.9748012
000350 d7 ee 2b 3e 9e 5d 7c 3f 2c 33 01 3e 43 f4 7d 3f
       0.16790329 0.9858035 0.12617177 0.9920084
000360 c0 ff c1 3d 4f d9 7e 3f 06 93 91 3d 3a 5a 7f 3f
       0.094726086 0.99550337 0.071081206 0.9974705
000370 4e 69 5a 3d c3 a2 7f 3f c5 d1 23 3d 90 cb 7f 3f
       0.053323083 0.9985773 0.039994974 0.99919987
000380 1f b9 f5 3c 83 e2 7f 3f 47 47 b8 3c 6b ef 7f 3f
       0.0299955 0.99955004 0.022494925 0.999747
000390 c6 31 8a 3c ad f6 7f 3f 46 44 4f 3c c1 fa 7f 3f
       0.016869437 0.9998577 0.012650555 0.99991995
0003a0 0d 6e 1b 3c 0d fd 7f 3f 13 1d e9 3b 58 fe 7f 3f
       0.009486687 0.999955 0.0071140616 0.9999747
0003b0 a8 cf ae 3b 11 ff 7f 3f 13 17 83 3b 7a ff 7f 3f
       0.005334813 0.99998575 0.0040005534 0.999992
0003c0 92 9b 44 3b b5 ff 7f 3f 60 6f 13 3b d6 ff 7f 3f
       0.0029999954 0.9999955 0.0022496805 0.9999975
0003d0 17 1f dd 3a e8 ff 7f 3f 56 d1 a5 3a f3 ff 7f 3f
       0.0016870227 0.99999857 0.0012650888 0.9999992
0003e0 10 b1 78 3a f9 ff 7f 3f 09 7e 3a 3a fc ff 7f 3f
       0.00094868336 0.9999996 0.00071141176 0.99999976
0003f0 7e d9 0b 3a fe ff 7f 3f a4 be d1 39 ff ff 7f 3f
       0.0005334838 0.9999999 0.00040005625 0.99999994

encoder.transformer.in_proj_weight f4 [192, 64]
000000 71 54 e3 bd 19 03 6f 3d 5e 8d 0a be 1e 4f 1e bd
       -0.1110009 0.058352564 -0.1353049 -0.03864967
000010 b8 4e 0c bd 86 3e fc 3c 1d 10 f4 3c 72 64 07 bd
       -0.03425476 0.030791532 0.02979284 -0.033054776
000020 5f e4 16 3d a1 51 e7 bd a9 8f 87 3d 4a 09 88 bd
       0.036838885 -0.11294866 0.06619198 -0.06642397
000030 7e 20 6b bc ed c0 45 3d c9 47 35 be bf cb ba bd
       -0.014351008 0.04827969 -0.17703165 -0.09120893
000040 ad 1a ab 3b ef 5a ef bd 17 b9 be 3d 9b cc fc bc
       0.005221686 -0.11687266 0.09312647 -0.030859282
000050 33 87 ec bd 48 98 ea bd 78 2d 40 bd 15 8b 38 3d
       -0.11549225 -0.114548266 -0.046918362 0.045054514
000060 c2 1b ba 3d e5 d4 69 bc 49 99 07 3e c8 e0 4b bc
       0.09087326 -0.014271949 0.13242067 -0.012443729
000070 91 af ce bc 85 d8 dc 3d 5a ea d6 bc 39 47 e5 bd
       -0.025230201 0.10783485 -0.026234794 -0.11195225
000080 0a bd 6a 3c 11 05 f8 3d 0e 94 da bd 39 86 1b 3b
       0.014327297 0.12110341 -0.106727704 0.0023731126
000090 b3 9e 1c be bd 37 04 be 62 69 06 3e a9 bc 5b bd
       -0.15294914 -0.12911887 0.13126138 -0.053646717
0000a0 4e 4f 9b 3c 7b d6 09 3e 81 84 2e be 67 38 d9 bd
       0.018958714 0.13460724 -0.17042734 -0.10606461
0000b0 ec 84 28 3e e6 b6 71 3d 82 cb 1c 3d 5c 66 e8 bd
       0.16456956 0.059012316 0.038280018 -0.113476485
0000c0 47 59 db bc e9 b4 b2 bd 55 a9 f1 bd 7c 9e 66 3c
       -0.02677597 -0.08725912 -0.11799876 0.014075872
0000d0 dd ae 3b bd b1 ee 46 3d e8 0b ae 3d 40 6f 3d bd
       -0.04582106 0.048567478 0.08498365 -0.046248674
0000e0 26 6f e6 3d 26 ab 25 be 87 a0 41 bd 03 84 29 bc
       0.11251669 -0.16178569 -0.04727223 -0.010346415
0000f0 3c f1 55 bd e7 7f 95 3d fc 46 03 3e fe bf c2 3d
       -0.052232012 0.07299786 0.12820047 0.09509276
000100 82 76 8e bd a5 c9 01 3e 59 ec 79 3c c9 ae 90 bd
       -0.06956197 0.12674578 0.015254104 -0.070645876
000110 5a 1c 1f 3a fd d1 af bc 28 3b b1 3d a5 90 41 3e
       0.00060695934 -0.021462435 0.08653861 0.18902834
000120 4d 93 4f bd b7 29 0a be 56 b6 23 bd 20 05 65 3d
       -0.050677586 -0.13492475 -0.03996881 0.05591309
000130 73 26 17 be 47 5a 14 be e3 5e 03 3e 4c 80 cc 3d
       -0.14760761 -0.14487563 0.12829165 0.09985408
000140 6f 67 e6 bd 3e b0 1d 3e 74 b9 96 bd 25 53 08 bc
       -0.11250197 0.15399262 -0.07359591 -0.008320604
000150 6c 61 36 3d fc 35 f7 bd 5c 51 18 3e dd 27 89 3d
       0.044526502 -0.120708436 0.14874786 0.066970564
000160 d5 6b 97 bd 34 f0 3c 3d c6 02 fe bc 22 9c 2f be
       -0.07393614 0.046127513 -0.031007182 -0.17149404
000170 16 de c6 bd 0c 98 52 3d 6c 1c a0 bd 06 ec ab 3c
       -0.09710328 0.051414534 -0.07817921 0.020986568
000180 fb 72 22 be 2b c2 cf bd 88 9e 95 3d 68 d2 26 3e
       -0.15864174 -0.101444565 0.07305628 0.16291201
000190 a2 28 09 3d 82 da 92 39 88 25 04 be 95 53 f0 bc
       0.033486016 0.0002801009 -0.12904942 -0.02933673
0001a0 e8 b7 1c 3d fd 59 7d 3d 0b 99 6e bb a2 82 7d 3d
       0.038261324 0.061853398 -0.0036407139 0.06189216
0001b0 b2 bd af bd c5 8c 07 3e 5a 77 ac bd d5 bf c4 bd
       -0.085811034 0.13237293 -0.08421202 -0.096069016
0001c0 fe 03 cc 3d 5e 44 99 3d 96 d4 28 3d cf 31 1f 3e
       0.09961699 0.07483743 0.041218363 0.15546344
0001d0 8e e9 24 bc 48 e7 fa bc 6d 28 09 3d da 92 e9 3d
       -0.010065449 -0.030627862 0.03348582 0.11404963
0001e0 74 b8 27 be 4d eb 01 3e d7 5c 18 be b4 eb db bd
       -0.16378957 0.12687416 -0.14879166 -0.10738316
0001f0 10 8c 8d 3d d9 cb 66 3c 2e de 6a 3b 6c 9f eb 3d
       0.069114804 0.014086687 0.0035837996 0.11505017
000200 ba d9 46 3c 2d 58 d9 3d 0a 5f 39 be 9a 27 8a 3d
       0.012136871 0.10612521 -0.18102661 0.06745835
000210 0b 81 01 be db 8f 01 be e2 49 b2 bd 87 a9 1e be
       -0.12646882 -0.12652533 -0.08705498 -0.15494357
000220 8a fe e0 bd d9 66 eb bd 02 ce 12 bc b0 a1 9c 3d
       -0.109860495 -0.11494226 -0.008960249 0.07648027
000230 6c bc 1e be dd 6b 52 bd 81 d4 c7 bd 86 6d 7c 3d
       -0.15501565 -0.051372398 -0.09757329 0.061627887
000240 96 14 f1 bd 0a 5d 4d 3d 10 20 ba bd 0e 4a 8a 3d
       -0.117715046 0.050137557 -0.09088147 0.06752406
000250 c3 f0 bd bc 87 88 25 be 96 54 a3 3b 67 3e 25 3d
       -0.023186093 -0.16165362 0.0049844487 0.040342715
000260 0b 76 ed 3d cc ef 47 bd bb a0 d9 bd 27 90 46 bd
       0.115947805 -0.048812672 -0.1062636 -0.04847732
000270 b1 0b cd bc eb ba 07 3e 6f 27 4a 3d d5 41 8f bd
       -0.025029989 0.13254897 0.049354013 -0.06994978
000280 15 c8 f1 3c 03 0d 99 bc 8e d2 a9 3d 9f df fc 3d
       0.029514352 -0.018682962 0.08292113 0.1234734
000290 68 0c 3b be 45 f5 0f 3c 63 4e 4b bd 5d cf 08 3e
       -0.18266451 0.008786504 -0.049635302 0.13360353
0002a0 8e 05 79 3d 98 d6 9f 3d c4 28 cf 3c 63 8e b8 bd
       0.060796313 0.078046024 0.025287993 -0.09011533
0002b0 af f4 32 3e 12 0a 13 bd a2 3f 1c 3e ec 37 ba bd
       0.17476152 -0.035898276 0.15258649 -0.090926975
0002c0 13 15 de bd 7f cb 1e bd 30 4c 84 bc de 86 93 3d
       -0.10843863 -0.038768288 -0.01614961 0.07203458
0002d0 3d e0 f2 3d ae 93 dc bd 44 38 e8 3d f1 62 b7 bd
       0.11859176 -0.10770355 0.11338857 -0.089544185
0002e0 2a a4 ec 3d f9 41 d0 3b a3 18 33 3d 9a fe f1 bd
       0.11554749 0.006355521 0.043724667 -0.118161395
0002f0 a5 73 e8 bd 6b 9d 70 bd e1 29 d8 bd 8c b2 4d bd
       -0.113501824 -0.058743875 -0.10554863 -0.050219104
000300 a1 2d 01 be bf 9b f4 3d 5d 54 c4 bd 51 a5 e4 3c
       -0.12615062 0.11943769 -0.095864035 0.02791086
000310 d4 2b b2 bd 72 a9 42 bd 5e ae d2 bb 69 c5 47 be
       -0.08699766 -0.047524877 -0.0064294776 -0.195089
000320 f8 74 11 3e 44 1b 64 bd 2a 00 1e bd ee a7 a5 3d
       0.14204776 -0.055690065 -0.038574375 0.08088671
000330 2f 23 0a 3e f4 49 a8 bd 2f f2 e7 bc a0 7e dd 3d
       0.13489984 -0.082172304 -0.028313724 0.108151674
000340 9e 46 56 bc 3f 83 56 bd ff 73 7e 3d 6f cc e5 3c
       -0.01307836 -0.05237126 0.06212234 0.028051583
000350 b2 32 52 3c dc ef 87 bc 28 b2 42 3d 4e b8 2d 3c
       0.0128294695 -0.016593866 0.047533184 0.010603024
000360 15 3a 04 be 00 1b ca 3c 86 1a 2f 3d 67 4e 87 3c
       -0.12912782 0.024671078 0.042749904 0.016516877
000370 c0 62 9a bc f5 92 13 be 98 f2 b4 3d cb 4d 90 bd
       -0.018845916 -0.14411528 0.088353336 -0.07046088
000380 47 06 0f be d0 03 47 3d a6 59 f4 3d 9b db f3 3d
       -0.13967238 0.04858762 0.119311616 0.11907121
000390 1c a8 51 bd ea b5 8a 3d 68 6c e8 bd 49 37 6b bd
       -0.051185712 0.067729786 -0.11348802 -0.05742577
0003a0 9b 10 d1 3b 5c 8e 91 bd 44 40 dc 3d 31 e2 f9 bc
       0.0063801534 -0.07107231 0.10754445 -0.030503364
0003b0 6b 0a ba 3d f3 a5 22 be 68 38 0c be f9 74 d4 bd
       0.09084018 -0.15883617 -0.13693392 -0.10373873
0003c0 c6 9f 36 3d ba 1e 25 bd e4 63 c0 3d bf af b7 bc
       0.044585966 -0.040312506 0.093940526 -0.02242267
0003d0 8b b3 a5 bc 94 6b 49 be e8 60 28 3d 93 23 ae bd
       -0.020227214 -0.19669944 0.041108042 -0.08502879
0003e0 e6 2f ca bd 23 c8 e3 3d 89 e3 50 3e 08 1a 95 bd
       -0.09872417 0.111221574 0.20399298 -0.07280356
0003f0 d0 5c 4a bd 04 ce 5d 3d 38 6f 16 3e 03 37 21 be
       -0.04940492 0.05415155 0.14690864 -0.15743642

encoder.transformer.in_proj_bias f4 [192]
000000 80 17 72 3a 8e c5 03 3d 00 72 49 3b 44 ef d6 bc
       0.0009235069 0.032170825 0.0030738115 -0.026237138
000010 97 f5 07 bc a8 aa 88 bc 59 6f bf bb 50 6f 55 bc
       -0.008298299 -0.016682938 -0.005842131 -0.013027027
000020 13 3f 15 bc ec ec c5 3c 58 15 c4 3c 9e d0 93 bc
       -0.009109276 0.024160825 0.023935959 -0.018043812
000030 1c 07 99 3c 05 25 0b 3c fc d5 bd bc e4 46 2c 3c
       0.018680148 0.008492713 -0.023173325 0.0105149485
000040 9d 53 83 bb cd b4 ec bb 36 01 a3 3c ca 0d 26 bc
       -0.00400777 -0.0072237016 0.019898038 -0.0101351235
000050 b3 3b e4 3c 19 94 84 3b db 52 bc bb 7e 0a a5 bb
       0.027860498 0.004045975 -0.005747182 -0.005036651
000060 48 ad 4e 3a 59 9e cc 3c 41 74 cd 3c 89 f5 c5 3c
       0.0007884097 0.02497785 0.025079848 0.024164932
000070 bf c9 cf 3c 0a 48 29 3d de 1c b7 3c 83 30 90 3b
       0.025364755 0.041328467 0.022352632 0.0044003143
000080 2b de 29 3c e9 62 b9 bc 99 3f fe bb 57 65 cc 3c
       0.01036791 -0.022630172 -0.0077590463 0.024950666
000090 03 93 4e 3b 9a ce 77 ba af 95 58 3c e0 d1 34 bd
       0.0031520731 -0.0009453088 0.013219281 -0.044145465
0000a0 7a 9c 99 bb 35 f3 13 3c eb cf bb bb 33 5a 80 bc
       -0.004687843 0.009030153 -0.005731573 -0.01566801
0000b0 c9 22 99 3c 3a 3c 0a bd 07 08 cd bc 2e 02 06 bd
       0.018693345 -0.033748843 -0.025028242 -0.032716922
0000c0 29 10 11 bc 59 82 e1 3c 0f 3f aa 3b e3 0c cf 3c
       -0.008853951 0.027527975 0.0051955055 0.0252747
0000d0 12 74 fe bc bc 92 af 3c de 29 01 3c 37 01 d5 3c
       -0.031061206 0.021432273 0.007883517 0.026001556
0000e0 8d 35 13 3d ee ab 10 bc 82 32 3f 3c d0 72 46 3d
       0.035939742 -0.008830054 0.011669757 0.048449337
0000f0 17 1e 03 bd 23 09 a6 3a 2f a9 7b 3c f3 28 be bc
       -0.032011118 0.0012667518 0.015360161 -0.023212885
000100 21 b7 d0 b4 0b 1e e2 35 a4 15 46 b3 35 16 2d 35
       -3.8876263e-07 1.6847056e-06 -4.612015e-08 6.447984e-07
000110 93 8b 79 b4 68 38 23 b5 72 6f 2e 32 75 a5 ad 34
       -2.3240709e-07 -6.0804314e-07 1.0153473e-08 3.2344147e-07
000120 a5 3b 9d 32 3d b8 05 36 a5 16 7d b5 ac 46 84 b4
       1.8304329e-08 1.9925785e-06 -9.4282797e-07 -2.4638337e-07
000130 76 c7 49 34 5c 25 74 35 0d 4c 9d b5 24 3f c4 34
       1.8792147e-07 9.095145e-07 -1.1719545e-06 3.6553786e-07
000140 32 82 d5 b5 80 9f aa b4 8c 1d b0 35 02 7c 86 35
       -1.5907628e-06 -3.178102e-07 1.3121621e-06 1.0019869e-06
000150 f3 c4 c4 b5 cb f1 f6 34 7d 29 2b b5 9a 11 b9 35
       -1.4660458e-06 4.5996998e-07 -6.376284e-07 1.3788697e-06
000160 b1 20 d6 b4 23 48 0f b5 39 1f c5 34 43 06 a6 b5
       -3.9884392e-07 -5.3376624e-07 3.6716827e-07 -1.2369786e-06
000170 f5 33 80 b5 cf d8 b9 b6 2a 91 dc b5 d3 80 2d b5
       -9.551865e-07 -5.5386695e-06 -1.6433526e-06 -6.4634986e-07
000180 6c 3d 21 35 35 d7 c5 34 ea 32 ac b5 6e 1e a5 34
       6.0066554e-07 3.6850693e-07 -1.2829817e-06 3.0755785e-07
000190 9e 48 67 b4 cf 1a ce b4 31 44 12 b4 af 39 8d b2
       -2.153997e-07 -3.8389996e-07 -1.3622117e-07 -1.6440792e-08
0001a0 cc dd 15 b6 8d 05 32 36 56 15 d3 34 0c 2d 0f b6
       -2.2331833e-06 2.6527298e-06 3.9317337e-07 -2.1334881e-06
0001b0 96 70 bd b4 d3 e2 e8 b5 d6 98 c3 b5 d1 41 95 35
       -3.528591e-07 -1.7351362e-06 -1.4573113e-06 1.112052e-06
0001c0 9b f9 62 35 eb f4 94 35 03 48 3e 35 55 7d 1c b6
       8.4554785e-07 1.109814e-06 7.0885307e-07 -2.3318764e-06
0001d0 86 0d d5 35 61 9b de b5 38 b6 59 35 56 3d 14 b6
       1.5873673e-06 -1.658551e-06 8.110396e-07 -2.208942e-06
0001e0 ed 54 6b 34 07 41 55 34 fa 6c 90 b4 60 31 a4 b4
       2.1916976e-07 1.9860828e-07 -2.690138e-07 -3.0583305e-07
0001f0 57 59 69 36 3e 20 9f b4 38 c7 28 33 6a 4a 5d 36
       3.4771708e-06 -2.9639517e-07 3.9296737e-08 3.297488e-06
000200 f2 80 c5 bb b7 10 9b 3a 02 65 72 bc ca ec fd 3b
       -0.0060273344 0.0011830543 -0.01479459 0.0077491747
000210 2b d9 2a bb 9f 6f 52 3c 6b 2e 05 bb 61 3a d5 bb
       -0.0026069384 0.012843995 -0.0020321857 -0.0065072034
000220 76 ff b9 ba 13 fe 02 3b 09 2f bb 3b da 8d 62 3c
       -0.0014190513 0.0019987866 0.005712394 0.013827765
000230 2f d2 7d 3c 5e 14 62 3b 16 87 e3 37 0d 28 4c bb
       0.015492006 0.0034497003 2.7123413e-05 -0.0031151802
000240 ec 73 97 3c c1 51 4f 3c 68 d2 5a 3c a2 0f 09 3c
       0.018487893 0.012653769 0.013355829 0.008365544
000250 0e 65 ad 3c cd 19 de 3a 59 42 97 3c 77 be ce 39
       0.02116635 0.0016944945 0.018464254 0.0003943329
000260 68 c7 71 3b ef e5 8d 3b c6 d5 68 bc b5 d4 7c bc
       0.0036892537 0.0043303887 -0.014211124 -0.015431573
000270 44 ed 55 3c 5a 77 82 bb 5b 26 52 3c e8 e8 a0 bc
       0.013057057 -0.003981513 0.0128265275 -0.019642308
000280 42 a8 43 bc 85 cc 29 ba 5c 18 7e 3c 4a 69 e2 3c
       -0.011941971 -0.0006477314 0.015508737 0.027638096
000290 a6 97 9e bc 86 fd cb 3b 51 5a ac 3b 2f e2 7f 3c
       -0.019359421 0.0062252907 0.00525979 0.015617891
0002a0 95 5c ec 3b c5 73 16 bc 81 4e 1b 3c ef 26 b8 bc
       0.007213185 -0.009182875 0.009479166 -0.022479502
0002b0 0b ea fa 3b 27 22 24 3c 10 f1 03 3d c3 98 b0 3b
       0.0076572946 0.010017908 0.032212317 0.0053893044
0002c0 d1 92 9b 3c be fc 30 bc 7b 4e 08 3a 1a fc 51 bb
       0.018990906 -0.010802446 0.0005199683 -0.0032041133
0002d0 7e 6d 7f bc 6a d7 63 bc 95 bb 40 3c 14 c9 d2 3a
       -0.01559007 -0.013906339 0.011763473 0.0016081654
0002e0 82 fe 74 b9 d4 36 e8 bb 2b f4 a9 3c 98 ee d5 bc
       -0.00023364465 -0.007086614 0.020746311 -0.026114747
0002f0 fd 86 6a bc da 3f 15 3c 17 85 86 bc 04 a6 ef 3b
       -0.01431441 0.009109462 -0.016420884 0.007313492

encoder.transformer.out_proj.weight f4 [64, 64]
000000 cd 4c c7 3d 95 f0 40 bd 5b 15 3a 3d b8 f0 92 3d
       0.097314455 -0.047104437 0.045430522 0.0717482
000010 c2 1a b8 bc b2 5e c1 bd ee f5 33 bd eb 37 01 be
       -0.022473697 -0.0944189 -0.04393571 -0.12618987
000020 37 c7 a5 bc 65 71 b1 3c 02 4a e1 bd 37 c1 5d bc
       -0.020236595 0.021660516 -0.11000444 -0.013534836
000030 77 19 2f 3d 76 dc ae 3d 20 af ee bd 72 0b c3 3d
       0.042748895 0.08538143 -0.11654496 0.095236674
000040 6e 66 8e 3d de 94 d8 bd c6 43 b4 3d 45 f0 d5 3d
       0.06953131 -0.10575269 0.08801989 0.104462184
000050 66 c8 c3 bd fc 13 a7 3d 42 fa 69 bd b9 dc eb 3b
       -0.09559707 0.081581086 -0.05712343 0.007197943
000060 ed 34 32 3d 56 7b e7 3c 34 fc 8d bc e8 a1 ce bd
       0.043507505 0.028257053 -0.017332174 -0.10089475
000070 42 5f 12 be 52 1b 7c 3d 67 81 bf 3c 7a d8 16 3d
       -0.1429415 0.061549492 0.023377134 0.036827542
000080 2b d7 09 3e e1 68 25 bd 18 64 d7 bc 5c 61 a0 3a
       0.13460986 -0.040383223 -0.026292846 0.0012236047
000090 54 c2 f5 3d e7 68 a2 bc 39 e4 ad bd 09 09 07 be
       0.11999956 -0.019825412 -0.08490796 -0.1318704
0000a0 a7 4a c8 bd d4 f2 dd bd fb a5 f2 bd 7f e2 24 bd
       -0.09779864 -0.108373314 -0.118480645 -0.040255066
0000b0 45 10 02 bd b1 8c f2 3c e3 be c3 bd aa 1c 57 3d
       -0.031753797 0.029608103 -0.09557893 0.05251757
0000c0 5d f1 1d be 60 47 35 3d d3 fe bc bd ed fd 3a bd
       -0.15424104 0.04425752 -0.09228291 -0.04565232
0000d0 28 2c 8e 3d f9 3d e2 3d ba 22 d5 3d ec 66 23 3d
       0.06942016 0.110469766 0.10407014 0.039893076
0000e0 64 71 12 3d 0f ab a0 bd fb ed 59 3a 81 34 a2 3c
       0.03575267 -0.07845127 0.0008313355 0.019800426
0000f0 60 e3 ee 3d a9 49 e3 bd bb f3 e3 3d 12 f4 52 bd
       0.11664462 -0.11098034 0.11130472 -0.051502295
000100 b7 84 97 3c 2e 72 98 bb 6f 1f 55 bc b7 4b 16 3d
       0.0184959 -0.004652283 -0.013007983 0.0366933
000110 b3 9b b4 bd 1c bc d4 bd e9 95 b1 3d 72 0c a9 3d
       -0.0881876 -0.103874415 0.08671171 0.08254327
000120 5d 95 05 bd 51 2d 9e bd 70 e5 98 3d 74 9f 84 bb
       -0.032613147 -0.07723487 0.07465637 -0.0040473286
000130 68 da 2d bd 1e 43 c2 3d b7 76 12 bd a6 65 3f bd
       -0.042444617 0.09485458 -0.035757747 -0.0467278
000140 8e 4d 94 3d 90 3e 8a 3d 13 10 19 bb 16 80 8c bd
       0.07241355 0.06750214 -0.0023355528 -0.06860368
000150 21 a9 bf bd cd 81 a4 bc e0 1c b6 bd dd 06 19 3d
       -0.09358431 -0.020081425 -0.08892226 0.03736006
000160 1e fa 00 be a4 6c c6 bd 0a 9c c3 3d 87 3a 3a bc
       -0.12595412 -0.0968869 0.095512465 -0.011366493
000170 fa 8b 43 3d 00 24 d1 bc a8 23 c4 bd b0 3c 84 bc
       0.047740914 -0.025529861 -0.095771134 -0.01614222
000180 b5 89 e5 3d 39 f4 ba 3d 49 a1 ad 3d 12 ac 89 bd
       0.11207906 0.09128613 0.08478028 -0.06722273
000190 20 a1 7e bc 27 08 9c bc 42 0c 1c bd 86 c1 4b 3d
       -0.015541345 -0.019046856 -0.038097627 0.049745105
0001a0 84 4e 47 3d 2e 6a 2a 3c fc ad c8 bd 04 d7 14 3e
       0.048658863 0.010401292 -0.0979881 0.14535147
0001b0 cd d2 68 bc 7a 75 82 bd 5a 02 82 3d fb 04 7e 3d
       -0.014210415 -0.06370063 0.06348105 0.06201647
0001c0 c7 27 ac bd 99 7a c9 bd 53 15 c7 3b d2 96 01 be
       -0.084060244 -0.09837837 0.00607554 -0.1265519
0001d0 a8 0b 96 3d 2d b3 ee 3c 38 9e 4b 3d 11 85 c7 bd
       0.07326442 0.029138172 0.049711436 -0.09742177
0001e0 95 a7 a3 bd ec 72 ce 3d cf ac 8a bd 23 c2 b8 3d
       -0.07990948 0.10080513 -0.06771242 0.09021404
0001f0 f0 d1 44 bd f3 47 dc 3d 95 3d 05 3e 58 a0 b4 bd
       -0.048051775 0.10755911 0.13011773 -0.08819646
000200 82 1a be bd 36 2f ac bc dc 30 b5 bd 72 79 be 3c
       -0.092824 -0.021018606 -0.0884721 0.023251269
000210 10 1b 89 3c 4a 79 b3 3d 0e e9 cf bd 0b 0d 1f 3d
       0.016736537 0.087633684 -0.101518735 0.038830798
000220 08 74 7d bd d6 81 b9 bd 36 a9 c0 3d f2 22 78 bd
       -0.061878234 -0.09057967 0.094072744 -0.0605802
000230 8b 48 68 bc 13 ae e2 bd 73 72 37 3b c0 fd dd 3d
       -0.014177452 -0.11068358 0.00279918 0.108394146
000240 62 8f c3 bd f5 26 e1 bc 76 a4 be 3d 73 8d 97 bd
       -0.095488325 -0.027484396 0.09308712 -0.07400026
000250 9d 13 04 be 6c 3a c8 bc af 0b 59 3d b3 ee a9 3c
       -0.12898107 -0.02444192 0.052989658 0.020743703
000260 ea 1d 44 3d 7c b5 0f bd dd 88 24 3d f8 57 c5 bd
       0.04788009 -0.035085186 0.040169585 -0.09635919
000270 93 4f a8 bd c2 3d fa 3c 53 7e 54 bb d4 c1 05 3e
       -0.082183026 0.030547027 -0.0032423928 0.13062221
000280 9c ec a4 3d fe c1 d9 bd 79 38 de 3d 81 75 5d 3d
       0.08052942 -0.10632704 0.10850615 0.05406714
000290 5e c3 e0 3d 8c 9e f3 bd f2 04 33 bd 1b 24 9a bd
       0.10974763 -0.11895475 -0.043705888 -0.07526418
0002a0 ec 54 cc bd 41 d6 e9 bc 62 58 87 bd 1d 39 17 3e
       -0.09977135 -0.028544547 -0.066086546 0.1476788
0002b0 66 d4 36 3d 1e 0d d7 3d 8f 5c e2 3d 98 dd f5 bd
       0.044636153 0.10500549 0.110528104 -0.12005156
0002c0 99 d1 6e bd 17 75 b0 3c 97 f9 91 3d 4a 15 9f bd
       -0.058305357 0.021540208 0.071276836 -0.077677324
0002d0 b0 c6 c1 bd 59 e8 ba 3a 37 d3 52 bd cf 87 99 bc
       -0.09461725 0.0014259919 -0.05147096 -0.018741516
0002e0 4f ac 0a 3e 4c 9f bb 3c 61 ed e7 3d 84 73 21 bd
       0.13542293 0.022903107 0.11324573 -0.039416805
0002f0 8a 59 31 3d 10 4a bf bd c6 8e 88 3d 3a 81 c0 bd
       0.04329828 -0.09340298 0.06667857 -0.09399648
000300 c6 2a ab bd b1 69 a9 bd f0 69 5d bd 4d 73 72 3d
       -0.08357768 -0.08272112 -0.054056108 0.05919199
000310 5f fc 03 3b 74 d8 cc 3b 8d 54 a4 bd 04 1b 7a bd
       0.0020139439 0.006251389 -0.08023939 -0.06106092
000320 15 2a eb bc 09 64 8e 3d fd e4 f1 bd 3b ec 01 3e
       -0.02870659 0.06952674 -0.11811254 0.12687771
000330 9c b4 73 ba 4e 49 cc 3d 04 3b 81 3c ff 66 27 3d
       -0.0009296627 0.09974919 0.015775211 0.04086971
000340 cd fd be bc 6c 88 ae 3d ed aa af 3d 92 db a2 bd
       -0.023314381 0.08522114 0.085775234 -0.07952036
000350 2a f2 e8 3d 86 38 95 3b bc dd 96 3d e2 f4 a5 3c
       0.11374314 0.0045538573 0.07366511 0.02025837
000360 74 fc 06 3e 55 a2 80 3d 15 30 83 3d 0a 5c 64 bd
       0.1318224 0.062809624 0.06405655 -0.055751838
000370 38 97 7a bc 04 49 88 3c b0 66 fd 3d ab cd a9 3d
       -0.015294842 0.016636379 0.12373102 0.08291181
000380 ab c1 9a bb 88 2d 12 3a 95 e7 a2 3d 13 a0 54 3d
       -0.004722794 0.00055762427 0.07954327 0.05191047
000390 8c c6 41 bb a6 90 0f be 89 d2 5f 3d 99 b7 d0 bd
       -0.0029567806 -0.14020023 0.05464414 -0.101912685
0003a0 a0 17 e4 3c 76 94 16 be 21 78 0b bd f0 46 c1 3d
       0.027843297 -0.14705071 -0.03405011 0.094373584
0003b0 1f e1 bd 3d a4 8d 50 bd 85 37 51 3d 7a 09 96 3d
       0.09271454 -0.05091633 0.05107834 0.07326026
0003c0 62 31 b1 3c 0d 41 ea 3d 11 cd 98 bd 88 07 d2 3d
       0.021629993 0.11438189 -0.07460988 0.10255343
0003d0 27 cf 11 3d c8 62 c1 3d 96 2d db bd e4 65 c7 bd
       0.035597946 0.09442669 -0.10702054 -0.09736231
0003e0 b1 c8 8d 3d aa 59 4e 3d 87 99 77 bd b4 93 40 bd
       0.069230445 0.05037848 -0.06044915 -0.04701586
0003f0 2e eb 52 bc 5d a6 1f bd b0 c9 34 3b 80 15 2b 3d
       -0.012873454 -0.038977016 0.0027586035 0.04176855

encoder.transformer.out_proj.bias f4 [64]
000000 26 e6 45 bc ea 3e 03 bd 2b 56 18 bc c2 f1 98 3b
       -0.012078797 -0.03204242 -0.009297888 0.0046674917
000010 39 15 0f bc a2 d2 6c bc ea b1 b5 bb 16 3d 91 3c
       -0.008733087 -0.014454516 -0.0055448906 0.017729323
000020 57 c4 7c bc 15 d8 78 3c dc b4 a8 3c 95 76 de bc
       -0.01542767 0.015188237 0.020594053 -0.027156154
000030 0f c0 15 3c 9e da 12 bc a4 7f 3f 3b fc 7b e5 bc
       0.009140029 -0.008963255 0.0029220367 -0.028013222
000040 cc d0 20 bc bd 09 7a 3b b0 31 b6 3b b3 17 38 bc
       -0.009815406 0.0038152777 0.0055601224 -0.011236119
000050 3c 74 1c bb 46 5e 86 3c 69 e0 a7 bb c3 ed 1e bc
       -0.0023872992 0.016402375 -0.0051231873 -0.0097002415
000060 15 70 83 b9 7b 57 5c bc 9b 29 85 3b af c2 a9 3a
       -0.00025069775 -0.013448591 0.0040637976 0.0012951697
000070 11 d7 82 3c 11 96 59 bb 45 9c 3f 3c 0e 51 8c 3c
       0.015971692 -0.0033201019 0.011694972 0.017128494
000080 7b 33 83 bb 40 32 cb 3c e5 d5 52 bc 25 b5 97 3b
       -0.0040039397 0.024804235 -0.012868379 0.0046297484
000090 7a fe 46 3b 31 dd e7 3b fb 81 1d bb 43 c3 30 3b
       0.0030364082 0.0070759286 -0.0024033773 0.0026971854
0000a0 b6 4e 80 3c 28 85 a5 3b c4 fa 3d 3c fc be 49 3c
       0.015662532 0.005051274 0.011595432 0.012313601
0000b0 e7 54 51 b9 18 fc 6e 3c f3 e6 62 39 c2 1d b4 3b
       -0.00019963422 0.014586471 0.00021639075 0.0054967115
0000c0 3d 7b 95 3c d2 6a 4d bc 93 0c 5b bc 51 f4 a3 3b
       0.018247241 -0.012537675 -0.013369697 0.00500349
0000d0 11 d4 96 bc 86 39 6a bb 3a f4 c0 bc f5 a9 27 bb
       -0.018411668 -0.0035739853 -0.023553956 -0.002558348
0000e0 a6 be 19 bc f3 5a ca 3b f5 7e 84 3c 1e e5 8e 3c
       -0.009383833 0.006175393 0.01617382 0.017443236
0000f0 96 1d 5c 3c 3a 75 a3 3a 9c 7e 9f bc 3e 07 b6 3b
       0.013434788 0.0012470849 -0.019469552 0.0055550626

encoder.ln1.weight f4 [64]
000000 b9 06 78 3f 8a 05 85 3f 44 c0 7b 3f f3 fc 75 3f
       0.9688526 1.0392315 0.9834025 0.96089095
000010 df 47 77 3f 97 4a 83 3f 76 f5 82 3f 37 e9 85 3f
       0.9659404 1.0257138 1.0231159 1.0461797
000020 be 69 84 3f 80 43 83 3f 56 1a 80 3f 88 95 81 3f
       1.034477 1.0254974 1.0008037 1.0123758
000030 d6 e5 7a 3f 56 4e 81 3f 2f 9d 7e 3f f4 e0 80 3f
       0.9800695 1.0102031 0.99458593 1.006865
000040 a4 c9 80 3f 1f 5d 83 3f 1e 7a 7d 3f 73 2c 80 3f
       1.0061536 1.0262793 0.9901446 1.0013565
000050 22 5a 7b 3f 0c 43 79 3f 5b 34 82 3f 0f e1 80 3f
       0.98184407 0.9736793 1.0172228 1.0068682
000060 ce 23 7e 3f 5b ca 7c 3f bc 90 84 3f 7b dd 79 3f
       0.99273384 0.9874627 1.035667 0.9760358
000070 22 af 80 3f 1e 2b 82 3f 36 60 79 3f e1 d4 7a 3f
       1.0053446 1.0169408 0.9741243 0.9798108
000080 cc 33 82 3f 03 48 83 3f 1e cb 7a 3f 25 76 7d 3f
       1.0172057 1.0256351 0.9796618 0.990084
000090 48 97 7d 3f 8a d3 81 3f 30 dd 83 3f ac 28 83 3f
       0.9905896 1.0142682 1.0301876 1.0246787
0000a0 8b 07 80 3f 05 45 80 3f 32 8d 77 3f 05 0d 83 3f
       1.0002302 1.0021063 0.9669982 1.0238348
0000b0 c0 93 83 3f 08 17 83 3f 14 53 80 3f c0 4f 83 3f
       1.0279465 1.0241404 1.0025353 1.0258713
0000c0 f0 06 83 3f bf e8 7f 3f b1 fe 82 3f b4 16 82 3f
       1.0236492 0.9996452 1.0233976 1.0163178
0000d0 1c 99 84 3f 81 05 7a 3f 30 38 80 3f 9b d2 7c 3f
       1.0359225 0.9766465 1.0017147 0.9875886
0000e0 c6 82 7d 3f 90 df 7e 3f 47 d5 78 3f 59 7a 85 3f
       0.9902767 0.9955988 0.97200435 1.0427963
0000f0 f4 9a 78 3f 4b 69 7d 3f fc fe 83 3f 31 d6 7e 3f
       0.9711144 0.9898879 1.031219 0.9954558

encoder.ln1.bias f4 [64]
000000 59 51 81 bc 20 3e e5 bc 80 b4 aa 3a d8 c8 a9 3b
       -0.01578586 -0.027983725 0.0013023764 0.005181413
000010 d0 9d 5e bb 9c 75 d4 bc b9 f1 0b bc 82 be 18 3c
       -0.0033968575 -0.025934987 -0.008541518 0.009322764
000020 54 3c d0 bc d6 16 35 3c 57 7c 0d 3d 2f 07 20 bd
       -0.025419392 0.011052808 0.034542408 -0.03906935
000030 6b 8d 43 3c a3 4a bd bc 9a a5 f9 3b f9 bf 28 bd
       0.011935572 -0.023106879 0.007618618 -0.041198704
000040 a9 f1 cf bb a8 2f 56 3b ca 9a 96 bb 0a 85 18 bc
       -0.006345947 0.0032682214 -0.004596089 -0.009309063
000050 d8 04 51 3c 82 92 97 3c 23 15 57 3b 1b 35 15 bc
       0.0127575025 0.018502478 0.0032818995 -0.0091069
000060 81 aa 2d 3c 90 16 b2 bc 74 71 c0 3b 67 4b 23 bb
       0.010599733 -0.021739274 0.0058728997 -0.002491677
000070 ec ca 6d 3c 13 a5 ab b9 07 2b a4 3c 84 fc 9e 3c
       0.014513712 -0.00032738651 0.020040048 0.019407518
000080 9d 3a c7 3b 1b 45 f4 3c f9 57 90 bc 58 d5 6a 3c
       0.0060799853 0.029818108 -0.017620074 0.014333092
000090 d8 0a b3 3b d7 8d 24 3c 76 55 06 bc 7b fb 98 3c
       0.005463939 0.010043583 -0.008199086 0.018674603
0000a0 d7 5f 16 3c 62 b5 4e 3c 9e 9f 3a 39 72 c7 d8 3c
       0.009178123 0.012616487 0.00017797804 0.02646229
0000b0 21 bc 6b bc 18 13 b9 3c 1d d9 15 bb 8e 73 91 3b
       -0.014388115 0.022592112 -0.0022865005 0.004438824
0000c0 a0 6d 83 3c c1 f1 21 bc a4 a8 26 bb 50 13 09 3c
       0.016043484 -0.009884299 -0.0025430107 0.008366421
0000d0 78 ff a6 bc be 6c 98 ba f3 50 df bc e5 d9 1a 3b
       -0.020385489 -0.0011629087 -0.02726028 0.002362841
0000e0 06 10 35 bc 36 e0 9d 3c d3 76 ac 3c 63 e0 04 3d
       -0.011051184 0.019271951 0.021052754 0.032440554
0000f0 aa b0 0f 3c ae df 8a 3b 9b c3 10 bd 7d 80 eb 3a
       0.008770147 0.0042380905 -0.035342794 0.001796737
