experiments/model_32_40_2026-01-17_1049/model.pt (torch, 98848 bytes, 21 tensors)

encoder.graph_embed.GCN_in.A f4 [9, 9]
000000 e5 6d 7e bf 48 c0 9d be 14 20 50 be db b1 ac bf
       -0.99386436 -0.3081076 -0.20324737 -1.3491777
000010 f0 96 f3 bf 79 bc 1e 40 3e 14 f5 bf 47 bb 2e bf
       -1.9030437 2.4802535 -1.9146802 -0.6825451
000020 94 35 2c 3e 18 a6 52 bf 14 53 2b c0 7d f8 f7 bf
       0.16817313 -0.8228469 -2.6769457 -1.9372708
000030 17 08 9b bf 92 6e 02 bf a3 2c bf 3f 8c 09 fa bf
       -1.2111844 -0.50949967 1.4935497 -1.9534163
000040 16 46 d7 be e2 10 07 bf 85 c3 84 bf bb 79 5c bf
       -0.4204566 -0.52760136 -1.0372168 -0.86123246
000050 25 f0 9f 3d 1a ae a4 3f 97 a9 0b 3f 74 47 99 3e
       0.07809476 1.2865632 0.5455565 0.29937327
000060 fa 58 99 3f 40 00 8e be b1 87 2e 3f 14 34 6f 3f
       1.1980278 -0.27734566 0.681758 0.9343884
000070 39 2e bd bf 95 81 87 3e 4f e8 c6 3d ad e8 4a bf
       -1.4779731 0.2646605 0.09712278 -0.79261285
000080 68 57 d1 3f 27 1d 2a bf d0 fe a4 be c0 c9 9b 3f
       1.6354799 -0.6645073 -0.32225657 1.2170944
000090 a5 82 3b bf 33 f0 98 bf 53 8b 95 3e 1a 3e 7a be
       -0.7324622 -1.1948303 0.29207858 -0.24437752
0000a0 a6 da 44 3f 19 bf ed 3d eb 3e e3 3f 1f e3 a6 bf
       0.7689613 0.116087146 1.7753576 -1.3038062
0000b0 f8 dd 82 3f c1 10 2f 3d cb 3e 17 bf 78 0d 4d bf
       1.022399 0.042740587 -0.5908019 -0.80098677
0000c0 90 0c ee be d8 9d 77 3f d6 90 c9 3f 05 e8 fa be
       -0.4649396 0.96725225 1.5747325 -0.49005142
0000d0 f0 4c 89 bf da ce a0 3f 57 17 bf 3e b4 20 ad bf
       -1.0726604 1.2563126 0.37322494 -1.3525605
0000e0 b3 49 af be 1d 7f 7b 3f e3 ad d0 3d 13 91 5c 3f
       -0.34235916 0.98240834 0.10189416 0.86158866
0000f0 07 1c db 3d 44 15 a3 be 99 0d 72 be df 5e f0 3e
       0.10698705 -0.31852162 -0.23638 0.4694738
000100 db c8 7e bf 5c cf 93 3f 8a a6 29 bf 7b b6 ad 3e
       -0.9952523 1.1547656 -0.66269743 0.33928284
000110 81 ed cd 3e b1 02 a5 3e d9 ef e6 be c0 9f 4b be
       0.40220264 0.32228616 -0.45104864 -0.19885159
000120 7c 2e c8 be db 9f 23 bd 5a b3 51 bf 81 db a1 bf
       -0.39097965 -0.039947372 -0.81914294 -1.2645112
000130 5e e2 12 3f 8f 1c c4 3f 5f ff 65 bf a9 43 4e be
       0.5737666 1.5321215 -0.8984279 -0.20142998
000140 d3 88 0b bf
       -0.5450565

encoder.graph_embed.GCN_in.linear.weight f4 [32, 16]
000000 f0 ab 03 3e c8 14 59 3e db dc 1a 3e 7b 74 91 3c
       0.12858558 0.21199334 0.15123312 0.017755738
000010 b6 96 a2 3c b8 69 87 3d 2e 10 97 3e ae be 44 3e
       0.019847255 0.06611961 0.29504532 0.19213364
000020 7a 8e d8 3d 20 c4 2d 3c 7e 7f 02 3d 11 c7 28 be
       0.1057405 0.010605842 0.031859867 -0.16482188
000030 38 2d 9f 3d 5a 6e 0e 3d 27 c5 03 3e ef cf a6 bd
       0.07772297 0.03477321 0.12868176 -0.08145129
000040 2a d9 51 3d 4c 9c ad bb 4b 2b c0 3d 69 99 fc 3d
       0.051232494 -0.005298173 0.093832575 0.12333948
000050 50 61 50 be c9 9e 71 bd 2a 38 b2 3d ab 0a 63 3d
       -0.20349622 -0.05898932 0.08702119 0.055430096
000060 e1 84 8b 3c af 39 18 bd da db 88 be 92 8c 43 3e
       0.017031135 -0.037164386 -0.26730233 0.19096592
000070 ff 0d 07 3e dc 4d c1 3c 59 c8 f1 bc 81 60 27 bd
       0.13188933 0.023596697 -0.029514479 -0.040863518
000080 11 7c 3b 3e 65 ea 8e 3d f9 f2 6e 3e 8a 5f 24 be
       0.18309046 0.06978301 0.23334874 -0.1605207
000090 b7 59 66 be a5 b9 05 3e 80 ca 51 bc 71 6c b3 3c
       -0.22495161 0.13059099 -0.012804627 0.021902295
0000a0 c5 eb c9 3d d6 2f 0d be f6 96 92 3a 19 1e 21 3b
       0.098594226 -0.13787779 0.0011183906 0.002458459
0000b0 2d 5b a1 3d b3 a8 77 3d 60 d3 4d bc 4f 02 66 bd
       0.078787185 0.06046362 -0.012562603 -0.056154545
0000c0 a3 bf dc bd 61 f2 6f 3c c7 2a f4 bd 4c 7f ae 3d
       -0.10778739 0.01464519 -0.11922222 0.08520374
0000d0 7b f4 25 3e 77 db 20 3d 2a 1b 4f 3e 86 2e 2a 3e
       0.16206543 0.039271798 0.20225206 0.1661931
0000e0 91 f6 a6 bc 56 1c eb bd 9c 6b 30 bd 4d 22 c2 3d
       -0.020381244 -0.11480014 -0.043071374 0.094791986
0000f0 a6 47 40 bb 75 0f dc 3d bc 85 8e 3d ff d8 94 3d
       -0.002933958 0.10745136 0.069591016 0.07267951
000100 92 2b 26 3e c3 0b 6a be fa 71 d7 bd 35 04 5b be
       0.16227558 -0.22856049 -0.10519786 -0.21388324
000110 f9 4e c8 bd 4e 3a 8c 3d 11 a2 0f be 1b 82 79 bd
       -0.09780688 0.06847058 -0.14026667 -0.060915094
000120 65 d4 9a bd 23 8c ea bd 11 61 a6 3c 50 f8 5d be
       -0.07560042 -0.1145251 0.020309957 -0.21676755
000130 00 20 50 bd fd 28 a4 bd 50 f3 1b bd 08 44 f7 3b
       -0.050811768 -0.080156304 -0.038073838 0.0075459518
000140 0d 48 2b be 3a b0 27 3e 8b b5 5e 3e f7 85 bf bc
       -0.16726704 0.16375819 0.2174894 -0.02337931
000150 1a 84 34 3c 31 5e 57 be f1 24 78 3d e4 e7 0b be
       0.011017824 -0.21032025 0.060582105 -0.13662678
000160 77 b1 26 3e a0 26 ae bd fa 3c 8f bd 4c 9d 02 3d
       0.16278635 -0.08503461 -0.06994052 0.03188829
000170 d1 e0 d1 bd 38 f3 b8 3d 50 bb 8f bd ca 04 87 bd
       -0.102479585 0.09030765 -0.07018149 -0.0659271
000180 42 34 62 bd 68 23 9e be 89 86 a7 3e d9 b8 58 3d
       -0.05522562 -0.30886388 0.3271983 0.05291066
000190 9a ca 8b 3e d1 31 a0 3d eb 35 8e 3c 3b 49 62 be
       0.2730301 0.07822002 0.017359694 -0.22098248
0001a0 0a fa 54 3d 62 ff 84 3d fc fa 56 3d f0 c2 45 be
       0.05199627 0.06494023 0.05248545 -0.19312644
0001b0 db 6e a4 bc 04 44 4b bd 40 4c e0 bc b8 85 06 be
       -0.020072391 -0.04962541 -0.027380109 -0.13136947
0001c0 99 dc 9a bd ba bf 4e bd a8 b0 b8 3c a0 97 0a be
       -0.07561607 -0.050475813 0.022545174 -0.13534403
0001d0 21 5c 36 3e 75 48 88 3d dc 95 24 be 35 f0 35 bc
       0.17808582 0.06654445 -0.16072792 -0.011104633
0001e0 b0 a4 74 bd d6 af 01 be 89 77 aa 3e 67 cf 46 3e
       -0.05972737 -0.12664732 0.33294323 0.19415055
0001f0 18 99 11 3d 18 38 3a 3e 75 11 99 3d 65 8e c2 3d
       0.035546392 0.1818546 0.07474033 0.09499816
000200 9a 42 85 bd 9e 69 7b bd 32 a9 13 3e eb 51 b2 3d
       -0.06506844 -0.06138002 0.14420012 0.08707031
000210 dc 0a db ba b5 01 ec 3d f6 8c 3c 3d d4 55 af 3d
       -0.001671161 0.11523763 0.04603287 0.08561292
000220 60 57 64 3e 1c 13 ce bd b5 f5 2c be 01 b6 a5 3d
       0.22298956 -0.100622386 -0.16890605 0.08091355
000230 9d f0 00 be 07 f7 42 3e a9 36 63 bd 2d 10 13 3e
       -0.12591787 0.19039546 -0.05547205 0.1436164
000240 7f 45 67 3e c5 eb af bd e1 34 12 be 08 28 59 bd
       0.22585104 -0.08589891 -0.14277984 -0.053016692
000250 27 b3 e7 bd 78 a8 f9 3d 13 63 c4 bd 15 b2 46 3e
       -0.113134675 0.12190336 -0.095892094 0.1940387
000260 fb f6 05 3e 44 c8 e6 bd 15 00 94 3d 0b ac e4 bd
       0.13082497 -0.112686664 0.07226578 -0.11165627
000270 49 7b bb bd ee ef e8 bd fe 3e b1 bd 35 df e6 bd
       -0.09154374 -0.11373888 -0.08654593 -0.11273042
000280 9f 2b 8b 3d a6 87 dd bd 43 9d d0 bd 0b 8c 00 3e
       0.067954294 -0.108168885 -0.10186245 0.12553422
000290 0e 76 bc 3d 55 62 42 3e 53 03 17 be e4 d1 49 3d
       0.09202205 0.18982823 -0.14747362 0.049272433
0002a0 80 43 2f 3d 1f a4 9f bd d0 66 75 be b3 71 84 bd
       0.042788982 -0.077949755 -0.23965001 -0.06466999
0002b0 67 51 62 3d c0 3d 94 bc 1f cf d2 3d a3 92 5f bc
       0.055253413 -0.018095851 0.102934115 -0.013645801
0002c0 fa 59 89 3e d7 b3 c5 3d 5e c6 82 3d 01 47 41 bd
       0.2682646 0.09653442 0.06385492 -0.047186855
0002d0 c5 83 52 bc 70 de 3c be da 66 f5 bd b4 67 59 3e
       -0.012848799 -0.18444228 -0.11982508 0.21230966
0002e0 79 8c 06 3e 9b 80 50 be d6 98 b5 3d ac 8b 10 3e
       0.13139524 -0.20361559 0.08867042 0.1411578
0002f0 ae ba c0 bd 69 a3 40 be d2 3f 7b bc fd d6 0f 3e
       -0.09410606 -0.18812336 -0.01533504 0.14046855
000300 43 ec d9 3c 84 ae 16 3e 96 99 9b 3d 83 3f 16 be
       0.026601916 0.1471501 0.075976536 -0.14672665
000310 0d 56 9f 3d 75 59 62 3e bd 1b e7 3d fc fc 20 3e
       0.07780085 0.22104438 0.112845875 0.15721506
000320 40 5a e6 3b 61 3d c8 3c 53 d8 a3 3a e7 7b 17 bc
       0.0070298016 0.02444333 0.0012500383 -0.009245849
000330 f6 da 4d 3d 47 33 d6 bd 0d 94 18 3d 0f c4 a9 3d
       0.050257646 -0.10458999 0.037250567 0.08289348
000340 8d 12 91 bd 59 1a ae 3e ad 6d 83 bd b2 3a f3 bc
       -0.070836164 0.34004477 -0.06417403 -0.029691074
000350 96 4e 47 be 77 2a 08 3e c9 5d 9f be ef 74 dc bb
       -0.19463572 0.13297449 -0.3112624 -0.0067278068
000360 b7 39 dd bd 06 df 39 bc cb 93 d8 bd 0b 59 9e 3d
       -0.10802024 -0.011344677 -0.10575064 0.07731827
000370 97 8d 93 3c 43 40 13 3e d7 39 06 bd cd f5 cb 3d
       0.018011851 0.14379983 -0.032770004 0.09958992
000380 44 cc 73 3c 6a 2f 92 3e 90 50 6c be ac 7b 27 be
       0.014880244 0.285518 -0.23077607 -0.16355771
000390 6f 97 81 3e c5 ea 1c be 55 8c f3 bc ad d8 25 be
       0.25310847 -0.15323932 -0.029730001 -0.16195937
0003a0 17 dd f9 3d b2 25 bf 3b ef 6d 2c be 82 26 b3 3b
       0.12200373 0.005833351 -0.16838811 0.005467237
0003b0 ae 18 72 3d 5a 51 46 3c 2b 50 31 3d 39 53 8d bd
       0.059105568 0.012104357 0.043289345 -0.06900639
0003c0 7b 71 6a bc 67 5b 9c 3d 5b de a2 3c db 84 7d 3e
       -0.014309282 0.07634621 0.019881418 0.24757712
0003d0 76 ed fe 3d e4 32 2e 3d ac 46 55 be 77 e9 e9 bd
       0.12447636 0.042529 -0.2082774 -0.11421483
0003e0 eb f7 b4 3d e7 bd 83 be e8 2e 0d 3e 1a 92 9a 3d
       0.08836349 -0.25730821 0.13787425 0.07547398
0003f0 6a d4 db 3c 1b 33 bd bd 10 2b 82 bc 1a 93 99 bd
       0.026834685 -0.09238263 -0.015889674 -0.074987605

encoder.graph_embed.GCN_in.linear.bias f4 [32]
000000 80 f3 da 3d 2e 9e d3 3d ca 48 b6 3d 32 21 0a 3e
       0.10690975 0.10332905 0.08900602 0.13489226
000010 d5 1f ea bd 42 fb d2 3c f2 63 2a 3e 50 11 e4 bc
       -0.11431853 0.025754575 0.16639689 -0.027840286
000020 d3 d3 a0 3c 34 62 ac bd 5b f5 8f bd 39 60 ee bd
       0.019632256 -0.08417168 -0.0702922 -0.11639447
000030 9f 5e 30 3e a7 a3 27 3e f2 39 31 3e 1b 44 f0 3d
       0.17223595 0.16371022 0.1730726 0.1173174
000040 01 e1 00 bd a2 f3 a6 3d 62 b3 81 be b1 53 f1 bd
       -0.03146458 0.08151938 -0.2533217 -0.11783541
000050 a7 9e 1e be cc 0d 08 3e 47 70 a1 bd ea fe 27 3d
       -0.15490209 0.13286513 -0.07882743 0.04101459
000060 3d 66 46 3d 8d dc 1f bd 77 40 88 3c f7 9f 31 3d
       0.048437346 -0.039028693 0.016632302 0.043365445
000070 3b 4d fb 3c a4 8f ff bd 65 a9 2e 3e 52 df 95 bb
       0.030676475 -0.12478569 0.17056806 -0.004573741

encoder.graph_embed.bn.weight f4 [32]
000000 43 67 70 3f ae 29 6d 3f e1 0e 80 3f 6c 28 52 3f
       0.93907565 0.92641723 1.0004541 0.8209293
000010 82 94 78 3f ee 8a 6e 3f c6 e0 6b 3f 76 78 7d 3f
       0.97101605 0.9318074 0.9213985 0.99011934
000020 27 28 5c 3f a0 04 69 3f 40 d2 7f 3f e2 19 73 3f
       0.8599877 0.9102268 0.9993019 0.9496137
000030 2b 48 7b 3f b6 4c 78 3f c5 d8 79 3f 72 1e 7b 3f
       0.98156995 0.9699205 0.9759639 0.9809333
000040 93 13 71 3f 3f 1b 77 3f 71 67 55 3f 17 20 79 3f
       0.9417049 0.9652595 0.83360964 0.9731459
000050 d2 f2 75 3f cd b0 85 3f 1d 96 7b 3f 71 0c 7e 3f
       0.9607364 1.044458 0.9827593 0.99237734
000060 ff 4e 66 3f 01 83 6b 3f 4d 83 5d 3f f1 c4 6f 3f
       0.8996429 0.9199677 0.86528474 0.93659884
000070 b6 0a 82 3f 14 69 64 3f a9 42 82 3f 0e 1b 7b 3f
       1.0159519 0.89222836 1.0176593 0.9808816

encoder.graph_embed.bn.bias f4 [32]
000000 27 7d 02 3b b2 15 e3 3c 6e b1 db bb 41 a3 61 bd
       0.0019911022 0.027720306 -0.006704501 -0.05508733
000010 e8 fb 66 bd 17 c3 9c 3d a4 ca 81 bd a5 8f 97 3d
       -0.05639258 0.07654398 -0.06337479 0.07400445
000020 58 31 4c 3c f7 87 73 3b e0 79 07 bd 30 80 35 bd
       0.012462936 0.0037159899 -0.033075213 -0.044311702
000030 71 63 99 3d d3 50 eb 3c 11 e7 a4 bd 07 2c 3b 3d
       0.0748967 0.028725063 -0.08051885 0.045696285
000040 a6 f8 3f 3d f6 a4 f5 ba b4 f6 8c bd eb e6 c3 3d
       0.04686799 -0.0018741179 -0.068829924 0.095655285
000050 b8 64 46 bd 51 63 cd 3c e2 47 9a bc dd f7 7b 3b
       -0.048435897 0.025071772 -0.018833105 0.0038447299
000060 2d 87 a7 3c 01 a5 29 3d 0a ed ba bd bb 8d 95 3b
       0.020450199 0.041417126 -0.09127243 0.0045640147
000070 72 47 3d bb 25 b5 b1 3d 2a dd 22 bd cc e2 ae 3c
       -0.0028881696 0.08677129 -0.0397617 0.02134838

encoder.graph_embed.bn.running_mean f4 [32]
000000 87 0d a1 3b 1d 51 2c bd 6a 39 37 bb b2 1c 30 bc
       0.0049149427 -0.042069543 -0.0027957805 -0.010749029
000010 73 11 bf bb a7 e3 30 3c 8d 33 ea 3c e2 93 6c 3b
       -0.0058309375 0.010796464 0.028589034 0.0036098887
000020 7e 09 60 ba 36 52 b6 bc 63 15 97 3c e7 ab 67 3c
       -0.00085463363 -0.022255998 0.018442815 0.014140106
000030 45 b9 b2 bc 9f 75 fb ba 2a 57 5d 3b 17 b0 78 3c
       -0.021816859 -0.0019184834 0.0033773878 0.015178702
000040 7a 2b 0a 3c a4 d5 2d bc d0 3b 39 3b 4d c0 4d 3c
       0.008433217 -0.010610018 0.002826441 0.012558055
000050 88 ad 0f bd c5 0d f8 3b fd 0c aa 3c 46 a8 e5 bb
       -0.0350776 0.007570001 0.020758146 -0.007008585
000060 01 4c 11 3d 45 ad d0 bb 68 67 e8 bc f9 34 0f 3b
       0.035472874 -0.0063683116 -0.02836962 0.0021851643
000070 30 68 ae 3a 76 24 d7 bb 06 92 05 3c 18 26 85 bb
       0.0013306197 -0.006565626 0.0081524905 -0.004063379

encoder.graph_embed.bn.running_var f4 [32]
000000 b2 b6 86 3b 7e 44 16 3c 3a 2e 1f 3b ae dc bd 3a
       0.0041111344 0.009171603 0.0024289028 0.0014485323
000010 54 11 0e 3a 97 a5 46 3b 51 9f 6e 3b 1d 00 94 3b
       0.0005419452 0.0030311102 0.0036410878 0.004516615
000020 67 20 29 3b 0c 78 82 3b cb bb 26 3c b3 13 6a 3b
       0.0025806667 0.003981596 0.010176609 0.0035717308
000030 d4 88 18 3b 93 ba 76 3b 56 16 33 3b 35 3f 3c 3b
       0.0023274915 0.0037647828 0.0027326546 0.0028724198
000040 99 38 b7 3a 7d 68 2b 3b d2 08 80 3b 64 94 f0 3a
       0.0013978659 0.002615481 0.0039073015 0.0018354771
000050 bb b4 58 3b ed 74 d3 3b c2 48 58 3c 82 13 79 3b
       0.0033066708 0.0064531476 0.013200941 0.0038006012
000060 ea 81 b1 3b 8c 19 3f 3b 13 5a 33 3b e2 98 09 3b
       0.0054170983 0.0029159514 0.002736692 0.0020995666
000070 38 4f 83 3b ca 2b e5 3a a0 41 b7 3a 19 5c 78 3b
       0.0040072463 0.0017484364 0.001398135 0.0037896691

encoder.graph_embed.GCN_layers.0.A f4 [9, 9]
000000 77 0f 5d bf af 95 9e 3f 55 5e ad be 27 f4 f4 bd
       -0.8635172 1.238943 -0.33861032 -0.11960631
000010 66 2a b8 be a0 a9 9c be 08 aa 35 bf ef fc 23 3f
       -0.35969847 -0.30598164 -0.7096257 0.6405782
000020 ee 2c f7 3e 37 0f 51 3f 59 11 b0 bd 6e 96 82 3e
       0.48276466 0.8166384 -0.08597059 0.25505394
000030 db 6d ec 3e b6 88 c7 3f 92 62 20 bf cf c0 32 3f
       0.46177563 1.5588596 -0.62650406 0.6982545
000040 e6 1c e1 3f 0e bf 7b 3d 2b 41 3d bf 32 55 91 3f
       1.7586944 0.0614615 -0.73927563 1.1354125
000050 2a 5e 13 bf d5 c2 43 bf 7b d3 f8 bd 49 3b a5 3c
       -0.5756556 -0.76469165 -0.12149712 0.02016987
000060 47 c8 49 bf 3c 66 d1 be ee 66 81 3f 92 4e 24 bf
       -0.78821224 -0.4089831 1.0109537 -0.6418239
000070 94 83 e2 3e 3a 13 d8 be c2 06 df 3e ec cc be be
       0.4424101 -0.4220217 0.43559843 -0.37265718
000080 dd 94 5a bf 32 75 91 be 72 16 a7 3e 8f b7 99 bd
       -0.853834 -0.28409725 0.32634312 -0.07505714
000090 73 de 6a bf a7 61 97 bd b6 f3 4f 3f 53 71 bc be
       -0.9174568 -0.073916726 0.8123125 -0.3680521
0000a0 ee 4f 1c 3f 12 c4 0c bf 20 d1 cd 3e 0d 5f 42 bf
       0.61059463 -0.5498668 0.40198612 -0.75926286
0000b0 8b 64 1e 3e 04 6d b1 3f fd df fa 3f d2 70 02 be
       0.15468042 1.3861394 1.9599606 -0.1273835
0000c0 9b a2 c7 be 39 ac 7b 3f 8d 24 bb be 39 c2 c9 bf
       -0.38991246 0.98309666 -0.36551324 -1.5762397
0000d0 b7 82 25 bf 78 2f d1 3d fc a9 a2 3f e6 cb 05 3f
       -0.6465258 0.10214132 1.2708125 0.5226425
0000e0 d1 82 da bd 8c fa d9 bd 6d 54 95 3c 1a 7c 11 bf
       -0.106694825 -0.10643491 0.018228734 -0.5682999
0000f0 71 60 0a bf f1 31 39 bf 46 e2 f9 3e e7 5e c8 be
       -0.5405341 -0.7234183 0.48805445 -0.39134905
000100 59 dc 5f bf c1 1b 00 40 16 ed 00 3e 66 2f bc be
       -0.874456 2.001694 0.12590441 -0.36754912
000110 95 41 8e be 2e 6d 2b be c4 71 17 be 8e 9b a4 3f
       -0.2778441 -0.16740867 -0.14789492 1.2859972
000120 b7 c0 1e bf 0e 63 e0 3e 57 3f 8b bf c3 a3 a0 3f
       -0.6201281 0.43825573 -1.0878705 1.2549976
000130 45 91 bd 3e 87 5f b5 bf 1d d3 9e 3e 80 28 6c 3f
       0.37024894 -1.4169778 0.31020442 0.922493
000140 7f 93 56 bd
       -0.052386757

encoder.graph_embed.GCN_layers.0.linear.weight f4 [32, 32]
000000 66 56 34 be c8 15 e7 bd ca 69 bd 3d 3a b4 cb bd
       -0.17611083 -0.11283451 0.09248693 -0.09946485
000010 13 03 17 3d 11 96 b5 3a 6f 2c b3 bd be 7b df 3d
       0.036868166 0.0013853927 -0.087487094 0.10912274
000020 7f 49 08 bd f7 06 2b 3e 64 0c 98 3d 38 ac 90 bc
       -0.033273216 0.16701876 0.07424238 -0.017660245
000030 71 a2 58 be 9b df 78 3d 8e d3 0e 3d 1d 90 29 3e
       -0.21155716 0.06076012 0.034869723 0.16558881
000040 1d db 8f bc 60 02 01 bd 1c b9 b9 3d 0a b5 9c bd
       -0.017560536 -0.031496406 0.0906851 -0.07651718
000050 00 dc 28 bc b2 c2 a6 3d 00 1c a6 3c 1c 7d 3a 3d
       -0.010306358 0.08142604 0.020277023 0.04552947
000060 2b ec c2 3d a1 62 12 3e c3 11 00 3d b7 01 5b be
       0.09517702 0.14295436 0.03126694 -0.21387373
000070 fd 7e 06 3e 1c 93 82 3d 98 ca 5b 3d 98 7f 85 3d
       0.1313438 0.06375715 0.053660005 0.06518477
000080 c6 13 23 be dd 38 0d 3e 48 6e 5e 3d ac 5e 3c 3e
       -0.15925512 0.13791223 0.05430439 0.1839549
000090 25 9a 0d be fd 29 67 bd 19 2d 72 3d 7d 6f 3c be
       -0.13828333 -0.056436528 0.05912504 -0.18401904
0000a0 c9 e3 1f be 87 21 85 3d 81 26 fa ba 8f f0 d0 bc
       -0.15614237 0.065005355 -0.0019084961 -0.025505332
0000b0 0f 5d 93 bd 06 12 75 be 33 51 c9 3d d3 6b c9 bd
       -0.07195484 -0.23932657 0.09829941 -0.09835019
0000c0 aa d4 71 3d 61 ae 32 3c b9 af f2 3d 90 90 00 3e
       0.059040703 0.010905833 0.11849923 0.12555146
0000d0 0b 7f 79 be 6c be dc 3b b0 ed 40 be 7d 74 2f 3e
       -0.2436487 0.0067365672 -0.1884067 0.1713428
0000e0 de 96 6e bd d3 03 85 be 2f 36 a3 bc f6 10 fb bd
       -0.058249347 -0.2597948 -0.019923298 -0.122590944
0000f0 4e 77 fc bc 60 1b dd bc 8a d6 5b be ee c9 1a be
       -0.030818608 -0.026990592 -0.21468559 -0.15116093
000100 d3 03 ca bd 05 ae 26 3d 24 7e 1f 3d bd 07 5e bd
       -0.09864011 0.0406933 0.038938656 -0.0542066
000110 e8 46 f3 ba 0b a9 d3 bd c1 63 49 3d 5a 51 04 3e
       -0.001856056 -0.10334977 0.0491674 0.12921658
000120 7c e4 6f ba e7 bf 31 be 37 35 d9 3d 95 02 9f 3b
       -0.0009151173 -0.17358361 0.10605853 0.0048526027
000130 f3 e5 1d be 57 4a 6a bd a0 82 2c 3d 24 52 98 3d
       -0.1541975 -0.057199802 0.04211676 0.07437542
000140 9b 70 1e be 45 08 86 bd c2 24 5f 3d c1 11 26 be
       -0.15472643 -0.06544546 0.054478414 -0.1621771
000150 73 30 f7 bc 54 17 20 be 23 54 07 bd fb 18 ea 3d
       -0.03017447 -0.15633899 -0.033039223 0.11430546
000160 db 2d 18 3c 3e 55 c5 bb f5 e4 82 be 05 82 9b bd
       0.009288277 -0.0060221246 -0.25565305 -0.07593159
000170 0d 1c 44 be cd c4 9a 3d b4 1a 29 3d 22 5b 98 3d
       -0.19151326 0.07557068 0.04128523 0.07439257
000180 04 4e 8d 3d 3e aa 01 3c 1e 6b 63 bd ec 1e 91 3d
       0.06899646 0.007914124 -0.055522077 0.07085976
000190 91 ef e6 3d e3 5e 69 3d 5a 3f ec 3d d0 85 1a 3d
       0.112761624 0.056975257 0.11535521 0.03772527
0001a0 c8 bf 65 bd 33 4a 30 3c 3b df 06 3e e0 2f 3d 3e
       -0.0560911 0.010759878 0.13171093 0.18475294
0001b0 6a 9f 15 be 0a cb ad bd a2 1a 81 bd ce 7c 98 bc
       -0.14611593 -0.08485992 -0.06303908 -0.018614199
0001c0 d2 5d a1 3d 57 9c 96 3d 5d 4e 82 bc 3a d3 27 be
       0.07879223 0.07354038 -0.015906507 -0.1638917
0001d0 39 80 a0 3d 92 ea 3f be 18 af 05 be e6 4b d6 3d
       0.078369565 -0.18741825 -0.13055074 0.10463695
0001e0 4a fb d4 3d 49 70 2a 3e 75 1f 81 3d 9b 66 b9 bd
       0.10399492 0.16644396 0.06304828 -0.090527736
0001f0 a7 28 12 bd b1 ee 23 3e a2 c5 f2 3d ac 68 bf bd
       -0.0356833 0.16009022 0.11854102 -0.093461365
000200 c5 2f e8 38 cd b0 8a 3d 87 e5 5e 3e be 24 b2 3d
       0.0001107152 0.06772003 0.21767245 0.08698414
000210 ce 68 57 3d 20 04 0f 3d da 3b 5a 3d 7a 8f 88 3c
       0.052590184 0.034916043 0.053279735 0.016669977
000220 98 d7 a7 3d a2 3f 45 3e ce 61 05 3c a1 72 9e 3d
       0.08195418 0.19262555 0.008140994 0.077367075
000230 8f 02 01 3e 69 3d c1 3c b6 4d d3 bb dc fb b9 3d
       0.12598632 0.023588853 -0.006448473 0.090812415
000240 3f 1b 03 3c 23 bd 0b bd e2 d4 4c 3c 31 2f 68 bd
       0.008002101 -0.03411592 0.012501927 -0.05668563
000250 14 12 a0 bd ed 56 05 3d 98 9a 6f 3d 6f 98 8d 3c
       -0.07815948 0.032553602 0.05849704 0.0172846
000260 2c fb 29 be 1a 12 db 3d 1e 41 87 3d 6d fa 15 3e
       -0.1659972 0.10696812 0.06604217 0.14646311
000270 67 b5 d3 3c 84 71 56 bd 39 42 90 3c e8 a6 8d 3d
       0.025843335 -0.05235435 0.017609702 0.069166005
000280 69 06 ca bd 78 6b 55 3b b9 5c a5 3d 54 3f b7 3d
       -0.09864504 0.0032565277 0.08074326 0.08947626
000290 73 18 03 be 46 d5 bc b9 b0 bd 61 3e 59 20 0b 3d
       -0.12802295 -0.00036017055 0.22045016 0.033966396
0002a0 8d 42 4f bc c8 56 9b 3d af 59 50 bd 85 7b a1 bd
       -0.012650144 0.075849116 -0.05086678 -0.078848876
0002b0 b6 ca 80 3d 22 26 66 be 82 60 17 be ab 79 90 bd
       0.06288664 -0.22475484 -0.14782909 -0.07054456
0002c0 13 b3 e9 bd 24 84 47 bb 98 fe 68 3c a6 af 17 3e
       -0.11411109 -0.0030443752 0.014220856 0.14813098
0002d0 57 89 e2 3d 93 3a 9f 3c f1 33 d7 3d 45 fe 84 3d
       0.11061352 0.01943711 0.10507954 0.064938106
0002e0 6b 47 b6 3d 6c 34 c3 bc c5 6d 12 be ae 0e ff 3d
       0.08900341 -0.023828708 -0.14299686 0.12453972
0002f0 16 96 ee 3d db e7 c6 bb a8 cc e8 bc 42 8f 48 3d
       0.1164972 -0.00607012 -0.0284179 0.048964746
000300 ec ba 90 3c e7 5a e2 3c 8e 10 fc 3c 8d 87 08 be
       0.017667256 0.027631236 0.030769613 -0.13332959
000310 bf 0a a1 3d f7 53 eb 3d cb 12 2f bc a8 40 4a b9
       0.07863378 0.114906244 -0.010685633 -0.00019288308
000320 2f 7e 1b be 65 d7 9d 3b 7f 59 21 bd 63 16 6c bd
       -0.15184854 0.004816937 -0.03939199 -0.057638537
000330 12 e8 14 3e 69 60 ed 3d 85 81 bf bd 9c f7 45 be
       0.14541653 0.115906544 -0.09350876 -0.19332737
000340 39 bc fb bd d9 46 1a 3d 24 fb 65 3d 56 05 45 bd
       -0.1229176 0.03766522 0.05614771 -0.048100792
000350 2c de 23 bd bf 75 09 3e 52 3b 31 be a9 ff d1 3d
       -0.0400068 0.13423823 -0.17307785 0.102538414
000360 8a a6 08 3e 48 dc de 3d 15 57 83 3b 96 5e 3a 3e
       0.1334478 0.10881859 0.0040081837 0.18200144
000370 e7 c3 2e bb d9 53 2b 3d 49 d7 42 3d 78 6b 14 3d
       -0.002666706 0.04182801 0.047568593 0.036235303
000380 ec 18 0d 3d b8 bc 10 3e eb 9e 94 3b 85 f9 d0 bd
       0.034447595 0.1413449 0.004535546 -0.10203842
000390 91 50 dc bd b0 fe 0b bc 9e 5a 0c be 14 f7 47 be
       -0.10757554 -0.008544609 -0.13706443 -0.19527847
0003a0 f9 fd 8e 3e 70 b1 44 3d da 7c 98 3c 8b b6 55 3d
       0.2792814 0.04802078 0.018614221 0.05217604
0003b0 85 8c 05 3d 36 c2 c5 bd 79 f3 33 bd 1e 99 ef bd
       0.032604713 -0.096561834 -0.043933365 -0.11699127
0003c0 a4 f0 cd 3b 48 ca 07 3e 57 45 3e bd 7a c0 b9 3d
       0.00628479 0.13260758 -0.046452846 0.09069915
0003d0 ad 1a a8 bd 04 27 e0 bd c6 c4 07 bd fe 24 32 be
       -0.08208213 -0.10944942 -0.033146642 -0.17396924
0003e0 5d 23 1b 3d bd c4 06 bd ad 20 44 3e b2 92 4d bd
       0.037875522 -0.032902468 0.1915309 -0.050188728
0003f0 aa b4 e5 3c fe 54 28 3c 54 83 c6 3d 81 c6 e2 3c
       0.028040249 0.01027417 0.096930176 0.027682545

encoder.graph_embed.GCN_layers.0.linear.bias f4 [32]
000000 5f cf 33 bc cb a8 c7 3b a5 70 01 3d 3b 4a f7 bc
       -0.010974734 0.0060931197 0.031601567 -0.030186763
000010 e9 17 cb bd 97 dc 11 3c a0 bc 59 bd 44 81 f2 3c
       -0.0991667 0.00890269 -0.053158402 0.029602654
000020 d0 5e a6 bd c3 b0 36 3d 17 94 d4 bb e7 15 a7 bd
       -0.08123553 0.044602167 -0.0064873802 -0.081584744
000030 02 ac 2d 3d 1c 9e 3b 3d 30 bf 31 3c ba 3e d8 3c
       0.042400368 0.04580508 0.010848805 0.026397098
000040 cf ef e4 3d 0e d3 a4 3b 35 01 8d bc ef 6f 99 3a
       0.11178552 0.0050300425 -0.01721249 0.0011706332
000050 3e 86 66 bc d1 8f 98 bc 9c 1d 22 bd 59 f7 bf bb
       -0.014070092 -0.018623265 -0.03957902 -0.0058583436
000060 31 77 3d 3d 1e 1d 8a 3c 3f d2 4a bb f7 b5 2e bd
       0.046256248 0.016859587 -0.003094807 -0.042654004
000070 ea c3 b7 3b 7d b8 41 3d a9 45 65 bc 02 ef b7 bc
       0.0056080716 0.047295082 -0.013993659 -0.022452835

encoder.pos_enc.pe f4 [500, 32]
000000 00 00 00 00 00 00 80 3f 00 00 00 00 00 00 80 3f
       0.0 1.0 0.0 1.0
000010 00 00 00 00 00 00 80 3f 00 00 00 00 00 00 80 3f
       0.0 1.0 0.0 1.0
000020 00 00 00 00 00 00 80 3f 00 00 00 00 00 00 80 3f
       0.0 1.0 0.0 1.0
000030 00 00 00 00 00 00 80 3f 00 00 00 00 00 00 80 3f
       0.0 1.0 0.0 1.0
000040 00 00 00 00 00 00 80 3f 00 00 00 00 00 00 80 3f
       0.0 1.0 0.0 1.0
000050 00 00 00 00 00 00 80 3f 00 00 00 00 00 00 80 3f
       0.0 1.0 0.0 1.0
000060 00 00 00 00 00 00 80 3f 00 00 00 00 00 00 80 3f
       0.0 1.0 0.0 1.0
000070 00 00 00 00 00 00 80 3f 00 00 00 00 00 00 80 3f
       0.0 1.0 0.0 1.0
000080 a4 6a 57 3f 41 51 0a 3f ba 7d 08 3f 0d 94 58 3f
       0.84147096 0.54030234 0.53316844 0.8460091
000090 3e 39 9f 3e 6b 4e 73 3f 3a 23 35 3e 83 f6 7b 3f
       0.3109836 0.9504153 0.17689219 0.9842302
0000a0 76 75 cc 3d 98 b8 7e 3f ae 36 66 3d 68 98 7f 3f
       0.099833414 0.9950042 0.05620449 0.9984193
0000b0 5b 81 01 3d 3c df 7f 3f 42 ab 91 3c a3 f5 7f 3f
       0.031617504 0.99950004 0.017781857 0.99984187
0000c0 57 d6 23 3c b9 fc 7f 3f 5a 44 b8 3b f7 fe 7f 3f
       0.009999833 0.99995 0.0056233825 0.9999842
0000d0 1c 3e 4f 3b ac ff 7f 3f 20 15 e9 3a e6 ff 7f 3f
       0.0031622713 0.999995 0.0017782785 0.99999845
0000e0 6d 12 83 3a f8 ff 7f 3f 13 6a 13 3a fd ff 7f 3f
       0.0009999998 0.9999995 0.0005623411 0.9999998
0000f0 61 cb a5 39 ff ff 7f 3f 53 77 3a 39 00 00 80 3f
       0.00031622782 0.99999994 0.00017782794 1.0
000100 b7 c7 68 3f 33 11 d5 be 0a f2 66 3f b2 e8 dc 3e
       0.9092974 -0.41614684 0.9021307 0.43146282
000110 1b 54 17 3f ec 7b 4e 3f f6 47 b2 3e a6 fa 6f 3f
       0.5911271 0.8065784 0.34820527 0.93741834
000120 f8 6f 4b 3e a5 e5 7a 3f 86 d9 e5 3d f3 61 7e 3f
       0.19866931 0.9800666 0.1122313 0.9936821
000130 c8 70 81 3d f9 7c 7f 3f 5c a5 11 3d 8e d6 7f 3f
       0.063203394 0.9980007 0.03555809 0.9993676
000140 3e d4 a3 3c e5 f2 7f 3f 9b 43 38 3c db fb 7f 3f
       0.019998666 0.9998 0.011246587 0.99993676
000150 d8 3d cf 3b b1 fe 7f 3f 08 15 69 3b 96 ff 7f 3f
       0.006324511 0.99998003 0.0035565514 0.9999937
000160 68 12 03 3b df ff 7f 3f 12 6a 93 3a f5 ff 7f 3f
       0.0019999985 0.99999803 0.0011246821 0.99999934
000170 60 cb 25 3a fd ff 7f 3f 53 77 ba 39 ff ff 7f 3f
       0.0006324556 0.9999998 0.00035565588 0.99999994
000180 c3 81 10 3e 26 70 7d bf d7 45 7e 3f ab 7f ed bd
       0.14112 -0.9899925 0.9932532 -0.11596616
000190 c2 09 50 3f 58 2f 15 3f 6c 2f 02 3f 29 6d 5c 3f
       0.8126489 0.58275366 0.5085361 0.86104065
0001a0 6c 4e 97 3e ef 90 74 3f d7 ee 2b 3e 9e 5d 7c 3f
       0.2955202 0.9553365 0.16790329 0.9858035
0001b0 c0 ff c1 3d 4f d9 7e 3f 4e 69 5a 3d c3 a2 7f 3f
       0.094726086 0.99550337 0.053323083 0.9985773
0001c0 1f b9 f5 3c 83 e2 7f 3f c6 31 8a 3c ad f6 7f 3f
       0.0299955 0.99955004 0.016869437 0.9998577
0001d0 0d 6e 1b 3c 0d fd 7f 3f a8 cf ae 3b 11 ff 7f 3f
       0.009486687 0.999955 0.005334813 0.99998575
0001e0 92 9b 44 3b b5 ff 7f 3f 17 1f dd 3a e8 ff 7f 3f
       0.0029999954 0.9999955 0.0016870227 0.99999857
0001f0 10 b1 78 3a f9 ff 7f 3f 7e d9 0b 3a fe ff 7f 3f
       0.00094868336 0.9999996 0.0005334838 0.9999999
000200 cf bd 41 bf 30 55 27 bf ec 49 47 3f 9e af 20 bf
       -0.7568025 -0.6536436 0.7784717 -0.6276797
000210 de 1d 74 3f b1 2e 9a 3e bc 1f 27 3f ed eb 41 3f
       0.95358074 0.30113748 0.652828 0.7575062
000220 d7 61 c7 3e a7 ca 6b 3f c5 65 64 3e 09 8d 79 3f
       0.38941833 0.921061 0.22304447 0.9748083
000230 88 2e 01 3e 69 f4 7d 3f c8 8d 91 3d 46 5a 7f 3f
       0.12615407 0.99201065 0.07107121 0.9974712
000240 db cb 23 3d 94 cb 7f 3f a0 40 b8 3c 6c ef 7f 3f
       0.039989334 0.9992001 0.022491753 0.99974704
000250 c9 3c 4f 3c c2 fa 7f 3f a7 14 e9 3b 58 fe 7f 3f
       0.01264877 0.99992 0.0071130577 0.9999747
000260 57 12 83 3b 7a ff 7f 3f 0c 6a 13 3b d6 ff 7f 3f
       0.003999989 0.999992 0.0022493629 0.9999975
000270 5e cb a5 3a f3 ff 7f 3f 52 77 3a 3a fc ff 7f 3f
       0.0012649109 0.9999992 0.0007113117 0.99999976
000280 10 7c 75 bf 2c 3c 91 3e d8 da a5 3e 40 32 72 bf
       -0.9589243 0.2836622 0.32393527 -0.94607925
000290 7f fc 7f 3f e9 72 29 bc ab ca 46 3f f1 4c 21 3f
       0.99994653 -0.010342338 0.77652997 0.6300803
0002a0 43 77 f5 3e 40 a9 60 3f ed 11 8e 3e 7c f2 75 3f
       0.47942552 0.87758255 0.2774805 0.96073127
0002b0 1d 3c 21 3e 81 ce 7c 3f 21 db b5 3d 1e fd 7e 3f
       0.15745588 0.987526 0.08879686 0.99604976
0002c0 f4 b6 4c 3d 19 ae 7f 3f fb 4d e6 3c 19 e6 7f 3f
       0.049979165 0.99875027 0.028113356 0.99960476
0002d0 7e 85 81 3c cf f7 7f 3f bb ac 11 3c 69 fd 7f 3f
       0.015810724 0.999875 0.00889128 0.9999605
0002e0 dd d6 a3 3b 2e ff 7f 3f 89 44 38 3b be ff 7f 3f
       0.004999979 0.9999875 0.0028117022 0.99999607
0002f0 33 3e cf 3a eb ff 7f 3f 26 15 69 3a f9 ff 7f 3f
       0.0015811383 0.99999875 0.0008891396 0.9999996
000300 8c 0f 8f be b8 cd 75 3f 76 e5 6b be 53 1d 79 bf
       -0.2794155 0.96017027 -0.23036751 -0.9731037
000310 4e 78 72 3f 6d 3f a4 be 88 30 60 3f 35 2f f7 3e
       0.9471482 -0.3207964 0.8757405 0.48278204
000320 68 8c 10 3f 32 49 53 3f fc 7d a9 3e e2 90 71 3f
       0.5646424 0.8253356 0.3310393 0.943617
000330 6e 20 41 3e e3 67 7b 3f c2 19 da 3d 51 8b 7e 3f
       0.18860027 0.98205394 0.10649444 0.9943133
000340 d1 9c 75 3d 12 8a 7f 3f be 2c 0a 3d b3 da 7f 3f
       0.059964005 0.99820054 0.033734076 0.99943084
000350 43 6c 9b 3c 34 f4 7f 3f 05 cf 2e 3c 45 fc 7f 3f
       0.018972522 0.99982 0.0106694745 0.9999431
000360 58 9b c4 3b d2 fe 7f 3f 03 1f 5d 3b a1 ff 7f 3f
       0.0059999637 0.999982 0.0033740408 0.99999434
000370 08 b1 f8 3a e2 ff 7f 3f 7c d9 8b 3a f7 ff 7f 3f
       0.0018973658 0.9999982 0.0010669674 0.99999946
000380 46 30 28 3f bd ff 40 3f 70 b6 36 bf 5e 4f 33 bf
       0.6569866 0.75390226 -0.7137213 -0.7004298
000390 6e e8 4c 3f bc 74 19 bf 44 84 72 3f ba f8 a3 3e
       0.8004216 -0.5994375 0.9473307 0.320257
0003a0 72 eb 24 3f b3 cc 43 3f de 60 c4 3e c6 6b 6c 3f
       0.6442176 0.7648422 0.38355154 0.9235195
0003b0 50 d3 60 3e ea c0 79 3f ba 46 fe 3d e9 04 7e 3f
       0.2195561 0.9755999 0.12415834 0.9922624
0003c0 32 3e 8f 3d 81 5f 7f 3f 5e 31 21 3d 3b cd 7f 3f
       0.06994285 0.997551 0.03935372 0.9992253
0003d0 a2 52 b5 3c f2 ef 7f 3f 2a f1 4b 3c ec fa 7f 3f
       0.022134129 0.999755 0.012447635 0.9999225
0003e0 c5 5f e5 3b 65 fe 7f 3f bc fc 80 3b 7e ff 7f 3f
       0.006999942 0.9999755 0.0039363783 0.99999225
0003f0 ed 11 11 3b d7 ff 7f 3f 66 28 a3 3a f3 ff 7f 3f
       0.0022135929 0.99999756 0.0012447953 0.9999992

encoder.transformer.in_proj_weight f4 [96, 32]
000000 2e 34 8e bd 2d 35 3a bc f4 01 39 3e 96 8e 02 3e
       -0.06943546 -0.011365217 0.18067151 0.12749705
000010 8c 38 94 3d a3 6a 20 be f7 3e 02 be ce 4a 82 bd
       0.07237348 -0.15665679 -0.12719332 -0.06361924
000020 c4 03 12 be c3 1a 64 3d ce f4 16 be ac af f3 bc
       -0.14259249 0.055689584 -0.14741823 -0.029746853
000030 02 0b 2e be 64 47 8d 3b cb 30 2a 3d 1e ff b7 3d
       -0.16996387 0.004311489 0.04155044 0.089842066
000040 d5 fb 90 3d 38 b7 13 be 43 6f a5 bc e7 80 33 3e
       0.07079283 -0.14425361 -0.020194655 0.17529641
000050 ad 17 f3 3b 8c 91 75 be 47 cd 4e 3e c6 2d 8e 3c
       0.007418594 -0.23981303 0.20195495 0.01735581
000060 b0 51 05 bd 0c 56 70 be 83 aa 34 3d 3f 7c 33 be
       -0.032548606 -0.23470324 0.044107925 -0.17527865
000070 e8 99 2f 3e 79 5c a8 3c 79 0b d8 3d de 0a d9 bd
       0.17148554 0.020551907 0.10549063 -0.10597776
000080 95 5e 34 3d 9b 28 83 3c cd 6d c5 bd eb b4 50 be
       0.044035513 0.016010573 -0.096400835 -0.20381515
000090 04 46 20 bb 91 14 93 3d 0e 76 91 bd d8 6d 59 3c
       -0.0024455795 0.07181657 -0.07102595 0.013270818
0000a0 64 2c 58 be 61 5a 13 be 70 7b a2 bd 65 74 8e be
       -0.21110684 -0.14389946 -0.079337 -0.27823177
0000b0 3f f3 83 3e ad ee b2 3d 25 e3 5b be e9 e6 d3 3c
       0.2577152 0.0873693 -0.21473368 0.025866942
0000c0 6d c0 07 be 22 1c a1 3e 9a dc 57 3e 98 27 91 bc
       -0.13256998 0.31466776 0.21080247 -0.017719075
0000d0 fd 34 8a be 7a a0 c3 3e 2a 47 17 3d 0a 9f a3 3d
       -0.26993552 0.3820837 0.0369331 0.07989319
0000e0 cd 19 e6 3c 38 a5 b0 3d de a8 a7 3a 4c ee 4f 3e
       0.028088475 0.08625263 0.0012791415 0.20305747
0000f0 b0 c6 92 bd 94 ea 45 bd dc f4 88 be f6 39 78 3e
       -0.07166803 -0.048319414 -0.26749313 0.2424086
000100 68 2d 32 3d 4e df ac 3c 65 3a 66 bd e8 30 7a be
       0.043500334 0.021102574 -0.056208033 -0.24432719
000110 4c 1e 21 3e 0d 81 85 3c c2 63 a4 3d 37 a5 03 3e
       0.15734214 0.016296888 0.0802684 0.12855993
000120 a2 a7 5f be b5 08 88 3d 3c 76 13 3d fd 8a 5f be
       -0.2184129 0.06642286 0.03600143 -0.21830364
000130 62 07 a2 bd 64 08 ae 3d 49 55 9d 3e 2d a0 c4 3d
       -0.079115644 0.08497694 0.3072913 0.096008636
000140 50 87 28 bd d9 ff 44 be 21 9d 68 be 2c 3f 93 bc
       -0.04114467 -0.19238223 -0.2271619 -0.017974459
000150 34 42 55 be ab 15 9f 3e 80 c8 4b 3d b2 0b d6 bd
       -0.20826036 0.3107122 0.04975176 -0.104514495
000160 43 76 4f be f4 1b 0d be 5f f5 20 be 31 49 21 3e
       -0.20259957 -0.13780195 -0.15718602 0.15750577
000170 54 b0 71 3e 5a af 9b 3e a5 ec 2b 3d f4 23 a0 bd
       0.2360242 0.3040722 0.04197373 -0.078193575
000180 e4 08 25 be 8a 8a 82 3d 48 19 8c bb 48 9a 7e 3e
       -0.16116673 0.063740805 -0.0042754747 0.24863541
000190 3f 50 03 3e 59 a0 77 be 61 87 d5 bd c5 fc 3c be
       0.1282358 -0.24182262 -0.10426212 -0.18455799
0001a0 ac 10 06 3e 06 11 65 3e 78 d9 7c be 15 f3 73 3d
       0.13092297 0.22369775 -0.24692333 0.059557993
0001b0 e0 8f 9c bc 3d a0 73 3d e7 ac e0 3d 64 24 57 bd
       -0.019111574 0.059478987 0.109704785 -0.05252494
0001c0 50 c9 13 3e 55 f7 7c be 79 32 00 3e 71 ab 02 be
       0.14432263 -0.24703725 0.12519254 -0.12760712
0001d0 0c b4 66 3e e1 23 62 bd ae b5 3c 3e 70 2c 41 bd
       0.2252962 -0.055209998 0.1842868 -0.04716152
0001e0 d2 a3 4a 3e ba d8 59 be 64 63 26 3e 52 cd 73 be
       0.19789055 -0.21274081 0.16248852 -0.23808792
0001f0 be 09 11 3e 2b bb 0a be 3e 9a 81 3c 5e 59 3f be
       0.14163873 -0.13547961 0.015820619 -0.18686435
000200 b9 12 a1 3d 21 e0 37 bd 66 2e 74 3e a3 8a 6d bc
       0.07864899 -0.04489148 0.23845825 -0.014498386
000210 ff 76 c8 3d c8 1f 35 3e ef 76 07 3e 73 b6 d4 bd
       0.09788322 0.17687905 0.13228963 -0.10386362
000220 c0 55 5e be 2c 94 90 be 8b c8 b5 3d 3e 9a b7 3c
       -0.21712399 -0.28238046 0.08876141 0.022412416
000230 40 d7 9a bd 50 5c 1d be b9 44 cc bd c1 7b ae 3d
       -0.07560587 -0.15367246 -0.09974045 0.08519698
000240 70 5e 0d be 29 d9 e7 bd 0b b6 56 be 6a b7 39 3d
       -0.13805556 -0.11320717 -0.20967881 0.045340933
000250 45 09 d5 bd 30 21 83 3d f2 b0 60 bd de da 03 be
       -0.10402159 0.064028144 -0.05485625 -0.1287646
000260 c9 12 32 be 1a b9 57 3e 60 56 b2 3d 86 0c 05 3e
       -0.17389978 0.21066704 0.08707881 0.12993059
000270 ff 90 29 be fa b1 ca bd 93 5b b4 3c c6 1b ee 3d
       -0.16559218 -0.098972276 0.022016322 0.11626391
000280 2c 5b 66 3e d8 73 ca 3d b6 85 6a 3e 4e df 9a 3d
       0.22495717 0.09885377 0.22902569 0.07562123
000290 ab d7 f1 bd e2 a5 6d 3d 22 b5 59 3e 66 bc 35 bd
       -0.118087135 0.058019526 0.21260503 -0.044369124
0002a0 43 64 75 be 0d 25 47 be af 1c 8b 3e 15 e5 82 be
       -0.23964028 -0.19447728 0.2717032 -0.255654
0002b0 bf ef 26 3d dd d4 86 bd 7d 3f a2 bd 27 2e ad bb
       0.040755983 -0.06583569 -0.07922266 -0.005285043
0002c0 2f 65 40 be 46 76 1e b9 0d a6 02 be f3 59 3c 3e
       -0.18788598 -0.00015112114 -0.12758656 0.18393688
0002d0 37 87 76 bd 62 18 1b bd c8 2b e8 bc 50 d1 17 be
       -0.060187545 -0.03786505 -0.028341189 -0.1482594
0002e0 e1 29 b3 3b 3b 05 94 3e 0b 19 97 3c ba b9 81 3d
       0.005467639 0.2891024 0.018444559 0.06334253
0002f0 f0 22 a9 be 10 93 36 3e 5f d4 5b bd f0 de 64 3e
       -0.33034468 0.17829537 -0.05366933 0.22350669
000300 7e be 19 3d 22 59 5e 3e 85 26 cc 3e cf e3 cf 3d
       0.037535183 0.21713689 0.39873138 0.10150873
000310 d8 dd 13 be db 0d 90 3d 2d 3b 09 bd 52 d0 c1 bd
       -0.14440095 0.07033893 -0.0335037 -0.09463562
000320 64 ab 0d be fe f9 d6 bd a6 4d ff bd 4d 3e 22 be
       -0.13834912 -0.10496901 -0.12465982 -0.15844078
000330 88 db 04 3c 0f ac e9 3d 49 a9 64 3d d3 7f ad 3d
       0.008108981 0.11409771 0.055825505 0.08471646
000340 c5 3e 28 bd 96 70 87 bd 35 49 2c be e1 0b 9f 3e
       -0.041075487 -0.06613271 -0.16824801 0.3106375
000350 36 12 88 bd 43 e7 98 3c cb 58 e6 bc ae 89 77 3d
       -0.066440985 0.018664962 -0.028118512 0.060434036
000360 1e b9 df bd 33 13 bc bd b1 eb cc 3b 94 44 01 be
       -0.1092398 -0.091833495 0.0062536825 -0.12623817
000370 4a f5 63 3d 5f 9d 09 3e fe 40 37 3e c8 fb b2 3d
       0.055653848 0.13438939 0.17895886 0.0873943
000380 7a 91 54 be f1 2c 6c 3e fe d1 76 3d d1 06 85 bd
       -0.2075862 0.23064019 0.060258858 -0.06495441
000390 72 0d 2b 3e 6d c3 d5 bd 58 36 40 3d 81 6c 0f be
       0.16704348 -0.10437665 0.046926826 -0.14006235
0003a0 0c 3d 65 bd 6b 82 b5 bd 9d a9 87 be 92 94 91 bd
       -0.055966422 -0.08862766 -0.26496592 -0.07108416
0003b0 c5 33 38 3d 37 b9 89 3d 17 05 21 3e 2c 93 94 3d
       0.044971246 0.0672478 0.15724598 0.07254633
0003c0 55 b6 de 3d 4f 0d 71 be 3d e6 91 bd aa d2 99 3d
       0.10874621 -0.23540233 -0.071239926 0.07510884
0003d0 70 cc 0e be bf 51 d5 bd 2c 4b e8 3d f0 d7 1e 3c
       -0.13945174 -0.104159825 0.11342463 0.009695038
0003e0 30 1e e0 bc 83 d2 ec 3c 34 5a 9e 3d ed fa b9 bd
       -0.027358145 0.028908974 0.07732049 -0.090810634
0003f0 dd 5e 1b be ab b5 06 3e 91 3b b8 bd ad db 09 3e
       -0.15172906 0.13155238 -0.089957364 0.13462706

encoder.transformer.in_proj_bias f4 [96]
000000 a0 3e 41 bd 72 71 16 3e 31 56 f5 3c 57 49 29 be
       -0.047178864 0.14691713 0.029948326 -0.16531883
000010 23 45 7b 3d de e7 e4 3d 60 65 62 3d 8e 9d 72 bc
       0.06134523 0.11177038 0.05527246 -0.014808072
000020 91 16 34 3e cb 32 8f bd 49 93 c9 3d 08 ac c2 bd
       0.17586733 -0.0699211 0.098425455 -0.095054686
000030 1c 1e 0f be b7 a4 91 bb 13 48 69 bd 11 57 62 3e
       -0.1397633 -0.0044446844 -0.0569535 0.22103526
000040 00 8d c8 3d 51 70 81 bd 1e 5f 7e 3e b3 e0 0d 3c
       0.097925186 -0.06320251 0.24840972 0.0086595295
000050 ea 98 81 3d 03 f6 b4 3b 43 ba 00 3d 91 54 06 3e
       0.06327994 0.005522491 0.031427633 0.13118197
000060 c8 e2 12 3d db 48 7e 3d 99 80 b5 bd e6 12 18 3d
       0.035860807 0.0620812 -0.08862419 0.037127398
000070 be b3 f1 3d e5 48 7b 3d 16 f5 f8 bd dc b5 7d 3c
       0.11801861 0.061348815 -0.121561214 0.015485253
000080 83 3a 41 35 b0 c8 89 b5 65 f5 15 36 0c b7 8d b5
       7.198325e-07 -1.0265703e-06 2.2345569e-06 -1.0558592e-06
000090 a9 ed 38 35 70 7c 88 36 f1 a6 36 36 3b 1b 00 34
       6.889118e-07 4.0676023e-06 2.7217286e-06 1.1930835e-07
0000a0 b0 c2 92 b5 e3 12 32 b3 64 2b 40 36 26 9a 3c b6
       -1.0934509e-06 -4.1461032e-08 2.8635486e-06 -2.810391e-06
0000b0 0f 9f 65 b6 f7 5c ee b6 f9 a6 26 36 d8 24 bb 35
       -3.4216243e-06 -7.1037753e-06 2.4833118e-06 1.3943309e-06
0000c0 15 5b 0c 36 5d a7 82 33 1b 74 0d 36 04 ae 76 b6
       2.0914642e-06 6.08404e-08 2.107822e-06 -3.6758147e-06
0000d0 66 04 fd b4 b1 42 66 35 45 45 e9 34 e9 80 24 34
       -4.7128123e-07 8.5778726e-07 4.3450032e-07 1.5320587e-07
0000e0 5f a2 68 35 92 bc 20 35 18 c7 04 34 23 9a 55 b6
       8.6663016e-07 5.987905e-07 1.2365888e-07 -3.1829193e-06
0000f0 30 9b c4 35 ef 9c 90 35 58 3e aa b6 a1 0e 02 36
       1.4648303e-06 1.077451e-06 -5.0736526e-06 1.9380025e-06
000100 2b 77 30 bc 29 0f 9d 3d 6c 28 98 bd 82 f3 1d 3b
       -0.010770599 0.07668907 -0.07429585 0.002410144
000110 43 76 8b bc d4 85 f4 3c fe d6 c8 bd d3 8a 8a 3d
       -0.017024165 0.02984897 -0.098066315 0.0676476
000120 b9 f5 aa 3c 35 ec 31 bb fe 68 37 3c d0 74 e1 bb
       0.020869123 -0.0027148847 0.011194466 -0.00688038
000130 d8 f7 2a bc 31 03 e2 bb 6c ff cc 3c c9 6a f9 3d
       -0.010435067 -0.006897353 0.025024138 0.12178571
000140 f5 2c ae 3b 6f 7e 70 bd 6d f3 e1 bd d9 99 ae 3b
       0.005315418 -0.058714326 -0.11032758 0.0053283987
000150 79 af 62 3c 58 dd 07 3c d3 96 22 3d 17 a8 d4 3c
       0.013835781 0.008292519 0.03969462 0.025959058
000160 1d d4 4f bc 87 8c 39 3c 80 fb 76 3d 0c ba 49 bd
       -0.012684849 0.011325008 0.060298443 -0.049249694
000170 fb c5 de ba bc 1b 49 3d 0d be 99 bd dc aa 7c bd
       -0.0016996259 0.049098715 -0.075069524 -0.06168638

encoder.transformer.out_proj.weight f4 [32, 32]
000000 d7 51 c7 3c 85 d3 1b be 91 e8 e3 bd 7f 4e 47 be
       0.024331016 -0.15217407 -0.11128343 -0.19463538
000010 66 de 3d 3d 2f 15 15 3d 94 aa cd bd e5 28 17 3e
       0.046354674 0.036397155 -0.10042301 0.14761694
000020 62 bc 89 bd f0 f7 0a be 0e 1d c2 3d 9a 38 e9 bd
       -0.06725384 -0.13571143 0.09478198 -0.11387749
000030 2e 92 ae bb 89 32 86 3d 16 07 c2 bd 56 5b 7f 3d
       -0.0053274846 0.065526076 -0.09474008 0.062342964
000040 61 77 be 3d 41 b6 04 be cf 04 56 bc 96 cb 8b bd
       0.093001135 -0.1296015 -0.01306267 -0.0682594
000050 c9 e7 a5 3d 85 2f d9 bd 93 87 49 3e 00 a3 da bc
       0.0810085 -0.10604767 0.19680624 -0.026689053
000060 94 2c 84 bd ac c2 3f bc f6 fc cf bd c4 81 84 bd
       -0.06453815 -0.011704128 -0.1015567 -0.06470063
000070 a6 e6 0c be 7b 0e 84 bb e5 e5 5f be 07 55 34 be
       -0.1375986 -0.0040300465 -0.21865042 -0.1761056
000080 26 84 6f bd 78 da 37 3e 7d f1 65 3d 86 28 86 3e
       -0.058475636 0.17954433 0.056138504 0.26202792
000090 43 0a e8 3d e0 52 82 3d ab 41 c7 3d 62 52 78 bd
       0.11330082 0.063634634 0.09729322 -0.06062544
0000a0 77 0b af 3d ec a9 b3 bd 3e 8d 90 bc 1c 45 3f 3e
       0.085471086 -0.087726444 -0.017645475 0.18678707
0000b0 52 9c a4 bc b6 62 d5 3d 4e 4b 54 3d 8d 22 91 3d
       -0.02009407 0.10419218 0.05182963 0.07086668
0000c0 dc b3 b1 bc 76 0d 37 be 7b f5 1b 3e b8 9e 1f be
       -0.021692209 -0.17876229 0.15230362 -0.1558789
0000d0 34 9c 8d 3d 07 50 af bd 87 aa 3e be bc b6 bc bc
       0.06914559 -0.08560186 -0.18619739 -0.023036353
0000e0 c1 d2 35 3d 04 c2 8e bd 52 69 31 3e 7f 35 36 bd
       0.044390444 -0.06970599 0.17325333 -0.04448461
0000f0 c8 ea c3 bd 7d ea ca 3d 32 15 ca 3c 3a 48 f9 3d
       -0.09566265 0.09908006 0.02466831 0.12171979
000100 29 6a 81 bd 70 4b 37 bb 14 3a 27 3e 9a a5 93 3e
       -0.063190766 -0.0027968548 0.16330749 0.2883728
000110 a5 15 27 be 85 a9 87 bd ed a1 94 3c a1 3e b5 bc
       -0.1631685 -0.0662413 0.018143618 -0.02212459
000120 89 7a 71 3d d4 34 84 bd 03 03 07 3e fc b2 ee 3c
       0.05895475 -0.06455389 0.13184743 0.02913808
000130 3b 8c 8e bd ba 8e 43 be 70 89 ac 3c 53 2c 9a bd
       -0.069603406 -0.19097415 0.021061629 -0.075279854
000140 a9 6d b8 3d af 75 42 3e 8e bb 37 3d b9 76 28 3d
       0.09005291 0.18990205 0.0448566 0.041128848
000150 27 12 2b bc bc c1 20 3e f2 de fe bb 38 04 07 be
       -0.01044134 0.15698904 -0.007778042 -0.13185203
000160 01 03 2b 3e af ea 57 bb 20 f2 13 be 00 d3 ee bd
       0.16700365 -0.0032946279 -0.14447832 -0.11661339
000170 b1 62 fa bd ba f9 6f bd 61 5b 97 bd b7 f6 57 3d
       -0.12225855 -0.058587767 -0.07390476 0.05272552
000180 e1 a4 15 3e af 6a 18 bd a7 ad f0 bd f8 2f a6 3d
       0.14613678 -0.037211116 -0.117518716 0.08114618
000190 46 fd 59 3d 84 10 bb bd 80 1d f8 3c 28 0d e4 bc
       0.053220056 -0.091340095 0.030287504 -0.027838305
0001a0 ea 7d 4c 3e 00 5d 91 3b 23 0d 8d bd 63 18 3b bc
       0.19969907 0.0044361353 -0.06887271 -0.011419388
0001b0 6b 55 e2 bc 37 3b 19 3e 1f a7 1c be bd f6 11 3c
       -0.027628621 0.14963995 -0.15298127 0.008908925
0001c0 75 65 25 3e 87 11 47 3e f3 30 5f 3e ce 27 96 3c
       0.16151984 0.1944028 0.21796016 0.018329527
0001d0 f8 0a 85 bd c0 d7 14 3e 03 b3 12 3e 66 5d b0 bc
       -0.06496233 0.14535427 0.143261 -0.02152891
0001e0 78 ea b6 3d f7 7c 11 3e 9b bd 03 be 94 83 22 3e
       0.0893144 0.14207827 -0.12865297 0.15870506
0001f0 86 3c 36 3d a8 63 ac 3d 53 0c 14 3d d0 4c bf 3d
       0.044491313 0.084174454 0.036144566 0.09340823
000200 5b 07 00 be 9a e2 09 be 98 52 bc bd 6e 6d f4 3c
       -0.12502806 -0.13465348 -0.09195441 0.029837336
000210 a1 f1 04 bd b1 c3 15 be d7 f2 e8 bc 4d 25 88 bd
       -0.032456998 -0.14625432 -0.028436108 -0.066477396
000220 70 95 e8 3d 43 59 86 3d a6 a7 c0 3d 18 1e 0c 3d
       0.11356628 0.06559994 0.094069764 0.034208387
000230 7b dd 36 be 4b cb ce 3d 11 4c 05 3e 5a 4e 5c be
       -0.17857926 0.10097369 0.13017298 -0.21514264
000240 a3 78 84 bd 58 0e 1e bc c0 af 0e be 05 4c 07 be
       -0.06468322 -0.0096469745 -0.13934231 -0.13212593
000250 33 42 94 3d fc 2a 3a be 08 8f e9 bd ca 5f e4 bd
       0.07239189 -0.1818046 -0.11404234 -0.11151083
000260 6f a6 ac bd 1e 7c 2b be 0b 00 26 3d ec 2e ae 3d
       -0.08430182 -0.16746566 0.040527385 0.085050434
000270 55 af 6d bc 9b 82 4c be 62 7d 3e 3d c5 1e 19 bd
       -0.014507134 -0.19971697 0.046506293 -0.03738286
000280 c3 df b2 3d e4 29 e4 3d 7f 36 53 bd 81 2c 23 bd
       0.087340854 0.111408025 -0.051565643 -0.039837364
000290 1c 0d 3c be fb 2f 89 bd d3 3f 53 be 9c 22 17 3e
       -0.18364376 -0.06698605 -0.20629816 0.14759296
0002a0 0b cc 38 bd 9a f3 9a bd 61 97 9b bc 1d 04 c3 bc
       -0.045116466 -0.075659946 -0.018993082 -0.023805672
0002b0 43 a9 cc bc 4d 69 5b 3e 66 0e ca bd dc 84 c3 3d
       -0.024983054 0.21426888 -0.098660275 0.09546825
0002c0 5e 66 da bc 19 24 1f be 42 52 0c be 7b 2f 90 3d
       -0.02666014 -0.15541114 -0.13703254 0.07040306
0002d0 93 71 48 3e 7a 96 e5 bd f7 ae 21 3d a0 61 f7 bd
       0.19574575 -0.11210342 0.0394735 -0.12079167
0002e0 11 62 22 3e ef 66 b6 3d ba d2 e2 3d 31 5a 28 bb
       0.15857722 0.08906352 0.11075349 -0.0025688524
0002f0 3d 0b 2f 3e 2b 7b 3a 3e d5 3e 24 be dc 95 da 3c
       0.17094131 0.18211047 -0.16039594 0.026682787
000300 ba 00 f6 bd d2 08 1e 3d 1a 9d 42 bd f7 68 38 bd
       -0.12011857 0.03858263 -0.047513105 -0.045021977
000310 91 fd 7f 3d 49 fe f1 bd 55 6a 20 3e 82 69 0c 3c
       0.06249768 -0.11816079 0.15665562 0.008570077
000320 6b c8 98 3d 35 59 36 bc 8b 76 49 3d 4b d6 b3 bc
       0.07460102 -0.011129667 0.049185317 -0.021952769
000330 b9 86 3c 3b 30 ac a2 ba 1e 5e f8 3d 3a 3e 3e be
       0.0028766824 -0.0012410935 0.121273264 -0.18578425
000340 2f 35 3a bd 3e 53 df 3d a6 69 ca 3d f9 75 86 bb
       -0.045460876 0.10904549 0.09883432 -0.004103419
000350 0d 11 a5 3d 0c 01 5f 3d 7a 00 1f be 28 bd 89 bd
       0.08059893 0.054444358 -0.15527526 -0.06725532
000360 81 88 e6 bd 77 0f 8d 3d 0d eb 07 be 95 60 74 3e
       -0.11256505 0.06887715 -0.13273259 0.23864968
000370 23 6f 27 3e 62 2a 34 3c e1 5b 6d 3e 30 93 b4 3d
       0.16350989 0.010996433 0.2317958 0.08817136
000380 56 60 78 bc 2e 29 fb 3d 44 e7 86 bd cc b2 5c be
       -0.015159687 0.12263714 -0.06587079 -0.2155258
000390 6a 7c 0b 3e 5c 48 0a 3d 96 7b 3b be 8d 5d 04 3e
       0.13621679 0.033760414 -0.18308863 0.12926312
0003a0 56 20 6d 3b 1f 84 11 3e eb 9d 74 3d ab d7 33 bd
       0.0036182604 0.14210556 0.059720915 -0.04390685
0003b0 84 32 01 be cb f0 7b 3d f2 66 9e 3c 75 03 10 3e
       -0.12616926 0.061508935 0.019336198 0.14063819
0003c0 b3 6f c7 3d 4c 92 32 be fb 7c 27 be 00 93 b3 bd
       0.09738102 -0.1743862 -0.1635627 -0.087682724
0003d0 fe ee ce 3d ad 1c 19 be 8e de 93 bd 1d ec 9d 3d
       0.10104178 -0.14952345 -0.07220183 0.07711051
0003e0 fd 16 90 bd fb 59 15 bd bc ae 49 bd 38 98 88 bd
       -0.07035635 -0.036462765 -0.049238905 -0.066696584
0003f0 d1 98 3f be bb 93 ef bd 2f 2e c5 3c e1 1a cf 3c
       -0.18710639 -0.11698099 0.024069874 0.025281372

encoder.transformer.out_proj.bias f4 [32]
000000 14 a2 15 3d 7b 8f d3 3a fa 76 8e bc 35 09 7f bd
       0.036531523 0.0016140783 -0.017390717 -0.06226464
000010 e1 eb b3 bc 64 71 82 3d 66 de 77 bd 2a c6 50 3d
       -0.021963062 0.06369284 -0.06051483 0.050970234
000020 03 45 95 ba 7f 64 7d 3c 21 a4 c6 bc 95 f2 14 3d
       -0.0011388365 0.015465855 -0.024248185 0.036364157
000030 2c 0b 0f 3d 2b 62 ea 3c fc 2d 3f bd b6 98 2f 3d
       0.034922764 0.028611263 -0.046674713 0.042870246
000040 38 fd 95 3d d2 52 1e bc fc 36 49 bd ef 9a 81 ba
       0.07323688 -0.009663301 -0.049124703 -0.0009888093
000050 b5 cc 01 bd c6 ec 92 bc 5e 15 85 bc bb 86 c3 3c
       -0.031689364 -0.017935168 -0.01624554 0.023867955
000060 48 cb e6 3c 7b 43 b2 bc 8a 8e 9d bd 95 b5 26 bd
       0.028173104 -0.021760693 -0.07693203 -0.040700514
000070 a2 3e 9a bc c8 06 1e 3d 2e 98 20 bd 4d 33 1c 3d
       -0.018828694 0.038580686 -0.03920763 0.03813486

encoder.ln1.weight f4 [32]
000000 d5 17 83 3f cf df 66 3f bc c8 87 3f bd 47 83 3f
       1.0241648 0.90185255 1.0608134 1.0256268
000010 91 30 87 3f 03 19 85 3f 18 ef 73 3f 00 13 8a 3f
       1.0561696 1.0398258 0.95286703 1.0787048
000020 bb 28 7d 3f 5b b0 82 3f 48 1c 84 3f 10 de 81 3f
       0.98890275 1.021007 1.0321131 1.0145893
000030 7e e5 87 3f 73 a8 7b 3f 86 0b 74 3f d4 79 82 3f
       1.061691 0.9830391 0.95330083 1.0193429
000040 07 ea 7a 3f fc f1 7c 3f bc af 71 3f 9f 5c 87 3f
       0.9801335 0.9880674 0.94408774 1.0575141
000050 e9 8f 81 3f 78 00 85 3f db 7c 81 3f 6b ac 85 3f
       1.0122043 1.0390768 1.0116228 1.0443243
000060 80 21 6d 3f 08 12 80 3f 1f e3 7d 3f 19 fa 6f 3f
       0.9262924 1.0005503 0.99174684 0.93740994
000070 b2 27 84 3f 49 62 81 3f 03 29 88 3f a1 b2 82 3f
       1.0324614 1.0108119 1.0637516 1.0210763

encoder.ln1.bias f4 [32]
000000 54 cb 82 bb b1 b4 ba 3c 72 3b e6 bc c3 74 34 bd
       -0.0039915238 0.022791239 -0.028104518 -0.044056665
000010 f6 f5 6e bd 65 08 5e 3d d5 a3 89 bd fa 74 b5 3d
       -0.058340035 0.054207224 -0.067207016 0.08860202
000020 07 46 12 3c d4 11 d9 bc 54 8c e2 bc fe ce 1f bd
       0.008927829 -0.026497759 -0.027654804 -0.039015763
000030 05 af af 3d 5c 70 b1 3c 57 af a1 bd 67 0a 11 3d
       0.08578304 0.021660022 -0.078947715 0.03541031
000040 e3 17 23 3d 7f a7 17 3c 3e ae 84 bd 36 5a d2 3d
       0.039817702 0.009256243 -0.064785466 0.102711126
000050 ae f3 35 bd 73 7c ed 3c 6c 57 f5 bc e4 5c 0b 3c
       -0.044421844 0.028990006 -0.029948913 0.008506034
000060 5a ac 97 3c 0c 2a 1d 3d 69 8f be bd 6b dc c8 3b
       0.0185148 0.038370177 -0.09304697 0.0061297915
000070 38 ed 2e bc e7 8f c9 3d 83 c4 82 bd 4d a5 96 3c
       -0.010676675 0.098419 -0.06385138 0.018389368
