experiments/model_64_50_2026-01-17_4048/model.pt (torch, 231200 bytes, 21 tensors)

encoder.graph_embed.GCN_in.A f4 [9, 9]
000000 92 80 51 be 19 2a 51 3f 80 69 b7 bf 2b c9 39 bd
       -0.20459202 0.8170486 -1.4329071 -0.045357864
000010 9a 91 bb bf 2d 3d d6 bd 9f 78 e9 3d d8 2f 07 3e
       -1.4653809 -0.10460887 0.1139996 0.13201845
000020 c5 17 ab 3e 91 7f d8 3e e0 cc eb be d8 bd 15 bf
       0.33416572 0.42284825 -0.46054745 -0.58492804
000030 cd 81 bc 3d 91 35 ea 3e ca a2 ab 3e 1e 5c 66 3f
       0.09204445 0.45743993 0.33522636 0.8998431
000040 70 c0 d9 bf ac c1 bd bf 5d 70 b9 bc e4 83 79 3e
       -1.7011852 -1.4824729 -0.022636587 0.24366719
000050 97 19 97 3e 96 08 67 3f 87 fd be bf b9 f4 ea 3e
       0.2951171 0.90247476 -1.492112 0.45889834
000060 bd 4a c4 bf 7d 2f 62 bf 94 35 d5 3f 36 7a 1f 3f
       -1.5335308 -0.8835371 1.6656976 0.62295854
000070 f3 12 b5 3e 50 e2 da bf d9 14 a5 3e 41 b0 ea 3e
       0.3536602 -1.7100315 0.32242468 0.45837596
000080 a2 ce 8b 3f d1 3e 87 3f b1 30 12 3f 8c 47 18 bf
       1.0922434 1.0566045 0.5710555 -0.5948417
000090 8d 1b 02 bf 8c ed 12 3f e5 c9 aa 3e f9 f0 c5 bf
       -0.5082329 0.5739372 0.33357158 -1.5464164
0000a0 d3 3d 42 be f6 84 61 3f 81 0f e8 3e b0 00 fe 3e
       -0.18968897 0.8809351 0.4532433 0.496099
0000b0 95 85 2d bf 72 1c ee bf e9 71 a6 3f c2 bf af 3e
       -0.67781955 -1.8602431 1.3003513 0.34325987
0000c0 92 0d 84 bd e9 3f c4 bf 2d ed 90 be 4e 81 99 3f
       -0.06447901 -1.5332004 -0.2830595 1.1992586
0000d0 d1 b3 d6 3f 2c 84 8a bf 14 9f 8c 3e a1 13 1a 3f
       1.6773626 -1.0821586 0.27465117 0.601862
0000e0 79 7f 97 bf f6 67 94 3f 91 61 a3 bc 78 6f 3d bf
       -1.1835777 1.1594226 -0.019943984 -0.7399821
0000f0 57 3d da 3b e6 0c c7 bf 57 b1 e1 3e 43 4d 87 3e
       0.0066601443 -1.5550811 0.44080612 0.26426134
000100 3c d2 be 3f b0 2b c7 3f 05 d7 10 bf f6 57 6e bf
       1.4907908 1.5560207 -0.56578094 -0.9310297
000110 42 e1 07 3f 64 35 b4 bf 1a b4 1d 40 4b 99 40 3f
       0.5307809 -1.4078794 2.4641175 0.75233907
000120 67 a6 72 bf 86 9b 99 be a3 b9 24 3f 00 f4 39 bf
       -0.9478516 -0.30001467 0.6434576 -0.7263794
000130 83 81 46 3f 4d 18 8a bf 9c 38 19 40 02 07 c5 bc
       0.7754137 -1.0788666 2.3940802 -0.024051193
000140 a5 45 bb 3f
       1.4630629

encoder.graph_embed.GCN_in.linear.weight f4 [64, 16]
000000 8c d5 5c bd d9 04 20 3e 46 d9 15 3e c6 ce 2c be
       -0.05391459 0.15626849 0.14633664 -0.16875753
000010 8f 8b b4 bc 80 4a 1f 3e 10 ae 2d be 45 ed 98 bd
       -0.022039203 0.15555763 -0.16960931 -0.074671306
000020 bb 3d 22 3e 59 c4 07 be 89 9c 45 be 97 71 a3 3c
       0.15843861 -0.13258494 -0.19297995 0.019951625
000030 e6 a8 24 3e e9 af 56 3d c7 b3 0c 3e 40 f4 7f bb
       0.16080055 0.052413855 0.13740455 -0.0039055496
000040 4a 68 5b 3e 66 0d 30 be fb b8 91 3c 7e f7 84 3c
       0.21426502 -0.17192611 0.0177884 0.016231295
000050 74 ef 80 be 45 90 d3 bd 4c 43 a7 3d 9c b4 71 3e
       -0.25182688 -0.103302516 0.08167133 0.23604053
000060 d7 69 f5 3d 97 ed 6b be 13 bb 43 be b9 da fb bd
       0.11983078 -0.23039852 -0.19114332 -0.122975774
000070 a9 b3 8b 3d ac 89 f4 bc 51 d4 78 be 5a c3 1d be
       0.06821377 -0.029850803 -0.24299742 -0.15406552
000080 fe a1 e0 3d 77 e4 02 3c 52 e6 ac 3d e2 51 22 bd
       0.109683976 0.007989041 0.084423676 -0.03962887
000090 07 e3 cb bd 0b b8 31 3e b1 b1 52 3d ce 98 49 3d
       -0.099554114 0.17355363 0.05143899 0.04921799
0000a0 28 ca 97 be 8e 74 5d 3e da 03 d7 bd f2 0a 18 be
       -0.2964642 0.21626493 -0.104987815 -0.14847925
0000b0 7b 59 cb 3d 83 44 47 be 7f 6d e1 bd 54 27 b6 3d
       0.099291764 -0.19459729 -0.11007213 0.0889422
0000c0 0f cd 4e 3e 66 64 16 3d be 5a 71 3d 23 38 bc bc
       0.20195411 0.03671684 0.05892443 -0.022975987
0000d0 d8 50 dc bd be 4d 45 3e 17 72 1b be dd e3 28 3e
       -0.10757607 0.19267938 -0.1518024 0.16493173
0000e0 0d 04 00 be 52 02 35 be 0b 8c df 3d 9b b6 b7 3c
       -0.12501545 -0.17676666 0.10915383 0.02242594
0000f0 8a 80 e0 3b ab 80 5c be 24 5c eb 3d 92 ea 7e 3e
       0.0068512606 -0.21533458 0.11492184 0.24894169
000100 8c dd 1e 3e d0 d1 9e 3d 39 f5 35 bd 9c 27 4b 3e
       0.15514201 0.07754862 -0.044423316 0.19839329
000110 6d 32 1d 3e 54 12 e3 3d bc bf 0b be 03 36 30 be
       0.15351267 0.1108748 -0.1364736 -0.17208104
000120 dc 85 1a b8 fd 06 99 3b c9 34 dd 3d 5e 8d 85 3e
       -3.6841127e-05 0.0046700225 0.108010836 0.26084417
000130 9d 75 17 be 0a 7d ab 3b f5 83 23 3e 40 e3 ec bc
       -0.1479096 0.0052334117 0.15968306 -0.028916955
000140 9d 77 29 3e fc e7 34 be 68 ea 47 be d9 40 e8 3d
       0.16549535 -0.1766662 -0.19523013 0.11340494
000150 4b 4f 00 be 63 4a fe 3d e7 79 f0 3d d1 8b 75 bd
       -0.12530248 0.12416532 0.11742001 -0.059947792
000160 a1 a8 22 be a4 76 3a bc 64 8b 0f 3d 2c 65 46 3e
       -0.1588464 -0.011380825 0.035045043 0.19374532
000170 09 ce 86 3e 90 1c 18 3e 20 e0 dc 3d 4a 60 41 3d
       0.26329067 0.14854646 0.10784936 0.04721097
000180 e8 26 7b 3e dd b1 0a bd cb ca 3d 3d aa 55 0f bd
       0.2452656 -0.03386103 0.046335977 -0.034993805
000190 31 cc 32 3e 55 42 23 3e d1 25 19 3e 45 81 44 3e
       0.17460705 0.15943272 0.14955832 0.19189937
0001a0 4c 60 42 3d 9a 67 ac 3d 8a f2 3b 3e 3e af 54 3c
       0.047455117 0.08418198 0.1835424 0.012981234
0001b0 ce 55 60 bd c9 5d 8e be df 09 a5 bd 75 23 ce 3d
       -0.05476933 -0.27805927 -0.080585234 0.10065357
0001c0 39 63 52 bd ae a5 18 be d8 1d 58 3e 54 8b 6e bd
       -0.051364157 -0.14906952 0.21105134 -0.058238342
0001d0 df 87 95 bd f8 76 48 be b0 c4 74 be 78 3e 11 bd
       -0.07301306 -0.19576633 -0.23903155 -0.035459965
0001e0 ca 09 68 be 1a 93 0e be 61 be fd 3d 2c 76 d4 3c
       -0.22659984 -0.13923302 0.123898275 0.025935255
0001f0 b6 c2 21 bc d8 a0 3f be d6 d5 e0 3d 1d 3b d7 3d
       -0.009873083 -0.18713701 0.10978286 0.10509322
000200 7a 8e 7e be 95 50 79 3e 99 3d 16 3e a9 02 20 be
       -0.24859038 0.24347146 0.14671935 -0.15626015
000210 01 e8 5c 3e 71 45 2e be 5a 7d 59 3e 38 b6 5b 3e
       0.21572877 -0.17018677 0.21239224 0.2145623
000220 eb 66 23 3e f7 4b 83 3e 30 2a 0c 3e 21 82 24 be
       0.15957229 0.25643894 0.13687968 -0.16065265
000230 6e 24 ff 3d 3f f0 69 bc af b4 da bd 62 f5 1d be
       0.1245812 -0.014278471 -0.10678994 -0.15425637
000240 08 4e 80 3e db 6e 3b 3d 38 47 fa 3d bf 9c 10 be
       0.25059533 0.045760017 0.12220615 -0.14122294
000250 a4 33 53 be 78 3f 1b be 12 cd 24 3e f5 2e 59 be
       -0.20625168 -0.1516093 0.16093853 -0.21209319
000260 c3 36 0d be 13 a0 12 be c1 95 19 be 61 d8 2f 3e
       -0.13790421 -0.14318876 -0.14998533 0.17172386
000270 56 92 2a 3d a4 e2 13 3e 94 c2 74 3d a2 ca 44 3e
       0.041643463 0.14441925 0.059755877 0.19217923
000280 5d 2d 50 be 4b 7a 41 be f8 0a 0e 3e 09 b6 01 be
       -0.20329805 -0.18894307 0.13871372 -0.12667097
000290 07 a5 7c be 7b b6 26 be 26 23 e1 3c d7 4c 48 3e
       -0.24672328 -0.16280548 0.02748258 0.19560562
0002a0 b5 ab 52 bd 67 a0 81 be f9 47 07 3e 38 26 e2 bd
       -0.051433284 -0.2531769 0.13211049 -0.11042446
0002b0 ac 8a 4d 3e e6 6b 97 bc c1 a6 f5 3d 73 cd 41 be
       0.2007243 -0.018484067 0.119946964 -0.18926029
0002c0 f6 11 3b 3e bb af 49 be 60 bb 26 3e 8e ed f1 3c
       0.1826857 -0.19695942 0.16282415 0.02953222
0002d0 73 a1 5a bd 46 2d fb 3c ba 9f 67 3d 4f 82 18 be
       -0.053376626 0.030661236 0.05654881 -0.14893459
0002e0 2f f5 20 be 33 5c cf 3d 50 a0 c4 bd 39 9a 78 3e
       -0.1571853 0.101250075 -0.0960089 0.24277581
0002f0 b9 88 8a 3e b9 f7 bb bc 93 d3 bd 3d 8f 1f 1d bd
       0.27057436 -0.022945272 0.0926887 -0.038360175
000300 55 37 99 bd 49 40 9b be d5 b5 69 3c 5d 30 26 bd
       -0.07481257 -0.30322483 0.014264544 -0.040573467
000310 a5 71 59 3e c4 e2 b1 bd 27 d6 be 3d ec 33 29 be
       0.21234758 -0.0868583 0.0931819 -0.16523713
000320 ee 40 3f 3d 83 1d 82 3d 06 0e 76 be 1e 25 98 3d
       0.04669278 0.06353285 -0.24028787 0.074289545
000330 e1 15 a1 3d f0 ce 27 3e cd f6 e8 bd ad da 85 3e
       0.07865501 0.16387534 -0.113751985 0.261434
000340 09 53 6f be 5e c3 9d bd c6 cc 64 bd 40 79 37 3d
       -0.23371519 -0.07703279 -0.05585935 0.044793367
000350 00 d8 e1 3c 70 f6 67 3e e5 37 51 3e 97 54 38 bd
       0.027568817 0.22652602 0.20431478 -0.045002546
000360 f9 fd 32 3d b6 37 d4 bd b3 c6 3b 3e ae fd df bc
       0.04369924 -0.103621885 0.18337516 -0.027342644
000370 3a 1b 80 be 4f bf d2 bd 5c 35 65 3d 2b 04 d0 3d
       -0.25020772 -0.102903955 0.05595909 0.10157045
000380 4b 3a a6 3d da d0 1b 3e 23 24 2c be c5 dd 4a 3e
       0.08116587 0.1521639 -0.1681066 0.19811161
000390 b1 cd bb 3d b8 80 3d 3e 76 83 3f 3e 4c 25 64 bd
       0.09170092 0.18506134 0.18702492 -0.05569963
0003a0 7f 3f 00 3c 15 3f a1 bd af 67 5c be ed 93 20 3e
       0.007827639 -0.0787336 -0.21523927 0.15681429
0003b0 4d 0b 47 bd c7 fc 41 be 82 5d c3 bd 0d 96 3e be
       -0.04859476 -0.18944083 -0.095393196 -0.18611927
0003c0 8c 77 f2 3c aa 15 75 3e b2 1e 36 3e 4f 89 6e 3e
       0.02959802 0.23934045 0.17785147 0.23294567
0003d0 28 df 67 3e 29 bc f5 bd 23 53 be bd 99 f0 9d 3d
       0.22643721 -0.11998779 -0.09293201 0.07711906
0003e0 eb 10 a6 3c e0 c7 38 be fc b8 3d 3c 46 5d 24 3e
       0.020271739 -0.18044996 0.011579748 0.16051206
0003f0 45 1f d3 3c cb 36 58 be c6 20 11 3e 4a 13 47 bd
       0.025771746 -0.21114652 0.14172658 -0.04860238

encoder.graph_embed.GCN_in.linear.bias f4 [64]
000000 67 22 6b bd 7d 26 31 be 04 bd ed 3d 1a 72 02 3d
       -0.057405856 -0.17299838 0.116083175 0.031847097
000010 3b 32 8c bd 55 d6 c7 bd 4a 71 a2 3d 04 11 50 3a
       -0.06845518 -0.097576775 0.079317644 0.0007937106
000020 c7 da d6 3d fa 43 c1 3b 6f 52 e9 bd 18 52 8b bc
       0.10490947 0.005897996 -0.11392676 -0.017006919
000030 7d 75 01 3d c2 c4 44 3e b0 50 b3 3b 9a 19 af 3d
       0.031606186 0.19215682 0.005472265 0.08549805
000040 4c bd 8d 3d 71 d7 3e be 46 a7 1f be fa 08 41 be
       0.06920871 -0.18636872 -0.15591154 -0.1885108
000050 32 9d 1b 3e ff 54 a2 3c 67 aa 63 3d 47 d4 f0 3d
       0.15196684 0.01981592 0.05558243 0.11759239
000060 45 1d 7c 3d ed 4d b6 3d 42 b3 bb 3b a0 35 eb 3d
       0.06155135 0.08901582 0.0057281563 0.114848375
000070 26 29 2d be 44 a4 53 3e db 2e 9f 3d 9f 4a 40 be
       -0.16910228 0.20668131 0.07772609 -0.18778466
000080 c8 24 19 be 0c 55 51 bc 3a 6d 76 bd b3 32 5f 3e
       -0.14955437 -0.012776624 -0.06016276 0.21796684
000090 82 b6 13 3a 31 22 05 3e f6 c8 08 bd 25 d3 fc bd
       0.0005634801 0.13001324 -0.033394776 -0.1234496
0000a0 b6 e6 17 be 5c 58 25 bd de 77 09 3e 5e 1b 20 be
       -0.14834103 -0.04036747 0.13424632 -0.1563544
0000b0 e2 df 4c 3e f2 ba 31 3e 39 96 4a be b8 b7 5f 3e
       0.2000728 0.1735647 -0.19783868 0.21847427
0000c0 44 e4 ad 3d d0 92 fa bc bd 38 46 be 4e 9c 85 3d
       0.08490804 -0.030587584 -0.19357581 0.065239534
0000d0 21 32 df 3d 33 f3 23 3e d6 33 ce 3c 27 d8 c7 bd
       0.10898233 0.16010742 0.025171202 -0.09758025
0000e0 e8 07 2d 3e b8 26 0c 3e df a2 41 3e 2d 63 bc bd
       0.16897547 0.13686645 0.18909787 -0.09198604
0000f0 53 30 b0 bd 86 5d 40 bd a7 58 f7 bd f8 fa 1f 3e
       -0.08602967 -0.04696419 -0.12077456 0.1562308

encoder.graph_embed.bn.weight f4 [64]
000000 00 fc 78 3f 24 65 7c 3f fc e2 85 3f 76 a9 7a 3f
       0.9725952 0.9859183 1.0459895 0.97914827
000010 5e ea 70 3f da 97 7c 3f 5c 03 7e 3f 94 26 81 3f
       0.94107616 0.9866921 0.99223876 1.0089898
000020 56 f1 79 3f 06 06 67 3f 57 61 73 3f 2f bd 86 3f
       0.97633874 0.90243566 0.95070404 1.0526484
000030 5b c6 73 3f 18 65 73 3f 61 29 6f 3f 08 73 71 3f
       0.9522454 0.9507613 0.93422514 0.9431615
000040 dd 53 6b 3f 1c 68 7b 3f e4 6e 75 3f e4 91 74 3f
       0.9192484 0.98205733 0.9587233 0.9553511
000050 bd 0d 86 3f 2d 77 78 3f a6 07 71 3f c0 45 72 3f
       1.0472943 0.9705685 0.94152296 0.9463768
000060 ed 66 69 3f 36 9f 7f 3f b6 ae 71 3f 34 15 80 3f
       0.9117268 0.9985231 0.9440721 1.0006471
000070 e8 5b 7f 3f 70 90 83 3f 6b b5 82 3f 67 70 75 3f
       0.9974961 1.0278454 1.0211614 0.9587464
000080 f9 80 7b 3f 7d 29 80 3f 2b 9c 83 3f e7 b6 77 3f
       0.9824367 1.0012661 1.0282034 0.9676346
000090 91 b3 7d 3f cc 36 7a 3f 66 59 85 3f 80 40 70 3f
       0.9910212 0.97739863 1.0417907 0.9384842
0000a0 91 8e 7c 3f 3f 9a 78 3f 60 d0 7e 3f f4 48 86 3f
       0.9865504 0.9711036 0.99536705 1.0491014
0000b0 eb 83 6f 3f 48 ee 6f 3f b7 b0 7a 3f 1f 77 82 3f
       0.93560666 0.93722963 0.97925895 1.0192603
0000c0 fa 6b 77 3f 2c 7e 7b 3f 19 90 80 3f 02 b2 77 3f
       0.96649134 0.982394 1.0043975 0.96755993
0000d0 4b 00 7f 3f f9 29 82 3f 6d ab 83 3f b6 f2 7d 3f
       0.9960982 1.0169059 1.028669 0.9919847
0000e0 84 c9 7c 3f e9 3d 82 3f 39 f1 6a 3f d4 94 70 3f
       0.9874499 1.0175143 0.91774327 0.93977094
0000f0 7d d3 77 3f ce 9e 72 3f 5f 16 74 3f e6 60 79 3f
       0.9680708 0.94773567 0.95346636 0.9741348

encoder.graph_embed.bn.bias f4 [64]
000000 12 0c 02 bd 34 f0 40 3d 09 af db bb 16 26 21 3d
       -0.031749792 0.047104076 -0.0067042154 0.039342962
000010 07 47 04 3d 11 eb 6e bc a8 e3 23 bc 8e bd b3 bc
       0.0322943 -0.014582411 -0.010003008 -0.021940973
000020 2a 72 26 3c d5 fb 3a bd f4 f7 89 bc 57 ce 4d bd
       0.010159055 -0.045650322 -0.016841866 -0.05024561
000030 55 2d 27 3d f6 f3 ba bb 9d 5b ff 3c 86 9c d8 3c
       0.040814716 -0.005705352 0.031171614 0.026441824
000040 1f fe 09 bd f9 8f 0d bd 73 52 6a 3c b0 f8 8a bc
       -0.033689614 -0.03456113 0.014301884 -0.016964287
000050 e7 f6 b9 3b fa bb 34 bd 84 cc 11 bc b4 90 06 3c
       0.005675185 -0.04412458 -0.008898858 0.008213211
000060 30 b5 ac ba 14 85 f0 bc a5 8b a9 ba c3 cc 13 3d
       -0.0013176557 -0.029360332 -0.0012935294 0.036083948
000070 e2 e7 47 3d 0c a9 98 3c 5c e6 fc bc be f5 14 3c
       0.048805125 0.018635295 -0.030871563 0.009091793
000080 ed 90 38 bc d5 e6 20 3d 5f 2e 14 bd 9a 6b a6 3c
       -0.011265022 0.03928264 -0.036177035 0.02031498
000090 0f 39 4f 3b 27 e3 3f 3c 4d 68 dc bc b2 e1 98 bb
       0.0031619703 0.011711872 -0.026905203 -0.004665577
0000a0 99 38 07 bd 12 c9 b0 3b b6 27 f6 ba 71 1b 0d 3d
       -0.03301296 0.005395063 -0.0018780145 0.03445
0000b0 89 55 65 39 c8 8a df ba 40 c3 36 bc 09 e4 f5 3b
       0.00021871006 -0.001705491 -0.01115495 0.0075039905
0000c0 92 78 04 bd 56 3d 56 3c b7 06 bd bc 0e 66 de 3c
       -0.032341547 0.013076147 -0.023074491 0.027148273
0000d0 7e 1c a3 bc 84 51 ab 3c 6a 63 01 3d d8 18 2d bb
       -0.019911047 0.020912893 0.03158895 -0.0026412513
0000e0 da a6 c1 bc 68 41 db 3c df 9f f4 bc 29 62 84 3c
       -0.023639131 0.026764587 -0.029861389 0.016160088
0000f0 2b 93 b1 bc b2 9c 12 3d 21 be 6f bd 6b 57 c1 3b
       -0.02167662 0.035793968 -0.05853093 0.0059003136

encoder.graph_embed.bn.running_mean f4 [64]
000000 a1 3b b4 3c 6e 4c c6 3c d6 70 86 bc 86 c3 da bc
       0.02200109 0.024206366 -0.016411226 -0.026704561
000010 02 40 c3 bc cc 3c 7d 3c c2 63 d3 3c a0 c5 06 3b
       -0.023834232 0.01545639 0.025804404 0.002056457
000020 74 bb 00 bd cb 34 b3 bd 34 9f 9b 3b da bf 11 3d
       -0.03142877 -0.08750304 0.004749203 0.035583355
000030 33 ae 9f 3c 47 50 ea b8 e4 b2 e0 3d 1e 0f e9 bc
       0.019492244 -0.00011172942 0.10971621 -0.028449591
000040 cd 08 8a 3d d2 d6 65 bc b4 65 1e 3d 4c 86 0e 3b
       0.0673996 -0.014028268 0.03867121 0.0021747528
000050 a6 17 47 3c 64 09 f4 3c f6 e0 58 bb c4 bb c4 bc
       0.012151634 0.029789634 -0.0033093072 -0.024015315
000060 b6 88 53 3d 52 e7 66 bc b7 a6 d9 3c f5 95 5a ba
       0.05164405 -0.014093237 0.026568754 -0.00083383854
000070 a7 a5 58 bc f3 b1 58 bc f5 71 33 3c 59 69 33 3c
       -0.013223088 -0.01322602 0.010952462 0.01095041
000080 3b cf e3 3c fa 56 e3 3c 4d 7a bd 3b 08 af 1b 3c
       0.027808776 0.027751435 0.0057824017 0.00950218
000090 88 ef b1 bb 43 6e dd 3c 0d 15 2f 3c c0 14 34 3d
       -0.0054301657 0.027030116 0.010686171 0.0439651
0000a0 25 65 d4 3c 26 6f e3 3d 14 5d 1b bc 1d f9 00 bd
       0.025927136 0.11105184 -0.009482641 -0.031487573
0000b0 67 bb 0c bd af c9 65 3d e2 f0 cc 3b 2b ec 00 3c
       -0.03435841 0.056100544 0.0062543014 0.007868807
0000c0 91 60 ab 3c 01 a9 b9 3b 96 b1 1e bc 97 f5 86 3d
       0.02092007 0.005665899 -0.0096858945 0.06589811
0000d0 62 a9 cb 3c 24 bb 9e 3b 54 a4 6f 3c 04 0a 23 bd
       0.024861041 0.0048440862 0.014626581 -0.039804474
0000e0 1b eb 8f bc 1a 0b fb bc 51 bd 06 3d 75 fe e6 bc
       -0.017568162 -0.030644942 0.03289539 -0.028197506
0000f0 76 7c a8 3c 97 74 a5 3d f5 f3 2e bc a6 a4 80 3d
       0.02056716 0.080788784 -0.010678281 0.06281404

encoder.graph_embed.bn.running_var f4 [64]
000000 40 60 62 3c c5 cd 3e 3c 79 2b 73 3b f6 c0 d2 3b
       0.013816893 0.011645739 0.003710477 0.006431694
000010 60 f9 43 3c d3 f0 e1 3a 83 a6 19 3c ff 53 35 3b
       0.011961311 0.0017237909 0.009378078 0.0027668474
000020 bd a1 75 3b 58 97 f1 3b 67 b3 0d 3c bf d8 c1 3b
       0.0037480437 0.007372778 0.00864873 0.0059157307
000030 1a 03 47 3c 39 f7 05 3c 97 c7 b2 3c 51 84 2f 3c
       0.012146736 0.008176618 0.021823687 0.010712699
000040 01 18 9e 3c be 9d 9c 3b d3 dd 21 3c a3 4f 89 3b
       0.019298555 0.0047795465 0.009879547 0.0041904016
000050 22 5b 80 3b 04 bf 29 3c 45 c8 7e 3c 83 91 87 3b
       0.003917114 0.010360483 0.015550678 0.0041372194
000060 34 8f e4 3c c6 34 5d 3b 43 70 42 3b 7d fc a5 3b
       0.027900316 0.003375338 0.0029668964 0.0050654993
000070 6b 3c a0 3b ec ef 70 3b 4c 91 17 3c 06 5c f4 3b
       0.004890015 0.0036764098 0.00925095 0.007457259
000080 29 b5 23 3c ae fe 38 3c b1 2f 9c 3b 30 97 07 3c
       0.009991922 0.011291189 0.0047664274 0.008275792
000090 19 72 db 3b 42 ca 87 3c 9b 03 5a 3b d4 69 c4 3b
       0.006696951 0.016575936 0.003326631 0.005994061
0000a0 55 a5 9b 3b bf cf aa 3c e7 9d a7 3b 0f 30 61 3b
       0.0047499337 0.020851014 0.005115259 0.003436092
0000b0 92 87 8a 3b c3 9d be 3c 5d f7 07 3c 92 0f 9e 3b
       0.004227587 0.023268586 0.008298722 0.0048236335
0000c0 d6 d3 12 3b 92 ae 2d 3c 49 9f 9f 3b 82 14 55 3c
       0.0022404096 0.010600703 0.004871283 0.013005378
0000d0 89 fd b1 3b 60 87 7f 3b 19 76 8d 3c dc 54 28 3c
       0.005431835 0.0038990602 0.017268227 0.010274138
0000e0 b0 ab da 3b 7f 3b af 3b 1b 14 ce 3b f1 e6 97 3b
       0.006673299 0.0053476687 0.006289018 0.0046356847
0000f0 56 ec 80 3b 8e 0d d8 3c 8b ab 78 3b 57 b3 5d 3c
       0.0039344234 0.02637365 0.0037944044 0.0135315275

encoder.graph_embed.GCN_layers.0.A f4 [9, 9]
000000 f5 1f 6f bf 23 9c ed bd 75 1e e7 be 47 23 da 3f
       -0.9340814 -0.11602046 -0.45140424 1.7042016
000010 27 67 9b be c5 15 e4 3f f9 6e a4 bf 62 98 64 3f
       -0.30352136 1.7819144 -1.2846366 0.8929502
000020 a6 8e 02 3f d0 8f 91 3f fb 5a 13 3e d3 3b 9d be
       0.50998914 1.1372013 0.14390175 -0.30709705
000030 e0 9b 3b 3e 8a b8 5c 3f a5 af cc be c9 2b 09 40
       0.1832118 0.86219084 -0.39977756 2.1432974
000040 5c 0b b6 3e 82 81 32 bf 48 2e 6a bf 1f 36 0b 40
       0.35555542 -0.69728863 -0.9147687 2.1751783
000050 70 49 54 bf 53 97 e3 3f e5 37 a2 bf f5 6f 2f 3e
       -0.82924557 1.7780555 -1.2673308 0.17132552
000060 f5 c6 a6 bf 27 ba c5 3e 3b d6 8d be ac 73 af bf
       -1.3029467 0.38618585 -0.27702507 -1.3707175
000070 bf ae 96 be c0 61 02 be d7 3d 82 3f 3e 5e b0 3e
       -0.29430196 -0.12732601 1.0175122 0.344469
000080 3a 93 30 3f 07 d1 ad be 4e ec 69 be c0 96 5a bf
       0.6897465 -0.33948538 -0.2284405 -0.85386276
000090 bc 94 b0 bf 2b 60 fa bf dc 9b 51 bd 1e 8b 96 3f
       -1.379539 -1.9560598 -0.05117403 1.1761205
0000a0 b8 ad a1 3e 02 4d a1 3f 94 92 33 3e b0 66 32 bf
       0.3157785 1.2601626 0.17536384 -0.6968794
0000b0 81 02 c6 bd 17 01 4c bf c9 fd de bf be 54 fa 3e
       -0.09668446 -0.7968916 -1.7421199 0.48892778
0000c0 a1 9f 79 3d ad f2 08 3f e8 99 cc bf a4 21 60 3f
       0.06094325 0.53495294 -1.5984468 0.8755133
0000d0 f7 d6 ae bf 9a 8c 91 3f 9d 64 2a 40 d3 44 38 bf
       -1.3659352 1.1371033 2.662391 -0.7198002
0000e0 36 f9 53 be 2d 28 4c 3f 6b 34 38 3e 37 7a 07 bd
       -0.20700535 0.79748803 0.17988746 -0.033075538
0000f0 aa 4d d0 be 20 ca a2 bf 31 df 40 3e 08 d6 fa be
       -0.40684253 -1.2717934 0.18835141 -0.48991418
000100 3a fd 1a 40 71 ed f6 3f 4a e5 89 3e d5 c2 92 3f
       2.4217057 1.9291211 0.26932746 1.1465708
000110 0c 19 66 3f 58 6c 54 bf b1 9d 50 bf fd f3 05 3f
       0.8988197 -0.8297782 -0.8149062 0.5232542
000120 ac 31 a9 3e d9 8c 92 3f c4 7b 32 3f d3 37 8d 3f
       0.3304571 1.1449233 0.697201 1.1032661
000130 25 ab 38 bf 59 3f 65 be cc b5 8d bf 6a a5 7a bf
       -0.72136146 -0.22387446 -1.1071105 -0.9790865
000140 18 5f c3 be
       -0.38158488

encoder.graph_embed.GCN_layers.0.linear.weight f4 [64, 64]
000000 ba 35 25 3d 39 73 74 bd e3 c2 37 bc 72 62 e0 3d
       0.04033444 -0.059680197 -0.011215898 0.10956277
000010 de 86 bf bd 2d 07 c9 3b 7f 4c 59 bd 29 13 75 bd
       -0.09351896 0.0061348886 -0.053051468 -0.059832726
000020 7e f4 67 bc 91 69 07 bd d7 fc fa 3b 95 80 2d 3d
       -0.014157413 -0.03305966 0.0076595354 0.042358954
000030 df 13 2a bc 0e 4e 8c bb e3 ee 5b 3d d4 90 16 3d
       -0.010380714 -0.004281766 0.053694617 0.036759213
000040 a6 66 d9 bd 85 a5 3b 3e f1 83 22 3c 6b 88 10 bd
       -0.10615282 0.1832486 0.009919153 -0.03528635
000050 f2 a4 12 3c 78 31 f9 bc 1a 19 dc bd 2d 5c cb bd
       0.008950459 -0.030419096 -0.10746975 -0.099296905
000060 eb 4b 26 bc a2 0b ce bc 15 91 61 3d ae d1 22 bd
       -0.010149936 -0.025152031 0.05507 -0.039750747
000070 9b eb 4b 3c 01 c4 87 bd 6b c0 e7 3d b3 93 8b 3d
       0.012446309 -0.06629182 0.11315998 0.06815281
000080 f6 6d f1 3d ba 71 00 3d dd 6c 8f bd 5f 32 23 3c
       0.117885515 0.031358458 -0.07003186 0.00996074
000090 61 63 a7 3d 2c 26 00 3e b1 a2 5b bc e3 f8 10 3e
       0.08173252 0.12514561 -0.013405488 0.14157443
0000a0 96 cd 0b 3d af da da bc b1 90 10 3e b4 97 15 be
       0.03413161 -0.026715605 0.14117695 -0.14608651
0000b0 91 03 33 3d 4f 0c 07 3c 46 c5 af bc 9d d7 ba 3c
       0.043704573 0.008242681 -0.021456372 0.02280789
0000c0 49 45 90 bd a5 e5 37 3c a4 d3 31 3c b4 34 05 bd
       -0.07044465 0.011224185 0.010853682 -0.032520965
0000d0 a4 f4 32 3d 46 6d 0f 3d 29 c4 fb bd 08 5b 92 3d
       0.04369034 0.03501632 -0.12293274 0.07146269
0000e0 a5 0f 72 bc 19 e2 33 3d 84 60 df 3d a1 da 8d 3a
       -0.014774238 0.043916795 0.10907081 0.0010822603
0000f0 c4 ce a9 3d b6 74 cc 3d d8 2e 9b bb e6 fa e9 3d
       0.082913905 0.09983198 -0.004735809 0.11424808
000100 1b 76 b0 bd f0 9a 1e be 98 29 a9 bd 3d 7b 9f bd
       -0.08616277 -0.15488791 -0.082598865 -0.07787178
000110 36 d8 a0 3d 09 08 82 bd e4 23 0b bd bc 61 c6 bd
       0.07853739 -0.06349189 -0.033969775 -0.0968661
000120 80 f6 3e bd c0 f8 b0 3b e3 a1 94 bc 01 03 07 be
       -0.0466218 0.005400747 -0.0181436 -0.1318474
000130 3a c0 26 bd 93 0a 9f bc 6e 62 66 3d f9 cd 0b be
       -0.040710665 -0.019414222 0.056246214 -0.13652791
000140 1c 2b e0 3c e7 c7 04 be 8d 24 8c bc 47 42 d3 bd
       0.027364306 -0.12966882 -0.017107273 -0.10315376
000150 4f f3 d2 bd 90 4a 31 bb 4d 59 c3 bc 33 7c 8b 3d
       -0.10300314 -0.00270525 -0.023846293 0.068107985
000160 cf 95 5b bd 64 d3 46 3d 78 72 44 bd 72 cc 0e bc
       -0.053609665 0.04854144 -0.04796073 -0.008715736
000170 4b 44 4d 3c 2c 13 ba 3d a5 56 24 bd 41 30 3d bd
       0.012528489 0.09085688 -0.040121693 -0.046188597
000180 8f 78 e5 bc d8 01 97 3d 7f 57 80 3b 1c c6 ff 3d
       -0.028011588 0.073733985 0.0039166803 0.12488958
000190 c4 46 bd 3d 18 51 be 3d 33 9a ca bd 0e 2c 70 3d
       0.09242013 0.09292811 -0.098926924 0.058635764
0001a0 e2 be 05 3d 8a bf 19 3c b9 53 31 bd 4b 95 9e bd
       0.032652743 0.009384045 -0.043292735 -0.07743319
0001b0 f6 2a ab bd 03 2f d4 bd f8 7d cd bd 9f bd 30 bd
       -0.083578035 -0.10360529 -0.10033792 -0.043149587
0001c0 5b 9f c4 3d a3 29 b8 bd b0 bf 38 3d 19 88 a7 bd
       0.09600707 -0.089923166 0.045104682 -0.081802554
0001d0 bc 55 3c 3b e5 af b3 bd 08 55 ea 3d a7 e9 3a 3d
       0.0028737625 -0.087737836 0.11442 0.045632984
0001e0 20 d7 0b 3d a3 0e 18 3d 77 5c fd bc 96 a3 f1 bc
       0.034140706 0.037123334 -0.03092788 -0.02949695
0001f0 fc 68 47 3d f4 da 95 3d a0 9c 6d 3d f9 d4 94 3d
       0.048684105 0.073171526 0.058010697 0.07267184
000200 fc 4c 87 bd eb c5 21 3b 29 a2 0d be c4 da d4 bc
       -0.066064805 0.0024684619 -0.1383139 -0.025983222
000210 31 3b 36 3d 00 4f 66 3c 5a 26 a0 3c 89 be 98 bc
       0.044490043 0.014056921 0.019549537 -0.018645542
000220 cf dc ee bd fe eb 30 3d 86 8c ef 3d 38 54 e7 bc
       -0.1166321 0.04319381 0.116967246 -0.0282384
000230 1f 71 86 bd ea f3 1a bd f8 e6 05 3e 11 ed 9a bd
       -0.06564545 -0.03783027 0.13076389 -0.07564748
000240 18 40 86 3d b0 3a 1d be 27 07 7c 3d ef e8 84 39
       0.06555194 -0.15354419 0.06153026 0.0002535055
000250 2c d7 29 bd f0 32 71 bd 94 67 89 3d a2 92 eb 3c
       -0.04146497 -0.05888647 0.06709209 0.028756443
000260 72 56 84 3c 27 62 3e 3d 47 94 f3 bd 16 07 bc bd
       0.016154502 0.046480324 -0.11893516 -0.09181039
000270 33 1b be 3d 9c ff e8 bc a0 2e 16 3e a5 57 94 bd
       0.092825316 -0.028442197 0.14666224 -0.07243279
000280 90 12 9c 3c d4 14 18 3b 3f 41 5f 3d 9b 2f a6 bd
       0.01905182 0.0023205774 0.054505583 -0.08114549
000290 e6 16 33 bd 15 4a e6 3d 1b 89 ae 3d 4d ed 3e bc
       -0.04372301 0.11244599 0.085222445 -0.011653257
0002a0 be 5b 37 bc 02 c7 f7 3c 57 2c 4b 3d 60 d9 da bd
       -0.011191307 0.030246262 0.049602833 -0.10685992
0002b0 29 76 26 3d 95 cd f0 bc 60 cc ca 3c ac 5c 87 bd
       0.04064003 -0.029394904 0.024755657 -0.06609473
0002c0 d9 ad 4f 3d a4 9d 30 bd 60 d1 f6 3d 3d 67 5c bd
       0.050702903 -0.043119088 0.12051654 -0.053809393
0002d0 b5 21 62 bd eb c1 be 3d d3 12 b4 3d be 23 13 3d
       -0.055207927 0.09314331 0.08792653 0.03592276
0002e0 a4 2d 6d bc 90 c3 38 bd ea ed 33 3d 11 6d 23 3e
       -0.014476214 -0.045108378 0.043928064 0.15959574
0002f0 17 ef 83 3c 38 9c c7 3d 4a 14 63 bd 80 7d da 3a
       0.016105218 0.09746593 -0.05543927 0.0016669482
000300 93 41 15 be 9a 4e 35 3d 81 c4 88 bd af 27 b2 3b
       -0.14575796 0.044264413 -0.06678105 0.0054368596
000310 08 b1 25 3c fc 90 32 3d 55 65 d9 3d 11 15 18 bc
       0.010113008 0.0435953 0.10615031 -0.009282366
000320 ac 46 1b bd 0d bd 2b be 49 03 67 bd ce da a6 3d
       -0.037909195 -0.16771336 -0.056399617 0.081472024
000330 5a 76 aa bc 9c 27 47 bc 47 39 9a bc d6 be c8 bd
       -0.020808388 -0.01215544 -0.01882614 -0.09802024
000340 87 0c f2 3c 47 ae 12 bd 56 72 2c bd 73 f7 06 bd
       0.02954699 -0.035810735 -0.042101227 -0.03295083
000350 e7 a0 39 3d 6a da c0 bd ce e8 58 3d a8 8a 91 3d
       0.045319464 -0.09416659 0.052956395 0.07106525
000360 5e fc b9 bd 18 e2 63 3d 10 50 3b 3d 89 35 a2 bd
       -0.09081338 0.05563554 0.04573065 -0.07920367
000370 88 e4 ab 3c 38 83 60 3d 20 e7 1d 3d 49 92 8c 3d
       0.020982996 0.05481264 0.038550496 0.06863839
000380 62 34 2b bd 92 2e 40 bd ad 4c e3 3b 83 a0 db 3d
       -0.041798003 -0.046919413 0.0069366307 0.107239746
000390 3d b8 c4 bc 92 0a bf bd a6 42 cf 3d 4f e5 9a bd
       -0.024013633 -0.09328188 0.10120134 -0.075632684
0003a0 b3 32 a2 bd 87 69 76 3d 41 77 3f 3d f5 47 aa bd
       -0.07919826 0.060159232 0.04674459 -0.08314506
0003b0 b9 91 b1 3d de bd 5a 3d 67 66 c3 bc 05 b3 01 3e
       0.086703725 0.053403728 -0.02385254 0.12665947
0003c0 34 bc 4d bc 83 12 e6 bc 41 9c 90 3d fb 0e 64 bd
       -0.012557078 -0.028084999 0.07061053 -0.05567835
0003d0 03 d9 a5 3d b2 57 bc 3a 1d c3 6e bd b0 7e 4e bd
       0.08098032 0.0014369397 -0.058291543 -0.050413787
0003e0 9e 9e 45 bd 5a b2 52 3c 03 ca dc 3c ef 0f 49 3c
       -0.048246972 0.012859905 0.026951795 0.012271865
0003f0 01 83 80 3d 81 a7 8a bc 99 8f 93 3c b4 07 c6 3c
       0.06274987 -0.016925575 0.018012809 0.024173595

encoder.graph_embed.GCN_layers.0.linear.bias f4 [64]
000000 58 2b 9d bd 9b 68 cd 3c 9a c9 b8 bc 11 eb a4 bd
       -0.07674283 0.025074294 -0.022557069 -0.08052648
000010 43 ed d2 bd 3f fe 7e bd d2 d0 b4 3c 4d 1a 47 bc
       -0.1029916 -0.062254187 0.02207223 -0.012152267
000020 21 7e 7d 3d 6b 23 cc ba c0 62 bf 3c 9e 6f d5 bd
       0.061887864 -0.001557452 0.023362517 -0.1042168
000030 0d 9a 90 3d 1e 5e a2 bd 9f 1b 0f bb 66 aa 14 bd
       0.07060633 -0.07928108 -0.0021836532 -0.036295317
000040 ab 92 7a 3d 9e 83 3a bd cc e7 28 b9 e9 66 35 bd
       0.06117503 -0.045535676 -0.0001610808 -0.044287596
000050 e2 94 d4 bc e0 46 ab bd 89 46 25 bc 9c 48 3d 3d
       -0.0259499 -0.08363128 -0.010087618 0.046211824
000060 a0 82 ef bb d8 b2 26 bd dc d7 f6 3c a6 76 ed bc
       -0.007309273 -0.040697902 0.030132227 -0.02898724
000070 e7 e2 b6 3d 7e ae 0e bc 00 d4 92 bb aa be 85 bd
       0.08929997 -0.008708594 -0.004480839 -0.06530507
000080 88 14 d9 bc cd 22 8c bd d7 7b de bc 17 f1 01 bd
       -0.026499048 -0.06842575 -0.02715866 -0.03172406
000090 6c 65 ae 3c fe f6 bc bd 67 b7 b2 bd fb 34 0b bd
       0.021288596 -0.092267975 -0.087263875 -0.033986073
0000a0 f6 3f 52 3d 97 7a 35 bd 9b 95 09 3c d5 c6 e0 3a
       0.05133053 -0.044306364 0.008397485 0.00171491
0000b0 d0 e0 24 bd ba 18 1c bc 8b 0e a6 3d 14 66 ef 3d
       -0.04025346 -0.00952738 0.081082426 0.11689392
0000c0 bf a1 0d bd c4 88 48 3d 69 85 15 3d 0c f4 d3 bb
       -0.03457808 0.048958555 0.036504183 -0.0064683016
0000d0 93 fc 58 bd 1e 22 38 3d 8a 97 42 3d c4 1e 96 bd
       -0.05297525 0.04495441 0.0475078 -0.07330087
0000e0 48 98 9b 3d 46 3f 52 3d d6 2f 8a ba 6a 77 a0 bc
       0.07597405 0.051329874 -0.0010542821 -0.019588191
0000f0 b4 e3 7e bc c0 70 5b bd 51 b2 cf bd 30 4e 0a be
       -0.015557218 -0.053574324 -0.10141433 -0.13506389

encoder.pos_enc.pe f4 [500, 64]
000000 00 00 00 00 00 00 80 3f 00 00 00 00 00 00 80 3f
       0.0 1.0 0.0 1.0
000010 00 00 00 00 00 00 80 3f 00 00 00 00 00 00 80 3f
       0.0 1.0 0.0 1.0
000020 00 00 00 00 00 00 80 3f 00 00 00 00 00 00 80 3f
       0.0 1.0 0.0 1.0
000030 00 00 00 00 00 00 80 3f 00 00 00 00 00 00 80 3f
       0.0 1.0 0.0 1.0
000040 00 00 00 00 00 00 80 3f 00 00 00 00 00 00 80 3f
       0.0 1.0 0.0 1.0
000050 00 00 00 00 00 00 80 3f 00 00 00 00 00 00 80 3f
       0.0 1.0 0.0 1.0
000060 00 00 00 00 00 00 80 3f 00 00 00 00 00 00 80 3f
       0.0 1.0 0.0 1.0
000070 00 00 00 00 00 00 80 3f 00 00 00 00 00 00 80 3f
       0.0 1.0 0.0 1.0
000080 00 00 00 00 00 00 80 3f 00 00 00 00 00 00 80 3f
       0.0 1.0 0.0 1.0
000090 00 00 00 00 00 00 80 3f 00 00 00 00 00 00 80 3f
       0.0 1.0 0.0 1.0
0000a0 00 00 00 00 00 00 80 3f 00 00 00 00 00 00 80 3f
       0.0 1.0 0.0 1.0
0000b0 00 00 00 00 00 00 80 3f 00 00 00 00 00 00 80 3f
       0.0 1.0 0.0 1.0
0000c0 00 00 00 00 00 00 80 3f 00 00 00 00 00 00 80 3f
       0.0 1.0 0.0 1.0
0000d0 00 00 00 00 00 00 80 3f 00 00 00 00 00 00 80 3f
       0.0 1.0 0.0 1.0
0000e0 00 00 00 00 00 00 80 3f 00 00 00 00 00 00 80 3f
       0.0 1.0 0.0 1.0
0000f0 00 00 00 00 00 00 80 3f 00 00 00 00 00 00 80 3f
       0.0 1.0 0.0 1.0
000100 a4 6a 57 3f 41 51 0a 3f ce 7a 2e 3f b0 54 3b 3f
       0.84147096 0.54030234 0.68156135 0.731761
000110 ba 7d 08 3f 0d 94 58 3f f0 90 d1 3e c7 92 69 3f
       0.53316844 0.8460091 0.4093089 0.9123959
000120 3e 39 9f 3e 6b 4e 73 3f 25 8f 70 3e f1 d5 78 3f
       0.3109836 0.9504153 0.23492105 0.9720145
000130 3a 23 35 3e 83 f6 7b 3f f3 25 08 3e 28 ba 7d 3f
       0.17689219 0.9842302 0.13295726 0.99112177
000140 76 75 cc 3d 98 b8 7e 3f 36 6f 99 3d d1 47 7f 3f
       0.099833414 0.9950042 0.07491915 0.9971896
000150 ae 36 66 3d 68 98 7f 3f fa ac 2c 3d bd c5 7f 3f
       0.05620449 0.9984193 0.04215715 0.999111
000160 5b 81 01 3d 3c df 7f 3f a5 3e c2 3c 93 ed 7f 3f
       0.031617504 0.99950004 0.023711512 0.99971884
000170 42 ab 91 3c a3 f5 7f 3f 49 7a 5a 3c 2c fa 7f 3f
       0.017781857 0.99984187 0.013334819 0.99991107
000180 57 d6 23 3c b9 fc 7f 3f 16 b9 f5 3b 28 fe 7f 3f
       0.009999833 0.99995 0.0074988706 0.99997187
000190 5a 44 b8 3b f7 fe 7f 3f 5a 2e 8a 3b 6b ff 7f 3f
       0.0056233825 0.9999842 0.0042169513 0.9999911
0001a0 1c 3e 4f 3b ac ff 7f 3f 03 69 1b 3b d1 ff 7f 3f
       0.0031622713 0.999995 0.0023713715 0.9999972
0001b0 20 15 e9 3a e6 ff 7f 3f 8a c9 ae 3a f1 ff 7f 3f
       0.0017782785 0.99999845 0.001333521 0.9999991
0001c0 6d 12 83 3a f8 ff 7f 3f 89 94 44 3a fb ff 7f 3f
       0.0009999998 0.9999995 0.000749894 0.9999997
0001d0 13 6a 13 3a fd ff 7f 3f 21 17 dd 39 ff ff 7f 3f
       0.0005623411 0.9999998 0.00042169637 0.99999994
0001e0 61 cb a5 39 ff ff 7f 3f 0d a8 78 39 00 00 80 3f
       0.00031622782 0.99999994 0.00023713727 1.0
0001f0 53 77 3a 39 00 00 80 3f 6d d4 0b 39 00 00 80 3f
       0.00017782794 1.0 0.00013335208 1.0
000200 b7 c7 68 3f 33 11 d5 be d9 5a 7f 3f 53 4d 91 3d
       0.9092974 -0.41614684 0.99748 0.070948265
000210 0a f2 66 3f b2 e8 dc 3e 11 35 3f 3f 03 39 2a 3f
       0.9021307 0.43146282 0.7469035 0.6649324
000220 1b 54 17 3f ec 7b 4e 3f b5 d3 e9 3e 69 be 63 3f
       0.5911271 0.8065784 0.45669332 0.8896242
000230 f6 47 b2 3e a6 fa 6f 3f 82 f0 86 3e f5 f2 76 3f
       0.34820527 0.93741834 0.26355368 0.96464473
000240 f8 6f 4b 3e a5 e5 7a 3f d3 00 19 3e 4f 20 7d 3f
       0.19866931 0.9800666 0.1494172 0.98877424
000250 86 d9 e5 3d f3 61 7e 3f ae 85 ac 3d 0e 17 7f 3f
       0.1122313 0.9936821 0.08423935 0.99644554
000260 c8 70 81 3d f9 7c 7f 3f aa 30 42 3d 4e b6 7f 3f
       0.063203394 0.9980007 0.04740969 0.9988755
000270 5c a5 11 3d 8e d6 7f 3f 50 75 da 3c b1 e8 7f 3f
       0.03555809 0.9993676 0.026667267 0.99964434
000280 3e d4 a3 3c e5 f2 7f 3f 51 b7 75 3c a1 f8 7f 3f
       0.019998666 0.9998 0.014997319 0.9998875
000290 9b 43 38 3c db fb 7f 3f 0a 2e 0a 3c ab fd 7f 3f
       0.011246587 0.99993676 0.008433828 0.9999644
0002a0 d8 3d cf 3b b1 fe 7f 3f e7 68 9b 3b 43 ff 7f 3f
       0.006324511 0.99998003 0.00474273 0.99998873
0002b0 08 15 69 3b 96 ff 7f 3f 7f c9 2e 3b c4 ff 7f 3f
       0.0035565514 0.9999937 0.0026670394 0.9999964
0002c0 68 12 03 3b df ff 7f 3f 85 94 c4 3a ed ff 7f 3f
       0.0019999985 0.99999803 0.0014997876 0.99999887
0002d0 12 6a 93 3a f5 ff 7f 3f 1f 17 5d 3a fa ff 7f 3f
       0.0011246821 0.99999934 0.0008433926 0.99999964
0002e0 60 cb 25 3a fd ff 7f 3f 0c a8 f8 39 fe ff 7f 3f
       0.0006324556 0.9999998 0.0004742745 0.9999999
0002f0 53 77 ba 39 ff ff 7f 3f 6d d4 8b 39 00 00 80 3f
       0.00035565588 0.99999994 0.00026670416 1.0
000300 c3 81 10 3e 26 70 7d bf de 3c 47 3f ce bf 20 bf
       0.14112 -0.9899925 0.7782725 -0.6279267
000310 d7 45 7e 3f ab 7f ed bd 63 21 74 3f 63 18 9a 3e
       0.9932532 -0.11596616 0.95363444 0.3009673
000320 c2 09 50 3f 58 2f 15 3f b7 24 27 3f a2 e7 41 3f
       0.8126489 0.58275366 0.652904 0.7574407
000330 6c 2f 02 3f 29 6d 5c 3f a7 68 c7 3e 37 c9 6b 3f
       0.5085361 0.86104065 0.3894703 0.92103904
000340 6c 4e 97 3e ef 90 74 3f e2 6d 64 3e 92 8c 79 3f
       0.2955202 0.9553365 0.22307542 0.9748012
000350 d7 ee 2b 3e 9e 5d 7c 3f 2c 33 01 3e 43 f4 7d 3f
       0.16790329 0.9858035 0.12617177 0.9920084
000360 c0 ff c1 3d 4f d9 7e 3f 06 93 91 3d 3a 5a 7f 3f
       0.094726086 0.99550337 0.071081206 0.9974705
000370 4e 69 5a 3d c3 a2 7f 3f c5 d1 23 3d 90 cb 7f 3f
       0.053323083 0.9985773 0.039994974 0.99919987
000380 1f b9 f5 3c 83 e2 7f 3f 47 47 b8 3c 6b ef 7f 3f
       0.0299955 0.99955004 0.022494925 0.999747
000390 c6 31 8a 3c ad f6 7f 3f 46 44 4f 3c c1 fa 7f 3f
       0.016869437 0.9998577 0.012650555 0.99991995
0003a0 0d 6e 1b 3c 0d fd 7f 3f 13 1d e9 3b 58 fe 7f 3f
       0.009486687 0.999955 0.0071140616 0.9999747
0003b0 a8 cf ae 3b 11 ff 7f 3f 13 17 83 3b 7a ff 7f 3f
       0.005334813 0.99998575 0.0040005534 0.999992
0003c0 92 9b 44 3b b5 ff 7f 3f 60 6f 13 3b d6 ff 7f 3f
       0.0029999954 0.9999955 0.0022496805 0.9999975
0003d0 17 1f dd 3a e8 ff 7f 3f 56 d1 a5 3a f3 ff 7f 3f
       0.0016870227 0.99999857 0.0012650888 0.9999992
0003e0 10 b1 78 3a f9 ff 7f 3f 09 7e 3a 3a fc ff 7f 3f
       0.00094868336 0.9999996 0.00071141176 0.99999976
0003f0 7e d9 0b 3a fe ff 7f 3f a4 be d1 39 ff ff 7f 3f
       0.0005334838 0.9999999 0.00040005625 0.99999994

encoder.transformer.in_proj_weight f4 [192, 64]
000000 e3 ce 98 bc 24 f1 ef 3d 82 40 31 3d e3 d5 e8 bd
       -0.018653339 0.11715916 0.04327441 -0.11368921
000010 00 be 31 bd ae d5 fc 3d 8e 42 a5 bb db 2d 23 bd
       -0.04339409 0.12345444 -0.0050433343 -0.039838653
000020 f1 08 11 3e d4 87 12 be e5 b1 f8 bd 99 dd 1f 3d
       0.14163567 -0.14309627 -0.12143306 0.03902969
000030 5f 44 0a bd 8a ae 15 3d 00 a5 9c 3d b5 fb 20 bc
       -0.03375661 0.036543407 0.07648659 -0.009825637
000040 31 cc 28 be 8c 43 8f bd e3 72 43 3b 82 99 89 3d
       -0.16484143 -0.069953054 0.0029823116 0.067187324
000050 d2 d0 6e 3d c0 47 e1 3c 96 c9 8e bd d4 50 e6 3d
       0.058304615 0.027500033 -0.06972043 0.112458855
000060 d6 6a 24 3e 5b a7 c0 bd df ea b1 bd 98 05 9a 3d
       0.1605638 -0.094069205 -0.08687376 0.07520598
000070 f5 d4 57 bd 54 fd b5 bd eb 76 50 3c 1e 41 8c bc
       -0.052693326 -0.08886209 0.012723665 -0.017120894
000080 72 e0 44 3e 6b c6 1b 3e 90 50 a0 3d d4 3e ac 3d
       0.19226244 0.15212409 0.07827866 0.08410421
000090 c7 37 04 3e b9 59 79 3c 67 ac 05 3e c8 86 c5 bc
       0.12911902 0.015219145 0.13054048 -0.02411212
0000a0 9a b8 d8 bd 97 91 0b be 60 58 fc 3d d0 20 5b bc
       -0.10582085 -0.13629757 0.12321544 -0.013374522
0000b0 db b0 0f 3e 7e 02 87 bc 1d 68 b1 bd 0e b2 71 bd
       0.14032309 -0.01648068 -0.08662436 -0.059007697
0000c0 bf 0a 50 bd 0c 93 82 bc 87 f3 24 bd b2 8d a2 bd
       -0.0507915 -0.015939258 -0.04027131 -0.079371825
0000d0 d0 1d 4f 3d f6 28 d9 bd ba 65 f3 bd 36 71 e7 bd
       0.05056554 -0.10603516 -0.11884637 -0.1130089
0000e0 d6 1e 88 3d 60 46 ff 3c a5 7e 03 be 53 a4 fd bc
       0.066465065 0.031161487 -0.1284128 -0.030962145
0000f0 ad c0 53 bc 58 cf 0f be 7c ee 66 bd 20 44 f1 bd
       -0.012924355 -0.14043939 -0.05637978 -0.11780572
000100 d6 cd e2 bd ff e5 33 be f0 c0 f8 3d 1c 06 17 bd
       -0.11074416 -0.17568205 0.12146175 -0.03687106
000110 1a 72 2b bd 10 b9 08 3d 24 f6 c4 bd d8 da 05 3e
       -0.041856863 0.033379614 -0.0961726 0.13071764
000120 54 7e cf bb cf c4 52 3d aa f6 4d 3c 6f 60 66 3d
       -0.006332198 0.051457223 0.012571016 0.05624431
000130 36 c1 31 be 2d 22 38 3e f5 3f aa bd 79 9e 03 3d
       -0.1735886 0.17981787 -0.0831298 0.032133553
000140 ca b1 52 3c e8 16 4b 3c 2a 8e 62 bd 82 06 87 bc
       0.012859771 0.012395598 -0.05531136 -0.016482595
000150 a2 bf d0 bb 04 61 ef bc 2c e9 6c bd 1c a0 f3 ba
       -0.0063705007 -0.029221065 -0.057839558 -0.0018587145
000160 6f 4d 86 bc 58 0e 45 3b c7 19 92 3d 5e 4d e6 3c
       -0.016394345 0.0030068364 0.07133823 0.028113063
000170 3b a3 6c bd b5 09 3d 3d 7a 70 6d bd 15 96 ae 3d
       -0.057772856 0.046151835 -0.057968594 0.085247196
000180 70 59 b8 bd 32 4b 30 be 00 80 ba bc a6 c0 6c 3d
       -0.09001434 -0.17216185 -0.022766113 0.05780091
000190 f3 36 4d bd 5e 12 ed 3d 99 50 27 be 59 02 86 3d
       -0.05010123 0.11575769 -0.1633934 0.065434165
0001a0 d7 ed 37 3d 93 89 0f be ce 1b ed bd 7e d9 87 3d
       0.044904556 -0.14017324 -0.11577569 0.0663328
0001b0 35 6d 17 be 1a 39 d0 bd 4d 09 0b 3e 9f 95 23 be
       -0.14787753 -0.10167141 0.13577767 -0.15975045
0001c0 b6 1f d5 bd 7a 3f 23 bd 80 b9 2b 3e a6 8c 38 be
       -0.10406439 -0.039855458 0.16769981 -0.18022403
0001d0 3f 16 14 3c 7c be da bc bc 27 85 3d 88 5f 27 be
       0.009038507 -0.026702158 0.06501719 -0.16345036
0001e0 5e 9f 90 bc 4f 5a fe bd 5a 4b 4d 3d 87 56 64 3c
       -0.017654117 -0.12419569 0.05012069 0.013936645
0001f0 4f bd 9c 3d 65 c3 24 be 10 fc d7 3d 5e b0 1f be
       0.07653295 -0.16090162 0.10546124 -0.15594622
000200 87 60 be 3b 9f d9 90 3d 52 2b 74 ba 94 64 eb 3c
       0.005809847 0.07072758 -0.00093143166 0.028734483
000210 4b af 33 3e 9d dc 28 be 44 7b fa bd 83 a1 82 bc
       0.17547338 -0.16490407 -0.12230542 -0.015946155
000220 6d 7b aa 3d 02 56 0f be 5f 3b 1b be 89 9f bb bd
       0.08324323 -0.13997653 -0.15159367 -0.09161288
000230 88 0a 30 bd e4 64 3a 3c 6a 29 83 3d 1b 80 75 bd
       -0.042978793 0.011376593 0.064043835 -0.059936624
000240 cf 2b b5 bd ba f4 b7 bc d0 8d 85 bd ce 48 13 3e
       -0.088462465 -0.022455562 -0.06521189 0.14383242
000250 12 3f 62 3d ce 26 9d 3d 4b c7 e1 bc 9f a0 b0 3d
       0.05523593 0.07673417 -0.02756085 0.08624386
000260 9e b0 d9 bd dc b7 9d 3d 00 02 a9 3d 8a 13 47 bc
       -0.1062939 0.07701084 0.082523346 -0.012150655
000270 4b b6 88 bd f8 af ac 3d be c2 03 be 51 f0 b0 bd
       -0.066753946 0.08432001 -0.12867257 -0.08639587
000280 e5 fb 08 bd 89 a3 c3 bd f6 1b de bd 9e c8 74 3b
       -0.03344335 -0.09552676 -0.10845177 0.0037351022
000290 1f 9d c1 3b 03 0b da bd a0 ea 09 3e cd 43 92 bd
       0.005908623 -0.106466316 0.13468409 -0.07141838
0002a0 70 a9 11 be 16 9b c7 bd 46 4d 26 3e bf 86 fd 3a
       -0.14224792 -0.09746377 0.16240415 0.0019342526
0002b0 30 2f 81 3d aa ee e2 3d ba ba 02 3e c9 f9 79 bd
       0.063078284 0.11080678 0.12766543 -0.06102923
0002c0 1e b8 0d 3e f2 20 f1 bd 21 cd c5 3d e0 44 48 3d
       0.13839766 -0.11773862 0.09658266 0.04889381
0002d0 a6 e7 e4 3d d1 6c f0 bd 45 f0 68 bd 9b 63 17 3d
       0.11176996 -0.11739505 -0.056869764 0.036960226
0002e0 21 04 c7 bd 79 87 3a 3c 89 bc 6d bd 44 25 04 bd
       -0.097175844 0.011384838 -0.05804113 -0.0322621
0002f0 0b eb b0 bd 3d 48 8b bd 6f 22 8c 3d 84 4d 0e be
       -0.08638581 -0.06800888 0.06842505 -0.13896757
000300 77 d9 08 3e a7 99 e1 3d a0 2e 99 3d 21 76 07 be
       0.13364206 0.11015635 0.07479596 -0.13228656
000310 43 55 99 3c f4 cb 1c 3e 37 16 14 bc fa 9f 26 bd
       0.018717414 0.15312177 -0.0090385 -0.04067991
000320 0b be 28 bd 53 e3 f3 3d f9 e0 82 3d 8c a6 82 3d
       -0.041196864 0.11908593 0.063905664 0.063794225
000330 7b 92 3b 3d fa cf 93 3d b6 03 42 3c 35 db 89 bd
       0.04579399 0.07217403 0.011841705 -0.067312635
000340 25 8c 41 3e 62 b8 90 3b 2f 81 2b 3d 28 a9 3e 3e
       0.18901117 0.0044165114 0.041871246 0.18619215
000350 c8 ea 3f bc 91 59 57 3e fd 57 6e bd b3 63 f7 bd
       -0.011713691 0.2103026 -0.05818938 -0.12079563
000360 4d 96 ff bb d7 67 bc bc 06 1a a8 3d e8 b4 11 be
       -0.0077998997 -0.022998733 0.082080886 -0.14229167
000370 76 8d 03 be e4 4d cc bd c2 c8 7b 3c 5c 34 32 3b
       -0.12846932 -0.09975794 0.015367689 0.0027191853
000380 47 22 5c bd 83 f7 04 be 24 83 f5 3c 2d a5 51 bd
       -0.053743627 -0.12985043 0.02996976 -0.051182915
000390 54 f9 59 3d 67 89 5e bc 05 e7 67 bb c3 1b 0e be
       0.053216293 -0.013582564 -0.00353855 -0.13877778
0003a0 70 3a 62 3e b4 30 f8 bd 76 3c 69 bd 9f 84 2f be
       0.22092605 -0.121186644 -0.056942426 -0.17140435
0003b0 a7 c6 4b 3d 15 7f e2 bd bb 00 11 3e 93 22 1a be
       0.049749997 -0.11059395 0.14160435 -0.15052252
0003c0 cc bb 20 3e 64 29 44 3d fb b2 a1 bc dd 1a 60 3c
       0.15696639 0.047891036 -0.019738665 0.01367828
0003d0 95 35 a1 bd b1 1f c9 3d 2d 7b 0f 3e 09 b9 7d bd
       -0.07871548 0.09820498 0.14011832 -0.06194404
0003e0 4f ba a2 3d f6 f2 03 bd fd 52 b7 3d 5d 02 70 be
       0.07945692 -0.032214127 0.08951376 -0.23438402
0003f0 17 b8 52 3c 47 bc 33 3d ef 7e d4 bd cb 0d ed 3d
       0.012861273 0.043880727 -0.10375773 0.115748964

encoder.transformer.in_proj_bias f4 [192]
000000 39 55 69 3a 4e 62 2a bd 3c 84 75 bb c4 83 9e bd
       0.0008900944 -0.041597657 -0.003746285 -0.07739976
000010 56 6c e7 bc 43 55 25 3c e3 06 36 3d de 79 8b bd
       -0.0282499 0.010091129 0.04444016 -0.06810354
000020 d0 a7 37 bd ab dc cd 3c 6e cc dd bc cd e9 ce 3d
       -0.044837773 0.025129637 -0.027075019 0.10103188
000030 f1 11 bf 3c b8 c8 70 bc 5b a2 33 bc 9e 94 c3 bc
       0.023323985 -0.014696293 -0.0109640015 -0.023874577
000040 7a 62 6c 3c 52 16 2f 3d 68 0e 32 3d 18 b5 e0 3c
       0.0144277755 0.042745896 0.04347077 0.027430102
000050 cf 91 a4 bd 37 ae 6a 3c 3f a1 82 3d 49 4f 14 39
       -0.08035623 0.014323763 0.063784115 0.00014143916
000060 45 4d 3e bd a8 19 82 bd 8b 3b a8 3d cb 18 29 3d
       -0.04646041 -0.0635255 0.08214482 0.04128341
000070 70 0e 89 bd aa 40 3e bd a0 3f 29 3d 04 22 a5 3d
       -0.06692207 -0.046448387 0.041320443 0.080631286
000080 6f 70 93 3d 78 f0 60 3d cc 33 8b 3d 67 67 0b bd
       0.071991794 0.05491683 0.06796989 -0.03403416
000090 5d 7a c3 bc c9 e1 13 bd 6b f2 0b 3c 9e 87 3f bd
       -0.023862058 -0.036103997 0.008541684 -0.046760194
0000a0 cf c9 87 3d d2 ad da bb 5c f6 e7 3c 6f d2 82 3d
       0.06630289 -0.006673553 0.028315715 0.06387793
0000b0 7b 6e b1 bd 3e 6f f9 3c c8 6c f8 3c 40 54 46 3d
       -0.086636506 0.030448552 0.030325308 0.04842019
0000c0 62 34 10 3d 91 7f f5 3c 9c dc 82 bc 3c 7b 27 bc
       0.035206206 0.029968055 -0.015974335 -0.010222252
0000d0 1c 3a 9f bc c7 ef ac 3d ed 8e 83 3d b5 b7 a6 bd
       -0.019436888 0.084441714 0.06423745 -0.08140508
0000e0 b8 c4 b5 3d 3c 03 f8 3c 31 a5 17 3d b5 51 bd 3d
       0.08875412 0.03027498 0.037022773 0.092441
0000f0 43 8c 19 bd c0 03 10 3d 30 b4 34 bd 2e 30 46 3d
       -0.03748728 0.035159826 -0.044117153 0.04838579
000100 da 1c da 34 b6 a8 a9 35 d6 12 e2 34 d7 40 9c 36
       4.0626657e-07 1.2640583e-06 4.2109485e-07 4.6567106e-06
000110 51 d3 25 36 fc 07 22 35 f8 b7 37 b6 e5 48 4d 36
       2.4709918e-06 6.036132e-07 -2.737621e-06 3.058981e-06
000120 93 a0 00 36 01 c9 e3 b5 62 3f 1a 36 7f 0f a5 b6
       1.9166953e-06 -1.6971318e-06 2.2984682e-06 -4.919187e-06
000130 2b 88 8c b5 bd 88 24 35 90 11 49 35 77 34 ad 35
       -1.0470443e-06 6.129374e-07 7.490389e-07 1.2904774e-06
000140 ad 81 21 36 b0 f1 ec 35 77 9e 11 36 2d a8 2c 36
       2.406635e-06 1.765371e-06 2.1698922e-06 2.5727888e-06
000150 4e 82 9d b6 44 9f 7a b5 3c 19 1b 36 05 3c 86 b4
       -4.694134e-06 -9.336402e-07 2.3111488e-06 -2.5003115e-07
000160 c9 01 9d b5 22 88 02 b6 2b d3 62 36 73 32 74 35
       -1.1697931e-06 -1.945075e-06 3.379954e-06 9.0970497e-07
000170 af 16 a1 34 66 30 b1 34 0f ab ea b4 0f 78 fa 35
       3.000509e-07 3.3004034e-07 -4.3710358e-07 1.8661393e-06
000180 03 19 18 36 2e 39 f1 b4 3d 92 72 34 b5 23 f8 b3
       2.2664324e-06 -4.4931352e-07 2.2591207e-07 -1.1554895e-07
000190 51 45 a3 b5 d4 1d 76 b5 5f 68 09 36 02 48 97 b5
       -1.216462e-06 -9.1685547e-07 2.0475343e-06 -1.1271334e-06
0001a0 77 7a 6b 35 8f da 2d b5 b7 e0 b4 b2 50 fc cc 35
       8.772253e-07 -6.4765567e-07 -2.1056946e-08 1.5272617e-06
0001b0 05 1a 01 b5 69 2f 2b b5 fc 1d 22 36 de 23 14 36
       -4.809411e-07 -6.3771455e-07 2.4157334e-06 2.2074596e-06
0001c0 b2 e0 51 b6 61 f5 1c b5 0e 58 c2 34 b1 76 e9 b5
       -3.1274217e-06 -5.84716e-07 3.6199384e-07 -1.7394397e-06
0001d0 fa 64 43 36 bc b3 a3 b6 9f 41 ee b6 9a 89 07 37
       2.911604e-06 -4.8787024e-06 -7.100592e-06 8.078665e-06
0001e0 59 1a c8 b6 8d 77 6c b6 22 21 96 b5 1d d9 0c b7
       -5.9635317e-06 -3.5236328e-06 -1.1185514e-06 -8.395201e-06
0001f0 95 5c fb 35 de e8 26 b6 d8 7e 94 36 d3 c3 fb b5
       1.8727902e-06 -2.4871474e-06 4.4255103e-06 -1.875795e-06
000200 6c 23 3b bc 22 7f 7f 3c 52 7f 28 3d f7 4b 5e 3b
       -0.011422019 0.015594276 0.041137047 0.003391979
000210 42 c8 49 3a 74 39 4e 3d f5 3a 81 3c c2 e1 06 3c
       0.0007697382 0.05034776 0.015775183 0.008232536
000220 8b 28 c2 b8 15 56 0e 3d bb a4 5f 3a 92 b5 b6 bc
       -9.2581926e-05 0.034750063 0.00085313217 -0.022303376
000230 6a e6 58 3d c1 dc fb 3c 4f 10 e2 bc d6 f8 dd bb
       0.052954115 0.030744912 -0.027595667 -0.0067740483
000240 78 88 06 bd 37 a5 07 3c 97 cb af 3c ad 26 8b bb
       -0.03284499 0.008279136 0.021459384 -0.004246554
000250 da da 2d 3c 88 21 45 3d 51 2f 06 3d 3d 27 2b bc
       0.01061126 0.04812768 0.03275997 -0.010446367
000260 81 e4 34 3d 40 b6 3a 3c c6 6a 27 bd 57 3f 1f 3b
       0.04416323 0.011395991 -0.04087331 0.0024299228
000270 dc b2 4d bd 17 6e 95 3c 59 61 92 3c c1 06 ba 3c
       -0.0502194 0.018240971 0.017868685 0.022708299
000280 8c f4 08 bd 94 cf 14 3d e1 f8 6d 3b 7a 7b a6 bc
       -0.033436343 0.036330774 0.0036311673 -0.02032255
000290 ed f7 11 bd 4e bd 02 3c 23 95 12 3d 27 24 6b 3c
       -0.03563683 0.007979704 0.03578676 0.014351881
0002a0 d9 4b 01 bb 37 cf 00 3d de 50 b0 3b 8a f8 00 3d
       -0.0019729047 0.031447615 0.005380734 0.031487025
0002b0 c4 1e 9a 3c ca 2d 20 3d 16 e1 d2 bb 3a 71 92 3c
       0.018813498 0.039106168 -0.0064355237 0.017876256
0002c0 b9 e3 c9 bc 60 7b bd 3c 2b 59 d7 3a 10 81 2b bd
       -0.02464472 0.023130119 0.0016429772 -0.04187113
0002d0 37 db 25 bc fd e9 f7 3c 2a f4 8f 3c 62 d9 32 bc
       -0.010123066 0.030262941 0.017572481 -0.010916086
0002e0 73 23 d7 3c 83 47 22 bc 05 d2 ad bb 0b 84 bd ba
       0.02626202 -0.009904745 -0.0053045773 -0.0014458908
0002f0 01 b6 b5 bc d1 b5 1f 3b 25 4e 88 3c da 1d 7d 3d
       -0.022181513 0.0024369846 0.016638825 0.061796047
