experiments/model_64_40_2026-01-17_4070/model.pt (torch, 231200 bytes, 21 tensors)

encoder.graph_embed.GCN_in.A f4 [9, 9]
0	0xbe4c6458	-0.19960153
1	0x3fecb397	1.8492306
2	0xbf2153bf	-0.6301841
3	0xbe5d0268	-0.21582949
4	0x3f8bbac0	1.0916367
5	0xbec0482f	-0.37555072
6	0xbf56d68c	-0.8392112
7	0x3e75cdb2	0.24004248
8	0xbf0110f0	-0.5041647
9	0xbe903760	-0.28167248
10	0x3edbc7c5	0.4292585
11	0x3e8077a0	0.25091267
12	0x3e929167	0.28626558
13	0x3eb390f5	0.3507153
14	0xbf010e6e	-0.5041264
15	0x3d14adbc	0.0362985
16	0xbf0aa1ee	-0.54153335
17	0xbf96168a	-1.1725628
18	0x3fcd1327	1.602147
19	0x3f069de9	0.525847
20	0x3f5d6173	0.8647682
21	0xbfd29863	-1.6452755
22	0x3f43767b	0.7635266
23	0xbd0516b1	-0.032492343
24	0x3f5fddab	0.87447613
25	0xbfbc815d	-1.4726979
26	0x3ed2bce5	0.4115974
27	0x3f8d5daf	1.1044215
28	0xbf465e2e	-0.77487457
29	0xbdf7f7fc	-0.12107846
30	0xbf4b71b7	-0.7947039
31	0xbfbc2f3c	-1.4701915
32	0x3e90ee33	0.28306732
33	0x3f302b63	0.688162
34	0xbfd0fe9e	-1.6327703
35	0x3ed2a0ec	0.411384
36	0xc002d66d	-2.0443375
37	0xc009303f	-2.1435697
38	0xbfc6de4e	-1.5536592
39	0xbe12e2e4	-0.14344364
40	0x3e4c385f	0.19943379
41	0x3f699648	0.91244936
42	0xbef95a09	-0.48701504
43	0x3f7a0a8e	0.97672355
44	0x3f88bf55	1.068339
45	0xbfb62b29	-1.4231921
46	0x3d396390	0.045260966
47	0x3f4a0a21	0.78921705
48	0xbfc40373	-1.5313553
49	0x3caf24a9	0.021379786
50	0xbf4d3836	-0.80163896
51	0xbf1a90db	-0.6037728
52	0xbf8408e0	-1.0315208
53	0x3fa24dc1	1.2679979
54	0xbf54f84b	-0.83191365
55	0x3fafee5c	1.3744617
56	0x3e959461	0.29214767
57	0x40416d1c	3.0222845
58	0xbf81811e	-1.0117528
59	0xbfcb016c	-1.5859809
60	0xbf5fcaf3	-0.8741905
61	0x3f6e73ac	0.9314525
62	0xbf688081	-0.9082108
63	0x3facaf1d	1.349094
64	0x3e3adbd1	0.18247916
65	0x3ef9a744	0.48760426
66	0xbf3295fc	-0.6976011
67	0x3ff67216	1.9253566
68	0x3e6007bf	0.21877955
69	0x401e3ce4	2.4724665
70	0x3f191086	0.5979084
71	0x3c8db993	0.017300403
72	0x3e757875	0.23971732
73	0x3f781f9d	0.9692324
74	0xbf354e6c	-0.7082279
75	0x3fa1d726	1.2643783
76	0x3e26e33a	0.16297618
77	0xbf2eeb0e	-0.68327415
78	0xbc970989	-0.018437164
79	0xbf27739c	-0.6541078
80	0xbf006958	-0.5016074

encoder.graph_embed.GCN_in.linear.weight f4 [64, 16]
0	0x3e3a738a	0.18208137
1	0xbe63e355	-0.22254689
2	0x3e1465a1	0.14491893
3	0x3dc25c55	0.09490267
4	0x3e4f85ca	0.2026588
5	0x3cd41672	0.025889609
6	0xbe09cb5b	-0.1345648
7	0x3d11eb87	0.035625007
8	0xbe1bbfed	-0.15209933
9	0xbe0e37e4	-0.13888508
10	0xbe0b1b76	-0.13584694
11	0xbe0e210b	-0.13879792
12	0xbe56699b	-0.20938723
13	0x3da4816e	0.08032499
14	0xbde50621	-0.111828096
15	0xbd82a2eb	-0.063787304
16	0xbe869896	-0.2628829
17	0x3e42e99d	0.19034429
18	0xbe258820	-0.16165209
19	0x3e4deeae	0.2011058
20	0x3e563dae	0.20921966
21	0xbe571ecf	-0.21007846
22	0x3e942806	0.28936785
23	0x3e31e6f5	0.1737326
24	0x3df96418	0.121772945
25	0xbe295fca	-0.16540447
26	0xbe533aee	-0.20627949
27	0x3d2567fb	0.040382367
28	0xbe61df6b	-0.22057883
29	0xbdc0b901	-0.09410287
30	0x3e441571	0.19148804
31	0xbd8b07c2	-0.06788589
32	0xbe565243	-0.20929818
33	0xbe0e2ca6	-0.1388422
34	0x3e346b5f	0.17619084
35	0xbe562f4b	-0.20916478
36	0xbe4d80e8	-0.20068705
37	0xbc3c8978	-0.0115073845
38	0x3e0903fe	0.13380429
39	0x3e85f5f6	0.26164216
40	0x3e3cf732	0.18453673
41	0xbe370fa3	-0.17877059
42	0xbc0789d4	-0.008272607
43	0xbd81bc1f	-0.063347094
44	0xbe73c488	-0.2380544
45	0x3e5db51f	0.21651123
46	0x3d45c560	0.048283935
47	0x3dbdf853	0.0927588
48	0xbdc84c84	-0.09780219
49	0xbe0e6389	-0.13905157
50	0xbd0001ed	-0.031251837
51	0x3e468218	0.19385564
52	0xbe3aafc2	-0.18231109
53	0xbe724fae	-0.23663208
54	0xbe35b43d	-0.17744537
55	0xbe5954ac	-0.21223706
56	0xbdaee755	-0.08540217
57	0x3dcfbbc0	0.10143232
58	0xbe1cff38	-0.15331733
59	0x3d726c5b	0.059185367
60	0x3e55dc20	0.20884752
61	0xbdc8704d	-0.09787045
62	0x3e07ee88	0.13274586
63	0x3ce49d05	0.027906904
64	0xbd2924d1	-0.041294876
65	0x3d742329	0.059603844
66	0x3db1d8c2	0.086839214
67	0x3de8bf63	0.11364629
68	0xbe055ff2	-0.13024881
69	0x3cae7e3b	0.021300426
70	0x3e54da69	0.20786442
71	0x3d25f426	0.04051604
72	0x3de39374	0.11112109
73	0xbe20a499	-0.15687789
74	0xbe838880	-0.2569008
75	0xbe0e9445	-0.13923748
76	0x3e139e85	0.14415939
77	0x3e36ff25	0.17870767
78	0xbda5a9d4	-0.08089033
79	0x3d9598f4	0.07304564
80	0xbd463660	-0.0483917
81	0xbbe46ae3	-0.0069707497
82	0x3d9eabb7	0.07747596
83	0xbdc3ce8f	-0.09560882
84	0x3dfaea21	0.12251688
85	0xbdd4547e	-0.10367678
86	0x3da98515	0.082773365
87	0x3e45bd4f	0.19310497
88	0xbe22b368	-0.1588875
89	0x3c9ab94f	0.01888719
90	0xbe7efd2c	-0.24901265
91	0xbcc5dcc6	-0.024153125
92	0xbde46572	-0.11152162
93	0xbe72c484	-0.23707777
94	0xbe021aa0	-0.12705469
95	0x3cf32491	0.029680522
96	0xbdde21ba	-0.108462766
97	0xbdcc57e3	-0.099777006
98	0x3e239577	0.15974985
99	0x3da31875	0.07963649
100	0xbd8edb07	-0.0697537
101	0xbe7b672c	-0.24551076
102	0xbdf36a5d	-0.118855216
103	0x3e617173	0.22015934
104	0x3e31dd3d	0.17369552
105	0xbe208f49	-0.15679659
106	0xbd06f43a	-0.032947756
107	0x3d60107b	0.054703217
108	0xbe2e0455	-0.1699384
109	0x3e001ab0	0.1251018
110	0xbe2a2688	-0.16616261
111	0x3e5d99e3	0.21640734
112	0x3d4ca634	0.04996319
113	0x3e7d77a0	0.24752665
114	0xbe0d7e7d	-0.13817783
115	0x3e42cd45	0.19023617
116	0xbdf71242	-0.12064029
117	0xbe5f29b2	-0.21793249
118	0xbd8077d8	-0.062728584
119	0x3e4a9d31	0.19786526
120	0xbe51f199	-0.20502318
121	0xbde6325d	-0.11240075
122	0x3e3c4899	0.18387069
123	0x3e124169	0.14282764
124	0x3df48be6	0.11940746
125	0x3df40b94	0.11916271
126	0xbe256e33	-0.16155319
127	0x3d6bb179	0.057542298
128	0xbe20c3de	-0.15699717
129	0x38e61930	0.00010971946
130	0x3e569d23	0.2095838
131	0xbe326034	-0.17419511
132	0x3dc1d106	0.09463696
133	0xbe1e6009	-0.15466322
134	0xbdde3b29	-0.10851128
135	0xbe382b8e	-0.17985365
136	0x3cbcfc05	0.023069391
137	0xbde88825	-0.113540925
138	0xbc36b432	-0.01115136
139	0x3d00726a	0.031359114
140	0x3bd52f0f	0.006505854
141	0xbe32bd1d	-0.17454953
142	0xbe2e636d	-0.17030115
143	0xbd08525e	-0.033281676
144	0xbe66f653	-0.22554903
145	0x3cb5bcd4	0.022184767
146	0x3c93a1ad	0.018021429
147	0xbe37decd	-0.17956086
148	0x3d6b23af	0.057407077
149	0xbe3a3266	-0.18183288
150	0xbe1f869a	-0.1557869
151	0xbe31a711	-0.17348887
152	0x3dfa220e	0.12213527
153	0xbe0750d2	-0.13214424
154	0xbe46a9c9	-0.19400705
155	0xbe0b8cc2	-0.13627914
156	0x3e0788aa	0.13235727
157	0xbd1b0308	-0.037844688
158	0xbe5e069c	-0.21682209
159	0xbe769ed0	-0.2408402
160	0xbe306691	-0.17226626
161	0x3d271493	0.040791105
162	0x3e67daaa	0.22642007
163	0xbe67b62f	-0.22628091
164	0x3dbaedd8	0.09127396
165	0x3dc369d6	0.09541671
166	0xbe126e9e	-0.1430001
167	0xbe2d100b	-0.16900651
168	0xbe2b7e0d	-0.16747303
169	0xbe5d4efc	-0.21612161
170	0x3d2c03fe	0.041995995
171	0xbdca8926	-0.0988944
172	0x3de74a07	0.112934165
173	0x3e346101	0.17615129
174	0xbe494181	-0.19653894
175	0x3c7c22b2	0.015389131
176	0xbe3d2f08	-0.18474972
177	0xbe3a1461	-0.18171836
178	0xbe2ac219	-0.16675605
179	0x3e2c9500	0.16853714
180	0x3da9f117	0.08297937
181	0x3e2d9a7b	0.16953461
182	0xbe60be3d	-0.2194757
183	0xbda33c73	-0.07970514
184	0x3c3e381c	0.011610057
185	0xbdb380cb	-0.087648
186	0xbd6c9c03	-0.057765972
187	0xbdc28bdc	-0.09499332
188	0xbe470b96	-0.19438013
189	0x3d3c235f	0.04593217
190	0x3e27e7e9	0.1639706
191	0xbda56073	-0.08075037
192	0x3d55f8ed	0.052239347
193	0x3da7e3a6	0.08197717
194	0xbe42c649	-0.19020952
195	0x3e797ce3	0.24364047
196	0xbc68a83d	-0.014200267
197	0x3d1cc8eb	0.038277548
198	0xbe36ab4b	-0.1783878
199	0xbe2d1038	-0.16900718
200	0xbd3d8a39	-0.046274398
201	0x3d7d9f4d	0.0619195
202	0x3e45308f	0.19256805
203	0x3e301f11	0.17199351
204	0xbdb115ad	-0.086467125
205	0xbe0ee955	-0.13956197
206	0x3d13e1f4	0.036104158
207	0xbe25d480	-0.16194344
208	0xbdbff70c	-0.09373292
209	0xbdd18609	-0.10230643
210	0xbe1d9cee	-0.15391895
211	0xbe89a52b	-0.26883826
212	0xbd8f91c1	-0.07010222
213	0x3e634db0	0.22197604
214	0x3e3f0a6f	0.18656324
215	0x3deec77b	0.11659142
216	0xbdd475c3	-0.10374024
217	0x3d187565	0.03722133
218	0x3d2a53fa	0.041583993
219	0x3d3e433d	0.046450842
220	0xbe5e9636	-0.21736988
221	0x3d5d0540	0.053960085
222	0x3dc7d2ad	0.0975698
223	0xbe02910d	-0.12750645
224	0xbe3280ce	-0.17431948
225	0xbdac2966	-0.084063336
226	0x3e1f1eab	0.15539043
227	0x3e724616	0.23659548
228	0xbdffea16	-0.1249582
229	0xbe3dd7cb	-0.1853935
230	0xbe7f4895	-0.24930032
231	0xbe38c2da	-0.1804308
232	0x3e09ea72	0.1346834
233	0xbd8e2915	-0.069414295
234	0xbe188589	-0.1489469
235	0xbcae0922	-0.02124459
236	0xbe238ae2	-0.15970948
237	0x3db1ae86	0.08675866
238	0xbe6cbda7	-0.23119222
239	0xbe46eba8	-0.19425833
240	0xbe061f05	-0.1309777
241	0xbe602a4f	-0.2189114
242	0x3d2224d1	0.039585892
243	0xbd9468a0	-0.07246518
244	0x3e843769	0.25823525
245	0xbd7f9b5a	-0.062404014
246	0x3e3f6831	0.1869209
247	0x3df42aeb	0.119222485
248	0xbe4beaba	-0.1991376
249	0xbbf4de63	-0.0074727996
250	0x3dfcdc87	0.1234675
251	0xbe26eec9	-0.16302027
252	0x3dd22559	0.1026103
253	0x3cf65e7b	0.030074349
254	0x3e56fdcb	0.20995252
255	0x3e7c7ca2	0.24656919

encoder.graph_embed.GCN_in.linear.bias f4 [64]
0	0xbd5c9eaf	-0.05386227
1	0xbd8f9978	-0.07011694
2	0xbe11152f	-0.14168237
3	0x3e05a3c5	0.13050754
4	0x3e140bb4	0.1445759
5	0x3dfba194	0.12286678
6	0x3e5444be	0.20729348
7	0xbe201f02	-0.15636829
8	0xbe5a1e1a	-0.21300545
9	0xba5a3bb0	-0.0008324934
10	0xb88fece3	-6.862895e-05
11	0x3e09e73e	0.13467118
12	0x3daf42a3	0.08557632
13	0xbe3091fc	-0.17243189
14	0x3e1e1274	0.15436727
15	0xbdb99ce4	-0.09063128
16	0xbd09f557	-0.03368124
17	0x3bdd4cb2	0.0067535276
18	0xbe077c93	-0.13231115
19	0x3e0a8016	0.13525423
20	0x3de16a06	0.110065505
21	0xbdf45224	-0.119297296
22	0xbe68b8bd	-0.22726722
23	0xbe0f392e	-0.13986656
24	0xbc8f4288	-0.01748778
25	0x3d2b9f9e	0.04190027
26	0xbe0b1444	-0.1358195
27	0x3d991115	0.07473961
28	0x3e3ae5a4	0.18251663
29	0x3e1c9d7a	0.15294448
30	0x3d9d4466	0.076790616
31	0x3cfa0301	0.03051901
32	0x3be7dca0	0.007075861
33	0x3e558aab	0.20853679
34	0xbe700f55	-0.23443349
35	0xbdfae48a	-0.122506216
36	0x3e3a4003	0.18188481
37	0xbcd4671f	-0.025928078
38	0x3e69f4f7	0.22847353
39	0x3ccd7521	0.025080265
40	0x3e6554a8	0.22395575
41	0xbcbfcdf2	-0.023413632
42	0x3e1d99a6	0.15390643
43	0xbc4bb79c	-0.012433913
44	0x3d68a640	0.056799173
45	0xbd88c9d8	-0.06679124
46	0xbe1c153e	-0.15242478
47	0x3e582260	0.21106863
48	0x3adc73d5	0.0016819189
49	0xbe238b26	-0.1597105
50	0x3d935537	0.07193988
51	0xbd9b7281	-0.07590199
52	0x3dc5ea65	0.09663848
53	0xbbae5b33	-0.0053209304
54	0x3cb9e6b7	0.022693021
55	0xbe373310	-0.17890573
56	0xbe0361de	-0.12830302
57	0x3e28af5f	0.16473149
58	0xbe2d12c0	-0.16901684
59	0x3e02d3a0	0.12776041
60	0xbe4c949e	-0.19978568
61	0xbdb5d280	-0.0887804
62	0xbdc6bc99	-0.09703941
63	0xbda0240c	-0.078193754

encoder.graph_embed.bn.weight f4 [64]
0	0x3f7dd32e	0.9915036
1	0x3f7968bf	0.97425455
2	0x3f74e498	0.95661306
3	0x3f819859	1.0124618
4	0x3f7c0750	0.9844866
5	0x3f77bc6c	0.96771884
6	0x3f78210d	0.9692543
7	0x3f7a2431	0.97711474
8	0x3f787efa	0.9706875
9	0x3f794f4f	0.9738664
10	0x3f7be0bc	0.9838979
11	0x3f7a1b1e	0.9769763
12	0x3f8143bf	1.00988
13	0x3f7595ca	0.95931685
14	0x3f7d8d55	0.9904378
15	0x3f7a5051	0.97778803
16	0x3f78318f	0.9695062
17	0x3f782a5b	0.9693963
18	0x3f7c41a0	0.98537636
19	0x3f80c920	1.0061378
20	0x3f79e334	0.9761231
21	0x3f7aad75	0.97920924
22	0x3f75d964	0.96034837
23	0x3f763b2c	0.9618404
24	0x3f7d0b66	0.9884552
25	0x3f824326	1.0176742
26	0x3f7e2a76	0.9928354
27	0x3f7ad2d0	0.97977924
28	0x3f7ae8d5	0.98011523
29	0x3f7fda3a	0.9994236
30	0x3f80674f	1.0031527
31	0x3f847bd2	1.0350287
32	0x3f78c9ab	0.9718272
33	0x3f7be3c7	0.98394436
34	0x3f78be9b	0.9716584
35	0x3f837c50	1.0272312
36	0x3f7a57f3	0.9779045
37	0x3f806b4f	1.0032748
38	0x3f75e744	0.9605601
39	0x3f81a25d	1.0127674
40	0x3f7c7ea1	0.9863072
41	0x3f814c4a	1.0101407
42	0x3f77ab4e	0.96745765
43	0x3f7f6bba	0.9977375
44	0x3f7eda96	0.99552286
45	0x3f7ad49b	0.9798066
46	0x3f73ea71	0.95279604
47	0x3f74a8e8	0.9557023
48	0x3f799a21	0.9750081
49	0x3f794613	0.9737255
50	0x3f74874d	0.9551895
51	0x3f83c7a8	1.0295305
52	0x3f8139e8	1.0095797
53	0x3f784754	0.9698384
54	0x3f7fab3b	0.9987065
55	0x3f7dbfce	0.99120796
56	0x3f7ca33d	0.9868658
57	0x3f7a2c74	0.9772408
58	0x3f83682a	1.0266163
59	0x3f812d38	1.0091925
60	0x3f82eb30	1.0228024
61	0x3f79661f	0.9742145
62	0x3f8029fe	1.0012815
63	0x3f7872bc	0.9705007

encoder.graph_embed.bn.bias f4 [64]
0	0x3c4ca44c	0.012490343
1	0x3ba0d032	0.0049076313
2	0xbccc5d94	-0.024946965
3	0x3ced45ac	0.028963886
4	0xb8cd7f4c	-9.7988726e-05
5	0xbc3b1c9d	-0.011420396
6	0xbd35d441	-0.044391874
7	0xbcd3e8df	-0.025867878
8	0xbd1b6dbf	-0.03794646
9	0xbc3a6493	-0.011376518
10	0x3d0cc6ff	0.034369465
11	0xbd1e8714	-0.03870304
12	0xbbbb1cf4	-0.0057102386
13	0x3b39a410	0.0028326549
14	0xbd214b08	-0.039378196
15	0xbc5656fb	-0.013082261
16	0xbaed12ed	-0.0018087305
17	0xbc87fe59	-0.016600775
18	0x3d265614	0.040609434
19	0xbaabb4d7	-0.0013100159
20	0x3c13d755	0.009023507
21	0x3d17b951	0.037041966
22	0xbc2d8a49	-0.010592052
23	0xbd165f3a	-0.03671191
24	0xbc2e06e8	-0.010621764
25	0xbc5ea9dc	-0.013590302
26	0xbc3c581d	-0.011495617
27	0x3c5f7758	0.013639294
28	0x3d39d613	0.045370173
29	0x39960f16	0.0002862147
30	0x3c944ecc	0.01810398
31	0x3d139a86	0.036036037
32	0x3d3e9efe	0.046538346
33	0x3c8df152	0.017326985
34	0x3cc6fe20	0.024291098
35	0x3c28c26f	0.010300263
36	0xbc26b4fb	-0.010174985
37	0x3cdd2670	0.026995867
38	0xbb5ac271	-0.0033380056
39	0x3d3a0c83	0.04542209
40	0x3bcb8d5a	0.006211919
41	0xbcaf92ef	-0.021432368
42	0xbc4cc1c0	-0.0124973655
43	0x3b29c112	0.0025902432
44	0x3cb175ed	0.021662677
45	0x3cb013fe	0.021493908
46	0xb974c485	-0.00023342863
47	0x3ceb2f34	0.028709032
48	0xbd428442	-0.047489412
49	0x3c96d843	0.018413668
50	0xbc1eae70	-0.009685144
51	0xbd467b97	-0.04845771
52	0xbcc45f1c	-0.023971133
53	0x3d5cf626	0.053945683
54	0xbd018b87	-0.031627204
55	0xbc1cbe6a	-0.009566883
56	0xbc791b4b	-0.015204261
57	0x3cdac325	0.02670438
58	0x3be2ab9d	0.0069174306
59	0xbcad270b	-0.021136781
60	0x3c1b6f2e	0.0094869565
61	0xbc5a4a2c	-0.013323348
62	0xbce18220	-0.027527869
63	0x3caf6680	0.02141118

encoder.graph_embed.bn.running_mean f4 [64]
0	0xbcbde30c	-0.023179553
1	0xbc8a58af	-0.01688799
2	0x3b612d48	0.0034359265
3	0x3c16f262	0.009213062
4	0x3b7ef683	0.0038904257
5	0x3c53d5b7	0.012929372
6	0x3d808b66	0.06276588
7	0x3cd36053	0.025802767
8	0xbcdb8dc6	-0.026801001
9	0x3b909ed5	0.0044134655
10	0x3d15ac0e	0.036541037
11	0x3b86e348	0.0041164495
12	0xbcbc3aff	-0.02297735
13	0xbc9df0d4	-0.019279875
14	0x3d349bb2	0.044093795
15	0x3ae6b6b4	0.0017602057
16	0x3c1fd9db	0.009756531
17	0xba1fc13f	-0.00060941646
18	0xbc160520	-0.009156495
19	0xbc00beb8	-0.007857971
20	0x3cd3f60f	0.025874166
21	0x3c7988e8	0.015230395
22	0xbc1cc630	-0.009568736
23	0xbc5a5056	-0.013324818
24	0x3c25d7b1	0.010122226
25	0xbbf3da46	-0.0074417917
26	0x3cdad465	0.026712606
27	0x3d2ac680	0.04169321
28	0x3cc8647a	0.024461973
29	0x3c918fc0	0.01776874
30	0x3b8d87ec	0.0043191817
31	0x3b104d29	0.0022018647
32	0x3d4cc100	0.049988747
33	0xbb64bb73	-0.0034901768
34	0xbc22e958	-0.009943329
35	0xbcc70c57	-0.024297876
36	0xbc3cb6a0	-0.011518151
37	0x3c869219	0.016427087
38	0x3b6419bb	0.0034805376
39	0xbbdecf45	-0.006799611
40	0x3b7f9a69	0.0039001948
41	0x3c70fa41	0.014708103
42	0xbbd58e53	-0.0065172105
43	0xbc0756b9	-0.008260422
44	0xba93ae50	-0.0011267159
45	0x3c862cc3	0.016378766
46	0xbaa4b6ef	-0.0012566725
47	0xbccd2b3a	-0.025045026
48	0x3be58894	0.007004807
49	0x3c3104a1	0.010804326
50	0xbcd9cc97	-0.026586814
51	0x3b73ff9c	0.0037231212
52	0xbc9de2c8	-0.019273177
53	0x3c107741	0.008817495
54	0x3c87b4fe	0.016565796
55	0x3d1ea540	0.038731813
56	0xbb0646fa	-0.0020489083
57	0x3ca0a500	0.019609928
58	0xbaa951d0	-0.0012918059
59	0xbc5ac55a	-0.013352716
60	0xbca8a169	-0.020584779
61	0xbb878f23	-0.0041369363
62	0x3d5a4d5d	0.053296436
63	0xbca5ee51	-0.02025524

encoder.graph_embed.bn.running_var f4 [64]
0	0x3b8b2f19	0.004247558
1	0x3b521a41	0.0032059106
2	0x3bc03072	0.00586515
3	0x3bdc928f	0.0067313383
4	0x3bb115bd	0.0054042027
5	0x3bf2e53b	0.0074125803
6	0x3c92b16d	0.017906869
7	0x3b5856c6	0.0033010705
8	0x3b535342	0.003224567
9	0x3bcda1ea	0.006275405
10	0x3c43a42e	0.011940999
11	0x3b9d6729	0.0048035574
12	0x3af15ba8	0.0018414157
13	0x3b3b1daa	0.0028551617
14	0x3cbfb68f	0.02340248
15	0x3b6e672c	0.0036377413
16	0x3bdf2915	0.0068103173
17	0x3b766488	0.0037596542
18	0x3b6ec652	0.0036434126
19	0x3bfd1368	0.0077232607
20	0x3c05959b	0.0081533445
21	0x3bc23c31	0.0059275855
22	0x3ae404fe	0.0017396507
23	0x3b07fcb5	0.002074999
24	0x3bd12908	0.006383065
25	0x3ae641ab	0.0017567178
26	0x3b9ff0fb	0.004881022
27	0x3c44a909	0.012003192
28	0x3bc7d911	0.0060988744
29	0x3b3a2b7b	0.0028407264
30	0x3b186d02	0.0023258333
31	0x3b7117d5	0.0036787887
32	0x3c33ef37	0.010982326
33	0x3b433263	0.0029784671
34	0x3ad51dea	0.0016259525
35	0x3ae8ea8a	0.0017770093
36	0x3b5b4524	0.003345796
37	0x3bb9fd50	0.005675949
38	0x3bc857de	0.00611399
39	0x3b202869	0.0024438149
40	0x3c31b955	0.010847409
41	0x3be0bbec	0.0068583395
42	0x3afe23d0	0.0019389335
43	0x3aac4d56	0.0013145606
44	0x3b09c29c	0.0021020537
45	0x3beb8741	0.0071877544
46	0x3c58dcbe	0.013236223
47	0x3b78a189	0.003793808
48	0x3b26a6f6	0.0025429106
49	0x3b6b308b	0.0035887088
50	0x3ab93b06	0.001413197
51	0x3b9dad2c	0.0048119035
52	0x3b6b1ffc	0.0035877218
53	0x3b557841	0.0032572898
54	0x3c7ef64b	0.0155616505
55	0x3b2ef2df	0.0026695055
56	0x3b89e5b4	0.004208291
57	0x3c1dd71f	0.009633808
58	0x3b039059	0.0020075052
59	0x3b6f06ef	0.0036472639
60	0x3b1dab14	0.002405827
61	0x3c5472f8	0.012966864
62	0x3b96b77a	0.004599509
63	0x3b9c336f	0.0047668735

encoder.graph_embed.GCN_layers.0.A f4 [9, 9]
0	0xbf06f17d	-0.5271223
1	0xc009fd3e	-2.1560817
2	0xbf23f6f8	-0.6404872
3	0xbff789c9	-1.9338924
4	0xbf851f79	-1.040023
5	0xbf1c73aa	-0.6111399
6	0xbd3a30e7	-0.045456793
7	0x3f954563	1.16618
8	0x3fb07b0e	1.3787553
9	0x3ff2be9d	1.896442
10	0x3f8ae4c7	1.0851067
11	0xbfaa66ce	-1.3312624
12	0xbf7f7732	-0.9979125
13	0x3f25141d	0.64483815
14	0xbe83b2d7	-0.2572238
15	0xbf15d89c	-0.58533645
16	0xbe8e9f71	-0.2785602
17	0x3f3e27e0	0.74279594
18	0xbf92a393	-1.1456169
19	0x3e061811	0.13095118
20	0x3dd6b51f	0.10483765
21	0xbefd163c	-0.49431026
22	0x3e7046cf	0.23464511
23	0xbf437d5e	-0.7636317
24	0xbe8d93d2	-0.2765184
25	0xc019411b	-2.3945987
26	0xbf8ec83d	-1.1154858
27	0xbef5c8cb	-0.48004755
28	0x3f955acd	1.1668335
29	0x3ee5ebb0	0.44906378
30	0x3f24515a	0.6418663
31	0xbf0cc436	-0.54986894
32	0x3efe63f4	0.49685633
33	0xbda18d98	-0.07888335
34	0xc0047822	-2.0698323
35	0xbf9d6b4e	-1.2298372
36	0x3bb59866	0.005541849
37	0x3eb12f57	0.3460643
38	0xc01d3ef3	-2.456967
39	0xbed8d287	-0.4234812
40	0xbf989368	-1.1919985
41	0x3ef8ce6e	0.48594993
42	0xbf987ff3	-1.1914047
43	0xbee7fc6c	-0.4530977
44	0x3fe6f08b	1.8042158
45	0x3ea718b2	0.3263603
46	0x40390c1f	2.8913648
47	0xbed67696	-0.4188735
48	0xbf8f76cd	-1.120813
49	0x3f0c711c	0.5486009
50	0xbfa2f8bf	-1.2732161
51	0x3f28322c	0.65701556
52	0x3ea16bf1	0.31527665
53	0x3f4ff82d	0.8123806
54	0x3e3799c1	0.17929746
55	0xbfad8dd9	-1.3558913
56	0xbfb476d7	-1.4098767
57	0xbf52b7cd	-0.8231171
58	0x3ed93245	0.42421165
59	0x3f96832c	1.175878
60	0x40447c06	3.0700698
61	0xbfb7a94d	-1.4348541
62	0xbf8cff51	-1.1015416
63	0xbf6638bc	-0.8993032
64	0x3f7ab079	0.97925526
65	0xbf188dd2	-0.595914
66	0xbf96ec21	-1.1790811
67	0xbfb815a6	-1.4381607
68	0x3f616b19	0.88054043
69	0x3f843ba7	1.0330704
70	0x3f04d0f1	0.5188132
71	0xbf3ab807	-0.72937053
72	0x3e8e6c71	0.2781711
73	0xbf850101	-1.0390931
74	0xbe472027	-0.19445859
75	0x3fc6d200	1.5532837
76	0x3f7d334e	0.9890641
77	0xbf7f014f	-0.9961137
78	0xbfa4be81	-1.2870637
79	0x3e402e71	0.18767716
80	0xbefad464	-0.48990166

encoder.graph_embed.GCN_layers.0.linear.weight f4 [64, 64]
0	0xbd965a63	-0.07341459
1	0xbd06bd7c	-0.03289555
2	0xbd08ad93	-0.03336866
3	0xbc273170	-0.010204658
4	0x3d36f32c	0.0446655
5	0xbdd4e773	-0.10395708
6	0x3daf295a	0.08552809
7	0x3da73d5e	0.08166002
8	0x3defcbd6	0.117088005
9	0x3dd6d8fb	0.104906045
10	0xbdcca06d	-0.09991536
11	0x3d7bf806	0.06151583
12	0x3df4187d	0.11918733
13	0x3d552f68	0.052047163
14	0x3db87977	0.090075426
15	0x3d1bd081	0.03804064
16	0x3dae92cd	0.08524094
17	0x3c8850e8	0.016640142
18	0x3de27f02	0.11059381
19	0x3d7a7da9	0.061154995
20	0x3caccce7	0.021093799
21	0xbdc9aa11	-0.09846891
22	0x3e2f93e0	0.17146254
23	0xbc30f0df	-0.010799616
24	0xbdd404fb	-0.103525124
25	0x3d0abadd	0.033869613
26	0xba8abc64	-0.0010584709
27	0x3cdd6ac0	0.027028441
28	0x3d442263	0.047884356
29	0xbd81d544	-0.06339505
30	0x3ce886e1	0.028384628
31	0xbd9c8d35	-0.076441206
32	0xbbcfed4c	-0.0063454267
33	0x3db89185	0.09012131
34	0xbdb532ae	-0.08847557
35	0xbd513791	-0.051078383
36	0xba8e7d68	-0.0010871114
37	0xbdc9d02d	-0.098541595
38	0x3d8563a3	0.06513145
39	0x3d877677	0.06614392
40	0xbe063ac9	-0.13108362
41	0xbce10523	-0.02746827
42	0xbdab3f20	-0.083616495
43	0x3ceaf14f	0.028679518
44	0x3dd1b7f3	0.10240164
45	0xbc917d67	-0.017759992
46	0x3c06b7ff	0.008222579
47	0xbda186b4	-0.07887021
48	0xbe0046c8	-0.12527001
49	0x3e226262	0.15857843
50	0xbdd8b9bd	-0.10582302
51	0xbda7bf1b	-0.08190747
52	0xbda13aea	-0.07872565
53	0x3d126456	0.03574022
54	0x3d2e4f7a	0.042556264
55	0x3e1c6ba8	0.15275443
56	0x3d0ab523	0.03386415
57	0x3d6c998c	0.05776362
58	0xbda0b16e	-0.07846342
59	0xbdb3a960	-0.0877254
60	0x3c08053b	0.008302028
61	0xbd6f1755	-0.05837186
62	0xbdff8a2b	-0.12477525
63	0x3dbf510d	0.09341631
64	0xbdd2fdd9	-0.10302324
65	0x3bc4c6bc	0.0060051363
66	0x3c4ed2b7	0.0126234805
67	0x3bc93560	0.006140396
68	0x3bfe7a76	0.0077660633
69	0x3d9acd12	0.07558645
70	0x3ddc851d	0.10767577
71	0x3d0a9659	0.03383479
72	0xbdc00bee	-0.093772754
73	0x3d9a2c51	0.07527984
74	0x3d196e64	0.037458792
75	0x3d39b113	0.045334887
76	0x3bbbe598	0.005734157
77	0xbaa7b5eb	-0.0012795305
78	0x3d8f136e	0.06986128
79	0xbb3bf07d	-0.0028677278
80	0x3d43a91b	0.047768693
81	0xbc8e6b97	-0.017385287
82	0x3cc7bb06	0.024381172
83	0xbdc34185	-0.09533981
84	0x3d0e23fa	0.03470228
85	0xbd191772	-0.037375875
86	0x3d75b60e	0.059988074
87	0xbda86681	-0.08222676
88	0x3dc11753	0.09428277
89	0xbc619c57	-0.0137701845
90	0x3db5faf8	0.08885759
91	0xba6e1264	-0.000908172
92	0x3d0141c9	0.03155688
93	0x3bdf943f	0.0068230922
94	0x3dab802a	0.08374055
95	0xbc7336d1	-0.014844612
96	0x3d466891	0.048439566
97	0x3dc352e5	0.09537295
98	0xbd48583a	-0.048912264
99	0xbaf8bb68	-0.001897675
100	0xbd895585	-0.06705765
101	0x3ceef350	0.029168755
102	0xbdab6940	-0.08369684
103	0x3d1c8084	0.0382085
104	0xbdbdff9a	-0.09277268
105	0x3d7813a2	0.0605656
106	0xbd774dba	-0.06037686
107	0x3bc7db10	0.0060991123
108	0x3d883903	0.06651499
109	0x3d813e7a	0.063107446
110	0xbd765693	-0.060141157
111	0x3c7e64e6	0.015526986
112	0xbdc984ea	-0.098398045
113	0x3de61b2a	0.1123565
114	0x3a5143ee	0.00079828396
115	0x3e089d59	0.13341273
116	0x3d86d696	0.06583898
117	0xbd4a848c	-0.049442813
118	0xbcde12e1	-0.027108612
119	0xbd25cfda	-0.040481426
120	0x3cf4a6e4	0.029864736
121	0xbdba4ba7	-0.09096461
122	0x3b04a568	0.0020240191
123	0x3db72a82	0.089436546
124	0xbe127502	-0.14302447
125	0xbd9ddd86	-0.07708268
126	0xbd27c323	-0.04095758
127	0xbb7d283a	-0.0038628713
128	0x3d61140a	0.05495075
129	0x3e1284fa	0.14308539
130	0x3c802f4c	0.015647553
131	0x3df6e806	0.12055974
132	0xbd279cea	-0.04092113
133	0x3d3e6671	0.046484414
134	0x3c88cc39	0.016698943
135	0x3dd49ad4	0.103810936
136	0xbcab487e	-0.02090859
137	0xbdf9f584	-0.122050315
138	0xbd96cb7f	-0.073630325
139	0x3d575624	0.052572384
140	0xbd61c88b	-0.055122893
141	0x3d4992cf	0.049212273
142	0x3d138dd9	0.03602395
143	0xbdbbe7a3	-0.091750406
144	0x3cb13e69	0.021636205
145	0x3dcad7d8	0.0990445
146	0xbd8ecf1c	-0.06973097
147	0xbd36d8da	-0.0446404
148	0xbce4722a	-0.027886469
149	0xbe10289f	-0.14077996
150	0xbca6a35c	-0.020341568
151	0x3c02e719	0.007989668
152	0x3904d02f	0.00012666055
153	0x3d808e64	0.06277159
154	0xbe1d1b86	-0.1534253
155	0xbcc9202b	-0.024551472
156	0xbd5c800b	-0.05383305
157	0x3dc113c3	0.094275974
158	0xbd58c101	-0.052918438
159	0xbcda3047	-0.026634349
160	0x3d435f89	0.04769853
161	0xbdc488f6	-0.09596436
162	0xbc69f8f0	-0.014280543
163	0x3dfa3bbd	0.122184254
164	0x3ddc3642	0.10752536
165	0x3d7340fb	0.059388142
166	0xbdb46e6a	-0.08810122
167	0xbdc9be47	-0.09850746
168	0xbe192c42	-0.1495829
169	0x3c986bbb	0.018606057
170	0xbd5caa28	-0.05387321
171	0xbb34ba71	-0.0027576948
172	0x3c3a361d	0.011365441
173	0x3dd0277e	0.101637825
174	0xbd858e03	-0.06521227
175	0xbd9884b0	-0.07447183
176	0xbcc6644b	-0.024217745
177	0x3d1c51f7	0.038164105
178	0x3e277b56	0.16355643
179	0xbdd269c8	-0.102740824
180	0x3c941b4f	0.018079428
181	0xbdb36a99	-0.08760566
182	0xbdaec318	-0.08533305
183	0xbcd2da1b	-0.025738766
184	0xbd1c47ef	-0.03815454
185	0xbd503f3a	-0.050841548
186	0xbd65c3a3	-0.056094777
187	0x3d14b362	0.036303885
188	0x3d2495ca	0.040181912
189	0xbdbc6cea	-0.09200461
190	0x3cfa919f	0.030587016
191	0xbc6f6336	-0.014611056
192	0x3bfb3d62	0.0076672295
193	0x3d74d352	0.059771843
194	0xbd19f57a	-0.03758762
195	0x3d8bb855	0.06822268
196	0xbcfcb06d	-0.030845845
197	0x3d75c1b1	0.05999917
198	0xbd28524f	-0.04109412
199	0x3de2bad9	0.110707946
200	0xbd8f56b1	-0.06998957
201	0x3db65ade	0.0890405
202	0xbcbbaa9f	-0.022908507
203	0xbd072fdc	-0.033004627
204	0xbde41896	-0.11137502
205	0xbddaedca	-0.10689886
206	0xbd969a7b	-0.073536836
207	0xbc118a43	-0.008883062
208	0xbdce16ba	-0.100629285
209	0xbdd86afb	-0.1056728
210	0x3e175e95	0.14782174
211	0xbd7d5620	-0.061849713
212	0xbde160e3	-0.11004808
213	0xbdad709f	-0.084687464
214	0x3ccead2e	0.025229063
215	0xbd0cf70e	-0.034415297
216	0xbd920047	-0.07128959
217	0xbc1b0ca9	-0.009463468
218	0x3dd8eaa1	0.10591627
219	0x3db0b8ad	0.08628974
220	0xbdd41e9c	-0.10357401
221	0x3dc7f14a	0.09762819
222	0x3c4516d9	0.012029373
223	0xbda5cbaf	-0.0809549
224	0xbd9d0615	-0.07667176
225	0x3de40d43	0.11135342
226	0xbdc0bcb0	-0.09410989
227	0xbd9947e9	-0.07484419
228	0xbc0a3786	-0.008436089
229	0x3ca12ac3	0.01967371
230	0xbe007f3e	-0.12548539
231	0xbc835318	-0.016030833
232	0xbc377653	-0.011197644
233	0x3d302ccc	0.04301147
234	0x3d4e5d36	0.05038186
235	0xbde37640	-0.11106539
236	0xbde9abc7	-0.11409717
237	0x3e13ec40	0.14445591
238	0xbcd71047	-0.026252879
239	0x3cd5dc8f	0.026106147
240	0xbdfe18ca	-0.12407072
241	0x3df5678e	0.11982642
242	0x3dd5acf5	0.104333796
243	0x3d324707	0.04352477
244	0xbd9644be	-0.0733733
245	0xbdf7a422	-0.12091853
246	0xbdc9daef	-0.098562114
247	0x3dbe787a	0.09300323
248	0xbcd48dc0	-0.025946498
249	0x3d08a01a	0.03335581
250	0xbd53581d	-0.051597703
251	0xbddc39e4	-0.10753229
252	0xbdaa910f	-0.08328449
253	0x3a04e95a	0.00050701725
254	0x3cced80e	0.025249507
255	0x3daeb901	0.085313804

encoder.graph_embed.GCN_layers.0.linear.bias f4 [64]
0	0x3b95b575	0.0045687505
1	0xbd8a8db0	-0.06765306
2	0x3d67191e	0.056420438
3	0x3da047a1	0.07826162
4	0xbcf73a2b	-0.030179104
5	0x3d96e34e	0.07367574
6	0x3c0614db	0.008183683
7	0xbd14de81	-0.03634501
8	0xbd40f092	-0.047104426
9	0xbd5f3cc4	-0.05450131
10	0xbd883390	-0.0665046
11	0xbd903792	-0.07041849
12	0xbd2157dd	-0.039390434
13	0x3b6b7d97	0.0035933012
14	0x3d29bc44	0.04143931
15	0x3d3c5624	0.045980588
16	0xbd4de07f	-0.050262924
17	0xbb1dc2e5	-0.0024072465
18	0x3d442bb9	0.04789326
19	0xbcaafc01	-0.020872118
20	0x3ce63106	0.028099548
21	0x3dc561ec	0.09637818
22	0xbd4154f5	-0.047200162
23	0xbd5cc9a7	-0.05390325
24	0xbddd49f1	-0.10805119
25	0xbd25aa31	-0.04044551
26	0x3c43001d	0.0119018825
27	0x3b878b26	0.004136461
28	0x3d1712ee	0.036883287
29	0x3ce672ce	0.028130915
30	0x3dc7fecb	0.09765395
31	0xbc089a18	-0.00833752
32	0xbc9f0c35	-0.019415
33	0xbc880a42	-0.016606454
34	0x3dad3626	0.084575936
35	0xbd29f1b1	-0.04149026
36	0xbe00e1eb	-0.12586181
37	0xbc8d2858	-0.017231151
38	0x3cc8b0a4	0.024498291
39	0xbbd17b6a	-0.006392886
40	0xbb8cb138	-0.004293587
41	0xbbfa3175	-0.0076352903
42	0x3b3b909b	0.0028620127
43	0xbc809d49	-0.0157
44	0xbca9124b	-0.020638606
45	0xbd3ef6cc	-0.046622083
46	0x3c9aea6d	0.018910611
47	0x3d768b4d	0.06019144
48	0x3cc5a212	0.024125133
49	0x3d6a1c7b	0.057156067
50	0xbd4f85df	-0.05066478
51	0xbbd674f9	-0.006544706
52	0xbda791de	-0.08182119
53	0x3d078f62	0.033095725
54	0x3d2309ce	0.039804272
55	0x3c23c72a	0.009996215
56	0x3c4176a4	0.011808071
57	0xbc2e7d5f	-0.010650008
58	0xbd07a476	-0.033115827
59	0x3cc42c4a	0.0239469
60	0xbd00a8b8	-0.031410903
61	0xbd8bb14f	-0.06820928
62	0xbb8a3458	-0.0042176656
63	0x3cbb0bc0	0.022832751

encoder.pos_enc.pe f4 [500, 64]
0	0x00000000	0.0
1	0x3f800000	1.0
2	0x00000000	0.0
3	0x3f800000	1.0
4	0x00000000	0.0
5	0x3f800000	1.0
6	0x00000000	0.0
7	0x3f800000	1.0
8	0x00000000	0.0
9	0x3f800000	1.0
10	0x00000000	0.0
11	0x3f800000	1.0
12	0x00000000	0.0
13	0x3f800000	1.0
14	0x00000000	0.0
15	0x3f800000	1.0
16	0x00000000	0.0
17	0x3f800000	1.0
18	0x00000000	0.0
19	0x3f800000	1.0
20	0x00000000	0.0
21	0x3f800000	1.0
22	0x00000000	0.0
23	0x3f800000	1.0
24	0x00000000	0.0
25	0x3f800000	1.0
26	0x00000000	0.0
27	0x3f800000	1.0
28	0x00000000	0.0
29	0x3f800000	1.0
30	0x00000000	0.0
31	0x3f800000	1.0
32	0x00000000	0.0
33	0x3f800000	1.0
34	0x00000000	0.0
35	0x3f800000	1.0
36	0x00000000	0.0
37	0x3f800000	1.0
38	0x00000000	0.0
39	0x3f800000	1.0
40	0x00000000	0.0
41	0x3f800000	1.0
42	0x00000000	0.0
43	0x3f800000	1.0
44	0x00000000	0.0
45	0x3f800000	1.0
46	0x00000000	0.0
47	0x3f800000	1.0
48	0x00000000	0.0
49	0x3f800000	1.0
50	0x00000000	0.0
51	0x3f800000	1.0
52	0x00000000	0.0
53	0x3f800000	1.0
54	0x00000000	0.0
55	0x3f800000	1.0
56	0x00000000	0.0
57	0x3f800000	1.0
58	0x00000000	0.0
59	0x3f800000	1.0
60	0x00000000	0.0
61	0x3f800000	1.0
62	0x00000000	0.0
63	0x3f800000	1.0
64	0x3f576aa4	0.84147096
65	0x3f0a5141	0.54030234
66	0x3f2e7ace	0.68156135
67	0x3f3b54b0	0.731761
68	0x3f087dba	0.53316844
69	0x3f58940d	0.8460091
70	0x3ed190f0	0.4093089
71	0x3f6992c7	0.9123959
72	0x3e9f393e	0.3109836
73	0x3f734e6b	0.9504153
74	0x3e708f25	0.23492105
75	0x3f78d5f1	0.9720145
76	0x3e35233a	0.17689219
77	0x3f7bf683	0.9842302
78	0x3e0825f3	0.13295726
79	0x3f7dba28	0.99112177
80	0x3dcc7576	0.099833414
81	0x3f7eb898	0.9950042
82	0x3d996f36	0.07491915
83	0x3f7f47d1	0.9971896
84	0x3d6636ae	0.05620449
85	0x3f7f9868	0.9984193
86	0x3d2cacfa	0.04215715
87	0x3f7fc5bd	0.999111
88	0x3d01815b	0.031617504
89	0x3f7fdf3c	0.99950004
90	0x3cc23ea5	0.023711512
91	0x3f7fed93	0.99971884
92	0x3c91ab42	0.017781857
93	0x3f7ff5a3	0.99984187
94	0x3c5a7a49	0.013334819
95	0x3f7ffa2c	0.99991107
96	0x3c23d657	0.009999833
97	0x3f7ffcb9	0.99995
98	0x3bf5b916	0.0074988706
99	0x3f7ffe28	0.99997187
100	0x3bb8445a	0.0056233825
101	0x3f7ffef7	0.9999842
102	0x3b8a2e5a	0.0042169513
103	0x3f7fff6b	0.9999911
104	0x3b4f3e1c	0.0031622713
105	0x3f7fffac	0.999995
106	0x3b1b6903	0.0023713715
107	0x3f7fffd1	0.9999972
108	0x3ae91520	0.0017782785
109	0x3f7fffe6	0.99999845
110	0x3aaec98a	0.001333521
111	0x3f7ffff1	0.9999991
112	0x3a83126d	0.0009999998
113	0x3f7ffff8	0.9999995
114	0x3a449489	0.000749894
115	0x3f7ffffb	0.9999997
116	0x3a136a13	0.0005623411
117	0x3f7ffffd	0.9999998
118	0x39dd1721	0.00042169637
119	0x3f7fffff	0.99999994
120	0x39a5cb61	0.00031622782
121	0x3f7fffff	0.99999994
122	0x3978a80d	0.00023713727
123	0x3f800000	1.0
124	0x393a7753	0.00017782794
125	0x3f800000	1.0
126	0x390bd46d	0.00013335208
127	0x3f800000	1.0
128	0x3f68c7b7	0.9092974
129	0xbed51133	-0.41614684
130	0x3f7f5ad9	0.99748
131	0x3d914d53	0.070948265
132	0x3f66f20a	0.9021307
133	0x3edce8b2	0.43146282
134	0x3f3f3511	0.7469035
135	0x3f2a3903	0.6649324
136	0x3f17541b	0.5911271
137	0x3f4e7bec	0.8065784
138	0x3ee9d3b5	0.45669332
139	0x3f63be69	0.8896242
140	0x3eb247f6	0.34820527
141	0x3f6ffaa6	0.93741834
142	0x3e86f082	0.26355368
143	0x3f76f2f5	0.96464473
144	0x3e4b6ff8	0.19866931
145	0x3f7ae5a5	0.9800666
146	0x3e1900d3	0.1494172
147	0x3f7d204f	0.98877424
148	0x3de5d986	0.1122313
149	0x3f7e61f3	0.9936821
150	0x3dac85ae	0.08423935
151	0x3f7f170e	0.99644554
152	0x3d8170c8	0.063203394
153	0x3f7f7cf9	0.9980007
154	0x3d4230aa	0.04740969
155	0x3f7fb64e	0.9988755
156	0x3d11a55c	0.03555809
157	0x3f7fd68e	0.9993676
158	0x3cda7550	0.026667267
159	0x3f7fe8b1	0.99964434
160	0x3ca3d43e	0.019998666
161	0x3f7ff2e5	0.9998
162	0x3c75b751	0.014997319
163	0x3f7ff8a1	0.9998875
164	0x3c38439b	0.011246587
165	0x3f7ffbdb	0.99993676
166	0x3c0a2e0a	0.008433828
167	0x3f7ffdab	0.9999644
168	0x3bcf3dd8	0.006324511
169	0x3f7ffeb1	0.99998003
170	0x3b9b68e7	0.00474273
171	0x3f7fff43	0.99998873
172	0x3b691508	0.0035565514
173	0x3f7fff96	0.9999937
174	0x3b2ec97f	0.0026670394
175	0x3f7fffc4	0.9999964
176	0x3b031268	0.0019999985
177	0x3f7fffdf	0.99999803
178	0x3ac49485	0.0014997876
179	0x3f7fffed	0.99999887
180	0x3a936a12	0.0011246821
181	0x3f7ffff5	0.99999934
182	0x3a5d171f	0.0008433926
183	0x3f7ffffa	0.99999964
184	0x3a25cb60	0.0006324556
185	0x3f7ffffd	0.9999998
186	0x39f8a80c	0.0004742745
187	0x3f7ffffe	0.9999999
188	0x39ba7753	0.00035565588
189	0x3f7fffff	0.99999994
190	0x398bd46d	0.00026670416
191	0x3f800000	1.0
192	0x3e1081c3	0.14112
193	0xbf7d7026	-0.9899925
194	0x3f473cde	0.7782725
195	0xbf20bfce	-0.6279267
196	0x3f7e45d7	0.9932532
197	0xbded7fab	-0.11596616
198	0x3f742163	0.95363444
199	0x3e9a1863	0.3009673
200	0x3f5009c2	0.8126489
201	0x3f152f58	0.58275366
202	0x3f2724b7	0.652904
203	0x3f41e7a2	0.7574407
204	0x3f022f6c	0.5085361
205	0x3f5c6d29	0.86104065
206	0x3ec768a7	0.3894703
207	0x3f6bc937	0.92103904
208	0x3e974e6c	0.2955202
209	0x3f7490ef	0.9553365
210	0x3e646de2	0.22307542
211	0x3f798c92	0.9748012
212	0x3e2beed7	0.16790329
213	0x3f7c5d9e	0.9858035
214	0x3e01332c	0.12617177
215	0x3f7df443	0.9920084
216	0x3dc1ffc0	0.094726086
217	0x3f7ed94f	0.99550337
218	0x3d919306	0.071081206
219	0x3f7f5a3a	0.9974705
220	0x3d5a694e	0.053323083
221	0x3f7fa2c3	0.9985773
222	0x3d23d1c5	0.039994974
223	0x3f7fcb90	0.99919987
224	0x3cf5b91f	0.0299955
225	0x3f7fe283	0.99955004
226	0x3cb84747	0.022494925
227	0x3f7fef6b	0.999747
228	0x3c8a31c6	0.016869437
229	0x3f7ff6ad	0.9998577
230	0x3c4f4446	0.012650555
231	0x3f7ffac1	0.99991995
232	0x3c1b6e0d	0.009486687
233	0x3f7ffd0d	0.999955
234	0x3be91d13	0.0071140616
235	0x3f7ffe58	0.9999747
236	0x3baecfa8	0.005334813
237	0x3f7fff11	0.99998575
238	0x3b831713	0.0040005534
239	0x3f7fff7a	0.999992
240	0x3b449b92	0.0029999954
241	0x3f7fffb5	0.9999955
242	0x3b136f60	0.0022496805
243	0x3f7fffd6	0.9999975
244	0x3add1f17	0.0016870227
245	0x3f7fffe8	0.99999857
246	0x3aa5d156	0.0012650888
247	0x3f7ffff3	0.9999992
248	0x3a78b110	0.00094868336
249	0x3f7ffff9	0.9999996
250	0x3a3a7e09	0.00071141176
251	0x3f7ffffc	0.99999976
252	0x3a0bd97e	0.0005334838
253	0x3f7ffffe	0.9999999
254	0x39d1bea4	0.00040005625
255	0x3f7fffff	0.99999994

encoder.transformer.in_proj_weight f4 [192, 64]
0	0xbc5bb557	-0.013409934
1	0x3d140ffc	0.036148056
2	0x3e15c71a	0.14626732
3	0x3e0d74a9	0.13814034
4	0x3da37dab	0.07982954
5	0x3c0e08a1	0.0086690495
6	0xbdf96f02	-0.12179376
7	0x3d53ea25	0.05173697
8	0x3de06a5b	0.10957786
9	0x3cff6d1b	0.031179955
10	0x3da6ab1d	0.08138106
11	0x3cbeb9e1	0.023281993
12	0x3e06696d	0.13126154
13	0x3d10459b	0.03522263
14	0xbdc7f900	-0.0976429
15	0x3db6f03f	0.08932542
16	0xbd696940	-0.05698514
17	0xbd94f1c7	-0.07272678
18	0x3d8fe3d9	0.0702588
19	0x3d4cc3e5	0.049991507
20	0xbdd6e25a	-0.10492392
21	0x3dcea8d6	0.10090797
22	0x3dcbcee5	0.099515714
23	0xbe037775	-0.12838538
24	0xbe0c7045	-0.13714702
25	0x3d3eb2b7	0.046557155
26	0xbe1e3c7d	-0.15452762
27	0xbc7c7e83	-0.015411022
28	0xbc1325ee	-0.008981211
29	0xbc97c60f	-0.018527059
30	0xbe010b18	-0.12601888
31	0xbe01fad6	-0.12693343
32	0x3d310c95	0.04322489
33	0xbd57d97a	-0.052697636
34	0xbd52174e	-0.051291756
35	0xbddd3654	-0.10801378
36	0x3d2363b2	0.03989
37	0xbd8c5ac8	-0.06853253
38	0x3ceed926	0.029156279
39	0x3d8a95e4	0.067668706
40	0xbdf7c922	-0.1209891
41	0xbc8170ca	-0.015800852
42	0x3e0282fe	0.12745282
43	0xbde7cecf	-0.113187425
44	0xbda456e3	-0.08024385
45	0xbbf4f816	-0.007475863
46	0x3d9935ec	0.07480988
47	0xbc070d4e	-0.008242918
48	0x3cdb1432	0.026743028
49	0x3d81994f	0.063280694
50	0xbd225db3	-0.03964014
51	0x3dcfc413	0.1014482
52	0xbc9d9f84	-0.019241102
53	0xbe312647	-0.17299758
54	0x3e10565f	0.14095448
55	0xbd88770e	-0.06663333
56	0xbd5a8455	-0.053348858
57	0xbe32bcfa	-0.17454901
58	0x3e130837	0.14358602
59	0xbcf8d61e	-0.030375537
60	0x3ce724dd	0.02821582
61	0xbe0fda2e	-0.14048073
62	0xbe03af12	-0.12859753
63	0xbe29855b	-0.16554777
64	0x3d4351d9	0.047685478
65	0x3d285931	0.041100685
66	0x3d96d266	0.07364349
67	0xbe2c50af	-0.16827653
68	0x3d8a50f5	0.067537226
69	0xbb883791	-0.0041570147
70	0xbe290f9e	-0.16509864
71	0xbcdfe0be	-0.027328845
72	0x3db13b10	0.086538434
73	0xbce0c4d0	-0.027437598
74	0xbddcef11	-0.10787786
75	0xbdc29816	-0.09501664
76	0x3dc8341f	0.09775566
77	0x3d8c4ed3	0.06850972
78	0xbe428925	-0.18997629
79	0x3c1aabb2	0.009440349
80	0x3d84c007	0.06481939
81	0xbdc1ed2c	-0.09469065
82	0x3e05f559	0.13081874
83	0x3da18edb	0.07888576
84	0x3c737bcf	0.014861061
85	0xbdd2af1b	-0.10287305
86	0x3dbb4135	0.09143297
87	0x3cc1a9c4	0.02364052
88	0xbda9a17b	-0.08282753
89	0xbd9f6799	-0.077834316
90	0xbcab856b	-0.020937642
91	0xbc88e94a	-0.016712803
92	0x3e19a1cb	0.15003125
93	0x3e06df6e	0.13171169
94	0xbd8e7ff0	-0.06957996
95	0xbd2b5e6e	-0.041838102
96	0x3b16ee6f	0.00230303
97	0xbdd67424	-0.10471371
98	0xbde21147	-0.11038452
99	0x3e17c47a	0.14821044
100	0x3d948075	0.07251064
101	0x3e368966	0.17825851
102	0x3db1d250	0.08682692
103	0x3e4b4013	0.19848661
104	0xbe1bc8ac	-0.15213269
105	0x3e483529	0.19551529
106	0x3c9d1d9d	0.01917916
107	0x3e1d60b8	0.15368927
108	0x3de7d921	0.11320711
109	0x3cf70b91	0.030156882
110	0xbd0963e8	-0.033542544
111	0x3e4ce4c1	0.20009138
112	0x3d94e9f0	0.072711825
113	0x3e3cf724	0.18453652
114	0x3db18af7	0.086690836
115	0xbd46568f	-0.048422392
116	0xbd9a3f63	-0.07531621
117	0x3e131aed	0.1436574
118	0x3deb45cc	0.11487922
119	0xbcf2a747	-0.02962078
120	0xbc09d5c8	-0.008412786
121	0x3cc62527	0.024187637
122	0x3cce57e6	0.025188398
123	0xbd77ea29	-0.060526047
124	0x3bb5356f	0.0055300514
125	0x3da9ff57	0.08300655
126	0xbe2e22f4	-0.17005521
127	0x3e4747b2	0.19460943
128	0xbe11968f	-0.1421759
129	0x3c108a04	0.008821968
130	0x3de68cd0	0.112573266
131	0x3de9a8e8	0.114091694
132	0xbd21b2ac	-0.039477035
133	0x3dbd271a	0.09235974
134	0x3e0ca8eb	0.13736312
135	0x3d914223	0.07092693
136	0x3db6f228	0.089329064
137	0xbe421169	-0.18951954
138	0xbdd8a8f8	-0.10579103
139	0x3dd60325	0.104498185
140	0x3d4df0eb	0.050278585
141	0x3df4d6a0	0.11954999
142	0xbda4fc33	-0.08055916
143	0xbe05a8e7	-0.13052712
144	0xbd6ff18b	-0.058579963
145	0x3e088a84	0.1333409
146	0xbe10f0ce	-0.1415436
147	0xbddce574	-0.10785952
148	0xbd72837f	-0.059207436
149	0x3df3875d	0.11891053
150	0x3e0b35e9	0.13594784
151	0x3dedce2f	0.11611592
152	0xbdeded9e	-0.116175875
153	0xbdecbb1c	-0.11559126
154	0x3d933bb3	0.07189121
155	0xbe07df79	-0.13268842
156	0x3d81e338	0.06342167
157	0x3d2d94da	0.042378284
158	0x3d3b6a80	0.045755863
159	0x3d87b180	0.06625652
160	0xbd5050d4	-0.050858334
161	0xbe26ba95	-0.16282113
162	0xbd88333c	-0.06650397
163	0x3dcb5488	0.099282324
164	0x3a2c0fc1	0.0006563627
165	0xbd9a659f	-0.07538914
166	0xbdfd5cdd	-0.12371228
167	0xbd478df1	-0.04871935
168	0x3da85b39	0.08220524
169	0x3d3d0bd3	0.046153855
170	0x3d48c028	0.04901138
171	0xbd9500cd	-0.07275543
172	0xbcb1d778	-0.021709189
173	0x397e459e	0.00024249262
174	0xbda494bf	-0.080361836
175	0xbd87dd49	-0.06634004
176	0xbdebeee6	-0.11520176
177	0xbdfcf606	-0.12351613
178	0x3a867844	0.0010259231
179	0x3cc03442	0.023462418
180	0xbd6211f7	-0.055192914
181	0x3da9c6b8	0.08289856
182	0x3d8cc133	0.06872787
183	0x3dfe1d91	0.12407983
184	0x3cb76e91	0.02239159
185	0x3d87a5bf	0.066234104
186	0xbde0e342	-0.10980846
187	0x3dfbec64	0.12300947
188	0x3d46dc64	0.048550025
189	0x3db312e0	0.087438345
190	0x3d6a0c15	0.05714043
191	0x3df289e3	0.11842706
192	0x3c4b3477	0.012402645
193	0x3c41197c	0.011785861
194	0x3dc908b3	0.09816112
195	0x3d47a4b5	0.04874106
196	0x3cfd7ec9	0.030944245
197	0xbe0488f2	-0.12942865
198	0x3cebb16c	0.028771125
199	0x3dcb7244	0.09933904
200	0xbdcd072b	-0.10011133
201	0xbe0c6f15	-0.1371425
202	0x3dfe02c7	0.124028735
203	0x3dab998a	0.083788946
204	0xbdbca153	-0.09210458
205	0xbc5c0aad	-0.01343028
206	0xbdc78c7c	-0.09743592
207	0x3d58ca80	0.052927494
208	0x3d349937	0.04409143
209	0xbda4b410	-0.08042157
210	0xbd477737	-0.048697677
211	0xbd48bcf4	-0.049008325
212	0x3e2c79ce	0.1684334
213	0x3d8d1636	0.06889002
214	0x3e2f61e6	0.17127189
215	0x3d0b354c	0.033986375
216	0x3df9a756	0.1219012
217	0xbdeb95a3	-0.1150315
218	0xbdb3e80d	-0.087844945
219	0xbe139791	-0.14413287
220	0xbd98eea0	-0.07467389
221	0x3da788fa	0.08180423
222	0x3ce08ada	0.02740996
223	0x3e192ae1	0.14957763
224	0x3d683659	0.056692455
225	0x3d6a4f01	0.05720425
226	0xbc45e566	-0.012078619
227	0xbcc7e82b	-0.024402699
228	0x3e0a4ff9	0.1350707
229	0x3e08399e	0.13303229
230	0xbe25a73b	-0.16177075
231	0x3da44ec5	0.080228366
232	0x3c3e3df9	0.011611455
233	0xbdcb9bca	-0.09941824
234	0x3d9c131a	0.07620831
235	0xbd6479d6	-0.055780254
236	0xbe0e41de	-0.13892314
237	0x3d8ed667	0.06974488
238	0xbe268bda	-0.16264287
239	0xbdcfae53	-0.101406716
240	0x3e1d32c6	0.153514
241	0x3d39d9a9	0.045373593
242	0x3d25ab2b	0.04044644
243	0x3d2097c3	0.03920723
244	0xbe2fabc2	-0.17155364
245	0x3d777116	0.06041058
246	0xbd226015	-0.039642412
247	0x3df5bc37	0.1199879
248	0x3c6c8b30	0.014437482
249	0x3dd0243e	0.10163163
250	0x3d67bdff	0.05657768
251	0xbd78ee41	-0.06077409
252	0x3de6c64c	0.11268291
253	0x3da366e8	0.07978612
254	0xbe09c84d	-0.13455315
255	0xbe0b7129	-0.13617386

encoder.transformer.in_proj_bias f4 [192]
0	0xbc97c4f1	-0.018526526
1	0x3d7957ec	0.060874864
2	0xbcd98f4c	-0.026557587
3	0x3c554c35	0.013018657
4	0x3ce4bb5b	0.02792137
5	0x3c6d3c8c	0.0144797675
6	0xbc4d7f9e	-0.012542633
7	0xbd083c5e	-0.033260696
8	0xbd103d79	-0.035214875
9	0xbc68f56f	-0.014218672
10	0xbd0150de	-0.03157126
11	0x3c4e4fa4	0.01259223
12	0x3996ea20	0.00028784666
13	0x3c40d731	0.011770056
14	0xbc45d20f	-0.012074008
15	0x3c78d1ce	0.01518674
16	0xbd3c54b1	-0.045979206
17	0x3d0c5b3c	0.034266695
18	0xbcca26ae	-0.024676647
19	0xbd38287d	-0.044960488
20	0xba22c5ac	-0.0006209265
21	0x3cad119f	0.021126566
22	0xbc16a02c	-0.009193461
23	0x3ca2b78d	0.019862914
24	0x3ca1eb24	0.019765444
25	0x3c390927	0.011293686
26	0xbc6c6507	-0.014428384
27	0x3ce60120	0.028076708
28	0x3b308a4c	0.00269379
29	0xbc49558b	-0.012288461
30	0x3b84ebf1	0.0040564467
31	0xbc137b31	-0.009001539
32	0xbbdafc0f	-0.0066828798
33	0xbca3c09a	-0.0199893
34	0xbd30193f	-0.042992827
35	0x3cc27051	0.023735197
36	0xbcb3115f	-0.02185887
37	0x3d07b860	0.033134818
38	0x3d4982ab	0.04919688
39	0xbd231ed7	-0.039824333
40	0x3d26f88d	0.04076438
41	0x3c465593	0.012105363
42	0x3bc8903b	0.0061207092
43	0x3c557f1b	0.013030793
44	0x3d651e33	0.055937003
45	0x3ce7e831	0.02830896
46	0xbcc7169b	-0.024302771
47	0x3c7eabc1	0.015543879
48	0xbd0608e1	-0.03272331
49	0xbd541999	-0.051782224
50	0x3c4b1615	0.0123954015
51	0xbbedd3f5	-0.0072579333
52	0x3c904ce4	0.01761479
53	0xbc053740	-0.008130848
54	0xbd27a6d5	-0.040930588
55	0xbcf36f56	-0.029716175
56	0xbb939276	-0.0045035435
57	0xbcc6df8b	-0.024276515
58	0xbd0b70ec	-0.034043238
59	0xbd5054d3	-0.050862145
60	0x3d458326	0.048220776
61	0xbd036989	-0.032083068
62	0xbc143056	-0.009044727
63	0xbcf3c01f	-0.029754696
64	0x356bb94b	8.781396e-07
65	0xb4f19877	-4.500068e-07
66	0xb3c3cfbf	-9.118184e-08
67	0xb401a02c	-1.2072331e-07
68	0xb4d2e17d	-3.9279612e-07
69	0xb51432e1	-5.5208335e-07
70	0x340398bb	1.2255889e-07
71	0x33b8d98c	8.607739e-08
72	0x348a3645	2.574399e-07
73	0x340d5a88	1.3164583e-07
74	0x351be41e	5.8073954e-07
75	0x34688b91	2.1657458e-07
76	0x34ca31c6	3.7661647e-07
77	0xb4817393	-2.4112214e-07
78	0xb39da112	-7.340181e-08
79	0x31a25f59	4.7256603e-09
80	0x3452b3a4	1.9623127e-07
81	0x33f972e7	1.1615867e-07
82	0x35103c25	5.37317e-07
83	0x3438bc31	1.7204799e-07
84	0x33cdc4ba	9.581841e-08
85	0x3486a1f3	2.5077279e-07
86	0xb41baa8f	-1.4497549e-07
87	0xb43d7c35	-1.7647183e-07
88	0xb4940038	-2.7567307e-07
89	0x34069457	1.2533688e-07
90	0x3399220e	7.130812e-08
91	0xb4cce68d	-3.816571e-07
92	0x3428917a	1.5699143e-07
93	0xb487b859	-2.527984e-07
94	0x35150a3d	5.5521724e-07
95	0x346b967b	2.1940825e-07
96	0x31f81f03	7.2212756e-09
97	0xb02d5fbf	-6.3073097e-10
98	0x34e23a6d	4.213829e-07
99	0xb4be76fb	-3.5476828e-07
100	0x35026089	4.856925e-07
101	0xb491e6be	-2.7176242e-07
102	0xb551d1da	-7.816394e-07
103	0xb2cad5c9	-2.3613113e-08
104	0xb57f1a49	-9.503315e-07
105	0x32e1a8d8	2.6270229e-08
106	0xb40e6152	-1.3260185e-07
107	0x3403c6b3	1.2272612e-07
108	0xb542fd79	-7.2639483e-07
109	0xb330c25c	-4.1154962e-08
110	0x35261c7c	6.188127e-07
111	0x32f3d3ae	2.8385184e-08
112	0x34bdfe35	3.5388953e-07
113	0x352f971c	6.5412473e-07
114	0xb4eb6eae	-4.385269e-07
115	0xb492b773	-2.7328096e-07
116	0xb54b472d	-7.572697e-07
117	0xb3dc3ecd	-1.0255972e-07
118	0x344096ce	1.7936256e-07
119	0x3559d3cf	8.114702e-07
120	0xb3832af4	-6.107976e-08
121	0x351d64d5	5.863379e-07
122	0x346aad00	2.1855885e-07
123	0x355d1aa1	8.2367666e-07
124	0xb5975a8e	-1.1276732e-06
125	0x3399cc53	7.161784e-08
126	0xb3bb82f2	-8.731685e-08
127	0x34a0562b	2.9865018e-07
128	0x3c83402f	0.016021816
129	0xbcc3868b	-0.023867866
130	0x3c7a8c05	0.015292172
131	0xbc4d021c	-0.01251271
132	0xbc81dba4	-0.015851803
133	0xb9a8eb20	-0.0003221864
134	0xbaee68ce	-0.0018189193
135	0xbbc973bd	-0.0061478303
136	0xbbaab75c	-0.0052098464
137	0x3c82db8a	0.015973825
138	0x3b3ece14	0.0029114531
139	0xbba210df	-0.004945859
140	0x3c1acf13	0.009448784
141	0xbcabeea1	-0.02098781
142	0xbc1d8a29	-0.0096154595
143	0x3bae7e40	0.0053251088
144	0x3aaf68bf	0.0013382657
145	0x3ba107cc	0.0049142595
146	0x3c132b8f	0.008982553
147	0xbbc6b3d6	-0.0060639186
148	0xbc7e1f37	-0.015510372
149	0xbb8cc64f	-0.004296101
150	0x3c644694	0.013932843
151	0x3c5b50be	0.01338595
152	0xbc1e4b91	-0.009661571
153	0x3a16aaba	0.0005747486
154	0x3b9bc75a	0.004753989
155	0x3bfba1d0	0.0076792017
156	0xba891e45	-0.0010461292
157	0x39e4eab3	0.00043662413
158	0x3c4faa4e	0.012674881
159	0xbcf21a16	-0.029553454
160	0xbc0db65c	-0.008649435
161	0xbbb0945e	-0.0053887805
162	0x3d029e30	0.03188914
163	0xbd14f013	-0.036361765
164	0xbc3942a0	-0.011307389
165	0x3c259ba5	0.010107909
166	0xbbd2cf99	-0.006433439
167	0xbc089823	-0.0083370535
168	0xbb84e8ca	-0.004056071
169	0xbb61340b	-0.0034363295
170	0xbc384bf5	-0.011248578
171	0xbcb64a20	-0.022252142
172	0x3b11955b	0.0022214267
173	0xbadb65d3	-0.001673872
174	0xbb816b61	-0.003949568
175	0xbb9384ed	-0.00450193
176	0xbcb3779f	-0.021907626
177	0xbc35389f	-0.011060863
178	0x3c53e3ee	0.012932761
179	0x3c258318	0.010102056
180	0xbac71fc8	-0.0015191967
181	0x3bbb46a0	0.0057152063
182	0x3cc16f47	0.023612631
183	0xbbc79118	-0.0060902946
184	0xbc7aeb2a	-0.015314857
185	0xba95e2d8	-0.0011435403
186	0xbc8fc4de	-0.017549928
187	0xba013127	-0.0004928284
188	0x3c34e1d7	0.011040173
189	0xbc5c6c37	-0.013453535
190	0x3cb26355	0.02177588
191	0xbc8b727e	-0.017022368
