experiments/model_32_60_2026-01-17_3730/model.pt (torch, 98848 bytes, 21 tensors)

encoder.graph_embed.GCN_in.A f4 [9, 9]
-1.688377 -0.9406562 -0.11170508 -0.9886226 0.6656525 -0.2380518 0.46022615 0.3391023
-0.8224045 -1.6192094 -0.26725295 -0.9140003 -1.2027478 1.5560851 1.1227796 -0.58657646
-1.1471375 2.2500367 -1.3860865 -0.26330963 -1.5421 0.098279305 0.5287876 1.1814313
-0.59626925 -0.5181353 -0.18350051 -1.6177974 1.0048736 0.35830614 -0.5158112 0.48264948
1.1993738 -0.90425223 -1.8385357 1.0740396 0.18025665 0.87778246 0.4618223 -0.13454358
-0.48260984 -0.2836885 0.9802841 0.7125942 -0.6937583 -0.66314095 -1.3462901 1.1512702
1.0936062 -0.9899447 -0.81677467 0.78290904 0.015939957 0.9921357 0.55822986 0.7351736
-1.5649576 -0.9136384 0.95944977 1.481547 -0.9133172 0.7422756 0.036085553 -0.001108629
-0.37715963 -0.8813678 0.2881232 -0.7721781 -0.35352537 0.09795326 -0.5127888 0.5596116
1.1713889 -0.58752483 0.6413113 0.36622673 0.66102105 1.025267 -0.2525424 -0.60071826
-1.0818487
00000000: bd1c d8bf d8ce 70bf a2c5 e4bd 5f16 7dbf
00000010: 3468 2a3f dac3 73be c3a2 eb3e d19e ad3e
00000020: 1a89 52bf 4142 cfbf 61d5 88be ecfb 69bf
00000030: a4f3 99bf cc2d c73f 3eb7 8f3f e029 16bf
00000040: 67d5 92bf 9a00 1040 486b b1bf 85d0 86be
00000050: 8863 c5bf a946 c93d a05e 073f 2439 973f
00000060: 1aa5 18bf 84a4 04bf 8fe7 3bbe fc13 cfbf
00000070: b39f 803f e773 b73e 340c 04bf d51d f73e
00000080: 1585 993f 137d 67bf 2355 ebbf 217a 893f
00000090: 3395 383e 5ab6 603f f973 ec3e cbc5 09be
000000a0: a318 f7be 9e3f 91be e6f3 7a3f 936c 363f
000000b0: 259a 31bf 9bc3 29bf 3c53 acbf d25c 933f
000000c0: 4afb 8b3f 046d 7dbf 2518 51bf ba6c 483f
000000d0: 8394 823c 9bfc 7d3f 27e8 0e3f 5634 3c3f
000000e0: 8850 c8bf 35e4 69bf 809e 753f 55a3 bd3f
000000f0: 28cf 69bf c605 3e3f 72ce 133d 6b4f 91ba
00000100: 111b c1be 52a1 61bf e284 933e 77ad 45bf
00000110: 4701 b5be b89b c83d 2046 03bf b542 0f3f
00000120: 12f0 953f 0768 16bf fa2c 243f 1282 bb3e
00000130: ad38 293f f33b 833f 3d4d 81be acc8 19bf
00000140: 057a 8abf

encoder.graph_embed.GCN_in.linear.weight f4 [32, 16]
-0.030369068 -0.26394892 0.047594085 -0.16527353 -0.01405475 -0.12906034 0.11548506 -0.052764278
-0.093576476 -0.018893879 -0.27309453 -0.044707313 0.05575282 -0.06425539 0.02492501 0.1258802
-0.039585784 0.077036895 0.030338239 0.15168484 -0.2130326 0.26824883 -0.11584409 -0.04647161
-0.21277916 -0.13281898 -0.26834732 0.22112815 0.11296867 0.006170409 0.16514987 -0.034709442
-0.091017686 -0.020511786 -0.056936756 0.12357141 0.031710323 -0.09149732 -0.046404816 -0.117201045
0.16920356 0.02615222 -0.12536733 -0.13626048 -0.010590358 -0.030293915 0.14276248 -0.24947861
0.22967274 -0.12179938 0.024973849 -0.057209592 0.2202522 0.055627145 0.04706945 0.07933901
0.079790756 -0.045395005 -0.14574273 0.032148264 0.25242606 -0.13176388 0.048394877 0.17771733
0.110314235 0.23309122 -0.13286759 -0.123551056 -0.19443312 -0.3071116 -0.10901647 0.04044887
-0.21858433 0.10379692 -0.21376999 -0.06629968 0.1260375 -0.0152029935 -0.13824978 -0.081249125
-0.03120706 -0.00787652 0.066370614 -0.21860947 0.04396073 0.017469283 0.2107106 -0.2477642
0.20750667 0.15868714 -0.1902823 0.21787211 0.15768619 -0.05048898 0.0042719985 -0.102814905
-0.107489415 0.17928496 -0.13375242 -0.21778987 0.17120077 -0.21768552 -0.119280994 -0.01405937
-0.12289049 -0.0054401523 0.15345615 -0.07889329 -0.012972723 -0.11411978 0.036332663 0.2009083
-0.0021804783 0.30174267 0.21361114 0.04926887 0.17978483 -0.048509065 -0.06546151 0.22429234
0.21854533 -0.005209899 0.113501385 -0.102143936 0.044790424 0.07287554 0.15151756 -0.022197094
-0.20207322 0.020496465 -0.06251725 0.03410673 0.18827957 -0.20723945 0.25650626 0.21420263
-0.00040815005 -0.18754055 0.15100266 -0.19566935 0.061147 0.15097195 -0.059840105 0.1775138
0.11447214 0.06343681 -0.19905892 -0.2347107 0.08109418 0.016563555 0.10985784 0.21538037
0.16783357 -0.07107014 -0.13065863 -0.11197473 0.029567815 0.071250424 -0.004924491 0.1449749
-0.27822614 -0.2015126 -0.09750322 -0.04380199 -0.004985603 0.17099154 -0.26363805 0.004991161
-0.12031193 0.15388477 0.1119241 0.15072776 0.083256625 0.10265547 -0.11585481 0.13613224
0.12028516 -0.04538438 0.06469667 0.04498784 -0.17975119 -0.25936186 -0.113019064 -0.16981694
0.0062342547 0.031201242 0.19081663 0.20549512 -0.09852963 0.111280814 0.028089603 0.14278981
0.28982657 0.10808217 -0.05771348 0.3034161 -0.106385164 0.17445056 0.06185718 -0.077024296
-0.19442622 -0.10391946 0.092933945 -0.087122396 -0.010784097 0.041898675 0.10643858 0.1899161
-0.039403554 -0.07187794 -0.15764366 -0.04605236 -0.24016204 0.227471 0.00045308648 0.1517205
0.15320414 -0.083466575 -0.21536826 -0.14283472 -0.0071377535 0.030455116 -0.16841291 0.1137827
0.063705035 -0.02094204 0.0506502 0.28176257 0.029541647 -0.09838989 0.018638281 -0.020082926
-0.21826023 0.23254025 0.17831391 -0.19272631 0.0594138 -0.16859165 -0.007354097 -0.06344073
-0.11066009 -0.039930638 0.23693885 -0.070204884 0.09715808 0.06308199 0.07313326 -0.20190017
0.0967946 -0.26173964 0.18903458 0.035671547 -0.10593358 -0.0877523 -0.03522053 -0.17317432
00000000: 8dc8 f8bc 5024 87be 04f2 423d 773d 29be
00000010: e545 66bc 6528 04be 6e83 ec3d 5b1f 58bd
00000020: 06a5 bfbd 56c7 9abc 0cd3 8bbe 041f 37bd
00000030: 125d 643d 5498 83bd 892f cc3c bde6 003e
00000040: b424 22bd 85c5 9d3d e687 f83c 4553 1b3e
00000050: 3825 5abe e957 893e ab3f edbd 0459 3ebd
00000060: c8e2 59be b301 08be d264 89be 6b6f 623e
00000070: 1e5c e73d 2431 ca3b 0c1d 293e 7d2b 0ebd
00000080: 7b67 babd 5508 a8bc 8436 69bd 0213 fd3d
00000090: afe2 013d f262 bbbd fa12 3ebd 1a07 f0bd
000000a0: b343 2d3e 2e3d d63c 4b60 00be de87 0bbe
000000b0: 2e83 2dbc f22a f8bc 5430 123e 5277 7fbe
000000c0: 552f 6b3e f471 f9bd f595 cc3c 9b54 6abd
000000d0: cb89 613e 4ad9 633d e5cb 403d 7e7c a23d
000000e0: 5669 a33d 1df0 39bd 953d 15be e6ad 033d
000000f0: fd3d 813e 1ced 06be b539 463d 88fb 353e
00000100: 6eec e13d 77af 6e3e 710e 08be 5608 fdbd
00000110: 7a19 47be bb3d 9dbe 0744 dfbd b7ad 253d
00000120: 92d4 5fbe 7b93 d43d 85e6 5abe 20c8 87bd
00000130: f90f 013e fa15 79bc 5a91 0dbe f165 a6bd
00000140: f3a5 ffbc 850c 01bc 51ed 873d 29db 5fbe
00000150: 2b10 343d be1b 8f3c 85c4 573e e6b5 7dbe
00000160: a17c 543e e27e 223e 5dd9 42be de19 5f3e
00000170: 7d78 213e 88cd 4ebd 1ffc 8b3b 9f90 d2bd
00000180: 6923 dcbd 7a96 373e 65f6 08be 4f04 5fbe
00000190: 414f 2f3e f4e8 5ebe 9849 f4bd 4659 66bc
000001a0: 02ae fbbd 4e43 b2bb 9c23 1d3e ce92 a1bd
000001b0: 8b8b 54bc a2b7 e9bd 8fd1 143d e8ba 4d3e
000001c0: 5be6 0ebb 047e 9a3e e1bc 5a3e 28ce 493d
000001d0: 8419 383e 71b1 46bd af10 86bd e4ac 653e
000001e0: 59ca 5f3e cdb7 aabb 6a73 e83d d730 d1bd
000001f0: 2a76 373d c53f 953d 6b27 1b3e aed6 b5bc
00000200: 48ec 4ebe 34e8 a73c 0b09 80bd 80b3 0b3d
00000210: 5ccc 403e 9436 54be ca54 833e ef57 5b3e
00000220: f9fc d5b9 a10a 40be 71a0 1a3e 8c5d 48be
00000230: 4775 7a3d 6498 1a3e e61a 75bd 2dc6 353e
00000240: 5f70 ea3d 29eb 813d 1ad6 4bbe 0058 70be
00000250: b514 a63d 4bb0 873c 26fd e03d ac8c 5c3e
00000260: 90dc 2b3e 398d 91bd 60cb 05be 0253 e5bd
00000270: 3438 f23c beeb 913d a05d a1bb 4d74 143e
00000280: a873 8ebe 5259 4ebe c5af c7bd b769 33bd
00000290: 455e a3bb 6818 2f3e 91fb 86be e58c a33b
000002a0: 1a66 f6bd f893 1d3e 7638 e53d 6158 1a3e
000002b0: 7382 aa3d 083d d23d 4945 edbd 4066 0b3e
000002c0: 1158 f63d f9e4 39bd b07f 843d 2b45 383d
000002d0: b210 38be 14cb 84be 8a76 e7bd 7ee4 2dbe
000002e0: b848 cc3b bf99 ff3c 6f65 433e 506d 523e
000002f0: e7c9 c9bd 32e7 e33d 2b1c e63c 7e37 123e
00000300: 2664 943e 2f5a dd3d f864 6cbd 5b59 9b3e
00000310: 77e0 d9bd 2ba3 323e f45d 7d3d eabe 9dbd
00000320: ab17 47be bad3 d4bd 2754 be3d 3a6d b2bd
00000330: c8af 30bc f29d 2b3d 78fc d93d 5e79 423e
00000340: 9f65 21bd be34 93bd 576d 21be 66a1 3cbd
00000350: 0aed 75be 28ee 683e 3d8c ed39 9e5c 1b3e
00000360: 8ce1 1c3e 86f0 aabd 7f89 5cbe 4443 12be
00000370: d1e3 e9bb 027d f93c 6f74 2cbe e706 e93d
00000380: c977 823d a48e abbc 9676 4f3d 2f43 903e
00000390: 5301 f23c a380 c9bd 4faf 983c f384 a4bc
000003a0: 9c7f 5fbe 081f 6e3e ec97 363e 0c5a 45be
000003b0: e25b 733d 4aa3 2cbe a3fa f0bb 37ed 81bd
000003c0: c2a1 e2bd 4f8e 23bd 19a0 723e 94c7 8fbd
000003d0: d1fa c63d 2131 813d e4c6 953d ebbe 4ebe
000003e0: 3f3c c63d bd02 86be 4892 413e 541c 123d
000003f0: b4f3 d8bd 7ab7 b3bd 6743 10bd 9c54 31be

encoder.graph_embed.GCN_in.linear.bias f4 [32]
0.049189933 0.03130873 0.1949969 -0.03552218 -0.08032861 -0.0703338 0.19205642 0.24340667
0.15548638 -0.087965205 0.030341187 0.06809092 -0.047473866 -0.0592983 -0.00448611 0.00031966539
0.059227824 0.14265664 0.17844054 0.24626596 -0.11718246 -0.1418635 0.108483896 -0.108121045
-0.019605216 0.08517676 0.1684336 -0.14538099 8.3907384e-05 0.06828335 0.07472819 0.14430204
00000000: 627b 493d 953d 003d 44ad 473e b57f 11bd
00000010: 5483 a4bd 2b0b 90bd 70aa 443e 993f 793e
00000020: d237 1f3e 1a27 b4bd 158e f83c 4173 8b3d
00000030: f573 42bd c6e2 72bd 3800 93bb c398 a739
00000040: e098 723d 9514 123e 1eb9 363e 252d 7c3e
00000050: 5cfd efbd aa44 11be ce2c de3d 916e ddbd
00000060: 1e9b a0bc 2771 ae3d dc79 2c3e c1de 14be
00000070: 6ff7 af38 24d8 8b3d 180b 993d eac3 133e

encoder.graph_embed.bn.weight f4 [32]
0.9472779 0.8516404 0.90213275 0.89021003 1.0696013 0.9425004 0.92948663 0.94501257
0.888329 0.9194914 0.91436523 0.9194414 0.91895324 0.93394613 1.065508 1.0414002
0.95044005 0.9696817 0.9214329 0.94071704 0.9779454 1.0139128 0.9349868 1.0182713
0.91845065 0.95947504 0.905312 0.9591057 0.93296057 0.899511 0.96038914 0.98638767
00000000: ce80 723f 1b05 5a3f 2cf2 663f cee4 633f
00000010: b2e8 883f b547 713f d6f2 6d3f 58ec 713f
00000020: 8869 633f ca63 6b3f d713 6a3f 8360 6b3f
00000030: 8540 6b3f 1817 6f3f 9162 883f 9a4c 853f
00000040: 0a50 733f 0f3d 783f 07e3 6b3f d5d2 703f
00000050: a15a 7a3f e5c7 813f 4c5b 6f3f b756 823f
00000060: 951f 6b3f 28a0 753f 87c2 673f f387 753f
00000070: 81d6 6e3f 5a46 663f 10dc 753f e783 7c3f

encoder.graph_embed.bn.bias f4 [32]
0.07138452 -0.020832904 0.07486876 0.0049068923 -0.011309156 0.06502957 -0.07608946 -0.064120546
-0.071213655 0.043260526 0.0012376461 -0.04580886 -0.011505503 -0.08488064 -0.023210224 -0.0013046255
0.02057527 0.060263682 0.025885945 0.041516952 -0.012822116 0.03585633 0.056362722 -0.0004891832
-0.023961898 -0.0034975684 -0.041490518 -0.010255694 -0.024214163 0.06539482 -0.0029454147 0.0020953892
00000000: 0c32 923d c4a9 aabc cb54 993d ffc9 a03b
00000010: 0a4a 39bc 392e 853d cad4 9bbd a251 83bd
00000020: 77d8 91bd f331 313d 8338 a23a 12a2 3bbd
00000030: 9481 3cbc e7d5 adbd 5e23 bebc f8ff aaba
00000040: 788d a83c 0dd7 763d c30e d43c ae0d 2a3d
00000050: da13 52bc 16de 123d 99dc 663d 873c 00ba
00000060: be4b c4bc 7637 65bb f6f1 29bd 8007 28bc
00000070: c85c c6bc b8ed 853d dc07 41bb cc52 093b

encoder.graph_embed.bn.running_mean f4 [32]
0.013490324 0.004277128 -0.009701095 -0.013304569 0.040418256 -0.028828084 -0.009361261 -0.02083056
0.024550831 -0.01989097 0.0066220085 0.050771937 -0.011074173 -0.019884756 0.030265504 0.030648038
-0.002142747 0.07652977 -0.005269034 0.03634527 0.0022402885 0.04905457 0.0060862787 -0.01885603
-0.016879411 -0.011325034 -8.249659e-05 -0.016329633 0.011817972 0.039079007 0.00737478 0.020133635
00000000: 8506 5d3c 2627 8c3b 57f1 1ebc 68fb 59bc
00000010: 9d8d 253d e028 ecbc f95f 19bc daa4 aabc
00000020: d31e c93c 63f2 a2bc 6ffd d83b 3cf6 4f3d
00000030: 7370 35bc 5be5 a2bc 5def f73c 9811 fb3c
00000040: 546d 0cbb a4bb 9c3d dca7 acbb c7de 143d
00000050: ced1 123b 72ed 483d 686f c73b f677 9abc
00000060: b146 8abc a38c 39bc 0502 adb8 b9c5 85bc
00000070: 2ba0 413c 4f11 203d 23a8 f13b 4bef a43c

encoder.graph_embed.bn.running_var f4 [32]
0.006459238 0.0069712047 0.0027727531 0.0045711817 0.0046519893 0.0042029456 0.0073674615 0.0039162673
0.00674225 0.0020708228 0.0027885067 0.014085856 0.005088377 0.007503736 0.005817402 0.003302105
0.0031736137 0.01018225 0.004440115 0.005670834 0.0048174304 0.01878958 0.005137967 0.004842733
0.0012011272 0.0017699257 0.0056704045 0.0018739162 0.003369931 0.0050954022 0.0040568686 0.0068734516
00000000: 04a8 d33b b46e e43b 14b7 353b dac9 953b
00000010: b76f 983b ddb8 893b bf6a f13b 0854 803b
00000020: 18ee dc3b a4b6 073b 61bf 363b 5dc8 663c
00000030: 66bc a63b e6e1 f53b e89f be3b 2168 583b
00000040: 67fc 4f3b 74d3 263c 627e 913b 67d2 b93b
00000050: 89db 9d3b 9bec 993c 645c a83b caaf 9e3b
00000060: 246f 9d3a dafc e73a cdce b93b 329e f53a
00000070: 0fda 5c3b 55f7 a63b 7bef 843b b13a e13b

encoder.graph_embed.GCN_layers.0.A f4 [9, 9]
-1.4140509 0.11858884 -1.0294424 -0.24903698 0.6859597 0.52600366 0.36522058 -0.79195505
1.6896905 -0.058473002 -0.16865854 -1.024484 -0.70023406 -0.012582985 1.3149246 -1.0015818
-0.34701976 0.55039406 1.1753396 -0.9689677 0.1180728 0.48025325 -0.39183939 0.1259217
0.79702055 0.40663067 -0.20422365 -1.4788759 0.24330103 2.2438505 0.312723 -0.560937
1.5601202 -0.6857359 1.0742141 0.6979623 -0.92566633 -1.7028939 1.0791936 0.86495763
-0.50287944 0.7381095 1.2100925 -0.52970916 -0.14917208 0.5564808 0.18726756 0.617905
0.9633811 -0.22138792 0.53658164 -0.026584134 0.6441118 -0.9979896 0.31699657 0.3761459
-0.024158256 -1.5046692 -0.05305349 -0.47522852 -1.6015606 1.0730084 0.52463114 -0.7175642
1.1176891 -0.62832 1.2046225 0.6912911 -0.13491262 0.75672543 0.20198359 -1.6728948
-0.903436 -0.23377997 -0.71457577 1.9683985 1.6190469 -0.6244652 0.93363017 -0.38383913
-0.45866793
00000000: 9fff b4bf b5de f23d c5c4 83bf 8d03 7fbe
00000010: 0e9b 2f3f 2da8 063f 31fe ba3e 91bd 4abf
00000020: c747 d83f 6381 6fbd d3b4 2cbe 4b22 83bf
00000030: 8a42 33bf dd28 4ebc 734f a83f d533 80bf
00000040: 93ac b1be a0e6 0c3f 8771 963f 440e 78bf
00000050: 27d0 f13d c1e3 f53e 2c9f c8be 9ef1 003e
00000060: 8a09 4c3f e531 d03e 0120 51be ce4b bdbf
00000070: e823 793e 3f9b 0f40 3b1d a03e 9199 0fbf
00000080: 05b2 c73f 638c 2fbf d97f 893f a8ad 323f
00000090: 78f8 6cbf 6df8 d9bf 0423 8a3f dd6d 5d3f
000000a0: b5bc 00bf bff4 3c3f 50e4 9a3f 059b 07bf
000000b0: 91c0 18be 8775 0e3f 11c3 3f3e 062f 1e3f
000000c0: 25a0 763f 84b3 62be 6a5d 093f f8c6 d9bc
000000d0: 83e4 243f 3f7c 7fbf 604d a23e 3296 c03e
000000e0: 89e7 c5bc 0099 c0bf 9e4e 59bd 2751 f3be
000000f0: f0ff ccbf 5758 893f 3a4e 063f 4ab2 37bf
00000100: 7010 8f3f 94d9 20bf 1231 9a3f 74f8 303f
00000110: 8926 0abe c2b8 413f c9d4 4e3e 6b21 d6bf
00000120: 9547 67bf 0464 6fbe 70ee 36bf 7bf4 fb3f
00000130: ee3c cf3f f4dc 1fbf 6302 6f3f 9086 c4be
00000140: 86d6 eabe

encoder.graph_embed.GCN_layers.0.linear.weight f4 [32, 32]
-0.006399738 0.0634845 0.09706071 0.14945419 -0.17163762 0.055285215 0.12485594 -0.08361145
-0.14189163 0.049080297 -0.06998097 -0.10706461 -0.043188795 0.086985946 -0.07715095 -0.18852359
0.09289318 -0.112677194 -0.09394246 -0.032838527 -0.17826496 -0.09120201 0.17237425 -0.1631861
-0.118013404 -0.07801684 0.20385116 -0.041252434 0.07858582 0.12928693 -0.092716515 0.14890762
-0.006183041 0.13478266 0.07302681 -0.09036896 -0.10325562 -0.04119623 0.14827786 -0.032335605
0.13075842 0.065305084 0.12534943 -0.11085636 0.115552716 0.13526186 -0.04667101 -0.065268606
0.1909598 0.14309216 0.0847695 -0.027458621 0.11288748 -0.090356186 0.14336799 0.06480596
0.11379352 0.02750939 0.08800862 0.037828587 0.16866268 -0.15076172 0.021291459 0.07064538
0.12416416 -0.08762803 -0.08200803 0.11224192 -0.15119424 0.13620159 -0.09388315 0.0006662491
0.035659324 0.13368347 0.16166079 0.032044973 -0.027172396 -0.046635814 0.049262382 0.013650914
-0.16890532 -0.08473165 0.095180005 -0.051968526 -0.020734362 -0.14763229 -0.13453217 -0.055029325
0.15368283 0.09607956 0.05828723 0.05594617 0.119318485 0.15173043 0.08537597 0.14448658
-0.16882136 -0.05443213 -0.008000443 -0.27219692 -0.14308338 -0.042085968 -0.034996152 -0.1727949
0.14250189 -0.054314155 0.10766716 0.119590774 -0.07350861 0.08826221 -0.065601416 0.10936347
0.017596599 0.10452493 -0.12330275 -0.015182233 -0.0047349795 -0.010921679 -0.0014720213 -0.036215544
0.16283147 -0.13195823 0.09855743 0.15106538 0.013802261 0.038526513 -0.019247308 0.11265338
-0.16804005 0.10427173 -0.026115337 -0.013045019 0.10833569 0.15996633 0.1634273 0.0952614
-0.032882776 0.14775732 0.00870531 0.09252346 -0.1792684 -0.1411865 -0.07455363 -0.13886046
0.058092497 -0.14659816 0.054866042 -0.15595289 -0.13276853 0.07512531 0.14145403 0.037818223
-0.0102209635 -0.18536535 0.12340792 -0.016765818 -0.009931384 -0.056059465 -0.06206044 -0.014775399
-0.11637437 0.077182494 -0.116460145 -0.011279032 0.0015314519 -0.20430695 0.0035846385 -0.16575095
0.0071245404 -0.099534325 -0.0011207412 -0.015085963 0.23394054 -0.06353258 0.057695482 0.07461666
-0.099392585 -0.11580696 0.02497921 0.08754351 -0.11377371 0.011994682 -0.13381761 0.07546209
0.08721667 -0.031923864 0.12258941 0.097401254 0.040786244 0.05764115 -0.06514197 -0.103911884
0.14798836 -0.015300725 -0.04412872 0.02045029 0.121088244 0.008133507 0.030784205 -0.07819927
-0.075148 0.19519125 -0.13501522 0.13723046 -0.11963486 0.043118346 -0.1788648 -0.14719583
-0.04324114 0.011432185 -0.039668083 0.012453898 0.070892654 0.15495875 -0.05236299 -0.1799516
-0.09721464 -0.058713228 0.013055779 0.20118564 0.11008343 0.108381175 -0.042044166 0.15596142
0.17501695 0.12143182 -0.09423096 -0.06857188 0.106375165 0.025672311 -0.059368238 -0.21385434
-0.058097262 -0.18540853 -0.07583437 0.16576625 0.083441496 -0.07942292 -0.09660805 0.15860444
-0.03261689 0.21268429 -0.1919781 -0.17260629 -0.016400903 -0.095199 -0.08035005 -0.10453996
-0.021251297 0.100825205 0.021786373 -0.004338887 0.031631853 -0.015878737 -0.08790784 0.19462661
00000000: e5b4 d1bb 2904 823d c4c7 c63d 850a 193e
00000010: c6c1 2fbe c072 623d 79b4 ff3d 7b3c abbd
00000020: 0a4c 11be 6c08 493d 2f52 8fbd b144 dbbd
00000030: bce6 30bd b025 b23d 5101 9ebd 540c 41be
00000040: c83e be3d 4dc3 e6bd e864 c0bd b181 06bd
00000050: 178b 36be 1fc8 babd e082 303e 421a 27be
00000060: 03b1 f1bd 4bc7 9fbd 5cbe 503e 50f8 28bd
00000070: 9af1 a03d cb63 043e 28e2 bdbd 3d7b 183e
00000080: 1b9b cabb 7704 0a3e 158f 953d 5c13 b9bd
00000090: af77 d3bd 61bd 28bd 27d6 173e 5772 04bd
000000a0: 89e5 053e acbe 853d 9a5b 003e a908 e3bd
000000b0: e7a6 ec3d 1682 0a3e 1a2a 3fbd 8cab 85bd
000000c0: f78a 433e c086 123e a29b ad3d e7f0 e0bc
000000d0: 8d31 e73d aa0c b9bd 0fcf 123e fdb8 843d
000000e0: 940c e93d 5f5b e13c dd3d b43d 26f2 1a3d
000000f0: e9b5 2c3e 4861 1abe 6d6b ae3c 86ae 903d
00000100: c749 fe3d 5376 b3bd d3f3 a7bd 17df e53d
00000110: aad2 1abe 6e78 0b3e cf45 c0bd 38a7 2e3a
00000120: 830f 123d 52e4 083e 688a 253e 9741 033d
00000130: a598 debc 3205 3fbd 5ac7 493d 15a8 5f3c
00000140: 84f5 2cbe ca87 adbd bced c23d f3dc 54bd
00000150: 1cdb a9bc eb2c 17be cdc2 09be 6e66 61bd
00000160: 085f 1d3e 5cc5 c43d 97be 6e3d d027 653d
00000170: 405d f43d 395f 1b3e 99d9 ae3d 4af4 133e
00000180: 82df 2cbe 3af4 5ebd 4a14 03bc 655d 8bbe
00000190: 7384 12be 5662 2cbd 2058 0fbd 25f1 30be
000001a0: 04ec 113e 8578 5ebd 9a80 dc3d 02ec f43d
000001b0: af8b 96bd d1c2 b43d 095a 86bd f4f9 df3d
000001c0: be26 903c 2b11 d63d 2786 fcbd e7be 78bc
000001d0: e327 9bbb d8f0 32bc d7f0 c0ba c056 14bd
000001e0: 4bbd 263e 0f20 07be 7ad8 c93d e2b0 1a3e
000001f0: e122 623c facd 1d3d 88ac 9dbc d1b6 e63d
00000200: b112 2cbe 6b8c d53d d5ef d5bc c6ba 55bc
00000210: 1adf dd3d 37ce 233e 7c59 273e 6918 c33d
00000220: 17b0 06bd b24d 173e b7a0 0e3c f17c bd3d
00000230: 2392 37be 3293 10be 93af 98bd 7031 0ebe
00000240: 66f2 6d3d d41d 16be 37bb 603d 1db2 1fbe
00000250: 79f4 07be 4cdb 993d 53d9 103e 48e7 1a3d
00000260: d475 27bc 6ad0 3dbe 4bbd fc3d 7858 89bc
00000270: 3eb7 22bc 9c9e 65bd 1733 7ebd 8414 72bc
00000280: b055 eebd db11 9e3d a882 eebd b0cb 38bc
00000290: 00bb c83a d735 51be 41ec 6a3b 9eba 29be
000002a0: fa74 e93b a7d8 cbbd d6e5 92ba 1d2b 77bc
000002b0: 1c8e 6f3e 5f1d 82bd 1952 6c3d 9fd0 983d
000002c0: 578e cbbd 332c edbd 33a1 cc3c 034a b33d
000002d0: 3102 e9bd 5885 443c 7c07 09be de8b 9a3d
000002e0: a79e b23d 99c2 02bd 2810 fb3d 4f7a c73d
000002f0: 7a0f 273d 2019 6c3d 2769 85bd c1cf d4bd
00000300: 438a 173e e4af 7abc 51c0 34bd 5e87 a73c
00000310: 1dfd f73d 6742 053c 282f fc3c f026 a0bd
00000320: 32e7 99bd 37e0 473e 6e41 0abe 2486 0c3e
00000330: 1f03 f5bd dd9c 303d 5628 37be 81ba 16be
00000340: 9f1d 31bd 0f4e 3b3c 007b 22bd 6f0b 4c3c
00000350: 2b30 913d 82ad 1e3e 937a 56bd 3b45 38be
00000360: 7818 c7bd 487d 70bd e8e7 553c 9c03 4e3e
00000370: 6c73 e13d f3f6 dd3d 8136 2cbd 5ab4 1f3e
00000380: a537 333e 3fb1 f83d 29fc c0bd 6a6f 8cbd
00000390: 39db d93d bd4e d23c 1c2c 73bd a2fc 5abe
000003a0: 65f7 6dbd bcdb 3dbe 0d4f 9bbd a1be 293e
000003b0: 60e3 aa3d 7ca8 a2bd 71da c5bd 3469 223e
000003c0: 4a99 05bd e9c9 593e e895 44be b4bf 30be
000003d0: 305b 86bc b1f7 c2bd 918e a4bd 0c19 d6bd
000003e0: 3317 aebc 727d ce3d 5679 b23c 392d 8ebb
000003f0: 6790 013d 2014 82bc 0709 b4bd 334c 473e

encoder.graph_embed.GCN_layers.0.linear.bias f4 [32]
-0.011095516 -0.10252511 -0.033156607 -0.028594239 -0.021877022 0.030106777 0.009047544 0.042923786
-0.055998854 -0.045567326 0.053489942 -0.029981393 -0.020150019 -0.10686686 -0.08889563 0.08252903
0.03822927 0.015634084 -0.05208644 0.05025721 0.05440417 -0.10959022 0.023229707 0.058465965
-0.07781799 -0.030095858 -0.072632164 0.007844486 0.03559677 0.07971113 -0.047246672 0.0021100421
00000000: f8c9 35bc aff8 d1bd 39cf 07bd 773e eabc
00000010: 7137 b3bc 7da2 f63c 263c 143c dad0 2f3d
00000020: 0e5f 65bd cea4 3abd 4518 5b3d 8a9b f5bc
00000030: a711 a5bc 03dd dabd e90e b6bd fb04 a93d
00000040: 4c96 1c3d 0d13 803c 9758 55bd 81da 4d3d
00000050: e8d6 5e3d d670 e0bd 3a4c be3c 027a 6f3d
00000060: 0a5f 9fbd 978b f6bc 2cc0 94bd 2986 003c
00000070: ebcd 113d 973f a33d ba85 41bd a248 0a3b

encoder.pos_enc.pe f4 [500, 32]
0.0 1.0 0.0 1.0 0.0 1.0 0.0 1.0
0.0 1.0 0.0 1.0 0.0 1.0 0.0 1.0
0.0 1.0 0.0 1.0 0.0 1.0 0.0 1.0
0.0 1.0 0.0 1.0 0.0 1.0 0.0 1.0
0.84147096 0.54030234 0.53316844 0.8460091 0.3109836 0.9504153 0.17689219 0.9842302
0.099833414 0.9950042 0.05620449 0.9984193 0.031617504 0.99950004 0.017781857 0.99984187
0.009999833 0.99995 0.0056233825 0.9999842 0.0031622713 0.999995 0.0017782785 0.99999845
0.0009999998 0.9999995 0.0005623411 0.9999998 0.00031622782 0.99999994 0.00017782794 1.0
0.9092974 -0.41614684 0.9021307 0.43146282 0.5911271 0.8065784 0.34820527 0.93741834
0.19866931 0.9800666 0.1122313 0.9936821 0.063203394 0.9980007 0.03555809 0.9993676
0.019998666 0.9998 0.011246587 0.99993676 0.006324511 0.99998003 0.0035565514 0.9999937
0.0019999985 0.99999803 0.0011246821 0.99999934 0.0006324556 0.9999998 0.00035565588 0.99999994
0.14112 -0.9899925 0.9932532 -0.11596616 0.8126489 0.58275366 0.5085361 0.86104065
0.2955202 0.9553365 0.16790329 0.9858035 0.094726086 0.99550337 0.053323083 0.9985773
0.0299955 0.99955004 0.016869437 0.9998577 0.009486687 0.999955 0.005334813 0.99998575
0.0029999954 0.9999955 0.0016870227 0.99999857 0.00094868336 0.9999996 0.0005334838 0.9999999
-0.7568025 -0.6536436 0.7784717 -0.6276797 0.95358074 0.30113748 0.652828 0.7575062
0.38941833 0.921061 0.22304447 0.9748083 0.12615407 0.99201065 0.07107121 0.9974712
0.039989334 0.9992001 0.022491753 0.99974704 0.01264877 0.99992 0.0071130577 0.9999747
0.003999989 0.999992 0.0022493629 0.9999975 0.0012649109 0.9999992 0.0007113117 0.99999976
-0.9589243 0.2836622 0.32393527 -0.94607925 0.99994653 -0.010342338 0.77652997 0.6300803
0.47942552 0.87758255 0.2774805 0.96073127 0.15745588 0.987526 0.08879686 0.99604976
0.049979165 0.99875027 0.028113356 0.99960476 0.015810724 0.999875 0.00889128 0.9999605
0.004999979 0.9999875 0.0028117022 0.99999607 0.0015811383 0.99999875 0.0008891396 0.9999996
-0.2794155 0.96017027 -0.23036751 -0.9731037 0.9471482 -0.3207964 0.8757405 0.48278204
0.5646424 0.8253356 0.3310393 0.943617 0.18860027 0.98205394 0.10649444 0.9943133
0.059964005 0.99820054 0.033734076 0.99943084 0.018972522 0.99982 0.0106694745 0.9999431
0.0059999637 0.999982 0.0033740408 0.99999434 0.0018973658 0.9999982 0.0010669674 0.99999946
0.6569866 0.75390226 -0.7137213 -0.7004298 0.8004216 -0.5994375 0.9473307 0.320257
0.6442176 0.7648422 0.38355154 0.9235195 0.2195561 0.9755999 0.12415834 0.9922624
0.06994285 0.997551 0.03935372 0.9992253 0.022134129 0.999755 0.012447635 0.9999225
0.006999942 0.9999755 0.0039363783 0.99999225 0.0022135929 0.99999756 0.0012447953 0.9999992
00000000: 0000 0000 0000 803f 0000 0000 0000 803f
00000010: 0000 0000 0000 803f 0000 0000 0000 803f
00000020: 0000 0000 0000 803f 0000 0000 0000 803f
00000030: 0000 0000 0000 803f 0000 0000 0000 803f
00000040: 0000 0000 0000 803f 0000 0000 0000 803f
00000050: 0000 0000 0000 803f 0000 0000 0000 803f
00000060: 0000 0000 0000 803f 0000 0000 0000 803f
00000070: 0000 0000 0000 803f 0000 0000 0000 803f
00000080: a46a 573f 4151 0a3f ba7d 083f 0d94 583f
00000090: 3e39 9f3e 6b4e 733f 3a23 353e 83f6 7b3f
000000a0: 7675 cc3d 98b8 7e3f ae36 663d 6898 7f3f
000000b0: 5b81 013d 3cdf 7f3f 42ab 913c a3f5 7f3f
000000c0: 57d6 233c b9fc 7f3f 5a44 b83b f7fe 7f3f
000000d0: 1c3e 4f3b acff 7f3f 2015 e93a e6ff 7f3f
000000e0: 6d12 833a f8ff 7f3f 136a 133a fdff 7f3f
000000f0: 61cb a539 ffff 7f3f 5377 3a39 0000 803f
00000100: b7c7 683f 3311 d5be 0af2 663f b2e8 dc3e
00000110: 1b54 173f ec7b 4e3f f647 b23e a6fa 6f3f
00000120: f86f 4b3e a5e5 7a3f 86d9 e53d f361 7e3f
00000130: c870 813d f97c 7f3f 5ca5 113d 8ed6 7f3f
00000140: 3ed4 a33c e5f2 7f3f 9b43 383c dbfb 7f3f
00000150: d83d cf3b b1fe 7f3f 0815 693b 96ff 7f3f
00000160: 6812 033b dfff 7f3f 126a 933a f5ff 7f3f
00000170: 60cb 253a fdff 7f3f 5377 ba39 ffff 7f3f
00000180: c381 103e 2670 7dbf d745 7e3f ab7f edbd
00000190: c209 503f 582f 153f 6c2f 023f 296d 5c3f
000001a0: 6c4e 973e ef90 743f d7ee 2b3e 9e5d 7c3f
000001b0: c0ff c13d 4fd9 7e3f 4e69 5a3d c3a2 7f3f
000001c0: 1fb9 f53c 83e2 7f3f c631 8a3c adf6 7f3f
000001d0: 0d6e 1b3c 0dfd 7f3f a8cf ae3b 11ff 7f3f
000001e0: 929b 443b b5ff 7f3f 171f dd3a e8ff 7f3f
000001f0: 10b1 783a f9ff 7f3f 7ed9 0b3a feff 7f3f
00000200: cfbd 41bf 3055 27bf ec49 473f 9eaf 20bf
00000210: de1d 743f b12e 9a3e bc1f 273f edeb 413f
00000220: d761 c73e a7ca 6b3f c565 643e 098d 793f
00000230: 882e 013e 69f4 7d3f c88d 913d 465a 7f3f
00000240: dbcb 233d 94cb 7f3f a040 b83c 6cef 7f3f
00000250: c93c 4f3c c2fa 7f3f a714 e93b 58fe 7f3f
00000260: 5712 833b 7aff 7f3f 0c6a 133b d6ff 7f3f
00000270: 5ecb a53a f3ff 7f3f 5277 3a3a fcff 7f3f
00000280: 107c 75bf 2c3c 913e d8da a53e 4032 72bf
00000290: 7ffc 7f3f e972 29bc abca 463f f14c 213f
000002a0: 4377 f53e 40a9 603f ed11 8e3e 7cf2 753f
000002b0: 1d3c 213e 81ce 7c3f 21db b53d 1efd 7e3f
000002c0: f4b6 4c3d 19ae 7f3f fb4d e63c 19e6 7f3f
000002d0: 7e85 813c cff7 7f3f bbac 113c 69fd 7f3f
000002e0: ddd6 a33b 2eff 7f3f 8944 383b beff 7f3f
000002f0: 333e cf3a ebff 7f3f 2615 693a f9ff 7f3f
00000300: 8c0f 8fbe b8cd 753f 76e5 6bbe 531d 79bf
00000310: 4e78 723f 6d3f a4be 8830 603f 352f f73e
00000320: 688c 103f 3249 533f fc7d a93e e290 713f
00000330: 6e20 413e e367 7b3f c219 da3d 518b 7e3f
00000340: d19c 753d 128a 7f3f be2c 0a3d b3da 7f3f
00000350: 436c 9b3c 34f4 7f3f 05cf 2e3c 45fc 7f3f
00000360: 589b c43b d2fe 7f3f 031f 5d3b a1ff 7f3f
00000370: 08b1 f83a e2ff 7f3f 7cd9 8b3a f7ff 7f3f
00000380: 4630 283f bdff 403f 70b6 36bf 5e4f 33bf
00000390: 6ee8 4c3f bc74 19bf 4484 723f baf8 a33e
000003a0: 72eb 243f b3cc 433f de60 c43e c66b 6c3f
000003b0: 50d3 603e eac0 793f ba46 fe3d e904 7e3f
000003c0: 323e 8f3d 815f 7f3f 5e31 213d 3bcd 7f3f
000003d0: a252 b53c f2ef 7f3f 2af1 4b3c ecfa 7f3f
000003e0: c55f e53b 65fe 7f3f bcfc 803b 7eff 7f3f
000003f0: ed11 113b d7ff 7f3f 6628 a33a f3ff 7f3f

encoder.transformer.in_proj_weight f4 [96, 32]
0.023506999 -0.046714906 0.153365 0.00099478 -0.1857631 0.1300769 -0.03138664 -0.1762756
0.102186844 -0.16834833 -0.18810204 -0.13302432 -0.16202989 -0.1910163 0.15700385 -0.20277973
0.1871669 0.116906516 -0.057115305 0.18703224 0.06518834 0.22797318 0.12682061 0.1257324
0.12664989 0.05697382 0.1399309 0.017231071 -0.023767345 -0.073708646 0.05273833 0.1176399
0.051323317 0.027834747 0.19390807 0.11614408 -0.24214935 -0.02074536 -0.188893 -0.12381286
-0.17606856 0.15081269 -0.15642524 -0.014186346 0.1971205 -0.16774434 0.20765708 0.03691877
-0.03475679 0.082436174 0.007526749 0.076001205 0.2501586 0.056909163 0.010235818 -0.14319313
-0.23372212 0.006119732 -0.107454784 0.16363187 0.1134524 0.020353332 -0.12811673 -0.05181494
-0.14540394 0.023322694 0.09448216 -0.12521325 0.086724706 -0.21588632 0.20357607 0.055170193
0.14501035 -0.022824265 0.041960716 0.1857745 -0.13525254 0.12042553 0.14860958 0.18265133
0.096676774 -0.16980901 -0.08955673 -0.23459174 -0.05941141 -0.057451084 0.1720567 -0.19851844
0.01795974 0.050727177 -0.19404483 -0.08519316 -0.023483425 0.09398237 -0.0040115886 0.07664053
0.07976722 0.20202607 -0.19623691 0.17551023 0.059098303 -0.2115941 0.14068569 -0.013442906
-0.0066622873 -0.17115165 0.14906096 0.030752683 -0.13839965 -0.0477608 -0.12724137 0.11051889
0.16767676 0.17432493 0.06502192 -0.23888278 0.11400112 -0.023137517 0.113355674 -0.24501927
0.0029998089 -0.08966789 4.510103e-06 0.04716209 0.18026552 -0.27150184 0.0025127477 -0.26803848
-0.13194244 0.20452738 0.14591485 0.13898143 -0.09652626 0.12695502 -0.14321531 0.028578673
-0.09617847 0.017374182 -0.023848329 0.036517084 0.07322507 -0.19512902 0.13012609 -0.08414728
0.019608155 0.087032735 0.2924492 0.003769228 0.014022744 0.04666574 0.11131353 0.04918634
0.009469429 -0.10005443 0.22441609 0.15296099 -0.06474319 -0.02262084 0.12083919 -0.010976053
-0.04522125 -0.05295374 0.13586834 0.19946022 -0.07532921 -0.19196938 -0.07431138 -0.13634294
-0.13721636 0.16365613 0.22529447 0.1998931 -0.12263031 0.22790293 0.09652466 -0.021720113
-0.22925296 0.19415931 0.16470791 -0.11796131 0.010001737 -0.16036265 0.2237569 -0.04895737
0.14791954 -0.19326957 0.06794342 0.06096755 0.044156145 0.124072686 0.26479438 -0.1481879
-0.068239436 0.008817992 0.08015296 0.103471205 0.030896654 -0.08653268 0.0701495 0.073854625
0.14624682 0.2238186 -0.110973254 0.16665088 -0.1997596 -0.00036326787 0.16562761 -0.028068116
-0.16576706 -0.20109807 0.1377036 0.17807853 0.14250751 -0.14075346 0.17812373 -0.14256176
-0.027290896 0.19930838 -0.101358615 0.08946763 -0.26977924 0.07947178 -0.057421915 -0.09274721
-0.0031232052 0.1687456 0.1637425 -0.23150131 -0.021412114 0.06350045 -0.19939995 -0.028253976
0.08344292 0.092582315 0.07462822 -0.050523136 0.21710263 -0.07275849 -0.05582478 -0.24221005
-0.12587303 0.17307268 0.14508659 0.13420461 0.12344399 0.059036985 0.0034840961 -0.09084203
-0.011921778 -0.15670404 0.18681672 -0.13282962 0.18631479 0.010549606 -0.15833817 0.10876007
00000000: c091 c03c 2158 3fbd b70b 1d3e 4763 823a
00000010: af38 3ebe e132 053e 478f 00bd 9781 34be
00000020: 5647 d13d 8163 2cbe d29d 40be 8737 08be
00000030: 2aeb 25be c799 43be 9ec5 203e 7da5 4fbe
00000040: aea8 3f3e af6c ef3d bdf1 69bd 6185 3f3e
00000050: 7781 853d cd71 693e 43dd 013e ffbf 003e
00000060: 82b0 013e 615d 693d 0c4a 0f3e 2d28 8d3c
00000070: bcb3 c2bc 8ff4 96bd 2604 583d 30ed f03d
00000080: 6638 523d b205 e43c d68f 463e f3dc ed3d
00000090: 00f6 77be 2cf2 a9bc 2b6d 41be 9991 fdbd
000000a0: 514b 34be a46e 1a3e f02d 20be d96d 68bc
000000b0: f5d9 493e 2cc5 2bbe 0fa4 543e 2338 173d
000000c0: 235d 0ebd 4cd4 a83d f2a2 f63b 85a6 9b3d
000000d0: ca14 803e 9519 693d 22b4 273c 38a1 12be
000000e0: da54 6fbe 0888 c83b 4111 dcbd 1d8f 273e
000000f0: bb59 e83d 08bc a63c 0831 03be e73b 54bd
00000100: c5e4 14be 3c0f bf3c dd7f c13d e737 00be
00000110: b99c b13d 4e11 5dbe 3f76 503e 24fa 613d
00000120: 987d 143e f4f9 babc 00df 2b3d ac3b 3e3e
00000130: a47f 0abe a9a1 f63d 1c2d 183e f308 3b3e
00000140: 79fe c53d 6ae2 2dbe 8569 b7bd d138 70be
00000150: 6159 73bd d451 6bbd a22f 303e 6b48 4bbe
00000160: 4e20 933c 4dc7 4f3d b0b3 46be c079 aebd
00000170: 5060 c0bc d479 c03d a573 83bb b6f5 9c3d
00000180: ff5c a33d ecdf 4e3e 54f2 48be f4b8 333e
00000190: 1011 723d 20ac 58be e90f 103e a23f 5cbc
000001a0: 514f dabb 6142 2fbe 70a3 183e 0ded fb3c
000001b0: a3b8 0dbe d4a0 43bd 904b 02be ba57 e23d
000001c0: 75b3 2b3e 3c82 323e 362a 853d b09d 74be
000001d0: 6b79 e93d e48a bdbc 0527 e83d 55e6 7abe
000001e0: 7198 443b cca3 b7bd 7d55 9736 092d 413d
000001f0: 8697 383e 4a02 8bbe e9ac 243b 573c 89be
00000200: eb1b 07be a06f 513e b46a 153e 2651 0e3e
00000210: 8faf c5bd 7f00 023e 09a7 12be d21d ea3c
00000220: 38f9 c4bd 4d54 8e3c 925d c3bc f092 153d
00000230: 07f7 953d e7cf 47be c63f 053e 6955 acbd
00000240: 48a1 a03c 383e b23d e7bb 953e 2705 773b
00000250: a7bf 653c 9324 3f3d 59f8 e33d 9e77 493d
00000260: aa25 1b3c 56e9 ccbd 55cd 653e cea1 1c3e
00000270: 1498 84bd 574f b9bc 8a7a f73d e7d4 33bc
00000280: eb39 39bd 05e6 58bd 1221 0b3e 4d3f 4c3e
00000290: 3346 9abd 9f93 44be 9130 98bd 7c9d 0bbe
000002a0: 7282 0cbe 7995 273e 98b3 663e c7b0 4c3e
000002b0: 9a25 fbbd 635f 693e b9ae c53d 61ee b1bc
000002c0: 4ac1 6abe b3d1 463e 31a9 283e b395 f1bd
000002d0: 53de 233c 1b36 24be 8720 653e 8687 48bd
000002e0: 3878 173e 75e8 45be eb25 8b3d 1cb9 793d
000002f0: 13dd 343d d219 fe3d 2193 873e 92be 17be
00000300: 1ec1 8bbd 5779 103c 3c27 a43d b6e8 d33d
00000310: fb1a fd3c 0c38 b1bd 8baa 8f3d 1841 973d
00000320: bac1 153e b430 653e f245 e3bd 87a6 2a3e
00000330: c88d 4cbe fd74 beb9 499a 293e 1bef e5bc
00000340: d7be 29be a7ec 4dbe 2c02 0d3e 385a 363e
00000350: 7ded 113e ad21 10be 1166 363e b6fb 11be
00000360: 2891 dfbc 7f17 4c3e 1b95 cfbd ce3a b73d
00000370: 8120 8abe 1ac2 a23d 3e33 6bbd 40f2 bdbd
00000380: b0ae 4cbb a6cb 2c3e 1dac 273e ae0e 6dbe
00000390: 7568 afbc 860c 823d 802f 4cbe e274 e7bc
000003a0: 1fe4 aa3d cc9b bd3d aed6 983d 59f1 4ebd
000003b0: 2750 5e3e 6702 95bd 86a8 64bd e905 78be
000003c0: dce4 00be f739 313e 9491 143e ef6c 093e
000003d0: 34d0 fc3d c4d0 713d 6f55 643b 630b babd
000003e0: 9053 43bc 0677 20be e24c 3f3e 7d04 08be
000003f0: 4ec9 3e3e 41d8 2c3c 6723 22be 99bd de3d

encoder.transformer.in_proj_bias f4 [96]
0.020391824 0.056943692 -0.06218371 -0.06852959 0.012192287 -0.018367626 -0.014620833 -0.0119736325
-0.019066844 -0.05274827 0.0116639715 -0.07497945 -0.03213832 0.053634632 -0.026980665 0.0032263135
-0.12002195 0.009015122 -0.013514572 -0.0058847456 0.037963178 0.14287655 0.016971044 -0.06448077
-0.04410669 -0.027800914 -0.011596776 -0.06598112 -0.047532275 0.028003639 0.058584668 0.015369918
-3.2406777e-07 -2.0278712e-06 -3.2757112e-07 -1.3108079e-06 -6.588389e-07 -1.1114766e-06 -6.9647353e-07 -2.046911e-07
1.294461e-06 7.811549e-07 -1.0138972e-06 -1.1653702e-06 1.0664357e-06 -3.3802775e-07 3.0021477e-07 -2.2551012e-07
-4.6044292e-07 -4.1884814e-08 -1.0044586e-06 -4.3367807e-09 1.3595879e-06 2.3869713e-06 -7.8337234e-07 -5.6429946e-07
-9.213541e-07 8.788153e-07 -4.0763024e-07 -3.3262106e-07 -6.2583746e-07 2.657315e-07 3.298659e-07 4.0503e-07
0.013153727 0.027090928 0.02003222 -0.021923833 -0.018188829 0.022039017 -0.003803214 0.015877664
-0.014811292 -0.0059920824 0.009834166 -0.032959424 0.0244079 0.01749175 0.010881529 -0.032160398
0.0036340063 -0.002267973 0.018947307 -0.009044626 0.019209826 0.051692598 0.004835866 0.00030466903
0.02679897 0.025539279 -0.015446579 -0.012805528 0.010653246 -0.0072925803 -0.01267498 -0.018119715
00000000: c10c a73c ca3d 693d 59b4 7ebd 3e59 8cbd
00000010: 28c2 473c b477 96bc 388c 6fbc 0e2d 44bc
00000020: 1232 9cbc 920e 58bd 3e1a 3f3c d38e 99bd
00000030: 79a3 03bd fdaf 5b3d 8e06 ddbc 8f70 533b
00000040: 11ce f5bd 2ab4 133c 396c 5dbc d3d4 c0bb
00000050: 477f 1b3d 3b4e 123e dc06 8b3c 7e0e 84bd
00000060: 37a9 34bd bebe e3bc 6700 3ebc 1c21 87bd
00000070: 34b1 42bd e367 e53c 7af6 6f3d 1cd2 7b3c
00000080: 89fb adb4 9016 08b6 08dd afb4 04ef afb5
00000090: 11db 30b5 0c2e 95b5 4cf5 3ab5 10c9 5bb4
000000a0: 57bd ad35 8eb0 5135 3e15 88b5 d169 9cb5
000000b0: 7422 8f35 2e7a b5b4 342d a134 c023 72b4
000000c0: cb32 f7b4 d7e4 33b3 efd0 86b5 ba02 95b1
000000d0: 167b b635 db2f 2036 f048 52b5 5d7a 17b5
000000e0: f952 77b5 bae7 6b35 46d8 dab4 1793 b2b4
000000f0: 39ff 27b5 dca9 8e34 6d18 b134 e672 d934
00000100: bb82 573c cbed dd3c 9c1a a43c 9c99 b3bc
00000110: bd00 95bc 2b8b b43c 583f 79bb e011 823c
00000120: 10ab 72bc 3b59 c4bb 7b1f 213c 7600 07bd
00000130: 14f3 c73c dc4a 8f3c 7148 323c 9fba 03bd
00000140: 8228 6e3b 46a2 14bb 6237 9b3c e92f 14bc
00000150: ed5d 9d3c 9ebb 533d 2f76 9e3b fcbb 9f39
00000160: 8389 db3c c037 d13c a613 7dbc 47ce 51bc
00000170: f48a 2e3c 99f6 eebb b8aa 4fbc cc6f 94bc

encoder.transformer.out_proj.weight f4 [32, 32]
0.17652895 -0.08028573 -0.06936678 -0.044935808 0.19546889 0.09550462 -0.090604484 -0.066337556
-0.11541727 0.09044862 0.04979095 0.17854932 0.1183123 0.08961866 -0.07660526 -0.09108707
0.12579545 0.019731991 0.12058689 0.040963862 0.15699995 0.22888087 0.08025961 0.017479196
-0.015410243 0.10989462 -0.01225483 0.17729938 0.06576206 -0.059783306 -0.1468352 -0.18449977
-0.10329563 0.0010314009 -0.081674546 -0.056302268 -0.06899564 0.15995552 -0.10061205 -0.10571776
-0.033045232 -0.17416047 0.05659063 -0.20637612 -0.07812636 -0.108715884 0.058995966 0.17375442
-0.07563484 0.049329985 -0.023300752 -0.04853589 0.050530277 -0.1327412 -0.097728014 0.073799476
0.07662848 0.034429204 -0.022546474 -0.07728698 -0.06673639 0.119794145 -0.040848855 -0.098924145
0.0574438 0.022124292 -0.08891923 0.041217115 -0.02170561 0.15194564 0.11242585 0.033275686
0.044272482 -0.17330539 -0.14846358 -0.013071781 -0.050364327 -0.19991511 0.15540989 -0.1684488
-0.00047190904 0.122595884 0.08696172 0.17168938 -0.014149322 -0.044038154 0.15183884 -0.010819993
0.15071274 0.15486655 -0.12394178 -0.085690506 0.009121873 0.03373025 -0.035142154 -0.041502047
0.1965842 0.1341678 0.043470234 0.10419475 -0.016315207 0.12889922 -0.13818823 0.08087661
0.15820444 -0.13168254 -0.13405168 -0.009282591 -0.037500244 -0.03555173 -0.07198202 -0.12123127
0.091398194 0.09197901 0.12017048 0.03028192 -0.1584691 -0.027302615 0.04060386 -0.11742493
-0.049922347 -0.12507823 0.15679169 -0.14158349 0.11737599 0.12125958 -0.09395255 -0.16675493
0.0027237097 0.027273584 -0.12438427 0.12528078 0.10984719 0.11960044 -0.032368172 -0.053067915
0.119568765 -0.03557616 -0.07589881 0.11937942 -0.061772216 -0.102226816 -0.006219805 -0.08164614
-0.104415074 -0.15538491 -0.11294159 -0.12247538 0.03663829 0.046966072 0.11158318 -0.04857767
0.10112034 -0.11852416 0.14937194 0.18387352 -0.16836055 -0.13174789 0.08933474 0.16522655
-0.112208955 0.19439657 -0.1538233 -0.07603715 -0.0057827146 0.18047819 -0.1577432 -0.033468496
-0.045118555 -0.0031323167 0.035006955 -0.12585902 0.10749216 0.10720204 0.079521395 2.712016e-05
-0.1427814 0.025326496 -0.07086561 0.20832437 0.024473414 0.03802701 0.086737126 0.09318242
-0.039132696 0.0341982 -0.08339786 -0.030247323 -0.07520638 -0.10502134 0.15671615 0.08594949
-0.08436831 -0.17946382 -0.09066732 0.14847985 0.0012003833 -0.08072893 -0.05092517 0.026376333
0.009878078 0.11472141 0.036293995 0.107916504 0.16940142 0.22134021 0.09396715 0.16379528
0.012341605 -0.08158403 0.09738339 0.08262581 0.034411017 0.054301012 0.18364401 -0.14767516
0.0204866 -0.116679035 0.03364275 0.07694641 -0.21034132 0.042861886 -0.06895306 -0.038616583
0.16459334 -0.058407146 -0.0096771 0.14582893 -0.036386605 -0.15467055 -0.04817414 -0.064582
-0.059613578 -0.19819988 -0.030527746 0.09922301 -0.13366483 0.13721643 -0.035084035 0.20376332
0.1455429 0.22889352 -0.1726147 0.19518694 -0.2242807 0.009218498 0.18278511 0.07107036
-0.01687243 0.05275085 0.1053003 -0.046200305 -0.18255208 -0.12323448 0.008121639 -0.04353302
00000000: 01c4 343e d86c a4bd 2c10 8ebd 9c0e 38bd
00000010: ff28 483e ed97 c33d d88e b9bd fcdb 87bd
00000020: e45f ecbd 203d b93d 98f1 4b3d a2d5 363e
00000030: b84d f23d fd89 b73d 38e3 9cbd dc8b babd
00000040: 86d0 003e fca4 a13c 42f6 f63d b9c9 273d
00000050: 98c4 203e bf5f 6a3e 275f a43d 8830 8f3c
00000060: 3e7b 7cbc 6e10 e13d 7cc8 48bc f88d 353e
00000070: 42ae 863d 57df 74bd f75b 16be 82ed 3cbe
00000080: a98c d3bd 1230 873a fc44 a7bd 359d 66bd
00000090: 964d 8dbd 61cb 233e b10d cebd 8e82 d8bd
000000a0: 705a 07bd 1f57 32be 94cb 673d 4354 53be
000000b0: b700 a0bd 6fa6 debd c1a5 713d aeec 313e
000000c0: 70e6 9abd 3d0e 4a3d 38e1 bebc 92cd 46bd
000000d0: d6f8 4e3d 4fed 07be a025 c8bd 2e24 973d
000000e0: 64ef 9c3d a305 0d3d 62b3 b8bc a348 9ebd
000000f0: 17ad 88bd a256 f53d 2151 27bd be98 cabd
00000100: 314a 6b3d 013e b53c 491b b6bd 47d3 283d
00000110: f7cf b1bc a397 1b3e 863f e63d 164c 083d
00000120: 1057 353d f876 31be d606 18be 062b 56bc
00000130: d34a 4ebd 8cb6 4cbe c523 1f3e d87d 2cbe
00000140: 8f6a f7b9 8d13 fb3d fc18 b23d 57cf 2f3e
00000150: 8fd2 67bc 5a61 34bd a47b 1b3e 5746 31bc
00000160: 7154 1a3e 5695 1e3e 30d5 fdbd 817e afbd
00000170: e973 153c bb28 0a3d 38f1 0fbd 0dfe 29bd
00000180: 5e4d 493e 4963 093e d80d 323d 0f64 d53d
00000190: 78a7 85bc 28fe 033e 3781 0dbe a3a2 a53d
000001a0: 5800 223e cad7 06be d844 09be 0216 18bc
000001b0: db99 19bd b19e 11bd 4f6b 93bd 1a48 f8bd
000001c0: fa2e bb3d 7e5f bc3d f11b f63d ca11 f83c
000001d0: b945 22be bca9 dfbc 3c50 263d 7b7c f0bd
000001e0: 607b 4cbd 8214 00be 008e 203e 43fb 10be
000001f0: d362 f03d f156 f83d 326a c0bd cec1 2abe
00000200: 4480 323b da6c df3c 2ebd febd 9b49 003e
00000210: 90f7 e03d 13f1 f43d 7d94 04bd be5d 59bd
00000220: 78e0 f43d 4fb8 11bd d670 9bbd 337d f43d
00000230: dd04 7dbd 4b5c d1bd 82cf cbbb 1736 a7bd
00000240: 92d7 d5bd 391d 1fbe ec4d e7bd 5fd4 fabd
00000250: 0812 163d 7f5f 403d b985 e43d 61f9 46bd
00000260: 2e18 cf3d cbbc f2bd f5f4 183e 5749 3c3e
00000270: b566 2cbe ebe8 06be 22f5 b63d 2631 293e
00000280: cfcd e5bd e50f 473e db83 1dbe 5eb9 9bbd
00000290: ed7c bdbb 46cf 383e 6f87 21be 4316 09bd
000002a0: 3cce 38bd 8e47 4dbb 7463 0f3d 30e1 00be
000002b0: d924 dc3d be8c db3d 1ddc a23d 1a80 e337
000002c0: 4a35 12be 8379 cf3c fd21 91bd fc52 553e
000002d0: 787c c83c 36c2 1b3d 3ca3 b13d 6dd6 be3d
000002e0: 9b49 20bd 6913 0c3d 7fcc aabd 3cc9 f7bc
000002f0: cd05 9abd 6e15 d7bd 337a 203e 4906 b03d
00000300: 4bc9 acbd 5dc5 37be caaf b9bd 1a0b 183e
00000310: 2e56 9d3a 3655 a5bd e996 50bd 2e13 d83c
00000320: a9d7 213c 0ff3 ea3d 03a9 143d 5403 dd3d
00000330: 9177 2d3e 02a7 623e d971 c03d f3b9 273e
00000340: 7134 4a3c 8715 a7bd f170 c73d b837 a93d
00000350: 91f2 0c3d bd6a 5e3d 2d0d 3c3e 2838 17be
00000360: 84d3 a73c 6bf5 eebd fbcc 093d 1496 9d3d
00000370: b763 57be f28f 2f3d 4337 8dbd 6c2c 1ebd
00000380: 288b 283e 553c 6fbd b38c 1ebc 2e54 153e
00000390: 1f0a 15bd f561 1ebe 3f52 45bd 9143 84bd
000003a0: 5e2d 74bd e9f4 4abe 5315 fabc 6f35 cb3d
000003b0: 6fdf 08be 7782 0c3e 47b4 0fbd 55a7 503e
000003c0: 3309 153e 1063 6a3e e8c1 30be 16df 473e
000003d0: d7a9 65be 2f09 173c 052c 3b3e 568d 913d
000003e0: 0d38 8abc 4611 583d afa7 d73d 883c 3dbd
000003f0: efee 3abe 5c62 fcbd 9f10 053c ae4f 32bd

encoder.transformer.out_proj.bias f4 [32]
0.030059569 -0.011979156 0.02887874 0.0053979116 -0.023714459 0.016530694 -0.0052082585 -0.03219843
-0.044949144 0.0040404513 -0.0069413 -0.017255247 -0.026050752 -0.01482931 -0.010673234 0.008275193
0.011589624 0.032434706 0.013157517 0.007871388 -0.026453933 0.01691786 0.0027311381 0.0175313
-0.0236458 -0.0048967744 -0.013450271 -0.016442297 0.009055265 0.022560045 0.010430344 -0.0141750295
00000000: 7c3f f63c 3944 44bc 1b93 ec3c f7e0 b03b
00000010: d344 c2bc 616b 873c 0aaa aabb 80e2 03bd
00000020: 981c 38bd c365 843b d873 e3bb e05a 8dbc
00000030: 6368 d5bc a2f6 72bc cade 2ebc ad94 073c
00000040: 68e2 3d3c 41da 043d a092 573c fff6 003c
00000050: ebb5 d8bc 5397 8a3c e5fc 323b cd9d 8f3c
00000060: d6b4 c1bc 1f75 a0bb 875e 5cbc ffb1 86bc
00000070: 895c 143c d8cf b83c 09e4 2a3c 623e 68bc

encoder.ln1.weight f4 [32]
1.0058631 0.95846766 0.9860807 0.9526685 1.0785204 1.0206256 1.0210431 1.0642614
1.0547346 1.0101115 0.9593971 1.034146 0.9418318 1.0379329 1.0480578 1.0175573
0.9781967 1.0538124 0.9309623 1.0246975 0.99995434 1.0389315 0.9430044 1.0110664
0.97806907 0.9793595 0.97538275 0.9849166 0.980826 1.0110548 0.9994901 1.0104452
00000000: 1fc0 803f 235e 753f c96f 7c3f 15e2 733f
00000010: f50c 8a3f dca3 823f 8ab1 823f b839 883f
00000020: 8b01 873f 554b 813f 0c9b 753f e55e 843f
00000030: e41b 713f fcda 843f c226 863f 513f 823f
00000040: 196b 7a3f 53e3 863f 8c53 6e3f 4a29 833f
00000050: 02fd 7f3f b5fb 843f bd68 713f a06a 813f
00000060: bc62 7a3f 4eb7 7a3f afb2 793f 7f23 7c3f
00000070: 6a17 7b3f 3e6a 813f 95de 7f3f 4556 813f

encoder.ln1.bias f4 [32]
0.06932624 -0.0048791966 0.08846346 -0.0006927152 -0.024148513 0.062061574 -0.065783195 -0.051388204
-0.07571127 0.027440485 0.0076902327 -0.04526563 -0.002848775 -0.058225486 -0.021428678 -0.0028734747
0.01870432 0.05254658 0.021825567 0.035898887 -0.0039445106 0.038847074 0.05704449 0.0025242034
-0.027732741 0.00900109 -0.047010377 -0.010868941 -0.013686237 0.061225407 0.003103061 -0.0008560569
00000000: eafa 8d3d abe1 9fbb 552c b53d 5597 35ba
00000010: 1ad3 c5bc 4734 7e3d 57b9 86bd 707c 52bd
00000020: 830e 9bbd deca e03c 59fe fb3b 7468 39bd
00000030: 83b2 3abb d97d 6ebd 328b afbc e850 3cbb
00000040: cd39 993c 153b 573d 88cb b23c b60a 133d
00000050: f440 81bb 1c1e 1f3d 7ca7 693d 1b6d 253b
00000060: c62f e3bc 4f79 133c f48d 40bd a513 32bc
00000070: 3d3c 60bc 7ec7 7a3d ba5c 4b3b 0269 60ba

encoder.ln2.weight f4 [32]
1.0038011 0.9283496 1.0057884 0.97049177 1.0793064 1.0145173 0.9812145 1.0533708
1.033493 1.0138199 0.97579676 1.0200539 1.0036596 1.0118195 1.0533111 0.9932984
0.98571366 0.97875494 1.0016726 1.0034084 0.98049843 1.0034755 0.9760984 1.0637249
1.0224888 0.996093 1.0165479 0.98862153 0.99108756 1.0023036 1.0101601 1.0471568
00000000: 8e7c 803f 52a8 6d3f adbd 803f 2672 783f
00000010: b626 8a3f b4db 813f e030 7b3f dbd4 863f
00000020: 8049 843f dac4 813f d1cd 793f 2091 823f
00000030: eb77 803f 4d83 813f e6d2 863f ce48 7e3f
00000040: bb57 7c3f af8f 7a3f cf36 803f b06f 803f
00000050: f201 7b3f e371 803f 96e1 793f 2328 883f
00000060: eae0 823f f3ff 7e3f 3e1e 823f 4d16 7d3f
00000070: eab7 7d3f 7c4b 803f ed4c 813f 3c09 863f

encoder.ln2.bias f4 [32]
0.09674705 0.01322738 0.0911583 -0.007643386 -0.030581366 0.05951324 -0.029570157 -0.04481169
-0.059192963 0.04938976 -0.014021612 -0.025699606 -0.025622217 -0.048856083 -0.035333544 -0.0023140889
0.027984766 0.059182618 0.0218687 0.025255157 -0.009302063 0.038095742 0.076238364 -0.008508886
-0.019626228 0.022187097 -0.030088833 -0.008635269 -0.013943409 0.070972174 0.00045458964 -0.008160849
00000000: 5123 c63d a7b7 583c 34b1 ba3d 5e75 fabb
00000010: c685 fabc 28c4 733d 1d3d f2bc 768c 37bd
00000020: 5274 72bd eb4c 4a3d e7ba 65bc fb87 d2bc
00000030: afe5 d1bc 511d 48bd e8b9 10bd f8a7 17bb
00000040: 4f40 e53c 7969 723d fd25 b33c e7e3 ce3c
00000050: ae67 18bc 480a 1c3d dc22 9c3d db68 0bbc
00000060: 2fc7 a0bc b7c1 b53c db7c f6bc f17a 0dbc
00000070: e572 64bc dc59 913d fd55 ee39 15b5 05bc
