experiments/model_128_40_2026-01-17_1697/model.pt (torch, 551535 bytes, 18 tensors)

encoder.graph_embed.GCN_in.A f4 [9, 9]
00000000: 28ed 763e 1b72 36bf e368 cf3e c414 23bf
00000010: 0eff 0d3f 7dbe 25bf d6c9 7f3e 1e9a a5bf
00000020: bef6 433f d781 92bf 24d9 81bf 7889 2bbf
00000030: 0e34 2d3f cd38 1040 2026 adbf ba5e 563f
00000040: db67 29bf 8726 cdbe e392 11bd ecea 03bf
00000050: e783 c4be a0ff 8e3f 13bc d43f 3749 a93e
00000060: 704c 38be 1dee c73f 2a7c 173f 4a58 bc3f
00000070: cac5 9c3f 88f3 4a3f 3177 fc3e 1d95 a13f
00000080: 087a ac3d 9408 43bd 2327 633e ffc8 db3c
00000090: 0567 623f e0c5 333f ee8b 6a3f 6ef8 19bf
000000a0: 5da2 a13f 7dbd ccbe 2812 d43f 317e 15be
000000b0: 097d a43e a3c2 eebf 878f 21bf 959d f63e
000000c0: 236c 99bf 2cb8 75bf f6aa 063f 4f00 0abf
000000d0: 5f29 bb3d cf24 0ebf f889 b73e 795b e23e
000000e0: d216 873f a376 463f 057c 333f 9114 b5be
000000f0: 9282 f83e 8748 0ebf 39ed 06bf 9849 343e
00000100: ab3f 0140 22d2 cfbf a4b7 6dbf c7fa 75bf
00000110: 13b6 3cbf e395 28bf 433b 7fbd 52ad f0bf
00000120: becf 123f 8b63 a13f 5718 773f 3387 443e
00000130: 7fac 6bbf 1bde 8bbf 4201 bd3f 7b35 013f
00000140: 96df 093f
0.24113905 -0.7126786 0.4050971 -0.6370356 0.5546731 -0.6474379 0.24979338 -1.2937658
0.76548374 -1.1445874 -1.0144391 -0.67006636 0.67657554 2.2534668 -1.352726 0.8373829
-0.66174096 -0.40068457 -0.035540473 -0.5153034 -0.38381884 1.117176 1.6619896 0.3306367
-0.17997909 1.5619541 0.59173834 1.4714444 1.224786 0.7927785 0.49309686 1.2623631
0.08421713 -0.047615603 0.22182898 0.02682924 0.88438445 0.7022381 0.91619766 -0.601447
1.2627674 -0.39988318 1.6568041 -0.1459892 0.32126644 -1.8653148 -0.6310963 0.481671
-1.1986126 -0.9598415 0.52604616 -0.5390672 0.0913875 -0.55524915 0.3584745 0.44210413
1.0553839 0.77524775 0.70111114 -0.35367253 0.48537117 -0.5557942 -0.52705723 0.17606199
2.019511 -1.6236002 -0.9285834 -0.9608578 -0.73715323 -0.6585371 -0.062312376 -1.8802893
0.5734824 1.2608503 0.96521515 0.191922 -0.92060083 -1.0927156 1.4766009 0.5047223
0.5385679

encoder.graph_embed.GCN_in.linear.weight f4 [128, 16]
00000000: 3c5d 00be cf98 383e d76f 8abc 5658 bb3d
00000010: 66d5 9c3c a9ea 57bd acca 4ebe 2234 7b3d
00000020: 49a7 03bc 349a 3cbe 2b04 51be c0f2 6e3e
00000030: edd9 0fbe 8aa3 0dbd 411d 303e 23cc 6b3d
00000040: 7132 0bbe bb52 863e 1765 3cbd 86df 7c3e
00000050: bef6 04be cd51 93bd 6615 513e 47e9 dcbc
00000060: 483d da3c 04b7 a93d d6f8 813d 4ec5 4d3e
00000070: 299d 21be 1da5 063d 9c14 063d a1cf 01be
00000080: 6f6f 50be c876 08bc b089 563e 0d29 153d
00000090: 8e2d 5f3e dda5 50bd 93c2 a73c 0729 c03c
000000a0: 6e29 0e3e d862 20bd 35c8 a13b 290e fd3d
000000b0: f9c4 283e 06d2 85be 0865 1dbe 02f6 683e
000000c0: 47c7 5fbe b669 b6bc d4e1 8d3d cfd5 3c3e
000000d0: 7f7d 53bc eb00 6f3d f583 0ebe 9605 353e
000000e0: 8f36 47be 10f0 7abd 9f6e 3b3e fd13 dcbd
000000f0: f901 22be 9340 1a3e a65e d6bd fbc4 da3c
00000100: 6c95 87bd 2e6a 8c3e 25dd f1bd dd51 0cbe
00000110: 4aca 763d 798b 77be 4f27 153d a7a3 ec3d
00000120: a219 af3d c6e6 7b3a e5a0 11bd 68d2 52be
00000130: e923 c13d 2d41 34be f390 12be 92a5 76bd
00000140: 9172 d33d 3459 5fbd 6559 2a3d 38af 3e3e
00000150: 3d27 5b3e 9dbf 34be f097 913d c42e 3fbe
00000160: 4564 293e 4d3e 89be baa4 e53c 8b64 2c3e
00000170: 9e75 2a3e da91 2c3e 2f60 81be a4b4 6e3d
00000180: 120a 033d 1f75 183e e5b2 5c3e 5dbd edbb
00000190: 4c9a 003e 8f1c 983d dcbb 3b3d daad a7bd
000001a0: 48a0 73be d1e5 67bc 9e6a 0e3e 1365 8cbd
000001b0: 563c 59bd d994 0bbe d087 1f3e 5549 6c3d
000001c0: 79ad b3bc b291 4ebe d73a cbbc 2257 923c
000001d0: 561f f7bd 4f0c 2ebe a33f 11be adac 86bc
000001e0: 6eb6 88be 013b bc3d 8736 60be ce6b 8e3c
000001f0: 6a19 9a3d 4e2e 8e3c 1152 c9bd bdf6 2cbe
00000200: 575f 05be 9eb3 f83b c3a9 383c e6ba 28be
00000210: 8c86 68be b684 31bd 73de 5dbe 74f5 613e
00000220: 97fb b83d 7470 27be 238b 59be 8c8c 8c3d
00000230: cabe 3dbe 8b48 343d ee73 12be ebfd c83d
00000240: 40e2 2e3d 452d 663e 019c 38be 8c07 53be
00000250: a38e 44be 1f6b d4bd e508 53be acc4 79be
00000260: 0f31 8abd 0f01 3c3d ceae c3bd 0ee4 823d
00000270: 2af6 2cbe 811e 30be 7094 b43d 9711 55be
00000280: 8315 0d3e 15c9 9cbd c5a2 6cbe f304 38bd
00000290: 42f9 12bd 020c 1bbe 490f 06be 1c78 29be
000002a0: 722c d43d 2b1c 4ebe e4e1 48be 068c 6bbe
000002b0: a416 67bc 6747 33be 9605 1cbe f3d3 c6bd
000002c0: 868b c5bd 8998 ae3b 177b ae3b 9443 173e
000002d0: 28de 82bd 7ebf 15be 804c 49be e353 52be
000002e0: 6f01 d4bd 2896 63bc dc42 99b9 8504 16be
000002f0: 857c 6fbd da7e 67be dc56 533e 9d6f 573e
00000300: 2066 1dbe f843 0bbe 7663 623d 413e 15be
00000310: 1d4b e93c ac82 983d 600f fabd 7043 3f3e
00000320: 13c1 653d 1da1 b3bd e227 373e 2238 0139
00000330: ca25 09be 36c4 1a3e 7801 373e 56a6 cfbd
00000340: a21c 563e 44bc 6f3e 3554 2f3e 519e 67be
00000350: d9d1 343e b5dd 92be dcd4 89be e7a2 1c3c
00000360: c02a 4e3c c5bc 7d3e afb2 0cbe f8d4 be3d
00000370: bc6a 273e ca07 e13d d016 3bbd 291b 773e
00000380: efae a43d 7144 bebc b140 18be dddb 843e
00000390: dd1b 82bd 7c65 443e 8fa5 43be bf81 2fbe
000003a0: c49b d0bc d8f4 613e 5914 0c3d bef7 c3bd
000003b0: 687f 1cbe f507 9cbd e4cf a23d 0f6d e0bd
000003c0: 562d 1abe 49e5 e1bd c58b f8bd f207 bbbd
000003d0: 3f2b 393d 234d 093e 44ef 0d3d 33b7 303e
000003e0: 016b f43d dcc9 2cbe e130 ffbd 2939 753d
000003f0: 20a3 46be 47c0 a6bd fbee e1bd 98fb f4bd
-0.12535566 0.18027042 -0.016899033 0.09147708 0.019144725 -0.052714024 -0.201945 0.061329015
-0.008035489 -0.18418199 -0.20411746 0.2333479 -0.14047976 -0.03457979 0.1719866 0.057567727
-0.1359346 0.26234993 -0.045994844 0.24694642 -0.1298475 -0.07193337 0.20418319 -0.026966704
0.02664055 0.082868606 0.0634629 0.20094797 -0.15782608 0.032872308 0.0327345 -0.1267686
-0.20355009 -0.008329101 0.20950961 0.036416102 0.21794721 -0.05093943 0.020478522 0.023457063
0.13882992 -0.039156765 0.0049371966 0.123562165 0.16481389 -0.26136798 -0.15370572 0.22750095
-0.21853362 -0.022267204 0.06927839 0.18440937 -0.012908339 0.058350485 -0.13917525 0.17677912
-0.19454406 -0.061264098 0.18303917 -0.10746 -0.15821065 0.15063696 -0.104672715 0.026705256
-0.06620297 0.2742476 -0.11809758 -0.13703103 0.06025151 -0.24174298 0.03641444 0.11554652
0.08549811 0.0009609278 -0.03555383 -0.20588076 0.094306774 -0.17602988 -0.14313106 -0.060216494
0.10324586 -0.05452843 0.04158916 0.18621528 0.21401687 -0.1765122 0.07109058 -0.18670183
0.16542156 -0.26805344 0.02803265 0.16835229 0.1664643 0.16852513 -0.25268695 0.05827774
0.031992026 0.14888428 0.21552618 -0.00725524 0.1255886 0.07427322 0.045833454 -0.081874564
-0.23791611 -0.014153914 0.13907859 -0.06855216 -0.053036056 -0.13631 0.15579152 0.057687122
-0.021933304 -0.20172766 -0.02480833 0.017863814 -0.12066524 -0.16996883 -0.14184432 -0.01643976
-0.26701683 0.091909416 -0.218958 0.01738539 0.075243786 0.017356064 -0.09830106 -0.16890998
-0.1302465 0.0075897714 0.011270943 -0.16477546 -0.22707576 -0.043339454 -0.21666889 0.22066289
0.09032362 -0.16351491 -0.21244483 0.06862745 -0.18529812 0.044014495 -0.14302036 0.09814056
0.042696238 0.22478206 -0.18028261 -0.20608348 -0.19195037 -0.10371994 -0.20608862 -0.2439143
-0.067476384 0.045899447 -0.09554826 0.06391154 -0.16890779 -0.17199136 0.08817375 -0.20807491
0.13777737 -0.07655541 -0.23108967 -0.044926595 -0.035882242 -0.151413 -0.13091768 -0.16549724
0.1036004 -0.20127933 -0.1961742 -0.23002633 -0.014104519 -0.17507707 -0.15236506 -0.09708395
-0.096457526 0.005328242 0.005324732 0.14771873 -0.06390029 -0.1462383 -0.19658089 -0.20539813
-0.10351836 -0.0138907805 -0.00029232248 -0.14650162 -0.05846836 -0.22606984 0.20638603 0.21038671
-0.15370989 -0.13600147 0.055270635 -0.14574529 0.0284782 0.07446799 -0.12209964 0.18678069
0.056092333 -0.08770964 0.17886308 0.0001232331 -0.13393322 0.15113911 0.17871654 -0.10139148
0.2090936 0.23411661 0.17121966 -0.22618987 0.17658176 -0.28684774 -0.2692021 0.009560323
0.012583435 0.24779041 -0.13740037 0.09317964 0.1634931 0.10987814 -0.045676053 0.24131455
0.080411784 -0.023225995 -0.14868428 0.25948992 -0.06352971 0.19179338 -0.19106124 -0.17139338
-0.0254649 0.22066057 0.034199093 -0.095687374 -0.15282977 -0.07618705 0.07949808 -0.10958301
-0.15056357 -0.11030061 -0.12136034 -0.09132375 0.04520726 0.13408332 0.03465201 0.17257385
0.11934472 -0.16873878 -0.12460495 0.059868965 -0.19398165 -0.08142143 -0.1103191 -0.1196205

encoder.graph_embed.GCN_in.linear.bias f4 [128]
00000000: 96c9 6b3d ffb8 19be 63bc 08be c592 d23c
00000010: a097 48bc 2b0a 153e accd f4bc 1ada 943d
00000020: 40c8 5dbb 2747 043e 1d07 15bd df3d ebbd
00000030: 79de 48bd d708 33be 1f9f 3d3c 7d3b 28be
00000040: 42b3 9b3d f59f 8ebd 9738 0fbe 3185 62bc
00000050: 33d0 213e 3643 e9bd a2ba d2bd 48c4 0f3e
00000060: 5fff d43d db9e 963d adba 5dbd c51f 6cbe
00000070: d729 70bd 2648 ffbd 06ed 073e 8336 94bd
00000080: 4108 823d 88a8 31bc 446d 9e3d ad05 75bc
00000090: e670 af3c 5c5b 7fbe 7166 51bc 3314 a53c
000000a0: 1630 1f3d f5d4 debc e3fd 7d3d 0984 3bbe
000000b0: db40 72be a912 80bd e6fe e2bd 7668 133e
000000c0: 7d30 8ebd 7490 03bc 1dca a83d dc4f a6bd
000000d0: cab8 173d efa0 53be b979 cbbc 66b8 33be
000000e0: c6d8 113e b40c 253e c9b3 fd3c a046 ea3d
000000f0: 4824 2e3c febc 3cbe bba7 87bd 5249 313e
00000100: b144 1e3e e3d1 953d 5141 ddbc 64d0 9dbd
00000110: 4a93 edbd ef67 d13d b298 373c 5734 e93d
00000120: 57f7 acbd 7499 aebd c582 23be a340 223e
00000130: f4d5 80bd 2ae2 f4bd a997 96bd 52f5 9c3c
00000140: cb26 0abe 43ca c1bd 2cdb 9e3d c951 0dbc
00000150: 46e0 debd a476 2bbe 53ea 383d 0576 0dbe
00000160: bbf2 ff3d 7460 2f3e faed 613e b6dd 44bc
00000170: 0541 02bd 5a34 263e dcf1 623c 2de7 b8bd
00000180: 7ceb 09be e6d6 093e cfc6 01bd d048 2c3d
00000190: 2a4b 673e 5f9e 1dbe 7386 303e 6f57 4f3d
000001a0: a6a5 03be 7c16 fabd b926 d9bc caf9 f93d
000001b0: f820 24be 17ff a43d bdfb 3bbd 1f41 f7bd
000001c0: 32f0 4a3e ccdb 96bb 199d 303c 601a 04be
000001d0: d252 a3bd 260a 933c 877e 99bd b62a 2dbb
000001e0: 4543 b43d 1d07 0dbe b106 31be 839a 043d
000001f0: 3b89 5d3c e8b9 b0bd 2f0e c93d 76bd 53bd
0.057565294 -0.15011977 -0.13353114 0.02570475 -0.0122431815 0.1455466 -0.029883228 0.07268162
-0.0033841282 0.12917767 -0.036383737 -0.1148641 -0.04904029 -0.17483841 0.011573582 -0.16428943
0.0760255 -0.06964103 -0.13986431 -0.013825701 0.15802078 -0.113897726 -0.10289504 0.14039719
0.10400271 0.07354518 -0.054133106 -0.23058994 -0.05863365 -0.12464933 0.13274011 -0.0723696
0.063492306 -0.010843404 0.077356845 -0.0149549665 0.021416139 -0.24937195 -0.012780772 0.020151233
0.038864218 -0.027201155 0.062009703 -0.18312086 -0.23657553 -0.06253559 -0.11083774 0.14395317
-0.06942842 -0.008030046 0.08241675 -0.08120701 0.037041463 -0.2066686 -0.024838315 -0.17550811
0.14242849 0.16118127 0.030969517 0.11439252 0.010628767 -0.1843147 -0.06623789 0.17313126
0.15455891 0.07315423 -0.027008684 -0.07705763 -0.11600359 0.10224902 0.011205839 0.11386936
-0.08445614 -0.085253626 -0.15967853 0.1584497 -0.06290808 -0.119572 -0.07353146 0.019159947
-0.13491361 -0.094624065 0.077566475 -0.008625456 -0.108826205 -0.16744477 0.045145344 -0.13814552
0.12497469 0.17126638 0.22063437 -0.012015751 -0.03180029 0.16230908 0.013851609 -0.09028468
-0.13468736 0.13460883 -0.03168374 0.042061627 0.22587267 -0.15392445 0.17238788 0.050620493
-0.12856159 -0.1221132 -0.026507722 0.122058466 -0.16028202 0.08056467 -0.045894373 -0.12072968
0.1981819 -0.0046038385 0.0107796425 -0.12900686 -0.07974781 0.017949175 -0.07494836 -0.0026423163
0.08801893 -0.13772245 -0.17287709 0.032373916 0.013521488 -0.08629209 0.098171584 -0.051694356

encoder.graph_embed.bn.weight f4 [128]
00000000: 6d11 7b3f bab7 833f 515f 733f c4a2 723f
00000010: 5749 823f cfd6 6e3f f4b0 803f 29fd 773f
00000020: 4fa5 813f bd72 7b3f af3f 7d3f 5b44 763f
00000030: 950c 773f 1964 7d3f 32f7 753f 0600 803f
00000040: 1857 7c3f fa13 7b3f 0be9 7d3f 7a91 7e3f
00000050: a1b4 843f 6871 753f 90b0 7f3f 0f5a 763f
00000060: ee3d 813f d908 813f e643 7e3f b586 763f
00000070: 2d20 833f e497 7a3f 6adf 773f 0e3b 793f
00000080: a079 753f 36f1 763f 4c88 7b3f 3764 803f
00000090: 378f 813f 5eb2 703f 903e 813f b57f 723f
000000a0: 2d29 7f3f 6ff4 803f 4f8b 843f 31ad 7c3f
000000b0: b131 7c3f 71d4 803f 9aaf 813f f778 753f
000000c0: 3901 843f 1119 7e3f 512c 823f 8eaf 7a3f
000000d0: c4d8 823f 83a5 7a3f 3860 813f fe25 823f
000000e0: 9f91 803f daa1 773f 7b9a 813f dcea 7a3f
000000f0: 43c0 873f ae38 753f 47bc 833f 2627 803f
00000100: a890 7e3f c30b 743f 9022 853f 8118 773f
00000110: f243 7c3f 15ac 853f 86be 813f 32d6 7e3f
00000120: 552f 7f3f 9874 793f 2d3e 823f 37b3 743f
00000130: 8161 773f 2343 833f 1f93 793f 381e 7a3f
00000140: d605 823f 36b5 753f a237 7c3f e000 763f
00000150: e9ac 7d3f 619c 713f 4bcd 793f 55b6 7b3f
00000160: 8429 7c3f 26e2 6f3f cbf4 7a3f a60e 7b3f
00000170: ca2d 783f 214b 803f 0a35 803f a2ce 813f
00000180: 70f8 823f 7a67 7a3f b8ea 7b3f e526 823f
00000190: e0aa 7c3f 9a25 783f 8abc 743f 3066 803f
000001a0: 5df4 7c3f 9505 7c3f 087f 813f a49a 7c3f
000001b0: 9d10 7e3f 146f 7e3f af16 743f afc2 7e3f
000001c0: 16c3 763f 20bb 7d3f f897 803f 6b94 763f
000001d0: 1216 783f 3600 7f3f a489 803f dbfb 783f
000001e0: f017 813f 4f5f 6e3f 4cd8 803f e0ca 763f
000001f0: 1af8 7c3f fd49 7b3f d700 773f 9f7f 7a3f
0.98073465 1.0290444 0.95067316 0.9477961 1.0178632 0.9329652 1.0054002 0.96870667
1.0128573 0.9822195 0.989253 0.9619805 0.96503574 0.9898086 0.96080315 1.0000007
0.98570395 0.98077357 0.9918372 0.9944073 1.0367624 0.9587617 0.9987879 0.9623117
1.0097024 1.0080825 0.99322355 0.96299297 1.0244194 0.97888017 0.9682528 0.97355735
0.9588871 0.9646181 0.9825485 1.0030583 1.0121831 0.94022167 1.0097218 0.94726115
0.99672204 1.0074595 1.0355014 0.9870177 0.98513323 1.0064832 1.0131714 0.958877
1.0312873 0.99257 1.0169774 0.97924125 1.0222402 0.979088 1.0107489 1.0167844
1.004444 0.9673134 1.0125269 0.98014617 1.0605549 0.9578961 1.0291833 1.0011947
0.9943948 0.95330447 1.0401173 0.96521765 0.98541176 1.044314 1.0136268 0.99545586
0.996816 0.9744353 1.0175225 0.9558596 0.96633154 1.0254864 0.97490114 0.9770236
1.0158031 0.9597963 0.9852239 0.96095085 0.99091965 0.9437924 0.9757888 0.9832509
0.9850085 0.9370445 0.98029774 0.98069227 0.9694487 1.0022928 1.0016186 1.0141184
1.0232067 0.9781414 0.9840503 1.016812 0.98698235 0.96932375 0.9560019 1.0031185
0.9881037 0.9844602 1.0116892 0.9867346 0.992441 0.9938824 0.9534711 0.99515814
0.9639143 0.99113655 1.0046377 0.9632022 0.96908677 0.99609697 1.0042005 0.972593
1.008543 0.9311418 1.0066009 0.9640331 0.9881607 0.9815977 0.96485656 0.97850984

encoder.graph_embed.bn.bias f4 [128]
00000000: c31e 05ba be01 15bb 2705 c03b ff53 8dbc
00000010: db10 c7bc 0183 23bc cd23 80bc 34bc 073d
00000020: 3b3b 0c3b 6180 3dbc 96f6 15bc 6983 b5bb
00000030: 993e 76bc b914 c3bc 200c 903c f089 d23a
00000040: 8fea 64bb 4bc0 6b3c db05 74bc 6045 adbb
00000050: 6e2b 76bb 29ec 00bd e990 0c3c dbd2 f0bb
00000060: 452b 293a 8393 babb 3ea8 b8ba c0fd c73b
00000070: bf79 42bc d2eb 173b e1b6 2dbc de66 943a
00000080: 9b7b ccbc afd2 9a39 190b 7f3c 8650 a8bc
00000090: 40ef dcbb 92e1 25bd e156 debb f1c6 60bc
000000a0: b1ff 113c 717c 68bb 3f74 9d3a f2a0 753b
000000b0: 1854 c33b 5813 94ba a3c8 5c3b 9fca 073b
000000c0: 963a 77bb 0eb3 b0bb 4ed2 0b3c 9e61 5dba
000000d0: 81e2 9e3c fb1a a7bc f03a 4a3c a6a3 9b3c
000000e0: a1f3 77bc c5b9 3b3b f966 6e3c 0e9d 7b3a
000000f0: e810 6e3c 84a6 103c b1ed 5a3b f6a9 183c
00000100: cf3a b13b 000c e93b 2b0b 56b9 64ab ca3c
00000110: 0414 6fbb 100c 2d3b 577c 12bc 7f91 cd3c
00000120: e08f 523b 5087 c73b 716c 8ebc 08d4 873c
00000130: c24c 3cbc 87b0 1e3c 1a44 14bc c09b 3a3c
00000140: 132f 653b f477 193c d247 823c 6d23 c7bb
00000150: c286 213c 6488 cb3a 39e4 77bc 0748 84bc
00000160: 2a48 38bc b04d 903c 4518 5fbb 31d0 863a
00000170: 5bba 82ba b679 713c bf97 d0bb ac7a b8b9
00000180: d182 99bc 457c 3fbb 0d03 34bc 3958 2c3b
00000190: 44bb e7bc ccf8 7cbc d123 b73b 9878 0cbc
000001a0: f928 3dbc ebc9 eb3b 92d6 e33b 3fff 603c
000001b0: 09fb 28bc 795a cd3c 1a2e 15bc e4a2 7c3c
000001c0: 0923 4c3a 7ebd 6c3b dda1 c03b 9802 653c
000001d0: e4f5 17bb 15e9 023b 89b9 f1ba dab5 e33b
000001e0: 7789 4d3c 9e62 be3c 47c3 f0bb 0c84 9c3b
000001f0: 2ff0 c4bb f8e3 f73c c7a3 18bc cff3 963c
-0.0005078131 -0.0022736634 0.005859989 -0.017251967 -0.02430003 -0.009979964 -0.015642071 0.03313847
0.0021397609 -0.011566252 -0.009153029 -0.005539347 -0.015029573 -0.023813592 0.017583907 0.0016062837
-0.0034929847 0.014389108 -0.014893974 -0.005287811 -0.0037562507 -0.03147522 0.008579471 -0.0073493547
0.0006453286 -0.0056938543 -0.0014088226 0.0061032474 -0.011869847 0.0023181331 -0.010602684 0.0011322161
-0.024961283 0.0002953014 0.015566611 -0.020546209 -0.006742388 -0.040498324 -0.006785259 -0.013719306
0.008911059 -0.0035474563 0.0012012793 0.0037479964 0.0059609525 -0.0011297269 0.0033688925 0.0020720137
-0.003772413 -0.0053924387 0.008534027 -0.0008445027 0.019395115 -0.020398607 0.012343153 0.018998932
-0.015133769 0.0028644663 0.014550918 0.0009598293 0.014530398 0.008828763 0.0033405835 0.009317866
0.005408622 0.007112026 -0.00020412791 0.024739929 -0.0036480436 0.0026404895 -0.008940778 0.025093792
0.0032129213 0.0060891286 -0.017385693 0.016580597 -0.01149291 0.009685642 -0.00904944 0.011389673
0.0034970685 0.009366978 0.015903387 -0.006077221 0.009858789 0.0015528318 -0.015130096 -0.016147627
-0.011247674 0.01761517 -0.0034041565 0.0010285435 -0.0009973751 0.014738491 -0.006365746 -0.00035186613
-0.018739136 -0.0029218358 -0.0109870555 0.0026297702 -0.028287537 -0.015440177 0.0055889864 -0.008573674
-0.011545413 0.0071957014 0.006953069 0.01373273 -0.010313758 0.025067555 -0.00910523 0.0154196955
0.0007787203 0.0036123688 0.0058786706 0.013977669 -0.0023187334 0.0019975353 -0.0018442135 0.0069491686
0.012544981 0.023240384 -0.0073474976 0.0047764834 -0.0060100774 0.030260071 -0.009316391 0.018426804

encoder.graph_embed.bn.running_mean f4 [128]
00000000: 3a93 893d f359 383c ebe8 32bc b751 063d
00000010: 9eb3 153d f776 163e 0fbd 023d e00a ee3d
00000020: bf5e bb3c a067 083e 6f7d 77bc 512b 283e
00000030: 7235 4b3d 6a29 e43d 73c0 14bd 7a57 9d3c
00000040: 371b e93d 8624 663d b726 153d dac7 443c
00000050: c6ee a83e 6ec0 033d e8e8 463d 0f92 b53d
00000060: fd69 c83d 1dfc a33d 5a97 da3d b19e d73d
00000070: bc95 5abc db6c f73c d487 b13d 6d1f 223d
00000080: 4ca3 ac3d 0d28 df3d 19c9 0b3e a154 683d
00000090: 7736 ea3c 408f 163e 100f be3d 1d7c 2b3e
000000a0: e460 293e 48af 2cbd 093d 2a3d 04cd 75bd
000000b0: 1341 cebc 8cbd cb3d 23f7 8c3d 425d 433e
000000c0: 115f a3bc 494c 7a3c a1f1 913d ad30 2ebd
000000d0: 9a61 953d d6c9 4e3e 0a2b 8bbc 5f58 03bd
000000e0: 23a1 2a3e 35f8 2a3e 1352 7dbc ce4f 263e
000000f0: 20dd e23c e0eb 863d d09b 263c d2cc 9c3e
00000100: 36e6 0b3e 59cb 103e c334 b43d ab93 0e3d
00000110: 4e11 c93c 29ae f83d 41ad 013f 00a4 eb3d
00000120: d77a 44bd 5f8f 97bb 4801 6a3d e2bd 443e
00000130: 9164 7cbd 6ed6 6ebd 139e 053d f1c0 98bc
00000140: 0a32 403d 30bf 313b 8711 603e 8503 103e
00000150: d9b7 5b3d 5380 8f3c 3d32 1a3e f19c af3c
00000160: a91a 8f3e 7538 f23d f314 393e d84a af3d
00000170: fd18 ab3c 24d0 833e b08a 553c 8988 e13d
00000180: 65c7 b13c 9e8b 353e 8a7d 303e 7a38 623e
00000190: 7e31 4b3e f19c 88bc b847 823e 0222 803d
000001a0: a338 8839 67fc e8bc 7fbd 20bd 1040 bc3c
000001b0: b39b a5bd 5d81 123d 378d 9e3c 6f47 0abd
000001c0: 32c6 d63e 270f 023e 4d53 3d3e e9b2 e83a
000001d0: 935e d93d 57b5 203d b7ad 823e 8840 363d
000001e0: 78b2 8d3d 42fd bfbd ff45 6abd c029 0f3e
000001f0: a7ac 513d 81de cd3d c0d8 1c3e 5d2a 9abc
0.06717534 0.011251914 -0.01091979 0.032792773 0.03654825 0.14693819 0.03191858 0.11623168
0.022872327 0.1332078 -0.015105589 0.16422774 0.049611516 0.111407116 -0.036316346 0.019206751
0.11382144 0.056187175 0.036413874 0.012010539 0.3299467 0.032165937 0.04856196 0.08865749
0.09785841 0.08007071 0.10673399 0.10528315 -0.0133413635 0.030203274 0.08668485 0.03958075
0.08429584 0.10896311 0.13650931 0.056721333 0.028590424 0.14703083 0.09280217 0.16746564
0.16540867 -0.04215935 0.041562114 -0.06000997 -0.025177514 0.099482626 0.06883075 0.19078544
-0.019942792 0.015276977 0.07126165 -0.04252689 0.07294007 0.20194182 -0.016988296 -0.0320667
0.16663031 0.16696246 -0.015461463 0.1624138 0.027693331 0.06587958 0.0101689845 0.30625015
0.13662037 0.14140071 0.08799126 0.034808796 0.024544384 0.121425934 0.5065499 0.1150589
-0.04796871 -0.0046252455 0.05713013 0.1921306 -0.061619345 -0.058309965 0.032621454 -0.01864669
0.04692272 0.0027122013 0.21881686 0.14063843 0.053642128 0.017517244 0.15058227 0.02143714
0.27950028 0.118271746 0.18074398 0.08559197 0.020885939 0.25744736 0.013033554 0.1101237
0.021701524 0.17729041 0.1723539 0.22091857 0.19843099 -0.016676398 0.25445342 0.062564865
0.0002598214 -0.028440667 -0.039243218 0.022979766 -0.08086338 0.0357679 0.019354446 -0.03375953
0.41948086 0.12701093 0.18488808 0.0017753515 0.10613742 0.03923544 0.2552316 0.044495136
0.06918806 -0.09374477 -0.05719566 0.1398077 0.051190045 0.10052205 0.15317059 -0.018819029

encoder.graph_embed.bn.running_var f4 [128]
00000000: 865b 043d 1d2d 403d e890 063d 031d 253d
00000010: b6d0 163d 82c2 753d cb7e c13c 18dc 853d
00000020: afe9 e63c 1817 aa3d 017b 213d 67cd 163e
00000030: 6b9d 263d dcd1 943d d62c e23c dbbe 823d
00000040: 20fb 623d ba55 4e3d 03d3 623d 53d8 8c3c
00000050: e265 723e 4685 973d c616 383d 6299 d93d
00000060: 71a6 063d cb16 b53d 7851 8f3d 74a9 ec3d
00000070: 97bf 0c3d e460 803d bca1 0e3d ccf9 8f3d
00000080: e4bf 593d 6e0c c23d 8cec a23d 9e32 623d
00000090: 2e2e 1f3d 444a e33d 3559 1d3e 4d94 443e
000000a0: c72f a63d 3783 a93c 9cc2 c63c 55d9 983c
000000b0: 0959 a93c cd97 0a3e 56d8 833d c7b5 853d
000000c0: da49 ea3c fb23 533d 1c82 a43d 807c 453c
000000d0: 6ce9 f53c 5a32 573e fcec a93c 19c8 d93c
000000e0: b3ac 143e 2c3b db3d b8ee 633c 6497 803d
000000f0: 0552 733c 4b68 cf3d f575 873d 8feb 803e
00000100: bcc4 473d 9bc5 bc3d 9939 b03d e735 6a3d
00000110: 9874 5d3d cb07 953d fb36 403f d8f5 643d
00000120: a552 873c c2ec ca3c e69a 9f3d f694 503e
00000130: c6e0 903c f0d6 a63c dc74 6e3d 5083 fe3b
00000140: 0b79 1f3d 80f4 433d 9b7a b33d 88ce 093e
00000150: b5ee 8f3d c356 863d 9ec6 d43d 489f e43c
00000160: 36dc 283e 177b bc3d af44 2d3e 0be0 813d
00000170: 916b 4b3d bff3 863e f9e1 9a3c 2631 dc3d
00000180: 28ee 643c 72f4 903d ec60 8d3e e3c5 0c3e
00000190: 8ec2 2c3e e932 033d 4e0b e33d 0b21 0e3d
000001a0: abed d93c 16fe ab3c d230 963c 0e3c 2b3d
000001b0: 1bec 683c aca8 803d 8ba1 763c fd72 a63c
000001c0: f5c8 fe3e ab97 043e 18b3 1d3e 9d7b cf3c
000001d0: d07e b23d 0d39 263d e4e7 7f3e c9c3 803d
000001e0: af70 393d d2d1 e93b 7a74 b53c 0171 d73d
000001f0: 098d 183d 850c 333d 60df 133e a79f e73c
0.032313846 0.046918023 0.032853037 0.04031087 0.036820136 0.05999995 0.02362003 0.0653612
0.0281876 0.08305186 0.039423946 0.14726792 0.04067747 0.0726659 0.02760927 0.06384059
0.055415273 0.050374724 0.055377018 0.017192995 0.23671678 0.07398467 0.044943593 0.106249586
0.032873575 0.08842238 0.06997961 0.11555758 0.0343624 0.062684804 0.03482221 0.07030067
0.053161517 0.09475027 0.07955274 0.055224054 0.0388624 0.110981494 0.15366061 0.19197197
0.081145816 0.02069245 0.024262719 0.01865832 0.020672338 0.1353447 0.06437747 0.06528812
0.028599668 0.051547986 0.08032629 0.012053609 0.03001853 0.21015301 0.020742886 0.026584672
0.14519005 0.107046455 0.013911895 0.062788755 0.014851098 0.10127314 0.066142954 0.25179717
0.048771605 0.09217378 0.08604736 0.05718031 0.05406627 0.07276877 0.75083894 0.055898517
0.0165189 0.024771098 0.077932164 0.20369324 0.017685305 0.020366162 0.058216915 0.0077671185
0.038933795 0.047840595 0.087636195 0.13457692 0.07027952 0.06559517 0.10389446 0.027907982
0.16490254 0.09203165 0.16920732 0.06341561 0.04966313 0.2635784 0.01890658 0.10751562
0.0139727965 0.07077874 0.27613008 0.13747363 0.16871092 0.032030974 0.110861406 0.03469948
0.026602587 0.020995181 0.018333826 0.04180532 0.014216448 0.062821716 0.015053163 0.020318503
0.49762693 0.12948482 0.1540035 0.025327498 0.08715594 0.04058175 0.24990803 0.06287343
0.04527348 0.0071356082 0.022150267 0.10519601 0.037243877 0.04371311 0.1444068 0.02827437

encoder.pos_enc.pe f4 [500, 128]
00000000: 0000 0000 0000 803f 0000 0000 0000 803f
00000010: 0000 0000 0000 803f 0000 0000 0000 803f
00000020: 0000 0000 0000 803f 0000 0000 0000 803f
00000030: 0000 0000 0000 803f 0000 0000 0000 803f
00000040: 0000 0000 0000 803f 0000 0000 0000 803f
00000050: 0000 0000 0000 803f 0000 0000 0000 803f
00000060: 0000 0000 0000 803f 0000 0000 0000 803f
00000070: 0000 0000 0000 803f 0000 0000 0000 803f
00000080: 0000 0000 0000 803f 0000 0000 0000 803f
00000090: 0000 0000 0000 803f 0000 0000 0000 803f
000000a0: 0000 0000 0000 803f 0000 0000 0000 803f
000000b0: 0000 0000 0000 803f 0000 0000 0000 803f
000000c0: 0000 0000 0000 803f 0000 0000 0000 803f
000000d0: 0000 0000 0000 803f 0000 0000 0000 803f
000000e0: 0000 0000 0000 803f 0000 0000 0000 803f
000000f0: 0000 0000 0000 803f 0000 0000 0000 803f
00000100: 0000 0000 0000 803f 0000 0000 0000 803f
00000110: 0000 0000 0000 803f 0000 0000 0000 803f
00000120: 0000 0000 0000 803f 0000 0000 0000 803f
00000130: 0000 0000 0000 803f 0000 0000 0000 803f
00000140: 0000 0000 0000 803f 0000 0000 0000 803f
00000150: 0000 0000 0000 803f 0000 0000 0000 803f
00000160: 0000 0000 0000 803f 0000 0000 0000 803f
00000170: 0000 0000 0000 803f 0000 0000 0000 803f
00000180: 0000 0000 0000 803f 0000 0000 0000 803f
00000190: 0000 0000 0000 803f 0000 0000 0000 803f
000001a0: 0000 0000 0000 803f 0000 0000 0000 803f
000001b0: 0000 0000 0000 803f 0000 0000 0000 803f
000001c0: 0000 0000 0000 803f 0000 0000 0000 803f
000001d0: 0000 0000 0000 803f 0000 0000 0000 803f
000001e0: 0000 0000 0000 803f 0000 0000 0000 803f
000001f0: 0000 0000 0000 803f 0000 0000 0000 803f
00000200: a46a 573f 4151 0a3f 1c00 433f 28dd 253f
00000210: ce7a 2e3f b054 3b3f 3acd 1a3f aae4 4b3f
00000220: ba7d 083f 0d94 583f e396 ef3e d53d 623f
00000230: f090 d13e c792 693f 61d7 b63e a91e 6f3f
00000240: 3e39 9f3e 6b4e 733f 1776 8a3e 1176 763f
00000250: 258f 703e f1d5 783f 61ce 503e 099f 7a3f
00000260: 3a23 353e 83f6 7b3f e310 1d3e 7cf8 7c3f
00000270: f325 083e 28ba 7d3f 5cf9 eb3d 844b 7e3f
00000280: 7675 cc3d 98b8 7e3f bf20 b13d 6e0a 7f3f
00000290: 366f 993d d147 7f3f 60e6 843d de75 7f3f
000002a0: ae36 663d 6898 7f3f 1262 473d 4fb2 7f3f
000002b0: faac 2c3d bdc5 7f3f c58a 153d 4fd4 7f3f
000002c0: 5b81 013d 3cdf 7f3f a44d e03c 6ee7 7f3f
000002d0: a53e c23c 93ed 7f3f 8236 a83c 2ff2 7f3f
000002e0: 42ab 913c a3f5 7f3f a34a 7c3c 3bf8 7f3f
000002f0: 497a 5a3c 2cfa 7f3f fa31 3d3c a1fb 7f3f
00000300: 57d6 233c b9fc 7f3f bae0 0d3c 8bfd 7f3f
00000310: 16b9 f53b 28fe 7f3f b3c9 d43b 9efe 7f3f
00000320: 5a44 b83b f7fe 7f3f a391 9f3b 39ff 7f3f
00000330: 5a2e 8a3b 6bff 7f3f e951 6f3b 90ff 7f3f
00000340: 1c3e 4f3b acff 7f3f fe76 333b c1ff 7f3f
00000350: 0369 1b3b d1ff 7f3f 6794 063b ddff 7f3f
00000360: 2015 e93a e6ff 7f3f 54d7 c93a ecff 7f3f
00000370: 8ac9 ae3a f1ff 7f3f 095c 973a f5ff 7f3f
00000380: 6d12 833a f8ff 7f3f e201 633a faff 7f3f
00000390: 8994 443a fbff 7f3f 433b 2a3a fdff 7f3f
000003a0: 136a 133a fdff 7f3f ab4f ff39 feff 7f3f
000003b0: 2117 dd39 ffff 7f3f d774 bf39 ffff 7f3f
000003c0: 61cb a539 ffff 7f3f 7592 8f39 ffff 7f3f
000003d0: 0da8 7839 0000 803f e253 5739 0000 803f
000003e0: 5377 3a39 0000 803f 1979 2139 0000 803f
000003f0: 6dd4 0b39 0000 803f dd2c f238 0000 803f
0.0 1.0 0.0 1.0 0.0 1.0 0.0 1.0
0.0 1.0 0.0 1.0 0.0 1.0 0.0 1.0
0.0 1.0 0.0 1.0 0.0 1.0 0.0 1.0
0.0 1.0 0.0 1.0 0.0 1.0 0.0 1.0
0.0 1.0 0.0 1.0 0.0 1.0 0.0 1.0
0.0 1.0 0.0 1.0 0.0 1.0 0.0 1.0
0.0 1.0 0.0 1.0 0.0 1.0 0.0 1.0
0.0 1.0 0.0 1.0 0.0 1.0 0.0 1.0
0.0 1.0 0.0 1.0 0.0 1.0 0.0 1.0
0.0 1.0 0.0 1.0 0.0 1.0 0.0 1.0
0.0 1.0 0.0 1.0 0.0 1.0 0.0 1.0
0.0 1.0 0.0 1.0 0.0 1.0 0.0 1.0
0.0 1.0 0.0 1.0 0.0 1.0 0.0 1.0
0.0 1.0 0.0 1.0 0.0 1.0 0.0 1.0
0.0 1.0 0.0 1.0 0.0 1.0 0.0 1.0
0.0 1.0 0.0 1.0 0.0 1.0 0.0 1.0
0.84147096 0.54030234 0.7617204 0.6479058 0.68156135 0.731761 0.604694 0.7964579
0.53316844 0.8460091 0.46794805 0.883756 0.4093089 0.9123959 0.35711196 0.9340616
0.3109836 0.9504153 0.2704322 0.96273905 0.23492105 0.9720145 0.20391227 0.9789892
0.17689219 0.9842302 0.15338473 0.9881666 0.13295726 0.99112177 0.11522171 0.9933398
0.099833414 0.9950042 0.08648824 0.9962529 0.07491915 0.9971896 0.06489253 0.99789226
0.05620449 0.9984193 0.04867751 0.9988145 0.04215715 0.999111 0.036509294 0.9993333
0.031617504 0.99950004 0.027380772 0.9996251 0.023711512 0.99971884 0.020533804 0.9997892
0.017781857 0.99984187 0.015398654 0.99988145 0.013334819 0.99991107 0.01154756 0.9999333
0.009999833 0.99995 0.008659536 0.9999625 0.0074988706 0.99997187 0.006493771 0.9999789
0.0056233825 0.9999842 0.004869656 0.99998814 0.0042169513 0.9999911 0.0036517328 0.9999933
0.0031622713 0.999995 0.0027384157 0.99999624 0.0023713715 0.9999972 0.0020535232 0.9999979
0.0017782785 0.99999845 0.0015399256 0.9999988 0.001333521 0.9999991 0.0011547814 0.99999934
0.0009999998 0.9999995 0.00086596434 0.99999964 0.000749894 0.9999997 0.0006493816 0.9999998
0.0005623411 0.9999998 0.00048696747 0.9999999 0.00042169637 0.99999994 0.0003651741 0.99999994
0.00031622782 0.99999994 0.00027384204 0.99999994 0.00023713727 1.0 0.00020535247 1.0
0.00017782794 1.0 0.00015399269 1.0 0.00013335208 1.0 0.00011547816 1.0

encoder.transformer.in_proj_weight f4 [384, 128]
00000000: d74e 603d 4a01 fc3d d41c adbc 46b7 8cbd
00000010: 6c2d acbc a2f4 1b3e d11f 64bd 6f71 e6bc
00000020: 74ea d73c 46fc 663c d994 21bc aaf7 42bd
00000030: b872 e53d 7ea8 133d 379e 98bd 7699 ff3d
00000040: 181a d53d 9d3c 083d 928c 0c3e 7654 033d
00000050: 6b57 d6bc 161e 1c3e 9e17 d1bd 12bf 92bd
00000060: 799d 8fbd 1c90 b9bb 8fff ce3d 3bb6 78bd
00000070: 2c41 75bd bc48 d13d ab6f a63c 3bb2 e83d
00000080: 27be fe3d 4c52 1a3e 5893 113c 943f d83d
00000090: eb1e 0a3c 6878 7bbd f79e 62bd f9be cc3b
000000a0: b860 673d cd3b aa3c 4f1a 08be 39a5 2e3d
000000b0: 0557 393c 30e2 b33d 4a22 6c3d c036 883c
000000c0: 2f11 09be 0cd7 843d 2bab c1bd 6352 e2bc
000000d0: 0638 47bd fcf1 95bd 53a6 39bd d326 39bd
000000e0: bacd 8f3d 1148 c1bd c294 983d cb65 253d
000000f0: f735 8f3b 6331 ac3d 0336 a4bd 55e1 773d
00000100: 1e03 733d f6c4 4fbd 257c afbd 8c51 233d
00000110: 096d c7bd 403e 923c 4881 64bd b3df af3c
00000120: 4c71 cf3d 3f48 00bd 9559 81bd 20e3 2abd
00000130: bf6d e1bc 00d6 b0bc 2e7f a1bc d0b8 11b9
00000140: d067 fbbb 88a1 cc3d 6262 103e 4dd1 64bd
00000150: f35f 7abc 0f3c 123d 2b50 4bbc 7040 debc
00000160: 2f42 b5bd 6ebf 23bd e260 5a3d eaba 16be
00000170: 7df5 9bbc 8bb3 b93c fcd7 9c3d e069 473d
00000180: 3cff a83d 9167 6dbd fd30 9d3b 6234 c2bd
00000190: ec16 a4bc c7c6 d0bd aaff b0bc 67ab 19bd
000001a0: 816e bc3d 313f 03be bb70 593d 0ec6 a9bd
000001b0: 2e19 b4bd 042e 61bd 46d4 0f3e dd9b 0e3d
000001c0: c64d 873c 869d cfbd ad83 b9ba 166f d4bd
000001d0: 2900 89bc fc95 5a3d 6997 9f3c ec85 afbd
000001e0: d0c0 923d 3f41 593d 9c55 933d 6493 d83c
000001f0: b53b 38bd 69d7 10be 7705 f23d e2e4 a8bd
00000200: 738b 763c a0b6 bbbd bff3 20bb 6a0b 743d
00000210: 666d 543d bc1a 823a 5218 c13d db22 cd3d
00000220: d2e7 203a d02e d9bd 56ca 54bc ffd8 b5bd
00000230: 831e a03d 5d99 debd c463 9bbd 9bd1 bfbd
00000240: ea76 a3bd 9223 c53d 7f00 e33b 299f 0a3d
00000250: f601 b73a a5ca 2ebc 4278 d93d 3605 063d
00000260: 7c60 ff3d ace6 44bd 90a1 a93d 3859 bf3b
00000270: 0300 9bbd 71e5 c83d c8ed 233c 630b 6d3d
00000280: e327 e33c 9eee 74bd 030a c63d 45a8 c6bd
00000290: 04ec 0abe 4bb9 76bd a516 a2bd 1970 dcbd
000002a0: 621d c03d 57c3 d8bc 501c 26bd 6b0c 85bd
000002b0: 2257 9f3d b289 86bd 0b29 853d 5b06 d2bd
000002c0: bb41 e5bc 839f a73d cfab 8cbd 079e a4bd
000002d0: 4b00 233e 6894 063e edf9 2f3d 518e 0fbd
000002e0: 0ee3 283d 7efc 8a3d 169a 1ebd 7e68 b2bd
000002f0: d98f 2e3d ef00 8a3d a5b9 e6bc 33d6 023d
00000300: 3882 493c 4f5c 413d 19b0 383d 3ab8 8a3d
00000310: 99de ab3d 079e 363c 60c9 8cbd bcc2 193d
00000320: df80 77bd 7946 2bbd bbf4 3c3d a978 f8bb
00000330: da98 93bd c39c 893c e35e 923d ed1d 3f3d
00000340: c840 2fbb 258c 05bd 4293 cb3d b2d2 343d
00000350: 859c 843d fd18 9abd 1799 403d c4b4 053d
00000360: bcf1 6f3d fbf7 013e b6e7 44bd 30d4 2fbc
00000370: 02c3 a63c 37f4 213d 6423 17bd 97f8 d9bc
00000380: fc2d 8abd 4820 fc3d c766 b93c f8aa be3d
00000390: fc0d 5a3d 967a 59bd ce54 553d 3ee9 79bc
000003a0: 01bd 4d3d 202c 97bd 0fe1 4cbd 4d98 953d
000003b0: 9572 23bc 0061 c73d f0c8 d6bd 5989 09bd
000003c0: 1af5 49bb 0925 343d 14c7 cdbd 7984 68bc
000003d0: 800a 4abc e255 af3d 376d 1dba 839d b9bd
000003e0: 76fc c33d 6afa 103d faa2 88bc 2f38 3d3d
000003f0: 45fc 883d 7e36 32bd 9b86 89bd badf b33d
0.054762688 0.12304933 -0.02113191 -0.06870894 -0.021017753 0.15230039 -0.055694405 -0.028130261
0.026356913 0.014098233 -0.009862148 -0.047599472 0.112035215 0.03604936 -0.07452052 0.12480442
0.104053676 0.03326093 0.13725498 0.03206297 -0.026164731 0.15245852 -0.10209583 -0.0716535
-0.070124574 -0.005662931 0.10107338 -0.060720664 -0.059876606 0.10218951 0.02031692 0.1136212
0.124386124 0.15070456 0.008885227 0.105590016 0.008430223 -0.061394125 -0.055327382 0.0062483517
0.056488723 0.020780468 -0.13291286 0.042638037 0.011312251 0.08783376 0.057649888 0.01662767
-0.13385461 0.064863294 -0.09456476 -0.027627176 -0.048637412 -0.073215455 -0.045324635 -0.04520304
0.07021661 -0.09437574 0.07450248 0.04038028 0.004370447 0.08407857 -0.080181144 0.060517628
0.059329145 -0.050724946 -0.085686006 0.03987269 -0.09737594 0.017851949 -0.055787355 0.021468973
0.101290315 -0.0313189 -0.063159145 -0.04172051 -0.027518151 -0.021586418 -0.019713964 -0.00013897126
-0.0076722875 0.09991747 0.1410003 -0.055863667 -0.015281665 0.035701808 -0.01240925 -0.027130336
-0.08850514 -0.039977483 0.05331505 -0.1471974 -0.019037956 0.02266862 0.07658383 0.048684955
0.08251807 -0.057960097 0.0047970996 -0.094826475 -0.020030461 -0.10194164 -0.021606285 -0.037516978
0.092007644 -0.12817074 0.053086024 -0.08289729 -0.08793865 -0.054975525 0.1404582 0.03481661
0.016516577 -0.10137467 -0.0014153622 -0.103727505 -0.01672371 0.053365692 0.019481378 -0.085704654
0.07165682 0.05304074 0.07194063 0.026437469 -0.044978816 -0.14144672 0.118174486 -0.08246781
0.015047896 -0.09165692 -0.0024559346 0.059581198 0.051862143 0.000992618 0.09428467 0.10016414
0.00061380595 -0.10604632 -0.012987694 -0.08879279 0.0781832 -0.108690955 -0.07587388 -0.09366151
-0.079816654 0.09625925 0.0069275494 0.033843193 0.0013962376 -0.010668431 0.106186405 0.032719813
0.12469575 -0.04807155 0.08282769 0.005839493 -0.075683616 0.098093875 0.010005422 0.057872187
0.02772898 -0.059797876 0.09669878 -0.097000636 -0.13566595 -0.060235303 -0.07914475 -0.107635684
0.09380604 -0.026460333 -0.040554345 -0.06496509 0.07780291 -0.06569232 0.06501969 -0.102551185
-0.027985444 0.08184721 -0.068687074 -0.08037954 0.1591808 0.1314255 0.042962957 -0.035047833
0.04123216 0.0678644 -0.038721167 -0.087113366 0.042617653 0.06738459 -0.028164694 0.031942558
0.012299113 0.047207173 0.045089815 0.0677342 0.083920665 0.011146075 -0.06874347 0.03753923
-0.060425635 -0.041815255 0.04613183 -0.007582743 -0.072068885 0.016798383 0.071470045 0.0466594
-0.0026741493 -0.032604355 0.099401966 0.044146247 0.06475166 -0.075242974 0.047020998 0.032643095
0.058580145 0.12692253 -0.04807254 -0.010731742 0.020356659 0.039539542 -0.036898986 -0.026607795
-0.06747052 0.12310845 0.022632016 0.093099535 0.053235993 -0.053095423 0.05208283 -0.015253363
0.050229076 -0.07381463 -0.05001932 0.0730444 -0.009976049 0.09735298 -0.104875445 -0.03357825
-0.0030816258 0.043980632 -0.10047737 -0.01419174 -0.012331605 0.08561303 -0.0006005349 -0.09063246
0.095696375 0.035395063 -0.016679276 0.04619616 0.066887416 -0.043509 -0.06715127 0.08782907

encoder.transformer.in_proj_bias f4 [384]
00000000: b459 3dbd f0ee b33c 9c1a 1bbb cde3 0dbb
00000010: c276 13ba 5203 a93c aea8 cb3c ddcd 673b
00000020: 12ff 0fbd 4c22 bdbb f8c8 2a3c dc7b a0bc
00000030: 4ca7 19bc 1479 f73c 7226 753c 7aba 563d
00000040: eb66 2a3c b71e 3d3c fde7 b9ba 4924 59bd
00000050: a53b 5ebc 411d 373d 568f 0c3d b260 cebc
00000060: 0607 d43c fb7a 45bd ed25 83bd e17b 5a3c
00000070: 5966 59bc 75aa 35bd a584 29bc 8bd3 dc3c
00000080: 5785 bc3c 8653 073d c9e0 0ebc b1dd 283d
00000090: d962 983c dd1a 243c c677 e63c a9c5 a0bc
000000a0: 9c41 533c 3d07 81ba 9f4b 8d3c 7079 0ebc
000000b0: 99c9 d03b 0fc6 17bc 4166 93bc 8138 953c
000000c0: 4c1b f23c 7a93 c8bb e579 bcbc 8766 093b
000000d0: f647 6ebd 36af e4bc 5246 6a3c 2acf b2bc
000000e0: d4c7 b8bc 74ef c5bc 08ca a83a 252b ef3b
000000f0: 096b abbc 4643 8bbc 223c 973d ee98 fa3b
00000100: 453c 063d 14a6 d93b c2b6 733c d15f 10bd
00000110: d32a b7bc 4098 d1bc 8297 c6bc 51ad 42bc
00000120: 0d8f 023d f0d8 dfbc d767 0ebd f963 8a3c
00000130: ed53 22bd a351 7c3c 5a54 213d bd78 58bb
00000140: 2a40 f2bb b757 113c 40db 7dbc 12c8 2a3d
00000150: 2099 ff3c c2b0 a83a ae27 e6ba e677 8dbb
00000160: 9113 bd3b c956 d1bb 5d37 1bbc 5683 243b
00000170: 33a7 de3c 481a 1abd 78d6 ac3b 5de3 793c
00000180: 1d6c f2bb 9e8d a9bc 538f 8ebb 9509 bf3c
00000190: 8163 8abc 4331 0f3d a9a6 9a3c e895 f23c
000001a0: 35eb 893c 4487 4ebc 4efe 84bc 0ab5 9d3c
000001b0: dc5b fe3c 0f0a b73c 30ed 2d3c d3f4 a43c
000001c0: aabe 013d 7321 443c d87d 413c c126 653a
000001d0: 89ea 9abb ab89 74ba 27d1 8cbc d166 193c
000001e0: 23b4 3d3c d0ee 123c 0899 0b3c 00d4 e43b
000001f0: 6b65 493a 9ca1 b9ba 8d1c fbbb 8350 91bc
00000200: b287 44b8 05e0 9d37 4e1b ae36 b754 b7b7
00000210: e41e 8f36 e7f6 3a37 dc5c 9d36 635c d236
00000220: c39e 4038 222c 05b8 69b9 5ab8 b043 5438
00000230: 6fec 8237 ad4c 28b8 f0d2 a2b7 d4b0 3fb8
00000240: a4a0 eb36 4999 8137 082b 3f37 a708 90b8
00000250: c881 6ab7 15ab 6238 155d 2137 1a74 15b8
00000260: 2bf2 d8b7 b264 c1b7 eb3a 9bb7 02db 04b7
00000270: fae2 a0b7 9283 65b7 d578 63b7 aec1 f7b5
00000280: d0b8 a038 a32c 7438 0f97 8f36 1dee 8f37
00000290: bbb0 50b7 cbd2 f137 80eb 58b5 1940 1eb8
000002a0: 461a d236 d288 f3b6 739f b037 381b 3137
000002b0: 4ca8 84b6 fd63 9f36 e971 9bb7 c8ac 1238
000002c0: 81cf aeb5 7291 da36 bb88 cc34 a5ca 84b4
000002d0: 23ad b237 57f8 2637 48c8 7cb7 8f78 d7b6
000002e0: 46d0 3035 65d9 00b6 aeb7 9837 2893 6db6
000002f0: 124f 8bb7 8723 0f37 2d99 69b8 c975 08b7
00000300: 317f 19b7 edbb 0837 f153 d536 26be 67b7
00000310: 0f77 e6b5 98ae b236 f3a8 e7b7 cc4d 51b4
00000320: a7da 77b8 d570 3b38 ec86 9238 7018 43b8
00000330: a4c5 d238 6997 8bb8 78d7 72b8 1e3e a6b7
00000340: 3b96 41b8 d310 cc36 9bcd bdb7 9530 bc37
00000350: 45e5 3d38 fd27 50b7 55b4 93b6 cf6e 4fb8
00000360: a571 8237 c73d 4db6 157f f5b6 e5e7 b7b7
00000370: b6ed 6c38 b010 42b8 b2ae 4537 2ad1 fd37
00000380: babd eb36 75d6 dd36 e19d 11b5 48b2 d136
00000390: 3620 0437 cd97 b137 9335 e5b6 3c8a f737
000003a0: 6073 0637 599e 1cb7 4435 4738 0f3c 24b8
000003b0: 1419 19b8 8095 18b8 43a7 40b8 899a c537
000003c0: 3d66 85b8 1cc0 8fb7 7a8d 02b8 aa45 1bb5
000003d0: bf69 8936 6cf9 bf37 6747 4a38 e14e 05b7
000003e0: eecb 1938 eeba 83b8 9afa 36b8 df2b 1438
000003f0: 6674 3db7 390d 2338 6808 3a38 99a7 5137
-0.046228126 0.02196452 -0.0023666983 -0.0021650672 -0.0005625301 0.020631466 0.024860706 0.0035370507
-0.035155363 -0.005771911 0.010423891 -0.01959031 -0.009378266 0.030209102 0.014962779 0.05242393
0.010400514 0.0115429675 -0.0014183518 -0.05301312 -0.013564025 0.044705633 0.034316383 -0.025192592
0.025882255 -0.048212986 -0.06403718 0.013335199 -0.0132690305 -0.044352014 -0.010346566 0.02695634
0.0230128 0.03303864 -0.008720585 0.041227046 0.018601822 0.01001617 0.028133284 -0.019625502
0.01289406 -0.0009844076 0.017247973 -0.008695945 0.0063716886 -0.009263529 -0.017993094 0.01821542
0.029554032 -0.006121096 -0.023007343 0.0020965652 -0.058174096 -0.027915578 0.014298992 -0.0218273
-0.022556223 -0.024162032 0.0012877593 0.0072988444 -0.020925062 -0.016999852 0.07384516 0.007647625
0.03277232 0.0066421125 0.014875116 -0.035247628 -0.022359287 -0.025585294 -0.024242166 -0.011882142
0.031874705 -0.027325124 -0.034767 0.016893374 -0.03963082 0.015400323 0.039387085 -0.003303095
-0.007392903 0.0088710105 -0.015494168 0.04169471 0.031200945 0.0012870061 -0.0017559433 -0.0043172715
0.0057701548 -0.0063885194 -0.009473649 0.0025102696 0.027179336 -0.03762272 0.00527459 0.015251962
-0.007398142 -0.020697411 -0.0043505817 0.023319999 -0.01689315 0.03495909 0.018878298 0.029612496
0.016835788 -0.012605492 -0.016234543 0.019251365 0.031049661 0.022343663 0.010615632 0.020136273
0.031675972 0.011970866 0.011809789 0.00087414315 -0.004727666 -0.00093283755 -0.017189575 0.009362892
0.0115785925 0.00896807 0.008520372 0.00698328 0.0007682654 -0.0014162543 -0.0076633156 -0.017738586
-4.6856418e-05 1.8820176e-05 5.188783e-06 -2.1854748e-05 4.2653282e-06 1.114395e-05 4.689775e-06 6.269243e-06
4.5924226e-05 -3.1750773e-05 -5.2147927e-05 5.0607778e-05 1.5607306e-05 -4.012573e-05 -1.941013e-05 -4.5702633e-05
7.022247e-06 1.5449377e-05 1.1394506e-05 -6.868067e-05 -1.3977704e-05 5.404193e-05 9.61802e-06 -3.5632496e-05
-2.5861975e-05 -2.3054283e-05 -1.8504876e-05 -7.918805e-06 -1.917918e-05 -1.3680097e-05 -1.3558388e-05 -1.8459302e-06
7.6638185e-05 5.8215704e-05 4.2793176e-06 1.7157809e-05 -1.2438914e-05 2.8827597e-05 -8.080897e-07 -3.772983e-05
6.2615463e-06 -7.2578923e-06 2.1055084e-05 1.05563595e-05 -3.953499e-06 4.7502094e-06 -1.8530483e-05 3.4970028e-05
-1.3024402e-06 6.5138383e-06 3.8097446e-07 -2.473436e-07 2.1299877e-05 9.952192e-06 -1.5067002e-05 -6.421534e-06
6.5868187e-07 -1.9200027e-06 1.8205345e-05 -3.5401408e-06 -1.6606911e-05 8.531736e-06 -5.5694185e-05 -8.133656e-06
-9.149125e-06 8.149987e-06 6.3576667e-06 -1.3812945e-05 -1.7170986e-06 5.3251388e-06 -2.7616019e-05 -1.9492944e-07
-5.9093025e-05 4.4689357e-05 6.986954e-05 -4.6514382e-05 0.00010050394 -6.656239e-05 -5.7897967e-05 -1.9817668e-05
-4.61547e-05 6.0816324e-06 -2.2626298e-05 2.243397e-05 4.5274635e-05 -1.2407077e-05 -4.401935e-06 -4.9455844e-05
1.5550128e-05 -3.058334e-06 -7.3163633e-06 -2.1923284e-05 5.648817e-05 -4.6268746e-05 1.1782789e-05 3.025735e-05
7.025633e-06 6.6112793e-06 -5.4246453e-07 6.24944e-06 7.875313e-06 2.1170732e-05 -6.8309687e-06 2.9509065e-05
8.013885e-06 -9.335193e-06 4.7494905e-05 -3.915658e-05 -3.65014e-05 -3.6378857e-05 -4.593214e-05 2.3556191e-05
-6.3609776e-05 -1.7136386e-05 -3.1126176e-05 -5.7843374e-07 4.0952286e-06 2.288512e-05 4.822705e-05 -7.945783e-06
3.6667967e-05 -6.281385e-05 -4.3625572e-05 3.5326808e-05 -1.1292379e-05 3.8874543e-05 4.4353685e-05 1.2496393e-05

encoder.transformer.out_proj.weight f4 [128, 128]
00000000: 7481 ccbc 7f79 23bd dd7f 90bd dc48 9d3d
00000010: 8ab9 52bd 7264 e0bc 3d9e 7cbd ca41 a43d
00000020: 6c90 ddbc 2504 45bd 9c7e a53b 98b4 953d
00000030: 6e77 6dbd a075 24bd 0ba9 99bd 92fc 9a3d
00000040: e3e9 8e3d 624a 29bd 6614 7a3d c442 8ebd
00000050: 36f0 aa3d 4e3a 363c 6bcb a93d eecd b4bd
00000060: 2b43 46bd 9e1a ae3c 5fe6 633d 9075 063d
00000070: 364e be3c e04f 2f3d 0bf0 413d 72b1 76bc
00000080: ca5b 903c be58 66bd b7f0 8d3d 776d a6bd
00000090: b24a 90bc d364 99bd fb6e 803d 088c 92bd
000000a0: 55d6 f63c 321f 86bd 7703 db3c 008f 54bc
000000b0: e606 2ebd 841a 8f3d efd0 63bb c4c4 6a3d
000000c0: e0d7 ae3c 83f8 34ba b27c 88bd bfea 963d
000000d0: bb5d d2bb fcf3 84bc 68a4 b9bd bff3 aabd
000000e0: 2788 b8bd 51b5 19bd fe9e 79bc 42d0 bc3d
000000f0: f544 95bc 140e 0d3a 7882 8d3d b259 98bc
00000100: 7d29 673c 1178 d7bc 011a 88bd 0c7d b2bd
00000110: 3797 26bd cbb3 9fbd bc22 133c 8f8d 5ebd
00000120: 3a25 903b 52d6 80bd 6536 91bd ef18 963d
00000130: cf57 9b3d 8295 823c 2bd2 803d 6e04 3ebd
00000140: 0c70 713d 74ec 38bd 7627 3bbc ec6c 493d
00000150: dc92 533d 46e0 59bb 71ad 51bd 1cdf a0bd
00000160: 63ab ce3c 9297 05bd f63a 5c3d 47a3 a0bd
00000170: bcd8 75bd c1dc 9bbd 433b 913d fa9e c2bb
00000180: 94b6 2bbd 4406 fdb9 b564 0cbd 5e34 cfbc
00000190: 3660 983c de35 863d 2066 9b3d 3892 813c
000001a0: e6ea 0bbd 53e5 04bc e90a 49bd 6334 253d
000001b0: 41b3 87bd 91b5 45bd fc7b 0fba 5585 1f3d
000001c0: c0f8 ec3c 590e f4bc 1eba 353c 4835 9e3d
000001d0: a8cc 683c 1b22 8abd edc4 a1bd 9a60 663d
000001e0: 9345 37bd bf7e 273d f4c0 943d c748 3c3c
000001f0: be14 0c3d 98c8 133d 9ce6 953d 77c2 f7bb
00000200: 6fda 373d bf36 8d3d 42f7 42bb 191b a9bd
00000210: 2d9d f6bb 7cab 65bd ae33 8d3c 5811 a5bd
00000220: efed 81bd d511 7a3b ab4d 1fbc 7fb4 5bbd
00000230: 8db5 4abd 314f d73d 32ba 2a3d c33c 2bbd
00000240: e613 abbb 9d4f a9bc 6e69 42bd 1247 48bd
00000250: 904e 6dbc f57b 94bd 0cbb e53c fe94 b6bd
00000260: ed26 40bd adbf 28bd 9549 7e3d 984c d73c
00000270: 20e8 64bd c4d8 06bd 1a17 32bc 9105 8e3d
00000280: ed43 d1bd 5946 903d 742b c3bd 3218 2abd
00000290: 6943 bc3d d2fa 8e3c 3bdb e3bc 09ac d7b9
000002a0: 3478 8dbd 99aa 9dbd 8490 9abd c710 8ebd
000002b0: 4056 e93c 1444 80bd 9ba8 813d 5d57 2dbd
000002c0: d02c 34bd 1927 3e3d 9a0e 0abd f11e e83d
000002d0: 2bb5 e33d d055 ae3d ec2d 86bd f465 afbd
000002e0: 15b4 823d 8d50 303c 5f94 a5bd 25e8 8c3d
000002f0: f4b3 0dbd d053 03bd 726d d9bb 06f5 0a3d
00000300: db9e 903d 18ff db3c 191e 16bd 6ede 9f3d
00000310: 7fde 7cbd 03ce a1bd 851d 073c 91c6 a1bc
00000320: 5814 82bc a9b7 acbd 11b7 0cbb a42e 7d3b
00000330: 68bc 183d d8c2 81bd 8d7d 64bd b2c5 85bd
00000340: a9d9 d7bd 5d0c 6abd 7d85 97bb 367d 113c
00000350: 571e a03d 6f08 283d 018c bebd beb0 15bd
00000360: fa5b 933c 2a38 083d cb56 723d e461 ef3c
00000370: 15e6 52bd f799 96bd 93b3 3a3c 6ad4 763d
00000380: 448b ccbc 3b9f 6bbd 7f6c 14bd 5ac3 7e3a
00000390: e899 8dba 8f92 a03d 7dd0 a43c 9093 6f3d
000003a0: 1f5a adbd 71df 473d cd64 a23d 1191 103d
000003b0: 92ed 1b3d 24a0 c23c c69e 92bd 5e52 8c3d
000003c0: ad3d cf3d ab77 ce3b 544a 4cbd 118b 753d
000003d0: 1e40 8c3d 63ed 073b 65a4 e33d a15a a23d
000003e0: cbd6 68bd 6af2 62bd 18f4 d33d d72f 9abc
000003f0: cc10 78bb 01f4 b8bd 3040 87bd 0f6d f03c
-0.024964072 -0.03991079 -0.07055638 0.076799124 -0.051446475 -0.027391646 -0.061674345 0.08020361
-0.027046405 -0.048099656 0.0050504934 0.07309836 -0.057975225 -0.04015124 -0.075029455 0.07567705
0.06978204 -0.041330703 0.06105461 -0.06946328 0.08346598 0.011122299 0.08290752 -0.088283405
-0.0484039 0.021252926 0.05563962 0.03282696 0.023230653 0.042800784 0.047348063 -0.015056955
0.017621893 -0.056236975 0.06930678 -0.081263475 -0.017613743 -0.07489934 0.06271168 -0.07155615
0.030131498 -0.06548919 0.02673505 -0.012973547 -0.042487048 0.06987479 -0.0034761985 0.057316557
0.021343172 -0.0006903486 -0.06664409 0.07368993 -0.006419865 -0.016229622 -0.09064561 -0.08347272
-0.09010344 -0.037526432 -0.015235661 0.092194095 -0.018221358 0.0005380821 0.069096506 -0.018597458
0.014109013 -0.02630237 -0.06645585 -0.08715257 -0.040671553 -0.07797965 0.008980449 -0.05433422
0.004398969 -0.06290878 -0.07090453 0.073289745 0.075851075 0.015940432 0.06290086 -0.046390943
0.058944747 -0.045147374 -0.011422982 0.04917614 0.051653728 -0.003324525 -0.051190797 -0.07855055
0.025228208 -0.03261525 0.053767167 -0.07843643 -0.060021147 -0.07610465 0.070913814 -0.0059393616
-0.041922167 -0.0004826059 -0.03427573 -0.025293525 0.018600564 0.06553243 0.07587838 0.015816793
-0.034159563 -0.008111316 -0.04908267 0.040333163 -0.06625987 -0.04826886 -0.0005473492 0.038945515
0.028927207 -0.029791998 0.011091737 0.07725006 0.01420895 -0.06744786 -0.07898889 0.05624447
-0.044744086 0.04089236 0.072633654 0.011491961 0.03419947 0.036079973 0.07319376 -0.007561024
0.04488605 0.068952076 -0.0029749428 -0.082571216 -0.007526061 -0.056071743 0.017236557 -0.08059949
-0.0634421 0.0038157601 -0.009723107 -0.05363893 -0.049489547 0.105131514 0.041681476 -0.041805994
-0.005220878 -0.020667845 -0.047463827 -0.048895903 -0.014484063 -0.072502054 0.028043292 -0.08915137
-0.046912123 -0.04119842 0.062081892 0.02628164 -0.055885434 -0.032921568 -0.010869766 0.069346555
-0.10218034 0.07044668 -0.095297724 -0.04152698 0.09192545 0.017453585 -0.027814498 -0.00041136172
-0.069076926 -0.076985545 -0.075470954 -0.06936794 0.02848351 -0.06262985 0.06330987 -0.042319644
-0.04398805 0.046424005 -0.03370533 0.113340266 0.111185394 0.08512461 -0.06551728 -0.08564368
0.06382004 0.010761392 -0.0808494 0.068802156 -0.034595445 -0.03206235 -0.0066353614 0.03392508
0.07061549 0.026855037 -0.036649797 0.07806097 -0.061735626 -0.07900622 0.008246784 -0.019748004
-0.015878841 -0.08433468 -0.002147142 0.0038632536 0.037289053 -0.063359916 -0.055783797 -0.06531848
-0.10539562 -0.057140697 -0.0046240673 0.00887995 0.07818287 0.041023668 -0.093040474 -0.036545508
0.017988194 0.033256687 0.059164803 0.029221483 -0.051488955 -0.07353585 0.011395353 0.060261168
-0.02496875 -0.0575249 -0.036236282 0.00097184407 -0.0010803314 0.07840454 0.020118946 0.058490336
-0.08464455 0.048797075 0.079293825 0.035294596 0.03806836 0.023758002 -0.0715919 0.06851648
0.101191856 0.0063008866 -0.049875572 0.059947077 0.06848167 0.0020740859 0.1111534 0.07927442
-0.056845468 -0.055406965 0.103492916 -0.01882164 -0.0037851809 -0.09030915 -0.0660404 0.029348878
