experiments/model_32_50_2026-01-17_9433/model.pt (torch, 93423 bytes, 18 tensors)

encoder.graph_embed.GCN_in.A f4 [9, 9]
-0.80278414 -0.06252554 -0.10487598 -0.4844939 -1.098279 -1.4231867 -0.23945262 -0.10455799
-1.1593271 -0.7855139 0.75167346 0.21981876 2.2086062 -0.8795892 -0.34948885 0.004816626
0.2231059 0.22577403 0.057414442 -0.432727 0.80256534 -0.04100159 0.6246635 0.33975422
-1.1784794 -0.30776075 -0.8703317 -1.1551566 -0.36088246 0.8491709 -0.9482298 -0.63649684
0.45270988 -0.56534684 -1.6924535 1.4424468 0.8705044 -1.8859655 1.0778621 -0.043817673
1.1006705 -1.0041357 -0.73975873 -0.351611 -0.12292601 1.2720982 -1.9433987 -0.28374603
-0.90303296 0.67935145 -0.14550209 -0.25540325 -1.0554279 -0.35515666 -0.18397917 0.5658443
0.63021386 -0.16328578 0.8185808 -0.9541187 0.34611723 2.0119953 -0.41673014 -0.06752499
0.8708233 1.7317833 -0.8859514 -0.1557437 -0.0733922 -0.11106287 0.112689026 -0.78900975
-0.049563274 -1.2415259 -1.790195 -1.7238158 1.0769385 0.2795613 0.1740938 1.6837221
-0.06774963
00000000: 4383 4dbf 640d 80bd 38c9 d6bd 960f f8be
00000010: 6894 8cbf fb2a b6bf 1133 75be 8022 d6bd
00000020: d564 94bf 7017 49bf ac6d 403f 2b18 613e
00000030: ce59 0d40 c22c 61bf 34f0 b2be cad4 9d3b
00000040: e075 643e 4f31 673e 682b 6b3d 658e ddbe
00000050: ec74 4d3f 49f1 27bd f2e9 1f3f 44f4 ad3e
00000060: 6ad8 96bf d192 9dbe 0fce 5ebf 2cdc 93bf
00000070: 96c5 b8be 4463 593f 30bf 72bf 75f1 22bf
00000080: 97c9 e73e 92ba 10bf 51a2 d8bf 19a2 b83f
00000090: 60d9 5e3f 5167 f1bf 63f7 893f 297a 33bd
000000a0: c5e2 8c3f 8587 80bf d460 3dbf 5b06 b4be
000000b0: a2c0 fbbd 1dd4 a23f 4ac1 f8bf 2947 91be
000000c0: 2b2d 67bf fae9 2d3f 80fe 14be 37c4 82be
000000d0: 4318 87bf 18d7 b5be 0965 3cbe 2cdb 103f
000000e0: b255 213f 6334 27be 838e 513f 2041 74bf
000000f0: 4736 b13e 88c4 0040 a75d d5be 8b4a 8abd
00000100: 47ee 5e3f 13ab dd3f b6cd 62bf 477b 1fbe
00000110: a64e 96bd ee74 e3bd 81c9 e63d 8bfc 49bf
00000120: dc02 4bbd 52ea 9ebf 1c25 e5bf ffa5 dcbf
00000130: 1fd9 893f a922 8f3e a545 323e 3584 d73f
00000140: 51c0 8abd

encoder.graph_embed.GCN_in.linear.weight f4 [32, 16]
0.12089113 0.21825798 -0.17998375 0.14109443 -0.09536841 -0.107098 0.09211247 -0.28952706
0.22346607 0.23743664 0.15666091 -0.20854098 -0.109740265 -0.16820349 0.23167749 0.14974873
0.19900012 -0.15582414 -0.0516007 -0.01880603 -0.07257033 0.18615808 -0.11875191 -0.11270428
0.02239011 0.16174515 -0.084853925 0.10230695 -0.2188883 -0.13662294 -0.0663624 -0.016962878
-0.2843915 0.12508667 -0.2516953 -0.068646304 0.030127265 0.1607428 0.15324582 0.04002436
-0.01412584 0.211171 0.04353034 0.11591292 -0.20039612 0.116849236 0.24185115 0.19511598
-0.008189998 -0.06180115 -0.19699815 -0.16858953 0.06658919 0.15518887 0.051306274 0.10614004
0.014538003 0.06548561 0.18504849 -0.047911488 -0.13423716 0.039968766 0.021509513 -0.062263396
0.12562938 0.072283156 -0.22055598 -0.032320555 -0.13115254 -0.05372277 -0.15666722 -0.20304227
-0.074039884 0.08219629 0.17203458 -0.11717524 -0.07643367 0.17933193 0.17505172 -0.20026971
0.23291144 0.16212077 0.03209218 0.11772518 0.112216555 -0.035052866 -0.04339758 0.06231328
0.06435663 0.1004899 -0.0060272263 0.29767266 -0.011746279 -0.004198013 -0.0813012 0.055018682
0.033228718 -0.07859233 -0.16389014 -0.27306035 0.27300844 -0.1606452 -0.19128871 -0.23410656
0.010092508 0.12830277 -0.09137892 0.06298884 0.22470066 -0.2377227 0.03844814 0.08174752
0.1672736 0.07395821 -0.19792506 -0.110244095 0.02016394 0.14084026 0.21471247 0.18590741
-0.11394981 -0.027833108 0.14764445 0.027766258 -0.043519128 -0.28682005 0.09066719 -0.20541038
-0.041703366 0.124034084 0.0051511335 -0.23078363 0.07070536 0.19104289 0.14385317 -0.005074729
-0.13263837 -0.031696517 -0.016469609 -0.011731916 -0.013446938 -0.0043541146 0.055700086 0.2022545
-0.18659331 0.09689622 0.121297285 0.1634642 -0.1651368 0.103544466 0.23859961 0.003557772
-0.0033637087 0.081336595 0.2244933 0.18464652 -0.23112047 0.019473761 0.008053485 0.0175196
-0.030533189 -0.21749637 0.2839545 0.1309925 -0.22823152 0.030345365 -0.061873205 0.07145339
-0.18015191 -0.027101826 0.21659161 -0.11092763 0.12671582 0.06339058 -0.02142403 -0.09591456
-0.1088878 0.09302458 -0.12520611 -0.013967759 -0.07349629 -0.034181893 -0.05681232 0.18939061
0.086256795 -0.08852163 -0.112235025 0.19369072 -0.016722227 -0.16897045 0.06518228 0.020822752
0.15765274 -0.19945386 0.13357048 -0.056505617 -0.05973019 0.22088571 0.025176285 0.20883036
-0.058712862 -0.23958682 0.0019393334 -0.11396794 -0.04192197 -0.008354768 -0.16135615 0.025767166
-0.200215 0.14447986 -0.053308308 0.06612505 -0.13230006 -0.091351524 -0.12179226 -0.23347688
-0.0355837 -0.27034342 -0.1706198 -0.19398881 0.075282104 0.18036982 -0.21102715 0.12527531
-0.12402379 0.079296395 0.019288667 -0.263243 0.16687995 -0.06942872 -0.008200668 0.06952505
0.14698906 0.21874867 -0.18890771 0.12629274 0.053985585 -0.08708983 0.029228965 0.050011568
-0.2617386 0.013830244 0.15839261 0.014294993 -0.03137056 -0.13253021 -0.14937986 0.09496008
0.22087282 0.1178426 0.14590748 -0.07906555 0.18922639 0.23998283 -0.17256384 -0.17694877
00000000: c595 f73d 057f 5f3e a94d 38be 0f7b 103e
00000010: 8350 c3bd 3256 dbbd 76a5 bc3d e43c 94be
00000020: 4ad4 643e 9722 733e b86b 203e c48b 55be
00000030: 81bf e0bd 893d 2cbe dd3c 6d3e bb57 193e
00000040: b0c6 4b3e 5d90 1fbe 415b 53bd 1a0f 9abc
00000050: c19f 94bd 39a0 3e3e 3434 f3bd 80d1 e6bd
00000060: 776b b73c 85a0 253e e5c7 adbd 4e86 d13d
00000070: 4124 60be e2e6 0bbe 03e9 87bd bcf5 8abc
00000080: c39b 91be b816 003e 35de 80be 6f96 8cbd
00000090: 74cd f63c c399 243e 79ec 1c3e 95f0 233d
000000a0: 1170 67bc 363d 583e df4c 323d c163 ed3d
000000b0: a434 4dbe a74e ef3d d4a7 773e 7ccc 473e
000000c0: 572f 06bc 3423 7dbd e2b9 49be bca2 2cbe
000000d0: ea5f 883d d5e9 1e3e 8726 523d f35f d93d
000000e0: ce30 6e3c 521d 863d 5a7d 3d3e d63e 44bd
000000f0: 7775 09be 4ab6 233d b834 b03c e707 7fbd
00000100: fda4 003e 3109 943d 6dd9 61be 8f62 04bd
00000110: da4c 06be 680c 5cbd 5f6d 20be 50ea 4fbe
00000120: 39a2 97bd 8756 a83d d529 303e 92f9 efbd
00000130: 4289 9cbd caa2 373e c240 333e 8113 4dbe
00000140: 5680 6e3e fd02 263e 1773 033d e619 f13d
00000150: cbd1 e53d 9893 0fbd a9c1 31bd 363c 7f3d
00000160: 69cd 833d a6cd cd3d 0a80 c5bb 8d68 983e
00000170: 7773 40bc 7c8f 89bb 3e81 a6bd 455b 613d
00000180: d61a 083d 04f5 a0bd d1d2 27be 91ce 8bbe
00000190: c3c7 8b3e 2d80 24be 30e1 43be a1b9 6fbe
000001a0: 0c5b 253c cd61 033e df24 bbbd 4b00 813d
000001b0: ee17 663e 946d 73be cc7b 1d3d 3e6b a73d
000001c0: c549 2b3e 6777 973d deac 4abe a8c7 e1bd
000001d0: d92e a53c 6e38 103e 96dd 5b3e 835e 3e3e
000001e0: 855e e9bd 4202 e4bc 1b30 173e 1076 e33c
000001f0: 1d41 32bd 14da 92be b8af b93d 1957 52be
00000200: 26d1 2abd 9505 fe3d d7ca a83b 8b52 6cbe
00000210: f9cd 903d bfa0 433e 3f4e 133e ea49 a6bb
00000220: 5ad2 07be 35d4 01bd 46eb 86bc 3937 40bc
00000230: 8c50 5cbc f6ac 8ebb c625 643d ce1b 4f3e
00000240: 5112 3fbe 8771 c63d b66a f83d 2963 273e
00000250: 9f19 29be 1f0f d43d 7553 743e 8229 693b
00000260: ab71 5cbb cd93 a63d 92e1 653e fa13 3d3e
00000270: d8aa 6cbe 7087 9f3c c4f2 033c 4485 8f3c
00000280: bd20 fabc 5eb7 5ebe 7c62 913e e622 063e
00000290: 86b5 69be d896 f83c c26e 7dbd 2856 923d
000002a0: be79 38be a604 debc 31ca 5d3e 062e e3bd
000002b0: cbc1 013e ecd2 813d 7381 afbc da6e c4bd
000002c0: 9100 dfbd ac83 be3d 0836 00be 07d9 64bc
000002d0: 3985 96bd 5002 0cbd 09b4 68bd 9def 413e
000002e0: 67a7 b03d d44a b5bd 7adb e5bd dc56 463e
000002f0: 0dfd 88bc 9706 2dbe 4a7e 853d 7a94 aa3c
00000300: b86f 213e a23d 4cbe b3c6 083e 6f72 67bd
00000310: a5a7 74bd dd2f 623e 7f3e ce3c a0d7 553e
00000320: e67c 70bd 3f56 75be 3b31 fe3a 0668 e9bd
00000330: 5fb6 2bbd 70e2 08bc 8c3a 25be aa15 d33c
00000340: 2905 4dbe 87f2 133e d059 5abd 926c 873d
00000350: ab79 07be 8216 bbbd 386e f9bd 9014 6fbe
00000360: 37c0 11bd 746a 8abe f5b6 2ebe 01a5 46be
00000370: 812d 9a3d deb2 383e 8017 58be 2c48 003e
00000380: 2f00 febd 2666 a23d 4403 9e3c c9c7 86be
00000390: 94e2 2a3e a530 8ebd 185c 06bc 2663 8e3d
000003a0: 4d84 163e a7ff 5f3e 0671 41be e252 013e
000003b0: fd1f 5d3d 275c b2bd 9571 ef3c eed8 4c3d
000003c0: 9a02 86be 3f98 623c ac31 223e 8c35 6a3c
000003d0: 6b7e 00bd 00b6 07be 09f7 18be 6e7a c23d
000003e0: 7c2c 623e 7657 f13d c568 153e 1eed a1bd
000003f0: 90c4 413e 0fbe 753e 93b4 30be 0f32 35be

encoder.graph_embed.GCN_in.linear.bias f4 [32]
0.06020288 -0.12979132 -0.040289845 0.06420207 0.16571939 -0.04220025 -0.14335111 -0.11337305
-0.07958452 0.0020312264 0.14263509 -0.15331042 0.10711764 0.256367 0.086620845 0.047157563
-0.083913386 0.12000078 0.09586852 -0.062195856 0.109060235 0.09572581 -0.053946547 -0.05789895
-0.10307663 0.09755902 -0.051837254 0.029338913 0.08012895 0.20267911 0.13667499 -0.02154824
00000000: 4c97 763d 04e8 04be f706 25bd 607c 833d
00000010: 58b2 293e 2bda 2cbd a2ca 12be 2130 e8bd
00000020: 35fd a2bd 531e 053b ef0e 123e 68fd 1cbe
00000030: 7e60 db3d 8942 833e 4566 b13d 4a28 413d
00000040: c8da abbd f8c2 f53d b756 c43d 15c1 7ebd
00000050: f95a df3d e50b c43d 0ef7 5cbd 7327 6dbd
00000060: d719 d3bd 06cd c73d 4d53 54bd 2958 f03c
00000070: a61a a43d 1d8b 4f3e 87f4 0b3e ef85 b0bc

encoder.graph_embed.bn.weight f4 [32]
0.97603 0.9540175 0.93127203 0.952341 0.9299107 0.951452 1.0177214 0.9848882
0.99907124 0.9606788 0.96059006 0.9654332 0.98707193 0.9681352 1.0198056 0.92491543
0.99090755 0.94387925 0.9400856 1.0072033 1.0103341 0.9994946 1.0621382 0.9827911
1.011771 1.061991 0.9701353 1.0176868 0.9323667 0.99523056 1.0199183 1.0260173
00000000: 1add 793f 7e3a 743f d867 6e3f 9fcc 733f
00000010: a10e 6e3f 5c92 733f b244 823f a221 7c3f
00000020: 22c3 7f3f 0cef 753f 3be9 753f a126 773f
00000030: bfb0 7c3f b5d7 773f fd88 823f 42c7 6c3f
00000040: 1eac 7d3f 12a2 713f 73a9 703f 0aec 803f
00000050: a152 813f e1de 7f3f 25f4 873f 3398 7b3f
00000060: b681 813f 52ef 873f c95a 783f 9043 823f
00000070: 96af 6e3f 6ec7 7e3f af8c 823f 8954 833f

encoder.graph_embed.bn.bias f4 [32]
-0.0340035 -0.007156155 0.002557044 -0.030313374 -0.001346073 -0.013235873 -0.053407658 -0.0369889
-0.014677238 0.051583167 -0.0054518487 -0.04710117 0.021197014 -0.029394818 0.020466637 -0.0404234
0.050049618 0.027892957 0.0418887 -0.007740577 -0.03492206 0.0028364079 0.02023305 0.06899438
-0.03518058 -0.011217077 0.021966217 0.01770558 0.04781797 0.008659801 0.0014030702 -0.007556873
00000000: 4147 0bbd 2e7e eabb 1494 273b c153 f8bc
00000010: b76e b0ba 46db 58bc fdc1 5abd ac81 17bd
00000020: cc78 70bc df48 533d 6ca5 b2bb 28ed 40bd
00000030: 5ca5 ad3c 67cd f0bc a6a9 a73c 0293 25bd
00000040: d400 4d3d c57f e43c 7c93 2b3d aba4 fdbb
00000050: 6f0a 0fbd 07e3 393b c8bf a53c ed4c 8d3d
00000060: 8319 10bd d5c7 37bc 7ff2 b33c 4b0b 913c
00000070: c7dc 433d d7e1 0d3c 39e7 b73a a59f f7bb

encoder.graph_embed.bn.running_mean f4 [32]
0.11819507 -0.011078931 0.07689645 0.23517415 0.15682778 0.0628494 0.03752816 0.27240756
0.18028198 0.115567446 0.17355321 -0.02514621 0.18216707 0.116210334 0.17012705 0.026165126
0.022168374 0.14554146 0.17763413 0.050336573 0.2478868 0.18666773 0.0840431 0.007911318
0.20981938 0.06571769 0.065221585 0.10348224 0.29078194 0.24172139 -0.034844328 0.12322594
00000000: 4210 f23d 6884 35bc e37b 9d3d 7ed1 703e
00000010: 7697 203e 30b7 803d 21b7 193d 0179 8b3e
00000020: d79b 383e a0ae ec3d efb7 313e 6dff cdbc
00000030: 018a 3a3e afff ed3d c935 2e3e 3f58 d63c
00000040: 739a b53c d208 153e b9e5 353e b92d 4e3d
00000050: 0ad6 7d3e d325 3f3e ca1e ac3d 799e 013c
00000060: e4da 563e ff96 863d e592 853d 7fee d33d
00000070: 5fe1 943e d085 773e edb8 0ebd e25d fc3d

encoder.graph_embed.bn.running_var f4 [32]
0.1198524 0.039346367 0.036074594 0.11594796 0.08696088 0.075673506 0.05316573 0.21233281
0.04689947 0.103200376 0.14548096 0.024146562 0.051492367 0.077382945 0.08240712 0.04859483
0.021716304 0.04421428 0.08593776 0.039774276 0.20720392 0.105218954 0.055756345 0.04254109
0.19418907 0.037312593 0.0565189 0.043099057 0.05208273 0.19777669 0.021007376 0.100308254
00000000: 2d75 f53d a829 213d f4c2 133d 2076 ed3d
00000010: 8c18 b23d b6fa 9a3d 4fc4 593d c66d 593e
00000020: a919 403d b85a d33d f6f8 143e 03cf c53c
00000030: a9e9 523d f37a 9e3d 10c5 a83d 5f0b 473d
00000040: 64e6 b13c 081a 353d 2300 b03d 5aea 223d
00000050: 442d 543e 097d d73d c460 643d 913f 2e3d
00000060: 80d9 463e 17d5 183d 5d80 673d a388 303d
00000070: b354 553d f985 4a3e a917 ac3c 6a6e cd3d

encoder.pos_enc.pe f4 [500, 32]
0.0 1.0 0.0 1.0 0.0 1.0 0.0 1.0
0.0 1.0 0.0 1.0 0.0 1.0 0.0 1.0
0.0 1.0 0.0 1.0 0.0 1.0 0.0 1.0
0.0 1.0 0.0 1.0 0.0 1.0 0.0 1.0
0.84147096 0.54030234 0.53316844 0.8460091 0.3109836 0.9504153 0.17689219 0.9842302
0.099833414 0.9950042 0.05620449 0.9984193 0.031617504 0.99950004 0.017781857 0.99984187
0.009999833 0.99995 0.0056233825 0.9999842 0.0031622713 0.999995 0.0017782785 0.99999845
0.0009999998 0.9999995 0.0005623411 0.9999998 0.00031622782 0.99999994 0.00017782794 1.0
0.9092974 -0.41614684 0.9021307 0.43146282 0.5911271 0.8065784 0.34820527 0.93741834
0.19866931 0.9800666 0.1122313 0.9936821 0.063203394 0.9980007 0.03555809 0.9993676
0.019998666 0.9998 0.011246587 0.99993676 0.006324511 0.99998003 0.0035565514 0.9999937
0.0019999985 0.99999803 0.0011246821 0.99999934 0.0006324556 0.9999998 0.00035565588 0.99999994
0.14112 -0.9899925 0.9932532 -0.11596616 0.8126489 0.58275366 0.5085361 0.86104065
0.2955202 0.9553365 0.16790329 0.9858035 0.094726086 0.99550337 0.053323083 0.9985773
0.0299955 0.99955004 0.016869437 0.9998577 0.009486687 0.999955 0.005334813 0.99998575
0.0029999954 0.9999955 0.0016870227 0.99999857 0.00094868336 0.9999996 0.0005334838 0.9999999
-0.7568025 -0.6536436 0.7784717 -0.6276797 0.95358074 0.30113748 0.652828 0.7575062
0.38941833 0.921061 0.22304447 0.9748083 0.12615407 0.99201065 0.07107121 0.9974712
0.039989334 0.9992001 0.022491753 0.99974704 0.01264877 0.99992 0.0071130577 0.9999747
0.003999989 0.999992 0.0022493629 0.9999975 0.0012649109 0.9999992 0.0007113117 0.99999976
-0.9589243 0.2836622 0.32393527 -0.94607925 0.99994653 -0.010342338 0.77652997 0.6300803
0.47942552 0.87758255 0.2774805 0.96073127 0.15745588 0.987526 0.08879686 0.99604976
0.049979165 0.99875027 0.028113356 0.99960476 0.015810724 0.999875 0.00889128 0.9999605
0.004999979 0.9999875 0.0028117022 0.99999607 0.0015811383 0.99999875 0.0008891396 0.9999996
-0.2794155 0.96017027 -0.23036751 -0.9731037 0.9471482 -0.3207964 0.8757405 0.48278204
0.5646424 0.8253356 0.3310393 0.943617 0.18860027 0.98205394 0.10649444 0.9943133
0.059964005 0.99820054 0.033734076 0.99943084 0.018972522 0.99982 0.0106694745 0.9999431
0.0059999637 0.999982 0.0033740408 0.99999434 0.0018973658 0.9999982 0.0010669674 0.99999946
0.6569866 0.75390226 -0.7137213 -0.7004298 0.8004216 -0.5994375 0.9473307 0.320257
0.6442176 0.7648422 0.38355154 0.9235195 0.2195561 0.9755999 0.12415834 0.9922624
0.06994285 0.997551 0.03935372 0.9992253 0.022134129 0.999755 0.012447635 0.9999225
0.006999942 0.9999755 0.0039363783 0.99999225 0.0022135929 0.99999756 0.0012447953 0.9999992
00000000: 0000 0000 0000 803f 0000 0000 0000 803f
00000010: 0000 0000 0000 803f 0000 0000 0000 803f
00000020: 0000 0000 0000 803f 0000 0000 0000 803f
00000030: 0000 0000 0000 803f 0000 0000 0000 803f
00000040: 0000 0000 0000 803f 0000 0000 0000 803f
00000050: 0000 0000 0000 803f 0000 0000 0000 803f
00000060: 0000 0000 0000 803f 0000 0000 0000 803f
00000070: 0000 0000 0000 803f 0000 0000 0000 803f
00000080: a46a 573f 4151 0a3f ba7d 083f 0d94 583f
00000090: 3e39 9f3e 6b4e 733f 3a23 353e 83f6 7b3f
000000a0: 7675 cc3d 98b8 7e3f ae36 663d 6898 7f3f
000000b0: 5b81 013d 3cdf 7f3f 42ab 913c a3f5 7f3f
000000c0: 57d6 233c b9fc 7f3f 5a44 b83b f7fe 7f3f
000000d0: 1c3e 4f3b acff 7f3f 2015 e93a e6ff 7f3f
000000e0: 6d12 833a f8ff 7f3f 136a 133a fdff 7f3f
000000f0: 61cb a539 ffff 7f3f 5377 3a39 0000 803f
00000100: b7c7 683f 3311 d5be 0af2 663f b2e8 dc3e
00000110: 1b54 173f ec7b 4e3f f647 b23e a6fa 6f3f
00000120: f86f 4b3e a5e5 7a3f 86d9 e53d f361 7e3f
00000130: c870 813d f97c 7f3f 5ca5 113d 8ed6 7f3f
00000140: 3ed4 a33c e5f2 7f3f 9b43 383c dbfb 7f3f
00000150: d83d cf3b b1fe 7f3f 0815 693b 96ff 7f3f
00000160: 6812 033b dfff 7f3f 126a 933a f5ff 7f3f
00000170: 60cb 253a fdff 7f3f 5377 ba39 ffff 7f3f
00000180: c381 103e 2670 7dbf d745 7e3f ab7f edbd
00000190: c209 503f 582f 153f 6c2f 023f 296d 5c3f
000001a0: 6c4e 973e ef90 743f d7ee 2b3e 9e5d 7c3f
000001b0: c0ff c13d 4fd9 7e3f 4e69 5a3d c3a2 7f3f
000001c0: 1fb9 f53c 83e2 7f3f c631 8a3c adf6 7f3f
000001d0: 0d6e 1b3c 0dfd 7f3f a8cf ae3b 11ff 7f3f
000001e0: 929b 443b b5ff 7f3f 171f dd3a e8ff 7f3f
000001f0: 10b1 783a f9ff 7f3f 7ed9 0b3a feff 7f3f
00000200: cfbd 41bf 3055 27bf ec49 473f 9eaf 20bf
00000210: de1d 743f b12e 9a3e bc1f 273f edeb 413f
00000220: d761 c73e a7ca 6b3f c565 643e 098d 793f
00000230: 882e 013e 69f4 7d3f c88d 913d 465a 7f3f
00000240: dbcb 233d 94cb 7f3f a040 b83c 6cef 7f3f
00000250: c93c 4f3c c2fa 7f3f a714 e93b 58fe 7f3f
00000260: 5712 833b 7aff 7f3f 0c6a 133b d6ff 7f3f
00000270: 5ecb a53a f3ff 7f3f 5277 3a3a fcff 7f3f
00000280: 107c 75bf 2c3c 913e d8da a53e 4032 72bf
00000290: 7ffc 7f3f e972 29bc abca 463f f14c 213f
000002a0: 4377 f53e 40a9 603f ed11 8e3e 7cf2 753f
000002b0: 1d3c 213e 81ce 7c3f 21db b53d 1efd 7e3f
000002c0: f4b6 4c3d 19ae 7f3f fb4d e63c 19e6 7f3f
000002d0: 7e85 813c cff7 7f3f bbac 113c 69fd 7f3f
000002e0: ddd6 a33b 2eff 7f3f 8944 383b beff 7f3f
000002f0: 333e cf3a ebff 7f3f 2615 693a f9ff 7f3f
00000300: 8c0f 8fbe b8cd 753f 76e5 6bbe 531d 79bf
00000310: 4e78 723f 6d3f a4be 8830 603f 352f f73e
00000320: 688c 103f 3249 533f fc7d a93e e290 713f
00000330: 6e20 413e e367 7b3f c219 da3d 518b 7e3f
00000340: d19c 753d 128a 7f3f be2c 0a3d b3da 7f3f
00000350: 436c 9b3c 34f4 7f3f 05cf 2e3c 45fc 7f3f
00000360: 589b c43b d2fe 7f3f 031f 5d3b a1ff 7f3f
00000370: 08b1 f83a e2ff 7f3f 7cd9 8b3a f7ff 7f3f
00000380: 4630 283f bdff 403f 70b6 36bf 5e4f 33bf
00000390: 6ee8 4c3f bc74 19bf 4484 723f baf8 a33e
000003a0: 72eb 243f b3cc 433f de60 c43e c66b 6c3f
000003b0: 50d3 603e eac0 793f ba46 fe3d e904 7e3f
000003c0: 323e 8f3d 815f 7f3f 5e31 213d 3bcd 7f3f
000003d0: a252 b53c f2ef 7f3f 2af1 4b3c ecfa 7f3f
000003e0: c55f e53b 65fe 7f3f bcfc 803b 7eff 7f3f
000003f0: ed11 113b d7ff 7f3f 6628 a33a f3ff 7f3f

encoder.transformer.in_proj_weight f4 [96, 32]
0.17571357 0.1952743 -0.20449382 0.1852671 0.13010815 -0.0097779 0.17254452 -0.10902612
-0.1632936 -0.10073601 -0.060098242 0.25260732 -0.09480435 -0.08938643 -0.17069943 0.10879738
-0.0751591 -0.09896615 -0.09829796 -0.11693483 -0.067579485 0.010133791 -0.15403102 -0.24896911
-0.20470227 -0.17984457 0.17428632 0.002303307 0.081031464 0.06315727 -0.11188152 -0.10135913
-0.074908495 -0.11863149 -0.14392492 -0.14499816 0.25667134 0.06953823 -0.26921123 0.074747555
0.14363942 -0.027362354 -0.054535057 -0.07106392 0.17223997 0.07542622 0.00028298848 0.075129464
0.18815814 0.025635738 -0.08168952 0.07188044 -0.13786101 -0.09714444 0.18016154 0.030779092
0.00949295 -0.088427484 0.11588747 0.06571835 0.026277347 0.1025383 0.14332113 0.003217059
-0.04911264 -0.17166525 -0.04379419 0.022871664 -0.013238459 0.19163007 0.07440682 -0.08105158
-0.041525897 -0.24318926 0.011130559 0.14576799 0.13627166 0.088420354 0.19243036 0.18751776
-0.13900156 -0.006315155 0.016404225 0.11569517 0.083361655 -0.20143805 -0.14341803 -0.13074857
-0.12035016 0.18574695 0.20181058 0.18613729 -0.005973803 0.15215929 0.054309115 -0.066645436
-0.1580094 -0.13615459 0.026866117 -0.09298044 0.09199292 -0.19410901 -0.20826305 -0.19892243
-0.08208407 -0.1491151 0.11844831 -0.02408272 0.033404775 -0.13603614 0.18781115 0.047600437
-0.055814102 -0.048266146 0.113296516 0.26921037 0.17475648 -0.19795972 -0.12658341 0.09199644
-0.072638504 0.07720741 -0.0061121364 0.061313562 -0.03133054 0.12077522 -0.1937664 -0.042410925
-0.055542354 -0.08355529 0.15120806 -0.15349989 0.10418081 0.18452857 0.03373098 -0.16600555
-0.046533797 -0.20786053 0.04420813 -0.26095474 -0.09458409 0.06344554 0.05771873 0.21416378
-0.19012241 0.0140897995 -0.18948855 -0.14704601 -0.16496857 -0.16410397 0.19621094 0.22465801
-0.17470108 -0.09491129 -0.0023322972 0.03633975 -0.16753994 0.119690076 -0.03679866 0.0020039412
-0.2171126 -0.13525376 -0.038518615 -0.018354839 0.22364779 0.0629684 -0.016308272 -0.043526247
-0.1511295 0.04576687 0.15158238 -0.2874093 -0.008509533 -0.17947991 -0.15621336 0.2257041
0.24614292 0.22447929 -0.16745421 -0.051652845 -0.1535778 0.2675466 0.23804036 -0.017415904
-0.074720204 -0.1348604 -0.15864109 -0.082623124 -0.1318115 -0.061054427 -0.19304729 0.15643333
0.106998324 0.039725475 0.17042685 0.05321473 -0.0061058537 -0.02900703 0.04593273 0.0568785
-0.20484814 -0.038876783 -0.0061386437 0.098070376 0.17270653 0.1929229 0.013392 -0.09648338
-0.18459335 0.0022246577 -0.26764497 -0.1101237 -0.12296903 -0.07263996 0.16152607 0.14298566
-0.05224798 -0.0158561 0.06380121 0.11972234 -0.2015522 -0.16387933 -0.0895735 0.008827844
0.19559285 -0.035800256 0.050696816 0.14943913 0.25531578 -0.18366502 -0.10655275 -0.14340231
-0.2127155 0.13809398 -0.06648351 0.020708205 0.14656916 0.033582155 0.10133736 0.04499625
0.026635809 0.11789705 -0.26346046 0.00836831 0.026389733 0.11179216 -0.03884923 0.04586021
0.17082173 0.20107593 0.011198417 -0.01936988 -0.01386898 0.04681675 -0.13096884 -0.2123604
00000000: 42ee 333e fcf5 473e d466 51be a9b6 3d3e
00000010: 123b 053e 7c33 20bc 83af 303e 1649 dfbd
00000020: 7036 27be ae4e cebd 9329 76bd bf55 813e
00000030: c828 c2bd 3c10 b7bd d5cb 2ebe 29d1 de3d
00000040: 04ed 99bd c4ae cabd 7150 c9bd 877b efbd
00000050: 1d67 8abd 3308 263c 4fba 1dbe c2f1 7ebe
00000060: 799d 51be 2d29 38be 1d78 323e 14f3 163b
00000070: d3f3 a53d 9958 813d 2322 e5bd 6095 cfbd
00000080: a069 99bd 11f5 f2bd 0e61 13be 667a 14be
00000090: 6d6a 833e 0f6a 8e3d 0ed6 89be 3f15 993d
000000a0: 3616 133e 0427 e0bc 2760 5fbd f689 91bd
000000b0: ad5f 303e 1079 9a3d 125e 9439 7add 993d
000000c0: 87ac 403e 0a02 d23c d64c a7bd 0d36 933d
000000d0: 702b 0dbe aaf3 c6bd 447c 383e 6f24 fc3c
000000e0: 5188 1b3c 7819 b5bd 6956 ed3d 5897 863d
000000f0: 9743 d73c 9aff d13d c6c2 123e 4bd5 523b
00000100: 562a 49bd 04c9 2fbe 8961 33bd 5b5d bb3c
00000110: 1fe6 58bc ac3a 443e 9a62 983d 5ffe a5bd
00000120: 0f17 2abd 9b06 79be f35c 363c 3444 153e
00000130: cc8a 0b3e bb15 b53d 770c 453e a804 403e
00000140: 6d56 0ebe 5cef cebb 2762 863c 97f1 ec3d
00000150: 84b9 aa3d c745 4ebe 2ddc 12be f4e2 05be
00000160: 257a f6bd 7334 3e3e 6fa7 4e3e c69a 3e3e
00000170: e4bf c3bb a5cf 1b3e 3c73 5e3d 677d 88bd
00000180: 37cd 21be 1c6c 0bbe 5516 dc3c 876c bebd
00000190: c966 bc3d 83c4 46be e942 55be 52b2 4bbe
000001a0: b11b a8bd a1b1 18be 0795 f23d 2049 c5bc
000001b0: 72d3 083d 0f4d 0bbe 9151 403e adf8 423d
000001c0: 549d 64bd b9b2 45bd 0108 e83d f1d5 893e
000001d0: 5df3 323e f4b5 4abe 159f 01be a168 bc3d
000001e0: 7fc3 94bd eb1e 9e3d 5148 c8bb ee23 7b3d
000001f0: 7454 00bd 0059 f73d b36a 46be 14b7 2dbd
00000200: 6180 63bd 091f abbd 49d6 1a3e 132f 1dbe
00000210: c05c d53d 0ff5 3c3e 7f29 0a3d 5cfd 29be
00000220: 399a 3ebd 64d9 54be 9613 353d dc9b 85be
00000230: 4eb5 c1bd bcef 813d 7a6a 6c3d c04d 5b3e
00000240: 73af 42be e7d8 663c 4909 42be 3b93 16be
00000250: 85ed 28be df0a 28be 85eb 483e c00c 663e
00000260: d7e4 32be da60 c2bd 74d9 18bb fdd8 143d
00000270: 978f 2bbe 1220 f53d 31ba 16bd 8e54 033b
00000280: c452 5ebe f67f 0abe b2c5 1dbd e35c 96bc
00000290: ed03 653e 94f5 803d ed98 85bc 9448 32bd
000002a0: b1c1 1abe 0b76 3b3d 6938 1b3e 5027 93be
000002b0: 916b 0bbc 95c9 37be 65f6 1fbe fa1e 673e
000002c0: e40c 7c3e e6dd 653e 1e79 2bbe ef91 53bd
000002d0: 8043 1dbe defb 883e dac0 733e ccab 8ebc
000002e0: e806 99bd d818 0abe cf72 22be 5036 a9bd
000002f0: 98f9 06be 3514 7abd 30ae 45be 0f30 203e
00000300: f021 db3d 2eb7 223d 6084 2e3e b0f7 593d
00000310: 9d13 c8bb 27a0 edbc f523 3c3d 6ef9 683d
00000320: b6c3 51be 433d 1fbd ad26 c9bb 1fd9 c83d
00000330: fbd9 303e 958d 453e 1f6a 5b3c 1499 c5bd
00000340: 0a06 3dbe 90cb 113b c308 89be 8988 e1bd
00000350: 30d7 fbbd 42c4 94bd 1767 253e d56a 123e
00000360: fa01 56bd a7e4 81bc 35aa 823d fc30 f53d
00000370: b363 4ebe fccf 27be 5072 b7bd a9a2 103c
00000380: 7e49 483e 4aa3 12bd 77a7 4f3d 9206 193e
00000390: c0b8 823e af12 3cbe 5438 dabd 0ed8 12be
000003a0: 18d2 59be 8268 0d3e 8228 88bd 41a4 a93c
000003b0: 3a16 163e 718d 093d f689 cf3d fd4d 383d
000003c0: 5733 da3c 0274 f13d 4ae4 86be 3c1b 093c
000003d0: 482f d83c 4af3 e43d 5f20 1fbd ead7 3b3d
000003e0: e4eb 2e3e d9e6 4d3e 9179 373c 95ad 9ebc
000003f0: b83a 63bc ecc2 3f3d b21c 06be 0175 59be

encoder.transformer.in_proj_bias f4 [96]
-0.038991485 0.028999845 0.027537297 0.035773348 0.035946563 0.07046405 0.0063598896 -0.0024014448
0.0035826485 -0.03332136 0.043324925 0.040050685 -0.027018072 -0.05442059 -0.028337147 -0.029377371
0.04741397 -0.004588198 0.0045424383 0.014349837 -0.040526245 0.03942504 0.04270869 0.054544073
0.0013498398 0.061607886 0.014745815 -0.031467937 0.013838151 -0.04129036 -0.024192799 -0.025070796
-2.1459012e-07 4.2545892e-08 -1.1414496e-07 2.1689371e-07 1.608722e-07 4.1825484e-07 -4.4926153e-08 4.4149655e-08
3.7322177e-08 -1.532217e-07 1.0903474e-07 3.770973e-08 1.09668655e-07 -2.908063e-07 -3.5901945e-08 -1.1364341e-08
9.3423065e-09 -9.417848e-08 -1.3469763e-07 -7.299524e-08 -6.148687e-08 1.2303184e-07 2.9292084e-07 1.3781435e-07
-2.149359e-09 -2.7536524e-07 -1.042482e-09 1.4126321e-07 -5.3991762e-08 -1.6484291e-08 1.477173e-07 6.1091974e-08
0.009056994 -0.051999886 0.04093965 -0.019068183 -0.007901867 -0.027909819 0.02006375 0.018488325
-0.026536837 -0.020336015 -0.019918779 -0.009814973 -0.0054332013 0.016649257 0.008717823 0.029450348
0.021183735 -0.00042088996 0.009332666 -0.022953013 -0.041485276 -0.042813476 -0.04468171 -0.0072139315
0.024534672 -0.024009757 0.002568128 -0.046503462 0.035981484 -0.015794743 0.02787709 0.027336692
00000000: 89b5 1fbd 1591 ed3c e695 e13c 1387 123d
00000010: b43c 133d 754f 903d 9f66 d03b 8f61 1dbb
00000020: deca 6a3b fa7b 08bd 7a75 313d 300c 243d
00000030: 0155 ddbc 20e8 5ebd 4e23 e8bc d0a8 f0bc
00000040: 2735 423d 9858 96bb bcd8 943b 941b 6b3c
00000050: d9fe 25bd 277c 213d 4fef 2e3d 9b69 5f3d
00000060: 1ced b03a 8d58 7c3d 6e98 713c 86e4 00bd
00000070: 69b9 623c 1520 29bd fa2f c6bc 4561 cdbc
00000080: 156a 66b4 b4bb 3633 db1f f5b3 4ae3 6834
00000090: 37bc 2c34 828c e034 d4f4 40b3 0f9f 3d33
000000a0: 2b4c 2033 4385 24b4 7b26 ea33 49f6 2133
000000b0: fb82 eb33 1d20 9cb4 9b32 1ab3 e63c 43b2
000000c0: e67f 2032 2b3f cab3 67a1 10b4 8fc1 9cb3
000000d0: c40a 84b3 bc1a 0434 bc42 9d34 1ffa 1334
000000e0: ecb3 13b1 e9d5 93b4 1347 8fb0 23ae 1734
000000f0: 92e4 67b3 5799 8db2 399c 1e34 ab31 8333
00000100: c963 143c d5fd 54bd 56b0 273d e134 9cbc
00000110: d576 01bc 22a3 e4bc bc5c a43c d474 973c
00000120: c863 d9bc b797 a6bc b52c a3bc fbce 20bc
00000130: ff08 b2bb 0664 883c 33d5 0e3c db41 f13c
00000140: 8389 ad3c e5aa dcb9 0ae8 183c f507 bcbc
00000150: 77ec 29bd 2f5d 2fbd 2b04 37bd d862 ecbb
00000160: f0fc c83c 1cb0 c4bc 0a4e 283b 6a7a 3ebd
00000170: 5261 133d fa63 81bc 7f5e e43c 33f1 df3c

encoder.transformer.out_proj.weight f4 [32, 32]
-0.024796862 0.07455273 -0.03789918 0.02078821 0.09278702 0.09281196 -0.10022918 0.11066301
0.024617914 -0.16517803 -0.018261366 0.16486175 -0.08073535 0.108179025 -0.1642074 -0.039984636
-0.07232485 -0.081790894 -0.08089365 0.009896017 -0.0026024203 0.0912607 -0.0035503686 -0.090298325
-0.11756752 -0.14941558 0.036747385 -0.015400608 0.037471846 0.063085526 0.024130417 0.05853776
0.17411207 0.06957968 -0.12063817 -0.031869203 0.06568288 -0.12282339 0.03944208 0.051923413
-0.011526431 -0.14791004 -0.0061192997 -0.054590523 -0.112387046 -0.1286959 0.045020085 0.06474099
0.059205476 -0.15862116 0.037126195 -0.14422633 0.017273562 -0.036741402 0.12078652 -0.07661512
0.014750984 0.09683632 0.0821425 -0.0077332975 0.1636103 -0.10299661 0.101720616 0.0814614
0.055138327 0.024755474 -0.13234112 -0.08050402 -0.083378874 -0.13833438 0.012894626 -0.15147799
0.11803556 0.1132798 -0.06469761 0.08207063 0.14818838 -0.004397967 -0.102287404 -0.024067989
-0.12011254 0.20255934 -0.10737074 -0.008654097 -0.043431126 -0.08888268 -0.12043761 -0.18441918
-0.07299677 0.112849735 0.16054647 -0.052033253 -0.071332365 0.19690312 -0.09448675 0.14923277
0.13404377 0.13106859 0.12090156 0.022591747 -0.07583666 -0.17079772 -0.026791554 0.12652616
0.06475945 -0.047808554 0.15164992 -0.023046535 -0.17162253 -0.056859102 -0.039143365 -0.15899616
-0.035505984 0.07070591 -0.1618994 0.13885964 0.12107709 0.022022028 0.16186832 0.1328564
0.11711602 -0.053129695 0.17209494 0.029004999 -0.1999787 0.059279542 0.036620487 -0.093172796
-0.060194366 0.08508498 -0.05946864 -0.007467471 -0.06764766 0.13434224 0.14807516 -0.09429913
0.10874498 -0.1195509 0.06401855 -0.18752511 -0.17257111 -0.15282376 -0.022081524 -0.10520674
-0.050604217 -0.13880758 -0.0406994 0.06738264 -0.14483099 -0.08770237 0.069408394 -0.07964771
0.045504194 -0.1584123 0.10782602 -0.07292986 -0.15079695 -0.1176822 0.11726773 0.024763497
-0.13486674 0.22053935 -0.06797032 0.07093212 0.1203411 0.12780185 -0.114403926 0.008210257
-0.0026143666 -0.07056664 -0.07668797 -0.05962045 -0.1344002 0.038930435 0.095766485 0.013894033
-0.1727315 0.057109013 -0.081078865 -0.02524474 0.15858269 -0.12251291 -0.01594617 -0.0029152425
0.04744095 0.036598407 0.014730476 -0.06752553 -0.1021066 -0.12684152 0.069103114 -0.122344345
-0.10403675 0.12679996 -0.095079385 -0.01767284 0.055296186 -0.117846996 -0.09081184 -0.122824214
0.09502187 -0.12782311 0.15734135 0.16420805 0.10909201 -0.07641928 0.091639236 -0.057298917
-0.15121472 0.047829572 0.159053 -0.093431994 0.031536527 -0.12253032 0.09017445 0.00017203347
-0.10800435 -0.043846574 0.05674662 0.17927343 -0.1348701 -0.11573948 -0.12205193 0.025490172
-0.066506535 -0.06940541 -0.10372228 0.012917976 -0.1837954 -0.09555517 -0.15708452 -0.11579466
-0.08025359 -0.14069109 0.17361368 0.09408122 -0.10367447 0.18682757 -0.0023096178 -0.116757035
-0.07838975 -0.016268605 0.15931931 -0.07352894 0.17100222 -0.027257344 0.019505749 0.05443389
-0.09488674 0.13539498 -0.04095503 0.11717463 -0.005797249 0.021364564 0.007073821 -0.17393583
00000000: ca22 cbbc 1aaf 983d 2c3c 1bbd 094c aa3c
00000010: 1f07 be3d 3214 be3d f544 cdbd 4aa3 e23d
00000020: 82ab c93c 6e24 29be dc98 95bc 85d1 283e
00000030: 9358 a5bd f78c dd3d fc25 28be eec6 23bd
00000040: 0d1f 94bd fc81 a7bd 92ab a5bd e722 223c
00000050: 5e8d 2abb e4e6 ba3d 4dad 68bb 54ee b8bd
00000060: 3dc7 f0bd 6600 19be 6d84 163d d552 7cbc
00000070: 147c 193d fc32 813d 27ad c53c 4ac5 6f3d
00000080: 6f4a 323e cb7f 8e3d 2511 f7bd 4889 02bd
00000090: bf84 863d d48a fbbd 058e 213d a5ad 543d
000000a0: 5bd9 3cbc bb75 17be 6884 c8bb 509a 5fbd
000000b0: 2e2b e6bd dcc8 03be fb66 383d ed96 843d
000000c0: 7181 723d 966d 22be a311 183d 11b0 13be
000000d0: 4981 8d3c 277e 16bd ec5e f73d 63e8 9cbd
000000e0: 1cae 713c 1f52 c63d 543a a83d 9a67 fdbb
000000f0: 7589 273e e3ef d2bd e652 d03d 3cd5 a63d
00000100: bad8 613d fecb ca3c 6e84 07be 4bdf a4bd
00000110: 8bc2 aabd 87a7 0dbe fb43 533c 0c1d 1bbe
00000120: a1bc f13d 3dff e73d 2e80 84bd a514 a83d
00000130: b2be 173e d21c 90bb 0f7c d1bd 3b2a c5bc
00000140: 90fd f5bd b76b 4f3e 31e5 dbbd eac9 0dbc
00000150: d6e4 31bd 1f08 b6bd fea7 f6bd 62d8 3cbe
00000160: 557f 95bd c31d e73d 4b66 243e d220 55bd
00000170: b416 92bd f9a0 493e 4582 c1bd 7ad0 183e
00000180: c542 093e d836 063e 3d9b f73d 5412 b93c
00000190: 4050 9bbd 99e5 2ebe f679 dbbc 1390 013e
000001a0: 9aa0 843d e7d2 43bd 1e4a 1b3e 16cc bcbc
000001b0: d1bd 2fbe 17e5 68bd cb54 20bd e4cf 22be
000001c0: b96e 11bd 43ce 903d f5c8 25be 3931 0e3e
000001d0: 44f7 f73d 8a67 b43c cfc0 253e 820b 083e
000001e0: 86da ef3d 869e 59bd a839 303e e49b ed3c
000001f0: 37c7 4cbe 1bcf 723d 5dff 153d 61d1 bebd
00000200: 5e8e 76bd 0941 ae3d 6395 73bd b0b1 f4bb
00000210: db8a 8abd 0391 093e 04a1 173e e71f c1bd
00000220: b0b5 de3d 1ad7 f4bd 281c 833d 9506 40be
00000230: 7bb6 30be d57d 1cbe 50e4 b4bc a276 d7bd
00000240: 5e46 4fbd 9323 0ebe 6ab4 26bd e9ff 893d
00000250: 934e 14be 4d9d b3bd fd25 8e3d 571e a3bd
00000260: 9b62 3a3d d536 22be e3d3 dc3d 405c 95bd
00000270: 846a 1abe 5e03 f1bd 102a f03d d1dc ca3c
00000280: 821a 0abe 11d5 613e 0634 8bbd dc44 913d
00000290: 6575 f63d 7dde 023e 9b4c eabd 5084 063c
000002a0: cb55 2bbb 3e85 90bd 950e 9dbd 9334 74bd
000002b0: 35a0 09be 8575 1f3d 3821 c43d cca3 633c
000002c0: 87e0 30be 24eb 693d ad0c a6bd 0fce cebc
000002d0: 8063 223e 0ce8 fabd 8ba1 82bc a70d 3fbb
000002e0: 7151 423d 36e8 153d 1858 713c d34a 8abd
000002f0: 441d d1bd bee2 01be ef85 8d3d ac8f fabd
00000300: 3811 d5bd d9d7 013e fbb8 c2bd a2c6 90bc
00000310: 417e 623d c459 f1bd 8ffb b9bd 438b fbbd
00000320: d49a c23d 10e4 02be 171e 213e 2826 283e
00000330: a26b df3d b681 9cbd 5aad bb3d 45b2 6abd
00000340: 08d8 1abe f1e8 433d cade 223e 4659 bfbd
00000350: 722c 013d 2df1 fabd 62ad b83d e263 3439
00000360: 6231 ddbd 7798 33bd 256f 683d 7493 373e
00000370: 631b 0abe d208 edbd 5df6 f9bd c4d0 d03c
00000380: 9434 88bd 6c24 8ebd 596c d4bd eba5 533c
00000390: dd34 3cbe 6eb2 c3bd c4da 20be c025 edbd
000003a0: ff5b a4bd 5311 10be c9c7 313e a8ad c03d
000003b0: 4853 d4bd ba4f 3f3e f55c 17bb 501e efbd
000003c0: ce8a a0bd bd45 85bc 9a24 233e 5796 96bd
000003d0: 351b 2f3e cb4a dfbc 85ca 9f3c 12f6 5e3d
000003e0: fb53 c2bd fba4 0a3e 76c0 27bd 41f9 ef3d
000003f0: d9f6 bdbb bd04 af3c 83cb e73b 3c1c 32be

encoder.transformer.out_proj.bias f4 [32]
-0.007651102 -0.004117447 0.00097345095 -0.018228319 -0.0050263694 -0.020166574 -0.035835315 0.0018835062
-0.0060500507 0.020425893 -0.014312143 -0.029449623 0.002978542 -0.030913247 0.02302333 -0.035658807
0.02820911 0.0092898905 0.042710036 -0.0015137951 -0.020942537 -0.006362609 0.022465603 0.057292648
-0.025189532 -0.015588617 0.021195484 -0.005905547 0.041012146 -0.0069214385 0.0030725345 -0.020521114
00000000: 18b6 fabb a6eb 86bb 302f 7f3a 8e53 95bc
00000010: 3eb4 a4bb 5f34 a5bc 0dc8 12bd fbdf f63a
00000020: 813f c6bb 3454 a73c 7b7d 6abc 5640 f1bc
00000030: a433 433b c73d fdbc 6c9b bc3c f80e 12bd
00000040: cb16 e73c a034 183c b8f0 2e3d 896a c6ba
00000050: af8f abbc 6f7d d0bb c909 b83c b2ab 6a3d
00000060: 475a cebc 6667 7fbc 27a2 ad3c 5283 c1bb
00000070: 5afc 273d 3ccd e2bb 935c 493b e51b a8bc

encoder.ln1.weight f4 [32]
1.0101178 0.96099955 0.9562426 1.0038863 0.9423227 0.9851251 1.0053176 1.0134422
1.0123591 0.97537845 0.95044696 1.0335741 1.0116885 0.99134266 1.0267667 0.9276814
1.0159373 0.983546 0.95118695 0.9948952 1.0181696 1.0149902 1.0562177 1.0595254
1.0249333 1.0311489 0.98839563 1.0363258 0.9270134 1.0077122 1.026309 1.0004294
00000000: 8a4b 813f 1104 763f 51cc 743f 597f 803f
00000010: 0f3c 713f 2931 7c3f 3fae 803f 79b8 813f
00000020: fc94 813f 67b2 793f 7e50 733f 284c 843f
00000030: 027f 813f a2c8 7d3f 176d 833f 877c 6d3f
00000040: 3c0a 823f acc9 7b3f fd80 733f 74b1 7e3f
00000050: 6253 823f 33eb 813f 2432 873f 879e 873f
00000060: 0431 833f b0fc 833f 7f07 7d3f 53a6 843f
00000070: c050 6d3f b7fc 803f 185e 833f 120e 803f

encoder.ln1.bias f4 [32]
-0.027010184 -0.015488215 -0.0045703244 -0.023445165 -0.0033363118 -0.009409212 -0.054803908 -0.03585359
-0.010279703 0.043370448 0.0016625774 -0.049281012 0.017704979 -0.029490389 0.019763049 -0.03523345
0.050348245 0.028390463 0.04323341 -0.006810002 -0.03629836 0.00024150203 0.020735968 0.066369854
-0.033090055 -0.008009987 0.021807142 0.018672202 0.055197302 0.010485769 0.0005147051 -0.003867476
00000000: 7644 ddbc 48c2 7dbc a9c2 95bb 1310 c0bc
00000010: 06a6 5abb 1829 1abc 107a 60bd 37db 12bd
00000020: 336c 28bc 36a5 313d d7ea d93a e3da 49bd
00000030: 080a 913c d495 f1bc 1ee6 a13c f350 10bd
00000040: f639 4e3d 1e93 e83c 8415 313d 7026 dfbb
00000050: 97ad 14bd b53b 7d39 7ade a93c ebec 873d
00000060: 7089 07bd 523c 03bc e4a4 b23c 72f6 983c
00000070: 9116 623d 81cc 2b3c 46ed 063a 7b75 7dbb

encoder.ln2.weight f4 [32]
1.0078368 0.986341 0.9782363 1.0282692 0.9228117 0.98594123 1.0364168 1.0007298
1.0089889 0.97611797 0.967663 1.0229957 1.0125564 0.98328733 1.0394924 0.95125
1.0081764 0.9955452 0.9958316 1.0130488 0.99626046 1.0148574 1.0545133 1.0842142
1.0123867 0.9951293 0.9974629 1.0299572 0.9560595 1.0354168 1.0354868 0.9808987
00000000: cc00 813f d880 7c3f b26d 7a3f 539e 833f
00000010: 633d 6c3f a566 7c3f 4ea9 843f ea17 803f
00000020: 8c26 813f dee2 793f c3b8 773f 86f1 823f
00000030: 739b 813f b8b8 7b3f 160e 853f 1f85 733f
00000040: ed0b 813f 0ddc 7e3f d2ee 7e3f 95ab 813f
00000050: ed0a 7f3f d9e6 813f 4bfa 863f 88c7 8a3f
00000060: e395 813f cbc0 7e3f bb59 7f3f a3d5 833f
00000070: 51c0 743f 8a88 843f d58a 843f 2d1c 7b3f

encoder.ln2.bias f4 [32]
-0.019927036 -0.007866858 -0.008543743 -0.04877016 -0.019331265 -0.025501747 -0.0496322 -0.007272165
-0.017348776 0.028983545 -0.032351814 -0.0434949 -0.0030903872 -0.046305384 0.025169449 -0.06631141
0.021344773 0.007833971 0.05936376 -0.0038939696 -0.03222659 -0.01600712 0.020440852 0.07650208
-0.043436024 -0.03108833 0.02898733 -0.011619153 0.06827975 0.001020297 -0.0061921226 -0.029250884
00000000: 063e a3bc fee3 00bc 0efb 0bbc 38c3 47bd
00000010: 9a5c 9ebc 0ae9 d0bc 224b 4bbd 574b eebb
00000020: 051f 8ebc e66e ed3c 5683 04bd b527 32bd
00000030: 1888 4abb b7aa 3dbd 2930 ce3c 47ce 87bd
00000040: 3cdb ae3c 0e5a 003c 6a27 733d f831 7fbb
00000050: 0700 04bd 5d21 83bc 9373 a73c 1fad 9c3d
00000060: f9e9 31bd f4ac febc d676 ed3c 435e 3ebc
00000070: 41d6 8b3d 7cbb 853a 4ae7 cabb 8d9f efbc

decoder.output_head.weight f4 [24, 32]
-0.13552958 0.15368418 -0.0832265 0.04215608 -0.05725908 0.056825098 0.002201767 0.18027855
-0.014754389 0.15467022 0.007576665 0.080081955 0.09306037 -0.15341094 0.052789006 -0.035170045
-0.06254346 -0.09279491 0.039025865 -0.18296345 0.011718301 0.10293454 0.056908432 -0.039468482
-0.09174026 -0.020614913 0.14373308 -0.078257784 0.05051734 -0.04614343 0.07058912 -0.084513694
-0.07251898 -0.12771681 -0.09403868 0.051095568 0.060603462 -0.08112258 -0.065088704 0.09227885
-0.15452187 0.10415648 -0.0952629 -0.012834451 -0.04079456 0.030438595 0.1496955 -0.04041014
-0.08868657 0.13799354 -0.14110535 0.121694475 -0.04650276 0.087836586 0.1127042 -0.13911042
-0.10102029 -0.10638991 -0.14112204 -0.009177738 -0.16061977 -0.17499615 -0.085307494 -0.17516643
-0.13580278 0.037586868 0.0749701 -0.13475521 -0.06667654 0.015016687 0.03326918 -0.007510673
0.17253238 -0.046333965 0.1432213 -0.11267258 0.07447871 0.030603196 -0.10629928 0.14958829
0.007416001 0.13363062 0.0831312 0.057278443 -0.0063485764 0.05959616 0.040232427 0.02587903
0.15216836 -0.034601428 0.05274393 -0.07504843 -0.108294114 -0.018362282 0.19490361 0.21291459
-0.115070224 0.049745813 0.18882017 -0.17585546 0.14785002 0.121440075 -0.057567947 -0.00047515967
-0.03237954 -0.06814842 -0.039343927 0.17988963 -0.04582909 -0.023123557 -0.14171019 0.0056109345
0.13581644 -0.0014439475 -0.08423801 -0.033184465 0.06524979 0.018077955 0.006043714 0.13861942
0.121320106 -0.0040639457 0.04699276 0.0014637305 -0.06106914 -0.08499596 0.26409864 0.028485686
-0.09548527 -0.09085093 -0.11875363 0.04720313 0.09200501 0.16685611 0.10079224 0.12375138
-0.06367464 0.12186944 -0.08639833 -0.12524912 0.15679221 -0.042962767 -0.111369595 -0.078742154
0.028678358 -0.15010849 0.012263155 -0.15825105 -0.13893564 -0.05615032 0.054965436 0.036027566
-0.11255728 -0.11533545 0.094905876 -0.11339391 0.11000218 0.06641479 0.13516991 -0.15148199
-0.14793861 0.13526504 0.14235486 -0.014830145 -0.122263946 -0.16560353 0.062906995 0.043036427
0.0918103 0.107285626 -0.007552976 0.0937451 0.20039527 0.08901637 -0.07113244 0.09620535
-0.11557012 -0.1872516 -0.0811488 0.07718398 -0.14506385 -0.1266326 -0.2259743 0.05189498
-0.15878065 0.021065572 0.08839628 0.20858866 -0.058325507 0.008645636 0.009546596 -0.14067002
0.09352316 -0.05366248 -0.10478153 -0.10249196 -0.08072194 -0.009262854 0.0046884045 -0.032367535
0.041123964 0.12382611 -0.11332162 0.14006522 0.019506732 0.049341142 0.14843453 0.048239946
-0.061945703 0.09880839 0.05999786 0.08274039 -0.11893215 0.058018878 0.13384484 -0.0107535655
0.17764208 0.12235319 0.061079238 0.03495525 -0.06116194 -0.12409621 -0.025784414 0.12982483
-0.15248007 0.05321614 0.004118056 0.10373545 -0.15329885 -0.09966256 -0.083651826 -0.036515247
-0.12187492 0.035967484 0.007362154 0.17902224 0.06714295 -0.08941796 0.022851087 0.02383689
-0.032683015 8.700671e-05 -0.108933315 -0.09331903 -0.07939483 0.029796144 0.18898109 -0.040541667
-0.18084055 -0.09076394 0.16338772 -0.19684234 -0.1346153 0.02677611 0.013552763 -0.15621175
00000000: 44c8 0abe 635f 1d3e a872 aabd dbab 2c3d
00000010: 7f88 6abd 6fc1 683d 854b 103b f19a 383e
00000020: 65bc 71bc df61 1e3e ac45 f83b 0202 a43d
00000030: 6f96 be3d c217 1dbe 4939 583d 770e 10bd
00000040: c916 80bd 420b bebd 96d9 1f3d c55a 3bbe
00000050: 1efe 3f3c 58cf d23d d118 693d b4a9 21bd
00000060: 51e2 bbbd 9be0 a8bc c42e 133e 9e45 a0bd
00000070: 45eb 4e3d e500 3dbd 0791 903d 8415 adbd
00000080: d584 94bd 32c8 02be 5a97 c0bd 9649 513d
00000090: 563b 783d 9823 a6bd 3a4d 85bd b2fc bc3d
000000a0: fb3a 1ebe fe4f d53d 3219 c3bd 9747 52bc
000000b0: 3218 27bd 5c5a f93c c749 193e 1a85 25bd
000000c0: 4ea1 b5bd 2e4e 0d3e ec7d 10be f43a f93d
000000d0: ae79 3ebd abe3 b33d 76d1 e63d f672 0ebe
000000e0: bae3 cebd f4e2 d9bd 4c82 10be 395e 16bc
000000f0: 8279 24be 3132 33be b2b5 aebd d45e 33be
00000100: e20f 0bbe b0f4 193d ec89 993d 45fd 09be
00000110: b68d 88bd 8d08 763c 4445 083d 171c f6bb
00000120: 54ac 303e afc8 3dbd 9ba8 123e e2c0 e6bd
00000130: 4b88 983d 8eb3 fa3c 70b3 d9bd ac2d 193e
00000140: ed01 f33b 77d6 083e b140 aa3d cd9c 6a3d
00000150: b807 d0bb 1a1b 743d c2ca 243d 4200 d43c
00000160: 06d2 1b3e 3aba 0dbd 050a 583d feb2 99bd
00000170: 4ec9 ddbd 7f6c 96bc d094 473e 4806 5a3e
00000180: f0a9 ebbd 44c2 4b3d 135a 413e 7413 34be
00000190: ff65 173e 93b5 f83d 5ecc 6bbd da1e f9b9
000001a0: 69a0 04bd 6691 8bbd 1927 21bd fd34 383e
000001b0: 49b7 3bbd 9d6d bdbc 7a1c 11be eedb b73b
000001c0: 7713 0b3e d742 bdba fa84 acbd 6fec 07bd
000001d0: afa1 853d 3818 943c 590a c63b 40f2 0d3e
000001e0: ad76 f83d d92a 85bb 7b7b 403d a5da bf3a
000001f0: a223 7abd 5d12 aebd f037 873e d05a e93c
00000200: c88d c3bd 0d10 babd 1a35 f3bd 1258 413d
00000210: 1f6d bc3d 54dc 2a3e 296c ce3d 5d71 fd3d
00000220: da67 82bd af96 f93d 9cf1 b0bd 4e41 00be
00000230: 238e 203e baf9 2fbd be15 e4bd 9143 a1bd
00000240: e0ee ea3c 0ab6 19be 66eb 483c 900c 22be
00000250: 2545 0ebe e1fd 65bd 7023 613d a491 133d
00000260: 6e84 e6bd fe34 ecbd 035e c23d 113b e8bd
00000270: d348 e13d 7a04 883d fb69 0a3e 181e 1bbe
00000280: 387d 17be eb82 0a3e 79c5 113e 23fa 72bc
00000290: 8565 fabd f993 29be 62d5 803d f746 303d
000002a0: 0a07 bc3d 91b8 db3d f47e f7bb 6efd bf3d
000002b0: 6b34 4d3e 374e b63d e2ad 91bd 4f07 c53d
000002c0: 07b0 ecbd e2be 3fbe 5831 a6bd a212 9e3d
000002d0: 9e8b 14be faab 01be cf65 67be d58f 543d
000002e0: 6597 22be b591 ac3c 1c09 b53d 4498 553e
000002f0: bae6 6ebd 6da6 0d3c 5369 1c3c cd0b 10be
00000300: 1289 bf3d 30cd 5bbd b397 d6bd 4ee7 d1bd
00000310: 8b51 a5bd 3ac3 17bc 30a1 993b d293 04bd
00000320: 9a71 283d 8b98 fd3d 2a15 e8bd 426d 0f3e
00000330: 95cc 9f3c f019 4a3d 39ff 173e 4097 453d
00000340: c7ba 7dbd 0e5c ca3d 51c0 753d cb73 a93d
00000350: b392 f3bd 34a5 6d3d 9f0e 093e b92f 30bc
00000360: cee7 353e 4f94 fa3d 392e 7a3d 3c2d 0f3d
00000370: f184 7abd 2726 febd d639 d3bc cdf0 043e
00000380: bc23 1cbe 2bf9 593d c2f0 863b 4073 d43d
00000390: 60fa 1cbe e21b ccbd a651 abbd 0391 15bd
000003a0: 8f99 f9bd a452 133d 393e f13b 9b51 373e
000003b0: 3e82 893d c320 b7bd 3432 bb3c 9545 c33c
000003c0: a0de 05bd 5f77 b638 6e18 dfbd 0c1e bfbd
000003d0: c299 a2bd 0b17 f43c 4284 413e 050f 26bd
000003e0: 442e 39be 72e2 b9bd 1c4f 273e 0a91 49be
000003f0: 98d8 09be 9359 db3c 680c 5e3c f9f5 1fbe

decoder.output_head.bias f4 [24]
0.06421618 0.17192732 -0.028849408 0.09854 -0.14581013 0.010783398 0.1177445 -0.04819782
0.034471028 -0.19689137 0.13111472 -0.14242373 0.068510585 -0.14541017 -0.18755347 -0.19121225
-0.12239081 -0.18646209 0.07750845 0.053106938 -0.12647676 -0.046689704 0.10923352 0.043980345
00000000: c683 833d b70d 303e 9855 ecbc 57cf c93d
00000010: 404f 15be d9ac 303c 0724 f13d 146b 45bd
00000020: 7e31 0d3d e49d 49be f042 063e 87d7 11be
00000030: 474f 8c3d 67e6 14be 040e 40be 25cd 43be
00000040: 08a8 fabd ebef 3ebe c0bc 9e3d a986 593d
00000050: 2083 01be b43d 3fbd d3b5 df3d bc24 343d
